checkpoints/ablation_eps_0.20/ablation_eps_0.20_epoch0005.pt (torch, 38267 bytes, 24 tensors)

0.weight f4 [32, 2]
0.5286856 0.57074404 -0.18682003 0.6581233 -0.13422331 0.16922745 -0.33202466 0.4000524
0.60456127 -0.5064051 0.6271215 0.16076952 0.5074354 0.068096496 0.3328936 -0.087022126
0.5485682 0.094825596 -0.29065928 0.14128652 -0.2863511 -0.045458958 -0.29031906 0.46298
-0.57190645 -0.34750742 -0.20280096 -0.4276958 0.06761932 -0.68792534 0.6307556 -0.5878426
0.54819703 0.13393226 -0.21969324 0.43349716 0.11145438 0.58573383 0.08324152 -0.22603956
0.16294883 -0.20677233 0.27841657 0.62243974 0.38473144 -0.3310956 0.40489143 0.1121741
0.37110186 -0.44127128 -0.70342684 -0.294922 -0.50864077 0.60481113 0.18277669 0.28015515
0.21393597 -0.024278179 0.5313547 -0.52884334 0.04540349 -0.4823699 0.22311696 -0.2462363
00000000: f157 073f 481c 123f c04d 3fbe c57a 283f
00000010: d671 09be f649 2d3e 23ff a9be abd3 cc3e
00000020: 87c4 1a3f c4a3 01bf 098b 203f c4a0 243e
00000030: 49e7 013f 2d76 8b3d 0871 aa3e a838 b2bd
00000040: f76e 0c3f ec33 c23d 4bd1 94be 6aad 103e
00000050: 9d9c 92be 2c33 3abd b3a4 94be b70b ed3e
00000060: 7668 12bf 7eec b1be 0eab 4fbe f2fa dabe
00000070: ff7b 8a3d e01b 30bf 3379 213f da7c 16bf
00000080: a456 0c3f 8a25 093e 44f7 60be 57f3 dd3e
00000090: 3242 e43d a7f2 153f 887a aa3d ea76 67be
000000a0: 0fdc 263e 20bc 53be 9e8c 8e3e 3658 1f3f
000000b0: 85fb c43e 5d85 a9be ee4d cf3e 89bb e53d
000000c0: 1001 be3e 4fee e1be c813 34bf 0400 97be
000000d0: 4836 02bf e7d4 1a3f d029 3b3e 7f70 8f3e
000000e0: 0812 5b3e 08e3 c6bc dd06 083f 4762 07bf
000000f0: 03f9 393d 30f9 f6be c678 643e 5e25 7cbe

0.bias f4 [32]
0.21594742 -0.12930185 0.58869225 -0.4192877 -0.43403402 -0.39805782 0.64883566 0.23622492
0.6625906 -0.54387116 -0.66162384 -0.53900224 -0.443912 0.30662212 0.25125545 0.5796203
-0.35838532 -0.48097733 0.38833624 -0.27999923 0.42592278 -0.17776431 0.39604825 -0.5398964
-0.3392458 0.222865 0.15511061 -0.19426672 0.42647892 0.4982908 -0.50893795 -0.37044132
00000000: 5221 5d3e b467 04be 89b4 163f e1ac d6be
00000010: b539 debe 3cce cbbe 181a 263f f2e4 713e
00000020: 8a9f 293f 243b 0bbf 2e60 29bf 0dfc 09bf
00000030: 6f48 e3be 93fd 9c3e 8ea4 803e ff61 143f
00000040: 487e b7be a942 f6be 02d4 c63e 0f5c 8fbe
00000050: 8d12 da3e d907 36be d6c6 ca3e a736 0abf
00000060: a0b1 adbe b936 643e 51d5 1e3e dbed 46be
00000070: 725b da3e f91f ff3e c249 02bf 7caa bdbe

2.weight f4 [32, 32]
0.12304383 -0.023479983 -0.026263442 -0.13215555 -0.063233666 0.009896413 0.0022961635 -0.08984227
3.0959593e-05 -0.08238399 -0.11125592 -0.059437286 -0.11595306 -0.07432806 0.13777639 0.0019411762
0.018789325 -0.12602948 -0.07780818 -0.022739526 -0.001083573 -0.11677822 -0.03898009 -0.06772877
-4.6307854e-05 -0.029156953 -0.00051431224 -0.0814352 -0.08296081 -0.0650879 -0.024269594 -0.10091248
0.14790894 -0.03281131 0.1570111 0.06535278 -0.11097582 0.102702 -0.046697173 -0.062876776
-0.14458384 -0.13681965 0.015341675 -0.02807723 0.06240655 -0.14134708 0.10097845 -0.11644416
-0.040503964 0.041564144 0.09378544 0.10406522 0.16416143 -0.14166786 0.052186202 -0.038854044
0.0022392066 -0.12042134 0.16563077 -0.13419755 0.09716817 0.07367026 0.021467224 -0.057712417
0.16576268 0.03685885 0.025674067 -0.14537957 0.060531285 -0.023090195 -0.07530757 0.15530929
0.044903707 -0.05988771 -0.0517866 -0.0052061155 0.0661579 -0.060699336 -0.11930192 -0.060431857
-0.12814884 0.06056365 0.14948797 -0.128973 0.040357307 0.09983689 0.033292692 -0.05906398
0.07638356 0.07426868 0.06935382 -0.015244774 -0.043536276 0.018874852 -0.0068427674 -0.06495636
0.11556902 0.14957954 -0.019984622 -0.046428133 -5.7784207e-05 0.00047536253 0.044915147 0.051962927
-0.15711509 -0.028650768 0.11015853 0.059839107 -0.0031270413 -0.115676284 -0.07000384 -0.13466057
-0.026966143 0.05370596 0.11203011 0.044201184 -0.15103258 -0.10217363 -0.0212072 0.13211253
-0.001808094 -0.06407818 0.06919711 -0.061231196 -0.11218339 0.09839954 -0.043012984 -0.0032810417
-0.17480972 0.114974685 0.12278466 0.062119547 -0.084855236 -0.13555169 -0.15395415 0.106470145
0.07247093 0.110049106 0.05482807 0.04152992 0.008815922 -0.1437877 -0.15134162 -0.18040414
0.03536152 -0.075748645 -0.044520974 -0.06372333 -0.045393884 -0.118234605 -0.13127463 0.022554664
-0.017064357 0.1012721 -0.06254949 -0.10517741 -0.04308024 -0.10297154 -0.018438756 -0.12941778
0.10859534 -0.13258165 0.08296765 0.06110413 0.10461926 -0.10554236 0.135644 -0.06493023
0.074339285 0.1271576 0.0019816172 -0.015800508 -0.0071319453 -0.13062254 0.070307314 -0.1590408
0.13607773 0.10896736 0.16695248 -0.0079142675 -0.13614722 0.05049118 0.11184135 -0.1428623
-0.03524445 -0.11966467 -0.030362153 -0.059846073 -0.065549165 -0.040359434 -0.1291209 0.10591673
0.13024496 -0.03800251 -0.020396242 -0.07423373 -0.13974264 -0.18176301 0.058533475 -0.093356505
-0.120858915 0.00016552075 -0.02276462 -0.058011547 0.039406255 -0.01429352 -0.038592197 -0.072108746
-0.1536263 0.13827898 -0.09133034 0.054441065 -0.04861237 -0.006171442 0.17570364 0.07597643
-0.13529775 0.097472236 0.16198988 0.024066426 0.12079533 0.18674108 -0.018310193 0.05060925
-0.121421486 -0.034935877 0.12971388 0.09044169 -0.07364264 -0.1031163 -0.11154736 -0.14267123
-0.12691472 -0.009534461 0.08095627 0.030670509 -0.16181222 -0.15264872 0.06582516 -0.121848315
0.0024246175 0.08297388 -0.07586226 0.0022216928 -0.015884232 -0.040368784 -0.07793577 -0.11879674
-0.10424829 -0.10690336 0.16917805 -0.07131812 -0.11427106 0.05043563 0.013732898 0.058963023
00000000: 67fe fb3d 1859 c0bc 6e26 d7bc c953 07be
00000010: a780 81bd 9124 223c 3b7b 163b 39ff b7bd
00000020: 9cda 0138 f0b8 a8bd 25da e3bd 8374 73bd
00000030: cc78 edbd 4f39 98bd 4115 0d3e 116f fe3a
00000040: 12ec 993c df0d 01be e559 9fbd 3e48 babc
00000050: ad06 8eba 6b29 efbd 96a9 1fbd 62b5 8abd
00000060: ae3a 42b8 90da eebc e9d2 06ba 80c7 a6bd
00000070: 5be7 a9bd ce4c 85bd 07d1 c6bc 34ab cebd
00000080: 7175 173e 2765 06bd 85c7 203e aed7 853d
00000090: 4a47 e3bd 6d55 d23d 8945 3fbd 8ac5 80bd
000000a0: c90d 14be 731a 0cbe a65b 7b3c 3802 e6bc
000000b0: 039e 7f3d 4abd 10be cacd ce3d 477a eebd
000000c0: 7ce7 25bd 2a3f 2a3d 9512 c03d 2520 d53d
000000d0: ef19 283e 6111 11be 33c1 553d 6b25 1fbd
000000e0: a7bf 123b 779f f6bd 1d9b 293e 156b 09be
000000f0: 1b00 c73d 6fe0 963d 08dc af3c db63 6cbd
00000100: b1bd 293e 4ef9 163d 6c52 d23c 62de 14be
00000110: a7ef 773d a627 bdbc db3a 9abd 6609 1f3e
00000120: f3ec 373d d14c 75bd 301e 54bd 1098 aabb
00000130: cb7d 873d de9f 78bd 9154 f4bd 6587 77bd
00000140: 7339 03be 9711 783d 6013 193e 8011 04be
00000150: b44d 253d 4977 cc3d eb5d 083d 12ed 71bd
00000160: fc6e 9c3d 2d1a 983d 6009 8e3d 37c5 79bc
00000170: 1853 32bd 6f9f 9a3c 4b39 e0bb d707 85bd
00000180: 73af ec3d 612b 193e cab6 a3bc 6d2b 3ebd
00000190: 525d 72b8 143a f939 f2f8 373d 14d7 543d
000001a0: c7e2 20be 04b5 eabc cc9a e13d da19 753d
000001b0: 0cef 4cbb b0e7 ecbd 2c5e 8fbd 76e4 09be
000001c0: 1ae8 dcbc c8fa 5b3d 0b70 e53d 4d0c 353d
000001d0: 49a8 1abe 6840 d1bd b9ba adbc 8248 073e
000001e0: 91fd ecba 6c3b 83bd 37b7 8d3d 90cd 7abd
000001f0: 68c0 e5bd b385 c93d 622e 30bd bf06 57bb
00000200: 5201 33be d977 eb3d 8676 fb3d 1171 7e3d
00000210: 95c8 adbd 10ce 0abe 28a6 1dbe 050d da3d
00000220: a46b 943d 6d61 e13d 6693 603d 471b 2a3d
00000230: a870 103c 153d 13be 4cf9 1abe ddbb 38be
00000240: 3ed7 103d 1b22 9bbd a05b 36bd 6181 82bd
00000250: f0ee 39bd fc24 f2bd db6c 06be 8fc4 b83c
00000260: 8dca 8bbc bf67 cf3d f219 80bd 4167 d7bd
00000270: e874 30bd bee2 d2bd e00c 97bc 1886 04be
00000280: 3c67 de3d 7cc3 07be f1ea a93d 5348 7a3d
00000290: 9f42 d63d 9826 d8bd 43e6 0a3e 24fa 84bd
000002a0: 323f 983d 9a35 023e 05de 013b 1170 81bc
000002b0: 18b3 e9bb eac1 05be 48fd 8f3d 97db 22be
000002c0: f657 0b3e 472a df3d 97f5 2a3e d8aa 01bc
000002d0: 2d6a 0bbe d7cf 4e3d 140d e53d 7f4a 12be
000002e0: 7c5c 10bd c012 f5bd 0dba f8bc 2821 75bd
000002f0: a43e 86bd ef4f 25bd 4538 04be dfea d83d
00000300: ef5e 053e 85a8 1bbd 0516 a7bc db07 98bd
00000310: b218 0fbe 1520 3abe ccc0 6f3d b231 bfbd
00000320: e184 f7bd a38f 2d39 de7c babc 849d 6dbd
00000330: 7468 213d 5e2f 6abc da12 1ebd c0ad 93bd
00000340: 3650 1dbe 0199 0d3e 670b bbbd 98fd 5e3d
00000350: c41d 47bd cf39 cabb a8eb 333e 8899 9b3d
00000360: 7e8b 0abe 869f c73d ade0 253e f426 c53c
00000370: 8b63 f73d 0e39 3f3e 42ff 95bc a54b 4f3d
00000380: d4ab f8bd ec18 0fbd b7d3 043e 7e39 b93d
00000390: f4d1 96bd a42e d3bd f172 e4bd 6818 12be
000003a0: eff5 01be 6e36 1cbc 67cc a53d b840 fb3c
000003b0: 1ab2 25be f24f 1cbe 57cf 863d 9c8b f9bd
000003c0: 55e6 1e3b 36ee a93d ac5d 9bbd d299 113b
000003d0: a61f 82bc bd59 25bd ca9c 9fbd b54b f3bd
000003e0: 2180 d5bd 26f0 dabd 033d 2d3e 3c0f 92bd
000003f0: f206 eabd 9795 4e3d f3ff 603c 3683 713d

2.bias f4 [32]
-0.0526474 -0.13899615 0.0076431013 -0.105193794 0.13330817 -0.1714955 0.08686267 0.17517574
0.089021124 0.065454155 -0.13119926 0.1766732 -0.018236784 -0.178601 0.1910332 -0.088527545
-0.0040701097 0.16289431 -0.13616881 -0.112830155 0.019654917 -0.021883538 0.048578538 -0.13253
0.006033259 -0.09028242 -0.1042432 -0.12303941 0.078980766 0.055168338 -0.12362868 0.14019904
00000000: cda4 57bd 0255 0ebe fb72 fa3b d86f d7bd
00000010: f081 083e 849c 2fbe 0ee5 b13d 4561 333e
00000020: b550 b63d d40c 863d 1959 06be d2e9 343e
00000030: 4f65 95bc 2ee3 36be 359e 433e ee4d b5bd
00000040: 8e5e 85bb c4cd 263e d66f 0bbe 7f13 e7bd
00000050: 5903 a13c 1b45 b3bc 4afa 463d f2b5 07be
00000060: a5b2 c53b fde5 b8bd 757d d5bd 16fc fbbd
00000070: abc0 a13d 32f8 613d 0931 fdbd 5690 0f3e

4.weight f4 [32, 32]
0.017758116 0.03359625 -0.085323706 0.023745641 0.17403531 0.13544638 -0.13209565 0.1587586
0.016605811 0.09201751 0.098709434 0.14659005 -0.13326803 0.16485539 -0.12568726 -0.0015591204
-0.11337075 -0.031681705 0.0049704053 0.0026227941 -0.04271056 0.018677354 0.1762836 0.06519317
0.08687874 0.08977356 0.13047141 -0.00054375676 0.023479765 0.047038827 -0.17650554 -0.15319669
-0.0024262327 -0.065759964 0.014062757 -0.039752223 0.03227385 0.1272299 -0.053034745 0.13442467
0.13986419 -0.11921949 -0.09793188 -0.14615203 -0.0930243 -0.050123405 -0.02113807 -0.054899674
-0.07825586 -0.049889874 -0.048888806 0.193252 -0.07851278 -0.11674296 0.0743967 -0.00092309096
0.122278586 0.12446257 0.14467715 -0.09097147 0.12052875 0.15717831 -0.10923566 0.14920133
0.09398776 -0.0034919889 0.073811345 -0.061826587 -0.12602215 0.03347377 0.04138645 -0.107511126
0.07670502 -0.13933401 0.11339735 0.1543083 0.03336301 -0.11267762 0.07330469 6.660621e-05
0.038831417 0.047222774 0.12135555 -0.085765 -0.011839403 0.040465444 0.008200874 0.10390207
-0.10343284 -0.019972509 0.0017191124 -0.012221396 0.11080491 0.011508864 -0.1245465 -0.03205488
-0.042818706 0.018635841 -0.004095654 -0.17473236 -0.026515223 -0.0025134715 -0.0464366 0.16069628
-0.035277538 0.12166536 0.00959502 -0.1533013 0.043173466 0.15900242 -0.123168334 -0.12648185
0.18189074 0.14813298 -0.08554099 0.12868401 -0.03615252 -0.16819373 0.015824294 0.030026136
-0.06455896 0.07631084 -0.150117 0.08411362 0.15974914 0.108795166 0.008347788 0.046227854
-0.08943448 -0.023557894 -0.040637407 -0.060441013 -0.09061324 0.092137955 0.120940216 -0.12157211
0.04901923 0.067358285 0.12906201 0.10918724 0.15956251 -0.07067594 0.13218461 0.15568364
-0.18244702 -0.13991043 0.020685019 0.065894686 -0.07191443 -0.0022560824 0.0056430046 0.010376773
-0.07970307 0.084366456 0.079239905 -0.08426027 0.002836319 -0.01662464 0.078000434 0.17974478
0.016450558 -0.056045584 0.18051566 -0.03055259 -0.043584514 0.034354065 -0.12900722 0.008384552
-0.13295306 0.038093295 -0.0015648785 0.018585972 -0.14721109 -0.15334947 0.07237207 0.13878462
-0.14154999 0.07386288 -0.114639 0.038272567 0.15087363 0.095555015 -0.1354476 0.07117666
0.07927447 0.011353187 0.15094432 -0.03332239 -0.02434731 -0.07962723 0.0047654808 0.036555387
-0.0003053352 -0.06150183 -0.09308236 0.023921141 -0.113822564 -0.050329823 0.011771649 -0.035613205
0.08994595 0.009485434 0.08568976 0.006214153 -0.10753043 0.1068495 0.03980567 -0.03853347
-0.076856524 0.06319595 -0.15675396 0.022164138 0.10434435 -0.11630147 -0.09675127 -0.088628516
0.17052904 0.14434925 0.00087751105 0.12710342 -0.02642012 -0.17180115 0.08421835 0.08455141
0.13440035 2.0178702e-05 0.096913345 0.07020463 0.08947302 -0.13649854 0.10689033 -0.111966245
0.11968599 -0.00012231614 -0.117881574 0.014111043 -0.0036544031 -0.119980864 -0.027580017 -0.0019808793
0.09908868 -0.01867387 0.06691529 -0.0024113096 -0.00047221882 0.0022174027 -0.077720396 -0.10824499
-0.019749634 -0.12588383 -0.044992503 0.00053226313 -0.07812719 -0.036273427 -0.00096331467 0.002374167
00000000: 7879 913c 399c 093d 32be aebd 3886 c23c
00000010: 5036 323e 75b2 0a3e 1544 07be 9d91 223e
00000020: e908 883c ad73 bc3d 2c28 ca3d b41b 163e
00000030: 6a77 08be dacf 283e 29b4 00be 665b ccba
00000040: ec2e e8bd adc4 01bd c8de a23b 2fe3 2b3b
00000050: 45f1 2ebd 4001 993c b083 343e ff83 853d
00000060: 7bed b13d 33db b73d 4c9a 053e e68a 0eba
00000070: a358 c03c c9ab 403d debd 34be 98df 1cbe
00000080: 6e01 1fbb 29ad 86bd 7a67 663c 3ad3 22bd
00000090: 9631 043d 8e48 023e f63a 59bd 9fa6 093e
000000a0: 8f38 0f3e 5929 f4bd 8290 c8bd e1a8 15be
000000b0: 8683 bebd 334e 4dbd bf29 adbc 7bde 60bd
000000c0: 9c44 a0bd 5359 4cbd a13f 48bd dae3 453e
000000d0: 4fcb a0bd ef16 efbd 4c5d 983d 96fb 71ba
000000e0: 326d fa3d 3be6 fe3d 3f26 143e 404f babd
000000f0: c7d7 f63d 5af3 203e f2b6 dfbd 3cc8 183e
00000100: a87c c03d dad9 64bb 672a 973d e03d 7dbd
00000110: f30b 01be cb1b 093d d784 293d cb2e dcbd
00000120: 8617 9d3d 93ad 0ebe df3c e83d ff02 1e3e
00000130: a7a7 083d 86c3 e6bd c520 963d f0ae 8b38
00000140: b10d 1f3d ab6c 413d 4289 f83d 8fa5 afbd
00000150: 0efa 41bc 18bf 253d f55c 063c 9cca d43d
00000160: 99d4 d3bd 639d a3bc d753 e13a 403c 48bc
00000170: afed e23d ad8f 3c3c 3c12 ffbd fa4b 03bd
00000180: ab62 2fbd 31aa 983c d634 86bb 0aed 32be
00000190: 7436 d9bc 0eb9 24bb 4e34 3ebd 918d 243e
000001a0: 2e7f 10bd b02b f93d 6e34 1d3c 04fb 1cbe
000001b0: a9d6 303d 88d1 223e ae3f fcbd 7584 01be
000001c0: 9141 3a3e 2cb0 173e 1d30 afbd bec5 033e
000001d0: aa14 14bd fa3a 2cbe f3a1 813c 5ff9 f53c
000001e0: 7d37 84bd dc48 9c3d 45b8 19be c343 ac3d
000001f0: 4795 233e 00d0 de3d 29c5 083c 6b59 3d3d
00000200: 6d29 b7bd 7cfc c0bc 6973 26bd ff90 77bd
00000210: 6f93 b9bd d3b2 bc3d 81af f73d ccfa f8bd
00000220: 63c8 483d 24f3 893d d528 043e 8f9d df3d
00000230: 5b64 233e 8cbe 90bd 675b 073e 886b 1f3e
00000240: 64d3 3abe ae44 0fbe a173 a93c cbf3 863d
00000250: df47 93bd c8da 13bb f4e8 b83b 5703 2a3c
00000260: 5d3b a3bd 52c8 ac3d 8848 a23d a690 acbd
00000270: 89e1 393b 6630 88bc b1be 9f3d 040f 383e
00000280: 52c3 863c 0e90 65bd 19d9 383e 6d49 fabc
00000290: ad85 32bd d9b6 0c3d 781a 04be 5c5f 093c
000002a0: d924 08be b707 1c3d 9c1c cdba 9c41 983c
000002b0: 81be 16be a507 1dbe cf37 943d 8e1d 0e3e
000002c0: 7bf2 10be 6c45 973d dac7 eabd b2c3 1c3d
000002d0: 9e7e 1a3e 59b2 c33d c7b2 0abe 12c5 913d
000002e0: a75a a23d b802 3a3c 2691 1a3e 0f7d 08bd
000002f0: 0374 c7bc 9a13 a3bd c027 9c3b 1abb 153d
00000300: 6615 a0b9 58e9 7bbd f7a1 bebd 45f6 c33c
00000310: ce1b e9bd a526 4ebd e0dd 403c 27df 11bd
00000320: 9535 b83d cb68 1b3c 1d7e af3d 18a0 cb3b
00000330: ea38 dcbd e9d3 da3d 450b 233d 46d5 1dbd
00000340: f466 9dbd e16c 813d 1c84 20be 9191 b53c
00000350: 7eb2 d53d 772f eebd 8825 c6bd de82 b5bd
00000360: 2a9f 2e3e 4ad0 133e c508 663a 6627 023e
00000370: 026f d8bc a4ec 2fbe ac7a ac3d 4a29 ad3d
00000380: 3fa0 093e 6f45 a937 817a c63d 72c7 8f3d
00000390: a13d b73d 46c6 0bbe 51e9 da3d 8f4e e5bd
000003a0: ee1d f53d fd41 00b9 e56b f1bd 0132 673c
000003b0: b67e 6fbb 87b8 f5bd 7def e1bc a4d1 01bb
000003c0: 02ef ca3d f2f9 98bc e20a 893d 1007 1ebb
000003d0: 2394 f7b9 d851 113b df2b 9fbd 8daf ddbd
000003e0: fcc9 a1bc b1e7 00be 0f4a 38bd 9387 0b3a
000003f0: 2601 a0bd 7293 14bd f486 7cba ea97 1b3b

4.bias f4 [32]
0.08514528 0.047173787 -0.078991465 0.107431896 -0.045671448 -0.013079919 -0.046508364 -0.12881687
0.02840757 0.051206436 -0.051331412 0.10822066 -0.119781405 -0.13152047 -0.090832956 -0.038936287
0.0022826458 -0.03620884 0.0772127 -0.11637596 0.021150896 0.0029775093 0.060486987 0.1753363
0.1085819 -0.059961498 -0.106189445 -0.059272986 -0.051013883 0.064989984 0.0014988523 0.14248632
00000000: a660 ae3d 4d39 413d 47c6 a1bd 4105 dc3d
00000010: fc11 3bbd 284d 56bc 8e7f 3ebd 92e8 03be
00000020: feb6 e83c d7bd 513d e340 52bd cba2 dd3d
00000030: f44f f5bd 4dad 06be a106 babd a87b 1fbd
00000040: 7198 153b b84f 14bd b121 9e3d 8556 eebd
00000050: a544 ad3c 5122 433b 34c1 773d 5c8b 333e
00000060: 3060 de3d 309a 75bd da79 d9bd 3bc8 72bd
00000070: eff3 50bd 7819 853d 2375 c43a efe7 113e

6.weight f4 [2, 32]
0.078593604 -0.025788775 0.01673896 0.05216821 -0.02687787 0.13111733 -0.16248877 0.048582003
-0.10272142 -0.14674014 -0.0038694772 0.09297549 0.08647339 0.010061585 0.0073363706 -0.03338324
-0.034694538 -0.014033618 -0.012120892 0.11170526 0.093311585 -0.13961114 -0.01094687 -0.11173341
-0.019694969 -0.10187183 0.011384054 -0.14241438 0.13560107 0.1268179 -0.120209016 -0.16867699
-0.0023158002 -0.056028992 0.04114109 -0.1294663 0.07726136 -0.14115448 -0.06878413 -0.05514274
0.075592406 -0.012538848 -0.131003 -0.107787065 -0.044384692 -0.12517789 -0.002748377 0.08643954
-0.0013568442 -0.072106585 -0.001161391 -0.10178677 -0.097380966 -0.0058282427 0.1684892 -0.051289886
0.07922579 -0.032717597 -0.012312493 -0.15312201 0.10777006 0.17835991 -0.005146103 0.11459155
00000000: aff5 a03d fb42 d3bc 2520 893c 55ae 553d
00000010: fb2e dcbc 9f43 063e 7563 26be ecfd 463d
00000020: 9c5f d2bd 0c43 16be 0e97 7dbb ef69 be3d
00000030: f618 b13d 59d9 243c f065 f03b ddbc 08bd
00000040: dc1b 0ebd 43ed 65bc b596 46bc bac5 e43d
00000050: 251a bf3d 39f6 0ebe 805a 33bc 7cd4 e4bd
00000060: 5857 a1bc 2ea2 d0bd 2f84 3a3c 13d5 11be
00000070: 02db 0a3e 8ddc 013e 2530 f6bd a9b9 2cbe
00000080: aec4 17bb a87e 65bd 8f83 283d d092 04be
00000090: 343b 9e3d cd8a 10be b2de 8cbd 5bdd 61bd
000000a0: 31d0 9a3d be6f 4dbc a725 06be 77bf dcbd
000000b0: b9cc 35bd a22e 00be 1d1e 34bb 3707 b13d
000000c0: 23d8 b1ba 9eac 93bd d139 98ba 9575 d0bd
000000d0: ac6f c7bd d8fa bebb 6f88 2c3e 5815 52bd
000000e0: 2241 a23d e302 06bd 57ba 49bc 04cc 1cbe
000000f0: 8db6 dc3d fba3 363e a4a0 a8bb f9ae ea3d

6.bias f4 [2]
0.1445181 0.08786831
00000000: 8efc 133e 4df4 b33d

exp_avg f4 [32, 2]
0.00024805547 -0.00024336767 0.00015391575 -4.425826e-05 -0.00015476649 -0.00020612018 -0.00014134633 6.9082256e-05
0.00032837462 0.00020515923 -1.3930472e-05 -0.00022743833 0.00080590823 0.0006203967 0.00024386049 4.882451e-05
-0.0001701166 -0.00046989208 -2.9538009e-05 1.4799634e-05 -2.9113231e-05 -5.291283e-06 0.00011722832 -3.39816e-05
0.0005226915 0.00048781742 6.386631e-05 0.00047098208 6.205529e-05 0.00027582207 0.0003869322 0.00025926894
0.000110837245 -1.8427525e-05 5.794282e-05 4.8978232e-05 0.00031124614 -0.00074851926 0.000108401175 -0.00017734064
0.0004305782 0.0006360488 5.8044458e-05 -5.7631838e-05 0.0010263873 0.001003132 -0.0003013566 2.7044018e-05
-2.472945e-07 -2.7295651e-05 0.0002450931 0.00030240804 -0.0005422212 -0.00067994976 0.000115706986 0.00021888013
-0.00014574101 -0.00017416617 0.001120421 0.0008681118 0.00016015678 -0.00044066546 0.00018030906 -0.0001772432
00000000: 710d 8239 8330 7fb9 7264 2139 f2a1 39b8
00000010: d048 22b9 f721 58b9 5e36 14b9 41e0 9038
00000020: b229 ac39 0320 5739 ecb6 69b7 837c 6eb9
00000030: 9643 533a 1ea2 223a cdb4 7f39 ebc8 4c38
00000040: 5461 32b9 d95b f6b9 64c8 f7b7 f24b 7837
00000050: 3038 f4b7 c68b b1b6 7ad8 f538 7787 0eb8
00000060: 3c05 093a bfc1 ff39 f7ef 8538 25ee f639
00000070: ae23 8238 369c 9039 29dd ca39 7dee 8739
00000080: 4b71 e838 cf94 9ab7 a107 7338 fa6d 4d38
00000090: c02e a339 4738 44ba 7055 e338 84f4 39b9
000000a0: 3abf e139 83bc 263a c374 7338 b7b9 71b8
000000b0: d887 863a 867b 833a 66ff 9db9 96dc e237
000000c0: e6c3 84b4 f7f8 e4b7 d77f 8039 858c 9e39
000000d0: d923 0eba a83e 32ba b7a7 f238 3083 6539
000000e0: 0ed2 18b9 60a0 36b9 17db 923a ff91 633a
000000f0: c2ef 2739 1e09 e7b9 5811 3d39 5cda 39b9

exp_avg_sq f4 [32, 2]
2.1716128e-08 2.6218538e-08 7.641356e-09 3.793823e-09 7.7693855e-08 4.5323137e-08 2.0542816e-09 1.180913e-09
7.121439e-08 1.0773013e-07 3.6613713e-08 1.1322072e-08 6.139711e-08 5.8668274e-08 1.5340975e-08 3.7321637e-08
1.7879609e-08 2.6745163e-08 3.7900592e-11 1.02029e-11 3.6856587e-11 1.6499757e-12 2.805876e-09 3.1177034e-09
8.733022e-09 7.2700113e-09 4.6422816e-08 1.7590986e-08 2.6805054e-08 1.2824235e-08 1.6040941e-08 8.150019e-08
1.0034025e-08 4.373247e-09 4.1266364e-09 1.2433857e-08 1.249087e-07 3.0416377e-08 3.4477048e-09 7.527647e-09
6.0016575e-08 1.10703404e-07 2.399648e-08 6.365596e-08 1.0895588e-07 2.475035e-07 4.1771897e-09 3.7635928e-10
1.5993591e-09 2.1658393e-09 9.633142e-09 2.3254444e-08 5.524903e-08 4.901302e-08 3.107518e-08 6.0588214e-08
1.9626162e-08 8.02291e-09 8.948505e-08 9.8144255e-08 3.300809e-09 1.7300692e-08 5.884705e-09 5.527939e-09
00000000: 458a ba32 2d37 e132 0a47 0332 d25a 8231
00000010: a6d8 a633 51a9 4233 4e2b 0d31 af4d a230
00000020: 86ee 9833 4459 e733 3441 1d33 0083 4232
00000030: 6bd9 8333 73fa 7b33 29c7 8332 934b 2033
00000040: ad95 9932 3cbd e532 46b0 262e c77d 332d
00000050: d418 222e a436 e82b 7ed1 4031 383f 5631
00000060: 3d08 1632 b2cb f931 6d62 4733 fd1a 9732
00000070: f040 e632 9551 5c32 67ca 8932 3405 af33
00000080: 1c62 2c32 7d43 9631 47ca 8d31 ae9c 5532
00000090: a41e 0634 29a3 0233 aaec 6c31 f152 0132
000000a0: 76e2 8033 d7bb ed33 d120 ce32 3cb3 8833
000000b0: 21fb e933 9fe0 8434 f386 8f31 dce7 ce2f
000000c0: 72d0 db30 d9d5 1431 027f 2532 10c1 c732
000000d0: f34a 6d33 6382 5233 8677 0533 b91c 8233
000000e0: 6396 a832 22d5 0932 ed2a c033 60c3 d233
000000f0: 72d4 6231 a09c 9432 6a32 ca31 44f0 bd31

exp_avg f4 [32]
-0.00045188004 -0.00024459235 -2.7134252e-05 3.194692e-05 -0.00015632015 -0.00045294393 -0.00025686505 -0.0001908272
-0.0001519806 -5.449556e-05 -6.6099026e-05 -0.00018955045 -0.0008221494 -0.00040566342 9.164055e-05 2.8708655e-05
0.0001742229 -7.230743e-05 -0.0008023048 0.00012573799 0.00024386351 -0.00011915559 9.962743e-05 -0.00029093574
-4.9479906e-05 -0.00024579282 1.7634542e-05 0.00024469104 0.00019722758 -0.00022582091 0.00031265308 0.00015571888
00000000: 50ea ecb9 a13c 80b9 5d9e e3b7 bffe 0538
00000010: dfe9 23b9 1b79 edb9 d8ab 86b9 c918 48b9
00000020: fb5c 1fb9 2992 64b8 a59e 8ab8 10c2 46b9
00000030: 8385 57ba 39af d4b9 252f c038 5ed3 f037
00000040: 9baf 3639 c2a3 97b8 c451 52ba 89d8 0339
00000050: 9db5 7f39 2ce3 f9b8 12ef d038 bc88 98b9
00000060: a588 4fb8 c1dd 80b9 e4ed 9337 e049 8039
00000070: e0ce 4e39 57ca 6cb9 96eb a339 7848 2339

exp_avg_sq f4 [32]
3.3210476e-08 1.2149802e-08 8.587492e-08 1.6680675e-09 9.4573195e-08 3.712982e-08 5.0291245e-08 2.9328938e-08
4.043634e-08 1.2484254e-10 1.8240998e-10 4.382349e-09 1.8945428e-08 4.3552152e-08 2.0636524e-08 3.3531556e-08
9.374284e-09 1.0373897e-08 1.6224729e-07 6.1002106e-09 7.821368e-08 5.992154e-08 1.7363197e-07 2.8295173e-09
3.6028227e-09 2.4434627e-08 5.0845728e-08 5.857154e-08 2.8831224e-08 1.2559595e-07 1.3159988e-08 6.835912e-09
00000000: 4ea3 0e33 65bb 5032 3d6a b833 e841 e530
00000010: 2a18 cb33 ab78 1f33 cfff 5733 04ef fb32
00000020: 3aac 2d33 0d44 092f d88f 482f 8d93 9631
00000030: 70bd a232 190e 3b33 3244 b132 5604 1033
00000040: 890c 2132 e238 3232 3236 2e34 059a d131
00000050: 6df6 a733 37ae 8033 986f 3a34 6571 4231
00000060: 8795 7731 50e4 d132 7861 5a33 1790 7b33
00000070: 88a8 f732 8ddb 0634 3d16 6232 51e1 ea31

exp_avg f4 [32, 32]
1.2996519e-05 -3.066412e-06 -3.3515494e-06 -1.3897301e-05 -7.066841e-06 1.639848e-06 -5.3529366e-08 -9.709891e-06
-1.44113255e-08 -8.970195e-06 -1.1830537e-05 -6.6885486e-06 -1.2295244e-05 -8.170347e-06 1.4452797e-05 7.2622447e-07
2.5819193e-06 -1.3291724e-05 -8.5160045e-06 -2.990296e-06 3.057497e-07 -1.2376866e-05 -4.640302e-06 -7.514272e-06
5.579907e-10 -3.6465394e-06 7.078344e-08 -8.876045e-06 -9.027429e-06 -7.251466e-06 -3.1474533e-06 -1.0806688e-05
6.0020626e-05 5.5250246e-05 8.6676024e-05 -1.278083e-06 -1.1802821e-05 6.317008e-06 3.2074488e-05 -1.8118912e-05
2.3362625e-05 -1.4358252e-05 2.2214188e-06 -7.751204e-06 1.1122906e-05 4.964009e-06 2.0879363e-05 -5.7193294e-05
-6.932923e-06 1.0954963e-06 8.893922e-05 1.1118847e-05 2.643601e-05 1.7613727e-05 -1.8381968e-05 -4.627608e-06
9.753678e-08 -3.190567e-05 0.00010639015 -5.8219357e-06 3.2819848e-05 -3.2860633e-05 2.8592124e-06 -6.5165327e-06
-0.00045629835 -0.00016147173 -0.00096345774 -9.2838854e-05 0.00076818484 0.00034902352 -0.00076267665 -9.851673e-05
-0.0007912069 -6.7334536e-06 -5.924787e-06 -2.516101e-05 0.00021578903 1.8753693e-05 0.0005550229 5.0303566e-05
0.0003028674 -1.1743784e-05 -0.0011543469 -1.3636193e-05 -0.0001838907 -0.00023431522 -4.3029944e-05 2.1487169e-05
0.00037987213 4.7590176e-05 -0.0005050798 -8.2086466e-05 -0.00042412704 7.288249e-05 -1.2312737e-06 1.195463e-05
1.2849893e-05 6.252281e-06 -1.4992224e-05 -6.184556e-06 6.8817174e-09 -7.136913e-08 4.0679147e-06 1.1833661e-05
-1.5421272e-05 -3.595026e-06 1.1721949e-05 5.22636e-06 -2.515598e-07 -1.2574182e-05 -7.740551e-06 -1.1390812e-05
-3.3372526e-06 4.263032e-06 5.33491e-07 5.1651123e-06 -1.6417494e-05 -8.423127e-06 5.1666307e-06 1.389305e-05
1.7562255e-07 3.1673683e-06 -1.0674457e-05 -1.0849278e-06 -1.2876397e-05 1.1409505e-05 -5.0458357e-06 -8.907501e-07
-5.3116204e-05 6.9125614e-05 0.00022639838 5.2594525e-05 -9.215366e-06 -1.423295e-05 -1.5855912e-05 1.2401443e-05
-2.2950287e-07 1.171112e-05 6.2286654e-06 2.5431069e-05 4.549861e-05 0.0001384498 4.2612253e-05 4.445759e-06
4.2753622e-06 8.350512e-06 7.450013e-05 -7.1156055e-06 5.0444676e-05 -2.0609268e-05 6.4845954e-06 2.971274e-06
-2.402114e-06 0.00031518485 0.00023127394 -8.572551e-06 3.7529244e-05 9.912707e-06 -2.5454592e-06 -1.3626685e-05
-0.00032685546 3.5880108e-05 -0.00014783852 3.39919e-05 0.00027948242 -8.281817e-06 -0.00028453753 -0.000114031085
-0.0003081172 1.3403255e-05 -1.3848431e-07 1.0777042e-05 -1.3352599e-06 -1.0209356e-05 0.00013745202 -8.470608e-05
2.0929829e-05 2.3069835e-05 -0.00026753725 -1.4223518e-06 -9.943438e-05 -0.00019333552 -6.211022e-05 -2.0770763e-06
0.00011557534 4.080526e-05 0.00015404352 -7.9434845e-05 -0.00015305541 -5.3618704e-05 -1.35973405e-05 1.2299983e-05
0.0008038405 0.00016143273 0.00025465628 5.100652e-05 -0.00052702473 -0.00025471364 0.00093586236 0.00028378284
0.0010003143 1.1082679e-07 -2.9928776e-06 8.702712e-06 -0.00050526153 -0.000830573 -0.0010971106 -7.86498e-05
-0.00023167694 2.291284e-05 0.0012070698 1.3203203e-05 -0.0001100266 0.00038942523 4.7645717e-05 -1.8924984e-05
-0.00018908894 -0.001250015 0.00021253657 0.00013845002 0.0003120579 -7.9165286e-05 2.4907065e-05 1.2869518e-05
-1.9395584e-06 -0.00020454318 9.363264e-05 -8.575925e-05 -8.102247e-06 -1.1024902e-05 -4.0503728e-05 -9.826469e-05
-6.548756e-05 -1.6004287e-06 8.828516e-06 -3.8088906e-06 0.00010042182 0.0002841913 0.00037119226 1.0428812e-05
1.7557738e-08 1.3947086e-05 -0.00024822814 9.9929025e-08 0.00017886225 -2.0639489e-05 4.438817e-06 -1.2576516e-05
-1.1136972e-05 0.00034342706 -0.00016694481 -4.2120533e-05 6.3576e-05 3.251891e-05 2.0514562e-06 6.6412617e-06
00000000: a00b 5a37 8fc8 4db6 2eeb 60b6 7428 69b7
00000010: b41f edb6 c018 dc35 29e8 65b3 aae7 22b7
00000020: ae95 77b2 b27e 16b7 c57b 46b7 326e e0b6
00000030: ac47 4eb7 6013 09b7 4a7a 7237 c4f1 4235
00000040: 0945 2d36 85ff 5eb7 f6df 0eb7 e5ac 48b6
00000050: eb25 a434 3ca6 4fb7 e4b3 9bb6 1b23 fcb6
00000060: 1b61 1930 12b7 74b6 9c01 9833 53ea 14b7
00000070: 8374 17b7 9e51 f3b6 d638 53b6 5f4e 35b7
00000080: a8be 7b38 80bc 6738 d6c5 b538 998a abb5
00000090: bb04 46b7 aff6 d336 b887 0638 11fe 97b7
000000a0: dbfa c337 39e4 70b7 af13 1536 2b0b 02b7
000000b0: 849c 3a37 8390 a636 1726 af37 d5e2 6fb8
000000c0: 5ba1 e8b6 f708 9335 e184 ba38 168b 3a37
000000d0: e6c2 dd37 31c1 9337 fa32 9ab7 da46 9bb6
000000e0: 6975 d133 74d2 05b8 c71d df38 0c5a c3b6
000000f0: 0ba8 0938 d6d3 09b8 e5e0 3f36 97a8 dab6
00000100: 543b efb9 bd50 29b9 8e90 7cba 7bb2 c2b8
00000110: 0360 493a 25fd b639 5dee 47ba c49a ceb8
00000120: ff68 4fba edef e1b6 88cd c6b6 dc10 d3b7
00000130: 6d45 6239 4051 9d37 f57e 113a 0bfd 5238
00000140: 2dca 9e39 2b07 45b7 744d 97ba 01c7 64b7
00000150: c9d2 40b9 83b2 75b9 0d7b 34b8 583f b437
00000160: 9329 c739 909b 4738 5567 04ba d625 acb8
00000170: 5e5d deb9 7dd8 9838 3e42 a5b5 bf90 4837
00000180: df95 5737 afca d136 1d87 7bb7 ee84 cfb6
00000190: 3a74 ec31 9843 99b3 1f7f 8836 3089 4637
000001a0: ee5c 81b7 1442 71b6 63a9 4437 175e af36
000001b0: 1e0e 87b4 b3f5 52b7 6add 01b7 2a1b 3fb7
000001c0: 90f5 5fb6 2b0b 8f36 3935 0f35 fa4f ad36
000001d0: 4db8 89b7 0e51 0db7 055d ad36 3216 6937
000001e0: c292 3c34 f98e 5436 7216 33b7 d69d 91b5
000001f0: b407 58b7 736b 3f37 664f a9b6 e11b 6fb5
00000200: 17c9 5eb8 88f7 9038 5a65 6d39 f198 5c38
00000210: b29b 1ab7 0eca 6eb7 5002 85b7 cb0f 5037
00000220: 456d 76b4 e17a 4437 d4ff d036 ce54 d537
00000230: c3d5 3e38 d62c 1139 8fba 3238 c72c 9536
00000240: 1575 8f36 2d19 0c37 f43c 9c38 96c2 eeb6
00000250: 8f94 5338 11e2 acb7 4096 d936 1966 4736
00000260: 0134 21b6 653f a539 2082 7239 d4d2 0fb7
00000270: b868 1d38 c14e 2637 a8d2 2ab6 2b9e 64b7
00000280: cc5d abb9 f97d 1638 1a05 1bb9 8692 0e38
00000290: 7f87 9239 22f2 0ab7 fb2d 95b9 f923 efb8
000002a0: ca8a a1b9 8bde 6037 47b2 14b4 0bcf 3437
000002b0: 2e37 b3b5 da48 2bb7 ff20 1039 3ba4 b1b8
000002c0: 7792 af37 1886 c137 3e44 8cb9 a3e7 beb5
000002d0: 6d87 d0b8 1cba 4ab9 2c41 82b8 e663 0bb6
000002e0: 0a61 f238 5026 2b38 be86 2139 4296 a6b8
000002f0: 807d 20b9 a5e4 60b8 2220 64b7 065c 4e37
00000300: d3b8 523a 4546 2939 6383 8539 d5ef 5538
00000310: 0828 0aba 168b 85b9 a954 753a b0c8 9439
00000320: fa1c 833a acff ed33 3fd9 48b6 dd01 1237
00000330: 8773 04ba cfba 59ba eccc 8fba caf0 a4b8
00000340: 4eee 72b9 f334 c037 8b36 9e3a 5383 5d37
00000350: 15be e6b8 c52b cc39 33d7 4738 18c1 9eb7
00000360: 2d46 46b9 8bd7 a3ba 5adc 5e39 e52c 1139
00000370: b49b a339 8a05 a6b8 84ef d037 29ea 5737
00000380: 5c29 02b6 a47a 56b9 a45c c438 a6d9 b3b8
00000390: e3ee 07b7 98f7 38b7 8ce2 29b8 7413 ceb8
000003a0: 5e56 89b8 50ce d6b5 301e 1437 3e9c 7fb6
000003b0: 8e99 d238 83ff 9439 959c c239 68f7 2e37
000003c0: e0d1 9632 47fe 6937 9e24 82b9 9098 d633
000003d0: f88c 3b39 f722 adb7 26f1 9436 baff 52b7
000003e0: eed8 3ab7 000e b439 e80d 2fb9 94aa 30b8
000003f0: 1b54 8538 ea64 0838 c0ab 0936 01d8 de36

exp_avg_sq f4 [32, 32]
8.019672e-12 7.0244765e-13 8.01619e-13 9.077499e-12 2.6925688e-12 3.0407035e-13 4.5896934e-14 4.7161042e-12
5.7844833e-16 4.092922e-12 6.747777e-12 2.4491028e-12 7.2415273e-12 3.4688036e-12 9.762539e-12 1.33385e-13
5.48906e-13 8.35912e-12 3.7321786e-12 6.770785e-13 7.569308e-14 7.330055e-12 1.3314596e-12 2.9954492e-12
1.11966e-17 9.110966e-13 7.725235e-15 4.016773e-12 4.1395624e-12 2.8155874e-12 7.2996915e-13 5.7215122e-12
7.676972e-08 2.6603743e-08 6.014546e-08 8.127518e-10 6.7188776e-12 2.6477032e-10 6.810005e-08 4.912667e-09
7.639751e-08 9.644184e-12 4.4685832e-13 2.720634e-10 1.0445883e-10 9.412942e-10 3.3209265e-11 5.868472e-09
1.6324694e-10 2.5009855e-10 9.874072e-08 6.0254323e-12 7.321563e-09 2.4171017e-08 4.0505337e-09 1.3255885e-12
2.7000881e-14 7.404691e-09 5.760049e-08 2.0562798e-09 2.0474264e-08 3.7308623e-09 6.344791e-13 2.3422167e-12
1.662904e-07 7.2835884e-09 1.108354e-07 8.44275e-10 5.5813036e-08 2.5857792e-08 4.4000356e-07 1.06950885e-07
4.854865e-07 2.4773985e-12 1.9927647e-12 1.5738726e-10 4.3154516e-09 3.292311e-08 8.846888e-08 5.3232935e-07
1.9635172e-08 1.3135452e-10 1.13340754e-07 1.01020355e-11 1.2956049e-07 1.3386518e-08 2.207011e-07 3.5112364e-11
1.6474285e-08 4.2253646e-08 3.2542452e-08 1.4398324e-09 1.4048607e-07 3.8752654e-07 1.1753983e-12 1.7343148e-10
1.6327974e-08 1.1048665e-08 1.7495328e-08 6.0843064e-10 2.1122921e-16 1.2878403e-13 1.1071312e-08 2.8871142e-10
1.2546592e-08 8.914744e-13 6.634916e-12 1.9287144e-10 1.6776515e-13 9.396063e-11 3.1547803e-12 1.7375688e-11
1.023348e-12 1.9691328e-10 2.6947976e-08 1.5855725e-12 7.993988e-10 6.65352e-09 7.023623e-11 9.072355e-12
6.0048734e-14 2.684316e-09 2.5208273e-08 5.6079963e-10 3.5283367e-09 1.13884275e-11 1.5258683e-12 1.5939115e-13
1.2122303e-09 2.8238616e-09 1.1125749e-08 3.8424464e-10 4.294578e-12 9.488443e-12 2.646764e-09 6.195846e-11
3.0638392e-09 6.6237146e-12 2.168688e-12 7.850679e-11 1.9328573e-10 1.6444199e-09 2.9925865e-10 2.6868846e-10
1.1678459e-12 4.9444535e-11 6.8253976e-09 2.7247937e-12 9.996309e-10 2.1809513e-10 1.8011888e-10 6.7081106e-13
4.967094e-13 8.274686e-09 1.3628307e-08 6.0500077e-12 1.4459279e-09 1.7939941e-10 5.381126e-13 8.752817e-12
4.5937064e-08 7.979467e-09 2.5591817e-08 2.528197e-10 2.7942995e-09 4.3156887e-09 6.1247604e-08 1.1801018e-08
6.810963e-08 8.489199e-12 5.5714846e-14 4.0005162e-11 2.3996823e-13 4.5229622e-11 1.4232345e-09 4.0940034e-08
3.0229765e-09 6.360318e-11 4.055242e-08 2.5755282e-13 1.1037092e-08 8.87639e-09 1.7852589e-08 1.1062698e-11
4.679717e-10 8.9279717e-10 2.0503357e-08 9.349282e-10 1.7907746e-08 2.9148046e-08 8.717961e-12 6.7709592e-12
3.6489286e-07 1.9943164e-08 2.0041269e-07 8.4886864e-10 9.694233e-08 3.730878e-08 6.724241e-07 1.6157487e-07
7.438465e-07 1.0623753e-14 6.7793134e-13 1.657102e-10 1.4835973e-08 2.3104262e-07 4.801986e-07 1.0656585e-06
2.9297688e-08 1.4464822e-10 2.6920748e-07 1.6031954e-10 2.5854956e-07 5.968813e-08 4.1074313e-07 5.5193627e-11
4.038997e-08 1.811175e-07 6.706049e-08 9.129328e-09 2.243421e-07 7.64568e-07 1.4425846e-09 6.50041e-10
4.5937064e-08 5.641394e-08 1.5698441e-07 4.6635606e-09 3.4180514e-12 5.93314e-12 4.9818965e-08 7.026508e-10
5.505164e-08 2.953628e-13 3.9786026e-12 9.772737e-10 6.157616e-09 3.3954404e-08 1.2222996e-08 3.910276e-09
3.7551356e-14 7.674373e-10 1.3611802e-07 2.6626936e-14 1.2829464e-08 1.3590397e-08 2.140138e-09 7.54886e-12
6.0433217e-12 1.3021891e-07 2.0744841e-07 2.8805486e-10 2.1656128e-08 2.718268e-09 4.023469e-13 2.419481e-12
00000000: 6415 0d2d b0b8 452b bda2 612b 6cb1 1f2d
00000010: 0279 3d2c 282d ab2a 90b3 4e29 e4ee a52c
00000020: f4b9 2626 c401 902c 926a ed2c 1d57 2c2c
00000030: e1c9 fe2c 6918 742c 91be 2b2d 9c2d 162a
00000040: d980 1a2b 210e 132d 7a50 832c a694 3e2b
00000050: 1772 aa29 a2f3 002d e362 bb2b 37c9 522c
00000060: 738a 4e23 b739 802b 5c2a 0b28 e053 8d2c
00000070: dda5 912c 1d21 462c d277 4d2b cd4e c92c
00000080: 9adc a433 4086 e432 5129 8133 5368 5f30
00000090: 4566 ec2c 1c8f 912f 663e 9233 47cc a831
000000a0: fa0f a433 8ba9 292d 128f fb2a 8591 952f
000000b0: 18b5 e52e d85e 8130 4f0e 122e a0a3 c931
000000c0: ee7d 332f 3e7e 892f 490b d433 4500 d42c
000000d0: 2691 fb31 a1a0 cf32 df2c 8b31 5c8f ba2b
000000e0: cb33 f328 5a6c fe31 6964 7733 754e 0d31
000000f0: 62df af32 0331 8031 0a97 322b a0d1 242c
00000100: 8f8d 3234 1f43 fa31 6804 ee33 9212 6830
00000110: 15b7 6f33 e31d de32 a139 ec34 dfac e533
00000120: 6152 0235 d854 2e2c 753a 0c2c 930c 2d2f
00000130: 1d47 9431 5867 0d33 48fc bd33 65e5 0e35
00000140: 33aa a832 036d 102f bd65 f333 86b7 312d
00000150: 511d 0b34 87fa 6532 dbf9 6c34 026d 1a2e
00000160: 5683 8d32 607a 3533 cec4 0b33 99e3 c530
00000170: 84d8 1634 3e0d d034 306c a52b 9fb0 3e2f
00000180: 9841 8c32 8bd0 3d32 a248 9632 803e 2730
00000190: dc87 7325 78ff 102a 2534 3e32 85b8 9e2f
000001a0: 7f8c 5732 80ed 7a2b 0372 e92c 7c10 542f
000001b0: 03e3 3c2a 229f ce2e 78ff 5d2c 92d6 982d
000001c0: ff05 902b 2982 582f 3a7b e732 4526 df2b
000001d0: b1bc 5b30 fb9c e431 7b73 9a2e 419a 1f2d
000001e0: bd37 8729 fd76 3831 9489 d832 c426 1a30
000001f0: 2877 7231 eb58 482d 33bf d62b 5f75 332a
00000200: 909b a630 e60d 4231 9023 3f32 a03d d32f
00000210: 1f1a 972c 26ec 262d 5de2 3531 833f 882e
00000220: a18b 5231 1e0d e92c 9c9b 182c 65a3 ac2e
00000230: 1985 542f e201 e230 e984 a42f 8ab6 932f
00000240: 155c a42b 9975 592e d584 ea31 85bd 3f2c
00000250: 6363 8930 52cc 6f2f f50a 462f 08d1 3c2b
00000260: afcf 0b2b 7428 0e32 ee21 6a32 a0dd d42c
00000270: 11ba c630 7240 452f 1977 172b 2ffb 192d
00000280: 564c 4533 1116 0932 00d5 db32 36fd 8a2f
00000290: d605 4031 3349 9431 3a87 8333 6dbd 4a32
000002a0: aa43 9233 f457 152d d8ea 7a29 cff1 2f2e
000002b0: 1117 872a 07ec 462e 9d9b c330 0bd6 2f33
000002c0: c4bc 4f31 68dd 8b2e db2b 2e33 46fd 902a
000002d0: a59d 3d32 c77e 1832 425a 9932 f69d 422d
000002e0: 95a2 0030 0469 7530 5c1f b032 dd7e 8030
000002f0: 8dd3 9932 3b61 fa32 355e 192d 613b ee2c
00000300: 7ee6 c334 7b4f ab32 0531 5734 d255 6930
00000310: 9c2e d033 703d 2033 a280 3435 5d7d 2d34
00000320: beac 4735 6a61 3f28 1ad2 3e2b 4633 362f
00000330: 4de1 7e32 8314 7834 ffe6 0035 bf07 8f35
00000340: 4caa fb32 db0a 1f2f 9887 9034 f045 302f
00000350: c8ce 8a34 e62d 8033 1b84 dc34 80be 722e
00000360: 3e79 2d33 3379 4234 e502 9033 36d7 1c32
00000370: b0e2 7034 b63c 4d35 6f44 c630 92ae 3230
00000380: 564c 4533 c84b 7233 8c8f 2834 1d3d a031
00000390: 2486 702c f9c0 d02c 88f8 5533 a824 4130
000003a0: eb71 6c33 4446 a62a 11fc 8b2c c350 8630
000003b0: f792 d331 43d5 1133 4efd 5132 275b 8631
000003c0: c41d 2929 99f3 5230 d627 1234 89d5 ef28
000003d0: 9468 5c32 337b 6932 b511 1331 0bcd 042d
000003e0: 67a1 d42c 4dd2 0b34 fcbe 5e34 1e5c 9e2f
000003f0: 5406 ba32 47cc 3a31 4d80 e22a 7f41 2a2c

exp_avg f4 [32]
-6.0108287e-06 6.973362e-05 -0.0011970856 -2.4735922e-05 0.00028953963 -0.0002578364 0.00019578298 0.00026079433
0.00020152851 -0.00074815867 -1.3802779e-05 -6.212125e-05 6.9678914e-05 3.5161618e-05 -7.5460724e-05 0.0002595632
-0.000505592 -0.00020265592 -0.00017533236 -0.0014949485 -0.0003750687 0.00012123878 0.00010558258 -4.9211096e-05
0.00021014576 -0.0003170043 8.8992296e-05 -1.29960845e-05 0.00081323436 -0.0011157441 -0.0005474962 4.5124907e-06
00000000: a0b0 c9b6 f43d 9238 87e7 9cba fd7f cfb7
00000010: 5acd 9739 372e 87b9 184b 4d39 39bb 8839
00000020: 6651 5339 1420 44ba 7c92 67b7 1847 82b8
00000030: 9520 9238 807a 1338 ab40 9eb8 fc15 8839
00000040: b489 04ba 0980 54b9 6cd9 37b9 26f2 c3ba
00000050: dea4 c4b9 9341 fe38 376c dd38 0368 4eb8
00000060: 935a 5c39 9933 a6b9 60a1 ba38 c209 5ab7
00000070: 3c2f 553a 293e 92ba d985 0fba 006a 9736

exp_avg_sq f4 [32]
2.0418196e-12 1.1395868e-07 4.148434e-07 2.7845042e-08 1.8972058e-08 6.18741e-08 7.6139327e-07 2.6113284e-07
1.6379018e-07 3.6980396e-07 8.963421e-12 2.529988e-07 8.2755906e-07 6.879233e-08 4.3311953e-08 5.8044054e-07
4.217622e-08 7.2467714e-07 2.178434e-07 5.212145e-07 3.0640038e-07 2.9033384e-08 9.1437144e-08 1.2925853e-09
2.8711253e-07 4.6405024e-08 5.3860245e-09 8.0191765e-12 2.2841327e-07 1.5269165e-07 2.4861288e-07 3.7449158e-07
00000000: 27ae 0f2c 72b9 f433 a5b7 de34 e52f ef32
00000010: fff7 a232 a5df 8433 8c62 4c35 d331 8c34
00000020: 4dde 2f34 7889 c634 a9af 1d2d e4d3 8734
00000030: 6d25 5e35 fcba 9333 ff05 3a33 92cf 1b35
00000040: 3f25 3533 6f87 4235 56e8 6934 96e9 0b35
00000050: 597f a434 1665 f932 1a5c c433 cda6 b130
00000060: 7224 9a34 dd4e 4733 f90f b931 2913 0d2d
00000070: c341 7534 90f3 2334 1879 8534 bb0d c934

exp_avg f4 [32, 32]
2.4745548e-06 -5.403471e-05 -0.00055798027 2.3379343e-05 -7.933314e-05 -0.00013076027 -0.00015104665 -3.1888238e-05
-0.00013430316 -3.0173576e-05 1.0588509e-05 0.0001419115 -6.0904156e-05 1.2705374e-05 -0.00031717436 2.3050312e-05
-0.00013489637 -0.00038158955 -4.5083148e-06 -0.00024561494 -2.5977575e-05 -4.024328e-05 -0.00017409712 7.3471356e-06
-2.5805275e-05 -0.000252409 8.126874e-06 -3.6790752e-08 -7.994816e-05 -0.00039714464 0.00016703807 -7.37518e-05
-2.1346867e-08 -2.7342176e-05 -0.00016823909 3.7412076e-06 -3.1469517e-05 -3.373815e-05 -4.550284e-05 -3.6119413e-06
-3.5500052e-05 -2.700375e-05 -1.0511493e-05 7.670258e-05 -5.5624455e-06 -6.317471e-06 -5.5298533e-05 -2.1257229e-05
-5.225938e-05 -0.00011024116 -6.229748e-06 -6.912663e-05 -2.391057e-05 -2.6665435e-05 -3.8100658e-05 1.2838603e-07
3.7167923e-05 -1.0848733e-05 1.2933935e-05 -9.821824e-06 -1.7405402e-05 -0.00013679062 7.473291e-05 4.8969756e-05
1.01207515e-05 1.5257464e-05 2.6779722e-05 -4.6638697e-06 -1.3254791e-05 3.6674444e-06 1.8237044e-05 -9.535235e-06
2.9241777e-05 -8.3243585e-06 1.2042415e-05 1.7082317e-05 4.853489e-06 -1.0556568e-05 1.8915307e-05 4.785128e-07
1.5926807e-05 2.839623e-05 1.6017055e-05 -3.965583e-06 -1.1512869e-06 2.1727581e-05 1.3189752e-05 1.1102696e-05
5.534134e-06 -3.6055368e-07 6.981633e-07 -1.8904889e-06 2.3145132e-05 2.2072338e-05 -1.3145101e-05 8.475319e-07
-5.026325e-06 -0.00012776793 -0.0010813393 3.0169453e-05 -0.00022218667 -0.0002945489 -0.00025761913 -9.250852e-05
-0.0003115144 -8.265557e-05 1.6070327e-06 0.0005589966 2.2800465e-05 6.814569e-06 -0.0003473994 -0.00010533421
-0.0002632993 -0.00064520276 -2.1709142e-05 -0.0005462619 -9.7191485e-05 -0.000112176065 -0.00028601277 3.710181e-06
0.00016086249 -0.00015527013 -2.5830526e-05 9.1418e-06 -0.00017234207 -0.00094747765 0.00054680806 0.00022831142
-9.669466e-06 -1.2689903e-05 0.00033532598 -6.7886053e-06 -1.6835227e-05 0.00012378058 -4.3017255e-05 -2.0368549e-05
-3.8269973e-05 3.970326e-05 1.3591518e-05 -0.00022190063 6.440835e-06 -1.8364011e-06 6.854501e-05 6.903488e-05
3.6120991e-06 7.104875e-05 1.085124e-05 0.000297459 -1.1822784e-05 -9.505409e-08 2.1835516e-05 1.6919818e-06
-0.00031144868 9.492045e-05 8.658151e-06 -9.156348e-06 4.912405e-06 0.00026983186 -0.0003043224 -0.00026807957
2.3378714e-06 -1.2600735e-06 -0.0010001606 -3.7883865e-06 -1.4210326e-05 -0.00025215896 -0.00085566373 -1.2785923e-05
-6.8565365e-05 -0.00014957866 -1.356685e-07 -7.7780816e-05 -2.730861e-05 -3.0140212e-05 -0.00049142237 -7.354823e-05
-6.810893e-05 -0.0013203898 -2.3867738e-05 -0.00069945323 -0.00014494146 1.0276037e-05 -0.000644193 7.8571575e-06
-0.00028754259 -4.99536e-05 1.5614398e-05 -4.0691793e-06 -0.0001412048 -0.0009225213 0.0006939476 -0.00067433424
-1.1662135e-07 -6.8943223e-06 6.257642e-05 3.1117065e-06 -8.329535e-05 3.0446896e-05 -0.00024670214 -6.322464e-05
-0.00012652166 2.4995124e-05 9.298142e-06 -0.00038732612 -6.6155764e-05 1.3093973e-05 -0.00014992009 4.6876146e-05
-5.1009076e-05 -0.00021124945 -1.5586442e-05 0.00015865368 -3.250121e-06 -1.2329709e-05 -0.00020073276 -9.58956e-06
-0.0004912733 -6.1053186e-05 -3.3131595e-08 1.33978965e-05 -5.533481e-05 0.00012094637 -0.00023800402 -0.0005307217
1.4119165e-05 2.0163354e-10 1.0410603e-05 7.760516e-06 9.673285e-06 -1.43265215e-05 1.1398503e-05 -1.1900821e-05
1.2664465e-05 -3.671792e-08 -1.2486003e-05 2.0915236e-06 -9.354057e-07 -1.26936275e-05 -3.485935e-06 -1.2140941e-07
1.0626072e-05 -2.569916e-06 7.4333357e-06 -1.924585e-09 1.2153276e-08 7.607767e-07 -8.507289e-06 -1.153258e-05
-2.6815949e-06 -1.3277323e-05 -5.244502e-06 3.6968387e-08 -8.54768e-06 -4.367437e-06 -6.004238e-07 6.898373e-08
00000000: 8710 2636 54a3 62b8 6c45 12ba c21e c437
00000010: a85f a6b8 b11c 09b9 4762 1eb9 bcbf 05b8
00000020: bbd3 0cb9 431d fdb7 4da5 3137 14ce 1439
00000030: 5773 7fb8 2a29 5537 6c4a a6b9 2b5c c137
00000040: f872 0db9 1510 c8b9 2146 97b6 e1c5 80b9
00000050: 6bea d9b7 e5ca 28b8 d78d 36b9 6a87 f636
00000060: 6878 d8b7 c355 84b9 a858 0837 dc03 1eb3
00000070: d7a9 a7b8 da37 d0b9 f126 2f39 32ab 9ab8
00000080: 425e b7b2 e05c e5b7 5669 30b9 7511 7b36
00000090: 23fe 03b8 1082 0db8 4dda 3eb8 ae64 72b6
000000a0: e4e5 14b8 1d86 e2b7 855a 30b7 62db a038
000000b0: 0ba5 bab6 aafa d3b6 59f0 67b8 8d51 b2b7
000000c0: 1531 5bb8 4631 e7b8 2109 d1b6 14f8 90b8
000000d0: 8f93 c8b7 96af dfb7 45ce 1fb8 7cda 0934
000000e0: c1e4 1b38 f402 36b7 d4fe 5837 6ac8 24b7
000000f0: d101 92b7 746f 0fb9 edb9 9c38 e064 4d38
00000100: 4ccc 2937 4ffa 7f37 04a5 e037 567e 9cb6
00000110: e560 5eb7 371e 7636 c1fb 9837 86f9 1fb7
00000120: 3d4c f537 d9a8 0bb7 c709 4a37 ff4b 8f37
00000130: 27db a236 1d1c 31b7 50ac 9e37 2673 0035
00000140: 8f9a 8537 7134 ee37 5d5c 8637 1910 85b6
00000150: eb85 9ab5 a043 b637 8e49 5d37 b745 3a37
00000160: d9b1 b936 1f92 c1b4 6b69 3b35 b4bc fdb5
00000170: cb27 c237 fc27 b937 c789 5cb7 f381 6335
00000180: cea7 a8b6 71f9 05b9 babb 8dba 6814 fd37
00000190: c8fa 68b9 af6d 9ab9 0e11 87b9 2201 c2b8
000001a0: c152 a3b9 5f57 adb8 39b1 d735 a089 123a
000001b0: a043 bf37 b4a8 e436 2823 b6b9 e0e6 dcb8
000001c0: 6f0b 8ab9 d322 29ba 071c b6b7 0433 0fba
000001d0: 48d3 cbb8 1140 ebb8 fcf3 95b9 6dfc 7836
000001e0: 32ad 2839 02d0 22b9 a2ae d8b7 bb5f 1937
000001f0: b9b6 34b9 2660 78ba ab57 0f3a e166 6f39
00000200: 0a3a 22b7 b8e6 54b7 b1ce af39 adc9 e3b6
00000210: 6039 8db7 19cb 0139 6d6d 34b8 20dd aab7
00000220: 1284 20b8 0d87 2638 2007 6437 ffad 68b9
00000230: 5a1e d836 437a f6b5 d2bf 8f38 d2c6 9038
00000240: 6467 7236 0200 9538 b90d 3637 45f4 9b39
00000250: 785a 46b7 8a20 ccb3 6a2b b737 0d18 e335
00000260: ef49 a3b9 0710 c738 7a42 1137 379e 19b7
00000270: 3dd5 a436 3878 8d39 768d 9fb9 088d 8cb9
00000280: 53e4 1c36 cc1f a9b5 d217 83ba fc3b 7eb6
00000290: e368 6eb7 3434 84b9 9f4e 60ba 1f83 56b7
000002a0: c0ca 8fb8 37d8 1cb9 46ac 11b4 421e a3b8
000002b0: cb14 e5b7 9dd5 fcb7 ccd2 00ba e83d 9ab8
000002c0: b4d5 8eb8 ee10 adba 9437 c8b7 835b 37ba
000002d0: 6dfb 17b9 3e67 2c37 0fdf 28ba 3cd2 0337
000002e0: 50c1 96b9 4585 51b8 aafb 8237 fc89 88b6
000002f0: 6010 14b9 5bd5 71ba 09ea 353a cec5 30ba
00000300: 4471 fab3 c755 e7b6 763b 8338 b6d2 5036
00000310: daae aeb8 3668 ff37 cd57 81b9 7897 84b8
00000320: e6aa 04b9 9fac d137 37ff 1b37 0812 cbb9
00000330: 1bbd 8ab8 30ae 5b37 de33 1db9 e19c 4438
00000340: 94f2 55b8 d882 5db9 a1bf 82b7 465c 2639
00000350: a71c 5ab6 b2db 4eb7 ca7b 52b9 d9e2 20b7
00000360: cbc8 00ba ae09 80b8 934c 0eb3 87c7 6037
00000370: 4d17 68b8 97a4 fd38 b890 79b9 2120 0bba
00000380: 5ae1 6c37 ccb2 5d2f 33a9 2e37 2a33 0237
00000390: 714a 2237 f15b 70b7 333c 3f37 a3a9 47b7
000003a0: 7779 5437 c8b3 1db3 f97a 51b7 1a5c 0c36
000003b0: 9718 7bb5 b7f6 54b7 e8ef 69b6 c45c 02b4
000003c0: a246 3237 d276 2cb6 de6b f936 a841 04b1
000003d0: acca 5032 2d38 4c35 87ba 0eb7 0e7c 41b7
000003e0: 73f5 33b6 abc1 5eb7 eef9 afb6 2cc7 1e33
000003f0: 0268 0fb7 008c 92b6 cf2c 21b5 3524 9433
