checkpoints/ablation_eps_0.20/ablation_eps_0.20_epoch0010.pt (torch, 38459 bytes, 24 tensors)

0.weight f4 [32, 2]
00000000: 7d7a 053f 323a 153f 3897 50be c059 283f
00000010: 9a9b 04be b1fc 3a3e 8483 9fbe 30f3 c33e
00000020: 1591 183f f7d1 01bf 5319 213f 48c4 2b3e
00000030: 336b fa3e 2801 523d 64b6 a93e 1a34 b6bd
00000040: 23ad 0d3f 3073 eb3d b3cb 81be dca7 da3d
00000050: 5838 7fbe ab37 9ebc b5c7 9bbe 53c1 ed3e
00000060: f127 19bf a407 bcbe f8d9 44be 611a e9be
00000070: d902 7f3d 267b 37bf e672 1a3f 08e9 18bf
00000080: c719 0a3f 7140 fe3d 9120 65be c65d dc3e
00000090: be78 da3d ef2d 1d3f 13f0 9d3d 97cc 5fbe
000000a0: f0ca 243e 0170 62be 0de0 8f3e 89bd 203f
000000b0: 6c2b be3e 54a3 afbe 726f d73e 420d b63d
000000c0: db0d c53e 5d53 ddbe a40d 34bf f07f 9cbe
000000d0: e163 fdbe 165d 203f 45ab 3a3e 0d5a 8e3e
000000e0: ec2b 583e e088 54bc 0292 033f 594a 0cbf
000000f0: 28c3 1b3d 2bbb ebbe e1e1 563e bd1f 6dbe
0.5214003 0.58291924 -0.20370185 0.6576195 -0.12949982 0.18260457 -0.31155026 0.38271475
0.5959638 -0.50711006 0.62929267 0.16774094 0.48909912 0.051270634 0.33146966 -0.08896656
0.5534231 0.1149658 -0.25350723 0.10676548 -0.24923837 -0.019313654 -0.30425802 0.46436557
-0.5982657 -0.3672458 -0.19223773 -0.45527938 0.062258575 -0.71672285 0.6033157 -0.5973058
0.53945583 0.12414635 -0.22375704 0.43040293 0.10667561 0.61398214 0.07711806 -0.21855389
0.1609304 -0.22113039 0.28100625 0.6278921 0.37142503 -0.34304297 0.42077214 0.088892475
0.38487133 -0.43227664 -0.70333314 -0.3056636 -0.49490264 0.6264204 0.18229397 0.27803078
0.21110505 -0.012972087 0.51394665 -0.54800946 0.038027912 -0.46041235 0.20984603 -0.23156638

0.bias f4 [32]
00000000: f74c 6f3e 1bc7 e4bd bef0 153f 1fb2 d9be
00000010: 54e2 ddbe 83e5 c5be 7ebd 273f 5033 733e
00000020: 8f8d 293f 2067 01bf 2d7b 1fbf 9032 05bf
00000030: 585d d4be 1d8d a63e 0582 843e 7da8 133f
00000040: 063d bbbe a564 f2be 6639 cb3e af68 90be
00000050: c78e d93e 338f 2dbe a279 cc3e d9c5 04bf
00000060: 657c a5be 5e4b 623e 5243 223e 2fb0 49be
00000070: 1e61 d83e 0ddb 013f 7151 06bf d519 c2be
0.23369204 -0.11170789 0.5857047 -0.42518708 -0.43336737 -0.38651666 0.6552352 0.23750043
0.66231626 -0.5054798 -0.62297326 -0.5203028 -0.41477466 0.32529536 0.25880447 0.5767897
-0.36569995 -0.4734241 0.3969223 -0.28204867 0.42491743 -0.16949157 0.39936548 -0.5186439
-0.32321468 0.22099063 0.15845993 -0.19696115 0.42261595 0.5072487 -0.5246802 -0.37910333

2.weight f4 [32, 32]
00000000: f7c0 b63d c6de 8fbb d6a0 c2bb 07a4 c8bd
00000010: df74 0bbd b991 17ba bd28 c4b9 a368 6dbd
00000020: 9c89 16b7 7b5c 51bd 35c7 9fbd 9f31 fcbc
00000030: 84e8 a8bd f285 33bd 80b8 d33d 023c fcb9
00000040: 1c2c 0b3b 979a bcbd 0659 40bd 7525 83bb
00000050: 39fb 5f39 0984 aabd 80d7 6bbc fc85 1bbd
00000060: 58da 6cb5 19c8 fbbb d62f bdb8 03d2 4dbd
00000070: 6684 53bd b70d 12bd dccf 9dbb c2cf 8bbd
00000080: 6c85 173e 24e1 09bd f837 203e f703 743d
00000090: 1b3c 9fbd ea77 bc3d e7b7 3bbd 6201 77bd
000000a0: 1ae7 12be 1dd5 d1bd 8b7d 4f3a a700 04bd
000000b0: f834 7a3d fde2 0cbe 6ec9 a43d 31cf e8bd
000000c0: 5c0c 38bd 34d4 093d 0479 bf3d 15e0 913d
000000d0: d6e1 273e 913e 10be 905d 5a3d fe53 6abc
000000e0: 3242 02b8 9572 f6bd 3b15 283e f77c 07be
000000f0: 5658 c73d 1311 993d d83a 5c3b 7b32 f0bc
00000100: c035 303e 523a 4a3d f193 1c3d d13a 03be
00000110: 48a6 403d 508a c6bc ecfe 8ebd 02b1 1f3e
00000120: d787 4f3d 9257 ffbc c0c4 c7bc 643f ef38
00000130: f032 083d aa65 94bd 4ad2 0cbe 5ccb 80bd
00000140: 9d77 04be f3db 693d 22a6 2e3e 8bf8 c5bd
00000150: c796 223d 4652 e43d be6c 013d c6a3 94bd
00000160: da80 833d 3cd0 883d f6c1 b33d 174e c0b9
00000170: 465c 20bd 545b 823c 4a92 dcba 8996 83bd
00000180: ef89 e93d dd34 183e 010f a8bc 5fe1 27bd
00000190: d024 1d35 3620 f6b6 aa48 303d 0479 393d
000001a0: 5320 21be 057d f1bb 7aa6 9d3d 0067 803d
000001b0: b81b 17bb 84db e4bd fdbe 23bd 5df2 ddbd
000001c0: bfda febb 9048 683d f438 e33d 7132 963c
000001d0: 69ef 18be a8d7 cebd 6767 b4bc 588e c83d
000001e0: d6eb bc39 5bf3 82bd c315 8d3d 8e71 76bd
000001f0: de8f e5bd 823a 963d d7b3 8ebc faae 353a
00000200: c07e 33be 80b9 db3d 8b51 e13d e06f 593d
00000210: 3a9d 5abd db54 cfbd 99df 21be f267 bd3d
00000220: dc39 873d 3270 9d3d 965b dc3c 5447 f63c
00000230: a95d b8bb 6540 23be 5893 2cbe 2206 33be
00000240: 2058 413c c044 a0bd 9f3e 54bd be31 0dbd
00000250: 8fa2 70bd ab63 f5bd 97fa 04be 3406 803b
00000260: 13cd b9ba 6ee1 ae3d 59df 93bd e4b0 98bd
00000270: d702 5abd a2ea d2bd e85e 01bb 8f41 c3bd
00000280: 561f ec3d 7907 0bbe 2894 b33d da57 473d
00000290: 22ff 973d 3b1c d4bd fe3f 0f3e c553 7bbd
000002a0: 7f7e a13d 33d1 be3d 0ee8 c7b9 50cf dcbc
000002b0: a95a 603a 7861 01be c1e5 453d 2c25 22be
000002c0: ee96 093e 76d0 b33d a4dc 313e a01a 543a
000002d0: 6d34 08be 97e5 7b3d e116 e63d 0c42 11be
000002e0: 5218 8cbd fb31 ffbd bcec 18bd 7394 34bd
000002f0: a736 7abd 49d4 24bd 33ac c2bd 69e9 953d
00000300: 3330 fc3d 9f13 34bd 8f09 c5bc f1c0 a1bd
00000310: 7c56 04be 133c 3bbe ec73 643d fb46 bebd
00000320: 14b3 fdbd c8b2 ba38 6392 83bb 5aa6 54bd
00000330: 5754 713d 227a 86bb e05c dbbc a9ac 8bbd
00000340: 349e 1dbe 98dd 063e 109b d8bd 67f2 473d
00000350: 94ff 37bd f921 80bc d123 373e 2d2c b13d
00000360: 9ce3 02be de20 d83d 355d 1d3e 62fc 733c
00000370: 6e69 f53d 1d61 433e fe40 adbc 48f6 3d3d
00000380: 3c87 eabd c303 c9bc 7d6d 0a3e d140 c73d
00000390: a202 31bd 4a0c 90bd 31cf d0bd 8ec0 e4bd
000003a0: ca9b eebd 4ead 253a 1a09 4c3d 8a04 e33c
000003b0: da64 2bbe 8486 21be 4b43 383d dc58 e8bd
000003c0: eecb 94b9 313e 943d 82ab 85bd 34e9 a5b7
000003d0: 6b8b 8abc a8be 0dbd 856f 90bd cd73 aebd
000003e0: 653a 92bd ed7b ddbd 0afc 343e 5143 5fbd
000003f0: 63a1 ddbd 8f98 5c3d fa63 9539 cee2 f83c
0.08923524 -0.0043905703 -0.0059395833 -0.09796911 -0.034047004 -0.0005781907 -0.00037414386 -0.057961117
-8.972736e-06 -0.051113587 -0.078016676 -0.03078538 -0.08247474 -0.043828912 0.10337925 -0.00048109895
0.0021236008 -0.09209173 -0.0469599 -0.004002268 0.00021360525 -0.08325965 -0.014394641 -0.037969574
-8.8234583e-07 -0.0076837656 -9.0211324e-05 -0.05024911 -0.051639937 -0.03565761 -0.0048160385 -0.06826736
0.1479699 -0.033661976 0.1564635 0.059574094 -0.07775136 0.09202559 -0.04582968 -0.060304053
-0.14345971 -0.10245726 0.00079151307 -0.032227185 0.06108567 -0.13758464 0.08046232 -0.113676436
-0.04493366 0.03364964 0.09349254 0.071228184 0.16394743 -0.14086367 0.053311884 -0.014302252
-3.1056064e-05 -0.120335735 0.16414349 -0.13231264 0.097336456 0.0747396 0.003360441 -0.029320946
0.17208004 0.049372025 0.038227025 -0.12815405 0.04703358 -0.024235874 -0.06982216 0.15594867
0.050666656 -0.031169686 -0.02438581 0.000114082155 0.033251703 -0.072459534 -0.13752094 -0.06288788
-0.12936254 0.057094526 0.17055562 -0.096665464 0.039694574 0.11148505 0.031597845 -0.072578
0.06421061 0.066803426 0.087772295 -0.00036679275 -0.0391505 0.01591269 -0.0016828266 -0.06425197
0.11403262 0.14863916 -0.020514967 -0.040986415 5.8540627e-07 -7.335121e-06 0.043038048 0.045281425
-0.15734987 -0.00736964 0.076977685 0.06269646 -0.0023057293 -0.11174682 -0.039977062 -0.10837243
-0.0077775414 0.056709826 0.11094847 0.0183346 -0.14935078 -0.10099727 -0.022021962 0.09792775
0.00036033866 -0.063940726 0.06888916 -0.060166888 -0.11209081 0.07335378 -0.017419739 0.00069306756
-0.1752882 0.10728741 0.11001881 0.053085208 -0.0533726 -0.10123607 -0.15807952 0.092483416
0.06602833 0.07687415 0.02689914 0.030063309 -0.0056263995 -0.15942533 -0.16853082 -0.17482808
0.011800796 -0.07825613 -0.051817533 -0.034471266 -0.058748778 -0.11981901 -0.12986217 0.0039069895
-0.0014175497 0.08539091 -0.072203346 -0.07455614 -0.053225365 -0.10298659 -0.0019740406 -0.09533989
0.11529414 -0.1357707 0.08768493 0.048667766 0.074217096 -0.10356947 0.13989255 -0.061359186
0.07885455 0.09317245 -0.00038129132 -0.026954323 0.0008558431 -0.12634838 0.048314814 -0.15834492
0.13436481 0.08779995 0.17369324 0.00080911256 -0.13301249 0.06149825 0.112348326 -0.14185351
-0.06840576 -0.12460705 -0.037335142 -0.044086885 -0.061087277 -0.040241513 -0.09505501 0.0731991
0.12313881 -0.043964025 -0.02405241 -0.07898129 -0.12923616 -0.18284635 0.055774614 -0.09290882
-0.12387672 8.902472e-05 -0.0040152534 -0.051916458 0.058918323 -0.004103915 -0.026777685 -0.06820042
-0.15392381 0.13170469 -0.10576451 0.048815157 -0.044921473 -0.0156412 0.17884757 0.08651004
-0.12782139 0.10553144 0.15367587 0.014891716 0.11983 0.19080015 -0.021149155 0.04637745
-0.11451575 -0.024537927 0.13518329 0.097291596 -0.0432154 -0.07033594 -0.101957686 -0.111695394
-0.11650808 0.0006320075 0.049813367 0.027712125 -0.1673769 -0.1577397 0.04498605 -0.113450736
-0.000283807 0.072384246 -0.06526853 -1.9778126e-05 -0.016912183 -0.034605652 -0.07052521 -0.08518181
-0.07140044 -0.108146526 0.1767427 -0.054507557 -0.10821798 0.05385643 0.00028493983 0.030381586

2.bias f4 [32]
00000000: 118f cdbc 2daa 0dbe ac64 673c f465 d8bd
00000010: ebb2 f53d dae6 2abe d96e b13d 52c8 373e
00000020: ff6b b53d 294d 953d 4ac2 c6bd a5b7 393e
00000030: 05f6 80bc 049d 36be 3d11 473e 8802 bcbd
00000040: 714a 8cba 5050 253e 4bc9 04be d701 d3bd
00000050: 8b34 b23c 0a1e ddbc 7a2f 503d a06c 04be
00000060: aebc b03b ad1a abbd f60f d8bd bebe b6bd
00000070: 004f 8e3d 217f 803d f60a e4bd 756e 0f3e
-0.025092633 -0.13834448 0.014123123 -0.10566321 0.119970165 -0.16689625 0.08663721 0.1794751
0.08858489 0.07290108 -0.097050264 0.18136461 -0.015742311 -0.17833334 0.1944017 -0.0918017
-0.0010703338 0.16143918 -0.12967412 -0.10303085 0.02175357 -0.026991863 0.050826527 -0.12932062
0.005393586 -0.083546974 -0.10549919 -0.089231 0.06948662 0.06274248 -0.11134903 0.1400698

4.weight f4 [32, 32]
00000000: 54d3 dd3a d224 243d 5466 8dbd 674f 573c
00000010: 8839 393e d445 143e 541d ffbd 71d6 233e
00000020: ed95 b33c 1f24 da3d 5096 873d c520 0b3e
00000030: 8c68 06be be25 203e edd5 ebbd fd1a 01bb
00000040: 2f9b d5bd dec4 83bc 68c5 563a 4085 9d3c
00000050: e3f3 10bd 1d27 c03c dcdf 3b3e eada 123d
00000060: 598f b43d 2d3f ca3d d962 f93d 498d d838
00000070: 085a fc3c 4045 873d c20f 44be d152 17be
00000080: 43bf 9039 b86b 65bd a155 f13c 06be 3ebd
00000090: 9e85 273d e723 0a3e fb27 57bd 79e9 083e
000000a0: 2026 133e d2e9 c3bd 4c19 86bd a498 21be
000000b0: f9f3 c8bd fd43 2dbd 78d5 b0bc e773 59bd
000000c0: 98f3 8abd 75ea 1abd d285 55bd 9903 523e
000000d0: 9802 98bd 3044 dbbd 4e4d 963d c021 91bb
000000e0: 9c3c ed3d 948b 023e 519e f63d 72af 71bd
000000f0: 10ee 003e 1a99 313e 35d3 ffbd ecfd 133e
00000100: c224 7d3d 4cd1 18bc 3a5c 963d 5780 6dbd
00000110: 43b5 c0bd 400b 113d a50d 223d 76ae b6bd
00000120: 4235 963d 9993 03be a8ef a33d 89b0 193e
00000130: a58e f33c d431 c6bd 9c2e 913d 8de0 91b8
00000140: 99c4 193d 0cae 383d 407a f53d 3ae9 a5bd
00000150: c0af 4bbc a4e3 fe3c 4eb6 0b3c a08f 913d
00000160: 9191 d1bd b46a 90bc 8800 e6b9 a3c1 f338
00000170: 0442 cf3d 585a 1c3c 59b2 b9bd dc00 00bd
00000180: 257c 8dbc 412c ce3c 3ebd 153c 9028 39be
00000190: cfae 94bc 312e e63b 8e21 49bd d0b3 263e
000001a0: b393 f5bc c59a 0b3e be68 23ba 4e46 2dbe
000001b0: 6e42 0a3d fac6 1f3e 53b5 00be 92dc 01be
000001c0: 02c6 413e 6ec6 213e 4ed3 b4bd 11e1 113e
000001d0: 3da1 16bd ef49 26be 128b 5d3c 3f94 533c
000001e0: 5f99 94bd acdd a33d fe61 14be 38d5 573d
000001f0: 4233 2a3e be01 003e 21bf 3abc 253c 213d
00000200: bedd 6bbd d483 9ebc caaf 67bd d79b 01bd
00000210: 34f2 71bd 83b3 8c3d 4afe 043e 7540 aabd
00000220: 0f0a 943d d5f9 fa3c 978e c23d d29a f63d
00000230: 4471 283e be51 8cbd c202 093e 773e 1e3e
00000240: 9efc 36be 4751 14be 4940 a23c 58f8 343d
00000250: 1ce2 8fbd 8d13 3238 ba44 0d3c 9fd0 02ba
00000260: abb1 8ebd 012d 9f3d 4ca7 453d ed61 58bd
00000270: 5e63 7e3c 53ca 1ebd 71ca bd3d 2e85 3f3e
00000280: 8c53 9b3a 3436 69bd c015 463e 102b 5abc
00000290: e8e8 2bbd bb19 3d3d e249 ffbd b8c3 033c
000002a0: 96ec 07be 23b6 903d 4970 52b9 c473 903c
000002b0: ac33 1bbe b9d8 1abe 85b2 933d 5f1b 0e3e
000002c0: fa7a 0cbe 3a4f b53d f940 eebd 1b17 5c3d
000002d0: 62dd 1b3e 6ba0 973d 5bf9 08be ae01 283d
000002e0: 3e93 9e3d 62b6 663c 5cbc 043e ed59 2abc
000002f0: fb2e 8cbc bd72 7cbd cd5f e4bb 2970 1c3d
00000300: 047e feb8 74a2 68bd 7a6e d8bd e79c 973b
00000310: a666 cabd 310e 95bd 507c eb3c c9af 92bc
00000320: 5767 dc3d 8307 b5bc 86bf 5d3d b51f da3c
00000330: abe4 c6bd 08fc c93d f570 433d f874 1dbd
00000340: c84d 83bd 6771 8c3d 9d00 01be e384 4e3b
00000350: 590a da3d 1f58 a9bd cc51 aebd 01d2 68bd
00000360: 04d9 3e3e 2392 113e 4ac2 1b39 fab5 be3d
00000370: 23d9 59bc ddbf 43be ac05 d03d 9e88 c93d
00000380: d90f cd3d ca02 e035 c126 843d 7379 243d
00000390: 1103 6c3d f032 d1bd 7553 973d 1228 a1bd
000003a0: 3c30 b03d 7324 6538 b6aa acbd d913 d039
000003b0: 707c 413a adc3 b0bd 161e dcbb 302e cbb8
000003c0: 4650 883d 1cec 07bb f098 183d 6aae a339
000003d0: 2ad0 9a38 e036 0bba e205 40bd f4f1 99bd
000003e0: d102 27bb 7a51 bcbd 9b3b 9bbc e410 d9b8
000003f0: 4e87 41bd f3db 4bbc 2d06 9339 fd13 19b9
0.0016923943 0.040074177 -0.06904283 0.01314149 0.18088353 0.14479762 -0.12456766 0.15999772
0.021922076 0.10651421 0.06620467 0.1358672 -0.13125819 0.15639398 -0.115154125 -0.0019699924
-0.104299895 -0.016085085 0.0008192868 0.019228578 -0.03538884 0.02345615 0.18347114 0.035853304
0.08816404 0.09875331 0.12177057 0.00010325999 0.030804649 0.06605005 -0.19146636 -0.14777686
0.0002760832 -0.05601093 0.029459776 -0.04656794 0.04089891 0.13490258 -0.052528363 0.13370313
0.14370012 -0.09566082 -0.06547794 -0.15780884 -0.09812159 -0.042301167 -0.021586165 -0.05308905
-0.06784743 -0.037821252 -0.052129574 0.20509185 -0.0742237 -0.10706365 0.073389634 -0.004429072
0.11583826 0.12748557 0.12041915 -0.05900521 0.12590814 0.1734356 -0.124914564 0.14452332
0.061802633 -0.009327244 0.073418096 -0.057983723 -0.09409573 0.03541112 0.039563794 -0.089199945
0.07334377 -0.12849273 0.08004695 0.15008749 0.029731104 -0.09677473 0.07088968 -6.955965e-05
0.037541006 0.04508786 0.11986208 -0.08101125 -0.012432039 0.031114407 0.008527352 0.071074724
-0.10232843 -0.017629005 -0.00043869414 0.000116232106 0.10120013 0.009543024 -0.0906722 -0.03125082
-0.01727111 0.025167586 0.009139357 -0.1808188 -0.018149761 0.0070245494 -0.049104266 0.1627953
-0.029977655 0.13633259 -0.00062335643 -0.1692135 0.03375476 0.15603247 -0.1256917 -0.12681797
0.1892319 0.15798351 -0.08829366 0.14246012 -0.036774863 -0.16239141 0.0135219265 0.012913763
-0.07255816 0.08001265 -0.14490506 0.052693576 0.16621116 0.12500665 -0.011398108 0.039364
-0.057584517 -0.01934997 -0.05656413 -0.03164276 -0.059068874 0.06870177 0.12987629 -0.083130755
0.07228481 0.030636707 0.09499853 0.120412484 0.16449457 -0.068515286 0.13379958 0.15453516
-0.17869803 -0.1448413 0.019806044 0.04418215 -0.07025549 4.2456715e-05 0.008622343 -0.00049901934
-0.06967481 0.07772256 0.04825525 -0.052827764 0.015526621 -0.03876717 0.09267128 0.18703148
0.001185046 -0.056936458 0.19344234 -0.013315931 -0.041970164 0.046167117 -0.12465264 0.008042268
-0.13273844 0.0706599 -0.0002006899 0.017633326 -0.1515643 -0.15121736 0.07211784 0.13877629
-0.13718787 0.08853002 -0.11633486 0.053732973 0.1522117 0.07403644 -0.13376372 0.041017227
0.07742928 0.014081569 0.12962478 -0.010397417 -0.017112246 -0.06163286 -0.006969428 0.0381929
-0.00012135136 -0.056795552 -0.10567947 0.0046268585 -0.0988286 -0.072780974 0.0287458 -0.017906087
0.10761898 -0.022098308 0.05413773 0.026626447 -0.09711584 0.09862524 0.047715146 -0.03844163
-0.0641132 0.06857567 -0.1259789 0.0031512312 0.10646505 -0.08268761 -0.08511695 -0.0568409
0.18637472 0.14215903 0.0001485433 0.09312053 -0.013296398 -0.19116159 0.10157332 0.09840511
0.10012788 1.6690112e-06 0.06452704 0.040154886 0.05762011 -0.10214794 0.07388965 -0.07868971
0.0860295 5.46318e-05 -0.08430998 0.0003968764 0.00073809084 -0.08631072 -0.0067174537 -9.6883974e-05
0.06655936 -0.0020740097 0.037255228 0.0003121973 7.382066e-05 -0.0005310606 -0.04688061 -0.07516852
-0.0025483856 -0.09195228 -0.01894932 -0.000103505125 -0.047248177 -0.012442577 0.00028042626 -0.00014598663

4.bias f4 [32]
00000000: f94c c53d a38f 4e3d 27c8 a3bd 2524 de3d
00000010: a371 2cbd d359 0dbc 8db2 0ebd 4713 c2bd
00000020: ffdd d53c 4dfe 4a3d 0ab8 c4bc 34c4 e33d
00000030: ef5f b0bd 1264 c7bd f5f3 b4bd 0a59 11bd
00000040: 6174 983b 5221 07bd 3ec0 913d 61bb a9bd
00000050: 302c f63c 3548 45b9 94e7 803d a3c2 2f3e
00000060: 82f0 db3d b4db ffbc eaf8 95bd 79f7 82bd
00000070: c498 c2bc fb34 743d ca5a e6ba 5099 0e3e
0.09633822 0.05042995 -0.079971604 0.10846738 -0.04210056 -0.008627373 -0.034838248 -0.09476333
0.026106833 0.049558926 -0.024013538 0.11121407 -0.08612048 -0.09735884 -0.088355936 -0.035485305
0.0046525453 -0.03299076 0.071167454 -0.08287693 0.030050367 -0.00018814283 0.0629417 0.17164092
0.107392326 -0.031232692 -0.07322867 -0.06394858 -0.023754485 0.05962084 -0.0017574665 0.13925672

6.weight f4 [2, 32]
00000000: 2a63 b93d 7919 83bc 7c8b 7b3c 9bd9 843d
00000010: b4be 0ebd 16b6 0e3e 7dd3 3dbe 607d b23c
00000020: a858 d5bd 4407 12be bb89 473a acfb cb3d
00000030: fbb1 603d 32b1 10ba d940 3d3c d4f3 53bd
00000040: 0a61 7fbc 096d 2fbc b67c 64bc 68a6 a03d
00000050: 9ec8 d23d 28fc 0ebe 8fc1 cfbc 3514 e1bd
00000060: 797c 85bc 8ca7 8dbd c6f7 9fb9 fb6a 17be
00000070: c96d cf3d f899 f03d d733 fcbd 59ea 33be
00000080: 4691 6abc 94b6 86bd fd6c 2d3d 468b 11be
00000090: 447b ae3d e8f9 18be f002 3bbd 0a82 debc
000000a0: 5fd5 9d3d 579b 86bc 755f c6bd 464e eabd
000000b0: 9b5c 97bc 22ef babd cdbc ebbb d493 d63d
000000c0: 8a1a 973b e156 9abd ef1f 2f3a b47d 8dbd
000000d0: c715 dbbd a64b bcbb 6315 3b3e 8a44 59bd
000000e0: 3833 9b3d 89ad 23bc da93 c538 e0cf 16be
000000f0: c906 993d 11b3 3f3e c180 0dbb 2c1f f93d
0.09052117 -0.016003357 0.01535308 0.064868174 -0.034849837 0.13936648 -0.18537708 0.0217883
-0.104173005 -0.14260584 0.0007611771 0.09960112 0.054857235 -0.0005519568 0.011551105 -0.051746204
-0.015587101 -0.010707148 -0.013945749 0.078442395 0.10292171 -0.13963377 -0.02536085 -0.10990182
-0.016294705 -0.06916723 -0.0003051145 -0.14786904 0.10128362 0.11748117 -0.12314575 -0.17569865
-0.014316862 -0.06577793 0.042340267 -0.14213285 0.08519605 -0.14939082 -0.0456571 -0.027161617
0.07706713 -0.016431494 -0.09686176 -0.11440711 -0.018476775 -0.09127642 -0.0071941377 0.10477415
0.004611318 -0.07536102 0.00066804787 -0.069087416 -0.10697513 -0.0057463227 0.18269877 -0.05304388
0.075781286 -0.0099901045 9.4212315e-05 -0.14727736 0.07471997 0.18720652 -0.0021591636 0.12164149

6.bias f4 [2]
00000000: 2812 173e 4dc0 ad3d
0.1475302 0.08483944

exp_avg f4 [32, 2]
00000000: 4ee4 d639 8b96 8eb8 d852 473a 5a59 93b8
00000010: 8f05 e939 1123 7bb9 4bd1 24b9 a5cb d038
00000020: 250b 6f3a 162b 65b9 d0db 8239 4675 1937
00000030: 9cf4 1cb9 2da5 073a ded7 7db9 2f88 b3b8
00000040: 1da2 383a 2b25 f4b9 993b dcb7 88ee 4037
00000050: 6aa4 d8b7 ee3b 27b6 d2a3 4d39 690f 41b8
00000060: 844d f136 89e7 b238 7c15 26bb 54e1 823a
00000070: 75a0 82ba ed95 3d3a ac8f df38 d5a7 9e39
00000080: 0e7f a9b7 8365 8b37 19e3 a038 bd26 af38
00000090: 215a fc3a 23de 36ba 32f1 3537 f372 dcb7
000000a0: 5335 5aba 56dc c439 addf c139 21f5 0db9
000000b0: cc96 4d39 9d89 e239 9627 d9b9 170f a038
000000c0: 1326 a4b9 d51e 87b7 19ca 04ba 6b20 2339
000000d0: b6eb b039 fa79 feb9 9382 6339 876e 4fb8
000000e0: 0bbe ccb7 b08d 00b9 1620 59b9 71e5 103a
000000f0: 761a e1b6 ad20 3db9 eded ed36 2236 efb7
0.0004098736 -6.7991285e-05 0.0007603592 -7.026149e-05 0.00044445365 -0.00023950289 -0.00015718226 9.956145e-05
0.0009118787 -0.00021855193 0.00024959305 9.1468155e-06 -0.00014968443 0.00051744544 -0.00024208377 -8.560751e-05
0.00070432 -0.00046567 -2.6253796e-05 1.1499629e-05 -2.5825768e-05 -2.4919823e-06 0.00019611351 -4.6029138e-05
7.1913837e-06 8.530828e-05 -0.0025342396 0.0009985366 -0.0009966033 0.00072321185 0.000106602296 0.00030261153
-2.0205534e-05 1.6617361e-05 7.671695e-05 8.351866e-05 0.0019252935 -0.000697585 1.0844598e-05 -2.6279571e-05
-0.0008323986 0.00037548196 0.0003697848 -0.00013538125 0.000196065 0.0004320861 -0.0004141896 7.632205e-05
-0.00031308885 -1.6107611e-05 -0.0005065515 0.00015556968 0.00033744954 -0.00048537535 0.0002169705 -4.9455582e-05
-2.440719e-05 -0.00012259814 -0.00020706686 0.00055273535 -6.708603e-06 -0.00018036617 7.0908486e-06 -2.8516228e-05

exp_avg_sq f4 [32, 2]
00000000: 140e c133 5318 3433 ad68 ac33 cd2b 4032
00000010: 911f 5c34 38cd 8133 12b0 9531 c776 2931
00000020: b367 2f34 71c6 3034 636d 7533 b7f2 5832
00000030: 729b 2234 9a18 ca33 121b de32 48a0 4633
00000040: 0d64 2034 9f64 9b33 d716 902e 4589 8b2d
00000050: 2fe2 8b2e 6c81 0c2c 760f 1432 1059 2832
00000060: 8b58 8e33 e643 1133 6a5a 3e35 b7d3 f733
00000070: 0e45 c134 5983 7d33 f222 8833 7afb ba33
00000080: 3ed6 7233 6df0 2232 b7be e331 fe5d 9532
00000090: 5eb8 5835 801e 0a34 4587 6a31 c37b 0232
000000a0: cfe9 8134 6923 3634 de41 8333 a435 9133
000000b0: 1969 4834 9390 9e34 6871 1233 db03 9230
000000c0: 9bc0 0932 ae43 6331 3795 3033 c705 4533
000000d0: 540c 8034 ac43 d233 8731 1f33 6863 9a33
000000e0: 7b0f 7933 d3f8 7732 639c 9934 203c 4034
000000f0: a6c9 7631 aae8 d132 0e69 0d32 967f f431
8.9898236e-08 4.193164e-08 8.0284146e-08 1.118583e-08 2.050058e-07 6.04436e-08 4.3564876e-09 2.4660254e-09
1.633587e-07 1.646347e-07 5.7142994e-08 1.2628042e-08 1.5143976e-07 9.410833e-08 2.5856512e-08 4.6246242e-08
1.493756e-07 7.236053e-08 6.552419e-11 1.586343e-11 6.3611665e-11 1.996704e-12 8.618249e-09 9.7991375e-09
6.628496e-08 3.3822197e-08 7.0912085e-07 1.15403445e-07 3.5999295e-07 5.9025613e-08 6.33935e-08 8.707043e-08
5.6539868e-08 9.484308e-09 6.6282513e-09 1.7388626e-08 8.073456e-07 1.2863347e-07 3.4128373e-09 7.595136e-09
2.419824e-07 1.6962953e-07 6.112144e-08 6.761846e-08 1.8664686e-07 2.9534985e-07 3.4096416e-08 1.0623994e-09
8.018243e-09 3.307132e-09 4.1113903e-08 4.587289e-08 2.3850828e-07 9.7911965e-08 3.7065117e-08 7.189266e-08
5.798891e-08 1.4433868e-08 2.8612257e-07 1.7903267e-07 3.5912335e-09 2.4436606e-08 8.231167e-09 7.1158395e-09

exp_avg f4 [32]
00000000: 3235 46b9 4d35 1bba bcd3 a439 b502 ae38
00000010: 7389 073a 856e e638 9269 a4b9 66f9 4639
00000020: 39c0 4cb6 07f1 57b8 5f9f 84b8 9c9b 86b9
00000030: 7c25 1db9 9398 04ba 1cd2 cdb9 0f4c 9db8
00000040: d2ed 00b8 d4c5 a1b8 521c 67b9 752e c9b7
00000050: 465d 4738 fb72 1bb7 c02f a0b8 13c2 c0b9
00000060: 3333 a6b9 1261 e539 9654 87ba 0cf5 a238
00000070: 8ffd bbb9 d640 21ba 06d7 8538 e0fe 20b8
-0.00018902568 -0.0005920723 0.00031438272 8.297471e-05 0.0005170323 0.000109878405 -0.00031359174 0.0001897566
-3.0510257e-06 -5.148447e-05 -6.323936e-05 -0.0002567441 -0.00014986651 -0.0005058136 -0.0003925719 -7.5005104e-05
-3.0739066e-05 -7.7139266e-05 -0.00022040427 -2.39827e-05 4.7532165e-05 -9.265491e-06 -7.638289e-05 -0.0003676569
-0.00031700134 0.00043750607 -0.0010324891 7.7704055e-05 -0.00035856335 -0.0006151324 6.3819854e-05 -3.8384343e-05

exp_avg_sq f4 [32]
00000000: 5c36 c333 9143 9c33 a6d1 5334 1825 8031
00000010: fd44 5e34 679b 6833 c9a9 0e34 58d5 4533
00000020: 2652 0134 54c6 7a2f 446a b92f cfe9 7132
00000030: d14e d433 7266 e434 2737 7534 9283 9333
00000040: db50 5533 3f0b 8732 2c17 1c35 e1a7 d231
00000050: 804e 6234 9864 c733 4118 9b34 4920 b132
00000060: e21b 2f32 a140 b733 6506 8734 664b 9933
00000070: 88c0 a533 946a a634 3157 9532 06d5 1932
9.090283e-08 7.276606e-08 1.9727176e-07 3.7295074e-09 2.0700459e-07 5.4158047e-08 1.3286548e-07 4.6061672e-08
1.2043947e-07 2.2807828e-10 3.372681e-10 1.4081208e-08 9.886356e-08 4.2542848e-07 2.2837467e-07 6.8691534e-08
4.9666465e-08 1.5721183e-08 5.814825e-07 6.13089e-09 2.1076448e-07 9.2849575e-08 2.8888647e-07 2.0620194e-08
1.01926805e-08 8.5333575e-08 2.5150362e-07 7.1383326e-08 7.7184325e-08 3.0997455e-07 1.7385533e-08 8.954208e-09

exp_avg f4 [32, 32]
00000000: e425 2337 fa7d 53b5 fd58 83b5 c0ff 31b7
00000010: 553d 88b6 666d 8833 78b2 8bb2 ab53 dbb6
00000020: 4dd5 dcb0 87b4 c3b6 f706 10b7 fd76 79b6
00000030: dfa1 17b7 7272 aab6 962f 3b37 ec0b a8b3
00000040: b347 0435 1502 28b7 5c52 b5b6 fb5a 46b5
00000050: 1162 02b3 69f8 18b7 6dff 02b6 5701 96b6
00000060: 3784 ceae 074f 9fb5 f8d9 f831 25b7 c0b6
00000070: 5186 c5b6 92e6 8db6 e6bb 61b5 17b7 feb6
00000080: 8e3f 7f38 e367 0bb8 1c13 94b8 3691 ddb6
00000090: 0593 0fb7 2735 5238 04e3 0a38 0fd3 3a36
000000a0: 4f05 0938 f59e 39b7 3758 a234 3b64 a3b6
000000b0: 6572 22b8 fb92 83b8 7d85 6336 2ac7 1037
000000c0: 41f8 7937 0290 1837 5073 9db6 1a6d 0437
000000d0: e69d 0037 ae86 b937 f0fb 8637 ff4e 02b6
000000e0: 366c c8b2 b9f5 fbb8 5cb3 dbb8 9e6b 1437
000000f0: dfb8 5537 dcaf c537 684e 3035 e616 6fb6
00000100: 4109 0f3a 143f 50b9 e00e 44ba 5d64 a6b8
00000110: 125e 2f3a 6ca3 ee39 9482 0c3a 4fc1 1c3a
00000120: 3d12 193a d42e 7cb6 5ee4 4bb6 4ce8 30b7
00000130: e1ce 8e39 2811 5b38 bc52 823a 03af b83a
00000140: a214 c139 2821 da36 d121 43ba 0530 2fb7
00000150: 36f5 df39 638a ec38 eced 5e3a 0554 5338
00000160: 2ae0 b839 9d93 cdb9 1eb0 68ba 9ffe b837
00000170: 0b66 8239 7cbc a43a 40c1 8eb4 8773 5a36
00000180: e00f d938 5b2f fd38 8cdb 3939 8384 68b5
00000190: f6f1 5ab0 f33f 7232 931c e438 775c b637
000001a0: 24c4 c338 dd53 9ab5 da40 0e37 1bb8 3336
000001b0: abed d035 ed31 5437 0c06 9db6 d886 40b7
000001c0: 6fbe 9bb5 d064 1eb6 ac0d 4939 bd15 2036
000001d0: 894c ed37 e796 d337 68f2 3636 c4ed 3137
000001e0: 853c c1b1 6d34 ad38 ab0e 5439 99e0 07b6
000001f0: 3507 7c38 c274 0537 f160 19b6 7ddc a633
00000200: 8f0f 56b7 2b70 e5b8 bf0b ebb8 b74a 32b8
00000210: 6982 cbb6 318c 37b7 97e1 4437 8af5 3737
00000220: b937 1138 9813 0e37 97dd 5d36 e310 afb7
00000230: ef95 49b8 20c3 25b8 2ec1 0138 97d9 53b7
00000240: 7afc de35 558e 83b7 f1ad ddb8 6abb 89b6
00000250: ca7d 9a37 c181 76b7 68a1 6cb6 241c 4335
00000260: 78b2 d3b4 7f1a 24b9 4f00 79b9 4bac 08b7
00000270: faf5 9636 1f7a f2b5 558e fdb4 f587 2db7
00000280: aa8e a639 2f38 a138 b0b3 1539 3569 a537
00000290: 0cb8 b039 f24e 5539 b983 023a fa5c 8839
000002a0: ecd0 093a 9cd8 2937 b009 c9b0 ff28 3137
000002b0: 23d2 a832 699d 0237 36c0 7d39 d273 173a
000002c0: b619 5639 08e2 aa37 4434 3139 faaa 57b0
000002d0: a7b6 7c39 fa05 2138 3090 cb39 8798 b037
000002e0: 380c 2a39 d7c5 4537 71b8 2239 5f91 1ab7
000002f0: 92b1 8639 d52e 063a ff0b 2db7 39ef 0737
00000300: ebd9 c0b9 866c d738 8232 5e39 cc3e 8f37
00000310: 76c6 55ba 0a1a afb9 f3ed 8dba ea74 54ba
00000320: 6915 97ba cb1f 5032 0bcc 46b5 4bc7 2eb7
00000330: c173 e9b8 431b 9fb9 ddb0 94ba a901 00bb
00000340: 0368 97b9 ab6b 7536 09dc 063a 0809 ae36
00000350: 9aba 45ba 913c bfb7 6579 9bba d774 1fb8
00000360: db8c f4b9 e0c9 d739 9f01 ec39 c319 4435
00000370: e75e 18ba d7e3 ddba 4602 b835 bf67 c535
00000380: 20a5 82b8 23ce f0b9 2234 39ba 6dc6 20b9
00000390: 0150 a8b6 3de6 02b7 c9e3 2cb9 745a c0b8
000003a0: e102 32b9 aee7 5ab3 2a35 bf36 6660 3eb8
000003b0: 4b46 2cb9 98dc 3bb9 4e58 5f39 cf68 f4b8
000003c0: 61b8 d5b2 c3c8 9237 07e9 1eba 1ba5 c4b2
000003d0: 2157 6db8 8a82 1437 a0e3 9bb8 ed3e 1cb7
000003e0: 8bb8 04b7 94fc 38ba ad5a 81ba e1eb 84b6
000003f0: 19d0 10b9 cec4 89b8 7775 6f34 509b 7636
9.724379e-06 -7.8786945e-07 -9.78616e-07 -1.0609569e-05 -4.060256e-06 6.352893e-08 -1.6262888e-08 -6.536449e-06
-1.606773e-09 -5.832469e-06 -8.5846905e-06 -3.7173152e-06 -9.03799e-06 -5.079718e-06 1.1157148e-05 -7.825278e-08
4.927817e-07 -1.0014065e-05 -5.4038082e-06 -7.389314e-07 -3.0357175e-08 -9.1177435e-06 -1.9520187e-06 -4.4705043e-06
-9.3912815e-11 -1.1869423e-06 7.24253e-09 -5.7433667e-06 -5.886694e-06 -4.2289694e-06 -8.409246e-07 -7.5911043e-06
6.0855928e-05 -3.3236935e-05 -7.060749e-05 -6.603218e-06 -8.557695e-06 5.0117404e-05 3.311319e-05 2.7839012e-06
3.266829e-05 -1.1063869e-05 3.0239036e-07 -4.869447e-06 -3.8730348e-05 -6.273944e-05 3.3903336e-06 8.62944e-06
1.4899358e-05 9.093435e-06 -4.6923888e-06 7.893215e-06 7.666158e-06 2.2116434e-05 1.6091362e-05 -1.9417491e-06
-2.3332273e-08 -0.00012014382 -0.00010476142 8.846544e-06 1.2738833e-05 2.3566121e-05 6.5679205e-07 -3.5627104e-06
0.0005456396 -0.00019859924 -0.0007479023 -7.934191e-05 0.0006689738 0.00045516656 0.0005360034 0.0005979733
0.00058392045 -3.7578184e-06 -3.0382284e-06 -1.0544503e-05 0.00027238487 5.2229647e-05 0.000994287 0.0014090243
0.000368272 6.500766e-06 -0.00074436987 -1.0441993e-05 0.0004271657 0.000112791335 0.0008504081 5.038457e-05
0.0003526223 -0.00039210627 -0.0008876341 2.2053076e-05 0.0002487156 0.001256838 -2.659017e-07 3.2551777e-06
0.00010350323 0.00012072801 0.00017724762 -8.6619565e-07 -7.9651785e-10 1.4100794e-08 0.000108772096 2.1739148e-05
9.3348586e-05 -1.1498302e-06 8.478959e-06 2.6780242e-06 1.5566378e-06 1.2647809e-05 -4.6796686e-06 -1.1475488e-05
-1.1603823e-06 -2.3602515e-06 0.00019173947 2.3854511e-06 2.8288241e-05 2.522343e-05 2.7261212e-06 1.0605381e-05
-5.6239196e-09 8.259048e-05 0.0002022336 -2.02473e-06 6.0088194e-05 7.954603e-06 -2.2855204e-06 7.770084e-08
-1.27590165e-05 -0.00010940464 -0.00011207861 -4.250809e-05 -6.065053e-06 -1.0940291e-05 1.1735035e-05 1.0964819e-05
3.462259e-05 8.468422e-06 3.3060549e-06 -2.086949e-05 -4.806177e-05 -3.952079e-05 3.093591e-05 -1.2627242e-05
1.6613769e-06 -1.5682695e-05 -0.000105705 -4.104736e-06 1.8416806e-05 -1.4692953e-05 -3.5260691e-06 7.268411e-07
-3.9431666e-07 -0.0001565013 -0.00023746605 -8.146347e-06 4.498984e-06 -1.8065947e-06 -4.7228482e-07 -1.03432585e-05
0.0003176828 7.687543e-05 0.00014276686 1.9718524e-05 0.00033706462 0.00020342672 0.00049787347 0.00026009214
0.0005257267 1.0123618e-05 -1.4627428e-09 1.0559567e-05 1.9653333e-08 7.785254e-06 0.00024199564 0.00057774514
0.00020418208 2.0370833e-05 0.00016899506 -7.8459517e-10 0.00024100636 3.8390957e-05 0.00038826605 2.1051861e-05
0.00016217015 1.1788178e-05 0.00015518234 -9.212962e-06 0.00025690772 0.0005118673 -1.0314397e-05 8.102325e-06
-0.00036783455 0.00010272213 0.00021190385 1.707617e-05 -0.0008154878 -0.00033398002 -0.0010828361 -0.000810458
-0.0011526766 1.2114422e-08 -7.405767e-07 -1.041761e-05 -0.000111318666 -0.00030347155 -0.0011344213 -0.001953224
-0.0002887846 3.6570516e-06 0.0005144482 5.1866555e-06 -0.00075427594 -2.2797178e-05 -0.001186174 -3.801737e-05
-0.00046644252 0.00041158404 0.00045014636 7.305318e-07 -0.00058124814 -0.0016928863 1.370973e-06 1.4707838e-06
-6.22964e-05 -0.0004592995 -0.00070649583 -0.00015332708 -5.016104e-06 -7.80221e-06 -0.00016488055 -9.172122e-05
-0.00016976475 -5.096779e-08 5.6984327e-06 -4.5389308e-05 -0.00016429384 -0.00017915887 0.00021299833 -0.00011654349
-2.488031e-08 1.7498043e-05 -0.00060619455 -2.2892484e-08 -5.658635e-05 8.851881e-06 -7.4333744e-05 -9.312976e-06
-7.91078e-06 -0.000705668 -0.0009868942 -3.9613665e-06 -0.00013810433 -6.569327e-05 2.2301343e-07 3.674726e-06

exp_avg_sq f4 [32, 32]
00000000: aaaa 552d 4b9c 522b f9a3 742b c336 752d
00000010: 7ca5 772c ad64 a82a 1250 4929 fb35 eb2c
00000020: 722b 2226 3b2f c82c 852b 302d 14fc 5d2c
00000030: cda9 3e2d d8af a52c 30e5 842d ccd3 102a
00000040: 20bf 1f2b eec1 5f2d 5a2a b42c df0b 4a2b
00000050: 6036 a529 4c45 412d aa2e db2b cdff 8b2c
00000060: 9f06 4923 3f92 8d2b 4b52 0728 1af1 c32c
00000070: 95c9 ca2c ca5d 822c d7f7 5b2b 6658 122d
00000080: 5954 0f34 741f 2033 ba28 ca33 9cb3 9030
00000090: 1053 2f2d f5c4 9530 4651 0534 c950 4b32
000000a0: 40d4 1734 2d1d 832d dcb1 fe2a 13e7 de2f
000000b0: e854 642f 80bc b630 7cd7 7c2e 643b 9b32
000000c0: 1caa 1230 207b b22f 0ded 2934 ae21 1b2d
000000d0: b2d4 7832 b6fe 2433 3ddc 3932 7010 da2b
000000e0: 9658 ec28 4310 3332 2545 ae33 2ffd 4f31
000000f0: f42e 2033 8fa0 4a32 a6cd 3b2b 95d3 522c
00000100: ec53 2435 5852 8732 a177 b434 d5ac a930
00000110: a229 2534 49f0 e433 2a04 c835 a403 d034
00000120: 2156 de35 35f3 602c 11de 2e2c e846 602f
00000130: ba40 ab32 acb4 1d34 54c4 ad34 bae3 ff35
00000140: 2283 9833 526e 202f 02cd af34 3089 812d
00000150: 62e6 eb34 885d 3433 41b4 5235 b9c6 f12f
00000160: fa14 4b33 2dea 8734 65a2 1534 b424 7a31
00000170: f7b9 f834 9d7f bd35 fddb 9f2b 36bf 5d2f
00000180: 7140 b332 6ed9 8a32 3089 e932 320c 6b30
00000190: c014 6d25 2a62 0b2a cd15 7e32 e5c1 c22f
000001a0: b8d1 8f32 4b16 8a2b 90de 2c2d 475c b42f
000001b0: 789a 362b 0a72 3c2f 0c98 942c 689e c82d
000001c0: 1cd8 9a2b 9843 922f cd0c 2833 062b 062c
000001d0: ec95 9e30 d0e8 0832 9e84 a12e 4f0f 752d
000001e0: 1d6d 8329 5f25 9b31 839c 2733 f70f 1b30
000001f0: 9d32 ab31 66b4 732d 8d54 002c a826 2d2a
00000200: abd1 2d31 0e0f f531 02ea de32 3177 5e30
00000210: 0376 d32c b7c5 802d d836 8c31 6fa9 922e
00000220: d588 9c31 c88a 2c2d 6fdd 402c 0fee 8b2f
00000230: bfba 7d30 4c68 a431 9fcc 5330 6afe 922f
00000240: 8b5b bc2b 2263 0c2f ce60 8432 2b11 7b2c
00000250: bd45 f930 5659 2230 56e1 442f a1f0 472b
00000260: d905 0f2b 865b cd32 c38f 1233 cb76 1c2d
00000270: de2d 3031 d964 422f 6643 1c2b 0780 6b2d
00000280: f1c8 3434 613b 4932 f5b6 9233 02e8 9c2f
00000290: 06d3 3a32 572a b632 4d19 8834 fa0d 6233
000002a0: 22b7 9934 ffa1 632d 820f 7429 a422 662e
000002b0: 4773 832a ca5f 5030 602f 0532 297b 5034
000002c0: cecf 6e32 732e b42e 511d f733 a278 8d2a
000002d0: a6d8 5633 56ba cf32 8814 b433 7a9c 222f
000002e0: 809c 1731 3558 8a30 5053 e832 35a5 1331
000002f0: f449 a033 007a 1634 7175 6a2d fbd3 2d2d
00000300: 08d3 4135 9417 e232 ed7b c734 ba21 8730
00000310: ad76 4134 585f d033 b672 cc35 e630 d034
00000320: 95f3 e135 595c 3928 4f55 4a2b cc8b 662f
00000330: 789c cb32 a456 b234 3e19 3e35 6689 1536
00000340: 70fb 9033 2025 342f da93 ef34 2e02 2b2f
00000350: 582c 0d35 03bd bb33 a5d2 6d35 221d be2f
00000360: f134 9433 6a54 ab34 65a7 ed33 74b3 3f32
00000370: 6845 0435 5349 db35 d8be bf30 8587 3430
00000380: 20df a533 a962 e733 aa6d c634 e552 1a32
00000390: 4ce9 a22c 8175 182d 1db6 bc33 d319 e930
000003a0: d6a3 ce33 e04e a32a 87d1 c12c 3ac9 2131
000003b0: 1a2d a332 1475 bb33 38f3 b932 2d6e cc31
000003c0: 20bc 2429 1657 c530 abac 8e34 9109 e928
000003d0: 8d3f f432 70e3 c932 dcb3 7031 e2b9 472d
000003e0: 6aa6 1b2d d0a2 c334 cd0a ff34 db82 f12f
000003f0: 49e1 3733 78da 9331 fa37 e32a aae2 5a2c
1.2145543e-11 7.482389e-13 8.691377e-13 1.3938797e-11 3.5192673e-12 2.9912653e-13 4.4700416e-14 6.6850948e-12
5.626392e-16 5.6895855e-12 1.0014105e-11 3.154592e-12 1.0837953e-11 4.7091046e-12 1.5108442e-11 1.2863251e-13
5.6753387e-13 1.27191434e-11 5.1206097e-12 7.178129e-13 7.3369045e-14 1.0986167e-11 1.5573838e-12 3.979017e-12
1.0897634e-17 1.0059244e-12 7.51185e-15 5.569001e-12 5.7635654e-12 3.705235e-12 7.8148376e-13 8.3187675e-12
1.3348598e-07 3.728151e-08 9.413766e-08 1.0528427e-09 9.966042e-12 1.0897155e-09 1.2416157e-07 1.1834524e-08
1.4140187e-07 1.4905932e-11 4.5242878e-13 4.0545753e-10 2.0766644e-10 1.3295818e-09 5.7489555e-11 1.8071383e-08
5.335623e-10 3.2465497e-10 1.582559e-07 8.818208e-12 1.4483861e-08 3.8415884e-08 1.0818494e-08 1.5494394e-12
2.6239681e-14 1.0422869e-08 8.115084e-08 3.0266383e-09 3.7295607e-08 1.1794454e-08 6.672114e-13 2.9960247e-12
6.1216883e-07 1.5753514e-08 3.3614654e-07 1.234549e-09 1.5381968e-07 1.0660785e-07 1.4902373e-06 3.8745668e-07
1.6565356e-06 3.1967322e-12 2.4850159e-12 2.0397872e-10 1.9936454e-08 1.4687492e-07 3.236661e-07 1.9065258e-06
7.1019045e-08 1.4591109e-10 3.2745453e-07 1.4726526e-11 4.3939787e-07 4.1994582e-08 7.84934e-07 4.3978846e-10
4.72837e-08 2.5316095e-07 1.3935785e-07 3.6400651e-09 4.6328907e-07 1.4118738e-06 1.1358689e-12 2.0167765e-10
2.0867647e-08 1.616419e-08 2.7187156e-08 8.550983e-10 2.0563504e-16 1.2379738e-13 1.4789703e-08 3.5426165e-10
1.674276e-08 9.811677e-13 9.826487e-12 3.2807376e-10 6.487376e-13 1.7139015e-10 4.2232936e-12 2.2807714e-11
1.100234e-12 2.6605274e-10 3.912719e-08 1.9066428e-12 1.1538623e-09 7.969177e-09 7.34499e-11 1.3930037e-11
5.836497e-14 4.5153423e-09 3.9025064e-08 5.641136e-10 4.982509e-09 1.3853007e-11 1.823683e-12 1.5378898e-13
2.5293996e-09 7.13215e-09 2.5950616e-08 8.093251e-10 6.0100826e-12 1.4639718e-11 4.0807713e-09 6.669409e-11
4.5557536e-09 9.807884e-12 2.7407761e-12 2.5453104e-10 9.2306246e-10 4.7848854e-09 7.7052137e-10 2.6738017e-10
1.3383612e-12 1.2768145e-10 1.5410844e-08 3.5678775e-12 1.8136955e-09 5.906221e-10 1.7906152e-10 7.103294e-13
5.081192e-13 2.3906761e-08 3.4124024e-08 8.893951e-12 2.5637443e-09 1.7680025e-10 5.551587e-13 1.3386631e-11
1.6836908e-07 1.1713241e-08 6.8319345e-08 2.8541086e-10 1.0874606e-08 2.1206843e-08 2.5350383e-07 5.2632437e-08
2.8631717e-07 1.29394264e-11 5.4192334e-14 5.2326712e-11 2.3350264e-13 7.5806084e-10 7.752391e-09 1.9416315e-07
1.3900673e-08 8.1937034e-11 1.15071664e-07 2.5130337e-13 5.00228e-08 2.4182707e-08 8.385638e-08 1.4789406e-10
2.2062352e-09 1.0065891e-09 2.704624e-08 2.1485225e-09 7.4640326e-08 1.4014222e-07 1.3327437e-11 9.880981e-12
7.2205194e-07 2.6320585e-08 3.7156806e-07 9.832128e-10 1.80177e-07 9.703098e-08 1.523257e-06 3.8778597e-07
1.6834698e-06 1.0289588e-14 7.1883206e-13 2.0968044e-10 2.3703464e-08 3.3218123e-07 7.081725e-07 2.2282707e-06
6.751259e-08 1.6384094e-10 4.4624795e-07 1.5553134e-10 5.259112e-07 8.742247e-08 8.859591e-07 3.45815e-10
6.901417e-08 3.191265e-07 1.10666214e-07 1.1158466e-08 4.927483e-07 1.6338112e-06 1.395132e-09 6.5676203e-10
7.7239974e-08 1.0774722e-07 3.6960165e-07 8.982828e-09 4.630218e-12 8.666291e-12 8.7875584e-08 1.6960321e-09
9.622424e-08 2.9009347e-13 5.508652e-12 2.3542968e-09 1.8996207e-08 8.7291625e-08 2.1647438e-08 5.949707e-09
3.6578488e-14 1.4358388e-09 2.6575194e-07 2.5872345e-14 2.8434238e-08 2.3502906e-08 3.5026835e-09 1.1353115e-11
8.847681e-12 3.6440042e-07 4.750531e-07 4.3930623e-10 4.2812903e-08 4.3031e-09 4.0362142e-13 3.1105487e-12

exp_avg f4 [32]
00000000: 38f5 50b6 94b5 f0b8 c308 e5b9 b401 6639
00000010: 4966 d0b8 798a b639 aa81 d9b9 9c4d 52ba
00000020: be56 79b8 9099 06bb 1670 30b7 725e 0cba
00000030: 98f5 68ba d025 8fb7 5ced 08b8 b904 8039
00000040: 44b6 53b9 eb51 f0b8 b84b 6ab9 8567 2ab9
00000050: 3c10 9439 a74d cc38 d993 e1b9 0559 5ab7
00000060: 4c9f 0039 920f 5837 42a6 18b7 0b24 23b7
00000070: 016b 073a df64 b8ba c7e7 c0ba 6eb8 9438
-3.1137151e-06 -0.00011477913 -0.00043684812 0.00021935144 -9.937265e-05 0.00034816915 -0.00041486073 -0.0008022429
-5.944701e-05 -0.0020538308 -1.05165145e-05 -0.00053546496 -0.0008886694 -1.7064536e-05 -3.2645985e-05 0.0002441758
-0.00020190427 -0.0001145935 -0.00022344186 -0.00016251027 0.00028240855 9.741942e-05 -0.000430255 -1.3014539e-05
0.00012266374 1.28782285e-05 -9.098616e-06 -9.723949e-06 0.0005165786 -0.0014068148 -0.0014717513 7.091543e-05

exp_avg_sq f4 [32]
00000000: fbdc 332c 6eb0 4634 6a93 ad35 ff72 3633
00000010: 15b5 3633 2cd0 6334 02ad c835 4b2a 2535
00000020: 303f 9534 35f2 7135 47cc 712d 3c03 7335
00000030: 2b6c e635 43f6 8d33 ad05 4b34 648c 4f35
00000040: ba19 2b34 37c7 bc35 1ae5 8334 1402 c535
00000050: f287 fd34 99aa 3133 e187 5d34 2b33 ff30
00000060: dd96 5a35 5a05 0134 eff3 b131 eaa6 552d
00000070: 99d8 b934 1e1d 7a35 b7e3 a035 fd69 8535
2.5560099e-12 1.8504372e-07 1.2932408e-06 4.2479765e-08 4.253987e-08 2.1216755e-07 1.4951513e-06 6.1528834e-07
2.7799388e-07 9.0131954e-07 1.3744623e-11 9.052926e-07 1.7167816e-06 6.610619e-08 1.8907913e-07 7.7317804e-07
1.5934975e-07 1.4065071e-06 2.4567345e-07 1.4678249e-06 4.7223836e-07 4.136618e-08 2.0631661e-07 1.8568235e-09
8.1430863e-07 1.2016008e-07 5.17911e-09 1.2144711e-11 3.461653e-07 9.317463e-07 1.1987203e-06 9.940119e-07

exp_avg f4 [32, 32]
00000000: aa90 e834 d23a 87b8 1c8f a8b9 ab39 c937
00000010: e905 21b9 1efa 2838 04e3 a6b9 4f95 09b9
00000020: 7256 6db9 b7e9 8fb8 5ba5 f736 3559 1a39
00000030: 9f65 1439 c8aa 8437 e7e5 6738 faa5 1f34
00000040: 57e8 4db9 c3f0 0bba f7c4 3938 a312 34b8
00000050: 026d 07b9 a4f4 b2b8 88eb 1537 8ddb 9c36
00000060: 9401 e3b8 58e2 0439 5327 4f37 8d2a eaaf
00000070: f152 f2b8 d68d cab9 bd5a bc39 e481 a5b9
00000080: 152b d832 1ad4 1bb8 5a0c 0ab9 ad73 be36
00000090: b040 9fb8 35ba e937 adfc 93b8 ec1b 6bb8
000000a0: ebcf c0b8 f8d5 45b8 5d27 f5b6 244b d438
000000b0: ef46 0539 9419 95b6 4e0f 5c39 b97f 2f37
000000c0: 1471 c2b8 774e 45b9 13de 7f37 cc76 1a37
000000d0: 2d24 b2b7 5773 58b8 88e6 1239 0e5f 5cb4
000000e0: 5535 d138 7ac8 a138 3dfa 5337 8eeb deb6
000000f0: 3a56 31b8 d0e2 16b9 b7b9 9439 2e42 8237
00000100: b089 e836 8bd2 c9b5 b132 e7b7 3a89 b2b6
00000110: 24b8 2ab7 2a1c 84b7 4f99 34b6 c810 46b7
00000120: c6ac e0b6 f702 67b7 ee7d 1337 a28e 6837
00000130: 3401 4f36 7115 29b7 5bb4 9eb6 b701 78b3
00000140: 0af9 5cb7 cbe8 8ab7 4fff a835 f26f d9b7
00000150: 5b33 97b5 4d76 1437 4ed3 afb7 e429 0437
00000160: affd abb7 da96 80b7 28c5 a5b3 8b35 26b4
00000170: dc52 7d37 8c95 bab7 e397 25b7 21fd 0db6
00000180: 6949 18b6 27d3 0eb9 cdd0 21ba 4932 eb37
00000190: 6bde b5b9 1d69 4138 f78f 6a38 172e 91b9
000001a0: f3b0 f2b9 a430 1fb9 59ca 6333 96c4 5b3a
000001b0: 1878 2e3a f37d 8237 4d10 713a 0ebe f237
000001c0: 063f bbb9 1fa2 3dba 766e a838 7dbd 7cb8
000001d0: e8c7 a8b7 358a 49b9 be12 193a 9073 2c36
000001e0: 5dae 453a 24bf 8139 90e7 77b7 342a c936
000001f0: 80c4 69b9 f7c7 38ba 2254 ce3a a563 113a
00000200: bf07 dab6 4eab 5ab4 70c3 2139 cd86 7fb6
00000210: a9f6 92b7 43b8 a038 436f 37b9 5155 2ab8
00000220: efee bbb8 fd1f ab38 69f3 2c37 fb77 a7b9
00000230: 0329 a6b9 3e7c e5b6 4d03 18ba fbc8 bbb7
00000240: 5c0a aab7 37dc f038 1eab 0e36 6ecc f938
00000250: f850 ccb7 b7ff cb32 2b39 dcb9 a8c3 ad33
00000260: 3423 19ba fa8b c2b8 f2cf b936 d6a0 c9b6
00000270: ca88 86b7 427a 5139 ea1e 3fba 5f65 d7b9
00000280: a4b2 c134 e74f 96b7 a914 94b9 2ce5 2a37
00000290: 8d7b 2ab6 bd1a 8c37 4e57 9cb7 b388 6b37
000002a0: 4d9c ff38 f4ed 74b9 063b cf31 01f8 d239
000002b0: 0aa2 583a a91b 81b7 e3ac b23a 17e4 9838
000002c0: 92aa 5437 7b80 40ba e43f a338 b428 05b9
000002d0: dd99 4cb8 33fd 79b8 de81 6a3a 64a7 a036
000002e0: e2ab 703a df46 f239 bc9e 6237 2a91 c9b5
000002f0: 9bfc 17b8 4c12 07ba 7b97 df3a 4ce2 9739
00000300: 345f 4bb2 6545 0138 05b4 8839 876b 5b35
00000310: 469e d438 c94d bf37 acf4 0f36 8ec0 b038
00000320: 0547 2f39 7a7f cc38 6926 ce36 380c d2b9
00000330: 0d6e dfb9 fe92 2937 44de 3bba 65e5 4ab8
00000340: 7508 2039 8203 ab39 2de8 5fb7 d8b0 4438
00000350: 2664 1836 36da 16b7 e4a1 f1b9 2178 d7b6
00000360: 75c6 e8b9 c474 51b9 98f4 7730 02c2 2937
00000370: d668 9038 b2b6 a639 e1af 5aba 511d 9eb9
00000380: 75aa 3537 7970 172e 4ce4 f136 02a5 9d36
00000390: 1f27 da36 8418 39b7 45fa 0837 0e2d 11b7
000003a0: 98b0 1d37 3a07 7331 a7c2 1ab7 916c 8134
000003b0: 743f a233 382b 1eb7 bae9 8fb5 0005 8e32
000003c0: a9dc f836 fc75 02b5 f380 9336 28a7 c932
000003d0: 6f40 fe2f 98dc a9b3 f60b b5b6 c229 0bb7
000003e0: 4dac 13b5 5dc5 27b7 ae93 24b6 9f6c 932f
000003f0: 4e52 b6b6 cfb3 e8b5 ae4f 9833 b139 e1b2
4.3318624e-07 -6.448258e-05 -0.00032150082 2.3987921e-05 -0.00015356358 4.028726e-05 -0.00031831127 -0.0001312096
-0.00022634285 -6.862304e-05 7.3804235e-06 0.00014719817 0.00014152237 1.5815152e-05 5.5288805e-05 1.4868411e-07
-0.00019636877 -0.00053383055 4.4290875e-05 -4.29327e-05 -0.00012915212 -8.533269e-05 8.935931e-06 4.6747214e-06
-0.000108244974 0.0001267282 1.2347317e-05 -4.2594586e-10 -0.00011554908 -0.00038634118 0.0003592576 -0.00031568028
2.5165301e-08 -3.7152415e-05 -0.00013165307 5.6759077e-06 -7.59376e-05 2.7862474e-05 -7.056571e-05 -5.605437e-05
-9.194001e-05 -4.7167734e-05 -7.3061515e-06 0.00010122944 0.00012710293 -4.4435237e-06 0.00020986536 1.0460551e-05
-9.271703e-05 -0.00018816614 1.525089e-05 9.206775e-06 -2.12361e-05 -5.160583e-05 0.00014009525 -2.0523677e-07
9.9758305e-05 7.71442e-05 1.2634843e-05 -6.6435377e-06 -4.2280393e-05 -0.00014389609 0.00028367128 1.5528025e-05
6.9301677e-06 -1.5036943e-06 -2.7560951e-05 -5.3207887e-06 -1.0175663e-05 -1.5748741e-05 -2.6911327e-06 -1.1805627e-05
-6.6958337e-06 -1.3769363e-05 8.791203e-06 1.3861487e-05 3.0846104e-06 -1.0078177e-05 -4.729763e-06 -5.774356e-08
-1.3171006e-05 -1.6559285e-05 1.259128e-06 -2.5920544e-05 -1.1265323e-06 8.8490315e-06 -2.0960022e-05 7.8775665e-06
-2.050292e-05 -1.5329035e-05 -7.719274e-08 -1.5479434e-07 1.5099267e-05 -2.2242566e-05 -9.87013e-06 -2.1157978e-06
-2.2692495e-06 -0.00013620836 -0.00061727763 2.8037599e-05 -0.00034688725 4.611268e-05 5.5924025e-05 -0.00027690895
-0.00046289674 -0.00015181542 5.303659e-08 0.00083834806 0.00066554686 1.5555857e-05 0.00091958494 2.893715e-05
-0.00035714376 -0.0007233936 8.031439e-05 -6.0257957e-05 -2.012025e-05 -0.0001922034 0.00058392796 2.5697263e-06
0.0007540936 0.00024747208 -1.4776262e-05 5.99518e-06 -0.00022293814 -0.000704884 0.0015741626 0.0005546159
-6.497808e-06 -2.0365152e-07 0.00015426963 -3.8076425e-06 -1.7519416e-05 7.663716e-05 -0.00017493688 -4.0610616e-05
-8.96136e-05 8.159874e-05 1.0308672e-05 -0.00031942115 -0.00031692543 -6.8391955e-06 -0.00057988317 -2.2385726e-05
-2.0270403e-05 0.0001148511 2.1259252e-06 0.00011911323 -2.4356399e-05 2.3748596e-08 -0.00042004263 8.09153e-08
-0.00058417325 -9.2767135e-05 5.5376377e-06 -6.0089906e-06 -1.6037742e-05 0.00019977338 -0.00072906783 -0.00041083523
3.607903e-07 -1.79186e-05 -0.00028244153 1.0186148e-05 -2.540389e-06 1.6701752e-05 -1.8637304e-05 1.4038919e-05
0.00012188461 -0.00023358298 6.031203e-09 0.000402391 0.0008263892 -1.5390879e-05 0.0013631847 7.29041e-05
1.2675899e-05 -0.0007343364 7.784346e-05 -0.00012699032 -4.8780686e-05 -5.9602036e-05 0.00089457433 4.7878584e-06
0.0009180886 0.0004621064 1.3507608e-05 -1.5017915e-06 -3.6236463e-05 -0.0005152568 0.0017058695 0.0002896957
-1.1837802e-08 3.0820625e-05 0.00026074066 8.174033e-07 0.000101384285 2.2805196e-05 2.1451078e-06 8.4282e-05
0.00016715757 9.7512224e-05 6.14375e-06 -0.00040063425 -0.0004261587 1.0107409e-05 -0.0007166604 -4.8374193e-05
0.0001526194 0.00032618275 -1.3345893e-05 4.689474e-05 2.270806e-06 -8.991503e-06 -0.0004608772 -6.421484e-06
-0.0004439835 -0.00019975292 9.0205665e-10 1.0118356e-05 6.885982e-05 0.00031798106 -0.0008342248 -0.0003015795
1.0828128e-05 3.443332e-11 7.208937e-06 4.698174e-06 6.5014606e-06 -1.1032567e-05 8.164502e-06 -8.653164e-06
9.399046e-06 3.5365262e-09 -9.224436e-06 2.4107115e-07 7.555255e-08 -9.4275965e-06 -1.0722354e-06 1.653325e-08
7.416664e-06 -4.8600464e-07 4.395953e-06 2.3475494e-08 4.6248114e-10 -7.9098015e-08 -5.395613e-06 -8.294768e-06
-5.50125e-07 -9.999928e-06 -2.4523865e-06 2.6816324e-10 -5.433604e-06 -1.7337678e-06 7.092545e-08 -2.6219682e-08
