checkpoints/ablation_eps_0.20/ablation_eps_0.20_epoch0050.pt (torch, 39995 bytes, 24 tensors)

0.weight f4 [32, 2]
00000000: 7679 f03e 1bca 273f 424a 58be 20d9 353f
00000010: 321c 09be 3868 893e 67d5 79be 407a 9e3e
00000020: eee0 0f3f 2ad9 0cbf 96aa 1c3f 06f7 063e
00000030: 6367 ea3e 9956 8e3d 914a cb3e 1ab8 d2bd
00000040: 73b0 0a3f 576a f93d 2ba4 82bd 15d5 513b
00000050: d84b 7abd c450 81b1 9fb2 a7be 5fa1 d43e
00000060: 90ae 2abf 7998 9bbe 2579 25be da13 03bf
00000070: 64d3 8d3d 9c1d 51bf e1dc 103f 4f27 32bf
00000080: 2532 023f 047b 043e a179 62be 0c30 cd3e
00000090: 34a7 c23d 00d2 3a3f cd8b 713d 5313 3abe
000000a0: 62e8 263e 0dbe 8bbe 8114 923e da02 293f
000000b0: 9a7e 9b3e 9da5 c2be de0a d43e 4d21 0abd
000000c0: 9f8a d53e 8f50 c0be 33e5 26bf 4aaf a9be
000000d0: 2143 eabe e2c5 353f 27c8 3f3e b638 ac3e
000000e0: e2cf 6e3e f249 cc3c e255 fd3e 1e7f 08bf
000000f0: 7ae0 c83c f1ee d0be 1487 333e ce8e 41be
0.46967667 0.65542763 -0.21122077 0.7103443 -0.13389662 0.26837325 -0.24397813 0.30952644
0.5620259 -0.55018866 0.61197793 0.1318017 0.45782003 0.06950111 0.39705327 -0.10289021
0.5417549 0.12178486 -0.06378969 0.0032017876 -0.061107486 -3.763576e-09 -0.32753465 0.41529366
-0.6667261 -0.30389765 -0.16159494 -0.51202166 0.06925085 -0.81685805 0.56587034 -0.6959123
0.50857764 0.12937552 -0.2211671 0.4007572 0.09504548 0.72976685 0.058971215 -0.18171434
0.16299585 -0.27293435 0.28531268 0.66019976 0.30370027 -0.38016978 0.4141454 -0.033723164
0.41707322 -0.3756146 -0.6519348 -0.33141547 -0.4575434 0.7100507 0.18728696 0.33637017
0.23321488 0.024937604 0.49479586 -0.53318965 0.024521101 -0.40807298 0.17531997 -0.18902132

0.bias f4 [32]
00000000: 9363 853e 1cad cfbc 48b2 163f 2d2c b8be
00000010: c072 d4be df0d b6be f55f 2c3f bfb8 2f3e
00000020: 4222 253f 570f 87be cba4 bdbe da79 f1be
00000030: 6c49 c0be bada a83e 1c96 7e3e 6032 0e3f
00000040: 6259 c0be 062b dfbe 7ccc ce3e 68d1 73be
00000050: dc24 d13e 39d4 0dbe f6b0 d83e cc8c fbbe
00000060: 9654 8ebe 4b84 743e 8150 6d3e bb91 16be
00000070: 04b9 c33e 516e 053f 357e f9be d54a acbe
0.26052532 -0.0253511 0.58865786 -0.35971203 -0.41493797 -0.35557458 0.6733392 0.17160319
0.645054 -0.2637889 -0.3703979 -0.47163278 -0.37556016 0.32979375 0.2486195 0.55545616
-0.37568194 -0.43587512 0.40390384 -0.23810351 0.40848434 -0.13850488 0.4232251 -0.49130857
-0.2779891 0.23878591 0.23175241 -0.1470403 0.38227093 0.52121454 -0.487291 -0.33650842

2.weight f4 [32, 32]
00000000: 6b06 3d3a ec10 3538 72de 33b8 46cd 0abb
00000010: 8bd4 a3b8 a043 32ad 84b1 39b9 dd75 a1b9
00000020: d679 95b8 5bd5 00b8 23dd 21ba ad1c 2133
00000030: 0648 61ba 6985 0dba 15ee 3a3b 05e1 24ba
00000040: 84eb 812e ccd0 cbba f2d9 e5b9 38c8 37ae
00000050: 2f6d 6eb9 3ba4 a8ba f2ce afb9 5e5b a8b5
00000060: f439 e6b7 9035 52b9 f915 75b7 e011 05b9
00000070: 5839 d5b9 5777 37ba 6b69 1a2f ae0c 8db9
00000080: 6d9b 0b3e 443c 0abd 7d8e 2b3e 8ba4 2b3d
00000090: d8c9 28bd 3e6c d03c edd4 0abd c306 81bd
000000a0: 5b21 06be 06b6 2cbb 7734 ccae 96b2 50bd
000000b0: d493 9d3d d12d d0bd bf1b 4b3c f230 c2bd
000000c0: 23d7 60bd f746 1fbb 57c2 cc3d 9682 b939
000000d0: 6858 2d3e b07c 12be 36b5 8b3d 53e8 1dbb
000000e0: 12d0 0ebd 7a71 d4bd 1503 2f3e d21c f0bd
000000f0: fbf3 d33d 12bc ad3d 6782 1c2f d238 4c33
00000100: ba9a 273e c936 d53c a0f5 863d f1a7 abbd
00000110: f1c6 683c ddb3 1ebd 9ee8 81bd f566 013e
00000120: 24af 693d 3379 fb32 d92a 7131 2a97 7fbc
00000130: 44da a9bd fdaa cbbd 71f9 4ebe a623 9fbd
00000140: 4831 12be f4a8 663c bcd7 5c3e 2832 15bb
00000150: 8c40 053d bfd0 ee3d ae4f aa3c 607a 83bd
00000160: c374 003d beed 733d e1ae fb3d bbcd e73c
00000170: 06a5 0abd 30a0 973a cf28 bcae 9743 c5bc
00000180: 98bf 193e d884 4a3e f241 843c 6cda 30bc
00000190: 62f9 52bd 73d7 c43d 6510 943d a0f8 383d
000001a0: 5532 f9bd 2f72 182e 5d7e 153a b4ab c23d
000001b0: d3bc 40be 190e 11be 39cb 1bbd 3fb0 92bd
000001c0: 6daa 303d d445 a43d 5e5d 1e3e 958e 0231
000001d0: c95e 0cbe 982d 72bd f7df 25bd 1b61 07bc
000001e0: 59b7 7abd 300a 8cbd f1cb e33d fe03 3fbc
000001f0: 7992 9fbd 93b4 353d 0a80 b6af 3507 312e
00000200: ba51 2fbe f21e ce3d 5371 d43d 4c60 6f3c
00000210: 8f73 39b8 f402 23bb 6fe9 2bbe 0b55 783c
00000220: 5cf3 103d 804c 143a ccec edb2 ea13 0dbd
00000230: 5030 843d 25e9 10be b3af 53be 7910 d4bd
00000240: 44a9 06ad 1661 19be f979 7bbd 5f45 77b4
00000250: 23dd 7dbd 2a93 94bd 9bd8 03be 5c59 862e
00000260: 6b42 a52e ce46 c03d 1089 8dbd 0399 073c
00000270: b51f 89bd 779c 95bd 2e94 fead 9838 f2ba
00000280: b903 063e 259a 1ebe d563 fa3d 9e3f bf3c
00000290: eb91 573c 346d c5bd d816 1c3e a635 6abd
000002a0: d367 bb3d 2a62 d73a 4ec1 2f2d 2210 84bc
000002b0: c4c5 13bd 6118 eebd 7e89 87bc f834 21be
000002c0: 2f05 033e 4263 f33c 6e80 503e 7d59 572e
000002d0: d9fa f4bd 98d9 b33d 55b4 e93d 1743 90bd
000002e0: 51d9 02be 94ee 0f3d ab0e 81bc 2abd bd3b
000002f0: 0566 37bd dff5 22bd 4693 eeba d872 073a
00000300: e979 f63d dc28 87bc ee09 e6bb b202 5dbd
00000310: 233a ffbd b4fa 3bbe e46b 8c3d 0520 95bd
00000320: 6adc debd 502d a8ac 80d9 2bae 1112 4bbc
00000330: f188 a63d 6a4f 07bc 5ffc d9bc ba6b 83bd
00000340: f490 1cbe 9278 a53d a84f eebd 8589 783c
00000350: b194 1fbd bff6 cebc 1e6b 3a3e f82e 5b3d
00000360: 4b19 05be f386 a53d f964 123e d186 c7bb
00000370: ee51 063e 2cc6 463e 6a58 71bc a30e db3c
00000380: f0d5 f6bd 79ca 15bd 369e 183e 4a45 b93d
00000390: a60e ceb6 b82d 0d3b 7083 8dbd 1d14 b4bd
000003a0: c840 a8bd bf8d 052e 8ea9 cd37 156f 403a
000003b0: a580 47be 28bd 26be 05f7 57bd 88a8 6ebd
000003c0: 6eb9 7d2d f842 033d dcb3 29bd 6377 8f2d
000003d0: dc2b 17bb 412e 9bbd 32b8 5ebc 2a92 85ba
000003e0: fa5e bcb9 8d6f e4bd cd7a 403e c92c b1bd
000003f0: 42a5 a7bd 479d ce3d 2817 2d2c 9ed0 39b3
0.0007210734 4.3169523e-05 -4.2884094e-05 -0.0021179481 -7.812035e-05 -1.0133144e-11 -0.00017709105 -0.00030796128
-7.1275674e-05 -3.071628e-05 -0.00061746145 3.7511814e-08 -0.0008593801 -0.0005398603 0.0028523256 -0.0006289634
5.908077e-11 -0.0015549897 -0.00043840666 -4.1787213e-11 -0.00022738123 -0.0012866327 -0.00033532787 -1.2543567e-06
-2.7445123e-05 -0.00020047114 -1.4608254e-05 -0.00012690527 -0.0004066925 -0.0006998679 1.404367e-10 -0.00026903063
0.13633509 -0.03374888 0.16753574 0.041904967 -0.04120812 0.025442239 -0.033894468 -0.06300118
-0.13098662 -0.0026353612 -9.2861656e-11 -0.050951563 0.076942116 -0.10164989 0.012396752 -0.09481992
-0.05489267 -0.0024303773 0.09998005 0.00035383244 0.16928256 -0.14305377 0.068216726 -0.0024094775
-0.0348664 -0.103732064 0.1709102 -0.11724247 0.1034927 0.08483137 1.4234446e-10 4.754913e-08
0.16367617 0.0260271 0.06589818 -0.08381642 0.014207588 -0.03874575 -0.06343196 0.12636931
0.057051793 2.927536e-08 3.5094472e-09 -0.015600005 -0.08293584 -0.09944723 -0.20212342 -0.07770471
-0.14276612 0.0140783675 0.21566671 -0.002276549 0.03253226 0.11660909 0.020789947 -0.064198256
0.031361353 0.0595529 0.12289215 0.028296342 -0.033848785 0.0011568125 -8.556499e-11 -0.02408008
0.15014493 0.19777238 0.016144726 -0.010794263 -0.05150736 0.09611406 0.072296895 0.045158982
-0.12167803 3.4662214e-11 0.00057027285 0.09505406 -0.1882203 -0.14165534 -0.038035605 -0.071625225
0.04313128 0.08021131 0.15465304 1.8998538e-09 -0.13708033 -0.059125513 -0.040496793 -0.008262898
-0.06121001 -0.068378806 0.11122883 -0.011658667 -0.07791609 0.044361662 -3.3196584e-10 4.025154e-11
-0.1712102 0.10064496 0.103731774 0.014610361 -4.421506e-05 -0.0024873586 -0.16788267 0.015156995
0.035388336 0.00056571513 -2.7698114e-08 -0.03444282 0.064545274 -0.14151438 -0.20672493 -0.103547044
-7.654603e-12 -0.14978442 -0.06139562 -2.3028905e-07 -0.06197847 -0.07254632 -0.12875597 6.109488e-11
7.5151295e-11 0.09388505 -0.06910908 0.008276227 -0.06695501 -0.07305234 -2.8942262e-11 -0.0018480001
0.13087358 -0.15488489 0.12226073 0.023345765 0.013157348 -0.096399695 0.15243089 -0.05718007
0.09150662 0.0016432453 9.9905206e-12 -0.016120974 -0.036077276 -0.11625744 -0.016545054 -0.15742862
0.12794946 0.029710416 0.20361492 4.8964822e-11 -0.11961908 0.08781737 0.11411349 -0.07044046
-0.12778212 0.035139635 -0.015754065 0.0057903724 -0.044775028 -0.039785262 -0.001820185 0.00051669544
0.12034971 -0.016498975 -0.0070202267 -0.05395765 -0.124622606 -0.18357354 0.06856516 -0.07281498
-0.108818844 -4.779878e-12 -3.9074077e-11 -0.012394444 0.08131588 -0.00825868 -0.026609598 -0.064170316
-0.1528967 0.080796376 -0.11636287 0.015169506 -0.038960163 -0.025264142 0.18204924 0.05351159
-0.1299793 0.0808238 0.1429633 -0.0060890694 0.13117191 0.19411534 -0.014730552 0.026740378
-0.12052524 -0.036570046 0.14904103 0.09046419 -6.1409837e-06 0.0021542143 -0.06909835 -0.08792899
-0.08215481 3.0366595e-11 2.451686e-05 0.0007340771 -0.19482668 -0.16283095 -0.05272581 -0.058266193
1.4422559e-11 0.03204629 -0.041431293 1.6310236e-11 -0.0023066914 -0.075771816 -0.01359372 -0.0010190655
-0.00035928917 -0.11154089 0.18796845 -0.0865112 -0.08185817 0.10088592 2.4597633e-12 -4.3263405e-08

2.bias f4 [32]
00000000: 6c12 7bba 9615 f6bd 547e dd3c 2748 97bd
00000010: 11e5 e63d 2728 0fbe d247 c73d a4e7 453e
00000020: d7c9 b83d 291d bf3d b770 04bb 57f0 3c3e
00000030: 6da4 05bc 5375 2cbe a455 463e 1b3b b8bd
00000040: bc98 e53c c021 173e 3b81 08be 3f92 a3bd
00000050: a4a2 0a3d eba8 cbbc 4773 833d 78d7 c3bd
00000060: a17f 473c d249 8abd 3884 c1bd 47c4 abba
00000070: e06b 913d e9ba 943d 9930 cdbd 1e49 163e
-0.0009577635 -0.12015836 0.027037777 -0.07386809 0.1127416 -0.1398016 0.097304955 0.19326645
0.09022873 0.09331734 -0.0020208785 0.18451057 -0.008156878 -0.1684163 0.19368607 -0.089956485
0.028026931 0.14758968 -0.13330548 -0.079868786 0.033846512 -0.02486082 0.06418472 -0.09562582
0.012176425 -0.06752361 -0.09449047 -0.001310476 0.07100654 0.07262213 -0.10019035 0.1467633

4.weight f4 [32, 32]
00000000: 18f3 d631 54a6 0a3d cc5f 1fbd 09fb 9abd
00000010: 7123 483e 94a6 183e 79f3 c2bd aed8 2f3e
00000020: 8741 9d3b 19a4 023e 0505 6639 dc19 933d
00000030: 63cd 55be c885 8d3d 96b9 d8bd 7967 4bbb
00000040: b84c 97bd 80c3 a03c 65b5 89bc 8a4b 3f3d
00000050: b7ff 57bb 0201 80bc 3455 3e3e 4e77 5d3a
00000060: 3e94 ac3d b102 073e c17d 273d 16a6 b7ac
00000070: 48d7 7d3c 11ec c03d 9643 9ebe 5e99 f0bd
00000080: dee9 9236 5332 63bd 924a 4d3d 5851 02be
00000090: acd7 833d 6016 083e ffe0 f8bc a054 0d3e
000000a0: 1a89 f53d d4d1 66bd 0e75 55b9 4547 28be
000000b0: 2bd1 e0bd a025 59bb 5f59 a7bc 1d4e 563d
000000c0: 1019 2cbd b4ab 42bc 545e 63bd a11d 5b3e
000000d0: 6a43 3bbd 9c1c 08be a5af 853d 553c d8b9
000000e0: cf3e f53d 250d 073e 4b3b 2d3c d16f cbb8
000000f0: ffef c13d 3e7d 443e c919 0ebe 6a7b 213e
00000100: 66a4 0e39 56ce 113d e64a c43d e801 133d
00000110: d1c2 36ba 9918 613d 311a f13c da04 903a
00000120: 3677 d53d bee2 34bd 9810 3c3a 8a69 883d
00000130: 9919 bbbc f825 29bc e9f8 523d 564f 02ae
00000140: c0f5 883d 4b70 8a3d 408b bd3d 2090 40bd
00000150: 4a98 66bc ef37 9a3d f53f b83c ef13 1fb8
00000160: c2d3 eabd fc1a 46bc 9afd 7eb7 3f06 a3ae
00000170: 08d5 d03d 619e 313d 313f a8bd 2f4e c8bd
00000180: cf0f 28b2 2ee7 a93c 7855 053d 297f 83be
00000190: 4b83 003c 8ba7 843c 61d6 00bd e736 373e
000001a0: ce4a 37bd 4421 243e 9b5f efad 2b2a 5dbe
000001b0: 954a 16bd e693 e63d 691c 07be 62b3 f6bd
000001c0: e352 593e 1846 3f3e 96c8 c4bd 94fc 263e
000001d0: efb2 1cbc f34d 45be c3d0 023c ca78 a03a
000001e0: 86c3 a2bd f474 cf3d 0917 b8bd 9ac8 2638
000001f0: 83a8 183e a659 183e 0551 d4bd 8893 5f3d
00000200: b52c ccb8 f511 4fbd ef1d d0bd d8bf 15ba
00000210: 0bd3 66bd df59 c1bc 81f3 153e 395a 05be
00000220: 8387 d53d ed34 19be 47db ed3a c638 0b3e
00000230: 7781 353e c491 1fbd ba3e 173e 5f60 8b3d
00000240: 1abc 83be 771e 2dbe 7944 623c a5a2 29bc
00000250: b7b0 7ebd 5518 81ad cd18 b63c 1e30 a92d
00000260: 7ed6 55bd f776 913d 646a 17b9 f25a 2ab8
00000270: 4079 d33c ddeb ddbd 44b4 dd3d 8077 4c3e
00000280: bdfb a536 a073 8bbd 0310 553e 895a 03be
00000290: d384 e7bd 32b7 3f3d 0a57 e6bd 3f18 4c3d
000002a0: fe04 45be 8712 1f3e 7ff7 73ad 3fa5 aa3c
000002b0: 5d30 2ebe 654b 01be 85ff 8c3d 08a8 4c3e
000002c0: 44da f8bd 35db dd3d fda4 03be ba54 983d
000002d0: 4507 2b3e 49db 263d 812e 12be 9ea6 6436
000002e0: 3942 983d ce59 e03c 18cb 893c b339 10b0
000002f0: 4850 94bd 6901 15bd 6db0 c3bc 5000 553d
00000300: 6452 fb36 a346 d4bd 9056 05be 3e6b 01b7
00000310: aefa cfbd 1e35 f8bd 3166 513d 8c2a 6dbd
00000320: ed3d 0e3e 6f5a 11be 5352 5038 f4ca 633d
00000330: 2e0f 90bd 58a4 fd3c b526 963d eb87 0dbe
00000340: f5fd d4bd 6a6a 623d 4ea5 05bc 442d d7bc
00000350: bda7 ea3d 2d53 71ba e0b6 66bd f52e 99b8
00000360: 75c5 543e 5990 1d3e 2b18 a738 27c4 d63a
00000370: e927 0e3d 6cc7 75be 9cb7 f73d d6d4 f23d
00000380: 8684 1a3b 3809 43aa 5a1e 4139 ebcb 3036
00000390: 4610 aa38 6c38 2abb a74e e939 663f 2aba
000003a0: e308 8d3a 8aca 18ac e45b 7cba a758 d1ad
000003b0: 53d1 182e 6b92 8fba 0445 582f 0bd5 6b2d
000003c0: 8e6e 6e39 44a4 58ae 5390 7e35 a782 abad
000003d0: 085f 60ac aa79 8a2c 6530 6bb7 7a8f 01ba
000003e0: 9882 0daf 422d c9ba 0b23 53b1 9040 a02c
000003f0: 3257 7db7 150c db2f 96a6 b8ad cdad 80ad
6.2558563e-09 0.03385003 -0.03890972 -0.075674124 0.1954477 0.14907295 -0.09519095 0.171725
0.0047990712 0.12757911 0.00021936379 0.07182667 -0.2087913 0.069102824 -0.10582273 -0.0031037016
-0.0738768 0.019624472 -0.016810128 0.0467029 -0.0032958814 -0.01562548 0.1858719 0.0008448259
0.084267125 0.1318462 0.040891413 -5.219612e-12 0.015493222 0.09420026 -0.3091094 -0.117480025
4.378365e-06 -0.055467915 0.050119944 -0.12726343 0.064376205 0.13289785 -0.030380724 0.13801813
0.11989041 -0.05635245 -0.00020356869 -0.16433437 -0.109773956 -0.0033133999 -0.020428358 0.05232059
-0.04201609 -0.0118817575 -0.05550988 0.21398021 -0.045718588 -0.13292164 0.06527642 -0.0004124368
0.119748704 0.13188608 0.010573219 -9.700622e-05 0.09469604 0.19188401 -0.13877024 0.15769735
0.00013603418 0.035597168 0.09584598 0.03589049 -0.0006971779 0.0549551 0.029431434 0.0010987774
0.10423128 -0.04416155 0.00071741035 0.06660755 -0.022839354 -0.010323994 0.05150691 -2.9629042e-11
0.06687498 0.067596994 0.092550755 -0.04701245 -0.0140743945 0.075302 0.022491435 -3.792712e-05
-0.11466171 -0.0120913945 -1.5198626e-05 -7.4134913e-11 0.101968825 0.043363933 -0.08215178 -0.09780537
-9.7824815e-09 0.020740118 0.032552212 -0.25682953 0.007843803 0.016193172 -0.031454448 0.17892037
-0.044749074 0.16028315 -2.7213612e-11 -0.21598117 -0.03669222 0.11258678 -0.13194431 -0.12045933
0.21223025 0.18679082 -0.09608571 0.16307288 -0.0095641455 -0.19268017 0.007984343 0.0012243029
-0.079474494 0.10129729 -0.089887686 3.976431e-05 0.14908032 0.14877948 -0.10367016 0.054584056
-9.735805e-05 -0.050554235 -0.101619594 -0.0005712486 -0.05635361 -0.023602424 0.1464367 -0.13022698
0.104262374 -0.14961596 0.0018147015 0.13595876 0.17725168 -0.038957372 0.14770022 0.06805491
-0.25729448 -0.16906153 0.0138102705 -0.010353719 -0.062180247 -1.4676408e-11 0.022228623 1.9234444e-11
-0.05220651 0.07102769 -0.00014440116 -4.0615858e-05 0.025814652 -0.10836003 0.108253986 0.1996746
4.9466894e-06 -0.06809163 0.20806889 -0.12827505 -0.11304631 0.046805568 -0.1124707 0.04982781
-0.19240186 0.15534411 -1.3867906e-11 0.020830749 -0.17010637 -0.12626417 0.06884674 0.19985974
-0.12151006 0.10832826 -0.12855907 0.07438035 0.16701992 0.04073647 -0.14275552 3.4071631e-06
0.07434506 0.027386572 0.016820475 -5.246889e-10 -0.07241875 -0.036378298 -0.023887837 0.05200225
7.4899745e-06 -0.103650354 -0.13021302 -7.713968e-06 -0.10155235 -0.12119506 0.051122848 -0.057901904
0.1389081 -0.14194654 4.9667735e-05 0.055613473 -0.07034145 0.030962154 0.073316015 -0.1382138
-0.10400001 0.055277266 -0.0081570875 -0.026266702 0.11457775 -0.00092058146 -0.056326747 -7.304355e-05
0.20778449 0.15387096 7.967682e-05 0.0016385362 0.03470603 -0.24001855 0.120955676 0.118570015
0.0023577525 -1.7322678e-13 0.00018417221 2.634474e-06 8.109263e-05 -0.0025973571 0.00044499824 -0.00064944325
0.0010760095 -2.171293e-12 -0.000962673 -2.3799919e-11 3.4746716e-11 -0.001095367 1.9669605e-10 1.34055085e-11
0.00022738634 -4.925861e-11 9.4832393e-07 -1.949847e-11 -3.1885068e-12 3.9357033e-12 -1.4018359e-05 -0.0004942339
-1.2870272e-10 -0.0015348571 -3.072446e-09 4.5546414e-12 -1.5100277e-05 3.9844453e-10 -2.0992357e-11 -1.4629098e-11

4.bias f4 [32]
00000000: 775c fe3d e32a 623d 820a 91bd ed84 013e
00000010: 75ab 96bc 193b 16bc eeef f839 2be1 eaba
00000020: fa70 f03c c94c 5e3d c84d 9cbb 9b52 ed3d
00000030: 979c 14bc 188e 06bb 3ff2 c4bd 4585 3cbc
00000040: 200b 75bb 8a96 ebbc 71de 6a3d 4f4a 65ba
00000050: 319a 493d da5a c4bb bdd6 b03d 9c49 273e
00000060: fa8e d53d 88f3 6dbb 61b4 dcb9 b09f 53bd
00000070: f53e caaf 8756 b93d e855 01bc ae0c 193e
0.1241998 0.05521668 -0.07082082 0.12648363 -0.018392304 -0.009169363 0.00047481008 -0.0017919888
0.029350746 0.054272447 -0.0047700144 0.11588021 -0.009070537 -0.0020531472 -0.09616517 -0.011506383
-0.0037390664 -0.028758306 0.057341043 -0.00087467296 0.049219314 -0.0059922757 0.08634708 0.16336673
0.10427661 -0.0036308486 -0.00042096063 -0.05166596 -3.678832e-10 0.09049707 -0.007894017 0.14946243

6.weight f4 [2, 32]
00000000: 2dba 0b3e 296c df3b d645 e3bc d6a5 e83d
00000010: 0229 77bd 2029 673e f8fa 69be 4daa ce31
00000020: 2f04 09be 7b4b 18be 516a 2fbc 43ee e03d
00000030: 3543 f6bb 00b7 0daa 7d83 f53d 1097 b2bd
00000040: f44e 89bb ad61 853b a74e 82bc fd21 273a
00000050: f24a 273e 0d94 0bbe e2a2 6cbd 46cc ecbd
00000060: 1b22 b2bc 0d1a 98b9 5015 952e 4397 15be
00000070: f861 233b 390a 843d bf43 04be 84c3 55be
00000080: e343 78bd b6f7 b4bd 4a96 ac3d f93b 43be
00000090: a85d e23d 8a4b 71be 60f6 c9ba 4e7a 0333
000000a0: dede da3d 8d91 10bc c7fe deb9 1230 ffbd
000000b0: 8a8c d53b 1495 c1ba 6c49 edbd 1d77 0f3e
000000c0: e4bb 92ba d8d3 b7bd 0c7a 2e3b 137f 98b9
000000d0: e963 2bbe 1f99 0ebc 7a78 5b3e 5d9a 3fbd
000000e0: e375 a53d 1aaa d5b2 fb8d 9fae 8daf 15be
000000f0: 5dd9 f939 17be 733e c854 883b c196 1e3e
0.13645239 0.0068183136 -0.027743261 0.11359756 -0.060341842 0.22574282 -0.22849643 6.01475e-09
-0.13380502 -0.14872544 -0.0107065 0.10982945 -0.007515336 -1.2586807e-13 0.1198797 -0.08720219
-0.00419032 0.0040704818 -0.015906645 0.0006375609 0.16337183 -0.13630696 -0.057772525 -0.115623996
-0.021744778 -0.0002901111 6.7795214e-11 -0.14608483 0.002493022 0.06447262 -0.12916468 -0.20875365
-0.060611617 -0.088363096 0.08427103 -0.19065847 0.1105302 -0.23563972 -0.0015408508 3.061205e-08
0.1068704 -0.0088237645 -0.00042532964 -0.124603406 0.0065169977 -0.001476916 -0.1158627 0.14010282
-0.0011194912 -0.08975953 0.0026623039 -0.00029086377 -0.16737331 -0.008703499 0.21432677 -0.04677807
0.08079126 -2.4873817e-08 -7.255704e-11 -0.14617749 0.0004765493 0.23802982 0.0041604973 0.15487196

6.bias f4 [2]
00000000: 5444 1c3e 7c1e a33d
0.1526044 0.07964799

exp_avg f4 [32, 2]
00000000: 7621 8f3a 1832 34b9 ed31 b23a 98a0 1bba
00000010: 1d49 8f3a 8d48 083a 9956 83b7 4c89 a137
00000020: 9f6d 1e3a d09b 7cba 8a9b c239 2d1e bfb8
00000030: 7631 4aba c0d6 1b3a a001 a4b9 a072 f836
00000040: 745e 6cb8 c191 1e3a 3f22 e1b6 9c0a c734
00000050: e4e6 d7b6 5e9f 47ab 4b3e 0938 a918 b338
00000060: 42c1 66ba 3db7 5dba a4a5 2dbb f975 b439
00000070: 562f 6fbb 3b8f d439 df0f 04ba 2528 8837
00000080: 2f5f e3b8 b22c bc37 a1fe 3536 33b4 9e38
00000090: 7229 133b ce6b 8e39 fbbd f136 b7b5 b3b7
000000a0: 85d7 c1ba ab4c c039 dcd1 4a3a 4e9b 21b9
000000b0: 1b14 a2b9 474b f838 dba4 85b9 a62f d8b4
000000c0: 79e7 dbb9 a5fa 9139 c138 e9b9 33cc f639
000000d0: 4223 a23a 416d f939 e358 fe39 6579 b4b9
000000e0: a83b 3cba f80b f039 5c9b 7bba 695c c539
000000f0: b56f 3236 7c7d 2db8 a5ad 8235 d997 25b5
0.0010920006 -0.00017184799 0.0013595201 -0.0005936711 0.0010931824 0.0005198799 -1.5656742e-05 1.925663e-05
0.00060435565 -0.0009636255 0.0003711845 -9.1132104e-05 -0.0007713059 0.0005944781 -0.00031281728 7.40432e-06
-5.635475e-05 0.00060489407 -6.7095093e-06 3.7074358e-07 -6.4343785e-06 -7.092017e-13 3.272136e-05 8.5399784e-05
-0.00088026014 -0.00084577856 -0.0026496435 0.00034420172 -0.003649672 0.00040542506 -0.00050377654 1.6231157e-05
-0.00010841933 2.243216e-05 2.7119315e-06 7.567592e-05 0.0022455123 0.0002716467 7.2044763e-06 -2.142308e-05
-0.0014788961 0.00036678216 0.000773696 -0.00015412012 -0.00030914028 0.00011839583 -0.00025490564 -4.0267804e-07
-0.00041943396 0.000278433 -0.00044483508 0.00047072917 0.0012370127 0.00047574381 0.0004851288 -0.0003442272
-0.00071805203 0.00045785285 -0.00095980405 0.0003764362 2.658909e-06 -4.136328e-05 9.736292e-07 -6.168826e-07

exp_avg_sq f4 [32, 2]
00000000: 73ed fd35 2d93 1c34 d32b d335 5a33 1935
00000010: 7a37 9136 039a 4035 06b3 dd31 43eb fa31
00000020: 2d35 2636 7137 2c36 77de 9334 dec7 6533
00000030: 3ff9 f935 ce65 dd35 5da3 fe34 a651 8d34
00000040: dc61 2236 f75c 5335 4080 ed2e 5b2d 922d
00000050: 663f e42e 8219 d32b 4227 0933 89b5 1d33
00000060: f941 8936 3f52 8b35 9ad8 6f37 61b3 ea35
00000070: 21be 8537 5138 9b35 e84b d235 1655 9634
00000080: 763b 2a35 7d19 7833 58c2 0e33 2e35 1b33
00000090: 4143 9137 4474 9935 86a7 3631 0f70 d031
000000a0: 8182 4d36 a06c 0c35 a2f0 ec35 1164 1934
000000b0: 780a 8935 c567 db34 0932 aa34 50dc fd31
000000c0: 3ce3 1d35 05e7 b033 6325 dd34 93be d034
000000d0: 554c f336 ccc3 8635 33ba 9035 5073 5834
000000e0: cd4d 4c35 e4b0 b734 b11e 9036 e917 1236
000000f0: cbbb 4331 4151 ba32 8092 0432 7e28 d731
1.8919076e-06 1.4582174e-07 1.573348e-06 5.707167e-07 4.327795e-06 7.174969e-07 6.452299e-09 7.3027038e-09
2.476688e-06 2.5662268e-06 2.7542748e-07 5.3499996e-08 1.8624486e-06 1.6495412e-06 4.743005e-07 2.6322704e-07
2.4196843e-06 7.8738907e-07 1.0800294e-10 1.661842e-11 1.03795014e-10 1.4999532e-12 3.1933503e-08 3.6719516e-08
4.0905984e-06 1.0380244e-06 1.4295942e-05 1.7486565e-06 1.5943371e-05 1.156479e-06 1.5668311e-06 2.8001585e-07
6.341646e-07 5.776518e-08 3.3238706e-08 3.6137116e-08 1.7316665e-05 1.1433226e-06 2.6579712e-09 6.0663363e-09
3.0623344e-06 5.2312134e-07 1.7653404e-06 1.428564e-07 1.0210342e-06 4.086743e-07 3.1701373e-07 7.3883157e-09
5.881773e-07 8.237661e-08 4.119166e-07 3.888168e-07 7.2508506e-06 1.0040762e-06 1.0783027e-06 2.0158518e-07
7.6109137e-07 3.421511e-07 4.2951074e-06 2.1769613e-06 2.8482983e-09 2.16902e-08 7.7167215e-09 6.261927e-09

exp_avg f4 [32]
00000000: baf6 cc39 f1cc b8ba a395 013a 4e54 6db8
00000010: e54d bf39 4421 8b39 fc1d a239 c354 ac39
00000020: 3ea3 3c3a 931c e2b7 19ff 1db8 ae79 5cb8
00000030: d959 413a 2304 033a c151 283a f5f0 2139
00000040: a13e c7b8 a107 7cb7 8be3 c0b9 6d7d b2b7
00000050: 9f77 e338 f807 a439 7354 3039 ac52 9bb9
00000060: a28b afb9 3745 ab39 5eb8 90ba cc41 33b9
00000070: 93cd 9437 fb35 12ba ecac 4bb8 4bb1 5bb8
0.00039093738 -0.0014099163 0.0004943257 -5.6583718e-05 0.00036488395 0.0002653693 0.00030921388 0.0003286955
0.0007195956 -2.6954605e-05 -3.7669295e-05 -5.256541e-05 0.0007375754 0.000499787 0.00064208737 0.0001544392
-9.500725e-05 -1.5022147e-05 -0.00036790626 -2.127766e-05 0.00010846485 0.00031286455 0.00016816128 -0.000296255
-0.00033482636 0.0003266723 -0.0011041274 -0.00017095282 1.7738703e-05 -0.0005577502 -4.8560018e-05 -5.2378786e-05

exp_avg_sq f4 [32]
00000000: 5315 0236 68a8 0236 c48f c936 7030 1332
00000010: 7aea 8136 5169 8834 0d9a 4136 68a0 af35
00000020: cc2e 6136 1562 1730 88d6 7530 7779 5c33
00000030: 994e 9c36 a326 7e37 f4eb 9337 55a2 1836
00000040: a0c3 0d35 abd7 3e33 0f2f ad37 4e98 a931
00000050: a37a 6a36 6f38 d135 dc02 0636 2608 4f34
00000060: 4916 f934 af37 7935 1fa9 1e37 c753 8235
00000070: 5034 7235 2927 b336 6663 8232 1f61 0a32
1.9383922e-06 1.9469535e-06 6.0070033e-06 8.56754e-09 3.8717963e-06 2.5408602e-07 2.884891e-06 1.30852e-06
3.3554852e-06 5.5072863e-10 8.943535e-10 5.1333213e-08 4.6583123e-06 1.5148576e-05 1.763364e-05 2.2744255e-06
5.2811265e-07 4.443397e-08 2.064512e-05 4.9358624e-09 3.4940101e-06 1.5588138e-06 1.996922e-06 1.9281342e-07
4.639608e-07 9.284076e-07 9.45691e-06 9.710137e-07 9.022815e-07 5.3391745e-06 1.5179193e-08 8.05474e-09

exp_avg f4 [32, 32]
00000000: ae00 ba33 5a4b 2232 1264 86b2 28c8 85b4
00000010: 85d4 2eb2 9e17 c527 a7fb 17b3 7ed1 27b3
00000020: 76d0 beb2 c7ae 98b1 f33a a4b3 e314 41aa
00000030: fc65 e1b3 3234 8bb3 7130 b134 79e8 a1b3
00000040: 2ea5 9028 6beb 46b4 4500 88b3 fbf5 9228
00000050: f4c3 17b3 39ed 27b4 2770 37b3 e28e 82af
00000060: 1069 6e31 af84 f7b2 d878 24b2 2d30 9cb2
00000070: 6a9c 62b3 8c25 b2b3 9a90 0529 f0ab 14b3
00000080: 8f3c 8139 e42f 9a39 38eb f937 13fa 1138
00000090: c51a ebb6 7efe 29b8 9069 7a38 ae16 67b8
000000a0: 7db2 b838 900d a5b4 652e 24a8 e088 2838
000000b0: 8650 58b9 30db 81b9 12a8 42b8 615a 0bb9
000000c0: 03d1 d1b7 d613 1038 1728 a939 b406 4133
000000d0: 7993 f5b8 d593 1c39 864c ceb8 25c9 3135
000000e0: 3f7b 39b7 f4e5 d8b9 b348 4839 36f3 5138
000000f0: 7138 1538 6b3e e2b8 a299 5826 1ab4 b52c
00000100: 6d3b 743a f6ca 2d39 cae5 ddb9 bb1c 5f37
00000110: f5c6 183a 5ea2 273a ac67 763a ec23 513a
00000120: e24c 973a 4e91 3eac bcaa 042c 3e7d 0038
00000130: 75bd b5b9 9649 0cba a7bf 0539 dfb0 8b3a
00000140: 9706 043a 1f04 d037 807c a839 613b 8fb4
00000150: 59e0 6a39 6bb8 9739 7fde 153a 0308 b137
00000160: 134a e539 aaaa 84ba e97b f4b9 477a 0239
00000170: 57a5 f639 22af 743a 0059 48a8 cf78 28b6
00000180: e4f4 8aba e3b1 ebba ed1c d4ba 9d8f 0eb9
00000190: 695c 9eb5 1160 33b8 ba2b 07ba cfcf 8439
000001a0: 6add 02ba 7ce5 1ea9 b336 9833 f292 4bb9
000001b0: a5e3 0b37 532a 23b7 8ca1 0cb6 211d 063a
000001c0: 6ad2 86b8 1cc7 15b9 687e 07bb 57b1 172b
000001d0: 2653 5f39 3fba 4dba bc2e df39 8fd9 ceb4
000001e0: 63f4 3c36 bb4d e7b9 44e9 23bb ed27 aab9
000001f0: 1bdf a1b9 4dec 033a 9cb5 b8aa 867a b126
00000200: 4687 e937 0b6f 5239 aaf0 f0b7 58dc 8a38
00000210: bf05 d7b1 da21 9cb4 9b90 db37 bfbc da35
00000220: 833b b338 0b0d 9733 285f b7ac e209 b638
00000230: 1489 99b9 307e 99b9 13dd f2b8 9796 86b7
00000240: 2658 cfa9 1035 2b38 2ae4 5c39 9301 80ae
00000250: b73a f3b8 82be 99b7 6bc5 29b8 33ab 7aa8
00000260: 1e1a 8ca7 0950 adb9 cf79 9838 b36b d934
00000270: 01b5 f336 6c94 1cb7 8ea6 83a8 8ab9 6ab4
00000280: 960b 423a 685a 3439 68ff d239 216a ae37
00000290: 02f3 c439 a816 ca39 0f6c 863a fa5c 1a3a
000002a0: 32ba 8d3a b8b3 5134 4486 dc26 b3a5 d437
000002b0: e92e 2238 ce09 d338 a9de b239 0d22 8a3a
000002c0: 4b84 9f39 236d 9137 4b92 063a d98d a827
000002d0: c961 f339 6fcc 6e39 0b42 2b3a 96a2 be36
000002e0: a157 9239 5932 9838 58c9 6339 2ee3 cb38
000002f0: 1eec 0d3a 7cc8 753a eb54 67b4 d44c 8a33
00000300: 0e93 cab8 7d79 7738 2eeb 3bb9 013c 8bb6
00000310: 2545 54ba 83da bab9 beca 98ba 0918 40ba
00000320: f515 a3ba 1801 06a6 7cd4 9528 6ccf 7935
00000330: 2cb1 2339 d663 acb9 f351 37ba 768c d1ba
00000340: 3574 58b9 dd82 4337 6247 1eb9 ecf5 dd35
00000350: da0f 3eba c762 87b8 21af 7dba 38c2 ca36
00000360: da0d 1bba cb11 5939 c44a 6a39 0928 0cb8
00000370: 6848 23ba 0b5a b3ba b7cf c8b5 88bc 9b35
00000380: 3e88 9a3a e2f0 9e3a 39d0 553a acec cf38
00000390: d6b3 88b0 5887 5b34 ddaf 593a 1b99 9338
000003a0: 786e 6f3a 24e3 85a7 c032 7731 374d 0c39
000003b0: 8b7a ddb9 8a40 dfb9 b087 2938 8cc7 8bb8
000003c0: d560 8826 8165 df38 496c cd3a 18bf 3b25
000003d0: 5b27 9bb8 c80d 563a a1b0 36b8 89a1 04b4
000003e0: 1ddd 43b3 09c5 1aba a643 943a e187 a339
000003f0: 8404 e539 0a47 c0b7 a68e 15a8 1e3f 07ac
8.6614236e-08 9.446774e-09 -1.564516e-08 -2.4918813e-07 -1.0176454e-08 5.470409e-15 -3.5386304e-08 -3.907325e-08
-2.2213708e-08 -4.443652e-09 -7.647568e-08 -1.714909e-13 -1.049593e-07 -6.482186e-08 3.3004065e-07 -7.539433e-08
1.6058847e-14 -1.8525832e-07 -6.3330425e-08 1.6315933e-14 -3.5335646e-08 -1.5639388e-07 -4.271001e-08 -2.3748387e-10
3.469328e-09 -2.8814922e-08 -9.573533e-09 -1.8182698e-08 -5.2761983e-08 -8.295601e-08 2.9657354e-14 -3.461531e-08
0.00024649917 0.0002940885 2.9792645e-05 3.4803594e-05 -7.006662e-06 -4.0529754e-05 5.9702958e-05 -5.5095814e-05
8.80705e-05 -3.0743513e-07 -9.113889e-15 4.0181796e-05 -0.00020629363 -0.00024768105 -4.6409732e-05 -0.00013289742
-2.501207e-05 3.435075e-05 0.0003226406 4.494241e-08 -0.00011709979 0.00014932391 -9.837099e-05 6.623034e-07
-1.1055555e-05 -0.0004137006 0.00019100569 5.005599e-05 3.5576933e-05 -0.00010788146 7.5148265e-16 5.1643247e-12
0.00093167165 0.00016574175 -0.0004232361 1.3298525e-05 0.0005827987 0.0006394739 0.00093996036 0.000797807
0.0011543299 -2.7081284e-12 1.8853105e-12 3.063422e-05 -0.00034664167 -0.00053515413 0.00012755264 0.001065757
0.00050363824 2.4797451e-05 0.00032136217 -2.667903e-07 0.00022399555 0.00028938366 0.00057170534 2.1103775e-05
0.00043733473 -0.0010121663 -0.00046631627 0.00012443318 0.00047043964 0.0009333958 -1.1121529e-14 -2.510427e-06
-0.0010601548 -0.0017982092 -0.0016182937 -0.00013595675 -1.1798812e-06 -4.2766394e-05 -0.0005156357 0.0002533183
-0.00049921 -3.5282094e-14 7.088001e-08 -0.0001941433 8.338048e-06 -9.7254115e-06 -2.0955658e-06 0.0005116035
-6.4288106e-05 -0.00014283921 -0.002067471 5.3892085e-13 0.00021297912 -0.0007847882 0.00042568694 -3.8528785e-07
2.8156435e-06 -0.00044117667 -0.0025010863 -0.00032454674 -0.0003087454 0.0005032465 -3.2810983e-13 1.2315052e-15
2.7838756e-05 0.00020068527 -2.8722297e-05 6.621395e-05 -6.257977e-09 -2.9081895e-07 2.6174172e-05 1.6297198e-06
8.54647e-05 7.033858e-08 -5.2117373e-12 8.680277e-05 -0.00029284565 -0.0002927645 -0.000115806375 -1.6044169e-05
-9.207938e-14 4.0818995e-05 0.00021065833 -5.821046e-11 -0.000115980794 -1.8327733e-05 -4.04766e-05 -1.3914911e-14
-3.8886122e-15 -0.00033056762 7.2706134e-05 4.049776e-07 7.263036e-06 -9.332882e-06 -1.4616153e-14 -2.1860447e-07
0.0007402239 0.00017199817 0.00040244614 2.0791837e-05 0.00037565088 0.00038545323 0.0010255593 0.00058884884
0.0010812937 1.9530023e-07 1.5301959e-15 2.534953e-05 3.86675e-05 0.0001006309 0.000341167 0.0010538712
0.0003042541 1.7336168e-05 0.00051334937 4.678316e-15 0.00046421427 0.00022773606 0.00065329735 5.6813687e-06
0.0002791258 7.257303e-05 0.00021723413 9.72211e-05 0.00054139073 0.0009375883 -2.1544444e-07 6.440101e-08
-9.659502e-05 5.9002534e-05 -0.00017921321 -4.149508e-06 -0.00080974615 -0.00035639488 -0.0011657102 -0.00073278
-0.0012442457 -4.649207e-16 1.6634473e-14 9.3061567e-07 0.00015610893 -0.0003288078 -0.00069931074 -0.0015987295
-0.00020642656 1.1653375e-05 -0.00015094646 1.6537356e-06 -0.0007250287 -6.4557e-05 -0.00096772803 6.042679e-06
-0.0005914845 0.00020701361 0.00022343831 -3.3415887e-05 -0.0006228746 -0.0013683451 -1.4961614e-06 1.160327e-06
0.0011789871 0.0012126232 0.0008156333 9.914613e-05 -9.946415e-10 2.0445202e-07 0.0008304099 7.038024e-05
0.00091335876 -3.716118e-15 3.5972079e-09 0.00013380205 -0.00042243706 -0.0004258196 4.041911e-05 -6.665205e-05
9.463142e-16 0.00010652375 0.001567253 1.628441e-16 -7.3983065e-05 0.0008165506 -4.355668e-05 -1.2352224e-07
-4.5603077e-08 -0.00059039943 0.0011311665 0.0003119102 0.00043681648 -2.2921264e-05 -8.3020935e-15 -1.921969e-12

exp_avg_sq f4 [32, 32]
00000000: e231 552d 45cf 352b 1b20 c52b e660 782d
00000010: b8b7 452c 1397 742a 32c4 e62b c390 d32c
00000020: c9e9 ad2b 688d a82c 8709 252d bb1e 2d2c
00000030: 06e0 352d 6331 de2c 8fff af2d 2277 b92c
00000040: 8b12 e82a a489 5d2d 31e8 9e2c 0af4 122b
00000050: 1226 f22b ad52 3a2d f11e 682c c524 602c
00000060: 5c23 6f29 8ce4 092c 2ef7 3a2a 7aec a42c
00000070: 7921 c02c 75f7 f62c a31e 202b e5e3 032d
00000080: 16ac d434 24fe 7734 c084 4135 9991 e331
00000090: 8462 932f bd49 ac31 0292 e834 0246 3433
000000a0: ce06 f934 d01d 872d 39f0 b82a a79c 0732
000000b0: 50ef 9933 dfda 2334 1bd8 1a33 6759 fd33
000000c0: 5787 d230 a461 1a31 1f28 3135 0777 0d2d
000000d0: ed0c c333 e045 db33 bd5d 9333 a51b 772c
000000e0: c079 5d2f 2656 1735 8126 4e35 39d5 2f32
000000f0: 9be3 1634 c452 d533 0f85 082b d293 232c
00000100: c932 0137 a416 8734 a156 db36 261d 5031
00000110: 95df 5835 c94d a635 264e 9437 5b6e 8c36
00000120: f887 a137 baab 2f2c 5371 052c fb17 4631
00000130: 3fb4 1035 6fb1 1d36 d4dd 1f36 72bb 8f37
00000140: bbc3 0b35 ed00 6d30 4aed a136 710f 812d
00000150: bd96 a836 433e 1f35 eaff fa36 f172 c931
00000160: a459 f934 c08a 9b36 2769 2436 b3fc 8f33
00000170: 2a68 b436 e11c 6737 1532 682b 12d9 292f
00000180: ee32 be36 d3d3 4d36 1fe7 c036 3d73 a633
00000190: f463 be2f 9534 ad33 3c33 a036 f9b7 f634
000001a0: e358 b536 f2b9 492b a447 212d 8319 ec33
000001b0: 071e 8e33 a59b 0d34 9e22 7b2f 7d0e 3d35
000001c0: 907a ac32 166e 0633 86fc 0a37 0202 c92b
000001d0: 0e03 ee34 d15c db35 7ae1 ea34 bb65 5c2e
000001e0: 0a56 952f 0028 cf35 d8b4 f636 2ddf 6734
000001f0: 3bc2 bf35 66ab 3935 35c4 bf2b 1b79 fb29
00000200: 28a8 4c33 1c01 af34 ace9 6e35 08f8 7a32
00000210: bda2 b32c 7615 842d 9c26 9f33 afe7 732e
00000220: 1c8e 6433 a5e8 202d ff67 142c f6e6 9c32
00000230: e27a d233 a783 4a34 f4ef d032 9b18 ff2f
00000240: 87c1 8a2b 97a2 7c31 bc9d 0935 1368 462c
00000250: a60f 2233 805c 0f32 9362 5531 a168 112b
00000260: 6db9 cf2a b20e 7935 e3d2 ab35 fb41 292d
00000270: 32cc 2333 691d 1330 41ff e22a 5220 6c2d
00000280: 26ba 2536 5b10 2033 e2f4 7c35 f7fd 3330
00000290: 54bb 1534 cdf9 d634 7436 9a36 9bf4 9735
000002a0: abdc ad36 7853 622d f53c 3129 cfb1 4030
000002b0: 6e0f be2e 2a2a 9733 4ec6 7a34 a8d9 8436
000002c0: 37d8 3134 1a9c a52f 1e50 b335 bc7f 4d2a
000002d0: c1d3 8b35 70ab 6e34 eaa3 e435 56b0 0c31
000002e0: d70e bc33 a78f bd32 f5ff f333 f9dd e132
000002f0: 4fdb b435 1ffd 5636 a5d2 6a2d 2468 1e2d
00000300: fb3e 4d36 9ba8 be33 3d0f 2736 c6c3 d430
00000310: ce7b 8335 bcc8 0835 5744 1f37 8cef 2736
00000320: a982 2837 9698 0628 ed29 132b 20ed 9730
00000330: 8f37 5b34 1ea9 6436 08e6 b636 c236 7937
00000340: 0574 6834 6405 c82f 1561 ea35 a0fd fe2e
00000350: 05f5 8636 1364 9134 3d0b ce36 3bd3 0e31
00000360: 8259 1735 1768 2b36 fb5b 0935 ff36 fd32
00000370: 3612 4836 0e74 4137 d25e 8b30 b449 0530
00000380: 1720 d035 c081 e235 ba5c b536 96d1 5c33
00000390: 1707 852c 1f7b 262d 3ab1 0236 3a34 8a33
000003a0: 39ac fc35 2d35 6d2a ff5c a22c 6403 8633
000003b0: cfc5 0835 f528 d535 72a7 1d35 839b 2a35
000003c0: 8b3c ef28 5cf1 9632 c551 8036 2237 a928
000003d0: 4d9e 2f35 a840 f334 340b dd34 8578 402d
000003e0: f108 0e2d 49b5 a936 e963 c936 bde3 3a33
000003f0: b8f0 3935 5c37 1435 dffc a42a e575 2a2c
1.2118724e-11 6.459176e-13 1.4006603e-12 1.4118684e-11 2.8097368e-12 2.1723968e-13 1.6396938e-12 6.0130525e-12
1.2357278e-12 4.7905464e-12 9.38128e-12 2.4601837e-12 1.0338402e-11 6.3151025e-12 2.0008687e-11 5.2712426e-12
4.1224345e-13 1.2592958e-11 4.5164085e-12 5.220829e-13 1.7205701e-12 1.0591234e-11 3.2986359e-12 3.1852726e-12
5.309933e-14 1.959574e-12 1.6605876e-13 4.6874145e-12 5.4606844e-12 7.0192138e-12 5.6885936e-13 7.497091e-12
3.9613286e-07 2.3096123e-07 7.209128e-07 6.623122e-09 2.6809144e-10 5.014242e-09 4.3319602e-07 4.1973188e-08
4.6384815e-07 1.5360963e-11 3.2851654e-13 7.893653e-09 7.1681484e-08 1.5260183e-07 3.6052466e-08 1.1797493e-07
1.5317977e-09 2.2465452e-09 6.599602e-07 8.0413514e-12 9.082746e-08 1.02106924e-07 6.862272e-08 3.5116157e-12
2.0143087e-10 5.6377246e-07 7.679701e-07 1.0234822e-08 1.4052641e-07 9.9336404e-08 4.850156e-13 2.324575e-12
7.7008235e-06 2.5162183e-07 6.5367935e-06 3.0284553e-09 8.0791625e-07 1.2390602e-06 1.7679366e-05 4.185172e-06
1.9256011e-05 2.4964323e-12 1.8963344e-12 2.8826423e-09 5.3906473e-07 2.3498103e-06 2.3821967e-06 1.7134214e-05
5.206636e-07 8.6221413e-10 4.825798e-06 1.467246e-11 5.0243384e-06 5.932272e-07 7.480373e-06 5.8629372e-09
4.6445086e-07 4.6355126e-06 2.449911e-06 6.704922e-08 5.3765443e-06 1.3775397e-05 8.249246e-13 1.544758e-10
5.6683702e-06 3.0670678e-06 5.748952e-06 7.750939e-08 3.463182e-10 8.065505e-08 4.774336e-06 4.5954928e-07
5.404568e-06 7.1667596e-13 9.167698e-12 1.0994247e-07 6.617852e-08 1.3188271e-07 2.2840616e-10 7.042907e-07
2.007917e-08 3.129943e-08 8.284236e-06 1.4282466e-12 4.4333177e-07 1.6343785e-06 4.3749952e-07 5.0112563e-11
2.7164077e-10 1.5434343e-06 7.3524243e-06 2.1594742e-07 1.4287137e-06 6.916729e-07 1.3625825e-12 1.11676476e-13
4.765039e-08 3.2597097e-07 8.9001946e-07 1.4608311e-08 5.1055536e-12 1.5016193e-11 7.4110375e-08 5.545758e-11
5.3214634e-08 9.1466045e-12 2.1089794e-12 1.8265819e-08 9.801239e-08 1.8860611e-07 2.4323505e-08 4.6401713e-10
9.859204e-13 3.6763248e-09 5.126601e-07 2.8195265e-12 3.7732796e-08 8.344728e-09 3.1051612e-09 5.165955e-13
3.6899252e-13 9.2781113e-07 1.2801869e-06 9.621188e-12 3.813711e-08 5.3520083e-10 4.0322783e-13 1.3422223e-11
2.4695269e-06 3.7267778e-08 9.4233667e-07 6.5480726e-10 1.3944856e-07 4.004236e-07 4.595897e-06 1.1321566e-06
5.181491e-06 1.28651464e-11 3.9354767e-14 7.0101874e-10 8.6429405e-11 7.039155e-08 2.3355207e-07 3.959245e-06
1.6563068e-07 3.0124242e-10 1.3359856e-06 1.8251974e-13 1.0417936e-06 2.2227846e-07 1.7035029e-06 2.0472917e-09
8.7571316e-08 2.2067821e-08 1.13621276e-07 2.6294389e-08 1.3474872e-06 3.203582e-06 1.33481325e-11 9.004384e-12
3.058404e-06 8.8782336e-08 2.489381e-06 1.5480672e-09 9.796292e-07 5.0956055e-07 9.49305e-06 2.5024374e-06
1.0044002e-05 7.471581e-15 5.2283075e-13 1.1054091e-09 2.0416176e-07 3.4073087e-06 5.450802e-06 1.4854306e-05
2.1648891e-07 3.6383618e-10 1.7462613e-06 1.15956356e-10 4.0220352e-06 2.7081168e-07 6.1405867e-06 2.078379e-09
5.6382135e-07 2.5541574e-06 5.1170326e-07 2.9478086e-08 2.9812923e-06 1.15307175e-05 1.0140531e-09 4.8489857e-10
1.5506547e-06 1.6876074e-06 5.405015e-06 5.141336e-08 3.7808745e-12 9.463346e-12 1.947467e-06 6.435626e-08
1.8825586e-06 2.1068278e-13 4.6146416e-12 6.240478e-08 5.09518e-07 1.5881657e-06 5.873072e-07 6.3556234e-07
2.6560587e-14 1.7572056e-08 3.8242165e-06 1.878668e-14 6.542294e-07 4.530932e-07 4.117261e-07 1.0940697e-11
8.073751e-12 5.057697e-06 6.001898e-06 4.3513626e-08 6.926816e-07 5.5214855e-07 2.9307717e-13 2.4223898e-12

exp_avg f4 [32]
00000000: a3ca 00b4 578d 14b9 1082 92b9 83e0 bcba
00000010: a14d 1cb9 a28f 583a 6863 5fba 06c4 3f3a
00000020: 3df5 7838 a75a 81ba 0ec6 7fb4 a10b fbb8
00000030: 4b1f c9ba 1798 8db7 bb33 ddb9 b9e4 653a
00000040: 4518 2539 d4f6 573a 33ab 38b9 ab11 2b3a
00000050: a089 423a b7bc 89ba e8f6 78b9 53b8 1ab7
00000060: fc2f 70b9 0824 8c3a d377 1fb7 74c8 28b4
00000070: 3d57 63ba cf3d 5c3a 0d8d a238 6d34 84b9
-1.1994648e-07 -0.00014167033 -0.00027944194 -0.0014410171 -0.00014906238 0.0008261149 -0.00085215876 0.00073152815
5.9356204e-05 -0.0009868935 -2.3820778e-07 -0.00011970779 -0.0015344409 -1.6879332e-05 -0.00042190947 0.0008769739
0.00015744667 0.00082383794 -0.00017611384 0.0006525765 0.00074210204 -0.0010508512 -0.00023743103 -9.222032e-06
-0.00022906059 0.001069189 -9.505037e-06 -1.5719144e-07 -0.00086723623 0.0008401544 7.751035e-05 -0.00025216062

exp_avg_sq f4 [32]
00000000: eca7 d72c 9043 ad35 07c3 af37 4710 1237
00000010: bc64 b135 3997 7536 6ff7 3d37 4301 2037
00000020: 64eb 9c35 43f8 9737 140d 742d 402b 8b37
00000030: 046e d937 697e 4e33 6876 a336 78ca ed37
00000040: df85 ea36 b4f0 3e37 cc64 2f35 67fe ab37
00000050: 425f 5c36 29be bc35 b82e 1f36 8265 c230
00000060: 13d5 0737 2941 8236 a747 8c31 852f 512d
00000070: bb53 1436 879b fe37 fdb3 0338 1866 2e37
6.1293106e-12 1.2909168e-06 2.0952442e-05 8.706068e-06 1.3216845e-06 3.6595868e-06 1.1322888e-05 9.537037e-06
1.1691413e-06 1.8116209e-05 1.3872698e-11 1.6590231e-05 2.5919646e-05 4.8078082e-08 4.871563e-06 2.8346883e-05
6.989328e-06 1.1380926e-05 6.533926e-07 2.0503254e-05 3.2838002e-06 1.4062435e-06 2.372004e-06 1.4144208e-09
8.096237e-06 3.8818876e-06 4.082682e-09 1.1890826e-11 2.2102456e-06 3.0351583e-05 3.140046e-05 1.0394979e-05

exp_avg f4 [32, 32]
00000000: f75b e9aa 45ec ba39 4a55 5e3a 5e28 6e3a
00000010: 8681 18b8 81f5 de39 bb7b a337 5eda ad39
00000020: 6fb9 623a 9b6d a039 8dd9 f432 75c5 c238
00000030: 5f23 3c39 f659 ef36 08d7 1c39 b6bc 1836
00000040: cac6 2a3a d9e0 173a bd53 7938 1b90 aa39
00000050: 6694 85b8 3fe8 323a 39fd 173a 81b6 bb33
00000060: 2360 16b7 a51c 8138 0f52 8f36 c2e3 d7a4
00000070: 813e 6b39 66ee 683a fb19 8b39 0518 09b9
00000080: ea31 0daf 7aba 2f39 b8c7 e939 c5f2 e139
00000090: e87d acb7 cccc 6039 4477 ffb7 e823 3039
000000a0: faac e039 30ae 1039 6d0d e4b2 364e 4138
000000b0: 1468 2539 f3bb c5b4 19c0 8639 18c0 da38
000000c0: 59ab a539 a428 9539 4ee0 c837 6e40 4239
000000d0: 3f78 5338 a57a a639 8655 d439 cb20 b532
000000e0: 26ee 0739 5710 8738 19da 9c35 11bf 61b2
000000f0: 865e f638 7728 ee39 12d0 8c39 d655 a238
00000100: 9882 9b32 8181 88b9 20ee 17ba 3314 05ba
00000110: f834 c5b7 1188 86b9 86d9 c1b8 ed8a 7eb9
00000120: 87a2 14ba 0b9e 5ab9 c390 bd33 97fd 7037
00000130: 84c9 46b5 44bb 97b5 9138 2638 9a83 7ca5
00000140: bc22 05ba 76fb f2b9 06da d1b7 9ba3 95b9
00000150: 5804 a637 fcfa c4b9 08cb 8bb9 f01e 1032
00000160: 0531 2437 df9c b937 8863 10b0 5174 e3a6
00000170: f748 18b9 bdeb 28ba e7cb d734 d00c 8738
00000180: cd21 f4a9 0798 0f3a 36e1 ac3a 05c8 b53a
00000190: fc7c b3b8 8ea8 243a 1214 de38 41c7 033a
000001a0: 4eb3 ad3a 8b72 f539 5580 9127 95cf 1439
000001b0: e233 b439 2250 3f37 514b af39 ddf2 3ab7
000001c0: 2d61 863a eca1 6f3a d1b0 b138 497f 083a
000001d0: 6c67 91b8 fad1 873a 0573 733a f805 0234
000001e0: 5dab 1038 a732 cd38 ae9b 19b7 ea97 c231
000001f0: 09cf bb39 600a b53a 4e1a 053a 7775 b9b8
00000200: c002 61b2 7133 1538 0f19 16b8 7f31 afb3
00000210: 77dc b737 44b2 27b8 6557 7938 0160 b338
00000220: ee92 d238 988c 6d38 9da9 6634 0023 17b9
00000230: 9145 9db9 caa9 85b6 a55c 37ba a618 2cb9
00000240: 8cfd 9238 4d56 9b38 fc00 bc35 cdab b537
00000250: 0b6b 40b9 8323 9b25 e87f e7b9 89d4 fa27
00000260: 1100 c5b9 9401 56b9 b67f b0b2 bd82 c6b1
00000270: a30b 4338 3ddc b138 1301 08ba 8b1a b5b9
00000280: 7729 1531 8000 3fb9 d91f 96b9 5677 df36
00000290: fc61 9838 37b8 aeb9 0378 1839 6aef 7938
000002a0: c5a7 7039 fead 88b6 9b90 a9a4 ac93 4b3a
000002b0: 3313 843a a655 55b7 32a7 eb3a 731f 233a
000002c0: 0298 4cb9 ca39 b0b9 5393 58b7 8a54 c3b9
000002d0: 6753 4c3a d3e6 05b6 2843 963a a996 1f30
000002e0: e02a d13a 7bd9 3c39 64de f435 019c 5da8
000002f0: 2881 0939 df44 e6b9 8f09 eb3a 167e bb3a
00000300: 9800 6530 00c2 a038 305d c837 87b4 abb1
00000310: b6f0 d838 ce77 b7b7 7b41 2339 a859 ee38
00000320: e99f 5f39 6fbe 5e38 f2e8 ef31 6756 39b9
00000330: b194 ddb9 e38a 5936 c16b 5aba faea 7db9
00000340: 1c12 5639 d1a2 4739 c0a6 74b5 8fa7 cb38
00000350: 9847 50b9 0a8d f0b3 8216 0aba 619d 2cb2
00000360: f962 c8b9 81a7 6fb9 ec73 3333 1220 5134
00000370: 0def 9e38 9374 2539 9c04 30ba 93dc d1b9
00000380: 134e 9434 aef2 0b20 b358 cf32 ffe5 fc2f
00000390: ed8a 3e32 9ac3 a2b4 f636 7033 815a acb3
000003a0: 17b9 0b34 4de6 2ca5 842f fbb3 802b 30a8
000003b0: adb0 46a6 6f21 0eb4 bcb1 2ea8 0411 97a5
000003c0: 665c fd32 6e17 8da8 6d91 4c2f 66bf 81a5
000003d0: 469b bd24 5936 49a7 e2b0 12b1 b9c3 84b3
000003e0: fd22 8fa8 3069 44b4 5eea 38ab e4ac 1025
000003f0: 3034 1db1 6ab0 1b2a 3bf6 35a7 2361 51a6
-4.1452928e-13 0.0003565272 0.0008481337 0.00090849947 -3.6360252e-05 0.00042526054 1.948873e-05 0.00033159828
0.00086488476 0.0003059924 2.850427e-08 9.28742e-05 0.00017942254 7.133228e-06 0.00014957425 2.275961e-06
0.0006514607 0.0005793698 5.9444214e-05 0.00032532294 -6.3695756e-05 0.00068247685 0.0005797926 8.741063e-08
-8.96308e-06 6.156535e-05 4.271285e-06 -9.3627224e-17 0.00022434631 0.0008885622 0.00026531503 -0.00013074286
-1.2841608e-10 0.00016758768 0.00044590025 0.00043096222 -2.0562627e-05 0.00021438597 -3.0453906e-05 0.00016798044
0.00042853487 0.000137978 -2.6548799e-08 4.6087625e-05 0.00015774398 -3.683086e-07 0.00025701596 0.0001043083
0.00031598916 0.00028449774 2.3946308e-05 0.00018525284 5.0418308e-05 0.00031753365 0.0004049951 2.1086086e-08
0.0001296332 6.440345e-05 1.168638e-06 -1.3140167e-08 0.000117478005 0.00045425046 0.00026857905 7.74075e-05
1.8103762e-08 -0.0002603643 -0.0005795676 -0.0005076557 -2.3508896e-05 -0.0002565985 -9.243474e-05 -0.00024275082
-0.00056699704 -0.00020848976 8.82733e-08 1.4364158e-05 -7.405399e-07 -1.1304878e-06 3.9630166e-05 -2.1902104e-16
-0.0005078723 -0.0004634519 -2.5016267e-05 -0.0002854139 1.9790765e-05 -0.0003757103 -0.00026663416 8.3889375e-09
9.786575e-06 2.2126767e-05 -5.252834e-10 -1.5782817e-15 -0.00014523031 -0.0006443819 4.019523e-07 6.439688e-05
-1.084164e-13 0.0005477671 0.0013189677 0.0013868815 -8.558665e-05 0.000628122 0.00010589523 0.00050269446
0.001325229 0.00046815383 4.0384723e-15 0.0001419171 0.0003437093 1.14031445e-05 0.00033434716 -1.114301e-05
0.0010252349 0.00091412547 8.472952e-05 0.0005206955 -6.9334026e-05 0.001036226 0.00092868536 1.2109365e-07
3.449187e-05 9.7845965e-05 -9.155758e-06 5.6634137e-09 0.00035821673 0.0013812296 0.0005077467 -8.843367e-05
-1.3097349e-08 3.5572277e-05 -3.5786124e-05 -8.158076e-08 2.1917962e-05 -3.9981926e-05 5.944762e-05 8.553267e-05
0.00010040948 5.663614e-05 2.1482124e-07 -0.0001441352 -0.00029997205 -3.983475e-06 -0.0006994701 -0.0001641238
7.009049e-05 7.407051e-05 1.4007378e-06 2.1656882e-05 -0.00018350423 2.6912278e-16 -0.0004415505 6.961937e-15
-0.00037574818 -0.00020409218 -2.0547173e-08 -5.7774217e-09 4.650246e-05 8.48104e-05 -0.00051881484 -0.00034542786
2.1705924e-09 -0.00018215366 -0.00028633958 6.6598104e-06 7.266176e-05 -0.00033325117 0.00014540557 5.9589198e-05
0.00022950683 -4.073371e-06 -7.353704e-17 0.000776584 0.0010076523 -1.2715731e-05 0.0017978905 0.0006222643
-0.00019511583 -0.00033612392 -1.2908905e-05 -0.00037256285 0.00077944103 -1.9952902e-06 0.0011464106 5.8057964e-10
0.0015958212 0.00018010095 1.8244141e-06 -1.2301792e-14 0.00013113453 -0.00043920332 0.0017931926 0.0014304544
8.331056e-10 7.66553e-05 2.3885252e-05 -4.9972786e-09 0.000103445185 -2.1871088e-05 0.00015569285 0.00011365424
0.00021326508 5.310628e-05 6.9822983e-09 -0.00017675162 -0.00042263189 3.2416363e-06 -0.00083320966 -0.00024215496
0.00020415377 0.00019038773 -9.1139736e-07 9.7110045e-05 -0.00019863097 -1.1201526e-07 -0.0005267636 -1.00475015e-08
-0.00038220713 -0.00022855216 4.1782116e-08 1.9476309e-07 7.578554e-05 0.00015779054 -0.0006714554 -0.00040027927
2.7623955e-07 1.1854054e-19 2.4138307e-08 4.6001955e-10 1.1091044e-08 -3.031717e-07 5.592934e-08 -8.025837e-08
1.3012719e-07 -1.4996651e-16 -1.1696741e-07 -9.779395e-15 -6.893449e-16 -1.3236944e-07 -9.69748e-15 -2.6205855e-16
2.9495094e-08 -1.5664306e-14 1.8605358e-10 -2.250763e-16 8.222873e-17 -2.7923815e-15 -2.1346342e-09 -6.182331e-08
-1.5891363e-14 -1.829219e-07 -6.569518e-13 1.2548587e-16 -2.2876172e-09 1.3827971e-13 -2.5252278e-15 -7.2643086e-16
