checkpoints/ablation_eps_0.20/ablation_eps_0.20_epoch0200.pt (torch, 45691 bytes, 24 tensors)

0.weight f4 [32, 2]
0.44272077 0.6631574 -0.18878673 0.72282284 -0.14390893 0.28023562 -0.14351991 0.18504481
0.5616444 -0.53491235 0.5947734 0.14978723 0.43697533 0.07527369 0.44971576 -0.12927671
0.5350631 0.11679586 -0.0018324779 1.5263664e-07 -0.0016230484 1.2575499e-26 -0.29162467 0.35986465
-0.6864474 -0.2624201 -0.15806901 -0.52283293 0.07488877 -0.8369821 0.5630864 -0.72252476
0.50243294 0.16406162 -0.22395763 0.37564355 0.09068583 0.72780746 0.046710085 -0.13245705
0.1642557 -0.2865292 0.2910219 0.65442806 0.30555397 -0.40183595 0.38645124 -0.0023459243
0.4078624 -0.3805766 -0.63558024 -0.30692926 -0.46255788 0.723499 0.19096851 0.3414707
0.21831723 0.034243807 0.48949042 -0.5218814 0.0068149357 -0.34295264 0.13463353 -0.17745519
00000000: 4cac e23e afc4 293f 4f51 41be eb0a 393f
00000010: dd5c 13be 0b7b 8f3e e2f6 12be 637c 3d3e
00000020: edc7 0f3f 04f0 08bf 1243 183f d361 193e
00000030: 3bbb df3e 1829 9a3d 2541 e63e 1d61 04be
00000040: e5f9 083f ab32 ef3d c12f f0ba 71e4 2334
00000050: 78bc d4ba 5b15 7914 d44f 95be 2e40 b83e
00000060: 04bb 2fbf ed5b 86be d8dc 21be 61d8 05bf
00000070: 495f 993d 7544 56bf 6e26 103f 62f7 38bf
00000080: 729f 003f c5ff 273e 2655 65be 5a54 c03e
00000090: 7eb9 b93d 9751 3a3f 1353 3f3d d2a2 07be
000000a0: a532 283e f5b3 92be d300 953e 9988 273f
000000b0: 9271 9c3e 71bd cdbe f0dc c53e 14be 19bb
000000c0: 57d3 d03e f0da c2be 63b5 22bf d525 9dbe
000000d0: 63d4 ecbe 3b37 393f 408d 433e 3fd5 ae3e
000000e0: 8d8e 5f3e 3c43 0c3d 7d9e fa3e 059a 05bf
000000f0: d34f df3b 7d97 afbe 5fdd 093e d0b6 35be

0.bias f4 [32]
0.24822699 0.006896995 0.5859927 -0.28173128 -0.38402683 -0.3392857 0.67102367 0.16185772
0.62806815 -0.06499334 -0.12935725 -0.40362984 -0.3628763 0.3216956 0.24344492 0.54713684
-0.34387228 -0.3604744 0.411465 -0.16948956 0.40194485 -0.13600339 0.4132357 -0.46721664
-0.27256706 0.25304848 0.24870263 -0.13818856 0.37170878 0.51229894 -0.40000138 -0.27612
00000000: 372f 7e3e 3000 e23b 9e03 163f 153f 90be
00000010: 2a9f c4be dbb6 adbe 35c8 2b3f 08be 253e
00000020: 13c9 203f 3a1b 85bd 3a76 04be 92a8 cebe
00000030: ecca b9be 49b5 a43e a049 793e 2911 0c3f
00000040: 0710 b0be 1a90 b8be 8aab d23e ac8e 2dbe
00000050: b7cb cd3e 7944 0bbe a193 d33e 0537 efbe
00000060: e98d 8bbe 928f 813e e7ab 7e3e 4d81 0dbe
00000070: 9d50 be3e 0626 033f fbcc ccbe 9a5f 8dbe

2.weight f4 [32, 32]
-5.778843e-08 -1.1691276e-20 -2.3158638e-17 -3.75179e-08 2.2542303e-14 2.3939948e-23 3.7950046e-16 -1.1324494e-09
1.6662051e-17 -6.0824386e-15 -5.197864e-10 7.361308e-19 -6.1329506e-09 -1.0422551e-09 -2.3154938e-07 -1.0452464e-09
1.8998875e-21 -1.27254065e-08 -2.6666336e-11 5.623756e-31 2.2718676e-16 7.3690887e-10 -5.7137606e-13 -7.183658e-17
3.2743398e-23 7.1267936e-17 5.3701536e-23 2.8271166e-12 -5.663047e-10 -8.642188e-09 -3.8324261e-31 -4.5262696e-11
0.124725476 -0.038453564 0.1632311 0.02957029 -0.015551194 0.016629636 -0.033787437 -0.07346094
-0.13079996 -7.916003e-08 2.4368383e-32 -0.043151677 0.05680005 -0.09166402 -0.013403709 -0.087156065
-0.03529568 -0.0050612106 0.097097896 7.0904844e-11 0.15602471 -0.13967484 0.06018914 -3.6000179e-06
-0.017859295 -0.10188424 0.16620159 -0.08199317 0.095847666 0.079546675 6.9674837e-31 4.3069427e-24
0.1565046 0.005703754 0.07427378 -0.04660625 0.024066973 -0.04547363 -0.05677053 0.11737591
0.061003197 -4.0887055e-23 3.950755e-26 -0.01684937 -0.11301374 -0.08091475 -0.18416132 -0.067081705
-0.15300874 0.004049635 0.2149032 -5.1632547e-08 0.042946264 0.10873956 0.030070977 -0.07143525
0.041403472 0.064102605 0.13587686 0.034389894 -0.026983634 0.010525943 2.8953605e-30 -0.0012255933
0.15284929 0.20880114 0.028032312 -0.014148 -0.08452325 0.103724144 0.07872097 0.029451136
-0.113855034 -1.1968173e-29 3.9200282e-10 0.08965809 -0.17907417 -0.16724677 -0.08401185 -0.08483839
0.05239387 0.07056725 0.16512154 -7.330603e-27 -0.13169608 -0.052331977 -0.04632179 -0.0081228
-0.109108485 -0.06037203 0.12333091 -0.020926913 -0.06934917 0.038338274 -2.9376697e-27 -7.3455586e-35
-0.14854273 0.07014375 0.0896848 -0.0039686346 -2.6980268e-14 -6.5086695e-08 -0.16243291 9.0026624e-05
0.0073221526 3.8098336e-10 2.256196e-25 -0.06619375 0.0709112 -0.12233146 -0.18087049 -0.08808074
-1.6529291e-28 -0.15067463 -0.082346685 4.3179383e-22 -0.038712613 -0.03683126 -0.08575106 -1.3998467e-31
1.399594e-31 0.09049954 -0.08456608 9.6233785e-09 -0.06655527 -0.066072695 -2.261055e-31 -2.3657218e-08
0.13393751 -0.1496661 0.12393877 0.00970327 0.0013970918 -0.08498142 0.1498761 -0.063724294
0.08967945 1.5815601e-08 1.6289828e-35 -0.018710816 -0.07249274 -0.13242435 -0.046812154 -0.16367432
0.13010211 0.014323519 0.2089743 3.0513293e-33 -0.123079985 0.09842274 0.10585016 -0.06767791
-0.13084593 0.04440247 -0.0062338333 0.037494116 -0.045167472 -0.046175662 -2.2460155e-08 3.0238678e-10
0.11276826 -0.009151994 0.010931072 -0.01995915 -0.10458642 -0.18371275 0.06987754 -0.07212381
-0.10727208 -5.5838484e-37 6.1979877e-31 -0.008441079 0.068843655 0.00034409077 -0.026350575 -0.0656255
-0.15978958 0.023325184 -0.10144899 0.0033596177 -0.035359427 -0.030312592 0.1807927 0.018450327
-0.1120959 0.09542587 0.14333017 -0.011009274 0.1315678 0.19112562 -0.0037542416 0.010969636
-0.118255 -0.05196192 0.14984025 0.08173252 -1.9707516e-18 0.0099032335 -0.06354355 -0.13054915
-0.08029783 -1.29196095e-33 2.351974e-15 0.0002987664 -0.21793292 -0.15633978 -0.08159889 -0.050615523
-1.9789161e-07 0.027852114 -0.036868647 2.7157241e-36 -0.0014003667 -0.10105719 -0.011671925 -3.025699e-09
-7.493447e-11 -0.115816005 0.18850262 -0.08495456 -0.07621875 0.10351408 2.4372484e-32 1.6868473e-23
00000000: 0d33 78b3 8bd7 5c9e ca99 d5a3 5e23 21b3
00000010: 030b cb28 7188 e719 62c4 da25 85a4 9bb0
00000020: 28ae 9923 9824 dba7 b7e0 0eb0 7844 5921
00000030: 01ba d2b1 173f 8fb0 cf9f 78b4 57a8 8fb0
00000040: 2b8d 0f1d ee9e 5ab2 408f eaad 5680 360d
00000050: d9f6 8225 5a8f 4a30 fcd3 20ab d5a4 a5a4
00000060: 5d56 1e1a 2a55 a424 a4d7 811a cef0 462c
00000070: 27aa 1bb0 bf78 14b2 1abd f88c 4411 47ae
00000080: 1270 ff3d 7c81 1dbd 0e26 273e 653d f23c
00000090: 6fca 7ebc e03a 883c b264 0abd b072 96bd
000000a0: 6df0 05be b0fe a9b3 460e fd0a d0bf 30bd
000000b0: 2ba7 683d 59ba bbbd 3b9b 5bbc e17e b2bd
000000c0: 3492 10bd 83d8 a5bb 43db c63d e1eb 9b2e
000000d0: f1c4 1f3e ec06 0fbe e388 763d d697 71b6
000000e0: a84d 92bc afa8 d0bd c030 2a3e 09ec a7bd
000000f0: c84b c43d 5ee9 a23d 971b 620d e59d a618
00000100: be42 203e 8ee6 ba3b da1c 983d 32e6 3ebd
00000110: 1a28 c53c 8f42 3abd 3788 68bd c862 f03d
00000120: 7dde 793d b9b7 459a c5a1 4315 b107 8abc
00000130: bf73 e7bd a2b6 a5bd c994 3cbe 2262 89bd
00000140: 53ae 1cbe cdb2 843b 960f 5c3e 96c2 5db3
00000150: 6ce8 2f3d d9b2 de3d 6957 f63c a54c 92bd
00000160: b096 293d 3a48 833d 4e23 0b3e 6bdc 0c3d
00000170: c80c ddbc 0175 2c3c 49e6 6a0e 16a4 a0ba
00000180: 8684 1c3e f7cf 553e 05a4 e53c 03cd 67bc
00000190: 871a adbd 536d d43d 7638 a13d 8243 f13c
000001a0: d42c e9bd 4fbe 728f 7e81 d72f a99e b73d
000001b0: 385f 37be bd42 2bbe 680e acbd c0bf adbd
000001c0: f49a 563d 9085 903d 9f15 293e 9332 1194
000001d0: 56db 06be 0e5a 56bd ebbb 3dbd 7e15 05bc
000001e0: 4574 dfbd a948 77bd eb94 fc3d eb6e abbc
000001f0: f006 8ebd 9808 1d3d 05bf 6893 4847 c386
00000200: 961b 18be 87a7 8f3d aaac b73d 520b 82bb
00000210: 4304 f3a8 cac5 8bb3 d054 26be adcc bc38
00000220: abee ef3b a472 d12f daa6 8b16 9790 87bd
00000230: e439 913d eb88 fabd 1d36 39be ad63 b4bd
00000240: 9e88 5191 734a 1abe 61a5 a8bd 6e80 021c
00000250: 1e91 1ebd 60dc 16bd 409e afbd e3b5 358c
00000260: 7dad 350c d357 b93d fb30 adbd 1154 2532
00000270: 214e 88bd 1f51 87bd 38c0 928c c636 cbb2
00000280: ea26 093e 1242 19be 9cd3 fd3d 77fa 1e3c
00000290: 9f1e b73a bd0a aebd 1f79 193e e281 82bd
000002a0: dca9 b73d e0da 8732 2139 ad05 6d47 99bc
000002b0: 1377 94bd 409a 07be 1abe 3fbd 3e9a 27be
000002c0: 7d39 053e 31ad 6a3c 5cfd 553e 997e 7d09
000002d0: 5c11 fcbd dd91 c93d f8c7 d83d b79a 8abd
000002e0: 7afc 05be 5ddf 353d 2f45 ccbb 6e93 193d
000002f0: 8701 39bd b122 3dbd 67ee c0b2 283d a62f
00000300: 0cf3 e63d 3ff2 15bc 3d18 333c 5f81 a3bc
00000310: 6831 d6bd 321f 3cbe f51b 8f3d a6b5 93bd
00000320: 77b1 dbbd 2e02 3e83 de22 490d 744c 0abc
00000330: e7fd 8c3d 1567 b439 29dd d7bc aa66 86bd
00000340: e19f 23be 7514 bf3c 7dc4 cfbd 082d 5c3b
00000350: 0cd5 10bd 1d52 f8bc b921 393e 2425 973c
00000360: 8992 e5bd a36e c33d 25c5 123e 3e60 34bc
00000370: b6b9 063e 6fb6 433e b909 76bb fdb9 333c
00000380: ad2f f2bd 06d6 54bd b96f 193e 6163 a73d
00000390: 726a 11a2 2c41 223c 1f23 82bd adae 05be
000003a0: 3073 a4bd f1a9 d688 437a 2927 bfa3 9c39
000003b0: cf29 5fbe 8917 20be 521d a7bd 3952 4fbd
000003c0: 087c 54b4 1e2a e43c 9403 17bd 3c07 6704
000003d0: 828c b7ba 12f7 cebd 9a3b 3fbc a9ec 4fb1
000003e0: 5bc8 a4ae f130 edbd d506 413e a8fc adbd
000003f0: 9318 9cbd 31ff d33d 2d19 fd0a 5124 a319

2.bias f4 [32]
-3.8259285e-09 -0.118050985 0.037274417 -0.06303455 0.10368891 -0.13922663 0.10717116 0.19391263
0.089852765 0.10137517 -3.2114393e-08 0.18969841 -0.004564697 -0.14285503 0.1907011 -0.093307406
0.0335546 0.14423642 -0.12684762 -0.07764394 0.040345173 -0.025284344 0.070475265 -0.056336097
0.019116804 -0.054691285 -0.062564835 -7.2487807e-09 0.07521765 0.07633271 -0.10177664 0.1498287
00000000: 3975 83b1 b7c4 f1bd 0fad 183d 4218 81bd
00000010: da5a d43d 6d91 0ebe 8e7c db3d 0891 463e
00000020: ba04 b83d c99d cf3d 26ee 09b3 4d40 423e
00000030: 7493 95bb 9748 12be 2647 433e f417 bfbd
00000040: 8c70 093d b6b2 133e 58e4 01be c903 9fbd
00000050: fb40 253d 1d21 cfbc 5655 903d aec0 66bd
00000060: d89a 9c3c f803 60bd fe21 80bd f310 f9b1
00000070: b60b 9a3d 5354 9c3d 4570 d0bd b26c 193e

4.weight f4 [32, 32]
-4.956064e-21 0.027414063 -0.03257458 -0.08695657 0.16861871 0.14959346 -0.08558697 0.16924722
-0.00032404647 0.12199238 1.2413949e-11 0.04898489 -0.25964943 0.0071434616 -0.105083294 -0.003033579
-0.06581826 0.026641073 -0.014105347 0.050089583 0.0093503585 -0.031155223 0.18027905 -0.0023415263
0.07941575 0.13500504 0.003561841 -4.6637388e-37 0.005252247 0.09752259 -0.3696749 -0.099627174
3.3339938e-23 -0.057715554 0.049034752 -0.13503718 0.044024456 0.13016893 -0.020064056 0.13084109
0.1117262 -0.053586308 -9.426396e-12 -0.16019705 -0.10816452 -2.1355029e-06 -0.015486463 0.074159004
-0.03440469 -0.005630027 -0.0376148 0.20771639 -0.050045524 -0.14061882 0.065732025 -0.00075824576
0.12007059 0.12179124 0.00025474437 -5.843022e-13 0.07811004 0.18973537 -0.13442242 0.15981288
-7.4772695e-11 0.049063772 0.09999415 0.044641647 0.031051604 0.06213097 0.027649391 0.018219206
0.102911554 -0.01855605 8.834881e-10 0.012114112 -0.014386641 -1.798646e-05 0.043225493 1.0398935e-34
0.070858486 0.07325334 0.06444848 -0.035395138 -0.035420768 0.084561214 0.02740722 0.0021635317
-0.120061696 -0.00044242933 -4.5737606e-06 2.4621787e-32 0.085804395 0.05126073 -0.03928884 -0.12604918
3.0068485e-18 0.015288634 0.038962457 -0.2657787 -0.0008334231 0.020113965 -0.022633826 0.1779122
-0.048954245 0.15567331 -4.5488964e-34 -0.22363243 -0.08199295 0.044709705 -0.12411852 -0.10076799
0.2175623 0.1921229 -0.08582902 0.16523993 0.006440938 -0.20429029 0.010079857 -0.002463912
-0.07691782 0.11428812 -0.022742951 1.7571995e-14 0.13565838 0.15196393 -0.15545595 0.071910456
1.0879667e-09 -0.020094069 -0.09326015 -0.0062540337 -0.013812683 -0.034523275 0.14811115 -0.23376858
0.111061096 -0.28154203 2.222927e-08 0.13959146 0.17716695 -0.007724116 0.15410352 0.04082805
-0.27183148 -0.18302122 0.00489484 -0.01411077 -0.041803334 -4.3513283e-36 0.025502428 -1.4713856e-07
-0.044558343 0.078353144 -0.0005611562 -1.9149042e-14 0.041316707 -0.122801684 0.10583461 0.20488182
-9.82644e-18 -0.06279357 0.19545905 -0.1410608 -0.06460035 0.044939872 -0.103380695 0.09233933
-0.21069138 0.18264979 2.1438128e-36 0.028348144 -0.16724491 -0.07543445 0.069515064 0.2203374
-0.11591748 0.111624464 -0.09485514 0.067848705 0.15242012 0.0773914 -0.14148013 -5.9365233e-09
0.07487306 0.01593163 5.5744473e-05 -5.9655734e-29 -0.106384486 -0.033966284 -0.017784996 0.052617732
-5.6344688e-21 -0.088332996 -0.1253611 -0.016895002 -0.13128898 -0.14942291 0.051850356 -0.09734023
0.13510631 -0.17445429 4.298488e-14 0.058786876 -0.06568103 0.0011589697 0.07577395 -0.16093254
-0.13115533 0.027303312 -3.7815978e-06 -0.04485 0.13122141 -2.1779436e-09 -0.054395072 -0.0014681566
0.21116637 0.15415394 -0.0007336341 1.566042e-08 0.0616747 -0.2459959 0.118397675 0.124676414
5.4280445e-08 -3.3849216e-38 6.509556e-12 -6.8784075e-20 2.9367925e-13 -7.5362195e-08 1.6176381e-10 -6.215722e-10
3.6568992e-09 2.9540434e-37 -2.4803875e-09 -1.8350097e-32 8.215498e-34 -3.8910124e-09 2.7348374e-30 2.6285339e-36
1.4166205e-11 -2.6698698e-31 4.754417e-21 5.160736e-36 1.1422937e-37 -1.2693477e-34 -1.9449461e-16 -2.3545296e-10
2.914544e-31 -1.2507358e-08 1.3655534e-26 3.4126445e-37 -2.7494848e-16 -5.3251506e-29 -2.3471126e-34 1.8220255e-37
00000000: 1c3c bb9d 7593 e03c ec6c 05bd 4916 b2bd
00000010: 62aa 2c3e 072f 193e 3948 afbd 254f 2d3e
00000020: c8e4 a9b9 24d7 f93d 7563 5a2d 61a4 483d
00000030: c5f0 84be b313 ea3b e935 d7bd 03cf 46bb
00000040: b9cb 86bd 613e da3c 1d1a 67bc bc2a 4d3d
00000050: 3f32 193c 3d39 ffbc 129b 383e 4b74 19bb
00000060: baa4 a23d c33e 0a3e c76d 693b e5b2 1e83
00000070: 0b1b ac3b ecb9 c73d 0746 bdbe 5509 ccbd
00000080: d838 211a 2567 6cbd aad8 483d 3047 0abe
00000090: fd52 343d 014b 053e 605d a4bc 35fb 053e
000000a0: b5d0 e43d 517d 5bbd b7d4 25ad b20a 24be
000000b0: 5c85 ddbd a94f 0fb6 efba 7dbc ade0 973d
000000c0: efeb 0cbd 177c b8bb fa11 1abd 9bb3 543e
000000d0: 89fc 4cbd 61fe 0fbe 839e 863d 03c5 46ba
000000e0: 92e7 f53d b06d f93d 368f 8539 6977 24ab
000000f0: 28f8 9f3d fd49 423e 08a6 09be fda5 233e
00000100: 496d a4ae 18f7 483d bcc9 cc3d 29da 363d
00000110: ef5f fe3c 0b7d 7e3d fa80 e23c 7240 953c
00000120: 4bc3 d23d db02 98bc f3d9 7230 457a 463c
00000130: f2b5 6bbc a1e1 96b7 370d 313d be39 0a07
00000140: 411e 913d d905 963d 91fd 833d 7efa 10bd
00000150: 5e15 11bd 6e2e ad3d 1b85 e03c 0aca 0d3b
00000160: e8e2 f5bd dcf5 e7b9 4e78 99b6 f0af ff0a
00000170: 37ba af3d c5f6 513d 56ed 20bd 0913 01be
00000180: c3dd 5d22 2e7d 7a3c 1997 1f3d 2514 88be
00000190: 147a 5aba 0bc6 a43c 936a b9bc 9e2e 363e
000001a0: 3f84 48bd d368 1f3e bb29 1788 e6ff 64be
000001b0: ebeb a7bd 8621 373d da31 febd 735f cebd
000001c0: a7c8 5e3e debb 443e 20c7 afbd a834 293e
000001d0: 810e d33b 7931 51be fc25 253c 9579 21bb
000001e0: 1787 9dbd e40f ea3d 6d4f babc 4346 9e28
000001f0: 08ea 0a3e 6f9c 1b3e d82f 1fbe ca45 933d
00000200: 6d87 9530 519c a4bc 2dff bebd a3ee ccbb
00000210: 974e 62bc 4768 0dbd 73aa 173e 0861 6fbe
00000220: 0074 e33d 4726 90be aff2 be32 10f1 0e3e
00000230: 416b 353e 951a fdbb 50cd 1d3e 503b 273d
00000240: 7f2d 8bbe ea69 3bbe e564 a03b dc30 67bc
00000250: f939 2bbd c515 b984 78ea d03c 24fd 1db4
00000260: cf82 36bd 9d77 a03d 8e1a 13ba af7a aca8
00000270: b53b 293d 737f fbbd d1bf d83d 8acc 513e
00000280: 0d44 35a3 ea99 80bd 6b26 483e 3e72 10be
00000290: 304d 84bd df12 383d 42b9 d3bd 671c bd3d
000002a0: 7bbf 57be 8c08 3b3e 1c60 3604 5e3a e83c
000002b0: 4042 2bbe 607d 9abd ea5d 8e3d 21a0 613e
000002c0: 2566 edbd 5e9b e43d 6943 c2bd 43f4 8a3d
000002d0: 0514 1c3e 627f 9e3d 2be0 10be 36fa cbb1
000002e0: 0c57 993d 0d83 823c 2ccf 6938 c93e 9790
000002f0: 1ce0 d9bd 3b20 0bbd d7b1 91bc b185 573d
00000300: 3ddd d49d eee7 b4bd a95e 00be 6367 8abc
00000310: 9e70 06be 5202 19be 0a61 543d 515a c7bd
00000320: 4f59 0a3e 25a4 32be 3196 4129 82ca 703d
00000330: c783 86bd 92e8 973a 5f2f 9b3d 80cb 24be
00000340: 954d 06be 32ab df3c 5bc7 7db6 a2b4 37bd
00000350: e85e 063e caaa 15b1 5ecd 5ebd 296f c0ba
00000360: ff3b 583e 88da 1d3e 5a51 40ba a185 8632
00000370: 9c9e 7c3d 59e6 7bbe 7b7a f23d 5956 ff3d
00000380: fb21 6933 ec4a 3881 de08 e52c 6c69 a29f
00000390: a453 a52a ced6 a1b3 77dc 312f 41db 2ab0
000003a0: da4c 7b31 b20a c902 7073 2ab1 ed8e be8a
000003b0: dd80 8808 b5b1 85b1 5ae0 5d0e 669c 5f04
000003c0: ea36 792d d248 ad8c e69d b31d 7083 db04
000003d0: 207b 1b02 aab9 2887 ad3c 60a5 0f71 81af
000003e0: 2b2a bd0c f1df 56b2 e43c 8714 a740 e802
000003f0: 3c7f 9ea5 3402 8790 0dfe 9b87 5300 7802

4.bias f4 [32]
0.12940885 0.051827148 -0.06796721 0.13453862 -0.003908886 -0.016254174 0.014198392 -2.1290745e-08
0.034791682 0.06243616 -0.0028101723 0.11330829 -0.005064814 -3.389794e-08 -0.10448091 0.00218977
-0.0013600446 -0.031635504 0.05442813 -3.6868246e-07 0.054342393 -0.0045616427 0.10051546 0.16290699
0.10472222 -5.1763263e-06 -1.3254907e-10 -0.05588171 2.1982013e-25 0.10737752 -0.0064042723 0.16263767
00000000: c183 043e b448 543d 6532 8bbd 7ec4 093e
00000010: 1d16 80bb 7927 85bc 5fa0 683c d8e2 b6b2
00000020: b981 0e3d 0fbd 7f3d de2a 38bb 2d0e e83d
00000030: bdf6 a5bb 2e97 11b3 16fa d5bd 3f82 0f3b
00000040: 8643 b2ba 3b94 01bd 08f0 5e3d 55ef c5b4
00000050: 2196 5e3d d579 95bb 0ddb cd3d 17d1 263e
00000060: 9a78 d63d 4eb0 adb6 3fbd 11af 38e4 64bd
00000070: e40f 8816 bfe8 db3d eeda d1bb 7d8a 263e

6.weight f4 [2, 32]
0.15285838 0.01127472 -0.03721177 0.12914702 -0.072652854 0.23398052 -0.243 3.192382e-26
-0.16289164 -0.1500221 -0.00314518 0.11108585 -0.005464537 -1.09513785e-32 0.15807207 -0.097522475
-0.00052229484 0.014378632 -0.015778778 -6.640573e-07 0.1881927 -0.13114627 -0.06333247 -0.11998301
-0.042238872 -3.5486163e-11 1.2701703e-32 -0.13417436 6.559102e-08 0.038156465 -0.12916943 -0.22767931
-0.077379525 -0.09253005 0.09331929 -0.20597166 0.122681215 -0.24371468 0.013908652 5.3648917e-25
0.13621469 -0.005009291 -0.00012626863 -0.12582189 0.0050355424 -1.0954605e-08 -0.15409838 0.15028097
-0.00013874512 -0.09966464 0.0025902723 2.5625542e-07 -0.19214164 -0.013286491 0.21916772 -0.04160281
0.100614056 -8.601636e-28 2.4439356e-32 -0.15368529 2.0671129e-10 0.2624042 0.004597483 0.17400664
00000000: e886 1c3e 9ab9 383c 5e6b 18bd 1e3f 043e
00000010: 05cb 94bd 9798 6f3e fed4 78be 4014 1e15
00000020: 11cd 26be 659f 19be 5d1f 4ebb fa80 e33d
00000030: dc0f b3bb 8473 638a a5dd 213e ddb9 c7bd
00000040: 9dea 08ba 5b94 6b3c 7f42 81bc ac41 32b5
00000050: 96b5 403e 354b 06be 74b4 81bd a7b9 f5bd
00000060: ab02 2dbd de11 1cae ebe6 830a 0165 09be
00000070: 0bdb 8c33 f449 1c3d fe44 04be c424 69be
00000080: 2879 9ebd 6580 bdbd 2f1e bf3d 3cea 52be
00000090: 4a40 fb3d 5790 79be 1de1 633c 0d09 2617
000000a0: dd7b 0b3e fb24 a4bb fa66 04b9 74d7 00be
000000b0: 3101 a53b dd32 3cb2 f7cb 1dbe 41e3 193e
000000c0: 1c7c 11b9 fa1c ccbd 8fc1 293b 7a93 8934
000000d0: c7c0 44be 95af 59bc 816d 603e b567 2abd
000000e0: be0e ce3d 624c 8892 f4ca fd0a ad5f 1dbe
000000f0: 0e48 632f d859 863e 7ca6 963b cc2e 323e

6.bias f4 [2]
0.15064284 0.081443846
00000000: 1e42 1a3e 08cc a63d

exp_avg f4 [32, 2]
-0.0001774116 0.00014499173 1.1827647e-06 0.00020825672 -0.0006531812 -0.00039986632 -4.3196025e-05 4.9368475e-05
-4.4698856e-05 0.0008226575 1.9835974e-05 -5.087281e-05 0.00031042928 -0.00042659114 -0.0002071721 0.00019270458
-0.00043421518 -3.9714614e-05 -1.8325531e-07 1.5265289e-11 -1.6231162e-07 1.2579939e-30 1.0246939e-05 3.926767e-06
0.0008245948 -0.00014937928 0.0011482416 -0.00031803377 0.0009799993 -0.00028958073 0.00015374008 8.802802e-05
7.702317e-05 -5.0417246e-05 5.169826e-07 3.6052472e-05 -0.0008601582 0.00016950129 8.616525e-06 -2.4742803e-05
0.00041287023 -0.00029516433 -0.00030104152 5.61108e-05 -5.9645972e-05 5.061946e-05 8.226218e-05 1.3264189e-06
0.00032375226 -0.00046760376 -0.00031677738 -0.00018211521 -0.0010609304 -1.081081e-05 -0.00040717667 3.432053e-05
0.00018314594 -8.8005516e-05 0.00059260277 -0.0005136409 -1.5022074e-06 -2.5571126e-05 2.1164192e-06 -8.525767e-06
00000000: 9007 3ab9 ec08 1839 7cbf 9e35 7d5f 5a39
00000010: 403a 2bba 26a5 d1b9 612d 35b8 ff10 4f38
00000020: 087b 3bb8 9ca7 573a 6e65 a637 4460 55b8
00000030: 1dc1 a239 18a8 dfb9 563c 59b9 be10 4a39
00000040: 60a7 e3b9 3e93 26b8 d6c4 44b4 6046 862d
00000050: e147 2eb4 061f cc0d 45ea 2b37 acc2 8336
00000060: 9f29 583a b2a2 1cb9 9880 963a c5bd a6b9
00000070: 5273 803a ded2 97b9 4a35 2139 af9b b838
00000080: 8087 a138 1b77 53b8 c6c6 0a35 0c37 1738
00000090: 3d7c 61ba 28bc 3139 b18f 1037 c48e cfb7
000000a0: 8176 d839 49c0 9ab9 1cd5 9db9 8358 6b38
000000b0: 602c 7ab8 3b50 5438 2c84 ac38 6807 b235
000000c0: 4bbd a939 b728 f5b9 2415 a6b9 2ef6 3eb9
000000d0: eb0e 8bba 1360 35b7 547a d5b9 63f3 0f38
000000e0: dd0a 4039 9a8f b8b8 e658 1b3a dba5 06ba
000000f0: 749f c9b5 9381 d6b7 ce07 0e36 e409 0fb7

exp_avg_sq f4 [32, 2]
1.2210579e-05 3.7695224e-07 9.734409e-06 6.0320094e-06 2.8081547e-05 6.4163232e-06 3.5336776e-09 4.4570583e-09
8.333142e-06 9.071479e-06 1.4603105e-06 2.5967444e-07 8.657014e-06 7.705746e-06 4.722136e-06 1.2754354e-06
8.050831e-06 3.3178803e-06 3.388105e-11 5.0035835e-12 3.247009e-11 4.5151342e-13 1.8848269e-08 3.541826e-08
3.0777766e-05 2.9412136e-06 5.5802004e-05 4.3131395e-06 0.00010420695 3.6457795e-06 8.8194665e-06 1.5131202e-06
9.795453e-07 2.0202026e-07 2.7289571e-08 7.5410576e-08 7.2920084e-05 2.6367031e-06 3.262879e-09 1.0198614e-08
1.6338048e-05 1.671197e-06 1.2976481e-05 4.6449617e-07 6.097833e-06 9.97293e-07 1.7811935e-07 3.8921244e-09
4.70266e-06 1.8692041e-06 1.8978077e-06 1.3617878e-06 4.6002227e-05 5.27736e-06 1.482161e-05 3.9465579e-07
3.6413896e-06 1.6626445e-06 1.8130806e-05 9.111615e-06 2.2930162e-09 2.3125029e-08 2.2956568e-08 2.4706345e-08
00000000: 0adc 4c37 ec5f ca34 f850 2337 9166 ca36
00000010: aa90 eb37 cc4b d736 1dd5 7231 b324 9931
00000020: 93ce 0b37 b531 1837 e3ff c335 6269 8b34
00000030: 983d 1137 ed47 0137 d772 9e36 a02f ab35
00000040: 0e12 0737 c0a8 5e36 ac02 152e 460c b02c
00000050: 12ce 0e2e f12d fe2a c8e7 a132 ca1e 1833
00000060: 6017 0138 aa61 4536 f20c 6a38 96b9 9036
00000070: ae89 da38 04aa 7436 52f7 1337 6a16 cb35
00000080: ec78 8335 e8ea 5834 676a ea32 67f1 a133
00000090: acec 9838 37f2 3036 2d39 6031 fb35 2f32
000000a0: b10d 8937 e44d e035 90b5 5937 de5f f934
000000b0: fd9b cc36 bada 8535 1341 3f34 7dbb 8531
000000c0: 8bcb 9d36 5de1 fa35 2db8 fe35 acc6 b635
000000d0: 84f2 4038 2d14 b136 55aa 7837 14e1 d334
000000e0: 995e 7436 0828 df35 9c17 9837 17de 1837
000000f0: 2b93 1d31 7aa4 c632 0732 c532 d439 d432

exp_avg f4 [32]
0.00051186484 0.0012354695 0.00028907566 5.720077e-06 -0.0010301388 8.0451915e-05 -0.00016215249 -0.0004206499
3.571075e-05 -6.4994315e-06 -1.2935863e-05 -8.546077e-05 -0.001409897 -0.000937589 -0.0015543354 -0.0008411427
7.6357544e-05 -6.310023e-05 0.0010106213 -7.037619e-06 -0.0006326215 0.000118573014 -0.0004681644 -7.080889e-06
0.00043382976 9.994256e-05 0.00042053225 -1.9612042e-05 5.71461e-05 -5.3032803e-05 -4.7450536e-05 -3.8751456e-05
00000000: ab2e 063a 7aef a13a 148f 9739 16ef bf36
00000010: b905 87ba 4bb8 a838 7a07 2ab9 ad8a dcb9
00000020: 20c8 1538 b115 dab6 1c07 59b7 6739 b3b8
00000030: 4bcc b8ba 88c8 75ba d7ba cbba 2280 5cba
00000040: 2522 a038 ae54 84b8 d376 843a b024 ecb6
00000050: 83d6 25ba 67aa f838 f673 f5b9 6098 edb6
00000060: a573 e339 4198 d138 e27a dc39 8a84 a4b7
00000070: 28b0 6f38 8a6f 5eb8 a005 47b8 0f89 22b8

exp_avg_sq f4 [32]
1.2513507e-05 1.6638707e-05 3.401833e-05 4.6836806e-09 1.2533142e-05 1.4668707e-06 1.3792018e-05 8.959024e-06
1.137593e-05 2.4534919e-10 4.940626e-10 4.04802e-08 3.6158082e-05 5.830113e-05 0.00010993612 1.14412205e-05
9.902313e-07 7.915504e-08 7.861644e-05 8.3489935e-09 1.7244216e-05 1.2154709e-05 8.694322e-06 1.068565e-07
4.7036515e-06 2.8463976e-06 6.143647e-05 1.2884037e-05 4.527975e-06 2.1144768e-05 1.7024215e-08 2.9347529e-08
00000000: 1af1 5137 5a93 8b37 e7ae 0e38 17ee a031
00000010: 6f45 5237 4be1 c435 4464 6737 b74e 1637
00000020: 3fdb 3e37 d4e1 862f 91ce 0730 73dc 2d33
00000030: 72a8 1738 5d88 7438 818d e638 abf3 3f37
00000040: 17e8 8435 f2fb a933 e1de a438 436f 0f32
00000050: aca7 9037 14ec 4b37 d4dd 1137 fb78 e533
00000060: 0fd4 9d36 bd04 3f36 74d7 8038 8428 5837
00000070: 02ef 9736 0b60 b137 a53c 9232 e617 fc32

exp_avg f4 [32, 32]
-5.779565e-12 -1.1697537e-24 -2.3166976e-21 -3.7522242e-12 2.2548118e-18 2.3961675e-27 3.7962323e-20 -1.1326493e-13
1.6668188e-21 -6.083644e-19 -5.1986014e-14 7.3633407e-23 -6.1337795e-13 -1.04243444e-13 -2.3157181e-11 -1.0454399e-13
1.9011552e-25 -1.2726962e-12 -2.6671778e-15 5.627101e-35 2.2726022e-20 7.3700737e-14 -5.7151053e-17 -7.185403e-21
3.2798175e-27 7.128985e-21 5.3757277e-27 2.8276832e-16 -5.664094e-14 -8.643587e-13 -3.8346115e-35 -4.526988e-15
-8.29415e-05 0.00011419961 0.00031958616 6.0453817e-06 -1.6176813e-06 1.6621978e-05 -3.4748788e-05 1.50045e-05
-0.00010187125 -7.916881e-12 2.438658e-36 9.409151e-05 0.00020956577 0.00018784734 8.091027e-05 5.2327887e-05
1.0535455e-05 7.6970784e-05 9.498852e-05 7.091571e-15 6.542899e-05 -7.095596e-05 7.4397794e-05 -3.600636e-10
-1.663248e-06 0.0005229561 0.00039556035 -4.6449153e-05 7.3540805e-06 6.654024e-05 6.971782e-35 4.308166e-28
-0.0005353561 8.0932514e-05 0.00025305562 -2.1664273e-06 -0.0005425167 -0.0003139161 -0.00061163114 -0.0004903397
-0.0006917192 -4.089826e-27 3.951996e-30 7.966715e-05 -5.4122224e-06 4.593383e-05 -0.000345547 -0.00079628825
-0.00020940304 6.363444e-05 5.51695e-05 -5.1638407e-12 -0.00030034658 -0.00023762074 -0.00043917214 -4.0233326e-06
-0.00039407765 0.0004589859 0.00018805036 -0.00014960913 -0.00030738252 -0.00066792115 2.8967347e-34 -1.2205442e-07
0.0013913648 9.1242444e-05 0.00076743483 -1.8085058e-05 6.525854e-06 2.1943402e-05 0.0017132245 0.00031346412
0.001778951 -1.1974263e-33 3.9205906e-14 -0.0005197308 -0.0002995418 0.00011748904 6.220313e-06 0.00031432247
-1.6957596e-05 -0.00041022364 0.0011197708 -7.3332557e-31 0.00067354646 0.00063112855 0.00031327343 2.0430878e-06
2.5707247e-06 -0.0006884763 8.897895e-06 0.00029873117 0.0008964976 0.00038907732 -2.9387577e-31 -7.353125e-39
7.385118e-06 0.0002455875 0.00043054073 -1.2689104e-07 -2.698545e-18 -6.5094015e-12 5.001975e-05 9.003189e-09
9.345395e-06 3.8103808e-14 2.2568688e-29 5.3517902e-05 0.00021641728 0.00015789211 2.9494955e-05 2.4343249e-06
-1.6536477e-32 3.1904914e-05 0.0002548046 4.3190538e-26 4.1277333e-05 -4.4400595e-06 9.273932e-06 -1.4006839e-35
1.4005816e-35 0.00047960892 0.00052043877 9.624725e-13 4.3686523e-05 3.7295767e-06 -2.2625821e-35 -2.3660024e-12
-0.0002979778 -8.936538e-06 9.721566e-05 2.4892954e-06 -0.00025287975 -0.00031374278 -0.00020725385 -0.00016108072
-0.00027620525 1.5817521e-12 1.631571e-39 5.003857e-05 3.0363446e-05 0.00013371014 6.335798e-05 -0.00014434304
-0.00024927317 4.0656883e-05 -8.519672e-05 3.0543573e-37 -5.356497e-05 -0.00021167177 -4.522543e-05 -2.3823159e-05
-0.00019798522 0.00010193076 3.4433193e-05 -0.00014633102 -0.000113227914 -0.000120100536 -2.246283e-12 3.0243054e-14
0.00014884512 1.2714588e-05 -0.00023765452 -2.0589029e-07 0.00028422635 0.000101969694 0.00021125351 0.00041651604
0.00024564686 -5.5845e-41 6.2016723e-35 5.3597498e-05 -1.2633318e-05 2.314115e-05 0.00032077008 0.0006632852
8.469497e-05 4.6330075e-05 3.7700738e-05 5.5626396e-07 0.00016462973 4.1789033e-05 0.00037313896 2.365179e-06
0.00020310767 -0.00017617388 9.374168e-05 2.8979863e-05 0.000113057606 0.00056209957 -5.069889e-07 5.738667e-07
-0.00080642913 0.00013983755 0.0003767926 1.82693e-05 -1.9711916e-22 -1.9274164e-06 -0.00033587407 1.5671205e-05
-0.000460536 -1.2931704e-37 2.352449e-19 0.00031935598 0.0002446128 0.00044292703 0.00033629642 0.00046285713
-1.9795767e-11 0.00025523256 -0.00026538735 2.71673e-40 0.00010286619 -0.00037705462 0.00029225997 -3.026097e-13
-7.494594e-15 0.0011377468 0.00046699212 -0.00019282961 -0.00015293123 0.000369048 2.439173e-36 1.6873165e-27
00000000: b259 cbac b802 b597 730b 2f9d 0805 84ac
00000010: 3160 2622 0dd8 3d13 a245 331f c90c ffa9
00000020: eee1 fb1c b78e 33a1 cb1f 6aa9 df08 b21a
00000030: 8aa6 2cab 41bc eaa9 56b1 cbad 8269 eba9
00000040: 035a 6b16 b71d b3ab bf30 40a7 1198 9506
00000050: 26a4 d61e 95f5 a529 07c8 83a4 7aba 079e
00000060: 4ded 8113 a8a9 061e 5bf4 d413 3d01 a325
00000070: 8f16 7fa9 9c4b 73ab 07e2 4b86 181a a3a7
00000080: e1f0 adb8 737e ef38 218e a739 6fd9 ca36
00000090: 1b1f d9b5 6d6f 8b37 3abf 11b8 d6bb 7b37
000000a0: b6a3 d5b8 7646 0bad 4575 4f04 ff52 c538
000000b0: e2be 5b39 e3f8 4439 5fae a938 a47a 5b38
000000c0: 6fc1 3037 606b a138 9334 c738 3380 ff27
000000d0: ec36 8938 31ce 94b8 0306 9c38 72f2 c5af
000000e0: c43c dfb5 fd16 093a 3663 cf39 66d2 42b8
000000f0: 12c3 f636 858b 8b38 7d57 b906 ff87 0812
00000100: 2457 0cba 50ba a938 8dac 8439 f062 11b6
00000110: ae37 0eba 1b95 a4b9 df55 20ba 248a 00ba
00000120: 7d54 35ba c303 a293 df4f a00e fa12 a738
00000130: a39a b5b6 13a9 4038 892a b5b9 00be 50ba
00000140: 3393 5bb9 7b73 8538 cd65 6738 beaf b5ac
00000150: d677 9db9 d529 79b9 b040 e6b9 2a00 87b6
00000160: 359c ceb9 0ba4 f039 622f 4539 65e0 1cb9
00000170: 2f28 a1b9 6e17 2fba 6385 c007 100e 03b4
00000180: 755e b63a 6a59 bf38 ae2d 493a 5eb5 97b7
00000190: a9f8 da36 1913 b837 468e e03a 7158 a439
000001a0: b12b e93a e2f4 c688 5591 3029 8b3e 08ba
000001b0: d20b 9db9 7364 f638 15b8 d036 a6cb a439
000001c0: 2940 8eb7 4913 d7b9 46c5 923a 4efa 6d8d
000001d0: f090 303a 5272 253a d93e a439 fb1b 0936
000001e0: b784 2c36 dd7a 34ba 2b48 1537 059f 9c39
000001f0: ef02 6b3a 13fd cb39 7dbc be8c 8511 5080
00000200: aecd f736 32c2 8039 33ba e139 8b3f 08b4
00000210: 131e 47a2 7a07 e5ac 4ccc 5138 72ac 1a32
00000220: 2aca 1c37 b39a 2b29 aadf e40f 6978 6038
00000230: 12ee 6239 d78f 2539 ef6b f737 625d 2336
00000240: 7fb9 ab8a a4d1 0538 4b97 8539 83de 5515
00000250: 3321 2d38 d2fb 94b6 3c97 1b37 3ef2 9485
00000260: 75ef 9405 0574 fb39 0e6e 083a ba74 872b
00000270: 0c3c 3738 a449 7a36 5899 f085 1c7e 26ac
00000280: e739 9cb9 23ee 15b7 43e0 cb38 c50d 2736
00000290: f294 84b9 d87d a4b9 4852 59b9 c7e7 28b9
000002a0: a4cf 90b9 a09c de2b 28c4 1100 81e0 5138
000002b0: 01b5 fe37 8b34 0c39 0edf 8438 ca5a 17b9
000002c0: e1b0 82b9 ff86 2a38 a4ab b2b8 69de cf02
000002d0: f3aa 60b8 35f4 5db9 70b0 3db8 d8d7 c7b7
000002e0: 419a 4fb9 a9c3 d538 5c6c 1038 6f70 19b9
000002f0: c674 edb8 7cde fbb8 7011 1eac de33 0829
00000300: 4f13 1c39 bd50 5537 e632 79b9 b112 5db4
00000310: 3704 9539 90d8 d538 ef83 5d39 d65f da39
00000320: 2aca 8039 ac9b 0080 65de a406 e0cd 6038
00000330: b0f3 53b7 3e1f c237 082d a839 51e0 2d3a
00000340: 449e b138 8a52 4238 dc20 1e38 2b52 1535
00000350: 75a0 2c39 a246 2f38 dda1 c339 77b9 1e36
00000360: 4df9 5439 51bb 38b9 2e97 c438 c819 f337
00000370: 5719 ed38 dd59 133a 0318 08b5 d20b 1a35
00000380: 8b66 53ba 5ba1 1239 3f8c c539 0641 9937
00000390: 6d4d 6e9b c358 01b6 4118 b0b9 a875 8337
000003a0: 1874 f1b9 6904 3082 34dd 8a20 3c6f a739
000003b0: 603f 8039 a938 e839 f150 b039 a2ab f239
000003c0: 1b20 aead bcd0 8539 b023 8bb9 50f5 0200
000003d0: deb9 d738 6aaf c5b9 783a 9939 a75a aaaa
000003e0: b702 07a8 7320 953a 9fd6 f439 4e32 4ab9
000003f0: 2a5c 20b9 c97c c139 7c80 4f04 d8ae 0513

exp_avg_sq f4 [32, 32]
3.651627e-12 1.9446326e-13 4.3407652e-13 4.250428e-12 8.504776e-13 6.648472e-14 5.379315e-13 1.8198364e-12
4.1469042e-13 1.4420408e-12 2.8239594e-12 7.4055936e-13 3.1125129e-12 1.9169403e-12 6.0494977e-12 1.6565716e-12
1.2438389e-13 3.7909307e-12 1.3609961e-12 1.5715642e-13 5.393953e-13 3.1883266e-12 1.0231144e-12 9.588246e-13
1.8830884e-14 5.966789e-13 5.0491502e-14 1.4110023e-12 1.6572489e-12 2.1660915e-12 1.7123691e-13 2.2567655e-12
1.2943128e-06 1.0052103e-06 2.7657063e-06 2.692879e-09 3.2953523e-10 1.2098354e-08 1.3460357e-06 1.08124894e-07
1.3043253e-06 4.6246665e-12 9.8889396e-14 2.3229456e-08 4.0571754e-07 6.5738925e-07 1.5314558e-07 3.1999917e-07
5.120607e-09 1.8196516e-08 2.3366538e-06 2.420596e-12 2.787489e-07 3.3812307e-07 2.0101652e-07 1.9239625e-12
2.4834743e-10 2.4403225e-06 3.1992477e-06 5.2014453e-08 4.1499152e-07 3.0542773e-07 1.4599849e-13 6.997385e-13
2.4434237e-05 1.0757641e-06 2.3873576e-05 1.3756734e-09 3.3141175e-06 4.144224e-06 6.433431e-05 1.7582055e-05
6.866502e-05 7.5147234e-13 5.7083136e-13 1.5194335e-08 2.5610427e-06 1.0475898e-05 1.052332e-05 6.591778e-05
1.9678487e-06 1.1863311e-08 1.6246267e-05 4.4172092e-12 1.93279e-05 2.0838772e-06 2.835136e-05 2.1757979e-08
1.8994936e-06 1.9559744e-05 9.92081e-06 3.765689e-07 1.8673865e-05 5.2999796e-05 2.4831732e-13 4.6897465e-11
4.5127752e-05 2.8727738e-05 5.5161927e-05 4.258067e-08 1.931002e-09 7.2788004e-07 4.2858876e-05 3.896255e-06
4.3743705e-05 2.1573276e-13 2.7596664e-12 6.481903e-07 1.3937879e-06 1.5252942e-06 1.1366152e-08 7.1844197e-06
3.2727743e-07 5.306287e-07 7.1842594e-05 4.2992812e-13 4.165414e-06 1.1798118e-05 4.1611e-06 9.433464e-11
1.632652e-09 1.4562343e-05 6.8028945e-05 1.941733e-06 1.2682184e-05 7.8203875e-06 4.10162e-13 3.3616603e-14
3.2156862e-08 5.3293303e-07 2.12862e-06 5.31762e-09 1.5368653e-12 4.5207887e-12 1.3168031e-07 1.6745086e-11
3.9639453e-08 2.7533121e-12 6.348413e-13 2.4154184e-08 5.1320444e-07 6.968057e-07 1.2390518e-07 3.4761405e-09
2.967801e-13 1.042082e-08 7.749609e-07 8.487287e-13 1.2834447e-07 2.8930176e-09 2.4627205e-08 1.5550438e-13
1.11073355e-13 2.9595728e-06 2.7749984e-06 2.9044807e-12 6.0916975e-08 3.9550447e-09 1.21379e-13 4.0406662e-12
1.2898081e-05 2.0826049e-07 5.4830984e-06 3.5091124e-10 9.188334e-07 2.2148665e-06 2.7319677e-05 7.7342875e-06
3.0267329e-05 3.8729016e-12 1.1846505e-14 4.8979385e-09 6.381723e-09 5.044777e-07 1.448524e-06 2.4008465e-05
1.0982515e-06 3.930563e-09 7.5961675e-06 5.494175e-14 6.350162e-06 1.2665993e-06 1.0169649e-05 1.0657123e-08
5.5079573e-07 3.1661284e-07 7.305546e-07 2.4358224e-07 7.779142e-06 1.9929306e-05 4.0183486e-12 2.7105e-12
4.864128e-06 3.7198296e-07 4.4848443e-06 5.3995103e-10 2.6497705e-06 8.993047e-07 1.762835e-05 5.6381814e-06
1.8363327e-05 2.2490823e-15 1.573816e-13 5.8188996e-09 4.922584e-07 7.361666e-06 1.2363341e-05 3.1324358e-05
4.103482e-07 5.35857e-09 3.1012141e-06 4.6834744e-11 8.302056e-06 4.884517e-07 1.27144185e-05 4.5257553e-09
1.4510974e-06 5.4565853e-06 1.3057678e-06 8.5723414e-08 5.205223e-06 2.309655e-05 3.123226e-10 2.4177602e-10
9.203669e-06 1.0065146e-05 3.3988745e-05 2.3123533e-08 1.1381102e-12 7.850787e-11 1.2764736e-05 2.9421773e-07
1.0369577e-05 6.3419186e-14 1.3890875e-12 2.4879466e-07 4.3544055e-06 1.1369998e-05 4.1907083e-06 4.5251086e-06
5.054095e-13 2.0013839e-07 2.197377e-05 5.6551337e-15 4.6980886e-06 2.4368105e-06 3.246186e-06 3.2934332e-12
2.430353e-12 3.266311e-05 3.5323927e-05 3.3605042e-07 4.146736e-06 3.936548e-06 8.8221456e-14 7.291831e-13
00000000: ef7a 802c 38f2 5a2a 055d f42a 748c 952c
00000010: 5f63 6f2b d5b5 9529 0d6a 172b 420f 002c
00000020: 3073 e92a fff2 ca2b eeb7 462c ed72 502b
00000030: 0c06 5b2c 87e4 062c 08d9 d42c 4824 e92b
00000040: 370b 0c2a ab61 852c 0d8b bf2b 41f1 302a
00000050: 87d3 172b c95b 602c 95fd 8f2b 4cf1 862b
00000060: 109d a928 3ff3 272b bd64 6329 b794 c62b
00000070: af3c e92b d66c 182c aecb 402a 46ce 1e2c
00000080: 40b8 ad35 c3ea 8635 799a 3936 a10d 3931
00000090: f629 b52f 20d9 4f32 6fa9 b435 4a32 e833
000000a0: 4710 af35 4bb7 a22c dbad de29 1d8a c732
000000b0: 65d1 d934 7277 3035 5670 2434 5acc ab34
000000c0: 56f1 af31 904e 9c32 68cf 1c36 9555 2a2c
000000d0: f5a6 9534 4887 b534 00d7 5734 0763 072c
000000e0: cb87 882f 6cc4 2336 a8b2 5636 7f66 5f33
000000f0: 00cc de34 abf9 a334 3361 242a 79f5 442b
00000100: 20f8 cc37 f962 9035 1d44 c837 3412 bd30
00000110: 1b68 5e36 9d0e 8b36 38eb 8638 2d7d 9337
00000120: 4000 9038 4a85 532b bcac 202b b284 8232
00000130: 61de 2b36 a4c1 2f37 518d 3037 573d 8a38
00000140: 620f 0436 65cf 4b32 9848 8837 af6a 9b2c
00000150: 5922 a237 bdd8 0b36 15d4 ed37 4de6 ba32
00000160: 1af2 fe35 3b14 a437 8e71 2637 3c2b ca34
00000170: d2a5 9c37 194c 5e38 4cca 8b2a da41 4e2e
00000180: 8e47 3d38 59fc f037 ab5d 6738 f1e1 3633
00000190: 8cb2 0431 8963 4335 5ec3 3338 93bc 8236
000001a0: 7279 3738 bce4 722a bb31 422c 4cff 2d35
000001b0: 3012 bb35 b6b8 cc35 dd44 4332 b211 f136
000001c0: abb4 af34 8770 0e35 33aa 9638 2c07 f22a
000001d0: a2c4 8b36 88f0 4537 949f 8b36 ae71 cf2e
000001e0: d663 e030 c950 7437 c3aa 8e38 b84e 0236
000001f0: 91c5 5437 4f34 0337 93e6 e62a 4e65 1729
00000200: d81c 0a33 e10e 0f35 6ad9 0e36 48b6 b631
00000210: 684b d82b a50f 9f2c 0264 0d34 954a 932d
00000220: 0a40 2a33 43bf 412c 23b1 322b 9d7b cf32
00000230: 24c3 0935 200c 3b35 cc0a 0534 e9e0 6e31
00000240: 8512 a72a 4007 3332 e806 5035 59e5 6e2b
00000250: 0fcf 0934 81ce 4631 cc8b d332 1615 2f2a
00000260: 6e1d fa29 139d 4636 1c3a 3a36 7962 4c2c
00000270: 76d1 8233 f1e4 8731 1da9 082a 162b 8e2c
00000280: d664 5837 359e 5f34 75fb b736 5eea c02f
00000290: c0a5 7635 1ea3 1436 8f2c e537 83c2 0137
000002a0: 98e6 fd37 ff43 882c 5d68 5528 b94a a831
000002b0: 3b46 db31 726b 0735 e86a c235 c965 c937
000002c0: a267 9335 990d 8731 95e2 fe36 866f 7729
000002d0: 7a13 d536 0500 aa35 4f9e 2a37 8616 3732
000002e0: 65da 1335 f0fa a934 541b 4435 b0c5 8234
000002f0: 2983 0237 dc2d a737 1162 8d2c 07bc 3e2c
00000300: 8b36 a336 f3b4 c734 857c 9636 ad6b 1430
00000310: b6d2 3136 c067 7135 98e0 9337 9c2f bd36
00000320: f20a 9a37 3f10 2227 2832 312a 95ef c731
00000330: bd23 0435 3b04 f736 256c 4f37 4662 0338
00000340: d44d dc34 7b1e b831 741e 5036 3cfb 4d2e
00000350: 0f49 0b37 251e 0335 0350 5537 f780 9b31
00000360: 54c3 c235 b617 b736 d741 af35 f216 b833
00000370: 86a8 ae36 77bf c137 80b3 ab2f f3ea 842f
00000380: 7569 1a37 79dd 2837 238f 0e38 30a1 c632
00000390: be2c a02b 00a4 ac2e 2028 5637 faf4 9d34
000003a0: fef8 2d37 acce 8e29 277f c32b 1492 8534
000003b0: 0f1c 9236 c5c1 3e37 e99d 8c36 63d6 9736
000003c0: 9842 0e2b 9fe5 5634 5054 b837 67bf cb27
000003d0: 46a4 9d36 1688 2336 0dd9 5936 38c1 672c
000003e0: 5905 2b2c bfff 0838 c728 1438 6b6a b434
000003f0: 3124 8b36 b116 8436 35a8 c629 2e3f 4d2b

exp_avg f4 [32]
-3.8265883e-13 0.0003555598 -2.8422462e-05 0.0014498396 0.00049796473 4.0128318e-05 -7.834995e-05 0.000506229
0.00066637225 0.0012128528 -3.2118138e-12 -0.0005688474 -7.174648e-05 -1.4285529e-05 -0.00031211498 -0.0006856755
0.0005852248 -7.3622854e-05 0.00018452138 0.00023067082 -0.00020420057 0.00034666082 0.00014625152 -5.633631e-06
-0.00036273448 -0.00014810813 -6.241698e-06 -7.249694e-13 0.00068831467 0.0004199881 -0.00077223446 -0.0002677161
00000000: f36a d7aa 6e6a ba39 c66c eeb7 8b08 be3a
00000010: d989 023a 744f 2838 cf4f a4b8 74b4 043a
00000020: 7caf 2e3a 96f8 9e3a e502 62ac b41e 15ba
00000030: 9976 96b8 e1ab 6fb7 5da3 a3b9 e7be 33ba
00000040: c669 193a f865 9ab8 157c 4139 3ae0 7139
00000050: ac1e 56b9 07c0 b539 185b 1939 8608 bdb6
00000060: 662d beb9 794d 1bb9 c76f d1b6 8d0f 4cab
00000070: 0470 343a d931 dc39 c76f 4aba 3f5c 8cb9

exp_avg_sq f4 [32]
1.909966e-12 4.6316363e-06 8.040551e-05 8.369052e-05 3.3857496e-06 2.2580103e-05 2.2166374e-05 6.21724e-05
8.2229435e-06 9.3818606e-05 4.17634e-12 6.515055e-05 0.00012425343 1.46267904e-08 1.4063475e-05 0.00024158646
4.408181e-05 5.332994e-05 8.4931395e-07 7.3230694e-05 6.530111e-06 1.3618546e-05 9.0530575e-06 3.585868e-09
2.098572e-05 1.6643535e-05 1.6017008e-09 3.5795076e-12 1.6623833e-05 0.00013585652 0.00011131607 2.8440387e-05
00000000: e366 062c 7469 9b36 619f a838 0183 af38
00000010: bc36 6336 676a bd37 edf1 b937 8e62 8238
00000020: 46f5 0937 7bc0 c438 20f1 922c 6fa1 8838
00000030: 074a 0239 4e49 7b32 2af2 6b37 5f52 7d39
00000040: 7ce4 3838 96ae 5f38 69fc 6335 6e93 9938
00000050: 3a1d db36 367b 6437 96e2 1737 426b 7631
00000060: 7e0a b037 b89d 8b37 d622 dc30 ade2 7b2c
00000070: 6973 8b37 b574 0e39 5c72 e938 4493 ee37

exp_avg f4 [32, 32]
-4.9594773e-25 1.183068e-05 -0.0003306968 -1.980163e-05 0.00012121755 -0.0004754676 0.0002492029 0.0002565166
0.00010833812 -2.3644185e-05 1.2415967e-15 8.888181e-05 5.8044177e-05 7.1436506e-07 -0.00012033474 7.5300027e-06
-0.00012493946 -0.00037106386 4.5615247e-06 -2.6003731e-06 9.5510135e-05 2.2544276e-05 -0.00033319934 -2.3415674e-07
0.0003173025 -0.0001757935 3.522392e-07 -4.6632e-41 0.000118460666 -0.00010624553 9.3984585e-05 0.00018094083
3.339592e-27 -1.6733159e-06 -0.000117793614 -1.8510467e-05 5.1452174e-05 -0.00020802072 3.5244026e-05 0.000121609
5.943032e-05 -2.1410722e-05 -9.427944e-16 -5.1869774e-05 -6.819306e-05 -2.1356773e-10 -0.0002930298 -0.00016752243
-6.0537717e-05 -0.00016855949 -1.0689274e-06 1.940656e-05 -5.36622e-05 -2.4926992e-06 -0.0002946541 -7.582746e-08
-4.5512043e-05 -7.2670955e-05 2.3690676e-08 -5.844063e-17 5.6303277e-05 -2.9429431e-05 -0.00022165064 -3.300712e-05
-7.478553e-15 8.680591e-06 0.00021755976 1.0456244e-05 -5.2298168e-05 0.00025025607 -9.313121e-06 -9.9234814e-05
1.0911716e-05 5.5946588e-05 8.8361074e-14 -3.8269428e-07 -2.7157332e-06 -1.798774e-09 0.00011060891 1.0413495e-38
0.000102028745 0.00024276828 3.0591216e-06 2.5415531e-05 1.1840096e-05 -6.090544e-06 0.00024248064 2.1636029e-07
-6.475289e-05 8.821872e-05 -4.5742987e-10 2.4642348e-36 -2.2242213e-05 0.0001229523 -7.973578e-07 2.2395214e-05
3.0079655e-22 1.4758318e-05 -0.00044296266 -4.2743257e-05 0.00015180968 -0.0007118147 0.00033118157 0.00036394072
0.00015284093 -3.9553826e-05 -4.5530948e-38 5.6107358e-05 0.00011790019 4.4710187e-06 -0.00015315373 -5.8428836e-06
-0.00015328919 -0.0005251681 1.09611044e-07 1.14676595e-05 0.000111135916 1.6919275e-05 -0.00049207296 -2.4639408e-07
0.00040046938 -0.00023526522 -2.2800846e-06 1.7575402e-18 0.00018453588 -0.00015141127 0.00017058446 0.0002366946
1.0881618e-13 -2.1178586e-05 -9.1290385e-05 4.6401877e-07 -2.4242894e-05 1.2733413e-05 -8.005909e-05 -1.2586612e-05
-5.8793034e-05 -2.2222639e-05 2.2231915e-12 2.925825e-05 0.00012334567 -7.7242623e-07 0.00031292095 0.00033327247
-4.3828994e-05 -4.901086e-05 4.8949e-07 -5.4432483e-05 6.0433686e-05 -4.35365e-40 0.00017647025 -1.471669e-11
0.00013988248 2.4178787e-05 -5.2755546e-08 -1.9152745e-18 -1.9231064e-05 -8.5808846e-05 0.0004000913 3.459907e-05
-9.830613e-22 -0.00017448221 -0.00063196913 -0.00025456867 -2.5022457e-05 -0.0004604941 -0.00061811117 -0.00010768664
-0.0003482526 -9.6182644e-05 2.14444e-40 -0.00040028928 -0.0003126663 -7.543489e-06 -0.0013780975 -0.0007815029
-0.0007250815 -0.0005681514 -9.485547e-06 -0.00035480646 -0.00044870924 -2.1427752e-05 -0.0012474495 -5.937787e-13
-0.0010594288 -0.00043599308 5.5748077e-09 -5.968288e-33 -0.00011551757 -0.00054273923 -0.0010408313 -0.0005736825
-5.6394414e-25 -4.8840724e-05 -0.00019352621 1.5439632e-07 -1.2228184e-05 2.2169901e-05 -0.00013558175 -8.154564e-05
-9.166651e-05 -9.6216136e-05 4.2993047e-18 8.535638e-05 0.00013547823 1.1590143e-07 0.00043865482 0.00041686554
-8.819801e-05 -8.8883775e-05 -3.7819178e-10 -9.140456e-05 8.505586e-05 -2.178234e-13 0.00019692634 -1.4682396e-07
0.00022277083 1.5738404e-05 -6.893852e-08 1.5662325e-12 -4.2000163e-05 -0.0002035515 0.0005268356 1.2951974e-05
5.4286606e-12 -3.391e-42 6.510636e-16 -6.880018e-24 2.9373253e-17 -7.537059e-12 1.6178787e-14 -6.216597e-14
3.6573752e-13 2.9535e-41 -2.4807166e-13 -1.8364405e-36 8.2258894e-38 -3.8915174e-13 2.7362673e-34 2.62959e-40
1.4168501e-15 -2.6716605e-35 4.755585e-25 5.16533e-40 1.1429e-41 -1.2711907e-38 -1.945356e-20 -2.3548748e-14
2.916435e-35 -1.2508895e-12 1.3660396e-30 3.4131e-41 -2.750061e-20 -5.3274186e-33 -2.3505225e-38 1.8214e-41
00000000: 077d 1997 627c 4637 6061 adb9 ad1b a6b7
00000010: 2d36 fe38 2e48 f9b9 72a7 8239 137d 8639
00000020: 9633 e338 8057 c6b7 d5ee b226 0f66 ba38
00000030: 7674 7338 cbc2 3f35 395c fcb8 3baa fc36
00000040: 2e02 03b9 598b c2b9 330f 9936 1282 2eb6
00000050: 9d4c c838 771d bd37 42b1 aeb9 846c 7bb4
00000060: 9f5b a639 3555 38b9 631b bd34 fe81 0080
00000070: 166e f838 22d0 deb8 9719 c538 efba 3d39
00000080: 7d4b 8413 b296 e0b5 f707 f7b8 ed46 9bb7
00000090: 5ace 5738 2320 5ab9 fcd2 1338 5608 ff38
000000a0: d244 7938 2d9b b3b7 f9de 87a6 bf8e 59b8
000000b0: df02 8fb8 f9d1 6aaf cba1 99b9 f6a8 2fb9
000000c0: e1e9 7db8 58bf 30b9 1178 8fb5 45cb a237
000000d0: 5913 61b8 3f48 27b6 ce7b 9ab9 96d6 a2b3
000000e0: 2fe4 3eb8 ec66 98b8 5980 cb32 42c1 86a4
000000f0: 2f27 6c38 39df f6b7 e46a 68b9 2071 0ab8
00000100: bdb8 06a8 dba2 1137 c120 6439 3a6d 2f37
00000110: bb5a 5bb8 cd34 8339 8d3f 1cb7 491c d0b8
00000120: 7711 3737 31a8 6a38 b1f8 c629 1a75 cdb4
00000130: f13f 36b6 bc38 f7b0 b5f6 e738 9664 7100
00000140: 44f8 d538 9d8f 7e39 4f4b 4d36 7033 d537
00000150: d3a4 4637 605d ccb6 6742 7e39 aa50 6834
00000160: f1cb 87b8 1102 b938 8879 fbaf 48a2 5104
00000170: ca94 bab7 c2ec 0039 030a 56b5 5bdd bb37
00000180: 03d2 b51b 7e9a 7737 713d e8b9 3947 33b8
00000190: 1a2f 1f39 1399 3aba 70a2 ad39 4ccf be39
000001a0: ed43 2039 99e6 25b8 e1e4 7781 d154 6b38
000001b0: 2f41 f738 c205 9636 e497 20b9 fd0d c4b6
000001c0: 41bc 20b9 6fab 09ba 4f63 eb33 3965 4037
000001d0: a411 e938 deed 8d37 75fe 00ba 2548 84b4
000001e0: 17f6 d139 87b1 76b9 8e03 19b6 ffae 0122
000001f0: f97f 4139 27c4 1eb9 ebde 3239 3931 7839
00000200: 4208 f529 aba8 b1b7 2773 bfb8 411e f934
00000210: 385d cbb7 98a1 5537 66e5 a7b8 162b 53b7
00000220: 8a98 76b8 c16a bab7 7571 1c2c 9d6f f537
00000230: 5a56 0139 ba58 4fb5 8a0f a439 13bb ae39
00000240: 06d5 37b8 0391 4db8 7f65 0335 6f4e 64b8
00000250: 2d7a 7d38 9fbd 0480 df0a 3939 0a73 81ad
00000260: 6bad 1239 8dd3 ca37 5695 62b3 8352 0da2
00000270: 6552 a1b7 46f4 b3b8 58c3 d139 781e 1138
00000280: 588e 949c 36f5 36b9 bbaa 25ba a177 85b9
00000290: 51e7 d1b7 796e f1b9 bd08 22ba d3d5 e1b8
000002a0: ac95 b6b9 aab5 c9b8 c855 0200 ebdd d1b9
000002b0: 5ced a3b9 141e fdb6 47a1 b4ba c6dd 4cba
000002c0: 6513 3eba ffef 14ba 1d24 1fb7 5105 bab9
000002d0: bc40 ebb9 bfbf b3b7 7681 a3ba 4422 27ab
000002e0: 88dc 8aba 0096 e4b9 878c bf31 b9e9 f789
000002f0: 0642 f2b8 9d46 0eba 816c 88ba 2e63 16ba
00000300: 4288 2e97 54da 4cb8 4ced 4ab9 23c8 2534
00000310: a627 4db7 80f9 b937 f32a 0eb9 7b03 abb8
00000320: 153d c0b8 a5c7 c9b8 c99d 9e22 5c01 b338
00000330: 290f 0e39 7ce5 f833 41fb e539 bf8e da39
00000340: f2f6 b8b8 1d67 bab8 c3e9 cfaf 73b0 bfb8
00000350: 0460 b238 523f 75aa 037e 4e39 aaa6 1db4
00000360: 9797 6939 f705 8437 5a0b 94b3 796d dc2b
00000370: 5529 30b8 7170 55b9 571b 0a3a 4e4c 5937
00000380: 0701 bf2c 7409 0080 04a8 3b26 3314 0599
00000390: d175 0724 e597 04ad beb9 9128 3efc 8ba9
000003a0: 55e4 cd2a 5552 0000 e5a6 8baa 223a 1c84
000003b0: 15ee df01 ad12 dbaa 2ddb b507 06dd 0200
000003c0: 8b30 cc26 c20c 0e86 a02d 1317 e29f 0500
000003d0: dc1f 0000 a06b 8a80 d2bb b79e b71b d4a8
000003e0: 7510 1b06 0b0c b0ab 11a7 dd0d 255f 0000
000003f0: 33de 019f d54a dd89 01f3 ff80 c632 0000
