checkpoints/ablation_eps_0.20/ablation_eps_0.20_epoch0100.pt (torch, 41915 bytes, 24 tensors)

0.weight f4 [32, 2]
000000 19 6e e4 3e 9c 7f 2c 3f 24 1e 48 be d9 e0 38 3f
       0.44615248 0.67382216 -0.19542748 0.7221809
000010 c3 77 0f be b0 ff 8f 3e aa 0c 2f be 5f ff 5d 3e
       -0.14010529 0.28124762 -0.17094675 0.21679448
000020 4b 8a 0f 3f 1a 60 0a bf b8 41 18 3f c5 3b 1a 3e
       0.56070393 -0.5405289 0.5947528 0.15061863
000030 1c b0 e3 3e 33 61 97 3d a0 95 dd 3e f0 b6 00 be
       0.44470298 0.07391586 0.43278217 -0.12569785
000040 f5 e4 09 3f 92 50 f6 3d 13 9e 0d bc 78 5d 35 37
       0.53864986 0.12027086 -0.008643645 1.0810203e-05
000050 76 ce 01 bc 60 a6 5b 22 4a f3 9c be 5f 46 c2 3e
       -0.007922759 2.9768113e-18 -0.30654365 0.37944314
000060 1d 95 2e bf de 7d 8c be dc 7a 22 be ac 0e 06 bf
       -0.6819628 -0.2743978 -0.1586718 -0.5236614
000070 7a f6 94 3d 6a 6d 57 bf ea 48 10 3f 4f a7 39 bf
       0.07273574 -0.8415133 0.5636126 -0.7252092
000080 03 3b 01 3f 37 53 24 3e 63 17 61 be 09 cf c7 3e
       0.5048067 0.16047369 -0.21981578 0.39025143
000090 45 38 bf 3d d5 49 3b 3f 62 4f 62 3d 3e ab 1a be
       0.093369044 0.73159534 0.055251487 -0.15104386
0000a0 15 8e 27 3e bd 22 93 be 9b f4 93 3e 1f 00 28 3f
       0.16362794 -0.2873744 0.28897557 0.65625185
0000b0 fd 68 9a 3e e7 60 ce be 90 7c ca 3e 00 8f 3e bc
       0.30158225 -0.40308306 0.3954816 -0.011630774
0000c0 86 dc d1 3e 3e 62 c2 be c6 d6 23 bf 7c 82 a3 be
       0.4098856 -0.37965578 -0.63999593 -0.3193549
0000d0 a1 84 ec be 24 b9 39 3f 2e fd 40 3e 82 c1 b0 3e
       -0.46194938 0.7254813 0.1884658 0.34522635
0000e0 ad 91 64 3e 38 a8 0a 3d 8c d1 fa 3e 24 57 06 bf
       0.22321196 0.033851832 0.48987997 -0.52476716
0000f0 8d 92 3d 3c 02 57 bb be f5 bb 16 3e 21 e6 3e be
       0.011570585 -0.3658982 0.14720137 -0.18642475

0.bias f4 [32]
000000 a6 e0 81 3e 69 d3 10 3a bd d4 15 3f 02 d1 a6 be
       0.25366706 0.00055246666 0.5852774 -0.32581335
000010 ac bf c9 be 49 3b b2 be 73 eb 2b 3f 4d f9 26 3e
       -0.39404047 -0.34810856 0.6715614 0.16306038
000020 d2 6d 21 3f 99 c6 f0 bd 5c b3 4c be 72 73 db be
       0.630582 -0.117566295 -0.19990295 -0.42861515
000030 84 94 ba be 03 c5 a5 3e a7 6e 7b 3e 2a d7 0c 3f
       -0.36441433 0.3237687 0.2455393 0.55015814
000040 52 64 b2 be 06 b3 c3 be 0f 14 d2 3e 4a c7 43 be
       -0.34842163 -0.38222522 0.41030928 -0.19118991
000050 7d 7e ce 3e 60 e5 0a be 25 91 d6 3e 90 ad f5 be
       0.40330878 -0.13564062 0.4190761 -0.4798398
000060 b1 ae 8b be d3 8c 7f 3e 22 21 79 3e 07 2b 0d be
       -0.27281716 0.24956064 0.24329045 -0.13785945
000070 51 92 be 3e 6c ca 03 3f f9 b3 dd be 68 dc 95 be
       0.37221006 0.51480746 -0.4330137 -0.2926972

2.weight f4 [32, 32]
000000 43 23 1b b7 5f bd 04 30 32 2d 3f 31 a0 43 85 b6
       -9.24693e-06 4.829043e-10 2.7819849e-09 -3.9715815e-06
000010 6c 97 5c 32 e0 ad bd 30 25 d0 ca b2 ac 19 1d b6
       1.2840115e-08 1.3800978e-09 -2.3610548e-08 -2.3409766e-06
000020 f6 ff 4e 32 28 b2 3b ae 00 d2 46 b4 8c fd e6 ab
       1.2048977e-08 -4.2677112e-11 -1.8516585e-07 -1.6412856e-12
000030 46 15 d5 b5 02 5e e3 b5 c1 d2 34 b7 3a 4c 66 b6
       -1.5875928e-06 -1.6940178e-06 -1.0777906e-05 -3.431704e-06
000040 38 5a d7 30 a6 e6 f5 b5 37 74 8e b4 4c 49 1c a0
       1.5668951e-09 -1.832105e-06 -2.6534119e-07 -1.3237966e-19
000050 31 63 63 b2 b9 e0 3d 34 9b aa 6a b3 7b 76 0e 2d
       -1.32356925e-08 1.768375e-07 -5.4637535e-08 8.098073e-12
000060 8f 7d fb b1 b2 2b ee b0 a2 8d fa 30 92 d3 c1 32
       -7.319336e-09 -1.7329198e-09 1.8230149e-09 2.2564368e-08
000070 a8 06 f9 b5 09 19 0b b7 a8 4f aa 9c 21 f7 1d b3
       -1.8553883e-06 -8.290875e-06 -1.1270247e-21 -3.6779173e-08
000080 1d 39 01 3e 6e 09 20 bd 15 97 28 3e 7d fa 07 3d
       0.12619443 -0.039071493 0.16463883 0.03319787
000090 9f e4 b3 bc cd 00 60 3c ac 82 0a bd 88 62 97 bd
       -0.021959601 0.013672066 -0.033816025 -0.0739184
0000a0 ed b8 05 be 10 3d e3 b6 2a 12 68 9f fe 05 36 bd
       -0.13058825 -6.772236e-06 -4.9142936e-20 -0.04443931
0000b0 f5 de 6c 3d 61 8d bd bd a4 d7 eb bb fd 40 b3 bd
       0.057829816 -0.092554815 -0.007197337 -0.0875263
0000c0 03 9d 27 bd bf 93 29 bb 77 54 c7 3d 40 7a 3c 33
       -0.040921222 -0.0025875417 0.09732907 4.3883347e-08
0000d0 1e 66 25 3e 59 bc 11 be b6 65 84 3d c7 6d b6 bb
       0.16152236 -0.14232005 0.06464712 -0.0055672857
0000e0 99 c0 bb bc 30 e5 d0 bd 45 1c 2b 3e ce db c0 bd
       -0.022918986 -0.10199964 0.16710003 -0.094169244
0000f0 39 66 c9 3d 93 c5 ab 3d e6 4b 03 9f 4b 1a 4e a4
       0.098339505 0.08387294 -2.780311e-20 -4.46914e-17
000100 7d 4d 22 3e 33 48 29 3c 66 6e 94 3d 28 e7 7d bd
       0.15849872 0.010332155 0.07247619 -0.061988026
000110 eb 7b 82 3c b6 4d 28 bd dc 21 78 bd f3 8a ed 3d
       0.01592823 -0.041089736 -0.060579166 0.11598768
000120 6d ab 6e 3d 0b 57 c2 a3 f1 7e 6e a1 ad 71 81 bc
       0.058268953 -2.1070386e-17 -8.080554e-19 -0.015801275
000130 e2 f0 df bd b7 3d bc bd 0f 38 4d be 5c 48 9a bd
       -0.109346166 -0.09191459 -0.20040916 -0.07533333
000140 16 4f 16 be 4e 9b df 3b a8 6a 60 3e 70 30 a6 b6
       -0.14678606 0.0068239337 0.21915686 -4.9528244e-06
000150 10 bf 12 3d 99 dd e5 3d 90 73 ba 3c 22 3a a1 bd
       0.035826743 0.11223907 0.022760183 -0.07872416
000160 23 bd 08 3d ca ac 83 3d 10 4e 09 3e fe 06 0b 3d
       0.0333835 0.06429441 0.13408685 0.033942215
000170 38 c8 fc bc c7 e1 5c 3b f7 9f 93 1f 57 06 93 bb
       -0.03085719 0.003370391 6.252156e-20 -0.0044868398
000180 f2 06 1d 3e 55 2e 54 3e d1 d5 dc 3c 7c 09 4a bc
       0.1533468 0.207208 0.026957424 -0.012331363
000190 ab d9 ab bd b0 95 d2 3d a5 f6 a1 3d f9 57 14 3d
       -0.08391126 0.10282457 0.07908372 0.03621671
0001a0 98 db e9 bd 26 2f 98 a0 21 3b 22 34 84 98 b6 3d
       -0.11418837 -2.5781002e-19 1.5108937e-07 0.08915809
0001b0 89 05 33 be ea 18 28 be 2d 8a 8f bd b9 90 a4 bd
       -0.1748258 -0.16415754 -0.07008777 -0.08035416
0001c0 ad 54 44 3d 0e 1e 8e 3d 5d 1b 28 3e 5b 15 23 a1
       0.047932316 0.06939326 0.16416688 -5.525481e-19
0001d0 75 16 06 be f8 55 5f bd aa 3d 33 bd 25 9c 5b bc
       -0.13094504 -0.054525346 -0.04375998 -0.013403927
0001e0 ef c2 df bd 39 e2 80 bd 79 12 f9 3d b5 a9 9d bc
       -0.109258525 -0.062931485 0.121617265 -0.019245962
0001f0 5a 66 8e bd c3 e3 27 3d 3f 17 ce a1 a0 a2 6b 1e
       -0.06953116 0.040988695 -1.3965256e-18 1.24744265e-20
000200 1a cd 25 be 6a 5b 9b 3d 30 a1 ba 3d a9 4a d4 bb
       -0.16191521 0.07585795 0.09112775 -0.0064786267
000210 21 07 11 af f5 a5 c5 b6 e3 40 2d be 96 8a 5c 3a
       -1.3190206e-10 -5.8903775e-06 -0.16919284 0.0008412985
000220 65 d9 6a 3c cf ed 1e 34 cc 2d a3 a3 3e a7 82 bd
       0.014334057 1.4801411e-07 -1.7691891e-17 -0.06379555
000230 c4 1f 91 3d b0 35 03 be ce 97 43 be 6d 2f b0 bd
       0.07086137 -0.12813449 -0.19100878 -0.08602796
000240 54 c4 26 21 0f 49 26 be 92 ce a3 bd 5f e8 20 25
       5.6502826e-19 -0.16238807 -0.079983845 1.3956518e-16
000250 87 6e 3e bd de d3 42 bd c8 0a cd bd e7 2b 0d 20
       -0.046492126 -0.047565334 -0.10011822 1.195769e-19
000260 e7 28 87 9e 23 b3 b8 3d f2 27 aa bd 04 53 51 36
       -1.4310598e-20 0.090185426 -0.083084 3.1191748e-06
000270 6f 06 91 bd 3b 3a 84 bd 55 a9 b9 9f 71 05 40 b6
       -0.07081305 -0.06456419 -7.8630684e-20 -2.8613397e-06
000280 c7 f8 08 3e b0 b1 1d be d7 6d fe 3d c3 3c 32 3c
       0.13376151 -0.15399814 0.12423294 0.010878745
000290 25 ac 9c 3b d4 06 b5 bd 8e cc 1a 3e 06 57 7c bd
       0.0047812634 -0.08839193 0.15117094 -0.06160643
0002a0 6e e1 b9 3d 73 05 10 36 9f 58 0e 1e 43 24 8f bc
       0.090762004 2.1460844e-06 7.535744e-21 -0.017473346
0002b0 3b 79 9a bd 22 4c 02 be f5 bb 1f bd 59 9c 25 be
       -0.07542654 -0.12724355 -0.03899761 -0.16172923
0002c0 07 b3 04 3e 7a b0 8b 3c 31 65 55 3e 8c 48 f0 9c
       0.12958919 0.017051924 0.20839383 -1.5900621e-21
0002d0 dd 3d f9 bd 9f e2 c5 3d ed 76 de 3d cf 82 83 bd
       -0.121700026 0.09662365 0.10862527 -0.06421434
0002e0 06 0f 05 be c3 21 2e 3d 55 10 02 bc 30 06 fa 3c
       -0.12994012 0.042512666 -0.007938464 0.030520529
0002f0 43 66 36 bd 9d 6a 34 bd 2a 08 39 b6 38 32 05 34
       -0.044531118 -0.044046987 -2.75719e-06 1.240486e-07
000300 4a 11 e9 3d 7b 39 3a bc 66 47 9d 3b 51 26 03 bd
       0.11380251 -0.0113662435 0.004799771 -0.032018963
000310 55 de e3 bd 7b 23 3a be f0 76 8d 3d f4 b8 93 bd
       -0.11126391 -0.18177597 0.06907451 -0.072130114
000320 91 68 dd bd da 7f 06 9e 19 c9 1d a0 25 58 e6 bb
       -0.1081096 -7.12034e-21 -1.3364955e-19 -0.0070295506
000330 a1 99 9a 3d e4 91 49 bb c6 fa de bc 07 6f 86 bd
       0.07548834 -0.0030757124 -0.027219187 -0.065641455
000340 72 59 24 be f9 6a 16 3d 8e c3 d8 bd 09 29 57 3b
       -0.16049746 0.03672311 -0.10584174 0.0032830855
000350 20 bc 17 bd b9 71 f3 bc 72 27 39 3e 04 c2 b7 3c
       -0.037044644 -0.029717313 0.18081453 0.022431381
000360 db a1 f2 bd 82 e2 b9 3d 57 21 12 3e 48 5f 3f bc
       -0.11847278 0.09076406 0.1427053 -0.011680432
000370 b8 3c 06 3e de 3a 44 3e 70 39 ee bb 52 9d 93 3c
       0.131091 0.19163081 -0.0072700307 0.018019352
000380 95 cf f3 bd e6 67 3f bd ab 79 18 3e f5 7f ad 3d
       -0.119048275 -0.046729945 0.14890163 0.084716715
000390 34 1d 9c a9 31 73 44 3c a5 66 88 bd 9b 05 f6 bd
       -6.9328576e-14 0.011990354 -0.06660203 -0.12012788
0003a0 29 b0 a6 bd 8d a4 16 9e ad 83 b5 2d da 9a 21 3b
       -0.08139069 -7.974962e-21 2.0635793e-11 0.002465895
0003b0 12 a0 5b be bc d8 22 be 9c 03 a2 bd a0 21 68 bd
       -0.2144778 -0.1590299 -0.07910845 -0.056672692
0003c0 a7 d8 f5 1d 20 ce 01 3d a7 2a 1a bd 2c a9 e6 9c
       6.5074973e-21 0.031690717 -0.037638333 -1.5263853e-21
0003d0 f2 5b 98 bb 2f 3a bc bd fb 2f 81 bc 1d 52 30 b5
       -0.0046496326 -0.09190785 -0.01576995 -6.56846e-07
0003e0 f9 2e 44 b3 99 79 ec bd a2 62 41 3e 07 5b a8 bd
       -4.5677528e-08 -0.115466304 0.18885282 -0.08220487
0003f0 7b a3 a2 bd bb f8 cc 3d b9 d6 8e 1f 7a 33 76 24
       -0.07941338 0.10008379 6.049457e-20 5.338635e-17

2.bias f4 [32]
000000 2d 22 d4 b6 f4 75 f2 bd ff 0f 06 3d c5 55 82 bd
       -6.322071e-06 -0.11838904 0.0327301 -0.063640155
000010 01 d8 d4 3d 5e 25 0e be 43 20 d4 3d 64 f4 44 3e
       0.10392762 -0.13881442 0.10357716 0.19233853
000020 ee 72 bc 3d 10 ae c9 3d eb d6 6e b6 17 87 41 3e
       0.092016086 0.09847653 -3.5589862e-06 0.18899189
000030 e3 9a ac bb 8f 55 1d be eb 43 46 3e 1d 5a ba bd
       -0.0052674874 -0.1536467 0.19361846 -0.09099219
000040 2f de 00 3d 42 d5 12 3e 12 89 03 be 7e 4c a0 bd
       0.03146189 0.14339164 -0.12845257 -0.0782709
000050 00 65 1d 3d ab db cd bc ce ea 88 3d a6 a9 85 bd
       0.0384264 -0.02512916 0.066854104 -0.065264985
000060 42 9e 90 3c 60 0a 6e bd ca 5a 9a bd 0b de a4 b5
       0.017653588 -0.058115363 -0.07536848 -1.2283575e-06
000070 6f fc 99 3d ce b2 99 3d e6 02 d2 bd da 73 17 3e
       0.07518851 0.075048074 -0.10254459 0.14790288

4.weight f4 [32, 32]
000000 c9 1a b8 30 a4 2f e4 3c f4 c6 0a bd 5e c3 ad bd
       1.3395375e-09 0.027854748 -0.033881143 -0.08484529
000010 c8 41 39 3e 00 0f 19 3e 01 43 b6 bd d6 70 2e 3e
       0.180915 0.14947128 -0.08899499 0.17035231
000020 30 e6 00 3a b6 25 ff 3d 44 48 54 32 a1 b3 4b 3d
       0.0004917113 0.12458365 1.2356455e-08 0.049731854
000030 34 02 80 be af 4c 9e 3c 23 29 dc bd 73 99 ca b9
       -0.2500168 0.019323675 -0.10750034 -0.0003864277
000040 ad 75 8a bd 93 df cb 3c d6 49 58 bc cc 02 4a 3d
       -0.06760726 0.024886882 -0.013201198 0.049319074
000050 00 38 b4 3b e8 5a e0 bc c4 f2 38 3e 3e f5 93 bb
       0.00549984 -0.027387097 0.18061358 -0.004515319
000060 56 42 a1 3d ac c6 08 3e dd 77 3d 3c d2 e6 70 1c
       0.07873981 0.13357037 0.011564222 7.9707667e-22
000070 a1 85 f7 3b 1a 74 c6 3d f0 b9 b6 be 9b 5f d8 bd
       0.0075537716 0.09690113 -0.35688734 -0.1056511
000080 d8 d7 26 b2 07 57 70 bd 9d ba 4f 3d 63 39 09 be
       -9.711549e-09 -0.058676746 0.050715078 -0.13400798
000090 1f 28 5c 3d e1 26 06 3e f8 29 b7 bc a0 80 08 3e
       0.0537492 0.13100769 -0.02235888 0.13330317
0000a0 b8 6e e8 3d 56 20 5b bd ca a0 2d b2 7f 53 25 be
       0.11349243 -0.053497635 -1.01064845e-08 -0.16145132
0000b0 f8 76 dd bd c1 ff 56 b8 f2 02 8c bc 1f 93 8e 3d
       -0.10813707 -5.1259765e-05 -0.017091248 0.06961655
0000c0 4f c6 13 bd 80 e6 f0 bb 94 5e 27 bd 24 cb 56 3e
       -0.036077794 -0.0073516965 -0.04086168 0.2097593
0000d0 e6 78 4b bd 45 9e 0e be ab b7 85 3d 96 6a 51 bb
       -0.049675845 -0.13927563 0.065291725 -0.00319544
0000e0 ac d0 f5 3d 67 a0 fd 3d c0 09 9f 3a 81 eb b3 b0
       0.120026916 0.1238411 0.0012133643 -1.3090898e-09
0000f0 cd f3 a7 3d d2 30 43 3e 17 63 0b be 69 5e 23 3e
       0.08200798 0.19061592 -0.13612019 0.15953983
000100 98 7e 00 b4 b2 55 43 3d f6 2f cb 3d 71 24 2f 3d
       -1.1966983e-07 0.047689147 0.09921257 0.042759363
000110 77 01 91 3c 60 80 77 3d 5a dd e3 3c 4b a9 76 3c
       0.017700894 0.060425162 0.02781551 0.015055011
000120 ed 62 d4 3d 87 21 c5 bc aa a5 91 34 78 d2 cc 3c
       0.10370431 -0.024063839 2.712889e-07 0.025002703
000130 8a a9 9c bc 27 af 94 b9 4c 45 39 3d f3 a6 29 9d
       -0.019123811 -0.00028359258 0.045232102 -2.2453274e-21
000140 84 ad 8f 3d 58 a9 94 3d 4c 92 8f 3d 2b 4b 1a bd
       0.07015517 0.07258862 0.07010326 -0.037669342
000150 65 02 02 bd 2e 34 a8 3d cc a8 da 3c c3 51 f3 3b
       -0.031740565 0.082130775 0.026691817 0.0074255182
000160 35 79 f4 bd d5 6e 13 bb fe c0 57 b9 12 08 6a 1f
       -0.11937181 -0.002249648 -0.00020575893 4.9558103e-20
000170 e4 90 ba 3d ed 6a 4c 3d 0a 74 39 bd fb 22 f9 bd
       0.09109667 0.04990666 -0.04527668 -0.12164875
000180 5a 03 c1 30 41 74 7e 3c 00 18 1a 3d ca 4b 87 be
       1.4043551e-09 0.015530647 0.037620544 -0.2642501
000190 ea 3d a2 3b cb b6 9c 3c 47 55 d5 bc 95 cd 36 3e
       0.0049512284 0.019130131 -0.02604164 0.17851861
0001a0 24 f5 45 bd b0 c5 21 3e d2 b4 79 1e f6 39 69 be
       -0.048329487 0.15798068 1.3219343e-20 -0.22776017
0001b0 e2 23 93 bd a3 66 89 3d 96 9e 03 be 71 0e e0 bd
       -0.071845785 0.067090295 -0.12853464 -0.109402545
0001c0 02 da 5d 3e 31 72 43 3e 5b 57 b3 bd 96 e0 28 3e
       0.21665195 0.1908653 -0.08756896 0.16491923
0001d0 4f 8a 5a 3a 1d 6c 4e be 47 48 07 3c e4 17 7a bb
       0.00083366496 -0.2015843 0.008256978 -0.0038161213
0001e0 4a f8 a3 bd 34 85 e1 3d d3 f1 21 bd f0 e0 d1 2e
       -0.08006342 0.110117346 -0.039537262 9.5441766e-11
0001f0 d7 60 0e 3e 77 0a 1b 3e bf bb 12 be 11 e7 85 3d
       0.13904129 0.15140711 -0.14329432 0.06538213
000200 d9 5f 30 36 be 24 09 bd c5 53 d3 bd 68 42 cc bb
       2.6281834e-06 -0.033482306 -0.10318712 -0.006233502
000210 af 19 f9 bc 6f af 00 bd 50 f4 15 3e 4e 29 53 be
       -0.030407755 -0.031417307 0.14643979 -0.20621225
000220 84 05 d7 3d e1 4d 81 be de ab 37 36 ad ae 0c 3e
       0.10499099 -0.2525473 2.7369165e-06 0.13738509
000230 53 0e 35 3e 01 10 81 bc 0c fa 1b 3e 5d e8 3f 3d
       0.17681246 -0.015754702 0.15232104 0.04685246
000240 8c 66 8b be f4 8d 3a be c2 98 fd 3b 62 82 79 bc
       -0.27226675 -0.18218213 0.0077391574 -0.01522884
000250 b3 2f 3f bd 07 94 43 1e 04 94 c6 3c f2 f2 3e ba
       -0.04667635 1.0353825e-20 0.024240501 -0.00072841265
000260 18 d5 41 bd 83 69 9e 3d aa 70 c4 b3 40 f5 df ae
       -0.047322363 0.077349685 -9.147455e-08 -1.0184431e-10
000270 1d 06 07 3d 23 98 fd bd 22 02 db 3d 4f 63 50 3e
       0.032964814 -0.123825334 0.10693766 0.20350383
000280 86 07 89 32 f0 a0 7f bd 5a 73 52 3e 82 25 0c be
       1.595232e-08 -0.06240934 0.20551816 -0.13686183
000290 ad 66 c2 bd ad 81 46 3d c9 b3 d3 bd 7e f5 a0 3d
       -0.0949224 0.048463512 -0.10337026 0.07859324
0002a0 e4 49 53 be 29 2d 32 3e 6b 01 dd 9d 10 6f e4 3c
       -0.20633656 0.1740004 -5.849968e-21 0.02788499
0002b0 2d e4 2a be 6d e1 c1 bd ff 92 91 3d e2 e7 5c 3e
       -0.16688605 -0.09466825 0.071081154 0.21572831
0002c0 fa 76 eb bd 80 cf e8 3d 9d f6 dd bd 67 2f 96 3d
       -0.11497302 0.113677025 -0.108380534 0.0733326
0002d0 02 96 1f 3e ab 33 8b 3d c6 a7 0e be 8f 2c d8 b8
       0.15584567 0.06796964 -0.13931188 -0.00010307982
0002e0 73 12 9b 3d fa f8 b1 3c 44 37 2f 3a 7a aa 0d 9f
       0.07571878 0.021725167 0.00066839554 -2.9998926e-20
0002f0 cd ef cd bd 10 e1 ff bc 9f 6b 9e bc 52 91 5a 3d
       -0.10055504 -0.031235248 -0.019338427 0.053361244
000300 e0 5c f5 30 0c 72 ba bd 83 22 08 be a2 cb e1 bc
       1.7852493e-09 -0.09103784 -0.13294415 -0.02756292
000310 18 fd ec bd 93 b4 14 be 39 b0 56 3d af 97 ad bd
       -0.11571711 -0.14522009 0.052414153 -0.08476197
000320 78 62 12 3e aa 54 2a be 53 e0 4d 2f 6b e1 6c 3d
       0.14295375 -0.1663386 1.8724337e-10 0.057832163
000330 88 94 8a bd 8a 50 a0 3b f2 a8 99 3d 64 f1 1f be
       -0.06766611 0.0048924135 0.07502927 -0.15619427
000340 0d 2c fc bd b2 6e 11 3d 30 96 da b8 5c 2d 27 bd
       -0.123130895 0.035505958 -0.00010423025 -0.040814742
000350 3d 19 04 3e 83 db 0a b5 0f 30 61 bd b3 51 53 bc
       0.12900253 -5.172844e-07 -0.054977473 -0.012897897
000360 a5 34 58 3e 0d 60 1d 3e 5f fe ae ae 91 02 0f 36
       0.21113832 0.15368672 -7.957789e-11 2.1310154e-06
000370 c8 fc 7a 3d f8 18 7c be cf a5 f4 3d 99 9d fd 3d
       0.061276227 -0.246189 0.11945688 0.12383575
000380 ca a6 ad 36 a7 dc e6 1a b4 74 04 32 6a 21 d0 a7
       5.1752186e-06 9.5482254e-23 7.7099465e-09 -5.7767825e-15
000390 ba 1c 58 30 47 6a db b6 a9 3b ab 33 1a 28 62 b4
       7.8621165e-10 -6.539081e-06 7.97366e-08 -2.1062479e-07
0003a0 98 fa 49 35 37 14 71 1d a5 e4 18 b5 4d c1 87 1f
       7.5242997e-07 3.1906535e-21 -5.6957134e-07 5.7494513e-20
0003b0 38 ec 07 1f c6 2a 53 b5 3a a5 0a a0 1d 56 03 1e
       2.8782758e-20 -7.866587e-07 -1.1743724e-19 6.95289e-21
0003c0 3e bf 69 32 00 28 91 9f 11 b6 8b 26 fa 65 62 1e
       1.3605868e-08 -6.147606e-20 9.694412e-16 1.1985429e-20
0003d0 d4 f3 23 1d 70 05 50 9b 11 1d 51 ac bd 97 e0 b3
       2.1698927e-21 -1.7207114e-22 -2.9716821e-12 -1.0458414e-07
0003e0 2f 0f 9e 1f 6b 8f f3 b5 8f 64 22 22 a2 f6 2d 9d
       6.694072e-20 -1.8146651e-06 2.200833e-18 -2.3023866e-21
0003f0 d9 47 89 ac db 58 83 a0 dd 93 d0 9e db 67 0f 1e
       -3.901751e-12 -2.2251063e-19 -2.2084011e-20 7.591834e-21

4.bias f4 [32]
000000 d4 43 02 3e 6b 7f 57 3d 51 29 8c bd f8 7e 06 3e
       0.12721187 0.05261175 -0.06843818 0.13134372
000010 a7 da 0b bc a4 fc 4c bc 63 46 38 3c 66 19 32 b6
       -0.0085360175 -0.012511406 0.01124725 -2.653885e-06
000020 06 c2 07 3d eb 75 76 3d 0f bc 68 bb 89 5d e9 3d
       0.03314402 0.06017105 -0.0035512482 0.113947935
000030 40 c6 f5 bb 56 3b 78 b6 c0 07 d5 bd 31 a1 71 ba
       -0.00750044 -3.6989418e-06 -0.10401869 -0.000921744
000040 dc 54 0b bb fe 71 fe bc 93 42 62 3d 14 db b6 b8
       -0.0021260297 -0.031060215 0.05523927 -8.719243e-05
000050 fd 88 54 3d a6 54 a1 bb 82 f7 c7 3d 2e c3 26 3e
       0.051888455 -0.004923421 0.09764005 0.16285393
000060 12 76 d5 3d b6 60 ba b8 f7 41 94 b3 e9 29 60 bd
       0.10422911 -8.887185e-05 -6.903786e-08 -0.05472747
000070 f9 77 d7 a2 eb 7b d3 3d 2b a7 de bb a0 95 22 3e
       -5.8402893e-18 0.1032637 -0.0067948303 0.1587739

6.weight f4 [2, 32]
000000 69 e1 17 3e f3 5c 21 3c e4 61 0f bd 38 7e 00 3e
       0.14832081 0.009848821 -0.035005465 0.12548149
000010 14 c1 8d bd 73 16 6f 3e 0a 19 76 be 86 c1 69 22
       -0.06921592 0.23348407 -0.24032989 3.1679839e-18
000020 fe 27 1d be 7a 0e 18 be af fc b0 bb 9c 51 e3 3d
       -0.15347287 -0.14849272 -0.005401216 0.1109955
000030 58 6f 02 bc a4 e7 4c 1f 39 43 18 3e 63 8b c3 bd
       -0.007961117 4.339029e-20 0.14869393 -0.0954807
000040 38 40 ab ba d2 1a 39 3c 6d cb 82 bc 9d 16 2b b9
       -0.0013065403 0.011297898 -0.015966142 -0.00016316255
000050 4a 03 3a 3e 23 90 07 be 63 67 7f bd eb 13 f2 bd
       0.18165317 -0.13238578 -0.062354457 -0.11820205
000060 fe b5 0e bd 93 6a e3 b2 18 6a f3 9e b0 f9 0e be
       -0.03484153 -2.6474742e-08 -2.5772505e-20 -0.13962436
000070 00 bd c6 36 17 ff 33 3d a0 cb 03 be 37 9c 64 be
       5.9228623e-06 0.043944445 -0.12870646 -0.22325216
000080 64 f1 94 bd bf c7 ba bd 0b d9 ba 3d ac 3d 4f be
       -0.07272604 -0.0912013 0.09123429 -0.2023837
000090 c0 51 f4 3d f0 1a 79 be 73 24 33 3c 5a 97 8a 23
       0.11929655 -0.24326682 0.010933983 1.502609e-17
0000a0 04 bf 01 3e ba df f5 bb fa 54 62 b9 11 c3 00 be
       0.12670523 -0.007503477 -0.00021584696 -0.12574412
0000b0 43 7b f0 3b ad 88 dd b5 53 2e 14 be 8e d8 17 3e
       0.0073389127 -1.6505561e-06 -0.14470796 0.14828703
0000c0 71 6c b6 b9 1b 11 c6 bd 90 a6 34 3b 0c 1f fa 38
       -0.0003479454 -0.09671231 0.00275651 0.00011926712
0000d0 1b 13 3e be 06 e1 48 bc fa a9 5f 3e da ec 32 bd
       -0.18561976 -0.012260681 0.21842185 -0.04368291
0000e0 45 65 bf 3d 18 89 f5 23 b7 a3 57 1f 3b a4 19 be
       0.093454875 2.6621015e-17 4.5663443e-20 -0.15004055
0000f0 f1 6e cc 33 4d b4 83 3e 18 5e 82 3b 1c 94 2d 3e
       9.5196704e-08 0.25723496 0.003978502 0.1695103

6.bias f4 [2]
000000 0e c2 1a 3e 6a ea a5 3d
       0.15113088 0.081013516

exp_avg f4 [32, 2]
000000 54 57 f1 39 38 d1 19 39 04 50 c2 37 da e7 06 3a
       0.00046032167 0.00014669157 2.3163862e-05 0.0005146243
000010 fd 63 da 38 51 f2 6c b9 03 23 78 b7 4b 64 a4 37
       0.00010413674 -0.00022596984 -1.4790104e-05 1.9597026e-05
000020 4f ce 8f b9 c2 d8 f0 b9 3f b8 23 39 4b 80 16 39
       -0.00027428797 -0.00045937864 0.00015613528 0.00014352908
000030 8c 60 dc 39 44 40 9c b9 e7 3a 87 b9 eb 9f 59 39
       0.00042033603 -0.0002980252 -0.00025793092 0.00020754307
000040 e5 55 bb b9 85 e2 e6 b9 92 12 73 b5 84 75 aa 30
       -0.00035731416 -0.0004403779 -9.055158e-07 1.2402528e-09
000050 8d 09 5f b5 a2 35 1d 1c 49 3d 27 b8 49 76 ba 35
       -8.308787e-07 5.201626e-22 -3.987298e-05 1.3892505e-06
000060 cb 27 65 3a 00 5f 9e b7 d8 e2 b7 39 a1 9f a0 b8
       0.00087415864 -1.8879306e-05 0.00035073492 -7.659128e-05
000070 76 2c d5 38 18 56 3b b9 8c e8 13 b9 44 98 94 b8
       0.00010164913 -0.00017865782 -0.00014105643 -7.0855516e-05
000080 ab 3d b1 37 f3 e5 f1 38 7e b3 8b 37 6f 01 1a b8
       2.112876e-05 0.00011534607 1.6653674e-05 -3.6717796e-05
000090 86 3e 83 39 50 bc 55 39 b8 58 05 37 a2 2e f4 b7
       0.0002503285 0.00020383415 7.948074e-06 -2.9108782e-05
0000a0 4e 8f 3a b8 40 4d 57 b9 02 74 ea 39 b8 45 85 39
       -4.447932e-05 -0.00020532776 0.0004471839 0.0002541968
0000b0 6b c6 63 b9 53 2d 8f b8 42 34 8a 38 a2 98 17 b7
       -0.00021722323 -6.827214e-05 6.5900866e-05 -9.035839e-06
0000c0 b0 35 03 b8 a3 5f fd 38 1f f4 20 b9 f5 63 c4 b8
       -3.1282834e-05 0.00012081794 -0.00015349731 -9.364627e-05
0000d0 25 a1 49 ba a9 ca cd b9 7c 98 81 38 6d 3c 4f 38
       -0.0007691554 -0.0003925164 6.179602e-05 4.940892e-05
0000e0 3f e7 3d b9 13 99 af b9 15 2a a0 39 bb 8f 32 b6
       -0.0001811059 -0.0003349265 0.00030548932 -2.660773e-06
0000f0 29 06 99 36 10 f7 4a b8 6d 18 35 38 50 e3 13 b8
       4.5604725e-06 -4.8390648e-05 4.317651e-05 -3.5259232e-05

exp_avg_sq f4 [32, 2]
000000 ed 5a d0 36 33 92 82 34 4b 4e aa 36 a0 5b 2d 36
       6.209468e-06 2.432076e-07 5.0755093e-06 2.5832342e-06
000010 a3 83 83 37 5a b8 37 36 67 a7 b0 31 07 70 fd 31
       1.5677715e-05 2.7376432e-06 5.1413056e-09 7.376005e-09
000020 5d 5b dc 36 4e ba e3 36 e9 dd 2c 35 ed b3 06 34
       6.567147e-06 6.786816e-06 6.4397915e-07 1.2545179e-07
000030 1a c2 b2 36 76 32 9e 36 bd cd 0d 36 ae 47 2e 35
       5.32741e-06 4.7146414e-06 2.1130393e-06 6.492436e-07
000040 ce 1e b0 36 67 89 05 36 c5 96 a5 2e 37 fa 43 2d
       5.248795e-06 1.9898523e-06 7.530113e-11 1.11400255e-11
000050 ff bb 9e 2e 0e 7a 8d 2b de fd 01 33 ad 02 3b 33
       7.218403e-11 1.005253e-12 3.0266044e-08 4.3541764e-08
000060 60 4d 62 37 b6 d2 0d 36 97 93 0e 38 2f 83 4d 36
       1.3488665e-05 2.1133287e-06 3.3992892e-05 3.062374e-06
000070 76 ce 69 38 27 17 18 36 65 04 af 36 2d b4 42 35
       5.574381e-05 2.2663241e-06 5.215918e-06 7.253282e-07
000080 5c ba 38 35 7f da d0 33 32 0e 14 33 57 b2 a5 33
       6.881653e-07 9.725499e-08 3.4471846e-08 7.715851e-08
000090 ae cd 40 38 06 06 01 36 07 5e 87 31 fc 9e 2b 32
       4.596792e-05 1.9226004e-06 3.939707e-09 9.989659e-09
0000a0 dd 27 19 37 b0 9a 93 35 30 d6 ea 36 56 31 a7 34
       9.128792e-06 1.0997373e-06 6.998678e-06 3.114207e-07
0000b0 29 c0 4f 36 76 a1 0e 35 b2 08 af 34 44 f3 00 32
       3.0957256e-06 5.313408e-07 3.2602617e-07 7.505893e-09
0000c0 5d 00 19 36 3b ac 19 35 48 89 7e 35 69 af 44 35
       2.2798988e-06 5.724757e-07 9.4822144e-07 7.3270945e-07
0000d0 68 2e b1 37 10 a9 41 36 1a bd e2 36 b5 34 99 34
       2.1121654e-05 2.8857648e-06 6.757339e-06 2.853682e-07
0000e0 98 cb 08 36 f6 50 96 35 52 76 39 37 91 8d c2 36
       2.0384086e-06 1.1199434e-06 1.1054408e-05 5.798131e-06
0000f0 7d 06 84 31 ad 43 12 33 8c cc 15 33 22 c7 0f 33
       3.8424433e-09 3.4054825e-08 3.48778e-08 3.3475892e-08

exp_avg f4 [32]
000000 3b 26 46 3a 90 00 fe 39 00 85 d9 39 b9 2a 14 b8
       0.00075587974 0.00048447074 0.00041488558 -3.532574e-05
000010 f7 73 01 b9 52 d1 12 39 76 7d 07 b9 80 fc b0 39
       -0.00012345599 0.00014001623 -0.00012921341 0.00033757463
000020 f7 d6 e7 b7 2d ca 48 b7 55 ef a9 b7 c5 f9 96 b8
       -2.7637447e-05 -1.1968002e-05 -2.0257818e-05 -7.1990806e-05
000030 9d be d1 b9 f3 e8 74 ba 64 55 a4 ba 37 f1 46 b9
       -0.00040005604 -0.00093425735 -0.0012537655 -0.00018972611
000040 0d 94 69 37 13 04 10 b9 43 29 88 3a c9 13 03 b7
       1.3922353e-05 -0.00013734428 0.0010388274 -7.812815e-06
000050 97 19 36 ba 0f b0 31 3a 0d 81 6c 39 de 9a ce b7
       -0.0006946562 0.0006778249 0.00022554789 -2.462923e-05
000060 be b4 9a b9 66 78 74 37 f2 db 88 b8 ad 9c d6 35
       -0.00029507832 1.4571566e-05 -6.525953e-05 1.5989841e-06
000070 f8 be 1c ba ea a2 5b b9 11 b2 0b b8 30 89 ae b6
       -0.00059793843 -0.00020946158 -3.330602e-05 -5.201575e-06

exp_avg_sq f4 [32]
000000 a5 cc d6 36 72 44 eb 36 2d 99 85 37 e5 76 f9 31
       6.4015207e-06 7.011514e-06 1.5926164e-05 7.2603705e-09
000010 88 a4 1f 37 63 11 28 35 83 98 04 37 fc a0 92 36
       9.515446e-06 6.261018e-07 7.9033225e-06 4.36988e-06
000020 1d f0 d8 36 a9 7b 02 30 f3 e2 67 30 1a a2 6e 33
       6.4652545e-06 4.7469456e-10 8.4359825e-10 5.5561124e-08
000030 b5 c1 88 37 7e c7 0b 38 58 fa 5f 38 b7 c8 cd 36
       1.6302665e-05 3.3325974e-05 5.3400494e-05 6.1328424e-06
000040 f8 8b 21 35 90 5a b1 33 96 71 3d 38 b1 fe 0e 32
       6.0180855e-07 8.258678e-08 4.5166897e-05 8.323398e-09
000050 1d 2b 17 37 21 1c da 36 6b d8 9b 36 0e cd 52 34
       9.010339e-06 6.500181e-06 4.6445543e-06 1.9632373e-07
000060 50 7b 04 36 3f d4 d6 35 29 6e fa 37 6b 0a c2 36
       1.974131e-06 1.6006014e-06 2.985362e-05 5.7828634e-06
000070 25 f9 25 36 10 50 4d 37 bd bb d2 32 75 6f 32 33
       2.4731937e-06 1.2237593e-05 2.4532591e-08 4.1545224e-08

exp_avg f4 [32, 32]
000000 95 54 96 b0 79 a5 d9 29 d8 1c 45 ab ec 3e fe af
       -1.0937976e-09 9.665441e-14 -7.002849e-13 -4.624704e-10
000010 59 ce 18 2c f3 c8 ac aa a4 62 98 ac e2 09 aa af
       2.1715045e-12 -3.0692774e-13 -4.331051e-12 -3.0929842e-10
000020 b4 76 89 aa 58 ea d8 a7 f6 e5 c6 ad 3a 38 f6 a5
       -2.4418456e-13 -6.020612e-15 -2.2612117e-11 -4.2712298e-16
000030 f7 6b 52 af d3 3d 73 af 4c 68 a7 b0 4e 2c ff af
       -1.9137746e-10 -2.2122686e-10 -1.2180492e-09 -4.641571e-10
000040 1c 54 80 2a d3 50 6d af c6 28 28 ae f9 c7 8b 99
       2.279573e-13 -2.1583739e-10 -3.823499e-11 -1.4453031e-23
000050 d4 98 28 ac 87 f0 ba 2d 55 69 2d ad 9a e6 7b 27
       -2.3959073e-12 2.1252567e-11 -9.8573e-12 3.4958257e-15
000060 78 79 9d a8 86 8e 61 aa ac 41 91 2a e5 b5 61 2c
       -1.748318e-14 -2.0033462e-13 2.5802743e-13 3.2075395e-12
000070 77 f2 89 af 78 36 91 b0 d5 50 9f 19 7b b0 a3 ac
       -2.5092436e-10 -1.056562e-09 1.6472862e-23 -4.652332e-12
000080 27 2c bd b9 5f 19 02 b9 b5 49 80 38 bb 83 18 37
       -0.00036081785 -0.00012407218 6.1172446e-05 9.090577e-06
000090 96 75 24 b6 b6 e0 06 b8 b5 dd 5f b9 66 a3 34 b8
       -2.4506348e-06 -3.2157368e-05 -0.0002134953 -4.306752e-05
0000a0 a0 ce 96 b9 cb 0e 57 b0 bb 7c 1d 99 6e 35 38 38
       -0.00028764177 -7.8237566e-10 -8.141899e-24 4.391878e-05
0000b0 45 b2 1a 39 96 e3 46 39 6d c6 fe 38 14 22 73 38
       0.00014752995 0.00018967534 0.000121486235 5.7967452e-05
0000c0 dd b6 f7 b7 f6 5c 01 38 c6 e7 84 b9 2f fe c0 2c
       -2.9529847e-05 3.0842573e-05 -0.00025349687 5.4851883e-12
0000d0 90 1d 8b 38 b5 bf 82 b9 de 86 80 38 14 9a 30 b5
       6.633543e-05 -0.00024938365 6.1286366e-05 -6.578932e-07
0000e0 f1 98 06 b6 53 55 c7 39 d0 38 75 38 dc f1 04 b9
       -2.005658e-06 0.0003801981 5.8465463e-05 -0.000126786
0000f0 20 ba bd b8 56 eb 3d 38 43 1d 3e 19 3f d1 24 9e
       -9.046891e-05 4.5280285e-05 9.828679e-24 -8.725359e-21
000100 b4 ed 62 39 1c 48 1a b8 3d 4b 52 39 10 37 a4 b5
       0.00021641591 -3.678362e-05 0.00020055189 -1.2234977e-06
000110 c9 14 88 37 ba 53 a3 39 2f 12 bc 37 ae b5 30 39
       1.6222142e-05 0.00031152164 2.2419814e-05 0.00016852349
000120 cb 8b 38 38 a9 51 92 1c 00 32 6d 1c 65 c7 32 38
       4.399921e-05 9.682578e-22 7.8481346e-22 4.2624208e-05
000130 ac 9c 77 39 59 15 14 b9 0e ff bf b9 fb 52 47 b9
       0.0002361412 -0.00014122333 -0.0003662039 -0.00019009032
000140 44 5f 78 39 89 c0 fc 37 3b 28 90 39 ea f2 1d b0
       0.00023686612 3.0130397e-05 0.00027495794 -5.746147e-10
000150 a1 36 61 b8 77 13 e8 b7 81 c2 9b b8 40 bc 8a b7
       -5.3695057e-05 -2.766562e-05 -7.427205e-05 -1.6538543e-05
000160 ee e0 cb 36 b8 b3 ed 39 10 39 0b 39 c9 a6 00 b8
       6.0760567e-06 0.00045338064 0.0001327733 -3.067291e-05
000170 db 65 7f 37 08 81 e3 b8 53 82 18 19 bf 81 fa b4
       1.52228995e-05 -0.000108482374 7.8845346e-24 -4.6660531e-07
000180 f1 67 2a 3b 72 89 75 3a 01 dd a5 3a e2 d1 0a b8
       0.0026001895 0.0009366489 0.0012654365 -3.3097233e-05
000190 ef 3b 18 37 b9 ef da 38 27 85 0f 3b 81 e2 0d 3a
       9.07386e-06 0.00010439702 0.0021899433 0.0005412475
0001a0 50 a6 19 3b 2c 77 da 99 b5 d2 a2 2d 19 7d 85 b9
       0.0023445077 -2.2588805e-23 1.851084e-11 -0.00025460942
0001b0 32 41 23 b9 b0 87 d3 b8 0e c8 ea 37 f0 4c de 39
       -0.00015569179 -0.00010086538 2.7988131e-05 0.00042400463
0001c0 8a 8f 89 38 88 f7 27 b9 24 e6 11 3b 40 49 bb 9b
       6.559405e-05 -0.00016018574 0.0022262419 -3.0983892e-22
0001d0 3a dc 00 3a 53 c8 b8 3a 51 b8 bf 39 d9 0c b1 b2
       0.0004915629 0.0014097787 0.00036567685 -2.0611354e-08
0001e0 de 00 c6 36 7d 7b 3b ba 61 0d 5f 3a 7a ae 2a 3a
       5.900961e-06 -0.0007151885 0.00085087685 0.00065109844
0001f0 0d d8 95 3a f5 29 0c 3a 35 11 66 9a 43 71 45 18
       0.0011432186 0.0005346828 -4.7576785e-23 2.5518836e-24
000200 aa 80 0b 37 09 08 70 39 e3 92 41 39 4c 25 b6 36
       8.315003e-06 0.00022891177 0.00018460634 5.4283646e-06
000210 f9 2c a4 a8 5e 71 3b b0 08 35 0d 36 e0 67 c1 33
       -1.8227161e-14 -6.819131e-10 2.1041506e-06 9.0061576e-08
000220 82 8c 9d 37 c1 8f 9f 2d 70 5f 12 9d 17 62 67 38
       1.8781288e-05 1.8140047e-11 -1.937228e-21 5.5166045e-05
000230 78 2c c4 37 61 a7 98 b8 e2 47 b7 b8 17 95 94 b7
       2.3385728e-05 -7.2791016e-05 -8.739509e-05 -1.77124e-05
000240 ab 12 42 1a b1 fb ee 37 44 b9 5f 39 ec 3c 91 1e
       4.013334e-23 2.8489014e-05 0.00021335954 1.5377669e-20
000250 c3 9c 71 b8 4f 8a f2 b5 e0 0e 4e b8 d0 44 9c 19
       -5.7604873e-05 -1.8070658e-06 -4.912808e-05 1.6157815e-23
000260 ac a5 2d 99 e3 7e b4 38 31 94 9c 39 f5 98 d0 2f
       -8.9773475e-24 8.606703e-05 0.0002986505 3.7943662e-10
000270 9c 31 d0 36 d8 56 aa b7 6d ce a6 97 ca 17 b8 af
       6.2046583e-06 -2.0306019e-05 -1.0779608e-24 -3.3486308e-10
000280 1a cd af 39 5c 04 5b b6 5a b3 05 3a 8a ef 59 36
       0.00033531414 -3.263608e-06 0.0005100273 3.247495e-06
000290 0e 48 ed 37 f3 cb 93 38 de 42 3e 3a 18 af 9c 39
       2.8286155e-05 7.047495e-05 0.0007257889 0.00029885094
0002a0 00 63 38 3a ce ad 8a 2f 99 4f 79 97 30 03 9e 37
       0.0007033795 2.522555e-10 -8.0556706e-25 1.8836552e-05
0002b0 a8 e9 a8 b5 50 98 7c 39 e6 4c 5c 39 14 9c 27 3a
       -1.2584978e-06 0.00024089334 0.00021009482 0.0006393802
0002c0 53 93 95 38 6a 62 8c 37 15 98 d4 39 24 ad 88 18
       7.132315e-05 1.6735128e-05 0.000405491 3.5330003e-24
0002d0 ee 07 d0 39 99 c7 6a 38 1f ef fd 39 12 3e 73 36
       0.0003967876 5.5975837e-05 0.0004843408 3.6245951e-06
0002e0 f3 d0 27 37 b7 3c 82 39 c7 f4 1f 39 03 49 11 37
       1.00026255e-05 0.00024840768 0.00015254608 8.659673e-06
0002f0 56 47 c9 39 7e b4 1e 3a e3 7d b1 af 6a 07 86 2d
       0.00038390857 0.0006054117 -3.228556e-10 1.5237329e-11
000300 b5 cc 06 ba 41 1c 13 b9 3f ed 05 ba 9d 79 1f b5
       -0.0005142198 -0.00014029538 -0.00051089 -5.9409086e-07
000310 d4 81 99 b8 d1 1f fb b8 08 7b 98 b9 63 d8 12 b8
       -7.319791e-05 -0.00011974539 -0.00029083365 -3.501064e-05
000320 03 fd 82 b9 b3 9d 9c 15 75 f1 88 99 54 e4 9f 37
       -0.0002498404 6.3256704e-26 -1.4159594e-23 1.90606e-05
000330 09 50 7f b9 3d 00 98 b9 e3 dd ff b8 da 4d d9 b7
       -0.0002434851 -0.00028991877 -0.00012200677 -2.5904668e-05
000340 fe 89 bb b8 03 84 7f 37 64 a0 0a ba 60 01 a3 35
       -8.942558e-05 1.5229921e-05 -0.00052881823 1.2144847e-06
000350 ce b8 36 b9 f3 2c 56 b9 2a cf 9a b8 20 10 d9 36
       -0.00017425718 -0.00020425375 -7.3818795e-05 6.468981e-06
000360 71 20 54 b8 40 6a 1b ba 5a 07 9d b9 3d 26 c3 b8
       -5.0574952e-05 -0.0005928613 -0.0002995085 -9.305447e-05
000370 2e f3 27 b9 fa 60 e9 b7 ac 84 2e b5 22 3e 64 36
       -0.00016016953 -2.7820923e-05 -6.5013114e-07 3.4010814e-06
000380 d2 87 88 ba 14 05 31 b9 63 1d ba b9 ed 78 ec 37
       -0.0010416454 -0.00016881927 -0.0003549858 2.8189703e-05
000390 d9 51 4c a3 b0 56 c4 34 57 26 8d ba a3 78 1f b9
       -1.1076194e-17 3.6570918e-07 -0.0010768872 -0.00015208362
0003a0 23 2f 98 ba 61 47 ae 98 41 9f 54 27 7d 05 2b 39
       -0.0011610728 -4.505002e-24 2.9507242e-15 0.00016309875
0003b0 9f 19 ca 39 51 78 ce 38 36 9d b4 b7 03 c0 d6 b9
       0.00038547532 9.845256e-05 -2.153088e-05 -0.0004096032
0003c0 b3 1a 40 97 1c 77 e0 38 60 8a 5c ba a6 2f 4f 97
       -6.2072245e-25 0.00010703338 -0.00084129535 -6.694545e-25
0003d0 fe 6d 9b b9 50 f5 f5 b9 bc 82 92 b9 63 e7 ac ae
       -0.00029645854 -0.00046912814 -0.00027944695 -7.862757e-11
0003e0 6a c0 c8 ac d8 3a 3a 3a e8 19 d9 37 6a a3 73 b9
       -5.705704e-12 0.00071041053 2.588048e-05 -0.00023235162
0003f0 bf 27 14 ba f7 a3 d2 b9 f8 8f b8 18 73 4e 06 1e
       -0.00056516746 -0.00040176485 4.7708257e-24 7.110124e-21

exp_avg_sq f4 [32, 32]
000000 5b 06 0f 2d 59 bb f3 2a 6d 03 88 2b 6f 7a 26 2d
       8.13002e-12 4.329547e-13 9.664332e-13 9.463193e-12
000010 7f 3e 05 2c 8d a8 26 2a 17 8e a8 2b 68 8e 8e 2c
       1.893513e-12 1.480224e-13 1.1976556e-12 4.051693e-12
000020 5e f0 81 2b 85 ec 61 2c ea 36 dd 2c e6 0b e8 2b
       9.232717e-13 3.2105718e-12 6.2872945e-12 1.6487894e-12
000030 7d d1 f3 2c ca 29 96 2c 7d f1 6c 2d 70 c4 81 2c
       6.9297333e-12 4.267896e-12 1.3468668e-11 3.6882095e-12
000040 b8 e5 9b 2a 21 7b 14 2d 13 3a 55 2c 1b f9 c4 2a
       2.769293e-13 8.440166e-12 3.0301358e-12 3.4989446e-13
000050 7e 03 a9 2b c5 c1 f9 2c 74 4a 20 2c fa 37 16 2c
       1.2009142e-12 7.0985184e-12 2.2778697e-12 2.1347355e-12
000060 7b d0 3c 29 88 f6 ba 2b 9d 22 fd 29 a6 0f 5d 2c
       4.1925214e-14 1.3284521e-12 1.12414615e-13 3.1414676e-12
000070 f5 d1 81 2c 24 ae a9 2c ff 9e d6 2a 82 c8 b0 2c
       3.6897104e-12 4.8226024e-12 3.8124362e-13 5.0244817e-12
000080 a5 d1 5a 35 86 04 11 35 b1 33 cb 35 52 13 c5 31
       8.15164e-07 5.402329e-07 1.5139723e-06 5.735651e-09
000090 2d c6 3e 30 89 7e 2a 32 85 6c 66 35 85 44 b4 33
       6.940322e-10 9.924073e-09 8.5839594e-07 8.394367e-08
0000a0 d7 69 6c 35 e5 22 35 2d 2d e3 77 2a 34 92 94 32
       8.807087e-07 1.0296407e-11 2.2016824e-13 1.7295953e-08
0000b0 15 78 75 34 71 31 e0 34 f6 0f eb 33 ad fb 94 34
       2.2861089e-07 4.1759225e-07 1.09459435e-07 2.7750266e-07
0000c0 bb 45 6c 31 a5 ca 2a 32 88 96 b0 35 f9 9d bd 2c
       3.4382157e-09 9.941378e-09 1.3156832e-06 5.3892416e-12
0000d0 44 df 58 34 2c 04 6d 34 d6 67 2e 34 c9 72 96 2c
       2.0197791e-07 2.2073863e-07 1.6242788e-07 4.276e-12
0000e0 c0 5a 0c 30 84 54 bd 35 86 bb e3 35 7b 26 0d 33
       5.1060667e-10 1.4106195e-06 1.6967394e-06 3.286412e-08
0000f0 a9 56 8f 34 eb 37 84 34 f7 fc b6 2a 78 41 db 2b
       2.669888e-07 2.4627602e-07 3.2505224e-13 1.5579057e-12
000100 ca 52 82 37 f7 62 1d 35 53 64 62 37 b0 d6 42 31
       1.553576e-05 5.863107e-07 1.3494008e-05 2.8352751e-09
000110 ae a5 cd 35 3d 79 2c 36 2a 19 17 38 b4 53 17 37
       1.5321909e-06 2.5700567e-06 3.602464e-05 9.01979e-06
000120 5f 71 23 38 2a 77 eb 2b 1e dd b2 2b d3 8a 2d 32
       3.8967813e-05 1.6730829e-12 1.2709033e-12 1.010149e-08
000130 e5 5a b8 35 86 77 b9 36 3d 37 9e 36 6f 42 10 38
       1.3735522e-06 5.527344e-06 4.7151975e-06 3.4394146e-05
000140 ad 08 9d 35 d2 bd d1 31 ad 5d 23 37 b7 02 2d 2d
       1.1699937e-06 6.1042806e-09 9.737368e-06 9.834514e-12
000150 6a 9d 29 37 19 c7 ba 35 92 8d 79 37 40 d8 83 32
       1.0109836e-05 1.3916025e-06 1.48745185e-05 1.5348746e-08
000160 41 e6 7b 35 54 07 38 37 ea 25 b7 36 40 97 83 34
       9.383985e-07 1.0968961e-05 5.458239e-06 2.45107e-07
000170 94 81 32 37 53 e1 ea 37 77 9d 1b 2b 7f bf e4 2e
       1.06397965e-05 2.7999899e-05 5.528559e-13 1.0402256e-10
000180 c6 3f bd 37 50 61 5e 37 4a 3d c0 37 1f 35 bb 33
       2.2560253e-05 1.32548885e-05 2.2916724e-05 8.717529e-08
000190 33 bb 1f 31 f1 e2 db 34 9a 03 a1 37 92 42 ef 35
       2.3243956e-09 4.095705e-07 1.9194373e-05 1.7826262e-06
0001a0 55 11 ad 37 e7 31 07 2b 87 2d d8 2c be 14 e3 34
       2.0631278e-05 4.803089e-13 6.144144e-12 4.2297137e-07
0001b0 88 1a 07 35 4e bf 23 35 66 82 c1 31 f2 16 65 36
       5.0330027e-07 6.1000617e-07 5.631864e-09 3.4137015e-06
0001c0 08 62 2b 34 25 a3 91 34 eb 3c 08 38 9c b6 86 2b
       1.596128e-07 2.7127058e-07 3.248166e-05 9.571957e-13
0001d0 ed ab fb 35 d2 a6 d7 36 82 76 06 36 f2 e9 e0 2e
       1.8750994e-06 6.4269198e-06 2.0036537e-06 1.0227898e-10
0001e0 cc 8a 13 31 c6 45 c1 36 36 9d fc 37 9a 83 93 35
       2.1470212e-09 5.759971e-06 3.0113948e-05 1.0990655e-06
0001f0 39 b4 bd 36 4b 0b 73 36 10 85 80 2b de 88 a8 29
       5.6536196e-06 3.6216395e-06 9.131879e-13 7.4844414e-14
000200 1a 8a 56 33 71 48 08 35 f8 2b d6 35 8d de 48 32
       4.995136e-08 5.0769364e-07 1.5957039e-06 1.1692134e-08
000210 a6 c7 70 2c 4c 11 31 2d 0d 2f e1 33 98 f6 23 2e
       3.4216878e-12 1.0065126e-11 1.04859375e-07 3.728093e-11
000220 f3 bd 63 33 2a ae d7 2c aa eb c6 2b ec c2 e9 32
       5.3025314e-08 6.1300036e-12 1.4134156e-12 2.721341e-08
000230 07 ea 9a 34 82 dd de 34 b3 5a 8c 33 78 6f d9 30
       2.8855013e-07 4.151189e-07 6.535756e-08 1.5820509e-09
000240 4f fc 39 2b df 53 0c 32 06 38 47 35 4b f8 04 2c
       6.607535e-13 8.168143e-09 7.42148e-07 1.8896159e-12
000250 b4 42 a4 33 3f e4 d8 31 31 29 59 32 17 e7 c2 2a
       7.648978e-08 6.312376e-09 1.2640428e-08 3.4621673e-13
000260 ef 36 8b 2a cf 4d 02 36 f3 e1 15 36 9d 85 e3 2c
       2.4729478e-13 1.94168e-06 2.233425e-06 6.466562e-12
000270 bc 73 57 33 03 23 00 31 8f 21 98 2a 28 43 1e 2d
       5.0163848e-08 1.8646353e-09 2.702391e-13 8.996172e-12
000280 d6 4d f2 36 fd ee c6 33 96 9f 3d 36 f3 66 43 30
       7.2212233e-06 9.263565e-08 2.8256086e-06 7.1086886e-10
000290 0d 16 fc 34 44 b3 a6 35 70 f5 78 37 e8 3a 83 36
       4.6954702e-07 1.2420137e-06 1.4839097e-05 3.910962e-06
0002a0 df 42 8a 37 02 b1 17 2d f4 90 ed 28 7a 4b 45 31
       1.6482021e-05 8.62266e-12 2.6375149e-14 2.8710176e-09
0002b0 d6 fd d9 30 e7 5f 8e 34 b4 0d 55 35 6b 6a 5c 37
       1.5860973e-09 2.651934e-07 7.9368624e-07 1.3137799e-05
0002c0 90 71 17 35 fa d3 fb 30 ee 4b 84 36 2a b9 09 2a
       5.641714e-07 1.8322901e-09 3.942746e-06 1.2232286e-13
0002d0 bf 27 65 36 79 ce 31 35 a3 c0 b9 36 16 02 da 31
       3.4146794e-06 6.6238096e-07 5.5358555e-06 6.344872e-09
0002e0 6f c9 a6 34 50 00 21 34 98 aa b2 34 ba b3 03 34
       3.1066472e-07 1.4994407e-07 3.3279207e-07 1.226571e-07
0002f0 fb 90 8f 36 1f e9 35 37 67 63 1d 2d 9a 53 d4 2c
       4.27861e-06 1.0842718e-05 8.9464885e-12 6.034684e-12
000300 1c 49 89 36 a1 e9 27 34 46 c7 6b 36 ad 91 99 30
       4.091429e-06 1.563808e-07 3.5133721e-06 1.1173619e-09
000310 ab 01 0c 36 43 4e 4d 35 17 a1 6d 37 b1 f6 8b 36
       2.0862597e-06 7.6482337e-07 1.41638075e-05 4.1712415e-06
000320 09 e4 78 37 e6 68 b4 27 5b 41 c5 2a 52 60 1c 31
       1.48350455e-05 5.0073767e-15 3.503958e-13 2.275574e-09
000330 3a c1 ce 34 a2 78 cb 36 a5 6f 27 37 91 c3 d0 37
       3.851108e-07 6.063915e-06 9.97997e-06 2.48866e-05
000340 8e f9 af 34 5d 8a d7 30 16 65 1c 36 f4 49 c4 2e
       3.2777865e-07 1.5682634e-09 2.3304651e-06 8.926185e-11
000350 25 d2 dc 36 38 46 cb 34 9b 7d 29 37 14 6e 8b 31
       6.580975e-06 3.7862787e-07 1.010243e-05 4.057947e-09
000360 0d 3d 9d 35 a4 de 95 36 f7 74 54 35 5f 14 7d 33
       1.171518e-06 4.466465e-06 7.914636e-07 5.892468e-08
000370 9a 8e 90 36 35 b6 9c 37 d5 76 3d 30 a2 28 05 30
       4.3081354e-06 1.8681496e-05 6.892667e-10 4.844286e-10
000380 7c cf b2 36 10 5b b0 36 e2 21 7d 37 e6 14 51 33
       5.3289677e-06 5.25581e-06 1.5087864e-05 4.868061e-08
000390 b4 4e 32 2c e0 bb 31 2e 6d b1 cc 36 0b 7e 1f 34
       2.533901e-12 4.0412007e-11 6.100329e-06 1.4853883e-07
0003a0 79 41 b5 36 56 f9 1e 2a ce a0 59 2c 3b 51 40 34
       5.4018424e-06 1.4119725e-13 3.092682e-12 1.7910945e-07
0003b0 88 a9 e3 35 dc 75 a5 36 75 10 f9 35 ab b0 08 36
       1.6962158e-06 4.931104e-06 1.8556735e-06 2.0368414e-06
0003c0 75 55 a0 28 e7 7d eb 33 14 d9 3e 37 0f d0 62 28
       1.780063e-14 1.0965942e-07 1.1375425e-05 1.2590636e-14
0003d0 e5 c4 0e 36 99 a4 d0 35 42 0e c7 35 c5 fe 00 2d
       2.1274257e-06 1.5545112e-06 1.4830805e-06 7.332528e-12
0003e0 96 61 be 2c 9d cc 65 37 ac 34 88 37 a6 5f 6b 34
       5.410959e-12 1.3697104e-05 1.623699e-05 2.1920877e-07
0003f0 e9 15 06 36 3b f3 f0 35 5d 25 5d 2a 4d 7b e4 2b
       1.998031e-06 1.7952183e-06 1.9641706e-13 1.6234597e-12

exp_avg f4 [32]
000000 ab 1f 63 b0 0f 0d c2 38 dc 06 18 39 e4 31 e7 3a
       -8.262712e-10 9.253073e-05 0.00014498405 0.001763877
000010 84 b9 13 39 14 e1 6a 3a 52 9a 35 ba ba e8 26 ba
       0.00014088122 0.0008959931 -0.00069275976 -0.00063670764
000020 99 78 9d 38 84 5c cc ba 8c 39 e4 af c3 bb 7d ba
       7.5088064e-05 -0.0015591537 -4.1513848e-10 -0.0009679163
000030 46 a8 b3 b9 13 29 81 b7 81 5c 16 39 b1 bc 15 3a
       -0.00034266914 -1.5397125e-05 0.00014339575 0.0005712016
000040 b6 02 0a b8 5e 68 f5 39 a6 cb 8d 39 64 38 6b 3a
       -3.290429e-05 0.000468078 0.00027045346 0.00089729414
000050 8c 33 d4 b7 16 c0 6d 3a f0 ba cb b9 e9 ec db b6
       -2.5296373e-05 0.00090694556 -0.00038858457 -6.5542886e-06
000060 ff cf b3 b9 1b 08 18 ba 94 93 fe b6 fa 1c 20 af
       -0.0003429651 -0.00057995477 -7.5869702e-06 -1.456221e-10
000070 81 ff c8 b8 bf 2b 16 b9 94 01 95 ba 0b 61 14 ba
       -9.5843345e-05 -0.00014321411 -0.0011368268 -0.00056602125

exp_avg_sq f4 [32]
000000 ea 9d 95 2c 9d 40 33 36 a2 ed 35 38 c8 fa 0d 38
       4.2523667e-12 2.6710688e-06 4.3375076e-05 3.3850578e-05
000010 c6 fb 21 36 59 f5 44 37 ce 53 91 37 16 4a e4 37
       2.413742e-06 1.1739635e-05 1.7324372e-05 2.7214217e-05
000020 e0 14 77 36 9f 1d 45 38 87 93 23 2d 80 06 1e 38
       3.681802e-06 4.6996047e-05 9.298235e-12 3.767619e-05
000030 61 97 8f 38 2d c1 0a 33 da 08 11 37 39 2a ef 38
       6.846968e-05 3.230632e-08 8.644734e-06 0.00011404273
000040 af f2 9e 37 ec d6 d2 37 6c e9 66 35 5f 70 26 38
       1.8948076e-05 2.5134032e-05 8.602135e-07 3.9682138e-05
000050 c4 42 ae 36 42 93 bb 36 a5 4c b0 36 a5 70 08 32
       5.1933766e-06 5.5901774e-06 5.2541313e-06 7.941854e-09
000060 a2 f4 6d 37 3e 72 0f 37 a9 e2 63 31 2d 33 0c 2d
       1.4183259e-05 8.550063e-06 3.316169e-09 7.969442e-12
000070 76 1a d3 36 30 c5 8c 38 37 3d 8c 38 b8 82 9e 37
       6.2913705e-06 6.712449e-05 6.6871224e-05 1.8895938e-05
