checkpoints/ablation_eps_0.20/ablation_eps_0.20_epoch0020.pt (torch, 38843 bytes, 24 tensors)

0.weight f4 [32, 2]
0	0x3f03c083	0.51465625
1	0x3f184116	0.59474313
2	0xbe677272	-0.22602251
3	0x3f2c427e	0.6728896
4	0xbe065066	-0.13116607
5	0x3e553c7b	0.20823853
6	0xbe9a75a7	-0.30167887
7	0x3ebd54d4	0.3697878
8	0x3f16ab04	0.588547
9	0xbf04679a	-0.51720583
10	0x3f20ee96	0.62864053
11	0x3e14bd8c	0.14525431
12	0x3ef0b125	0.4701015
13	0x3d25bb45	0.040461797
14	0x3ebdd2a7	0.37074777
15	0xbda5b5db	-0.08091327
16	0x3f0d0194	0.55080533
17	0x3dffe185	0.12494186
18	0xbe408b20	-0.18803072
19	0x3d602e34	0.054731563
20	0xbe3c608d	-0.18396206
21	0xbaad61df	-0.001322802
22	0xbea9273e	-0.33037752
23	0x3eec1ed5	0.46117273
24	0xbf1d76f9	-0.6150966
25	0xbebbf6a4	-0.3671161
26	0xbe2e9b3e	-0.17051408
27	0xbef7507e	-0.48303598
28	0x3d8085c9	0.062755175
29	0xbf41af96	-0.7565855
30	0x3f11baa7	0.56925434
31	0xbf1fd0a1	-0.6242772
32	0x3f07236d	0.5278843
33	0x3def4840	0.116837025
34	0xbe5fb934	-0.21847993
35	0x3ed39f26	0.41332358
36	0x3dc7ec78	0.097619
37	0x3f2755b2	0.65365136
38	0x3d900adb	0.070333205
39	0xbe55469f	-0.20827721
40	0x3e26ec68	0.1630112
41	0xbe77cce4	-0.24199253
42	0x3e905543	0.2819005
43	0x3f236b37	0.6383547
44	0x3eb03941	0.3441868
45	0xbeb67f8c	-0.35644186
46	0x3ed801f3	0.42188987
47	0x3d3447ee	0.04401391
48	0x3ed3c6bc	0.4136256
49	0xbeda5c98	-0.42648768
50	0xbf2d9ddc	-0.67819
51	0xbea1718f	-0.3153195
52	0xbef5e4cd	-0.48026124
53	0x3f280eaf	0.65647405
54	0x3e31bb09	0.17356504
55	0x3e97325e	0.29530615
56	0x3e5a233a	0.213025
57	0x3a6e4c2c	0.000909033
58	0x3effb4d6	0.49942654
59	0xbf0f41aa	-0.5595957
60	0x3d044d43	0.032300245
61	0xbee12af8	-0.43978095
62	0x3e464549	0.19362368
63	0xbe58fb4d	-0.21189614

0.bias f4 [32]
0	0x3e7d1230	0.24713969
1	0xbda1bd40	-0.07897425
2	0x3f16dc92	0.58930314
3	0xbecde2c4	-0.4021207
4	0xbedc27a7	-0.42999002
5	0xbebf9129	-0.37415436
6	0x3f29800e	0.6621102
7	0x3e4d969c	0.20076984
8	0x3f27ffbe	0.65624607
9	0xbede1495	-0.43375078
10	0xbf0cca26	-0.54995954
11	0xbefa4ca0	-0.48886585
12	0xbecef0bd	-0.40418044
13	0x3eaad56b	0.3336595
14	0x3e845d64	0.258525
15	0x3f12cec9	0.5734678
16	0xbebea4e8	-0.37235188
17	0xbef0ebde	-0.47054952
18	0x3ecf9dd6	0.40550107
19	0xbe8d7d22	-0.2763453
20	0x3ed5bade	0.4174413
21	0xbe1cf807	-0.1532899
22	0x3ed0a92d	0.4075407
23	0xbf01c952	-0.50697815
24	0xbe9347ee	-0.28765815
25	0x3e655f84	0.22399718
26	0x3e3ffa02	0.18747714
27	0xbe3d2609	-0.1847154
28	0x3ed0ab59	0.40755728
29	0x3f03a1f6	0.5141901
30	0xbf0731cf	-0.52810377
31	0xbec33ed3	-0.3813387

2.weight f4 [32, 32]
0	0x3d26f384	0.04075958
1	0x388425d4	6.3012965e-05
2	0xbb0b4998	-0.0021253582
3	0xbd430780	-0.047614574
4	0xbbc72794	-0.006077716
5	0x376840f5	1.3843402e-05
6	0xbb34517d	-0.002751439
7	0xbca2569e	-0.019816693
8	0xbaf582f4	-0.0018731044
9	0xbc6e55bf	-0.014546811
10	0xbd046bc0	-0.03232932
11	0xbb9aa3f2	-0.004719251
12	0xbd11e9c2	-0.03562332
13	0xbc72e469	-0.014824965
14	0x3d4f646d	0.050632883
15	0xbbb82d14	-0.005620608
16	0xb763fb45	-1.3588758e-05
17	0xbd3007b4	-0.042976096
18	0xbc483e2e	-0.012221856
19	0x386e19d3	5.6767673e-05
20	0xbb5183d2	-0.003196944
21	0xbd145243	-0.036211263
22	0xbb94b56f	-0.00453823
23	0xbbfcc4a7	-0.0077138725
24	0xba2a8643	-0.0006504992
25	0xbb4aa599	-0.0030921458
26	0x352a0e0b	6.335037e-07
27	0xbc66386d	-0.014051539
28	0xbc888ac8	-0.016667739
29	0xbc4ae27c	-0.0123831
30	0x388f33b8	6.828405e-05
31	0xbcd0485c	-0.025425129
32	0x3e123630	0.14278483
33	0xbd1009b0	-0.03516549
34	0x3e22f2ea	0.15912977
35	0x3d54b44a	0.05192975
36	0xbd03a0d3	-0.032135796
37	0x3d8a0331	0.0673889
38	0xbd3d7227	-0.046251442
39	0xbd707b48	-0.05871132
40	0xbe131122	-0.14362004
41	0xbd51cd88	-0.0512214
42	0x378b3cf0	1.6598467e-05
43	0xbd480dec	-0.048841402
44	0x3dc55033	0.096344374
45	0xbdecb021	-0.115570314
46	0x3d806e57	0.06271046
47	0xbddbf456	-0.10739963
48	0xbd54a7fe	-0.051918022
49	0xbabfdb77	-0.0014637549
50	0x3dbbf768	0.09178048
51	0x3ce112bd	0.027474755
52	0x3e2907a0	0.16506815
53	0xbe15b66e	-0.14620373
54	0x3d6b0df3	0.05738635
55	0xb9f27520	-0.00046245102
56	0xb69be0fe	-4.6455525e-06
57	0xbdd8da77	-0.10588544
58	0x3e2a78f6	0.16647705
59	0xbe0c584f	-0.13705562
60	0x3dc5777a	0.09641929
61	0x3d9f27c4	0.077712566
62	0xb8382e46	-4.3912114e-05
63	0xbb8920c2	-0.0041848132
64	0x3e31ddc1	0.17369749
65	0x3d4faae8	0.0507001
66	0x3d53d2dd	0.051714767
67	0xbde0436e	-0.10950361
68	0x3d232a66	0.039835356
69	0xbce91583	-0.02845264
70	0xbd830630	-0.063976645
71	0x3e1cef2e	0.15325615
72	0x3d6a77af	0.057243045
73	0xbb9f6217	-0.004863988
74	0xbb29f819	-0.0025935231
75	0xbc3c95d9	-0.011510336
76	0xbc5106b1	-0.012757943
77	0xbdb0e3c7	-0.08637195
78	0xbe2831bb	-0.1642522
79	0xbd865018	-0.065582454
80	0xbe090dc2	-0.13384154
81	0x3ccb7205	0.024834642
82	0x3e464410	0.19361901
83	0xbd43c332	-0.047793575
84	0x3d1e22dc	0.038607463
85	0x3de81c30	0.11333501
86	0x3cf68887	0.030094398
87	0xbd71137c	-0.058856472
88	0x3d6f008c	0.05835013
89	0x3d76a240	0.060213327
90	0x3dd8c3d1	0.10584224
91	0x3b803ea3	0.003913717
92	0xbd0c5b21	-0.034266595
93	0x3c4dc9b9	0.012560301
94	0x354a8722	7.544751e-07
95	0xbd671bb4	-0.056422904
96	0x3e037f52	0.12841538
97	0x3e29740e	0.16548178
98	0xbc038491	-0.008027212
99	0xbc5c34bb	-0.013440306
100	0xb4f8d7da	-4.6350652e-07
101	0x3d2affb4	0.041747764
102	0x3d5687f2	0.05237574
103	0x3d4c2208	0.049837142
104	0xbe138972	-0.144079
105	0x386ca66f	5.6421788e-05
106	0x3d0152dd	0.031573165
107	0x3dc27503	0.094949745
108	0xbd581dea	-0.052762903
109	0xbddb0e0f	-0.10696041
110	0xbc0dc345	-0.008652513
111	0xbd8af11f	-0.067842714
112	0x3ceae8cf	0.028675465
113	0x3dc26147	0.094912104
114	0x3e00ca8b	0.12577264
115	0x3a9331a1	0.001123
116	0xbe143f9f	-0.14477395
117	0xbda28aed	-0.07936654
118	0xbce77660	-0.028254688
119	0x3d42e4f2	0.04758162
120	0xb60e1d46	-2.1176688e-06
121	0xbd82bc3d	-0.0638356
122	0x3dab37ce	0.08360253
123	0xbd03194b	-0.032006543
124	0xbdcbaa47	-0.09944587
125	0x3d52218d	0.051301528
126	0xba790db2	-0.0009500637
127	0x372bf6f9	1.0249897e-05
128	0xbe357325	-0.17719705
129	0x3de340b7	0.11096328
130	0x3dd9c3c7	0.10633045
131	0x3d6339b7	0.055474963
132	0xbc81fd6c	-0.015867911
133	0xbd4dc2f9	-0.05023477
134	0xbe33bea9	-0.175532
135	0x3d86b2a1	0.065770395
136	0x3d348bca	0.044078626
137	0x3d010422	0.031498082
138	0x3b5c5b03	0.0033623583
139	0x3c987ce5	0.018614242
140	0x3ccee2f6	0.025254708
141	0xbe213e63	-0.15746455
142	0xbe437fbd	-0.19091697
143	0xbe1eb163	-0.15497355
144	0x394360a2	0.00018632648
145	0xbdcb10b6	-0.09915297
146	0xbd640af1	-0.055674497
147	0xbbca8cf0	-0.006181352
148	0xbd9b529b	-0.07584115
149	0xbdddedea	-0.10836394
150	0xbe036a18	-0.1283344
151	0xb866e096	-5.5045435e-05
152	0xb681e42f	-3.8710637e-06
153	0x3db8d06d	0.09024129
154	0xbd8a1689	-0.067425795
155	0xbcee8823	-0.02911765
156	0xbd8f9fcc	-0.07012901
157	0xbdca7fa1	-0.098876245
158	0x3723f00d	9.771448e-06
159	0xbd3a7aaa	-0.045527138
160	0x3dfb1dde	0.12261556
161	0xbe19e11a	-0.15027276
162	0x3dcb1715	0.09916512
163	0x3d02b749	0.031913076
164	0x3d270136	0.04077264
165	0xbdd88be9	-0.10573561
166	0x3e1654f4	0.14680845
167	0xbd64b49f	-0.055836316
168	0x3db005df	0.0859487
169	0x3d337e01	0.04382134
170	0x368c15bd	4.174856e-06
171	0xbd34f6b8	-0.0441806
172	0x367b9728	3.74899e-06
173	0xbde8b559	-0.11362714
174	0x3cd887cc	0.02643194
175	0xbe1e5a00	-0.1546402
176	0x3dff75ee	0.12473665
177	0x3d462d45	0.048383016
178	0x3e3c2933	0.18375091
179	0xb59b158a	-1.1554669e-06
180	0xbe0010dd	-0.12506433
181	0x3d8d136d	0.06888471
182	0x3dedb12a	0.11606057
183	0xbde9d1ab	-0.11416944
184	0xbdd6de71	-0.10491646
185	0xbdd4da65	-0.10393218
186	0xbd45bb45	-0.048274297
187	0xbd06251f	-0.032750245
188	0xbd58457f	-0.05280065
189	0xbd180f23	-0.03712381
190	0xbd398ebc	-0.045302138
191	0x3cf4cca9	0.029882746
192	0x3df56a15	0.11983124
193	0xbd17c36a	-0.037051596
194	0xbcda2435	-0.026628593
195	0xbd8bfb99	-0.06835098
196	0xbdfe8ce0	-0.124292135
197	0xbe39bc6f	-0.18138288
198	0x3d66f86c	0.056389257
199	0xbdb2b924	-0.08726719
200	0xbdfc35d1	-0.12314952
201	0xb63a54a8	-2.7765436e-06
202	0x386f0fe6	5.6996847e-05
203	0xbcad1c33	-0.02113161
204	0x3d97e961	0.0741756
205	0x39190c5e	0.00014595824
206	0xbc9076fa	-0.017634857
207	0xbd845c9b	-0.064629756
208	0xbe19dc21	-0.15025379
209	0x3e129bdf	0.14317273
210	0xbdf2a963	-0.11848714
211	0x3d1f17d3	0.03884108
212	0xbd2cee82	-0.042219646
213	0xbca452be	-0.020058986
214	0x3e39b9c6	0.18137273
215	0x3d8fc521	0.07020021
216	0xbe00184e	-0.12509272
217	0x3dcd5ef1	0.10027874
218	0x3e1a5b1d	0.1507382
219	0x3c38fcaf	0.011290713
220	0x3df707a4	0.12062004
221	0x3e46e3e0	0.19422865
222	0xbca6fc07	-0.020383848
223	0x3d270c37	0.040783133
224	0xbde87c12	-0.113517895
225	0xbca900ce	-0.020630267
226	0x3e150e3a	0.14556208
227	0x3dc7442b	0.09729799
228	0xbc27f5e3	-0.010251495
229	0xbcdbf9d7	-0.026852531
230	0xbda50bca	-0.08058889
231	0xbd6bb788	-0.057548076
232	0xbdc16651	-0.094433434
233	0xb744383a	-1.1695602e-05
234	0x3c622aaa	0.013804117
235	0x3c307562	0.010770174
236	0xbe2f1517	-0.17097889
237	0xbe1dd33a	-0.15412608
238	0x3cacf307	0.021111978
239	0xbd602ddb	-0.05473123
240	0x3608d04f	2.038683e-06
241	0x3d129814	0.035789564
242	0xbd5ac6b0	-0.05341214
243	0xb69b94f1	-4.636699e-06
244	0xba1c0695	-0.00059519085
245	0xbd2b2906	-0.04178717
246	0xbc80a09a	-0.01570158
247	0xbd1a4206	-0.03766062
248	0xbce20fa5	-0.02759535
249	0xbdd322c7	-0.103093676
250	0x3e3bdab3	0.18345146
251	0xbd780b62	-0.06055773
252	0xbdb97814	-0.09056106
253	0x3dd6f38e	0.10495673
254	0x37be8d25	2.271549e-05
255	0x3b95b8f1	0.004569166

2.bias f4 [32]
0	0xbc0c45ed	-0.0085615935
1	0xbe08db3b	-0.1336488
2	0x3cae8da7	0.02130778
3	0xbdc1a11a	-0.09454556
4	0x3de84fc0	0.11343336
5	0xbe1fe2a3	-0.15613799
6	0x3db0e500	0.08637428
7	0x3e43bdf8	0.19115436
8	0x3dbbf417	0.09177416
9	0x3da65117	0.081209354
10	0xbd40083c	-0.046882853
11	0x3e3a0512	0.18165997
12	0xbc91496b	-0.017735204
13	0xbe34b5e1	-0.17647506
14	0x3e4bd4a9	0.19905342
15	0xbdb2021a	-0.08691807
16	0x3c301493	0.010747093
17	0x3e22a93d	0.15884872
18	0xbe056583	-0.13027005
19	0xbdc57c20	-0.096428156
20	0x3cdb1533	0.026743507
21	0xbce047e2	-0.027378026
22	0x3d564f43	0.052321684
23	0xbdfba434	-0.12287179
24	0x3ba9bb72	0.005179816
25	0xbd9d6e7b	-0.07687088
26	0xbdd02ddb	-0.10164996
27	0xbd26f01c	-0.04075633
28	0x3d902526	0.070383355
29	0x3d92f755	0.07176081
30	0xbdd92d8c	-0.106043905
31	0x3e0dcfae	0.13848755

4.weight f4 [32, 32]
0	0xb635e944	-2.710688e-06
1	0x3d196907	0.037453678
2	0xbd682b55	-0.05668195
3	0xbcfebce6	-0.031095933
4	0x3e488d51	0.19585158
5	0x3e131976	0.14365181
6	0xbde40df6	-0.11135475
7	0x3e206a63	0.15665583
8	0x3c8a7283	0.016900307
9	0x3dec2ac0	0.115315914
10	0x3cc4cd71	0.024023743
11	0x3deb0e46	0.11477332
12	0xbe1c330f	-0.15253852
13	0x3e094eb4	0.13408929
14	0xbde8b2c2	-0.1136222
15	0xbafcb60a	-0.0019280326
16	0xbdc2ea42	-0.095173374
17	0x3a7c4ea1	0.0009624754
18	0xbcb2f1d9	-0.021843838
19	0x3cce05a2	0.02514917
20	0xbc9d02a2	-0.019166294
21	0x3c595028	0.01326374
22	0x3e3aa227	0.18225919
23	0x3c0fb914	0.008772153
24	0x3db2ef4c	0.087370485
25	0x3dd8fe8e	0.105954275
26	0x3dca7b79	0.09886832
27	0x3590f74e	1.0800811e-06
28	0x3d008320	0.03137505
29	0x3da28c98	0.079369724
30	0xbe70c183	-0.23511319
31	0xbe0b3294	-0.13593513
32	0x37da2138	2.6003094e-05
33	0xbd642762	-0.05570162
34	0x3d270508	0.040776283
35	0xbdb41294	-0.08792606
36	0x3d79046c	0.060795233
37	0x3e067835	0.13131793
38	0xbd415d0c	-0.047207877
39	0x3e02e3cb	0.12782209
40	0x3e0ae899	0.13565291
41	0xbd9ef60f	-0.07761776
42	0xbcc0cd58	-0.023535416
43	0xbe28ce50	-0.16484952
44	0xbdd205db	-0.10255023
45	0xbcdab527	-0.026697708
46	0xbcbbf9cf	-0.022946266
47	0xbd07d0db	-0.033158164
48	0xbd6e9615	-0.058248598
49	0xbcd78050	-0.026306301
50	0xbd9ea42c	-0.07746157
51	0x3e523744	0.20528895
52	0xbd857252	-0.065159455
53	0xbde5882c	-0.11207613
54	0x3d8bc8d4	0.06825414
55	0xb8134f0b	-3.5121146e-05
56	0x3de81792	0.11332621
57	0x3e086fd0	0.13323903
58	0x3d98acb3	0.07454815
59	0xbc9e44a8	-0.019319847
60	0x3df74e4b	0.1207548
61	0x3e3bb8cd	0.18332215
62	0xbe0d5b42	-0.13804343
63	0x3e16aa61	0.14713432
64	0x3cacf174	0.021111228
65	0x3b44f5dc	0.003005377
66	0x3da1b570	0.078959346
67	0xbc2bfb8e	-0.010496987
68	0xbd0335ab	-0.032033604
69	0x3d28625b	0.041109424
70	0x3d101525	0.035176415
71	0xbd1586d2	-0.036505528
72	0x3db078e9	0.08616812
73	0xbdcce0cc	-0.10003814
74	0x3d0a8686	0.033819698
75	0x3e03cbae	0.12870666
76	0x3c01075e	0.007875292
77	0xbd82488c	-0.063614935
78	0x3d7a3995	0.06109007
79	0x3703892d	7.840147e-06
80	0x3d4643d7	0.04840454
81	0x3d4cccbc	0.049999937
82	0x3dfb3fdb	0.12268039
83	0xbd89cd02	-0.06728555
84	0xbbc8fb04	-0.006133439
85	0x3d450326	0.048098706
86	0x3c4a6288	0.012352593
87	0x3ce031bd	0.027367467
88	0xbdcc5177	-0.09976476
89	0xbca9fde9	-0.020750957
90	0xb5c143b1	-1.4399321e-06
91	0xb7c0035c	-2.2889748e-05
92	0x3dc5dfaa	0.09661801
93	0x3ca3714b	0.019951483
94	0xbd8f7b0b	-0.070058905
95	0xbd3930f8	-0.045212716
96	0xba720536	-0.0009232344
97	0x3cbf26e8	0.023333982
98	0x3c9ad694	0.018901147
99	0xbe5dff1f	-0.21679352
100	0xbaba7631	-0.0014225898
101	0x3c031eb7	0.008002928
102	0xbd46bb2f	-0.048518356
103	0x3e24f0ad	0.16107436
104	0xbd0bca32	-0.034128375
105	0x3e156914	0.14590865
106	0x374a670c	1.2064131e-05
107	0xbe453aee	-0.19260761
108	0x3c2b5cde	0.010459153
109	0x3e1671f3	0.14691906
110	0xbe09861d	-0.13430066
111	0xbe010102	-0.1259804
112	0x3e4892f5	0.1958731
113	0x3e2db113	0.1696208
114	0xbdd5ecb1	-0.10445536
115	0x3e15b579	0.14620008
116	0xbd01c971	-0.03168625
117	0xbe2d5cce	-0.16929933
118	0x3bb19fcd	0.005420661
119	0x3b4df315	0.0031425406
120	0xbda84df8	-0.08217996
121	0x3dacc164	0.08435324
122	0xbe0802c4	-0.13282305
123	0x3c7d6884	0.015466813
124	0x3e29cc85	0.16581924
125	0x3e0b27c5	0.1358939
126	0xbd442b99	-0.04789314
127	0x3d154ce6	0.03645029
128	0xbc969cc7	-0.018385304
129	0xbce42d62	-0.027853671
130	0xbda1f3f2	-0.07907857
131	0xbba54dcc	-0.0050446745
132	0xbd836e4f	-0.06417524
133	0x3d0265ec	0.03183548
134	0x3e0fb1de	0.14032695
135	0xbd84b2d2	-0.0647942
136	0x3dc8bd69	0.09801752
137	0xbd12bff7	-0.035827603
138	0x3d395ffe	0.04525756
139	0x3e05eece	0.13079378
140	0x3e2d11bf	0.16901301
141	0xbd7d0d2b	-0.061780136
142	0x3e0c8623	0.13723044
143	0x3e11fb4c	0.14256018
144	0xbe5ca6c9	-0.21547998
145	0xbe1c3117	-0.15253101
146	0x3c97d3bb	0.018533578
147	0x3c91dac5	0.017804513
148	0xbd8cdf90	-0.06878579
149	0x369b2222	4.6233336e-06
150	0x3c4d9bbe	0.012549339
151	0x378a0997	1.6455348e-05
152	0xbd74f1b9	-0.059800837
153	0x3d8b4d0e	0.068018064
154	0x3c53dffa	0.012931818
155	0xbc7eb3d2	-0.015545802
156	0x3cf34b8a	0.029699106
157	0xbd9176c1	-0.07102729
158	0x3dd7e41f	0.105415575
159	0x3e462e4f	0.19353603
160	0xb8ca21c5	-9.638401e-05
161	0xbd842c50	-0.064537644
162	0x3e4f5d0f	0.20250343
163	0xbd7a726f	-0.06114429
164	0xbd2b16c6	-0.041769765
165	0x3d4812d0	0.048846066
166	0xbdf6c2cb	-0.120488726
167	0xbc3d61b3	-0.011558938
168	0xbe1c3ac4	-0.15256792
169	0x3dd893af	0.105750434
170	0xb612a0a3	-2.1849198e-06
171	0x3c784a39	0.015154415
172	0xbe257d32	-0.1616104
173	0xbe15ca41	-0.14627935
174	0x3d8cb321	0.068701036
175	0x3e12eb31	0.14347531
176	0xbe0aa5f0	-0.13539863
177	0x3dcf32c3	0.10117104
178	0xbe10769b	-0.14107744
179	0x3d82ac7c	0.06380555
180	0x3e23142a	0.1592566
181	0x3d57bbbf	0.052669283
182	0xbe0d4e38	-0.1379937
183	0x3c15febb	0.009154971
184	0x3d971d2f	0.07378613
185	0x3c9113dd	0.017709667
186	0x3db2eefe	0.087369904
187	0xb89fa916	-7.6132055e-05
188	0xbd09e000	-0.03366089
189	0xbd41094c	-0.047128007
190	0xbcbdb2dd	-0.023156578
191	0x3d2c17a7	0.042014744
192	0x390b88ca	0.00013307031
193	0xbdadab57	-0.08479946
194	0xbdeb2c93	-0.11483111
195	0xb88abce1	-6.615534e-05
196	0xbddef2ae	-0.10886131
197	0xbda73568	-0.08164483
198	0x3d286a73	0.041117143
199	0xbc79fd25	-0.015258108
200	0x3df11a42	0.117725864
201	0xbd8950e8	-0.06704885
202	0x3c85b9b6	0.016323905
203	0x3d3686f2	0.044562288
204	0xbdae568b	-0.085126005
205	0x3da2e374	0.079535395
206	0x3d763b13	0.06011493
207	0xbd610dbe	-0.054944746
208	0xbd9c4baf	-0.07631623
209	0x3d915c5d	0.07097695
210	0xbd976b59	-0.07393522
211	0xbb28f34b	-0.002577978
212	0x3ddfee1c	0.10934088
213	0xbd145bf4	-0.036220506
214	0xbd9205f5	-0.071300425
215	0xbc933195	-0.017967978
216	0x3e4b84bb	0.19874851
217	0x3e155159	0.14581813
218	0xb5f8b317	-1.8529562e-06
219	0x3d33535a	0.043780662
220	0xbaef2cf4	-0.001824765
221	0xbe57a659	-0.2105955
222	0x3defb344	0.11704114
223	0x3ddfa735	0.10920564
224	0x3d4a1ba7	0.049342778
225	0x336cf7c2	5.5173366e-08
226	0x3cbb9a88	0.022900835
227	0x3c0f2859	0.008737647
228	0x3c9726d9	0.018451141
229	0xbd50c719	-0.050971124
230	0x3cf0766d	0.029353345
231	0xbd066fd7	-0.032821503
232	0x3d1ce4ad	0.03830402
233	0xb5c540ae	-1.4696468e-06
234	0xbd178ef9	-0.037001584
235	0x37b7128f	2.1823942e-05
236	0x3740593f	1.1464871e-05
237	0xbd1dc518	-0.03851804
238	0x388d3c52	6.7346395e-05
239	0x36317508	2.6443176e-06
240	0x3cc6c367	0.024263097
241	0x374eb2a3	1.2320149e-05
242	0x3bf22837	0.007390048
243	0xb66104c7	-3.3530393e-06
244	0x34f3ece5	4.543464e-07
245	0xb69ef8a8	-4.7377143e-06
246	0xbc4789da	-0.0121788625
247	0xbcf7f3ad	-0.03026756
248	0x37cd0afe	2.4443023e-05
249	0xbd2f959c	-0.042867288
250	0xbaa367ad	-0.0012466811
251	0xb5841d00	-9.843206e-07
252	0xbc4acfca	-0.012378642
253	0xb981b2dc	-0.00024738058
254	0xb6729fb6	-3.6153774e-06
255	0xb64e946a	-3.078278e-06

4.bias f4 [32]
0	0x3ddd657d	0.10810373
1	0x3d5dfe0d	0.05419736
2	0xbda2b1f2	-0.079440966
3	0x3de2c143	0.11072018
4	0xbd17e162	-0.037080176
5	0xbb8eeafd	-0.004361509
6	0xbcb6949d	-0.022287661
7	0xbd389d79	-0.045072053
8	0x3cb102ea	0.021607835
9	0x3d4f03c2	0.050540693
10	0xbb230142	-0.0024872576
11	0x3dea7a88	0.11449152
12	0xbd1d2d3d	-0.03837322
13	0xbd4109a0	-0.04712832
14	0xbd9d2675	-0.07673351
15	0xbcfe363e	-0.031031724
16	0xbba31b1e	-0.004977598
17	0xbcf4340c	-0.029809974
18	0x3d843ebd	0.06457279
19	0xbd13255b	-0.035924297
20	0x3d0cce83	0.034376632
21	0xbb738ac2	-0.0037161564
22	0x3d8719b5	0.065967
23	0x3e2b83fc	0.16749567
24	0x3dd7793b	0.1052117
25	0xbba02aa2	-0.0048878947
26	0xbcec9d8a	-0.028883714
27	0xbd692e2b	-0.056928795
28	0xbb1e3c64	-0.0024144882
29	0x3d85d81f	0.065353625
30	0xbbb26810	-0.005444534
31	0x3e0abcb5	0.13548549

6.weight f4 [2, 32]
0	0x3dd891f6	0.10574715
1	0xbbdf7c2c	-0.0068202224
2	0x398149e8	0.00024659862
3	0x3da65bc9	0.081229754
4	0xbd3e4157	-0.04644903
5	0x3e281642	0.1641474
6	0xbe52c98c	-0.20584697
7	0x3af84c0e	0.0018943565
8	0xbdd74854	-0.10511842
9	0xbe10e7c6	-0.14150915
10	0x3748d591	1.1970654e-05
11	0x3dd37411	0.10324872
12	0x3c894500	0.016756535
13	0x3777e2f8	1.47751925e-05
14	0x3d1e34bc	0.03862451
15	0xbd8c24be	-0.068429455
16	0xbbf7e9ae	-0.0075656986
17	0xbc289ff2	-0.01029204
18	0xbc8051ed	-0.015664065
19	0x3d05b1fa	0.032640435
20	0x3dfda6a1	0.123852976
21	0xbe0f1eb7	-0.1397656
22	0xbd285feb	-0.0411071
23	0xbde24258	-0.1104781
24	0xbc424e7e	-0.011859534
25	0xbcd55903	-0.02604342
26	0x37ae4652	2.0775162e-05
27	0xbe18ec4b	-0.14933889
28	0x3d4deb30	0.05027312
29	0x3dcdb56b	0.10044368
30	0xbe01f64a	-0.12691608
31	0xbe3d7bc5	-0.18504246
32	0xbcf2fd14	-0.029661693
33	0xbd9960ef	-0.07489192
34	0x3d695293	0.056963515
35	0xbe223c56	-0.15843329
36	0x3dc6225b	0.096745215
37	0xbe325257	-0.17414223
38	0xbccba097	-0.024856849
39	0xbb61f2da	-0.0034477026
40	0x3d9fdbe0	0.0780561
41	0xbc8c2307	-0.017106546
42	0xbd3f6b25	-0.04673304
43	0xbdf1c189	-0.11804492
44	0xba96dfa4	-0.0011510742
45	0xbd2d6d93	-0.042340826
46	0xbd0d82ce	-0.034548573
47	0x3df8aa0a	0.121418074
48	0xbb047bc2	-0.0020215367
49	0xbd9af33d	-0.07565925
50	0x3b1cf498	0.00239495
51	0xbcd4e5aa	-0.025988419
52	0xbe02f545	-0.12788875
53	0xbbb4b2d4	-0.005514482
54	0x3e4af034	0.19818193
55	0xbd564d9b	-0.052320104
56	0x3d91e694	0.071240574
57	0xb851ffde	-5.0067778e-05
58	0xb7c12e6e	-2.3029013e-05
59	0xbe146cf3	-0.14494686
60	0x3cf55180	0.029946089
61	0x3e5061f4	0.20349866
62	0x3ade3c0e	0.0016955154
63	0x3e062de7	0.13103448

6.bias f4 [2]
0	0x3e1a71d1	0.1508248
1	0x3da6f032	0.08151282

exp_avg f4 [32, 2]
0	0x387c1483	6.0100585e-05
1	0xb79023a6	-1.7182738e-05
2	0xb80d3f7e	-3.367615e-05
3	0xb83191fe	-4.2336054e-05
4	0xb9b8fc34	-0.0003528312
5	0xba179107	-0.00057818036
6	0xb824bfb5	-3.9279188e-05
7	0x354254a7	7.239382e-07
8	0xb9b2b995	-0.00034089075
9	0x396b27e3	0.00022426205
10	0xb8e95fcf	-0.000111281515
11	0x3907958d	0.00012930315
12	0x3a34c385	0.000689559
13	0xb98be6d9	-0.0002668414
14	0xb9825633	-0.00024859756
15	0xb9662501	-0.00021948294
16	0xb9a61dca	-0.00031684182
17	0x37cee65e	2.4664387e-05
18	0xb7a41bc1	-1.9563247e-05
19	0x36c9d1dc	6.0146976e-06
20	0xb7a0aaf4	-1.9153093e-05
21	0xb4683614	-2.1626357e-07
22	0x3950f0e7	0.00019926169
23	0x384e0023	4.9114355e-05
24	0x3a1a06d1	0.00058756495
25	0xb81342c2	-3.5109704e-05
26	0x3a488b62	0.0007650164
27	0x39e28a94	0.00043209328
28	0x3a82cd02	0.000997931
29	0x39e897e7	0.00044363664
30	0x3a59ad13	0.0008303683
31	0x397eb275	0.00024289808
32	0x39a61e2d	0.0003168447
33	0x37be5a3f	2.269179e-05
34	0xb7a1af3c	-1.9274295e-05
35	0x380a0866	3.2909586e-05
36	0xba1ca37e	-0.000597529
37	0xba480aeb	-0.00076310214
38	0x37036b85	7.833242e-06
39	0xb7be0565	-2.2652277e-05
40	0x3a0b75d9	0.000531999
41	0x3985f323	0.00025548888
42	0xb8003c12	-3.0573523e-05
43	0xb7cb9fcf	-2.4273902e-05
44	0x3a81c1e9	0.0009899709
45	0x3930daa3	0.00016866116
46	0x38283bd9	4.011006e-05
47	0x38308466	4.2084976e-05
48	0x38ebea1d	0.0001124928
49	0xb701f9f3	-7.747195e-06
50	0xb880d4cd	-6.143153e-05
51	0x3986d74f	0.0002571889
52	0xba661e48	-0.0008778316
53	0xba38939d	-0.0007041039
54	0xb8d42edc	-0.00010117676
55	0xb8ee5150	-0.0001136387
56	0xb8dd1b75	-0.000105432155
57	0x37f5d34e	2.9304672e-05
58	0x3a9069ef	0.0011017899
59	0xb94392b8	-0.00018651306
60	0x36c845f3	5.9686076e-06
61	0xb85c16c4	-5.247329e-05
62	0x37facaa1	2.9896679e-05
63	0xb810b64f	-3.4502063e-05

exp_avg_sq f4 [32, 2]
0	0x34cb9533	3.7920253e-07
1	0x33a1e554	7.538861e-08
2	0x34c0459d	3.5813437e-07
3	0x335d4348	5.1516764e-08
4	0x353c38f0	7.011831e-07
5	0x342af94f	1.5923182e-07
6	0x31b8aa52	5.374468e-09
7	0x316616c1	3.348234e-09
8	0x34c8a292	3.7371188e-07
9	0x34d13521	3.896794e-07
10	0x33ce994c	9.620507e-08
11	0x329a3a45	1.7954457e-08
12	0x34dfe477	4.1703217e-07
13	0x34c6d6ac	3.7036568e-07
14	0x33e6155e	1.0714096e-07
15	0x33f9881b	1.16197235e-07
16	0x351f3bc4	5.9319086e-07
17	0x3437c8a2	1.7116193e-07
18	0x2ed74706	9.789684e-11
19	0x2dac5d42	1.9595551e-11
20	0x2ed04fec	9.472942e-11
21	0x2c062e95	1.9068404e-12
22	0x32e32e2f	2.644728e-08
23	0x32fb03bd	2.9221946e-08
24	0x3513c7ab	5.505232e-07
25	0x3475c2b2	2.2888233e-07
26	0x366efd59	3.5612231e-06
27	0x35237d14	6.0904244e-07
28	0x36274d08	2.4929777e-06
29	0x34b9243a	3.4485294e-07
30	0x34dea84c	4.1473174e-07
31	0x340facc1	1.338076e-07
32	0x343c7bf2	1.7553955e-07
33	0x328722de	1.5731924e-08
34	0x32156476	8.695784e-09
35	0x32c3c80c	2.2791959e-08
36	0x36771bb9	3.6822005e-06
37	0x34d70644	4.005143e-07
38	0x31600ab8	3.2602383e-09
39	0x31fb9929	7.3224737e-09
40	0x355617c8	7.975582e-07
41	0x3491ddca	2.7169727e-07
42	0x348717bb	2.5162976e-07
43	0x33a3d920	7.629774e-08
44	0x34e65cd0	4.2908368e-07
45	0x34c50f1d	3.6705106e-07
46	0x33d5d32a	9.956996e-08
47	0x31283324	2.4476288e-09
48	0x338d8434	6.589872e-08
49	0x322df21f	1.0124977e-08
50	0x3422bd5c	1.5156314e-07
51	0x343e1cf8	1.7705668e-07
52	0x35995dba	1.1426666e-06
53	0x3490b5ca	2.695436e-07
54	0x33b2b3b6	8.32146e-08
55	0x33e990f8	1.0876278e-07
56	0x3420a1eb	1.4960067e-07
57	0x332bdf0c	4.00169e-08
58	0x35903a2a	1.0745764e-06
59	0x34fed5aa	4.7466648e-07
60	0x31746537	3.5564207e-09
61	0x32e55646	2.6698341e-08
62	0x32252bde	9.614238e-09
63	0x3205ae16	7.7812015e-09

exp_avg f4 [32]
0	0xb88818e0	-6.489619e-05
1	0x378edae6	1.7029652e-05
2	0xb9183ce3	-0.00014518532
3	0xb8938615	-7.034481e-05
4	0xb91afbd1	-0.00014780393
5	0xb989a1e4	-0.00026251294
6	0xb9c0dbdc	-0.00036784902
7	0x3a399a26	0.000708016
8	0x38fea175	0.000121417375
9	0xb8398c12	-4.4237888e-05
10	0xb86a606f	-5.587976e-05
11	0xb9619b6b	-0.0002151557
12	0xb9c1ea20	-0.00036986265
13	0xb7b6b910	-2.1782267e-05
14	0xb8d7b60e	-0.00010285909
15	0xb9412bc6	-0.00018422221
16	0x3983e4c7	0.0002515672
17	0xb81e0128	-3.7671212e-05
18	0xb92a05d2	-0.00016214632
19	0xb7dc4c6d	-2.6261632e-05
20	0x38f1231d	0.00011498316
21	0xb9079ec6	-0.00012933751
22	0xba02692f	-0.000497478
23	0xb8663e99	-5.489457e-05
24	0x380a636a	3.299435e-05
25	0xb9874953	-0.00025803837
26	0xb9c04364	-0.00036671304
27	0xb9a1fea6	-0.0003089804
28	0x39a04af6	0.00030573428
29	0xb91ae082	-0.0001477022
30	0xb83fbc18	-4.5713125e-05
31	0xb7d5d707	-2.5491709e-05

exp_avg_sq f4 [32]
0	0x34dd65e5	4.1238596e-07
1	0x34b9b47f	3.4590263e-07
2	0x3549a10b	7.5112683e-07
3	0x31bee887	5.556163e-09
4	0x35167138	5.604411e-07
5	0x33bd3463	8.8105274e-08
6	0x351de350	5.881784e-07
7	0x347499d0	2.2780227e-07
8	0x355157a6	7.798611e-07
9	0x2fd0f097	3.800593e-10
10	0x301e42f0	5.757519e-10
11	0x3339e119	4.3278394e-08
12	0x3540e965	7.186521e-07
13	0x3652a49e	3.1388258e-06
14	0x360e66a0	2.1219385e-06
15	0x34cf190b	3.8574976e-07
16	0x341556a5	1.3908227e-07
17	0x32b20061	2.07221e-08
18	0x366d15e2	3.532849e-06
19	0x31c9c72d	5.8725136e-09
20	0x3565dd75	8.563141e-07
21	0x3485effd	2.4947795e-07
22	0x354c54e3	7.611945e-07
23	0x338164f9	6.0253974e-08
24	0x33773e55	5.756586e-08
25	0x34c12d2a	3.5981913e-07
26	0x35a5f9d5	1.2366169e-06
27	0x3415713a	1.3917898e-07
28	0x3444ca53	1.8327528e-07
29	0x35a3106d	1.2149227e-06
30	0x329e14df	1.8403112e-08
31	0x32267050	9.688009e-09

exp_avg f4 [32, 32]
0	0x36990d7d	4.5613256e-06
1	0x32080268	7.916789e-09
2	0xb48e8114	-2.6543478e-07
3	0xb6b10b89	-5.276354e-06
4	0xb55757b3	-8.022136e-07
5	0x3122878e	2.3651157e-09
6	0xb4d7934e	-4.015405e-07
7	0xb61b72d0	-2.316363e-06
8	0xb4b67015	-3.3981692e-07
9	0xb5ec8736	-1.7622722e-06
10	0xb676a1c4	-3.6751017e-06
11	0xb52c774a	-6.424858e-07
12	0xb686f87c	-4.0224386e-06
13	0xb5e4f5b5	-1.7058834e-06
14	0x36bccf34	5.626958e-06
15	0xb51e09d1	-5.887387e-07
16	0xb1bb3c03	-5.449239e-09
17	0xb6a0d38e	-4.793e-06
18	0xb5c9e835	-1.5043248e-06
19	0x320ac029	8.076349e-09
20	0xb4e8679a	-4.3288748e-07
21	0xb6890bba	-4.0842833e-06
22	0xb50b921a	-5.199414e-07
23	0xb5856346	-9.938165e-07
24	0x3108a623	1.9885043e-09
25	0xb4c2ab73	-3.6260062e-07
26	0xaf0b0965	-1.2645314e-10
27	0xb5e52f4b	-1.7075594e-06
28	0xb6039892	-1.9609329e-06
29	0xb5bb8ca2	-1.3973515e-06
30	0x31ff759d	7.434848e-09
31	0xb6456679	-2.9414934e-06
32	0xb8e4efb5	-0.00010916536
33	0xb7cf5f71	-2.4720766e-05
34	0x3655ce55	3.1859574e-06
35	0x36a89989	5.024664e-06
36	0xb6754261	-3.6546483e-06
37	0x3696ea6f	4.49764e-06
38	0xb91e1338	-0.00015075214
39	0xb8b905a8	-8.822541e-05
40	0xb94adddf	-0.00019346875
41	0xb6bd9da7	-5.650992e-06
42	0xb09aad5e	-1.1254249e-09
43	0x379e2395	1.8851637e-05
44	0x361c8287	2.3321788e-06
45	0x3875987b	5.855456e-05
46	0x38cf28a9	9.878103e-05
47	0xb919f669	-0.00014683012
48	0xb74258da	-1.1583988e-05
49	0x37fe4306	3.031037e-05
50	0xb8ce02ef	-9.823392e-05
51	0x36541384	3.1601821e-06
52	0xb700a4c8	-7.667761e-06
53	0xb83fd972	-4.574046e-05
54	0xb8ba069d	-8.870403e-05
55	0xb3ca9a2c	-9.434402e-08
56	0xae677f27	-5.2636253e-11
57	0x3909cdcb	0.00013142002
58	0x3843ccf4	4.66825e-05
59	0xb7b95dfd	-2.2097485e-05
60	0xb85895c2	-5.1637886e-05
61	0xb8e5b20d	-0.000109527355
62	0xb205a823	-7.779849e-09
63	0xb51b2f8e	-5.78112e-07
64	0xb9e02fac	-0.00042760128
65	0xb8afd09c	-8.383507e-05
66	0xb9906484	-0.0002754071
67	0xb7c03ef8	-2.2917506e-05
68	0xb90374fc	-0.00012536714
69	0xb94c14ac	-0.00019462657
70	0xba2332f6	-0.00062255503
71	0xb8189c9c	-3.6385478e-05
72	0xba43caac	-0.000746886
73	0xb5311de1	-6.598112e-07
74	0xb4cce420	-3.8163944e-07
75	0x36c438bb	5.8478595e-06
76	0x39e03925	0.00042767185
77	0x39d7a935	0.00041134065
78	0x3a155029	0.0005695844
79	0xb942b000	-0.00018566847
80	0xb8fc63a7	-0.00012034858
81	0x377b67b6	1.4984913e-05
82	0xba43155c	-0.00074418425
83	0xb6b14b9f	-5.2838145e-06
84	0xb82462be	-3.9192608e-05
85	0xb98a972d	-0.00026434046
86	0xb915ece2	-0.00014297993
87	0x35265ac9	6.197193e-07
88	0xb8d2c5b0	-0.000100504025
89	0x399aea98	0.00029547955
90	0xb9a1229a	-0.00030734093
91	0xb8bacdf0	-8.90753e-05
92	0xb995ee6d	-0.00028597136
93	0xb91989d0	-0.00014642556
94	0xb13e702f	-2.7712408e-09
95	0xb6bc711b	-5.616004e-06
96	0x389e92ef	7.5613956e-05
97	0xb8579351	-5.1397194e-05
98	0xb73d48fc	-1.1282271e-05
99	0xb880eb60	-6.1473576e-05
100	0x2c9d4ee5	4.4709674e-12
101	0xb88c4a28	-6.689533e-05
102	0x3893df8f	7.051147e-05
103	0x3816b0e5	3.5927533e-05
104	0x38572f36	5.1303963e-05
105	0xb134613a	-2.6248714e-09
106	0x36714437	3.5951505e-06
107	0xb89527ef	-7.112312e-05
108	0x3891ef85	6.958753e-05
109	0x362b6f3d	2.5545735e-06
110	0xb593d8f2	-1.1015493e-06
111	0xb839ba3e	-4.428089e-05
112	0xb7f9590c	-2.9724579e-05
113	0xb8740fa5	-5.8188703e-05
114	0xb6f32a82	-7.246913e-06
115	0x344afb26	1.8904083e-07
116	0x37f1a9d7	2.8808527e-05
117	0x382294b1	3.876229e-05
118	0x376e03c3	1.4186781e-05
119	0x36b0ee19	5.272927e-06
120	0x2ff4ff6a	4.4564824e-10
121	0xb82c5ca5	-4.1094278e-05
122	0xb8a4ac36	-7.852206e-05
123	0x359d1556	1.1703621e-06
124	0x37ba7784	2.2228582e-05
125	0xb7eacb8d	-2.798976e-05
126	0xb4313b54	-1.6505993e-07
127	0x308ca3a5	1.0232851e-09
128	0x38198fc7	3.6611946e-05
129	0xb6e272c5	-6.748686e-06
130	0x39003ef5	0.00012230485
131	0xb45e7aeb	-2.0720078e-07
132	0xb6000550	-1.9076579e-06
133	0xb6ba2e30	-5.548609e-06
134	0x391d5eeb	0.00015008046
135	0x36e621be	6.8584623e-06
136	0x39347098	0.00017208082
137	0x3670bbbf	3.587207e-06
138	0x35003525	4.776105e-07
139	0x37f7ceac	2.9540934e-05
140	0xb91d0116	-0.00014973091
141	0x37a376be	1.9486408e-05
142	0x38c1923d	9.230196e-05
143	0xb6542d25	-3.161674e-06
144	0x3358e510	5.049975e-08
145	0x38113dce	3.4628254e-05
146	0x38df8186	0.00010657594
147	0xb55af758	-8.157126e-07
148	0x38b79533	8.7539105e-05
149	0xb78a43f1	-1.648252e-05
150	0x37cd7bed	2.4495612e-05
151	0xb20abd48	-8.075695e-09
152	0x3162d117	3.3006182e-09
153	0xb7e994a1	-2.7844975e-05
154	0xb51955e9	-5.712196e-07
155	0xb6604867	-3.3420745e-06
156	0x38cff640	9.916397e-05
157	0x36be27a1	5.6670547e-06
158	0x31acf84c	5.034087e-09
159	0xb6a9c108	-5.0590643e-06
160	0xb9bc3abc	-0.00035901915
161	0x3811014d	3.4571905e-05
162	0xb9398ea4	-0.00017696113
163	0x3691b0e3	4.341929e-06
164	0xb7549f40	-1.2673263e-05
165	0xb93b41c4	-0.0001785821
166	0xb9cb41b2	-0.00038768124
167	0xb94e1845	-0.00019654732
168	0xb9e34afa	-0.00043352676
169	0x36a3c95e	4.881221e-06
170	0xaf971b9b	-2.7486355e-10
171	0xb60c06df	-2.0865625e-06
172	0xb0afb4b9	-1.278429e-09
173	0x383a9f47	4.4494194e-05
174	0x38a55c03	7.8849516e-05
175	0xb99f9aa2	-0.00030442054
176	0xb8c71556	-9.4930336e-05
177	0x37059d59	7.964053e-06
178	0xb98b418c	-0.00026560982
179	0xb0ef760f	-1.7423093e-09
180	0xb93509a4	-0.00017265097
181	0xb9244718	-0.00015666743
182	0xb9475edd	-0.00019013458
183	0xb7df3093	-2.660629e-05
184	0xb7a657b2	-1.9829578e-05
185	0xb8372e44	-4.367369e-05
186	0x36c8a78f	5.979971e-06
187	0xb82ffc8a	-4.1958447e-05
188	0xb96881c5	-0.00022173587
189	0xb9875ecd	-0.0002581984
190	0xb6a8f7a8	-5.035621e-06
191	0x36649815	3.406317e-06
192	0x39c58449	0.00037673328
193	0x37641216	1.359407e-05
194	0xb88e0e72	-6.773778e-05
195	0xb6fa6e6b	-7.463435e-06
196	0x39ccec42	0.00039085938
197	0x3945a959	0.00018850471
198	0x39de6102	0.00042415416
199	0x3913b4a3	0.00014086305
200	0x39eb865c	0.00044922798
201	0x2e4c92ff	4.651479e-11
202	0x320abb4f	8.075246e-09
203	0xb78d6eaa	-1.6860042e-05
204	0xb8c41be6	-9.351205e-05
205	0xb7f9e29d	-2.9788638e-05
206	0x38e71893	0.00011019516
207	0x3a1d3123	0.00059963966
208	0x38aef1ca	8.342003e-05
209	0xb647c37d	-2.97671e-06
210	0x39b700f9	0.00034905205
211	0x36872d87	4.0286136e-06
212	0x3949e8ba	0.00019255551
213	0x394c0009	0.00019454969
214	0x39ce95fb	0.00039403126
215	0x36eda74f	7.0826277e-06
216	0x39a0d762	0.0003067805
217	0xb75b84a9	-1.3084305e-05
218	0x37a138bb	1.9219113e-05
219	0x387075e6	5.733026e-05
220	0x3959801c	0.00020742457
221	0x3a11279c	0.00055372133
222	0xb606259e	-1.9989452e-06
223	0x368aea8e	4.1400262e-06
224	0x37b88332	2.1995602e-05
225	0xb824d7db	-3.9301678e-05
226	0xb73eb38b	-1.1366686e-05
227	0x3714ebbf	8.876376e-06
228	0xb5ac39b4	-1.2831792e-06
229	0xb64fa07b	-3.0938816e-06
230	0xb8a0f517	-7.675046e-05
231	0xb7378d11	-1.0940495e-05
232	0xb90bd114	-0.0001333396
233	0xb11fa5fc	-2.3231896e-09
234	0x35e18297	1.6801813e-06
235	0x386b4292	5.6090365e-05
236	0x38f4a203	0.00011665004
237	0x39527f09	0.00020074485
238	0x39e4652f	0.00043562936
239	0x364db23f	3.0651133e-06
240	0x2fdde877	4.0364842e-10
241	0x3899e1d4	7.337672e-05
242	0xb9568a29	-0.00020460099
243	0xaea959b3	-7.701164e-11
244	0x38b50475	8.631583e-05
245	0x3868d8c9	5.5515007e-05
246	0xb6a254ae	-4.8378342e-06
247	0xb68e27b8	-4.2365537e-06
248	0xb654f01f	-3.173023e-06
249	0x393e1e33	0.00018131062
250	0xb902f004	-0.00012487179
251	0xb6ea8b02	-6.989926e-06
252	0xb7725eda	-1.4446408e-05
253	0x37f81f92	2.9578605e-05
254	0x30285f12	6.1253147e-10
255	0x3527a17a	6.244733e-07

exp_avg_sq f4 [32, 32]
0	0x2d7d5830	1.44009665e-11
1	0x2b42d40e	6.921693e-13
2	0x2b9d0563	1.1157016e-12
3	0x2d947be5	1.6880672e-11
4	0x2c77e2b5	3.5226659e-12
5	0x2a9b7c53	2.7619798e-13
6	0x2b3b7ad3	6.66062e-13
7	0x2d01029e	7.333382e-12
8	0x2b0016ea	4.5506535e-13
9	0x2cd457db	6.0351563e-12
10	0x2d4ace3f	1.15281664e-11
11	0x2c5bd623	3.1240642e-12
12	0x2d5e2760	1.2627982e-11
13	0x2cd0ebec	5.937908e-12
14	0x2db68f9e	2.0754783e-11
15	0x2c28307d	2.3901152e-12
16	0x2b138731	5.2412507e-13
17	0x2d85994f	1.5188432e-11
18	0x2cbc7b82	5.3569935e-12
19	0x2b3ad606	6.637749e-13
20	0x2b63f510	8.0986693e-13
21	0x2d61a91a	1.2827317e-11
22	0x2c278389	2.3805144e-12
23	0x2c8e0f9c	4.0376157e-12
24	0x283c1b1d	1.0441976e-14
25	0x2bd78676	1.5313989e-12
26	0x27f9e1c4	6.935616e-15
27	0x2ccf3fd6	5.890381e-12
28	0x2cdf39e7	6.3444697e-12
29	0x2cc11ca5	5.48857e-12
30	0x2b4b9363	7.232463e-13
31	0x2d23d615	9.313013e-12
32	0x343d27ae	1.7616432e-07
33	0x33921ca9	6.803868e-08
34	0x34513ac4	1.948602e-07
35	0x31269b16	2.4244335e-09
36	0x2d49af48	1.14644474e-11
37	0x30fa6119	1.8217491e-09
38	0x3437fcd9	1.7135189e-07
39	0x328fff14	1.6763387e-08
40	0x3452b95c	1.9625207e-07
41	0x2da06d77	1.8238506e-11
42	0x2aeb2152	4.1767506e-13
43	0x310252d9	1.8964583e-09
44	0x31d6825a	6.243039e-09
45	0x32a4f60b	1.9204e-08
46	0x3140b598	2.8042901e-09
47	0x32fc5788	2.9376466e-08
48	0x30504339	7.576549e-10
49	0x30543ba9	7.7209933e-10
50	0x34855167	2.4832408e-07
51	0x2d2f3067	9.958346e-12
52	0x32d6df3b	2.5014392e-08
53	0x334f4451	4.8258077e-08
54	0x3290b711	1.6847055e-08
55	0x2bcd71c1	1.4597699e-12
56	0x28da319c	2.4224377e-14
57	0x33b54a81	8.4420215e-08
58	0x344eac80	1.9248e-07
59	0x316be3b9	3.4326446e-09
60	0x337073af	5.5984568e-08
61	0x32adbacd	2.0224798e-08
62	0x2b2d9233	6.166484e-13
63	0x2c4fc51b	2.9525885e-12
64	0x360db8b2	2.1118144e-06
65	0x339429d5	6.899396e-08
66	0x35bb8b56	1.3973138e-06
67	0x30d58762	1.5536268e-09
68	0x34be3a94	3.543288e-07
69	0x34be9dda	3.550511e-07
70	0x36a06543	4.78016e-06
71	0x359ddd9b	1.1761907e-06
72	0x36b3d881	5.35982e-06
73	0x2c5f0f5c	3.1698732e-12
74	0x2c2997b0	2.4100548e-12
75	0x300cf5bc	5.1280913e-10
76	0x33f298ae	1.12967754e-07
77	0x3514aeda	5.538874e-07
78	0x354f2a3a	7.7174957e-07
79	0x36af432b	5.223226e-06
80	0x34567b20	1.9975096e-07
81	0x2f86d7dd	2.4527838e-10
82	0x35a3e56f	1.221122e-06
83	0x2d9a6965	1.7554578e-11
84	0x35b61927	1.3567377e-06
85	0x34247d44	1.5319262e-07
86	0x36147afb	2.2125303e-06
87	0x30c1282c	1.4054016e-09
88	0x34244d8f	1.5301906e-07
89	0x3592ef9e	1.0947585e-06
90	0x350ac6c3	5.169824e-07
91	0x32196964	8.929735e-09
92	0x35c6e200	1.4817924e-06
93	0x3685f084	3.9917086e-06
94	0x2b939b46	1.0488075e-12
95	0x2f534aa5	1.9216857e-10
96	0x34138176	1.373754e-07
97	0x33e10474	1.0478189e-07
98	0x344c28db	1.9013844e-07
99	0x31a76453	4.8717452e-09
100	0x255ae47f	1.8985903e-16
101	0x2f89146a	2.493466e-10
102	0x33d8197d	1.006292e-07
103	0x31b61ba1	5.300038e-09
104	0x34040a5c	1.2297227e-07
105	0x2b803cb1	9.111792e-13
106	0x2d466f55	1.1279718e-11
107	0x31ab162a	4.9792748e-09
108	0x301b25ab	5.64422e-10
109	0x3118e760	2.2250433e-09
110	0x2c97d175	4.3149325e-12
111	0x30cbf657	1.4840208e-09
112	0x2e6b2323	5.346402e-11
113	0x30c0ebc9	1.4036853e-09
114	0x348b6b8d	2.596902e-07
115	0x2bff8abf	1.815735e-12
116	0x320c2abb	8.158788e-09
117	0x33455989	4.594907e-08
118	0x3112cd54	2.1362512e-09
119	0x2d94605a	1.686844e-11
120	0x2972b0e4	5.3888223e-14
121	0x3347289c	4.6370232e-08
122	0x34901542	2.6837557e-07
123	0x313cb254	2.7458968e-09
124	0x3319eb5d	3.583715e-08
125	0x308f906b	1.0445665e-09
126	0x2bf3cc6f	1.732293e-12
127	0x2a1fdc79	1.4198529e-13
128	0x322e8dbc	1.016036e-08
129	0x333de359	4.4211763e-08
130	0x340fafd8	1.3381884e-07
131	0x3150ab03	3.0365193e-09
132	0x2ce1f988	6.422588e-12
133	0x2d9d20d5	1.7863414e-11
134	0x32790b66	1.4496299e-08
135	0x2e92666d	6.657506e-11
136	0x3281bd13	1.5103558e-08
137	0x2d460094	1.1255125e-11
138	0x2c3c8feb	2.6796297e-12
139	0x31305a19	2.5662585e-09
140	0x32802a40	1.4920374e-08
141	0x3312ae88	3.415201e-08
142	0x31b9ec78	5.411092e-09
143	0x2f9beab8	2.8361113e-10
144	0x2bb069e7	1.2534946e-12
145	0x30330c05	6.51369e-10
146	0x33ab2161	7.9688796e-08
147	0x2c7bbf89	3.5775569e-12
148	0x320189a6	7.540086e-09
149	0x311d6612	2.2904527e-09
150	0x2f918402	2.6469144e-10
151	0x2b38df47	6.567979e-13
152	0x2b040cd7	4.691364e-13
153	0x34257707	1.5410124e-07
154	0x34488b36	1.8677096e-07
155	0x2d33c323	1.0218301e-11
156	0x32268ccd	9.694486e-09
157	0x2f61fe82	2.055405e-10
158	0x2b104d42	5.1266294e-13
159	0x2d8db831	1.6111642e-11
160	0x352a9504	6.354678e-07
161	0x32b34249	2.0868486e-08
162	0x348798dc	2.525693e-07
163	0x2fb0d303	3.2164146e-10
164	0x330ba149	3.2510147e-08
165	0x33a3a804	7.620841e-08
166	0x358d21cb	1.0515154e-06
167	0x347d361c	2.3582146e-07
168	0x35a269f5	1.2100778e-06
169	0x2d884592	1.5492305e-11
170	0x29615714	5.0035564e-14
171	0x2efc74b3	1.1480363e-10
172	0x2a72c3cb	2.1561847e-13
173	0x32471616	1.1588346e-08
174	0x333e0f9c	4.425202e-08
175	0x3563f8e7	8.492629e-07
176	0x3332deb8	4.1646416e-08
177	0x2ef980b6	1.1346073e-10
178	0x34d0f8e4	3.892411e-07
179	0x2a82a2a9	2.3205507e-13
180	0x34782e34	2.3113608e-07
181	0x33956f5f	6.9586115e-08
182	0x34c82027	3.7276297e-07
183	0x2fe6573d	4.1898743e-10
184	0x3252a533	1.2261171e-08
185	0x30e3c19c	1.6571451e-09
186	0x33514d85	4.8732108e-08
187	0x31998588	4.468067e-09
188	0x34a8e852	3.1461474e-07
189	0x352cf7f2	6.44358e-07
190	0x2d8cff32	1.6029487e-11
191	0x2d438638	1.1114269e-11
192	0x35ccab5b	1.5249055e-06
193	0x3385fbc2	6.2390896e-08
194	0x35878de2	1.0099577e-06
195	0x30c51c80	1.4341737e-09
196	0x34b5a014	3.383035e-07
197	0x3465ec2e	2.1413209e-07
198	0x367dfb69	3.7846278e-06
199	0x3580887a	9.576463e-07
200	0x368aec71	4.140246e-06
201	0x282b200a	9.499354e-15
202	0x2b3b1a82	6.6472533e-13
203	0x305a4b0a	7.9414575e-10
204	0x3386b074	6.271958e-08
205	0x357ae5ac	9.3466474e-07
206	0x35d03b26	1.5514422e-06
207	0x36ad07bd	5.1567026e-06
208	0x340811d7	1.2672477e-07
209	0x2faf2148	3.1855962e-10
210	0x357a982e	9.335371e-07
211	0x2f1f9f03	1.4517458e-10
212	0x35b62908	1.3571998e-06
213	0x3428d8d8	1.5725107e-07
214	0x360ebe82	2.127054e-06
215	0x305a28ef	7.936611e-10
216	0x342f746e	1.6340502e-07
217	0x355f68b8	8.322636e-07
218	0x34812039	2.4051567e-07
219	0x3275bcdd	1.43038195e-08
220	0x35a475e9	1.2253269e-06
221	0x36845047	3.943252e-06
222	0x30b11490	1.2884289e-09
223	0x30286a59	6.1269173e-10
224	0x345f25de	2.078227e-07
225	0x34873e95	2.5191244e-07
226	0x355d0520	8.2336373e-07
227	0x32809d56	1.497271e-08
228	0x2ca84a53	4.783099e-12
229	0x2d2bb953	9.761375e-12
230	0x347a0e87	2.328835e-07
231	0x32087ef1	7.945105e-09
232	0x348bcf2f	2.6041513e-07
233	0x2a96caec	2.6786158e-13
234	0x2cccb51a	5.818135e-12
235	0x321fd3e4	9.303196e-09
236	0x33985543	7.0935606e-08
237	0x34878ae3	2.5246763e-07
238	0x338f7a4a	6.681201e-08
239	0x3331a58c	4.1361588e-08
240	0x29181516	3.376907e-14
241	0x3176fffc	3.5943222e-09
242	0x3524316b	6.1166674e-07
243	0x28d723de	2.388535e-14
244	0x33a4c6c4	7.6730004e-08
245	0x3383a1ff	6.12963e-08
246	0x32c86898	2.3330628e-08
247	0x2d6a5fef	1.33226616e-11
248	0x2d2fdcca	9.996623e-12
249	0x35760b4d	9.1658586e-07
250	0x358638b9	1.0000286e-06
251	0x30ccc551	1.4899034e-09
252	0x33df5fb4	1.0401655e-07
253	0x330ab0ed	3.2291542e-08
254	0x2ad1c3d7	3.726175e-13
255	0x2c58798d	3.076292e-12

exp_avg f4 [32]
0	0xb5804087	-9.555523e-07
1	0xb84446d9	-4.6796024e-05
2	0xb9ac76e9	-0.0003289499
3	0x3798286b	1.8138633e-05
4	0x39604569	0.00021388162
5	0xb9ba0d44	-0.00035486568
6	0x38ed067a	0.00011302247
7	0x3894e7f2	7.100393e-05
8	0x3a0bf31a	0.0005338654
9	0xba4099b0	-0.000734712
10	0xb6ae7d9d	-5.2002274e-06
11	0xb8ec9976	-0.00011281941
12	0xb921c515	-0.00015427575
13	0xb794417b	-1.7673467e-05
14	0x37a28808	1.937525e-05
15	0xba1bfdcd	-0.00059506
16	0xb8638c2b	-5.425156e-05
17	0x38345589	4.2995005e-05
18	0x3a218969	0.00061621383
19	0xba881e41	-0.0010384993
20	0xb9b2490a	-0.00034005224
21	0x387c67b3	6.017806e-05
22	0x3970bb2e	0.00022957913
23	0xb74fd05e	-1.2386676e-05
24	0xb8ace845	-8.244863e-05
25	0xb97d2d38	-0.00024144806
26	0xb72b7163	-1.0218794e-05
27	0xb6990a8f	-4.5609845e-06
28	0x386424e0	5.439378e-05
29	0xb94d2055	-0.00019562368
30	0xb986692e	-0.00025636837
31	0x38461790	4.7228823e-05

exp_avg_sq f4 [32]
0	0x2c95e5b9	4.260339e-12
1	0x34c1d41b	3.6103378e-07
2	0x36a126d2	4.802693e-06
3	0x3498e41b	2.8478175e-07
4	0x3461b538	2.1020685e-07
5	0x356db27a	8.85491e-07
6	0x368a14d8	4.115147e-06
7	0x35bca7d6	1.4055938e-06
8	0x34fa714b	4.664856e-07
9	0x36646621	3.4034094e-06
10	0x2d9219bd	1.6609708e-11
11	0x368d6093	4.21337e-06
12	0x36c18c84	5.7682064e-06
13	0x33831821	6.104552e-08
14	0x3592c60f	1.093549e-06
15	0x35bb750c	1.3966651e-06
16	0x35513ba9	7.7945384e-07
17	0x365d480a	3.2973498e-06
18	0x34e3db60	4.244166e-07
19	0x36a4b913	4.9091263e-06
20	0x35969a51	1.1220783e-06
21	0x33c82f96	9.3218816e-08
22	0x34f3e04d	4.5425477e-07
23	0x30f2263c	1.7618684e-09
24	0x36553fe8	3.1776672e-06
25	0x352897b0	6.280561e-07
26	0x31a48c8c	4.7890065e-09
27	0x2d7d530c	1.4399825e-11
28	0x351f1331	5.9260043e-07
29	0x36a64ec0	4.956353e-06
30	0x36f0e571	7.179268e-06
31	0x36891ee5	4.0865148e-06

exp_avg f4 [32, 32]
0	0xb18ffa43	-4.190299e-09
1	0xb8147c15	-3.540151e-05
2	0xba10f22c	-0.00055292505
3	0x3879bf22	5.9544232e-05
4	0xb8bf85f3	-9.13254e-05
5	0xb946ab87	-0.0001894665
6	0xb92d69d3	-0.00016537988
7	0xb85da699	-5.2845662e-05
8	0xb90351da	-0.00012523626
9	0xb7fa131c	-2.981122e-05
10	0x363b54e9	2.7914596e-06
11	0x39331ec2	0.00017082228
12	0x38c5c1c8	9.4297866e-05
13	0x3765e4d2	1.370274e-05
14	0xb9479724	-0.00019034423
15	0xb44fb24a	-1.9343238e-07
16	0xb9e45a31	-0.00043554747
17	0xb9ca7f76	-0.00038623408
18	0xb70fd8f4	-8.5739775e-06
19	0xb949dda3	-0.0001925142
20	0xb7afa0b9	-2.0936468e-05
21	0x38467887	4.731913e-05
22	0xb94eae16	-0.00019710543
23	0x3591e12b	1.0868874e-06
24	0xb87da693	-6.0475035e-05
25	0xb9692f1c	-0.00022238161
26	0x372ad57a	1.01824935e-05
27	0x2e6cda16	5.3853887e-11
28	0x371f1618	9.482283e-06
29	0xb9c72d26	-0.00037989876
30	0x3991e2be	0.0002782549
31	0xb9245720	-0.00015672715
32	0x311a3872	2.2442035e-09
33	0xb7cfe850	-2.4784502e-05
34	0xb97307e8	-0.00023177231
35	0x37c2addf	2.3207567e-05
36	0xb85068ca	-4.9688657e-05
37	0xb8ba055f	-8.8701716e-05
38	0xb88bf285	-6.673209e-05
39	0xb75efa05	-1.3290443e-05
40	0xb83b9126	-4.4719454e-05
41	0xb7f58b76	-2.9271217e-05
42	0xb637d0eb	-2.7390731e-06
43	0x37c93efe	2.39904e-05
44	0xb85805ee	-5.1503936e-05
45	0xb63f8589	-2.8538946e-06
46	0xb95a8cda	-0.00020842571
47	0xb8bc2e74	-8.973191e-05
48	0xb9480d15	-0.0001907836
49	0xb90625a6	-0.00012793261
50	0xb730ad2c	-1.0530737e-05
51	0xb896023b	-7.152973e-05
52	0xb7a8851b	-2.0089143e-05
53	0x374e3d06	1.2292765e-05
54	0xb92194f1	-0.00015409641
55	0x319fb0d7	4.6476134e-09
56	0xb8d425af	-0.00010115967
57	0xb8a2dc97	-7.76585e-05
58	0x3705c7f1	7.97397e-06
59	0xb6194b55	-2.2842626e-06
60	0x37816908	1.5426907e-05
61	0xb9221c29	-0.00015460014
62	0xb82a0788	-4.0538172e-05
63	0xb8c9fc24	-9.631392e-05
64	0x36264e01	2.4781332e-06
65	0xb77d79e5	-1.5108356e-05
66	0x38c337e2	9.3087336e-05
67	0xb7dd7b6f	-2.6402731e-05
68	0xb8128b75	-3.4938992e-05
69	0x38878b66	6.4632666e-05
70	0x37c924f7	2.397828e-05
71	0xb8974756	-7.2135284e-05
72	0xb72cf92a	-1.0310012e-05
73	0xb779e81d	-1.48956e-05
74	0x3680986b	3.832441e-06
75	0x381b4d0a	3.7026628e-05
76	0x3723081d	9.717446e-06
77	0xb6e29548	-6.7527035e-06
78	0x38c94e30	9.5989904e-05
79	0xadfe65ea	-2.8921716e-11
80	0x382f4f4d	4.1797106e-05
81	0x387f46f9	6.0862836e-05
82	0x37915cf4	1.7328632e-05
83	0x381e8c2e	3.7800688e-05
84	0xb636db32	-2.7247702e-06
85	0xb7cb2b53	-2.421966e-05
86	0x389ee9d6	7.5775824e-05
87	0x36534f34	3.1487552e-06
88	0x37674e6d	1.3786933e-05
89	0x3856b96a	5.1194256e-05
90	0xb086935e	-9.791667e-10
91	0xb0f30354	-1.7681523e-09
92	0xb6a7541a	-4.9867785e-06
93	0x38255bfb	3.942473e-05
94	0x3460f28a	2.0949861e-07
95	0x37a6d6d6	1.9888783e-05
96	0xb42d318b	-1.6129904e-07
97	0xb88d89bd	-6.74906e-05
98	0xba6405ae	-0.0008698356
99	0x38bc4025	8.9764864e-05
100	0xb94f640e	-0.00019778332
101	0xb9be70c9	-0.00036323656
102	0xb9801764	-0.0002443149
103	0xb8e3922b	-0.000108514294
104	0xb9720a40	-0.00023082737
105	0xb87abc79	-5.9780174e-05
106	0x31204c29	2.3326356e-09
107	0x39b1ca65	0.00033910866
108	0x399fc556	0.0003047387
109	0x37789739	1.4817161e-05
110	0xb83f77fa	-4.5649685e-05
111	0xb7537ebb	-1.2606087e-05
112	0xba34b0d1	-0.0006892803
113	0xba34396f	-0.00068750134
114	0xb7b5a165	-2.1652037e-05
115	0xb9a692d4	-0.00031771383
116	0xb80cd8ed	-3.358063e-05
117	0x38881e83	6.4906686e-05
118	0xb9538bd7	-0.00020174622
119	0x34cc8f1b	3.8102084e-07
120	0xb7a8ad2d	-2.0107802e-05
121	0xb99d1b28	-0.00029965607
122	0xb761976f	-1.34463035e-05
123	0x35fa20c5	1.8635989e-06
124	0x37e7baa4	2.7624257e-05
125	0xba28179c	-0.00064122095
126	0x3a34ed1e	0.00069017883
127	0xb90dbd13	-0.00013517243
128	0xb6128890	-2.1835185e-06
129	0xb78232ed	-1.5520922e-05
130	0x38dba309	0.000104731014
131	0xb536e811	-6.8137984e-07
132	0xb4ef3e80	-4.4562694e-07
133	0x39169e91	0.00014364185
134	0xb98cd66b	-0.00026862635
135	0xb708a20f	-8.143964e-06
136	0xb8d66467	-0.000102230166
137	0x3854b7a6	5.0715775e-05
138	0x36a8cfc0	5.0309754e-06
139	0xb91b68a6	-0.00014820936
140	0x38da0652	0.00010396227
141	0xb6d25c6e	-6.269248e-06
142	0x38f0b55e	0.00011477874
143	0x394ed48a	0.00019724868
144	0x38d8f4a8	0.000103452534
145	0xb934baa8	-0.00017235673
146	0x35fb162f	1.8707414e-06
147	0x3907abae	0.00012938559
148	0xb86c99ac	-5.6409903e-05
149	0x2df0efc8	2.7391325e-11
150	0x389429d4	7.064981e-05
151	0x31229124	2.3656606e-09
152	0xb93a5651	-0.00017770498
153	0x38cb23be	9.686452e-05
154	0x35d48559	1.583404e-06
155	0xb5fb4b17	-1.8722811e-06
156	0xb7a6e08e	-1.9893308e-05
157	0x380ec0e7	3.4035093e-05
158	0x38541efd	5.05736e-05
159	0xb9467c13	-0.00018928973
160	0xb2ba04da	-2.1655456e-08
161	0xb866a878	-5.4993172e-05
162	0xba93c26d	-0.0011273153
163	0xb7e15582	-2.6861908e-05
164	0x368cee39	4.200058e-06
165	0xb9b73878	-0.00034946552
166	0xb9af8ec0	-0.00033484958
167	0xb9c71685	-0.00037973016
168	0xb929b7ad	-0.0001618552
169	0xb9b7f20f	-0.00035084828
170	0x2f3be404	1.7088558e-10
171	0xb7c75ad2	-2.376494e-05
172	0x38ebf1db	0.00011250722
173	0xb77690cc	-1.4696456e-05
174	0xb9f8202f	-0.00047326225
175	0xb982e343	-0.00024964855
176	0xba72a118	-0.0009255572
177	0xba48bba0	-0.0007657353
178	0xb842905c	-4.638765e-05
179	0xba038c72	-0.00050181814
180	0xb9250f4c	-0.00015741325
181	0x37bb97dc	2.2362852e-05
182	0xba09fee1	-0.0005264115
183	0x359b8a39	1.1588628e-06
184	0xb96dd3ae	-0.00022680938
185	0xb9f6fa5a	-0.00047107303
186	0x371ae9fa	9.233592e-06
187	0xb305cd33	-3.1153103e-08
188	0xb835cb15	-4.3342898e-05
189	0xba80f9f8	-0.0009840121
190	0x39a745cb	0.00031904722
191	0xba03a14e	-0.00050212897
192	0xb0957293	-1.0873741e-09
193	0x37bc684a	2.245991e-05
194	0x392a41f1	0.00016237028
195	0xb2041a62	-7.68941e-09
196	0x384573b4	4.7076217e-05
197	0x38c08a9c	9.1810914e-05
198	0xb957440b	-0.00020529346
199	0x389ba79c	7.4221956e-05
200	0xb810031e	-3.433518e-05
201	0x38b02ff3	8.401265e-05
202	0x3603606d	1.9576648e-06
203	0xb95d64a9	-0.00021113701
204	0x389c98c6	7.467116e-05
205	0x37099262	8.199919e-06
206	0x391a456d	0.00014712448
207	0x396b4220	0.0002243598
208	0x392b9bac	0.00016365823
209	0xb8a03980	-7.640105e-05
210	0xb7059db1	-7.964133e-06
211	0x38c2be2a	9.286062e-05
212	0xb757952d	-1.2849731e-05
213	0xb688f736	-4.081895e-06
214	0x38b5bcf5	8.6659486e-05
215	0xb60f6e50	-2.137287e-06
216	0xb89f110a	-7.5848846e-05
217	0x38768b33	5.878061e-05
218	0xaeb2e4b5	-8.1351294e-11
219	0x36a3a4e9	4.8769766e-06
220	0xb7d425fb	-2.5290055e-05
221	0x390e20a4	0.00013554335
222	0x387f9ed7	6.094467e-05
223	0xb907fc82	-0.0001296867
224	0x36b7128d	5.4559846e-06
225	0xaae622bc	-4.088031e-13
226	0x36333dea	2.6709117e-06
227	0x3595272e	1.1112768e-06
228	0x3612f5fa	2.1898873e-06
229	0xb6bcbe9e	-5.6250274e-06
230	0x36617aeb	3.359916e-06
231	0xb67a1f0c	-3.7270975e-06
232	0x36906bad	4.3040695e-06
233	0xad520e7e	-1.1940336e-11
234	0xb68bd53b	-4.167346e-06
235	0x2f860833	2.4380284e-10
236	0x30791f9c	9.063059e-10
237	0xb6912c81	-4.3265177e-06
238	0x309d51a0	1.1446453e-09
239	0x2f8f40de	2.605764e-10
240	0x363d0daf	2.817116e-06
241	0x31b69910	5.3142983e-09
242	0x35805e9d	9.564279e-07
243	0xafd8ee6f	-3.9459588e-10
244	0xae222a97	-3.6872363e-11
245	0xb0965259	-1.0937341e-09
246	0xb5c94355	-1.4995263e-06
247	0xb667fcf8	-3.456893e-06
248	0x31ded3c8	6.485127e-09
249	0xb6a071f5	-4.781638e-06
250	0xb45d2250	-2.0594712e-07
251	0xae771d09	-5.6187086e-11
252	0xb5cc4120	-1.5218138e-06
253	0xb3822cc2	-6.061738e-08
254	0x302d9a81	6.3156597e-10
255	0x2f6526d2	2.084122e-10
