checkpoints/ablation_eps_0.20/ablation_eps_0.20_epoch0001.pt (torch, 38139 bytes, 24 tensors)

0.weight f4 [32, 2]
000000 64 28 09 3f 46 7a 14 3f 07 4d 30 be 81 29 28 3f
       0.53577256 0.57999074 -0.17216884 0.6568833
000010 dd 89 17 be 3e fe 19 3e 63 65 ae be be c2 d1 3e
       -0.14798684 0.15038392 -0.34061727 0.4096889
000020 c4 f0 1d 3f c2 01 03 bf 4f 1f 1f 3f 1e f6 0e 3e
       0.61695504 -0.5117456 0.6215715 0.13961074
000030 56 7b 05 3f 64 6b b5 3d a1 0d ae 3e 34 66 bf bd
       0.5214132 0.08858374 0.33994773 -0.093456656
000040 b9 49 0c 3f 0c a5 c8 3d 09 ec a4 be 80 63 30 3e
       0.5479999 0.09797105 -0.3221133 0.17225456
000050 65 b6 a2 be cf 82 99 bd 86 7b 95 be 7b 46 f2 3e
       -0.3177978 -0.07495653 -0.29195803 0.47319397
000060 e1 67 0e bf bd c4 a4 be d8 1f 51 be b1 6e d6 be
       -0.55627257 -0.3218135 -0.20422304 -0.41881326
000070 a1 42 81 3d 61 09 31 bf cc 67 23 3f 00 07 18 bf
       0.063115366 -0.69154936 0.63830256 -0.5938568
000080 23 7c 0c 3f ac 7a f8 3d c8 27 65 be 01 b7 e1 3e
       0.5487692 0.12132773 -0.22378457 0.44084933
000090 9c d5 e7 3d 83 16 11 3f 88 66 ac 3d 12 07 6b be
       0.1132004 0.56674975 0.08417994 -0.22951916
0000a0 19 7d 3b 3e 4d 1f 4b be 9b 71 94 3e a4 ff 1f 3f
       0.1830944 -0.19836159 0.28992924 0.6249945
0000b0 f3 7a ce 3e eb f0 a1 be b0 cf cd 3e 7b 2d f7 3d
       0.40328178 -0.31629118 0.40197515 0.120692216
0000c0 54 25 bb 3e ca bc df be 88 07 32 bf 6f ae 8e be
       0.36551917 -0.43698722 -0.6954274 -0.27867457
0000d0 db d9 08 bf 35 34 16 3f 90 d9 48 3e 8a e3 92 3e
       -0.5345742 0.5867341 0.19614244 0.28689224
0000e0 7d df 5e 3e b7 76 96 bc cc 76 0d 3f 16 7a 02 bf
       0.21764942 -0.018367155 0.55259395 -0.5096754
0000f0 be 61 54 3d 36 b6 fa be 11 85 66 3e 45 0e 80 be
       0.051851027 -0.4896714 0.22511698 -0.25010887

0.bias f4 [32]
000000 f0 01 5b 3e 88 69 0f be b8 f7 15 3f 65 5e d8 be
       0.21387458 -0.140051 0.58581114 -0.42259517
000010 14 28 db be 60 45 d4 be 1f 69 23 3f 2e 0d 6f 3e
       -0.42804015 -0.4145918 0.6383228 0.23344871
000020 73 75 2c 3f 14 58 13 bf 6c 80 31 bf fa f5 0b bf
       0.67366713 -0.5755627 -0.6933658 -0.54672205
000030 1f 75 f2 be 29 45 92 3e 2b ee 7f 3e b3 f5 14 3f
       -0.4735498 0.2856839 0.24993198 0.5818741
000040 c5 cf b8 be 5a be f4 be 57 62 c3 3e 87 e1 8e be
       -0.36096016 -0.47801477 0.38160965 -0.2790644
000050 b0 30 d9 3e 46 e2 32 be 69 55 cc 3e 6b f7 0d bf
       0.42419958 -0.17469129 0.39908913 -0.55455655
000060 4b 28 b3 be 78 cb 58 3e c9 67 1f 3e a9 29 3f be
       -0.3499168 0.21171367 0.15566935 -0.18668236
000070 2b 22 da 3e 48 25 f9 3e 63 68 01 bf ae b2 bd be
       0.42604193 0.48661256 -0.50549906 -0.37050384

2.weight f4 [32, 32]
000000 ab 93 1d 3e 31 bf 53 bd 65 1b 60 bd 0c fa 26 be
       0.15388362 -0.051696006 -0.054713625 -0.16306323
000010 7a ff be bd 01 5f 14 3d b8 72 7d bc d0 74 f6 bd
       -0.09326072 0.036223415 -0.015469246 -0.12033999
000020 bb 89 dd ba 4d f6 e6 bd de 66 11 be 5a 08 b7 bd
       -0.0016902009 -0.11277447 -0.14199397 -0.0893714
000030 61 41 16 be f7 2f d6 bd 7c c5 2c 3e da b4 d0 3c
       -0.14673378 -0.10458367 0.1687221 0.025476862
000040 1a 92 3e 3d 6b a8 20 be 89 70 dd bd 8f 6f 50 bd
       0.046526052 -0.15689246 -0.1081248 -0.05088764
000050 59 d1 a1 3c 95 1b 17 be 41 ae 8b bd 6e 68 c8 bd
       0.019753145 -0.14756615 -0.06820346 -0.097855434
000060 70 f4 11 b7 07 d5 6c bd 5f f1 95 bb 1e fd e4 bd
       -8.699586e-06 -0.057820346 -0.004575893 -0.11181091
000070 5b 29 e8 bd d6 e1 c2 bd 3a 44 57 bd bd b3 06 be
       -0.11336013 -0.09515731 -0.0525553 -0.13154502
000080 10 6b 13 3e a0 e7 20 bd 63 fb 18 3e 23 4d 60 3d
       0.1439631 -0.039283395 0.14939646 0.054761063
000090 c0 1c 11 be 28 77 ee 3d ab 55 56 bd 25 fd 8e bd
       -0.14171124 0.11643821 -0.052327793 -0.06981877
0000a0 af 00 1a be 07 c9 2b be 8d 9f 2e 3d 2c 1a 23 bd
       -0.15039323 -0.16775905 0.04263263 -0.03981988
0000b0 28 72 98 3d 80 36 13 be 0e ad fc 3d b5 5d 02 be
       0.074436486 -0.14376259 0.12337695 -0.12731059
0000c0 11 25 12 bd f1 56 0c 3d 92 2f b3 3d 20 f7 09 3e
       -0.03567988 0.0342626 0.08749308 0.13473177
0000d0 f8 6e 22 3e 60 43 14 be 12 68 37 3d 0d 69 8b bd
       0.15862644 -0.14478827 0.044776984 -0.06807146
0000e0 a7 24 3d bc 6e b5 04 be f6 c4 21 3e 3a 0c 0a be
       -0.011544383 -0.12959835 0.15797791 -0.13481227
0000f0 df b2 ba 3d af dd 83 3d 83 b8 4a 3d 49 68 b3 bd
       0.09116148 0.06438767 0.04949237 -0.08760125
000100 d2 4d 23 3e 12 f0 04 3d f8 48 96 3c 40 8e 24 be
       0.15947655 0.03245551 0.018345341 -0.16069889
000110 3e 45 93 3d 19 4e 9e bc d0 99 a5 bd bc ad 1c 3e
       0.07190941 -0.01932435 -0.08085978 0.1530065
000120 08 96 21 3d 87 fa b7 bd 22 eb a6 bd 0d e8 58 bc
       0.03944972 -0.08983331 -0.08150317 -0.013238919
000130 5d 89 ba 3d 27 62 55 bd 0c 20 da bd 9a 91 75 bd
       0.09108231 -0.05209556 -0.10650644 -0.05995331
000140 9d b6 ff bd 75 ee 6d 3d b1 32 09 3e 7d 43 22 be
       -0.124860026 0.05808874 0.13398243 -0.15846057
000150 d3 dc 23 3d fd 5b b2 3d bd 2f 07 3d 5c ef 66 bd
       0.040005516 0.087089516 0.03300451 -0.056380615
000160 37 6f b3 3d 33 21 af 3d 0c 34 75 3d 1f 25 09 bd
       0.08761447 0.08551254 0.05986409 -0.033482667
000170 13 16 43 bd 7b b8 9f 3c e6 b0 c0 bc 74 cc 6f bd
       -0.047628473 0.019497147 -0.023521852 -0.05854459
000180 92 f6 f2 3d 7f b3 20 3e 51 81 49 bc b3 4c 16 bd
       0.11863436 0.15693472 -0.012298898 -0.03669424
000190 7d ca 90 ba 3b d9 b7 bb 89 e7 45 3d 15 e4 64 3d
       -0.0011046674 -0.0056106127 0.048316512 0.05588158
0001a0 c1 68 1e be 31 9d 6a bd 7a 44 10 3e 9f 82 91 3d
       -0.15469648 -0.057278816 0.14088622 0.07104992
0001b0 0c 1b b0 ba e3 7b db bd a8 29 cd bd 03 39 1a be
       -0.0013435795 -0.10716989 -0.10017711 -0.1506081
0001c0 cc 37 50 bd 5b 1a 80 3d 7c d0 f1 3d cd d5 96 3d
       -0.050834462 0.06255027 0.11807343 0.07364998
0001d0 17 83 19 be 51 56 ce bd 67 12 ac bc b1 ee 26 3e
       -0.14991413 -0.10075057 -0.021004869 0.16301991
0001e0 ce f1 90 3c fe 4c 4b bd 6f 9d 9f 3d 5a 14 7d bd
       0.017693426 -0.049633972 0.077937 -0.061786987
0001f0 4d 67 de bd 4a af f8 3d b6 4d 94 bd d5 71 e1 bc
       -0.10859547 0.12142809 -0.07241385 -0.0275201
000200 5e c6 39 be 33 e2 e8 3d 3d 84 03 3e 0e 02 88 3d
       -0.18142077 0.11371269 0.12843414 0.06641017
000210 78 19 ec bd 70 7a 2a be 83 ae 19 be fb 7e ff 3d
       -0.11528295 -0.16648269 -0.15007977 0.124753915
000220 fd 53 a0 3d 84 27 10 3e e9 55 ad 3d ab 01 31 3d
       0.078285195 0.14077574 0.08463652 0.04321448
000230 90 83 9f 3b 11 74 0d be 3b 23 1f be b5 91 2f be
       0.0048679784 -0.13813807 -0.15540783 -0.17145427
000240 9d e5 83 3d c2 89 af bd 6f e9 29 bd 2a 06 c0 bd
       0.0644028 -0.08571197 -0.041482385 -0.09376176
000250 2e 36 1d bd fe 48 04 be 96 29 f9 bd 81 9b 4f 3d
       -0.038381748 -0.1291847 -0.12166135 0.05068541
000260 13 a4 36 bd 2a 7d d9 3d 94 49 7a bd 5e c6 03 be
       -0.044590067 0.10619576 -0.061105326 -0.1286864
000270 be 6f 19 bd 7c 5b bc bd 5f f7 3c bd 3c 27 24 be
       -0.03746008 -0.09197137 -0.04613435 -0.16030592
000280 a5 84 ce 3d c2 ce f7 bd 81 d6 b5 3d 11 dc a0 3d
       0.10083894 -0.12099983 0.08878804 0.07854474
000290 95 ea f2 3d 0c 0c 05 be 79 2c 03 3e d5 a8 a7 bd
       0.11861149 -0.12992877 0.12809934 -0.08186499
0002a0 d9 6f 88 3d 61 d2 21 3e c1 b9 8b bc 08 df 87 bb
       0.06661958 0.1580291 -0.017056348 -0.0041464604
0002b0 5e 39 06 bd d4 e7 11 be f4 1e a5 3d c9 c2 33 be
       -0.032769553 -0.14248592 0.080625445 -0.17554773
0002c0 9f 24 e9 3d 3a f4 03 3e ad 33 2c 3e 79 4e 0a bd
       0.11383938 0.12886134 0.16816588 -0.033766244
0002d0 3e 7a 14 be b6 16 2f 3d f0 d3 c6 3d 18 3a 2c be
       -0.14499757 0.04274627 0.097083926 -0.16819036
0002e0 b4 e0 03 bd 05 54 da bd 90 0d 71 bc 80 31 a7 bd
       -0.032196715 -0.10660557 -0.014712706 -0.08163738
0002f0 1c 6f 92 bd 45 fb 66 bd dc d8 23 be 9f 5a 0c 3e
       -0.07150099 -0.056391973 -0.16000694 0.13706444
000300 05 5b 10 3e 15 8d 04 bd 5a 42 ba bc a1 5e 8c bd
       0.14097221 -0.03236111 -0.022736717 -0.068539865
000310 45 72 1c be 93 d9 37 be 70 89 7e 3d a8 db c0 bd
       -0.15277965 -0.17954092 0.06214279 -0.09416896
000320 c5 0d f0 bd a6 cb c6 bb 55 8c 50 bd 5a e1 62 bd
       -0.11721376 -0.0060667573 -0.05091508 -0.055390693
000330 8c 00 5a 3c 3d b6 f8 bc fb 38 5d bd 57 5b a2 bd
       0.013305794 -0.030360335 -0.05400942 -0.07927578
000340 3e 01 1b be d1 75 16 3e 10 cd 9e bd 2d 4b 5a 3d
       -0.15137193 0.14693381 -0.07753956 0.05329435
000350 8d 43 67 bd ca 63 f5 3b e4 c8 2d 3e c7 98 9a 3d
       -0.056460906 0.0074887024 0.16971165 0.07548671
000360 15 74 15 be d8 c1 9d 3d f9 df 28 3e af a9 21 3d
       -0.14595063 0.077029884 0.16491689 0.039468464
000370 64 e8 f4 3d d9 e9 37 3e 6b f6 a9 bc 58 bc 33 3d
       0.119583875 0.179603 -0.020747384 0.04388079
000380 bb e8 f1 bd 81 da 09 bd 9b d7 09 3e a3 b5 b4 3d
       -0.11811968 -0.033655647 0.13461153 0.08823707
000390 0a c2 d4 bd bf fb 08 be 00 74 ea bd fd e7 2a be
       -0.103885725 -0.13377284 -0.114479065 -0.16690059
0003a0 da 3c 05 be 33 8f 12 bd 0e fe e3 3d d5 8d fa 3c
       -0.13011494 -0.035781097 0.111324415 0.030585209
0003b0 04 d3 10 be 9a a5 0f be d7 11 b5 3d dc 25 00 be
       -0.14142996 -0.14028016 0.08841293 -0.12514442
0003c0 57 f9 63 bc b7 e3 b0 3d 79 6d 9e bd 5a 95 3b bc
       -0.013914428 0.08637183 -0.07735724 -0.011449182
0003d0 78 93 16 bc 30 83 19 bd 5e 04 aa bd 3d 31 19 be
       -0.009190433 -0.037478626 -0.08301614 -0.14960189
0003e0 a0 27 0a be 2f 55 c3 bd be e4 30 3e bc c7 a5 bd
       -0.13491678 -0.09537732 0.17274758 -0.08094737
0003f0 08 e7 e6 bd 15 43 49 3d a1 07 27 3d 49 09 b6 3d
       -0.112745345 0.04913624 0.04077876 0.0888849

2.bias f4 [32]
000000 7e bc a8 bd 41 84 16 be 33 6c 63 3b 59 57 c9 bd
       -0.08239077 -0.14698888 0.0034701943 -0.09831113
000010 68 fb 0e 3e 88 d1 2d be f6 53 a7 3d ec e2 38 3e
       0.13963091 -0.16974461 0.08170311 0.18055314
000020 1d f5 bd 3d f2 8d 83 3d 99 fd 25 be 41 75 30 3e
       0.09275267 0.06423558 -0.16210021 0.17232229
000030 ff d5 d4 bc d8 26 2f be 25 4c 38 3e 28 d1 a0 bd
       -0.025980948 -0.17104661 0.17997797 -0.078523934
000040 15 7a 57 bc da e7 28 3e 96 c6 03 be c1 08 f3 bd
       -0.013151665 0.16494694 -0.12868723 -0.11866904
000050 aa d5 bd 3c a3 69 d4 bc 24 e4 40 3d 54 b9 0f be
       0.023173172 -0.025929278 0.04709257 -0.14035541
000060 ff 4f 20 3a df a8 ad bd f1 89 bb bd 82 92 1d be
       0.0006115436 -0.08479475 -0.091571696 -0.1538792
000070 dd f6 b5 3d f6 5b 26 3d 20 58 12 be ea 66 0c 3e
       0.08884976 0.040615045 -0.1429143 0.13711134

4.weight f4 [32, 32]
000000 50 d7 39 3d bb 16 16 3d 09 1a c7 bd 23 57 f1 3c
       0.045371354 0.03664277 -0.09721763 0.029460495
000010 f5 e0 2c 3e 3a ba 02 3e 90 7a 07 be 24 bf 21 3e
       0.1688269 0.12766352 -0.13230348 0.1579557
000020 da 0d 92 3c 65 d6 bb 3d b7 6b 04 3e 9a 57 1e 3e
       0.01782887 0.09171752 0.12931715 0.15463105
000030 06 28 0b be 0c 5c 25 3e c3 83 fd bd 2c ff cf 3b
       -0.13589486 0.16148394 -0.12378647 0.0063475575
000040 2c 8b f1 bd 9e 16 0a bd e4 2c c0 ba 96 e8 67 bc
       -0.11794123 -0.033712976 -0.0014661816 -0.014154574
000050 f4 c6 0d bd 39 50 8c 3c de c4 36 3e a1 03 c2 3d
       -0.034613565 0.017128097 0.17848536 0.094733484
000060 3a eb c3 3d 45 0f 9f 3d 8c 5f 05 3e 45 90 4d ba
       0.0956635 0.07766584 0.1302473 -0.0007841627
000070 61 4d 97 3c e8 c3 26 3d db e6 24 be 33 9d 16 be
       0.018469514 0.040714175 -0.1610369 -0.14708404
000080 ae 76 62 3c 38 18 85 bd 17 b5 66 3b 2c 27 19 bd
       0.013822241 -0.0649876 0.0035203153 -0.037390873
000090 7c c8 d5 3c 3f eb f8 3d 9b c7 59 bd f7 f1 0a 3e
       0.026096575 0.12154245 -0.053168874 0.13568865
0000a0 eb d7 12 3e 20 84 03 be 86 9d 03 be 6c f5 0d be
       0.14340179 -0.1284337 -0.12853059 -0.13863152
0000b0 a1 d6 c1 bd 12 de 7c bd 18 62 8c bc 24 e0 4c bd
       -0.09464765 -0.06173522 -0.017136618 -0.050018445
0000c0 c0 19 ab bd 7f 0b 51 bd 79 0c 6a bd dc bb 38 3e
       -0.08354521 -0.051036354 -0.0571408 0.18040413
0000d0 cd 16 94 bd 2a 49 fb bd 56 84 9e 3d e5 b9 2e bb
       -0.072309114 -0.12269814 0.07740085 -0.0026661095
0000e0 70 fd 06 3e 35 89 f0 3d ad f8 1e 3e b0 cc f8 bd
       0.13182616 0.1174492 0.1552455 -0.12148416
0000f0 62 4d f1 3d eb fb 1b 3e 73 0d c1 bd 2e 53 21 3e
       0.11782338 0.15232818 -0.09426393 0.15754387
000100 4f 0e ff 3d 77 be 3f bb 80 8a a1 3d 0d 9b 87 bd
       0.12453901 -0.0029257813 0.07887745 -0.066213705
000110 8a d5 1a be da 70 1c 3d 49 ff 3e 3d b4 27 f4 bd
       -0.15120521 0.03819356 0.046630178 -0.11921635
000120 ae 6f a3 3d 08 b5 1e be 6e 9d 13 3e 0f 0e 28 3e
       0.079802856 -0.15498745 0.14415523 0.16411613
000130 16 21 29 3d 7b fe ee bd a8 ff a2 3d 66 11 b6 3c
       0.04129132 -0.11669632 0.07958919 0.022225093
000140 54 be 2b 3d 00 5f 54 3d ac 47 03 3e 8a e5 a8 bd
       0.041929558 0.05184841 0.1282031 -0.08246906
000150 a6 f7 06 bd 1f ef 30 3d 02 53 52 3c e9 cb 09 3e
       -0.03295102 0.043196794 0.012837173 0.13456692
000160 38 e7 ca bd bd 88 57 bc ab c9 cd 3c 94 c8 1f bd
       -0.09907383 -0.01315516 0.025120577 -0.039009646
000170 49 f7 eb 3d 9e b8 60 3c ac 20 1f be 07 ee ce bc
       0.11521775 0.013715891 -0.15539807 -0.025259985
000180 a7 e3 93 bd 5b dd ac 3c bc 02 66 bc 29 3f 30 be
       -0.072211556 0.021101644 -0.014038738 -0.17211594
000190 75 5e 08 bd 83 82 2c bc 5b b0 3f bd 04 03 23 3e
       -0.033293206 -0.010529163 -0.046799045 0.15919119
0001a0 d4 f5 0c bd ca 5d f6 3d fe dc 12 3d 7e 8c 14 be
       -0.034414127 0.120296076 0.035855286 -0.14506719
0001b0 e3 da 30 3d a8 e8 1c 3e e2 78 f4 bd 04 08 f8 bd
       0.043177497 0.15323126 -0.11937119 -0.12110904
0001c0 b4 c8 36 3e c9 92 16 3e ca 9f bc bd a2 02 e8 3d
       0.1785 0.14704432 -0.09210165 0.11328627
0001d0 9e aa ef bc 3f fc 2e be 1b ac 8f 3c 69 5c 49 3d
       -0.029256161 -0.17088412 0.017538121 0.049160395
0001e0 d2 10 66 bd 27 07 8c 3d 48 16 21 be e0 8e ea 3d
       -0.056168385 0.06837302 -0.15731156 0.114530325
0001f0 0c cc 1e 3e 9b 8a d0 3d fb 5b bd 3c cb 0f 5b 3d
       0.15507525 0.10182687 0.023115149 0.05348186
000200 24 9c f5 bd ee b9 24 bd e0 62 c9 bc ec 23 b9 bd
       -0.11992672 -0.04021638 -0.02458328 -0.09040055
000210 d9 10 fb bd c0 28 e5 3d a3 dd f2 3d 5d 39 1c be
       -0.12259073 0.11189413 0.1185868 -0.15256257
000220 2a 1f 4f 3d 03 9c 9e 3d 4d c9 23 3e 65 ca d1 3d
       0.05056683 0.077446006 0.15994759 0.10243682
000230 da 7f 24 3e 20 4c 84 bd d8 61 03 3e 32 37 1a 3e
       0.16064397 -0.06459832 0.12830293 0.15060118
000240 36 a6 31 be 04 7f 10 be 88 e9 eb 3c a4 ef b5 3d
       -0.1734856 -0.14110953 0.02879788 0.088835984
000250 21 84 a6 bd 86 b7 3e 3c a9 2d 43 3b 77 c2 16 3d
       -0.0813067 0.011640435 0.0029781854 0.03680655
000260 37 d5 b7 bd 3c 80 be 3d aa 6b e0 3d ee dc ea bd
       -0.089762144 0.093018025 0.10958035 -0.1146792
000270 d0 50 8a 3b 2b 7b bd 3a 69 38 82 3d da ae 2d 3e
       0.0042210594 0.0014456263 0.06358416 0.16961232
000280 dd cb 33 3d aa 6f 31 bd a8 e6 29 3e 8e ee 72 bd
       0.04389559 -0.04331938 0.16591895 -0.059309535
000290 68 2e 4b bd df 68 94 3c 45 95 06 be a9 db 73 3c
       -0.049604803 0.018116413 -0.1314288 0.014883914
0002a0 c0 3d 00 be ab 3a a9 3c 7b ca 15 3c 6b 7b bd 3c
       -0.12523556 0.020657858 0.009142513 0.02313014
0002b0 03 1e 17 be d4 0e 25 be c0 63 9c 3d 45 47 14 3e
       -0.14757542 -0.16118938 0.07636213 0.14480312
0002c0 b5 47 1a be 5f f7 89 3d cf 15 fc bd 91 cd 95 3c
       -0.15066417 0.067366354 -0.12308847 0.018286498
0002d0 fe d4 21 3e 0e 27 01 3e a0 33 09 be aa 9c cf 3d
       0.15803906 0.12612554 -0.133986 0.10137303
0002e0 37 53 b1 3d c7 18 b4 3b b3 f5 29 3e 84 f9 7e bd
       0.0865845 0.0054961178 0.16597633 -0.062249675
0002f0 cb d2 1b bd 5d 7f bc bd 6a ba 98 3c 67 c7 2b 3d
       -0.038042825 -0.0920398 0.018643577 0.04193821
000300 c4 20 d0 3b d7 5d bb bd c7 95 b1 bd f5 b6 55 3d
       0.006351562 -0.09148758 -0.08671146 0.052176435
000310 2d 8c 16 be 22 87 0d bd 01 9f 25 bb 8d b6 82 bd
       -0.1470191 -0.0345527 -0.0025271776 -0.06382475
000320 38 a4 82 3d 6a fb 8d 3c 60 d5 ed 3d 53 ff 48 bc
       0.063789785 0.017331798 0.11612964 -0.012267905
000330 b1 de e5 bd b5 0b f2 3d 10 b7 f2 3c 3a 04 33 bd
       -0.11224116 0.11818639 0.029628307 -0.043705203
000340 57 48 de bd 63 eb 38 3d 2c c1 31 be fc dd 20 3d
       -0.108536415 0.045146357 -0.17358845 0.0392742
000350 be b1 c0 3d 83 9d 16 be 20 41 e2 bd d5 ef f3 bd
       0.09408902 -0.14708523 -0.11047578 -0.11910979
000360 61 1a 1e 3e c1 ad 14 3e 57 e3 61 3b 11 c4 21 3e
       0.1543975 0.14519407 0.003446778 0.1579745
000370 72 54 56 bd 74 a7 27 be e9 8f 8c 3d 64 62 8b 3d
       -0.052326627 -0.16372472 0.06863386 0.06805876
000380 95 4a 29 3e 04 f3 a1 b7 64 8f 02 3e 05 95 cd 3d
       0.16532357 -1.9305859e-05 0.12750012 0.10038189
000390 9e b0 f5 3d 4c 74 2b be 54 e3 0c 3e d1 22 12 be
       0.11996578 -0.16743582 0.13758594 -0.14271094
0003a0 4a 1c 1a 3e c0 42 ac b8 4e 3f 18 be 2c d3 28 3d
       0.15049854 -8.214032e-05 -0.14867899 0.041217014
0003b0 a9 e4 e5 bc 3c 6a 1a be 43 e9 65 bd 95 9c 2a 3c
       -0.028063135 -0.15079588 -0.05613066 0.010413309
0003c0 47 d0 04 3e ee 0a 3e bd e0 b4 c6 3d fe 01 6a 3c
       0.12970077 -0.046397142 0.09702468 0.014282702
0003d0 c4 5b 75 ba c2 45 d4 3c bb 41 dd bd fa 49 0e be
       -0.00093596824 0.02591217 -0.10803553 -0.13895407
0003e0 c9 f2 42 bd f1 81 20 be e3 84 98 bd dd cf 47 3a
       -0.04759482 -0.15674569 -0.07447221 0.00076222216
0003f0 9b 1a de bd fa dc 85 bd 94 71 c3 bc 3a 3d 4d bc
       -0.10844918 -0.065362886 -0.02385787 -0.012526805

4.bias f4 [32]
000000 f1 0b b3 3d 6f 6e 50 3d b8 e0 97 bd 99 85 e2 3d
       0.08742512 0.050886568 -0.074159086 0.11060638
000010 b9 6e 57 bd fd 5b 2d bc 19 a8 7e bd 93 88 23 be
       -0.052595828 -0.010581014 -0.06217203 -0.15970068
000020 0e bd d0 3c 74 31 40 3d e9 f4 a5 bd 67 1c e4 3d
       0.025480773 0.046922162 -0.081033535 0.1113823
000030 83 35 1a be 64 52 26 be 25 47 cf bd 78 04 5f bd
       -0.15059476 -0.16242367 -0.101209916 -0.05444762
000040 99 5c 41 bc 7d 9c 02 bd db 4b 9d 3d 33 b1 16 be
       -0.011801862 -0.03188752 0.07680484 -0.14716034
000050 e6 a0 af 3c 60 da e0 37 9a 6b 5c 3d 3c ba 30 3e
       0.021439027 2.680457e-05 0.053813554 0.17258543
000060 e4 8d d8 3d 33 22 b8 bd bc 29 0c be e3 a2 48 bd
       0.105739385 -0.08990898 -0.13687795 -0.048983466
000070 19 49 a5 bd 20 b7 6f 3d 26 67 ba ba dc 5c 0e 3e
       -0.08070583 0.05852425 -0.0014221414 0.1390261

6.weight f4 [2, 32]
000000 30 46 99 3d 88 60 e8 bc 02 76 48 3c 7a 9c 44 3d
       0.0748409 -0.028366342 0.0122351665 0.04800079
000010 3d 79 c4 bc af 8f 0b 3e ee de 12 be 8e 23 a0 3d
       -0.023983592 0.1362903 -0.14342853 0.078192815
000020 ff 4a d9 bd 57 f6 19 be b9 6b e8 bc fd 1f bb 3d
       -0.106100075 -0.15035377 -0.028371679 0.09136961
000030 1f 76 ef 3d c1 31 15 3d 55 47 f6 bb cc 6a 89 bc
       0.11692452 0.036424402 -0.0075158277 -0.016774558
000040 e2 74 82 bd aa 75 48 bc be 3b 16 bc c6 dd 11 3e
       -0.0636995 -0.012235085 -0.009169517 0.14244756
000050 5c 90 d0 3d 02 7d 0c be 1c 6b c1 bb 66 4b d9 bd
       0.10183784 -0.13719562 -0.005902661 -0.10610084
000060 92 77 b6 bc fe b1 07 be e4 b6 1b 3d d2 41 09 be
       -0.022273812 -0.13251492 0.038016215 -0.13404015
000070 77 87 2a 3e 2c 77 0c 3e 00 d6 ef bd ea 90 27 be
       0.16653238 0.13717335 -0.11710739 -0.16363874
000080 7c 5a c3 3a 9b 0d 5b bd fa 51 3b 3d 4a 55 00 be
       0.0014904286 -0.053479772 0.045732476 -0.12532535
000090 20 60 98 3d 77 d8 15 be f3 57 b4 bd a5 ff ad bd
       0.074402094 -0.14633356 -0.088058375 -0.08496026
0000a0 df b3 a1 3d aa 78 15 bc cb c9 25 be d4 77 d9 bd
       0.07895636 -0.009123007 -0.16190259 -0.106185585
0000b0 cf 39 97 bd 79 c7 1f be d4 1a 72 3c 17 10 8f 3d
       -0.07384073 -0.15603437 0.014776904 0.06985491
0000c0 52 ea c8 bc 26 7b 97 bd cb df 86 bb 75 9b 07 be
       -0.024525795 -0.073965356 -0.0041160337 -0.13242896
0000d0 3d 01 d9 bd 77 d1 07 bc f8 91 27 3e 56 61 69 bd
       -0.10595939 -0.008289686 0.16364276 -0.056977592
0000e0 30 97 a7 3d 05 5a 7c bd 43 39 20 bd 07 95 25 be
       0.081831336 -0.061609287 -0.03911711 -0.1617013
0000f0 40 cc 0d 3e 52 71 2c 3e 65 c2 07 bc a4 52 e0 3d
       0.13847446 0.16840103 -0.008286093 0.109532624

6.bias f4 [2]
000000 f2 1d 17 3e bf b7 ad 3d
       0.14757517 0.084823124

exp_avg f4 [32, 2]
000000 86 50 29 39 dc 44 1e 3a e8 a8 f5 38 a0 33 b4 b8
       0.00016147093 0.00060374825 0.000117139716 -8.592685e-05
000010 11 dc 40 ba 4f 28 71 ba 82 71 c2 b8 84 5d be 38
       -0.0007357011 -0.0009199427 -9.271783e-05 9.077325e-05
000020 72 74 31 3a 81 2e d0 ba 61 b4 26 ba 1c 53 c5 b9
       0.0006769366 -0.0015883 -0.0006359276 -0.0003763669
000030 a9 93 a2 39 f0 42 6f 3a 1b 56 10 b8 82 5f 50 ba
       0.00031009063 0.0009127101 -3.4412467e-05 -0.0007948802
000040 64 fe f1 b8 d7 cc 3a 39 5d c7 9b b7 53 5c 28 37
       -0.000115391595 0.00017814651 -1.8570276e-05 1.0035076e-05
000050 8a b7 99 b7 1c c2 96 b6 5d 58 e1 b5 87 24 cf 37
       -1.8324488e-05 -4.4929457e-06 -1.6789523e-06 2.4693332e-05
000060 d1 0c 9a 36 dc 4e 84 b6 99 6c 11 39 b7 bf 71 b9
       4.5910497e-06 -3.943087e-06 0.00013868733 -0.0002305497
000070 b9 53 ec 38 b3 fe ea b9 a1 28 29 b8 a6 67 ae ba
       0.000112689515 -0.00044821724 -4.033058e-05 -0.0013306036
000080 50 e8 9e 38 a7 fa d9 b7 45 06 45 b9 35 e9 cb 38
       7.577299e-05 -2.5985135e-05 -0.0001878972 9.7232325e-05
000090 2d 39 d2 b9 97 7f ce 38 77 9f 51 b9 55 7f a6 39
       -0.0004009692 9.846611e-05 -0.00019991198 0.00031756857
0000a0 6c 35 1d 3a c0 b2 8f 3a 5b 10 40 3a fb f5 58 3a
       0.0005997035 0.0010963306 0.0007326656 0.00082764
0000b0 4b 86 56 3a 2e cc 14 3b 0e aa 02 39 c1 7d 87 38
       0.00081834634 0.0022704708 0.00012461116 6.460725e-05
0000c0 51 2c 0e b9 2f e9 3c 39 66 24 b2 b8 83 58 67 39
       -0.00013558684 0.00018015945 -8.494481e-05 0.0002206285
0000d0 4b c1 e8 b9 ff 91 ba b9 15 09 65 3a 59 fe 43 3a
       -0.00044394503 -0.0003558546 0.000873701 0.00074765604
0000e0 e5 94 80 38 ab f8 7d 39 25 7d 5f 39 07 d1 aa 3a
       6.1312494e-05 0.00024220596 0.00021313557 0.0013032266
0000f0 08 a9 57 b9 49 e2 de 39 61 41 52 b9 d7 d1 84 39
       -0.00020566967 0.00042511735 -0.00020051516 0.00025333345

exp_avg_sq f4 [32, 2]
000000 ba 22 8f 31 6b 3a 54 32 d0 2c 59 30 d2 d6 80 2f
       4.1657957e-09 1.2353307e-08 7.900782e-10 2.3435703e-10
000010 3f 92 c4 32 9e 43 cf 32 bf a8 28 30 fc 90 fa 2f
       2.2883908e-08 2.412872e-08 6.1357847e-10 4.5577753e-10
000020 7c d2 99 32 f2 2c c2 33 30 57 88 32 5a a5 c3 31
       1.7907261e-08 9.0420045e-08 1.5872132e-08 5.6940452e-09
000030 20 a4 43 32 83 7a f5 32 7c dd 7e 31 25 ef 0b 33
       1.1387812e-08 2.8577466e-08 3.7087764e-09 3.258096e-08
000040 d9 ff 88 30 70 cc b6 30 44 9b 15 2d 08 43 2f 2c
       9.968019e-10 1.3300347e-09 8.504145e-12 2.4906206e-12
000050 db ad 11 2d 8c ae 0d 2b ca 81 b7 2e 96 ea ef 2e
       8.280899e-12 5.0335495e-13 8.344932e-11 1.09101325e-10
000060 62 0a 50 2f ca 38 3d 2f 5c cf d1 30 e0 2c 52 31
       1.8921179e-10 1.7209625e-10 1.5265686e-09 3.058453e-09
000070 5b 19 81 31 f4 7a 02 32 10 7a 92 31 21 58 a0 33
       3.7572767e-09 7.594952e-09 4.263036e-09 7.466611e-08
000080 f5 00 2d 31 90 cd 3f 30 6a cd ab 30 a6 e2 03 32
       2.5175357e-09 6.9777517e-10 1.250027e-09 7.6767375e-09
000090 c1 6c 0b 32 58 0b c4 30 20 d7 d9 30 e3 ef a3 31
       8.115593e-09 1.4264101e-09 1.584997e-09 4.7711963e-09
0000a0 a1 6f 37 32 fc 3e 99 33 6d 12 85 32 8d d6 75 33
       1.0677383e-08 7.1360745e-08 1.5491617e-08 5.723864e-08
0000b0 55 63 07 33 cd cd 45 34 48 ee 8b 30 a3 77 c3 2f
       3.152248e-08 1.8421925e-07 1.0181305e-09 3.55553e-10
0000c0 6b f3 43 30 b4 fd 02 31 a0 43 15 31 5b 39 b2 31
       7.1286504e-10 1.9061703e-09 2.1720794e-09 5.1870024e-09
0000d0 18 6e aa 31 11 a3 49 32 69 a9 db 32 d2 63 4d 33
       4.9601674e-09 1.1736817e-08 2.5571994e-08 4.7821068e-08
0000e0 a4 8a 28 31 34 05 28 31 be b3 aa 31 82 b3 6a 33
       2.4526026e-09 2.4450175e-09 4.9680855e-09 5.4645632e-08
0000f0 88 d6 9d 30 fd 32 d1 31 a0 22 c4 30 46 98 40 31
       1.1484227e-09 6.0884973e-09 1.4270718e-09 2.8026235e-09

exp_avg f4 [32]
000000 ae 55 1b 39 1d 71 59 b9 9f c1 2b b9 11 d6 05 38
       0.0001481387 -0.0002073687 -0.0001637996 3.1909036e-05
000010 99 b5 8e 3a 37 75 26 ba 99 e4 8d b9 e3 3e 84 39
       0.001088786 -0.0006349864 -0.00027063934 0.00025223856
000020 4e 39 a0 39 0b 6f 0a b8 19 93 26 b8 e5 47 17 b8
       0.00030560273 -3.300518e-05 -3.971448e-05 -3.6068162e-05
000030 64 e8 a1 b8 44 2a e3 b8 51 6e 5a 39 b8 51 21 3a
       -7.7203644e-05 -0.00010832076 0.00020831196 0.00061538396
000040 29 23 da b7 7d 3b d9 38 dd 8c 8a b9 b2 30 9c b9
       -2.6003998e-05 0.00010358447 -0.00026426362 -0.0002979092
000050 00 31 e3 38 ae 49 6e 3a 70 44 ed 39 cd 23 58 38
       0.000108333305 0.00090899586 0.00045255153 5.1531755e-05
000060 50 b0 85 b9 64 ad 09 b9 ed 26 98 b9 9b 75 57 3a
       -0.000254991 -0.00013129931 -0.000290207 0.00082191237
000070 9d 0e 1d b9 01 0f 7a ba 02 62 dc b9 d7 9d 91 b9
       -0.0001497813 -0.0009538979 -0.0004203469 -0.00027774155

exp_avg_sq f4 [32]
000000 65 bb d8 31 a1 5d bf 30 0e d6 9a 32 ac 34 94 2f
       6.3077317e-09 1.392369e-09 1.80253e-08 2.695847e-10
000010 a8 00 58 33 37 ca 7d 32 a3 f9 28 32 82 92 02 32
       5.0292016e-08 1.47725165e-08 9.835648e-09 7.600308e-09
000020 9e e5 62 31 07 f1 eb 2d d6 c0 2a 2e 66 23 5d 2f
       3.301785e-09 2.6823445e-11 3.8824798e-11 2.0112409e-10
000030 4e 7e bf 2f 48 6d d9 30 ab 73 8a 31 04 9d a5 32
       3.4832442e-10 1.5819888e-09 4.0294785e-09 1.927993e-08
000040 64 a8 2e 31 c2 c6 b4 31 af 50 87 32 48 1f 7f 31
       2.5416051e-09 5.2612856e-09 1.5752759e-08 3.7125165e-09
000050 aa 0f 8c 32 d6 73 44 33 f0 10 43 33 58 0d 00 30
       1.6305268e-08 4.574016e-08 4.541738e-08 4.658509e-10
000060 db c0 2f 31 96 a1 cc 31 94 44 7a 32 e7 4d 34 33
       2.5575477e-09 5.9555516e-09 1.4567508e-08 4.1980368e-08
000070 b0 13 89 31 c9 48 14 33 fd f4 b7 31 0d 8a 3f 31
       3.989463e-09 3.4525133e-08 5.353853e-09 2.787263e-09

exp_avg f4 [32, 32]
000000 4a ce 16 37 cf 93 54 b6 03 1e 60 b6 e0 93 1f b7
       8.988727e-06 -3.1676498e-06 -3.339607e-06 -9.511568e-06
000010 05 bf b9 b6 6f 64 19 36 54 c0 93 b5 c2 80 ed b6
       -5.5356672e-06 2.2857237e-06 -1.1008328e-06 -7.07814e-06
000020 df d9 1a 33 15 0b df b6 b9 71 0b b7 e5 4f b2 b6
       3.605407e-08 -6.647208e-06 -8.311524e-06 -5.3141143e-06
000030 39 f9 0f b7 66 63 cf b6 31 fc 24 37 04 82 e0 35
       -8.581491e-06 -6.1806522e-06 9.83388e-06 1.672714e-06
000040 0d ce 40 36 56 ae 19 b7 0c 28 d6 b6 67 7c 51 b6
       2.8730167e-06 -9.160101e-06 -6.382359e-06 -3.1215839e-06
000050 d3 a2 b4 35 da c4 10 b7 53 d9 89 b6 42 87 c2 b6
       1.3458433e-06 -8.628902e-06 -4.108218e-06 -5.7973966e-06
000060 6f 1e 99 31 47 ff 6b b6 f9 b3 fd b4 9f 33 dd b6
       4.456346e-09 -3.516632e-06 -4.725587e-07 -6.5923227e-06
000070 a5 29 e0 b6 0b 5f bd b6 10 dd 57 b6 8e 75 01 b7
       -6.6805683e-06 -5.6437034e-06 -3.2166172e-06 -7.7163695e-06
000080 28 4c 43 39 f1 3c a3 38 b4 e7 1a b8 a3 77 07 b8
       0.0001862502 7.783797e-05 -3.693225e-05 -3.229793e-05
000090 8d 2c 0b b7 c0 12 9b 37 37 6e c0 38 cb 14 93 b6
       -8.295418e-06 1.8486171e-05 9.1758026e-05 -4.383362e-06
0000a0 79 f5 c1 38 9c 10 24 b7 9d e9 31 36 17 eb 6f b7
       9.24868e-05 -9.779029e-06 2.6511036e-06 -1.4300246e-05
0000b0 be 5e 1b b7 9c 09 01 b8 2b 4c e4 36 fd b5 b2 b8
       -9.260779e-06 -3.0764946e-05 6.8037966e-06 -8.5215994e-05
0000c0 f0 9e 20 37 48 4d 6e b6 5e da da 38 24 81 04 37
       9.573749e-06 -3.5509747e-06 0.00010435724 7.897881e-06
0000d0 30 8c be b6 0b 81 1d 39 6d d8 1e b8 bb 98 89 b6
       -5.678761e-06 0.00015020759 -3.7871698e-05 -4.1006983e-06
0000e0 db 19 6b b5 5a 15 05 b9 98 af c5 b7 f6 16 9c 38
       -8.7581947e-07 -0.00012691822 -2.3565997e-05 7.4429365e-05
0000f0 d5 a0 e3 37 98 05 80 b8 5f 26 4c 36 ba ed ae b6
       2.7135402e-05 -6.1045575e-05 3.0420704e-06 -5.213279e-06
000100 f4 c4 94 b9 1a 56 68 39 3a 82 80 39 78 48 d5 37
       -0.000283755 0.0002215732 0.0002451109 2.5425325e-05
000110 dd f9 75 b8 18 c1 91 b9 84 30 da b9 ee a7 66 b9
       -5.8645255e-05 -0.0002780042 -0.00041616347 -0.00021997068
000120 d5 ef e0 b9 ec 31 b3 b6 b9 45 a3 b6 ec 85 8f 37
       -0.00042903298 -5.3404274e-06 -4.8658953e-06 1.710929e-05
000130 b4 a0 5e 39 ac 14 d9 39 a1 92 c8 39 dc 2d 92 b9
       0.00021231436 0.00041404867 0.0003825622 -0.00027881458
000140 b4 63 87 b9 df 70 be 37 8b 03 ac b8 cd fd 14 b7
       -0.0002582349 2.2702325e-05 -8.202259e-05 -8.88058e-06
000150 54 48 08 b8 a9 b0 f0 37 d1 be 54 b9 d9 ee f6 b6
       -3.2492288e-05 2.8692493e-05 -0.0002028898 -7.359177e-06
000160 10 b7 e9 37 e6 a3 e7 39 ed f1 93 39 4c c3 d1 b7
       2.786101e-05 0.00044181867 0.00028218274 -2.5005684e-05
000170 ab 75 03 b9 d3 7e 7e b9 f0 ca c2 b5 ee 68 c7 36
       -0.00012536968 -0.00024270573 -1.4513189e-06 5.9428776e-06
000180 74 e8 83 b9 2b 57 d6 b8 77 a4 ed b8 57 0f 67 37
       -0.00025159458 -0.000102205515 -0.000113316746 1.37722445e-05
000190 df 8b 88 b2 07 3c 84 b5 b6 fc 54 b9 ca 62 2b b8
       -1.589609e-08 -9.852237e-07 -0.00020312038 -4.086158e-05
0001a0 a9 2d 6f b9 29 ed 69 b6 b9 62 0a 37 bb 33 43 37
       -0.00022809826 -3.485775e-06 8.248427e-06 1.163495e-05
0001b0 10 b6 95 b4 a1 0a d0 36 44 f7 c6 b6 f0 17 2b b7
       -2.788588e-07 6.2001204e-06 -5.9296453e-06 -1.0197968e-05
0001c0 da d3 7c b6 34 60 c1 36 32 24 60 b9 bc 42 94 36
       -3.767424e-06 5.7630477e-06 -0.00021375788 4.4185126e-06
0001d0 0b 95 7e b8 84 bd 35 b9 3b 49 c1 b7 48 89 1f 37
       -6.0697126e-05 -0.00017332105 -2.3041493e-05 9.509102e-06
0001e0 05 d5 a4 35 e3 02 9e 38 13 2d b7 b8 19 35 7e b8
       1.2280949e-06 7.534565e-05 -8.734516e-05 -6.060777e-05
0001f0 20 b9 dd b8 ef 57 d2 36 d0 e5 91 b6 83 28 f0 b5
       -0.000105725834 6.2687245e-06 -4.3480904e-06 -1.7893184e-06
000200 87 bf cf 37 bb 00 dc 36 f9 7a 02 39 6e db 78 b7
       2.476551e-05 6.556596e-06 0.00012443577 -1.4833042e-05
000210 73 d6 e3 b6 60 d8 22 b7 80 8e 15 39 f9 5b 03 38
       -6.7900924e-06 -9.706331e-06 0.00014262833 3.131849e-05
000220 a3 9d 2e 39 b3 47 0a 37 fe 42 a9 36 f4 78 a3 b6
       0.00016652657 8.242135e-06 5.0443914e-06 -4.8718593e-06
000230 ba 87 3b b8 ca 37 6c 37 f9 62 17 b7 0d 82 6e 38
       -4.471068e-05 1.4079686e-05 -9.023345e-06 5.686474e-05
000240 49 95 82 36 1f e9 35 b7 97 82 e5 38 2d b4 ba b6
       3.891681e-06 -1.0842718e-05 0.00010943895 -5.564207e-06
000250 d8 41 a4 38 20 df 95 b6 f2 e7 45 38 6a b6 50 36
       7.832394e-05 -4.466521e-06 4.7184476e-05 3.1100594e-06
000260 65 66 39 b6 c3 69 d3 33 1a 9d 1d 38 97 87 f0 b6
       -2.762675e-06 9.844691e-08 3.757803e-05 -7.168342e-06
000270 c6 2e bc 38 b4 ab 49 38 84 4e 3f b6 5e f1 1c b7
       8.973251e-05 4.8082045e-05 -2.850692e-06 -9.354522e-06
000280 44 ee 2e 39 36 6e 1c 39 7d 1c ac 39 43 8b 57 38
       0.00016682694 0.00014918376 0.00032827622 5.1389692e-05
000290 c1 16 d0 36 2a 4b 0b b8 ce ea 5e 39 43 7b c3 37
       6.201532e-06 -3.3210184e-05 0.00021259041 2.330321e-05
0002a0 97 3b 6a 39 65 c4 1a 37 ff f0 9f b5 1d 21 9d 37
       0.00022338178 9.224842e-06 -1.1916562e-06 1.8731278e-05
0002b0 ce 2c 0c b6 c8 fe 13 b5 ba f6 78 36 b7 7f 60 38
       -2.0887705e-06 -5.5132523e-07 3.7098494e-06 5.3524705e-05
0002c0 44 2d 90 b7 22 dd d9 37 44 ee a5 39 51 fd 0f b6
       -1.7187216e-05 2.5971389e-05 0.00031648774 -2.145611e-06
0002d0 8c 59 b0 38 4a a4 61 38 24 ee 5d 38 12 69 26 b7
       8.4090134e-05 5.3797186e-05 5.291229e-05 -9.918835e-06
0002e0 8b fb 09 b6 01 31 d2 38 7a d5 a8 39 22 a7 ee b7
       -2.0561008e-06 0.00010022708 0.0003220251 -2.8449638e-05
0002f0 51 b4 0c 39 c3 5e 4a 38 3a a8 1c b7 cb bb 06 37
       0.00013418614 4.8248807e-05 -9.337493e-06 8.030746e-06
000300 ff 6a ee 3a 95 0d 09 39 ed 93 f5 b9 c1 00 c5 b8
       0.0018189846 0.00013070398 -0.00046840255 -9.3938324e-05
000310 bd 64 9d ba ae 3e 23 3a 7a 2a d1 38 41 f7 ee b9
       -0.0012008172 0.00062272965 9.9738085e-05 -0.00045579116
000320 2c 49 d9 38 a1 3a 16 b5 45 97 51 b6 18 d5 1b b8
       0.00010360996 -5.596467e-07 -3.1231477e-06 -3.715334e-05
000330 b0 bc d5 b9 48 32 0a bb f4 6b 46 bb 53 ad 36 bb
       -0.0004076711 -0.00210871 -0.0030276747 -0.0027874305
000340 6b 42 15 3a 63 28 99 b7 fd df ac 3a 2b 42 66 b8
       0.0005693796 -1.8257828e-05 0.0013189312 -5.4897897e-05
000350 6e c8 a0 ba 1b fc 54 3a 99 d8 c4 ba e2 8a 8b 37
       -0.0012266764 0.0008124725 -0.0015018164 1.6634764e-05
000360 22 51 6e ba d3 b6 98 ba 74 10 ab b8 4d f0 c8 39
       -0.0009091069 -0.0011651166 -8.15698e-05 0.0003832601
000370 77 9d d8 b9 e9 e1 17 bb f7 fd 27 b9 94 7c f0 b8
       -0.0004131605 -0.0023175424 -0.0001602097 -0.00011467296
000380 c2 47 5f 37 cc db 38 39 63 aa b2 38 0c 57 12 39
       1.3308543e-05 0.00017629488 8.5194384e-05 0.00013956073
000390 e5 0d ce b6 8d 96 03 b7 d1 b0 ad b9 05 8c 7c b8
       -6.140896e-06 -7.843261e-06 -0.0003312887 -6.0211885e-05
0003a0 c0 5a b9 b9 28 b3 17 b6 98 45 dc 36 8e 87 42 38
       -0.00035353564 -2.2605036e-06 6.5646127e-06 4.637945e-05
0003b0 d5 e4 66 39 c4 86 7a 38 fd fe 72 38 46 1b 24 b9
       0.00022019756 5.9730155e-05 5.7934772e-05 -0.00015650419
0003c0 67 cc 87 b5 81 23 39 38 f1 b5 fc b7 17 a2 69 b5
       -1.0117773e-06 4.4140503e-05 -3.0125464e-05 -8.7035136e-07
0003d0 31 d7 16 b9 8d a9 a5 37 f2 bb 04 b9 db b6 12 b7
       -0.0001438528 1.9748486e-05 -0.00012658516 -8.7448525e-06
0003e0 67 ae 04 b7 22 e6 cc 39 e1 0d c0 39 66 ac a1 b7
       -7.908419e-06 0.00039081374 0.00036631434 -1.9272975e-05
0003f0 85 7d 24 b9 43 f0 fc b8 1e d2 2a 36 d8 61 b1 36
       -0.00015687018 -0.000120610486 2.5454278e-06 5.2864016e-06

exp_avg_sq f4 [32, 32]
000000 68 b9 0c 2c 98 c3 8d 2a 85 64 9d 2a 3a 82 1d 2c
       1.9998118e-12 2.5182352e-13 2.7958552e-13 2.2383332e-12
000010 a5 77 56 2b a0 ef 14 2a a4 7a 0f 29 85 dc ae 2b
       7.6194113e-13 1.3228177e-13 3.1858752e-14 1.242465e-12
000020 9d f6 d3 25 99 4f 9a 2b a1 c7 f0 2b 5e be 45 2b
       3.6769777e-16 1.0964451e-12 1.7108434e-12 7.0252647e-13
000030 5a 4e 00 2c 8c 82 85 2b a4 53 28 2c 6e 7b a1 29
       1.8233388e-12 9.486452e-13 2.3920666e-12 7.171248e-14
000040 8e c6 69 2a 22 1f 12 2c 6e 51 8e 2b 5a b7 89 2a
       2.0763445e-13 2.076513e-12 1.0112308e-12 2.4463314e-13
000050 5c 83 53 29 e8 b8 01 2c 55 40 ed 2a 4b 19 6b 2b
       4.6965348e-14 1.8434646e-12 4.2144296e-13 8.352387e-13
000060 49 af 16 23 29 56 ae 2a b2 a9 ed 27 29 c9 97 2b
       8.168634e-18 3.0968395e-13 6.59647e-15 1.0785028e-12
000070 1e db 9b 2b 63 de 5e 2b 95 21 92 2a 68 a8 cf 2b
       1.107423e-12 7.9178867e-13 2.5958112e-13 1.4754977e-12
000080 4d 5f c8 32 75 4b 11 32 07 2f 81 32 30 da 55 2f
       2.3326402e-08 8.457268e-09 1.5038962e-08 1.9449753e-10
000090 ec d9 ef 2b 57 1e 06 2e af d0 92 32 ca 47 3d 30
       1.7042457e-12 3.049502e-11 1.7091535e-08 6.885982e-10
0000a0 ff 6c a7 32 d7 75 26 2c 8a 79 47 2a 3e 37 a3 2e
       1.9490924e-08 2.3655433e-12 1.7716918e-13 7.422195e-11
0000b0 ca 17 41 2d 46 bc 62 2f b8 e3 a3 2b b9 b9 7d 30
       1.0976062e-11 2.0621468e-10 1.1645051e-12 9.230479e-10
0000c0 09 bc b7 2d 51 d3 00 2f e2 a6 ef 32 f3 7f d9 2b
       2.0888196e-11 1.1716607e-10 2.7899151e-08 1.545429e-12
0000d0 08 df e3 30 5d 59 1a 32 8e b5 27 30 0c 64 ec 2a
       1.6579813e-09 8.984299e-09 6.101225e-10 4.1991443e-13
0000e0 20 66 b9 28 6d 8a be 30 c3 3e 84 32 92 72 93 30
       2.0583416e-14 1.3863662e-09 1.5395363e-08 1.072822e-09
0000f0 9b 4a ae 31 8c 1c 23 30 13 de 82 2a 66 5b 3e 2b
       5.072548e-09 5.933962e-10 2.3246734e-13 6.76284e-13
000100 71 4a 2e 32 f7 5a 6f 31 92 e6 58 32 d6 41 fe 2e
       1.0145059e-08 3.4830785e-09 1.262528e-08 1.15622775e-10
000110 e3 94 ff 30 5e 5a 12 31 c7 c7 e3 32 e4 14 ca 31
       1.8596008e-09 2.1297164e-09 2.6517126e-08 5.8813487e-09
000120 86 c2 fc 32 bc b1 47 2b aa fc 25 2b f4 c5 46 2e
       2.942512e-08 7.094566e-13 5.897042e-13 4.5195805e-11
000130 b5 2e a4 30 6e 4d 04 32 20 1b 24 32 97 5f 01 33
       1.1945845e-09 7.701017e-09 9.552224e-09 3.012209e-08
000140 0f 36 fd 30 0c 88 9b 2e d9 55 09 32 af 15 07 2c
       1.8423537e-09 7.072751e-11 7.993969e-09 1.919669e-12
000150 ac 05 1a 32 16 f1 15 31 e6 ff 5e 32 e8 95 2b 2c
       8.965269e-09 2.1819395e-09 1.2980285e-08 2.4383776e-12
000160 64 b5 08 30 1d bb 15 32 b8 6e de 31 0c a9 85 2f
       4.9734283e-10 8.715486e-09 6.4736376e-09 2.4312674e-10
000170 ac 8e 19 32 c2 d6 b8 32 bd b7 70 29 61 53 34 2c
       8.938212e-09 2.151808e-08 5.3450073e-14 2.5625823e-12
000180 17 c7 37 32 b9 02 b6 31 e2 f2 dd 31 8b 44 84 2f
       1.069727e-08 5.2972067e-09 6.459559e-09 2.4059363e-10
000190 a8 82 2e 25 35 7d 13 2a 58 95 db 31 ac e6 16 2f
       1.5136362e-16 1.3099663e-13 6.3907173e-09 1.3724372e-10
0001a0 85 22 01 32 1c 52 ab 2a f7 26 ed 2b db 20 be 2e
       7.516637e-09 3.0432677e-13 1.6850678e-12 8.646036e-11
0001b0 b0 42 43 27 18 82 94 2d 52 e2 75 2b 29 93 48 2c
       2.7097838e-15 1.6883425e-11 8.735557e-13 2.85034e-12
0001c0 50 cf 1a 2b 64 10 06 2f c0 32 67 32 b6 0f 09 2b
       5.4999495e-13 1.2193052e-10 1.3457509e-08 4.869398e-13
0001d0 88 89 d3 2f ff 38 a9 31 f0 0d fa 2d 60 6d 1d 2c
       3.8478398e-10 4.925027e-09 2.8427899e-11 2.2371757e-12
0001e0 a6 28 31 29 35 c8 e6 2f 7b 95 1c 32 e0 0d 06 30
       3.9337152e-14 4.1979012e-10 9.114383e-09 4.8768634e-10
0001f0 97 1b fc 30 f9 a7 8d 2b af c2 04 2b f7 38 b8 29
       1.8343255e-09 1.0065274e-12 4.7166e-13 8.181123e-14
000200 1d 75 cb 2f 72 35 73 2f 03 40 40 31 74 81 8f 2d
       3.70087e-10 2.2119709e-10 2.7976064e-09 1.6314707e-11
000210 85 fb a0 2b b3 00 24 2c 40 8b bd 30 a6 ee 17 2e
       1.1438494e-12 2.330619e-12 1.3791137e-09 3.4545387e-11
000220 9d 25 ee 30 be ca ec 2b eb 4c 32 2b b3 18 01 2d
       1.732747e-09 1.6825081e-12 6.334505e-13 7.338285e-12
000230 21 d5 99 2e 32 4d f5 2f d3 0a cd 2e 34 78 5e 2f
       6.995494e-11 4.462009e-10 9.3242435e-11 2.0233487e-10
000240 61 19 d5 2a 56 4b 11 2d 3e 8f cf 30 ca ab 58 2b
       3.785401e-13 8.259024e-12 1.5101944e-09 7.697702e-13
000250 6d c1 15 30 ec 9a 5a 2e 08 b5 12 2f 75 b6 88 2a
       5.448076e-10 4.970506e-11 1.3342938e-10 2.4285058e-13
000260 2c 61 58 2a 98 59 b2 30 7f 0d ed 30 b1 30 3c 2c
       1.9218367e-13 1.2976669e-09 1.7247855e-09 2.6743436e-12
000270 92 20 3c 30 32 e8 0d 2f 9c 33 66 2a 27 5e 18 2c
       6.8440287e-10 1.2906368e-10 2.0446009e-13 2.1652764e-12
000280 9c c2 95 31 9c e7 12 31 7e 8d d3 31 24 35 06 2f
       4.3585953e-09 2.137745e-09 6.156994e-09 1.2206108e-10
000290 78 a9 95 2b 09 d7 48 2e f8 a1 96 31 ec 4b 68 2f
       1.0634124e-12 4.5665725e-11 4.3839883e-09 2.112725e-10
0002a0 9c 38 aa 31 de 2f 14 2c 31 26 27 29 09 7f c6 2d
       4.954087e-09 2.1058637e-12 3.7114575e-14 2.2566409e-11
0002b0 4e 84 f9 29 19 e8 e1 2b 66 fc c6 2b 50 e3 e2 2f
       1.10807725e-13 1.6051632e-12 1.4138801e-12 4.1270676e-10
0002c0 85 21 cc 2d 4f e7 04 2e f2 c4 06 32 04 84 03 2a
       2.3207e-11 3.021877e-11 7.844607e-09 1.168094e-13
0002d0 72 b9 18 30 3a 02 a5 30 f7 a3 91 2f c9 dd 31 2c
       5.556081e-10 1.2005963e-09 2.649185e-10 2.5276328e-12
0002e0 34 e9 f1 29 9e 91 f8 2f 35 e1 d4 31 2c 0e e1 2e
       1.0743004e-13 4.5214404e-10 6.195615e-09 1.0234333e-10
0002f0 98 17 d0 30 2d 74 a4 2f be d0 17 2c 36 d9 e0 2b
       1.5140698e-09 2.9913974e-10 2.1574266e-12 1.5976445e-12
000300 09 35 15 34 a0 57 31 32 56 51 54 33 25 6e c6 2f
       1.3896e-07 1.032268e-08 4.943407e-08 3.6094253e-10
000310 30 9f 66 33 9f 04 4b 32 03 be cc 33 4c 86 fd 32
       5.369583e-08 1.1817206e-08 9.534053e-08 2.9514148e-08
000320 94 c1 e4 33 47 14 21 28 47 da 89 2a e0 8b a7 2e
       1.0652289e-07 8.941692e-15 2.448755e-13 7.6191276e-11
000330 31 be a0 31 8d 9a 15 34 f6 6d a6 34 1c 82 d3 34
       4.678235e-09 1.3932932e-07 3.0999917e-07 3.939648e-07
000340 fd a1 2a 32 e7 fe a3 2e e4 99 ef 33 ab d4 1e 2f
       9.932134e-09 7.4576616e-11 1.1157297e-07 1.4445571e-10
000350 e3 a7 a3 33 3a ba 18 33 2d 6c 0a 34 b7 82 b6 2d
       7.6208174e-08 3.555963e-08 1.2891606e-07 2.0749054e-11
000360 fa 64 eb 32 df 0b 63 33 f5 80 0e 33 bb fe de 31
       2.740352e-08 5.2863353e-08 3.3179237e-08 6.49001e-09
000370 99 6d 1c 33 a1 03 94 34 41 c0 c0 30 95 38 f0 2f
       3.642126e-08 2.756979e-07 1.402448e-09 4.369595e-10
000380 77 97 3f 32 94 d7 0e 32 28 f2 ec 32 58 df 74 30
       1.1152102e-08 8.314505e-09 2.7584136e-08 8.9084073e-10
000390 9c ce 83 2b a6 83 d6 2b 85 c6 5a 32 ea 5b f4 2e
       9.365455e-13 1.5242154e-12 1.2734408e-08 1.11121626e-10
0003a0 6e a7 7e 32 61 b8 11 2a ce 84 96 2b 0a 4e 9c 2f
       1.4822815e-08 1.2942556e-13 1.0695002e-12 2.8431685e-10
0003b0 26 23 c4 30 57 53 c0 31 3a 6c ff 30 8f 61 cd 30
       1.4270867e-09 5.59741e-09 1.8584452e-09 1.4943441e-09
0003c0 92 15 f4 28 6c cf a2 2f fe 9a be 32 b8 35 b7 28
       2.7098796e-14 2.961501e-10 2.2189393e-08 2.0340378e-14
0003d0 a8 d7 63 31 5d cc 7d 31 b7 f3 56 30 fa 37 05 2c
       3.3155434e-09 3.6932513e-09 7.8199086e-10 1.893151e-12
0003e0 04 14 da 2b 18 43 bb 32 a8 e9 09 33 fd 24 35 2f
       1.5495387e-12 2.1800176e-08 3.2110307e-08 1.6474995e-10
0003f0 0c 97 b2 31 d4 50 79 30 34 19 38 2a 12 b3 43 2b
       5.197654e-09 9.0700536e-10 1.6351227e-13 6.9526427e-13

exp_avg f4 [32]
000000 0f f8 a4 b6 d6 5d 8f b8 55 c1 6f 39 ea 0c 37 b9
       -4.9164587e-06 -6.83625e-05 0.00022864838 -0.00017457051
000010 2a 0e 56 39 d7 29 dd 39 51 de c5 ba f6 dd f5 b7
       0.00020413907 0.00042183578 -0.0015096163 -2.9309635e-05
000020 4b 7c f5 35 50 f4 11 39 4e a8 1e b7 95 68 af b9
       1.8290096e-06 0.00013919291 -9.45672e-06 -0.0003345652
000030 6a 92 ee ba 82 eb 93 3a 3a 3b 9b b9 7e 8d 55 3b
       -0.0018201594 0.0011285397 -0.0002960803 0.0032585557
000040 a2 53 2f b9 06 d3 76 39 17 97 d6 3a d8 84 53 ba
       -0.00016720456 0.00023539 0.0016371933 -0.00080688065
000050 2e f6 c3 3a 27 3c 72 b9 72 6e 23 ba 25 1a 04 b7
       0.0014950687 -0.00023101327 -0.0006234414 -7.8739e-06
000060 82 c9 0b b8 64 3c 0d 3a 3d 73 93 37 35 cd 16 b7
       -3.332785e-05 0.0005387722 1.7577428e-05 -8.988475e-06
000070 ae c4 09 3a 40 19 c6 b9 4c b0 7b ba ca c2 05 ba
       0.0005255443 -0.00037784316 -0.00096011604 -0.0005102573

exp_avg_sq f4 [32]
000000 2a 6e 29 2b 2a c9 f2 32 9f 6b 20 33 55 7f 39 32
       6.0193745e-13 2.8263987e-08 3.7350784e-08 1.0797369e-08
000010 a9 d8 cb 31 a2 f0 3c 32 c0 77 34 34 4e a3 55 33
       5.932709e-09 1.0997754e-08 1.6807371e-07 4.9741452e-08
000020 60 be 9c 33 4c 1b f0 33 19 b4 1b 2c 5e a6 6c 33
       7.298945e-08 1.1180836e-07 2.21268e-12 5.5099342e-08
000030 d0 9d 65 34 95 20 8c 33 2b 3e 45 32 7d 0d df 34
       2.1384699e-07 6.525185e-08 1.1481045e-08 4.15468e-07
000040 5e 2f e8 31 8f 8f 10 34 bd 30 44 34 f0 4a d4 33
       6.7574737e-09 1.3463271e-07 1.8271653e-07 9.88565e-08
000050 7f 7f b8 33 64 67 0b 32 1a a2 c3 32 80 d9 d9 2b
       8.591359e-08 8.114373e-09 2.2774703e-08 1.5479146e-12
000060 10 90 5d 33 ae c0 3b 32 76 fc db 2f 65 b7 0c 2c
       5.1586596e-08 1.0928643e-08 4.0015252e-10 1.9997e-12
000070 d6 b3 d9 33 56 19 87 32 f8 20 fc 32 94 46 a0 33
       1.0137562e-07 1.572759e-08 2.9351654e-08 7.463419e-08
