checkpoints/ablation_standard/ablation_standard_epoch0001.pt (torch, 38139 bytes, 24 tensors)

0.weight f4 [32, 2]
00000000: ccb9 0a3f 4e52 143f fd5b 28be 29f9 273f
00000010: 38a4 18be 8b8c 183e 06d3 b3be f9a0 d53e
00000020: b7c8 1d3f 0816 03bf de0b 1e3f da61 0f3e
00000030: 3991 063f b3a4 b43d 4e5c ac3e 39c3 bdbd
00000040: 4d71 0b3f b2a2 cb3d 09ec a4be 8063 303e
00000050: 65b6 a2be cf82 99bd e047 93be 0d8d f23e
00000060: bc04 0fbf ec7f aabe b775 52be 602b d6be
00000070: 0153 8a3d 722d 31bf 4846 233f 4d07 18bf
00000080: 9b54 0d3f 9c1d e93d 79f9 72be 2d81 e33e
00000090: 258d dd3d f9d2 123f 07da ac3d 829f 6bbe
000000a0: 2d50 403e 6178 4bbe f7c1 963e 91d4 1f3f
000000b0: 8439 d03e 8310 a2be ceb0 cd3e 33bf f23d
000000c0: 031f b43e 5a1e dfbe 2ac3 31bf de2e 8fbe
000000d0: 0f15 0cbf 6146 163f 189d 493e 0666 923e
000000e0: 595f 633e 6924 4fbc 297e 0e3f 2b61 02bf
000000f0: 6fdb 503d f0b8 fabe 3f6e 663e 0867 80be
0.54189754 0.57938087 -0.1644134 0.65614563 -0.14906394 0.14897363 -0.35121936 0.41724375
0.6163439 -0.5120549 0.6173686 0.14002171 0.5256534 0.088204764 0.33664173 -0.092657514
0.5446976 0.09943141 -0.3221133 0.17225456 -0.3177978 -0.07495653 -0.28765774 0.47373238
-0.558666 -0.33300722 -0.20552717 -0.41829967 0.06754113 -0.6920997 0.63779116 -0.5938614
0.5520722 0.11382601 -0.23727979 0.4443449 0.10817937 0.5735317 0.08440023 -0.23010066
0.18780585 -0.1987014 0.29444858 0.62433726 0.4066888 -0.31653222 0.40173954 0.118528746
0.3517991 -0.43577844 -0.6943842 -0.27965444 -0.5471963 0.5870114 0.19688833 0.28593463
0.22204341 -0.012642958 0.55661255 -0.50929517 0.05099052 -0.4896922 0.22502993 -0.25078607

0.bias f4 [32]
00000000: b681 5e3e 1ddd 11be b64c 153f ce27 d4be
00000010: b945 dbbe 7d71 d5be 3d59 243f e9d8 6d3e
00000020: 01a1 2c3f 1458 13bf 6c80 31bf 3435 0cbf
00000030: c012 f0be 81ba 903e cb83 7c3e b4fd 143f
00000040: 4ede b7be 9df4 f2be 9e66 bf3e 3f81 8ebe
00000050: c968 d93e 38bd 32be c333 ce3e 5fa0 0abf
00000060: 85d5 b4be 92b6 563e dd45 1f3e 27ea 3fbe
00000070: e146 d93e 5739 f93e 2b67 01bf 098f bdbe
0.21729168 -0.14244504 0.58320177 -0.4143662 -0.42826632 -0.41688147 0.64198667 0.23227276
0.6743317 -0.5755627 -0.6933658 -0.5476868 -0.46889305 0.2826729 0.2465965 0.5819962
-0.35911793 -0.4745225 0.37382978 -0.27832982 0.42462757 -0.17454994 0.40273866 -0.54150957
-0.35319152 0.20968083 0.15553994 -0.18741666 0.4243689 0.4867656 -0.50548047 -0.3702319

2.weight f4 [32, 32]
00000000: ab93 1d3e 31bf 53bd 651b 60bd 0cfa 26be
00000010: 7aff bebd 015f 143d b872 7dbc d074 f6bd
00000020: bb89 ddba 4df6 e6bd de66 11be 5a08 b7bd
00000030: 6141 16be f72f d6bd 7cc5 2c3e dab4 d03c
00000040: 1a92 3e3d 6ba8 20be 8970 ddbd 8f6f 50bd
00000050: 59d1 a13c 951b 17be 41ae 8bbd 6e68 c8bd
00000060: 70f4 11b7 07d5 6cbd 5ff1 95bb 1efd e4bd
00000070: 5b29 e8bd d6e1 c2bd 3a44 57bd bdb3 06be
00000080: 1264 123e 6943 22bd 174e 173e 1f58 513d
00000090: c01c 11be 2712 ec3d 44f1 5abd 1d7c 95bd
000000a0: c725 1bbe 07c9 2bbe 8d9f 2e3d 3895 25bd
000000b0: eee5 7d3d b3ac 1abe cf71 fc3d 1f0c 09be
000000c0: 06b4 0fbd 4f1c 0b3d 0e75 b13d 20f7 093e
000000d0: 031a 203e 7830 15be 591a 243d 0d69 8bbd
000000e0: a724 3dbc e711 0bbe dc87 203e 38ac 0bbe
000000f0: 5fe3 b73d 4dfc 6b3d 83b8 4a3d 4968 b3bd
00000100: d4d5 1f3e caa0 063d aeb5 8c3c b898 23be
00000110: 934f 893d 1063 e1bc 3cda aebd c2df 163e
00000120: 3143 0f3d 87fa b7bd 22eb a6bd 8f9b 56bc
00000130: 98da ba3d 12c9 55bd 2fc3 ddbd cbc2 86bd
00000140: 4910 08be a3f0 6b3d 6a34 083e 233e 22be
00000150: 8755 123d 143f b23d 1a34 de3c 3664 7fbd
00000160: ec7f ad3d a560 b13d e5e6 753d c646 0bbd
00000170: 33b3 53bd e697 5f3c 6611 bfbc c0af 74bd
00000180: 4f78 f53d 43f2 213e 1ac9 39bc 26f8 0dbd
00000190: 7dca 90ba d148 42bb a108 4a3d 3c10 6a3d
000001a0: 3166 1dbe 319d 6abd 7a44 103e 1d80 943d
000001b0: 1c83 43bb 8616 cfbd a829 cdbd b03c 1abe
000001c0: ea72 4bbd 2c93 833d 1606 f43d cdd5 963d
000001d0: 75f9 18be 4262 cbbd 023e acbc b1ee 263e
000001e0: cef1 903c e409 2dbd 1fea a13d a750 74bd
000001f0: e98e dcbd ba90 fd3d b64d 94bd d571 e1bc
00000200: 32c3 37be 4601 ea3d 1a7a 053e c17c 733d
00000210: 7819 ecbd 707a 2abe 4c28 17be a9ad fe3d
00000220: 5e15 a53d 8427 103e e955 ad3d d8fe 233d
00000230: fa89 923b 883f 09be 3f0e 14be dad0 2dbe
00000240: 9de5 833d 9a6d b9bd 78bb 22bd 2a06 c0bd
00000250: 4980 0ebd cf86 02be 2725 f7bd 819b 4f3d
00000260: 13a4 36bd 3dbb da3d 9f9b 77bd 94e2 02be
00000270: 1e65 0ebd c5b5 b9bd 5ff7 3cbd 3c27 24be
00000280: 7c76 d43d abce f9bd d6ac b43d 8ff9 a03d
00000290: a5d0 f23d cfe9 03be e4bd 053e 9d5a a3bd
000002a0: 06a8 8d3d 61d2 213e c1b9 8bbc 5a41 3ebb
000002b0: 5e39 06bd fc98 10be b449 a03d 6962 30be
000002c0: f394 eb3d 3225 053e 67a5 2f3e 794e 0abd
000002d0: 42cf 11be f0fe 3c3d 1a6a cc3d 3bfe 2bbe
000002e0: b4e0 03bd b32f e2bd 4e48 89bc 820f a3bd
000002f0: baed 8cbd ea84 59bd dcd8 23be 9f5a 0c3e
00000300: 70a9 113e 97f5 0dbd 9218 b8bc 5cd0 a3bd
00000310: 2a1e 1cbe eca7 31be db26 8c3d 3abf bcbd
00000320: 4a2a e3bd a6cb c6bb 558c 50bd 9b1c 85bd
00000330: 2171 563c b9c4 f8bc c877 5cbd 3019 a1bd
00000340: 03d6 14be d0a8 0f3e 94e6 9ebd b6c8 583d
00000350: 1f99 63bd e674 e73b 4b9c 2e3e 1032 ab3d
00000360: 8c54 15be 6744 9c3d a7b9 253e 6ff5 1f3d
00000370: 5cbb fa3d 4f91 383e efad a6bc 6caf 343d
00000380: 2eb5 f1bd 3786 f5bc 2a66 0b3e 0147 c93d
00000390: 0ac2 d4bd bffb 08be a9b9 eebd 1363 2dbe
000003a0: 3f56 07be 338f 12bd 0efe e33d 779a 183d
000003b0: a27b 0bbe b4e7 0fbe d8a7 ac3d 6fb5 01be
000003c0: 57f9 63bc 7d3e bd3d eab2 9bbd 5a95 3bbc
000003d0: a42a 5dbc b672 15bd 8c8b adbd 3d31 19be
000003e0: a027 0abe cbba b8bd b01c 353e 9b98 a4bd
000003f0: 60cd eabd 7822 433d a107 273d 4909 b63d
0.15388362 -0.051696006 -0.054713625 -0.16306323 -0.09326072 0.036223415 -0.015469246 -0.12033999
-0.0016902009 -0.11277447 -0.14199397 -0.0893714 -0.14673378 -0.10458367 0.1687221 0.025476862
0.046526052 -0.15689246 -0.1081248 -0.05088764 0.019753145 -0.14756615 -0.06820346 -0.097855434
-8.699586e-06 -0.057820346 -0.004575893 -0.11181091 -0.11336013 -0.09515731 -0.0525553 -0.13154502
0.14295986 -0.03961507 0.14775883 0.05110943 -0.14171124 0.115269 -0.053452745 -0.07299063
-0.1515113 -0.16775905 0.04263263 -0.04042551 0.061986856 -0.15104942 0.12326395 -0.1338353
-0.035083793 0.033962544 0.086649045 0.13473177 0.15634923 -0.1456927 0.04006419 -0.06807146
-0.011544383 -0.13581048 0.15676826 -0.13639915 0.089789145 0.05761366 0.04949237 -0.08760125
0.15608913 0.032868184 0.017176475 -0.15976226 0.06704631 -0.027513057 -0.08537719 0.14733794
0.034976188 -0.08983331 -0.08150317 -0.0130986115 0.09123725 -0.05219371 -0.10828244 -0.065801226
-0.13287462 0.057602536 0.13301244 -0.15844016 0.035726096 0.087034374 0.027124453 -0.062351428
0.08471665 0.086610116 0.06003465 -0.03400304 -0.05168457 0.013647055 -0.023323726 -0.05973792
0.11985838 0.15815072 -0.01133945 -0.03466048 -0.0011046674 -0.0029645453 0.049324635 0.05714439
-0.15371014 -0.057278816 0.14088622 0.07250998 -0.0029832786 -0.10111718 -0.10017711 -0.15062213
-0.049670137 0.06424555 0.11915223 0.07364998 -0.1493891 -0.099308506 -0.021025661 0.16301991
0.017693426 -0.04224576 0.07905983 -0.05964723 -0.107694454 0.1238112 -0.07241385 -0.0275201
-0.17945555 0.11426024 0.1303486 0.059445146 -0.11528295 -0.16648269 -0.14761466 0.12435467
0.08060716 0.14077574 0.08463652 0.04003796 0.0044720145 -0.13403141 -0.1445856 -0.16974202
0.0644028 -0.09054108 -0.039729565 -0.09376176 -0.03479031 -0.12746738 -0.12067633 0.05068541
-0.044590067 0.10680244 -0.060451146 -0.12781745 -0.0347644 -0.09067873 -0.04613435 -0.16030592
0.103741616 -0.12197622 0.08822028 0.078600995 0.11856202 -0.1288216 0.13060719 -0.079762675
0.069168136 0.1580291 -0.017056348 -0.0029030652 -0.032769553 -0.14120859 0.07826558 -0.1722504
0.11503019 0.1300247 0.1715294 -0.033766244 -0.14239219 0.046141565 0.09981175 -0.167962
-0.032196715 -0.11044254 -0.01675811 -0.07961942 -0.0688128 -0.053105272 -0.16000694 0.13706444
0.14224792 -0.03465804 -0.022472654 -0.07998726 -0.15245882 -0.17349213 0.068433486 -0.09216161
-0.110920504 -0.0060667573 -0.05091508 -0.06499597 0.0130884955 -0.030367242 -0.05382517 -0.07866132
-0.14534764 0.1402924 -0.07758823 0.052925788 -0.05556595 0.007063496 0.17051809 0.08359158
-0.14583033 0.07630234 0.16184102 0.039052423 0.12242767 0.18024181 -0.02034661 0.044112608
-0.118021354 -0.029971225 0.13613191 0.09827996 -0.103885725 -0.13377284 -0.116565056 -0.16932325
-0.13216494 -0.035781097 0.111324415 0.037256684 -0.13621381 -0.14053231 0.08430451 -0.12666868
-0.013914428 0.09240434 -0.076024845 -0.011449182 -0.013498936 -0.03648635 -0.08473882 -0.14960189
-0.13491678 -0.09020003 0.17686725 -0.0803692 -0.114649534 0.047640294 0.04077876 0.0888849

2.bias f4 [32]
00000000: 7ebc a8bd 0255 18be 5ae3 8f3a a286 c7bd
00000010: e349 113e c592 2abe 9cde a83d a256 393e
00000020: 2f59 c03d fb54 813d 99fd 25be 4efd 333e
00000030: 7f0f cebc 30eb 2bbe 0bbc 333e a355 a1bd
00000040: 4647 00bc e6ee 253e 3818 04be 2c4e f1bd
00000050: 4172 cb3c fcc0 fabc 8ab3 3d3d eab5 10be
00000060: 78e3 883a 106c abbd a982 b7bd 8292 1dbe
00000070: 1ff5 b23d bc3f 263d e310 12be 9698 0a3e
-0.08239077 -0.14876178 0.001097779 -0.09742476 0.14188342 -0.1665755 0.08245584 0.18099454
0.093920104 0.06315037 -0.16210021 0.17577097 -0.025153873 -0.16788936 0.17552201 -0.07877662
-0.007829493 0.16204414 -0.12899864 -0.11782488 0.024834754 -0.0306096 0.0463138 -0.14131895
0.0010443768 -0.08370221 -0.08960468 -0.1538792 0.087381594 0.040588126 -0.14264254 0.1353477

4.weight f4 [32, 32]
00000000: 50d7 393d 66f3 223d 49c7 c5bd ca1c 0d3d
00000010: 9cde 343e be87 033e c156 06be 7291 2c3e
00000020: e24c ab3c d217 b93d b76b 043e 91df 153e
00000030: 7a49 11be 69b1 1e3e e4b4 ffbd 8202 d33b
00000040: 55dd edbd 6dbf 04bd 23d3 75ba 3975 59bc
00000050: 0069 0dbd cde8 ae3c 4ce2 373e 46f9 c53d
00000060: a008 c63d 4cc5 963d f5e2 133e 4590 4dba
00000070: b32b a83c f4a6 323d 6628 25be 04d2 16be
00000080: ae76 623c eda3 7dbd bc48 893b 1d02 06bd
00000090: abc9 0a3d 1997 fa3d 7d24 55bd 4d31 183e
000000a0: e86d 163e cefe 03be 869d 03be f664 16be
000000b0: cd7e cebd 9ce6 88bd e05c 95bc 259b 4cbd
000000c0: e175 a7bd b989 4bbd 96c8 67bd 3bba 393e
000000d0: bae6 93bd 60a7 f3bd eaf8 a03d 6610 45bb
000000e0: 02ea 073e bd1a e73d 607c 2d3e b0cc f8bd
000000f0: a83f f63d ff75 1f3e 3c76 c1bd 771b 213e
00000100: 4f0e ff3d 1c85 55bb 6486 a13d 0f13 8bbd
00000110: 46be 1ebe 4fd1 1a3d 06a1 3e3d 6b65 f5bd
00000120: 6d13 a33d 8df0 1ebe 6e9d 133e 431d 283e
00000130: 068f 273d 8891 edbd 85a6 a23d 6611 b63c
00000140: b490 2a3d 4cd5 543d a8c6 023e ddc7 a9bd
00000150: d4ed 13bd 504d 2e3d b753 503c e9cb 093e
00000160: cae0 cabd 93c1 59bc abc9 cd3c 94c8 1fbd
00000170: 0c10 ec3d 4593 5b3c ac20 1fbe ede9 cdbc
00000180: a7e3 93bd 7b83 c53c 0780 5bbc de93 2bbe
00000190: 287f d3bc 47f6 1fbc 681f 3bbd b1ab 2d3e
000001a0: 3baa 00bd fdd0 f33d fedc 123d 8f07 1dbe
000001b0: 51bf 183d 11d2 163e c19f f6bd a4d1 f7bd
000001c0: c4ab 383e 91e5 173e e78e bbbd abe7 e93d
000001d0: 3eee eebc d7ea 2abe cb44 983c 6384 643d
000001e0: 0baf 61bd 5d01 843d 47ea 12be e08e ea3d
000001f0: 31e0 203e 7b5a d63d 902b bb3c 054b 5a3d
00000200: 249c f5bd 4b3d 36bd c8cb c7bc ec23 b9bd
00000210: d910 fbbd 639c e53d 89e4 f73d 5d39 1cbe
00000220: efc0 4d3d 18c7 9b3d 4dc9 233e 9343 d93d
00000230: 8d98 2a3e f5b7 70bd cdbe 043e f81c 1a3e
00000240: f912 31be 3eec 10be a82e ed3c bff6 b53d
00000250: 009e a6bd 86b7 3e3c 5cf3 903b 77c2 163d
00000260: 7ab6 b6bd 7fae cd3d aa6b e03d eedc eabd
00000270: a19e 68bb a07c 79bb 3acf 823d d759 2e3e
00000280: ddcb 333d b056 16bd d909 283e 8eee 72bd
00000290: 4d57 50bd 8a7c 923c f570 0cbe 488a 843c
000002a0: 1a17 f8bd ff5f a03c 7bca 153c 1c83 a13c
000002b0: aef6 1cbe 947d 2abe 61bf 9a3d 1d62 143e
000002c0: 286e 1dbe fba6 853d 4caa fcbd 2720 953c
000002d0: a3ba 213e 0e27 013e 9881 09be aa9c cf3d
000002e0: f00e b13d 80ce f8ba 71ae 273e 84f9 7ebd
000002f0: d745 1bbd 31b4 b1bd fa67 963c 47c7 283d
00000300: c420 d03b d75d bbbd 8a5e acbd f5b6 553d
00000310: 2d8c 16be adcb 0cbd 702c dfb9 be60 82bd
00000320: 2d5b 6a3d bc52 863c 60d5 ed3d 7372 30bc
00000330: f195 dbbd 5073 fc3d ad71 fa3c 7864 33bd
00000340: 5748 debd acb2 373d 7705 2fbe 1da1 223d
00000350: 355d c03d 839d 16be f37d e1bd d5ef f3bd
00000360: f041 1e3e 091a 1c3e 57e3 613b 11c4 213e
00000370: c85f 52bd d49a 27be 6411 8d3d 77fa 8b3d
00000380: 954a 293e 04f3 a1b7 648f 023e 0595 cd3d
00000390: 9eb0 f53d 4c74 2bbe 54e3 0c3e d122 12be
000003a0: 4a1c 1a3e c042 acb8 4e3f 18be 2cd3 283d
000003b0: a9e4 e5bc 3c6a 1abe 43e9 65bd 959c 2a3c
000003c0: 47d0 043e ee0a 3ebd e0b4 c63d fe01 6a3c
000003d0: c45b 75ba c245 d43c bb41 ddbd fa49 0ebe
000003e0: c9f2 42bd f181 20be e384 98bd ddcf 473a
000003f0: 9b1a debd fadc 85bd 9471 c3bc 3a3d 4dbc
0.045371354 0.039782904 -0.09657151 0.034451284 0.17663044 0.1284475 -0.13119031 0.16852358
0.020910684 0.090377465 0.12931715 0.14636065 -0.14188185 0.15497364 -0.12485674 0.006439508
-0.11614481 -0.03240912 -0.000937747 -0.013272577 -0.034523964 0.021351242 0.17957419 0.09666686
0.09669614 0.0736185 0.14442046 -0.0007841627 0.02052865 0.04361625 -0.16128692 -0.14728552
0.013822241 -0.06192391 0.004189579 -0.03271686 0.03388373 0.12235851 -0.05203675 0.14862557
0.14690363 -0.12890169 -0.12853059 -0.14686951 -0.10082779 -0.0668461 -0.018232763 -0.049952645
-0.081767805 -0.04969189 -0.056587778 0.18137448 -0.07221742 -0.118971586 0.078599766 -0.0030069589
0.1327286 0.11284397 0.16941977 -0.12148416 0.1202386 0.15572356 -0.094463795 0.15733133
0.12453901 -0.003258056 0.07886961 -0.067907445 -0.15502271 0.03779727 0.046540283 -0.119822346
0.079626895 -0.1552145 0.14415523 0.16417412 0.040907882 -0.116000235 0.07941917 0.022225093
0.041641906 0.05196123 0.12771094 -0.08290074 -0.036115482 0.0425542 0.012715272 0.13456692
-0.09906156 -0.013290781 0.025120577 -0.039009646 0.11526498 0.013401811 -0.15539807 -0.025135959
-0.072211556 0.024110546 -0.013397223 -0.16755626 -0.025817469 -0.009763307 -0.04568425 0.16960026
-0.031412344 0.11905096 0.035855286 -0.15334915 0.03729183 0.14728571 -0.120421894 -0.12100533
0.18034273 0.14833666 -0.09158116 0.1142114 -0.029166337 -0.16691147 0.01858749 0.055790316
-0.055098575 0.064455725 -0.14347182 0.114530325 0.15710522 0.104664765 0.02284792 0.0532942
-0.11992672 -0.044492047 -0.024389163 -0.09040055 -0.12259073 0.11211469 0.121041365 -0.15256257
0.050232824 0.076063335 0.15994759 0.10608592 0.16659756 -0.058769185 0.1296341 0.15050113
-0.17292394 -0.14152619 0.028952911 0.08884954 -0.08135605 0.011640435 0.004423542 0.03680655
-0.089215234 0.10043048 0.10958035 -0.1146792 -0.003549494 -0.0038068667 0.063871816 0.17026459
0.04389559 -0.036703765 0.16410007 -0.059309535 -0.050864507 0.01788165 -0.13714965 0.016179219
-0.12113781 0.019577025 0.009142513 0.019715838 -0.15328476 -0.16649467 0.07556034 0.14490552
-0.15374053 0.065259896 -0.12337169 0.018203808 0.15793853 0.12612554 -0.13428342 0.10137303
0.08645427 -0.001898244 0.16375138 -0.062249675 -0.0379084 -0.08676947 0.018360127 0.04120567
0.006351562 -0.09148758 -0.084164694 0.052176435 -0.1470191 -0.034373928 -0.00042566983 -0.06366108
0.05721586 0.016396873 0.11612964 -0.010769474 -0.107219584 0.123266816 0.030571783 -0.043796986
-0.108536415 0.04484813 -0.17091928 0.03970443 0.09392778 -0.14708523 -0.11010351 -0.11910979
0.1545484 0.15244307 0.003446778 0.1579745 -0.051360875 -0.16367656 0.068880826 0.06834882
0.16532357 -1.9305859e-05 0.12750012 0.10038189 0.11996578 -0.16743582 0.13758594 -0.14271094
0.15049854 -8.214032e-05 -0.14867899 0.041217014 -0.028063135 -0.15079588 -0.05613066 0.010413309
0.12970077 -0.046397142 0.09702468 0.014282702 -0.00093596824 0.02591217 -0.10803553 -0.13895407
-0.04759482 -0.15674569 -0.07447221 0.00076222216 -0.10844918 -0.065362886 -0.02385787 -0.012526805

4.bias f4 [32]
00000000: e311 b33d 6870 503d 569b 97bd 118d e23d
00000010: 2a51 53bd 1f90 33bc 8803 7dbd 9388 23be
00000020: 51b3 d23c 13fb 3b3d e9f4 a5bd 1c24 e43d
00000030: 8335 1abe 6452 26be 2547 cfbd 2d11 5dbd
00000040: 995c 41bc 5f67 06bd 3d3a 9d3d 33b1 16be
00000050: 1cd1 d63c 609f 1b37 79e0 583d f7b1 303e
00000060: a985 d83d 3322 b8bd bc29 0cbe bc13 4bbd
00000070: 1949 a5bd f5dc 6f3d 34f2 bcba 8139 103e
0.08743646 0.05088845 -0.07402675 0.110620625 -0.051591076 -0.010959654 -0.061770946 -0.15970068
0.02572027 0.04589374 -0.081033535 0.111397 -0.15059476 -0.16242367 -0.101209916 -0.05397146
-0.011801862 -0.032813426 0.07677124 -0.14716034 0.026222758 9.275827e-06 0.05294845 0.17255388
0.10572369 -0.08990898 -0.13687795 -0.049579367 -0.08070583 0.05856033 -0.0014415444 0.14084436

6.weight f4 [2, 32]
00000000: 47db 9b3d 69cf d5bc 900b 4f3c 5a50 473d
00000010: 3239 debc 378e 0b3e 29f8 13be 8e23 a03d
00000020: c905 e1bd 3885 18be b96b e8bc 4fd1 bc3d
00000030: 1f76 ef3d c131 153d 5547 f6bb 5cba 87bc
00000040: e274 82bd 0e8e 57bc 3f83 12bc c6dd 113e
00000050: 099a d93d daa0 0bbe b3c6 c3bb 6072 d4bd
00000060: c68e b4bc feb1 07be e4b6 1b3d be4b 09be
00000070: 7787 2a3e aa54 0a3e 84c3 ecbd d77b 2ebe
00000080: c41e 7339 a059 64bd 82ab 393d 7202 01be
00000090: 03d2 9e3d f8d6 15be 612a b2bd a5ff adbd
000000a0: 3470 a93d 0db4 2cbc cbc9 25be 3529 dbbd
000000b0: cf39 97bd 79c7 1fbe d41a 723c 53a3 8e3d
000000c0: 52ea c8bc f794 95bd 9450 8ebb 759b 07be
000000d0: 6624 e2bd d197 15bc 01a6 273e e617 73bd
000000e0: ea1c a73d 055a 7cbd 4339 20bd 868a 25be
000000f0: 40cc 0d3e 3391 2e3e 545f 20bc fe27 ee3d
0.07610183 -0.026099877 0.012637034 0.048660614 -0.027126882 0.1362847 -0.14450134 0.078192815
-0.109874316 -0.14894569 -0.028371679 0.0921961 0.11692452 0.036424402 -0.0075158277 -0.016568355
-0.0636995 -0.013156427 -0.008942424 0.14244756 0.10625083 -0.13635579 -0.0059746145 -0.10373378
-0.022040736 -0.13251492 0.038016215 -0.134078 0.16653238 0.1350886 -0.11560729 -0.17039429
0.00023185747 -0.055749536 0.04532958 -0.12598589 0.077549 -0.14632785 -0.086994894 -0.08496026
0.08273354 -0.010540974 -0.16190259 -0.10701219 -0.07384073 -0.15603437 0.014776904 0.069647454
-0.024525795 -0.073038034 -0.0043431018 -0.13242896 -0.11042099 -0.009130434 0.16371919 -0.059348963
0.08159812 -0.061609287 -0.03911711 -0.16166124 0.13847446 0.17047577 -0.009788353 0.11628722

6.bias f4 [2]
00000000: ee21 173e c2af ad3d
0.14759037 0.08480789

exp_avg f4 [32, 2]
00000000: 57bd b1b9 6eaf 183a 4150 13b8 164e f8b8
00000010: 9d7f 90b9 ed77 37ba 43c4 9639 3c5c 9cb8
00000020: 736d 8e3a b31d acba b721 a537 5757 dbb9
00000030: d45f dbb9 b5d8 943a 450e c639 0d25 47ba
00000040: ef56 7937 9d69 5639 5dc7 9bb7 535c 2837
00000050: 8ab7 99b7 1cc2 96b6 ee8a 1db8 eb3c 15b8
00000060: bb54 a5b6 afb7 2138 2438 d038 5433 40b9
00000070: 3e60 b5b8 b20a b9b9 d531 f138 b245 96ba
00000080: 646e a4b9 5f59 3239 d39e 7139 b4fd 07ba
00000090: 78e1 3539 fa09 bfb9 5180 5bb8 ae52 9238
000000a0: 4b79 be39 17e6 ab3a d704 6f39 78eb 8b3a
000000b0: a3da 043a 599a 153b 09b9 7337 da87 f636
000000c0: 129b 1439 0d01 da38 a1d8 53b9 a79e 1f3a
000000d0: baa5 93b8 c98a 30ba efa2 dc39 402d 8e3a
000000e0: ecd8 86b8 3eb4 c9b8 64f8 63b9 f5a1 923a
000000f0: 98f4 b5b8 dbdb cb39 b827 a5b9 d1f6 6a39
-0.0003390114 0.0005824481 -3.5122273e-05 -0.00011840106 -0.000275609 -0.00069987663 0.00028756456 -7.45584e-05
0.0010866359 -0.001313141 1.9685232e-05 -0.00041836008 -0.00041842333 0.0011356088 0.00037776135 -0.00075967686
1.4861797e-05 0.00020447974 -1.8570276e-05 1.0035076e-05 -1.8324488e-05 -4.4929457e-06 -3.7561105e-05 -3.5581103e-05
-4.927247e-06 3.855646e-05 9.92867e-05 -0.00018329668 -8.648679e-05 -0.00035293918 0.000115010575 -0.0011464863
-0.00031362765 0.00017008696 0.00023042718 -0.0005187646 0.00017345499 -0.00036437792 -5.2333173e-05 6.977223e-05
0.00036329994 0.0013114837 0.00022794619 0.0010675034 0.000506798 0.0022827594 1.45270105e-05 7.3471865e-06
0.00014172148 0.00010395246 -0.00020203229 0.00060890097 -7.040375e-05 -0.0006734548 0.00042083065 0.0010847226
-6.430023e-05 -9.6179996e-05 -0.0002174094 0.0011187183 -8.676312e-05 0.00038882982 -0.00031500845 0.00022407925

exp_avg_sq f4 [32, 2]
00000000: 1d30 9c31 94fd 1d32 505d 0f30 d2ac 4f30
00000010: 6b33 2032 dcf3 6832 3e70 9131 4d90 3530
00000020: 8f7f 1e33 7959 6d33 4f95 8631 7524 ab31
00000030: 94f5 7532 68ed 0d33 36dc f631 2b04 aa32
00000040: 7d03 2230 7797 6831 449b 152d 0843 2f2c
00000050: dbad 112d 8cae 0d2b d736 312f e00d a52f
00000060: 2769 e02e 1c21 4e2e 9651 7d30 6bcb 0231
00000070: e658 4431 923e a631 48de 6d31 39bf 4633
00000080: 3acc b231 50e0 7330 a69d 0231 f270 1f32
00000090: f53e bf31 6dcf b231 b0aa e92e 32f0 552f
000000a0: 5842 d531 6925 8133 1bff 0931 e8ab 3f33
000000b0: 7e0e b632 61d9 2334 520f 8c2d 3483 bc2b
000000c0: 9335 1f30 6bc0 9530 cbab 7031 238f 8532
000000d0: 6afa 6e31 47fd 8e32 270f e731 17ee 3433
000000e0: d21b 9230 73ed dc30 36b3 7731 b71b 1633
000000f0: 5c5f af2f a8fb a031 a84e 5b31 1857 cf30
4.5456674e-09 9.19626e-09 5.21557e-10 7.5551754e-10 9.324917e-09 1.35596245e-08 4.232816e-09 6.605248e-10
3.6903256e-08 5.5262237e-08 3.9168877e-09 4.9808997e-09 1.4316715e-08 3.304504e-08 7.1845774e-09 1.97925e-08
5.8940214e-10 3.3846541e-09 8.504145e-12 2.4906206e-12 8.280899e-12 5.0335495e-13 1.6117539e-10 3.0023184e-10
1.02050195e-10 4.6868384e-11 9.2156804e-10 1.903312e-09 2.8572287e-09 4.8383493e-09 3.4614391e-09 4.6274383e-08
5.2036997e-09 8.872165e-10 1.9007103e-09 9.280699e-09 5.565989e-09 5.2040634e-09 1.06259335e-10 1.9457572e-10
6.2066583e-09 6.0138355e-08 2.0081135e-09 4.4627e-08 2.1194179e-08 1.525964e-07 1.592296e-11 1.339462e-12
5.7919997e-10 1.0895865e-09 3.502225e-09 1.5548329e-08 3.4775902e-09 1.6646153e-08 6.7247075e-09 4.2126057e-08
1.0630805e-09 1.6074594e-09 3.60451e-09 3.4949803e-08 3.1900071e-10 4.685223e-09 3.1913405e-09 1.5085986e-09

exp_avg f4 [32]
00000000: b8b2 99b9 c58c 1fb9 24b3 a039 ab40 69b9
00000010: fb2b b53a 0103 1cb9 9f4c 72ba 0a2a d039
00000020: 4718 c338 0b6f 0ab8 1993 26b8 a2cf 8eb8
00000030: 14be 9bb8 5430 ad38 e1ee 9a39 e7a5 6d3a
00000040: f8d1 96b9 dd4c 0fba 7c3a df38 f67d c2b8
00000050: 0973 ddb6 8601 693a 2270 16ba dfac 1ab8
00000060: de04 3eb8 b1dd b838 e20e 23ba f2fc 853a
00000070: f0f4 f3b8 c7eb 84ba ff11 d1b9 f58f b1b9
-0.0002931559 -0.00015215862 0.00030651048 -0.00022244702 0.0013822311 -0.00014878438 -0.0009242985 0.00039704173
9.3028466e-05 -3.300518e-05 -3.971448e-05 -6.809762e-05 -7.426381e-05 8.258285e-05 0.00029551148 0.0009065554
-0.00028766668 -0.00054664706 0.00010644362 -9.274103e-05 -6.599705e-06 0.00088884716 -0.0005738755 -3.687746e-05
-4.5304063e-05 8.815097e-05 -0.0006220174 0.0010222478 -0.00011632766 -0.0010141068 -0.00039876995 -0.00033867327

exp_avg_sq f4 [32]
00000000: b3a6 f431 b730 1431 87e2 8b32 0c73 4431
00000010: 72aa 8a33 e0df a231 fc20 0f33 4f74 6932
00000020: e3c0 8430 07f1 eb2d d6c0 2a2e eba0 dd2f
00000030: 8ace 862f e401 0b31 e6fe 8131 9ae8 0a33
00000040: dcce b231 2c5b 2a32 ccee 0432 6247 982f
00000050: c4d7 8932 a89a 1833 2058 6b33 79ab 212e
00000060: 0842 3930 e5e7 9c31 b1c1 c632 c21c 2833
00000070: fe7c 1031 a8e9 1633 056c 9f31 6aeb 6831
7.120286e-09 2.1564526e-09 1.6284742e-08 2.858715e-09 6.4571296e-08 4.740272e-09 3.332478e-08 1.35888305e-08
9.659086e-10 2.6823445e-11 3.8824798e-11 4.0314005e-10 2.4521213e-10 2.0228237e-09 3.7833727e-09 3.234218e-08
5.203999e-09 9.916032e-09 7.737707e-09 2.769936e-10 1.6047018e-08 3.5530917e-08 5.479535e-08 3.675946e-11
6.7396444e-10 4.566561e-09 2.3138314e-08 3.9141703e-08 2.1025808e-09 3.5137106e-08 4.6397894e-09 3.389426e-09

exp_avg f4 [32, 32]
00000000: 4ace 1637 cf93 54b6 031e 60b6 e093 1fb7
00000010: 05bf b9b6 6f64 1936 54c0 93b5 c280 edb6
00000020: dfd9 1a33 150b dfb6 b971 0bb7 e54f b2b6
00000030: 39f9 0fb7 6663 cfb6 31fc 2437 0482 e035
00000040: 0dce 4036 56ae 19b7 0c28 d6b6 677c 51b6
00000050: d3a2 b435 dac4 10b7 53d9 89b6 4287 c2b6
00000060: 6f1e 9931 47ff 6bb6 f9b3 fdb4 9f33 ddb6
00000070: a529 e0b6 0b5f bdb6 10dd 57b6 8e75 01b7
00000080: 31a3 8e39 bbe8 ba38 33cc 5838 bdd7 4e35
00000090: 8d2c 0bb7 2f58 1437 3872 1b39 af88 5938
000000a0: c66f 1f39 9c10 24b7 9de9 3136 ccb9 acb7
000000b0: d8a0 b037 2c65 0638 6417 f336 c3b6 ff36
000000c0: 9110 4635 2382 efb6 ddc9 2a39 2481 0437
000000d0: 45d4 0838 2c08 5439 d2ea c337 bb98 89b6
000000e0: db19 6bb5 6a83 7db8 f7ca 2d38 4fda cb38
000000f0: 1a66 8e38 a181 7e37 5f26 4c36 baed aeb6
00000100: 7138 c139 d2de 5139 d848 c639 0b17 ea36
00000110: e4f8 d139 ffe7 bf38 0f90 113a 448d 9939
00000120: fca9 1b3a ec31 b3b6 b945 a3b6 6f87 3737
00000130: 3332 fc38 af86 c439 82bc 293a c41f 513a
00000140: c1ab a738 5a26 b437 1a35 1939 f328 1bb7
00000150: dabd e539 29e8 cd38 c3c1 ff39 c77c a6b5
00000160: 6dd4 7939 6b22 b239 a11a 8f39 f52a 6437
00000170: e1af c339 83be 303a ab02 d0b5 6e36 5637
00000180: 9aae e3b9 18ad 88b9 fd41 a2b9 eea3 e5b7
00000190: df8b 88b2 e288 cab4 f6a9 b7b9 18fb 8bb8
000001a0: d9df c9b9 29ed 69b6 b962 0a37 62ed 49b6
000001b0: 8386 d2b5 31d9 59b7 44f7 c6b6 e0fd cbb7
000001c0: 69d4 4cb6 e9f8 5bb7 8b8e efb9 bc42 9436
000001d0: 6541 ceb8 3050 9bb9 9936 12b8 4889 1f37
000001e0: 05d5 a435 7767 d137 b0bf a9b9 8fc0 cbb8
000001f0: ebab 48b9 f0b0 89b6 d0e5 91b6 8328 f0b5
00000200: 2ec2 98b7 c53a a1b6 5659 04b8 fc37 7937
00000210: 73d6 e3b6 60d8 22b7 20a0 2837 b61d a937
00000220: 9410 c437 b347 0a37 fe42 a936 f3b0 bc36
00000230: 26ec e8b7 68c2 89b8 368d a0b8 d5f5 f8b5
00000240: 4995 8236 3008 3bb6 9ed3 8e37 2db4 bab6
00000250: fa41 aeb7 6853 70b7 0192 eb36 6ab6 5036
00000260: 6566 39b6 58bd adb8 f428 ebb7 d410 cdb6
00000270: f534 09b7 82f1 1236 844e 3fb6 5ef1 1cb7
00000280: e333 fdb8 69a4 bbb8 6350 b3b7 cafa b1b7
00000290: 5f3a 9a36 42e7 23b8 0629 6db8 b935 bcb7
000002a0: b6f8 85b8 65c4 1a37 fff0 9fb5 06ce 63b7
000002b0: ce2c 0cb6 84c5 e3b6 05b4 de36 b4d3 96b7
000002c0: a272 b7b7 66fc 38b7 6410 bfb8 51fd 0fb6
000002d0: 6b3a 2ab6 dae8 dbb8 2e12 8536 4142 24b7
000002e0: 8bfb 09b6 4a4f 4e37 eaee 8fb8 b5cc 63b8
000002f0: dff3 e5b7 1b68 3ab7 3aa8 1cb7 cbbb 0637
00000300: 1df3 153a b66a fe39 f709 c4b9 5bb8 4039
00000310: 556d b7ba 2bff 8cb8 7f76 bfba 13a0 9aba
00000320: 4265 c8ba a13a 16b5 4597 51b6 9cee 7838
00000330: ef65 71b9 4910 fbba c4de 53bb 03a4 87bb
00000340: 73e8 8ab8 e288 9738 e43a 8e3a 3b31 58b7
00000350: 78f6 fcba b1c5 283a 1b9c 1fbb 4026 9433
00000360: adee 68ba 77cf 52ba 4176 463a 64db 8139
00000370: 2d2e 98ba 1bad 63bb 29f8 a2b8 6eec 99b8
00000380: 035b 86b9 ca84 24ba 2ca8 2aba 0ce1 d8b9
00000390: e50d ceb6 8d96 03b7 d2fc 4fb9 7a5a fcb7
000003a0: 799a 64b9 28b3 17b6 9845 dc36 ea16 48b9
000003b0: 31a1 6238 34fb a138 09c5 8e39 5517 deb7
000003c0: 67cc 87b5 601a 42b9 99dc 5cba 17a2 69b5
000003d0: 2600 b838 e32b 83b9 c84d ebb7 dbb6 12b7
000003e0: 67ae 04b7 ca61 a4b9 c274 98ba 8421 73b8
000003f0: 0d57 dcb8 b720 92b7 1ed2 2a36 d861 b136
8.988727e-06 -3.1676498e-06 -3.339607e-06 -9.511568e-06 -5.5356672e-06 2.2857237e-06 -1.1008328e-06 -7.07814e-06
3.605407e-08 -6.647208e-06 -8.311524e-06 -5.3141143e-06 -8.581491e-06 -6.1806522e-06 9.83388e-06 1.672714e-06
2.8730167e-06 -9.160101e-06 -6.382359e-06 -3.1215839e-06 1.3458433e-06 -8.628902e-06 -4.108218e-06 -5.7973966e-06
4.456346e-09 -3.516632e-06 -4.725587e-07 -6.5923227e-06 -6.6805683e-06 -5.6437034e-06 -3.2166172e-06 -7.7163695e-06
0.00027205938 8.9125206e-05 5.168859e-05 7.705492e-07 -8.295418e-06 8.842019e-06 0.00014824502 5.186413e-05
0.0001520506 -9.779029e-06 2.6511036e-06 -2.0590516e-05 2.1055734e-05 3.2042313e-05 7.2446874e-06 7.6208685e-06
7.3784855e-07 -7.137905e-06 0.00016287663 7.897881e-06 3.2622618e-05 0.0002022094 2.3355158e-05 -4.1006983e-06
-8.7581947e-07 -6.044229e-05 4.143544e-05 9.7204575e-05 6.7901055e-05 1.5169761e-05 3.0420704e-06 -5.213279e-06
0.0003685388 0.000200148 0.00037819776 6.976426e-06 0.00040049024 9.150802e-05 0.00055527774 0.00029287685
0.00059381104 -5.3404274e-06 -4.8658953e-06 1.0939183e-05 0.00012025647 0.0003748438 0.0006474928 0.0007977451
7.995172e-05 2.1475531e-05 0.00014610999 -9.248254e-06 0.00043819734 9.818405e-05 0.00048781754 -1.2404279e-06
0.00023825625 0.0003397645 0.00027294926 1.3599861e-05 0.00037324338 0.00067422556 -1.5497984e-06 1.2768067e-05
-0.00043426902 -0.00026068906 -0.00030948213 -2.7375263e-05 -1.589609e-08 -3.7725027e-07 -0.0003503111 -6.674806e-05
-0.00038504487 -3.485775e-06 8.248427e-06 -3.008951e-06 -1.5685367e-06 -1.2984777e-05 -5.9296453e-06 -2.4317706e-05
-3.0522008e-06 -1.3111371e-05 -0.00045691835 4.4185126e-06 -9.835026e-05 -0.00029623648 -3.485996e-05 9.509102e-06
1.2280949e-06 2.4962921e-05 -0.0003237701 -9.715661e-05 -0.00019137531 -4.1035164e-06 -4.3480904e-06 -1.7893184e-06
-1.8210234e-05 -4.8050156e-06 -3.1554453e-05 1.4854591e-05 -6.7900924e-06 -9.706331e-06 1.0050862e-05 2.0160205e-05
2.337274e-05 8.242135e-06 5.0443914e-06 5.623436e-06 -2.776652e-05 -6.56888e-05 -7.655697e-05 -1.8548986e-06
3.891681e-06 -2.7869937e-06 1.7026261e-05 -5.564207e-06 -2.077314e-05 -1.4324534e-05 7.020543e-06 3.1100594e-06
-2.762675e-06 -8.284551e-05 -2.8033253e-05 -6.111435e-06 -8.178166e-06 2.1896271e-06 -2.850692e-06 -9.354522e-06
-0.00012073645 -8.947479e-05 -2.1375896e-05 -2.1216827e-05 4.596353e-06 -3.9077604e-05 -5.654341e-05 -2.2436363e-05
-6.38826e-05 9.224842e-06 -1.1916562e-06 -1.3578223e-05 -2.0887705e-06 -6.788121e-06 6.6370726e-06 -1.7979975e-05
-2.186868e-05 -1.1026021e-05 -9.110643e-05 -2.145611e-06 -2.5365978e-06 -0.00010486106 3.9658253e-06 -9.790588e-06
-2.0561008e-06 1.2297018e-05 -6.8632726e-05 -5.4311666e-05 -2.7412489e-05 -1.1110703e-05 -9.337493e-06 8.030746e-06
0.00057201256 0.0004852616 -0.00037391458 0.00018379225 -0.0013994375 -6.723249e-05 -0.0014607458 -0.0011796973
-0.0015288966 -5.596467e-07 -3.1231477e-06 5.935003e-05 -0.00023021524 -0.0019154634 -0.0032328824 -0.004139425
-6.62365e-05 7.2257375e-05 0.0010851291 -1.2886066e-05 -0.0019299528 0.000643815 -0.002435452 6.898745e-08
-0.0008885663 -0.0008041779 0.0007570722 0.00024768256 -0.0011610441 -0.003474063 -7.7709854e-05 -7.339647e-05
-0.0002562628 -0.00062758906 -0.0006510045 -0.00041366403 -6.140896e-06 -7.843261e-06 -0.00019835241 -3.0082872e-05
-0.0002180132 -2.2605036e-06 6.5646127e-06 -0.00019082022 5.403272e-05 7.7238685e-05 0.00027231153 -2.6475327e-05
-1.0117773e-06 -0.00018511107 -0.00084252056 -8.7035136e-07 8.773831e-05 -0.00025018965 -2.8050403e-05 -8.7448525e-06
-7.908419e-06 -0.00031353376 -0.0011631476 -5.796693e-05 -0.00010506632 -1.741979e-05 2.5454278e-06 5.2864016e-06

exp_avg_sq f4 [32, 32]
00000000: 68b9 0c2c 98c3 8d2a 8564 9d2a 3a82 1d2c
00000010: a577 562b a0ef 142a a47a 0f29 85dc ae2b
00000020: 9df6 d325 994f 9a2b a1c7 f02b 5ebe 452b
00000030: 5a4e 002c 8c82 852b a453 282c 6e7b a129
00000040: 8ec6 692a 221f 122c 6e51 8e2b 5ab7 892a
00000050: 5c83 5329 e8b8 012c 5540 ed2a 4b19 6b2b
00000060: 49af 1623 2956 ae2a b2a9 ed27 29c9 972b
00000070: 1edb 9b2b 63de 5e2b 9521 922a 68a8 cf2b
00000080: d8a9 5632 0e0f ff31 86e5 9f32 3597 0d30
00000090: ecd9 ef2b 81d4 472c e722 3032 21a0 d42f
000000a0: 8239 4a32 d775 262c 8a79 472a 4875 fd2e
000000b0: 8504 b12d f82e 762f e325 b72b c56a 9e2f
000000c0: b4f6 4a2b 8714 fe2e 8aad c432 f37f d92b
000000d0: 60b6 b530 2d5e 8e31 2c43 b62f 0c64 ec2a
000000e0: 2066 b928 5aca 3731 50ba c232 a943 cf2f
000000f0: 7fcb 8131 1da0 612f 13de 822a 665b 3e2b
00000100: a27b 5632 08b6 2e31 f855 4432 a63d 262f
00000110: efd1 af31 97bd 3130 7a59 ff32 0425 ee31
00000120: 02b2 0f33 bcb1 472b aafc 252b 982f 3d2e
00000130: aecf e72f dfa6 bd31 b392 5e32 4384 2233
00000140: 990d 1430 b773 862e 5c05 0432 00f0 142c
00000150: 7e93 4132 706f ca30 263a 8632 37f1 0f2b
00000160: 9ba0 d530 3831 e531 50ee d031 7a3a a92e
00000170: a31d 3732 759c e732 d923 8b29 3a1b ce2c
00000180: 85a9 0332 b1d1 a531 62c6 0832 5276 a42f
00000190: a882 2e25 2b85 a027 3fab b431 0e08 062f
000001a0: e60f d831 1c52 ab2a f726 ed2b b208 932e
000001b0: 6150 4e2a 8505 db2d 52e2 752b 4e54 962d
000001c0: f6ba 832a 0eba b02e ec53 5532 b60f 092b
000001d0: 3a45 ef2f da91 5f31 caec 2a2e 606d 1d2c
000001e0: a628 3129 1972 4130 baef 4132 9d05 882f
000001f0: f5c6 ef30 4e9c 7b2c afc2 042b f738 b829
00000200: e45a 3930 5be8 b030 33f6 9731 cdeb 362f
00000210: 85fb a02b b300 242c 5e31 8d30 15d1 6f2d
00000220: 52b9 aa30 beca ec2b eb4c 322b 8750 102e
00000230: c917 fc2d 9128 df2f 8079 4f2f 9839 192e
00000240: 6119 d52a 7208 fb2d f8d5 6c31 caab 582b
00000250: 2efa 8e2f d996 322f a1ee fb2d 75b6 882a
00000260: 2c61 582a 7049 0e31 e989 c231 b6bd fb2b
00000270: c9d2 1530 b3d5 b72d 9c33 662a 275e 182c
00000280: 0d6b e530 c2a8 1e30 b496 a130 0db5 652e
00000290: 1faf 912b 7592 472e 15fd f630 1f54 822f
000002a0: e4ad 0a31 de2f 142c 3126 2729 b5b3 852d
000002b0: 4e84 f929 7b59 452c dce1 f12b 3584 0a30
000002c0: dbe0 ac2d 3435 942d 2467 f530 0484 032a
000002d0: 69ec ac2f 0397 0d30 cdfc b62f 4eda 262c
000002e0: 34e9 f129 75c1 bf2e 898e a930 1605 bc2e
000002f0: 78bb 1930 6e40 c02f bed0 172c 36d9 e02b
00000300: cbe4 1533 2b41 4c32 3d22 5a33 4601 9330
00000310: 1748 6633 9ce0 bb30 52bb 1b34 f74e 7533
00000320: 12ba 2b34 4714 2128 47da 892a 79e3 f12e
00000330: 57f2 d130 425e e433 a0bd 9c34 c863 1835
00000340: 15d4 a630 2439 1f2f 778e 8c33 bf6a 0a2d
00000350: a664 0834 493f 8632 947f 5c34 a1c0 312c
00000360: 088c b232 2c33 2433 45b4 4833 b28a 0c31
00000370: fc47 8e33 d4d7 d634 5668 602f 7d18 2f2f
00000380: 7140 b532 0b18 0633 7e2b d833 c33c d031
00000390: 9cce 832b a683 d62b 0c3d dc32 1539 282f
000003a0: 07ae 0033 61b8 112a ce84 962b 7751 a930
000003b0: 04ac 3930 be28 5732 40c0 5931 56ac 7e30
000003c0: 9215 f428 0caa 9c30 54a6 b033 b835 b728
000003d0: 0a76 0032 86ea ff31 4821 4030 fa37 052c
000003e0: 0414 da2b 0b6f 6933 0e16 1134 9111 7c2f
000003f0: e141 6032 3e70 1230 3419 382a 12b3 432b
1.9998118e-12 2.5182352e-13 2.7958552e-13 2.2383332e-12 7.6194113e-13 1.3228177e-13 3.1858752e-14 1.242465e-12
3.6769777e-16 1.0964451e-12 1.7108434e-12 7.0252647e-13 1.8233388e-12 9.486452e-13 2.3920666e-12 7.171248e-14
2.0763445e-13 2.076513e-12 1.0112308e-12 2.4463314e-13 4.6965348e-14 1.8434646e-12 4.2144296e-13 8.352387e-13
8.168634e-18 3.0968395e-13 6.59647e-15 1.0785028e-12 1.107423e-12 7.9178867e-13 2.5958112e-13 1.4754977e-12
1.2495057e-08 7.4231883e-09 1.8614411e-08 5.151038e-10 1.7042457e-12 2.8397564e-12 1.0252484e-08 3.8676354e-10
1.1771023e-08 2.3655433e-12 1.7716918e-13 1.1525941e-10 2.0124577e-11 2.2390256e-10 1.3013448e-12 2.8815897e-10
7.2107186e-13 1.1554229e-10 2.289632e-08 1.545429e-12 1.3221317e-09 4.1434505e-09 3.3153336e-10 4.1991443e-13
2.0583416e-14 2.6745028e-09 2.2669298e-08 3.7701156e-10 3.777529e-09 2.0520514e-10 2.3246734e-13 6.76284e-13
1.248455e-08 2.5423805e-09 1.1428249e-08 1.5119514e-10 5.117037e-09 6.466165e-10 2.9726596e-08 6.93092e-09
3.345668e-08 7.094566e-13 5.897042e-13 4.3015896e-11 4.216622e-10 5.519595e-09 1.2955456e-08 3.7838856e-08
5.386141e-10 6.1141696e-11 7.68463e-09 2.1165292e-12 1.1267614e-08 1.4729107e-09 1.5626096e-08 5.113856e-13
1.5543437e-09 6.6703727e-09 6.0806897e-09 7.695618e-11 1.0658741e-08 2.6963088e-08 6.1790586e-14 5.857895e-12
7.663748e-09 4.825971e-09 7.961349e-09 2.9915498e-10 1.5136362e-16 4.45533e-15 5.258158e-09 1.219009e-10
6.288235e-09 3.0432677e-13 1.6850678e-12 6.686331e-11 1.8324362e-13 2.4899869e-11 8.735557e-13 1.7090464e-11
2.3400005e-13 8.036603e-11 1.2417313e-08 4.869398e-13 4.3523035e-10 3.2533678e-09 3.8863836e-11 2.2371757e-12
3.9337152e-14 7.0375133e-10 1.1288586e-08 2.4742244e-10 1.7446086e-09 3.5756012e-12 4.7166e-13 8.181123e-14
6.743177e-10 1.2871725e-09 4.422668e-09 1.6636577e-10 1.1438494e-12 2.330619e-12 1.0273131e-09 1.3632003e-11
1.2421799e-09 1.6825081e-12 6.334505e-13 3.2813332e-11 2.8659646e-11 4.0592288e-10 1.8869706e-10 3.4839326e-11
3.785401e-13 2.8539147e-11 3.4464147e-09 7.697702e-13 2.6007413e-10 1.6242598e-10 2.8641369e-11 2.4285058e-13
1.9218367e-13 2.0705464e-09 5.6618217e-09 1.7887278e-12 5.450543e-10 2.0899593e-11 2.0446009e-13 2.1652764e-12
1.6692369e-09 5.7719884e-10 1.1757124e-09 5.2229377e-11 1.0351476e-12 4.537744e-11 1.7970786e-09 2.3706634e-10
2.0180488e-09 2.1058637e-12 3.7114575e-14 1.5200155e-11 1.10807725e-13 2.8045055e-12 1.7186769e-12 5.0391985e-10
1.9653992e-11 1.6849279e-11 1.785541e-09 1.168094e-13 3.1454597e-10 5.15101e-10 3.3285233e-10 2.3711202e-12
1.0743004e-13 8.720039e-11 1.2336879e-09 8.5501536e-11 5.5927485e-10 3.4970377e-10 2.1574266e-12 1.5976445e-12
3.4899852e-08 1.188918e-08 5.078822e-08 1.069602e-09 5.3616613e-08 1.3669879e-09 1.4503647e-07 5.7115326e-08
1.5993308e-07 8.941692e-15 2.448755e-13 1.09998184e-10 1.5275629e-09 1.0634223e-07 2.9195235e-07 5.6769613e-07
1.2138367e-09 1.4481266e-10 6.545172e-08 7.868094e-12 1.2702603e-07 1.5628432e-08 2.053551e-07 2.5260143e-12
2.0785606e-08 3.8230766e-08 4.6730083e-08 2.045152e-09 6.625484e-08 4.0017642e-07 2.0409749e-10 1.5924857e-10
2.1100478e-08 3.1221173e-08 1.0066195e-07 6.0605045e-09 9.365455e-13 1.5242154e-12 2.5639132e-08 1.529979e-10
2.99606e-08 1.2942556e-13 1.0695002e-12 1.2319522e-09 6.7547057e-10 1.2523911e-08 3.1686938e-09 9.2649566e-10
2.7098796e-14 1.1398824e-09 8.2258936e-08 2.0340378e-14 7.47742e-09 7.448139e-09 6.989649e-10 1.893151e-12
1.5495387e-12 5.4350533e-08 1.3512201e-07 2.2925507e-10 1.3053495e-08 5.3273996e-10 1.6351227e-13 6.9526427e-13

exp_avg f4 [32]
00000000: 0ff8 a4b6 1649 7638 9a75 4c3a 9d11 ddb9
00000010: 8d05 55b8 e17d 12b8 2a18 04bb 328a 26ba
00000020: f842 28ba 722c e4b8 4ea8 1eb7 0580 dbba
00000030: 92b0 4cbb 5136 8738 4967 5939 6f17 7a3b
00000040: 01cc 90b9 16cf 2f3a 9f86 f83a 78c0 d6ba
00000050: bb4b b23a 1460 0b3a 8937 32ba e379 c0b8
00000060: 9b10 61b9 968a d037 6e2d 1536 35cd 16b7
00000070: dce9 cd3a 9f8c 27ba 06e0 92ba 273c 58b9
-4.9164587e-06 5.8719037e-05 0.00077995064 -0.00042165528 -5.0788327e-05 -3.4926346e-05 -0.0020156004 -0.000635299
-0.00064186705 -0.00010880166 -9.45672e-06 -0.0016746527 -0.0031233174 6.447419e-05 0.0002073321 0.003816094
-0.00027617815 0.00067065784 0.0018961019 -0.0016384264 0.0013602892 0.0005316746 -0.00067984365 -9.1779766e-05
-0.00021463858 2.4860066e-05 2.2229174e-06 -8.988475e-06 0.0015709954 -0.00063914986 -0.001120568 -0.00020621774

exp_avg_sq f4 [32]
00000000: 2a6e 292b c00b 0933 127b 2d33 fe9d 6032
00000010: d9c3 fc31 4dac 2e31 a516 7b34 5dd7 3434
00000020: 6e3f b133 670c ee33 19b4 1b2c ac57 ec33
00000030: a193 d734 2d9c d232 fd38 4132 d27a f334
00000040: a3f5 b331 dc61 1834 72a3 2034 1bf4 f533
00000050: e685 df33 d832 8932 d9bf fa32 1c47 d92f
00000060: 8085 5933 807b 7531 38e7 912f 65b7 0c2c
00000070: b5a1 1734 0652 c832 e608 1e33 6a11 8433
6.0193745e-13 3.1908485e-08 4.0391633e-08 1.3074439e-08 7.3564306e-09 2.5418274e-09 2.3384435e-07 1.6842155e-07
8.2537426e-08 1.10849946e-07 2.21268e-12 1.1005554e-07 4.0154285e-07 2.4518238e-08 1.1247036e-08 4.535164e-07
5.2375113e-09 1.4191704e-07 1.4960622e-07 1.1453104e-07 1.0408603e-07 1.597202e-08 2.9191073e-08 3.9522596e-10
5.0645667e-08 3.5722394e-09 2.6539637e-10 1.9997e-12 1.41218e-07 2.3320364e-08 3.6795335e-08 6.1498966e-08

exp_avg f4 [32, 32]
00000000: 6b63 3c36 1eb4 25b9 35a2 3eba 3dd0 09b9
00000010: 9d7d 29b9 3276 7cb9 f542 78b9 5d51 67b9
00000020: c350 12ba 85a7 c0b7 12a9 fe36 f3c7 ad39
00000030: 97ea 4c39 d930 0738 40bb 0e3a 719d 013a
00000040: 4685 cab9 894b bbb9 416f 42b9 8f62 8bb9
00000050: 37e9 ec39 2e94 66b9 a394 7437 1661 3b36
00000060: 2658 093a 3b9a 3c38 8d12 8ab8 acdd 82b4
00000070: e168 99b9 6a98 d5b9 1703 153a 6569 443a
00000080: e116 8735 04ed 64b8 9f72 78b9 f356 47b8
00000090: c47a 64b8 a401 a1b8 4d1a 91b8 edb3 8eb8
000000a0: 71af 37b9 b06a 89b7 3928 fdb6 83f2 e538
000000b0: 0a14 8f38 6964 ad36 4ee1 4e39 a19c 2e39
000000c0: 62e0 08b9 5c36 edb8 a7a6 88b8 7439 a8b8
000000d0: a781 2039 2dce a5b8 aa06 9437 cba7 b6b5
000000e0: fa9a 5539 4e43 e537 d5cf 82b7 94b0 efb6
000000f0: e02d b7b8 915f 04b9 f654 4f39 9e84 9439
00000100: 3f87 f536 c335 5638 01c1 a839 d158 f337
00000110: e6cd ccb6 e69c 1739 09bf 4f39 291f 1137
00000120: 4b4e 4339 88be 1b37 6e82 0d37 38d6 e238
00000130: 25c1 0d38 9b77 6736 39c1 1839 0d97 c735
00000140: 3966 1139 0680 6639 6cde f138 753b c638
00000150: 0362 deb5 c72b 8138 e54c 6739 d158 0437
00000160: 1129 7939 6756 3939 47c7 dd35 7f0d 24b6
00000170: 6471 9c38 22c2 1139 c540 18b7 7a68 c538
00000180: cf82 91b6 f7eb cfb9 14a8 e8ba f6cb aeb9
00000190: c431 deb9 43ae 1eba 68fd 19ba 5763 11ba
000001a0: 0c99 b4ba c6e2 83b8 d4fb 1736 4bd4 463a
000001b0: 79d8 fe39 34cb 8338 9bb2 ab3a 1a35 9c3a
000001c0: 5d5d 71ba c5c3 66ba 436e f0b9 3d16 27ba
000001d0: 999b 8f3a 4c47 11ba 4ccc 80b7 249d 7ab6
000001e0: 21dc 9e3a 7912 b638 8e61 45b9 3366 e236
000001f0: db69 3cba cc31 83ba 264a b63a 28e5 ec3a
00000200: 8fb6 ecb6 7e39 52b6 20c5 9d39 7c47 b4b6
00000210: fecd f1b6 b6ac fe38 a84a 1fb9 1e8b 15b7
00000220: 9b68 2438 e808 f2b6 b699 1c37 0513 beb9
00000230: 9c8d 90b9 548b 14b8 5a1d 7cba a14a 33ba
00000240: 167f 4f38 33ad 04b8 6115 e838 52ff 3639
00000250: 823d 35ba e994 6c35 97cc ebb9 a49f 1b36
00000260: d93e 9eba ce5f 2cb9 3df0 d836 0baf e2b6
00000270: b71c c136 2487 ab37 da4c 54ba 3612 9fba
00000280: 5dbe 3636 75d8 91b5 fb92 e4b9 06b1 71b6
00000290: d771 e537 9335 d7b8 2d44 6c3a d9aa c138
000002a0: d1b5 5c39 3b58 de36 a402 4635 2ff5 ca3a
000002b0: 8465 593a b1b8 a738 4fd1 493b e62b 073b
000002c0: b44e b7b5 b57e 303a 1c43 23b9 7d96 b4b9
000002d0: b510 093b 818f f836 f640 e53a 6f40 c936
000002e0: 613b 883b 0882 473a 573e 2c37 07ef 7cb6
000002f0: 469e 31b8 0cb5 db37 c2c7 1a3b 0156 833b
00000300: 92ac 1a35 645b b6b6 ccf3 7338 286a 5636
00000310: 073f 10b7 1d41 a737 bdb2 29b9 482a 81b6
00000320: 79fa 3436 47a9 d8b6 b874 e536 2696 8fb9
00000330: d51e 34b9 3afc 4bb7 975d 14ba 616f beb9
00000340: 73f1 d6b6 b0c2 dab8 6466 ffb5 160d 8538
00000350: 6ce8 c0b9 334f 10b7 51c4 a8b9 d926 ebb6
00000360: 2a09 3fba 08bd 2cb9 aff1 d934 09b7 1a37
00000370: 6302 6eb6 a771 63b7 14a1 dbb9 9058 3eba
00000380: d3bc 2137 c74f 1031 0c30 fb36 775b c736
00000390: acc9 ec36 8ac1 23b7 5e3b 0737 1d21 0cb7
000003a0: 3292 1337 7cb7 54b4 15d5 11b7 517f 2c36
000003b0: 2251 f4b5 f0da 13b7 3689 65b6 a7a6 5935
000003c0: c264 ff36 d24f 40b6 c4f0 c036 76a1 8a35
000003d0: 6f10 0634 b1d7 e335 5efc d5b6 0f8a 08b7
000003e0: 81e4 44b6 6f8a 19b7 1bd5 95b6 de1d 8234
000003f0: c4c6 d6b6 286b 84b6 891a d4b5 263d 7ab5
2.8072052e-06 -0.00015802725 -0.00072720955 -0.00013142913 -0.0001616389 -0.00024076624 -0.00023676066 -0.00022060187
-0.00055814924 -2.2966191e-05 7.5894723e-06 0.00033146105 0.00019542348 3.2232e-05 0.00054447725 0.000494442
-0.0003862774 -0.00035723698 -0.00018542727 -0.00026585578 0.00045187186 -0.0002198971 1.45781405e-05 2.7921683e-06
0.00052392704 4.496633e-05 -6.583808e-05 -2.4375674e-07 -0.00029260575 -0.00040740083 0.00056843593 0.00074925116
1.0064942e-06 -5.4580174e-05 -0.00023693823 -4.7526275e-05 -5.447377e-05 -7.677384e-05 -6.919038e-05 -6.8046014e-05
-0.00017517597 -1.6381353e-05 -7.54467e-06 0.00010964742 6.822504e-05 5.167491e-06 0.00019729623 0.00016652282
-0.0001305356 -0.00011311166 -6.516027e-05 -8.021566e-05 0.00015307088 -7.906216e-05 1.7646078e-05 -1.3608891e-06
0.00020370996 2.7330268e-05 -1.5593987e-05 -7.1433114e-06 -8.734665e-05 -0.00012624102 0.00019772709 0.00028327567
7.3173137e-06 5.1071645e-05 0.00032187256 2.9009216e-05 -6.1036435e-06 0.00014458931 0.00019812224 8.6499285e-06
0.00018625816 9.283081e-06 8.434623e-06 0.00010816421 3.37969e-05 3.4491302e-06 0.0001456783 1.4870617e-06
0.00013866358 0.00021982202 0.00011533205 9.4524505e-05 -1.6568814e-06 6.1593535e-05 0.00022058522 7.888492e-06
0.00023761789 0.00017675162 1.652378e-06 -2.444576e-06 7.45978e-05 0.00013900598 -9.074986e-06 9.413152e-05
-4.336565e-06 -0.00039657924 -0.0017750286 -0.0003333983 -0.00042380218 -0.00060531887 -0.0005874247 -0.0005546114
-0.0013778522 -6.2888066e-05 2.2647337e-06 0.00075847347 0.0004860794 6.284416e-05 0.0013099493 0.0011917681
-0.00092073326 -0.00088029756 -0.0004585852 -0.0006373858 0.0010956406 -0.0005541935 -1.5353922e-05 -3.734437e-06
0.0012120047 8.681877e-05 -0.00018823726 6.7472224e-06 -0.00071874046 -0.0010009347 0.0013907596 0.0018073665
-7.0546007e-06 -3.1325903e-06 0.00030092243 -5.37274e-06 -7.2063403e-06 0.00012143834 -0.00015191233 -8.913483e-06
3.919807e-05 -7.213199e-06 9.334113e-06 -0.00036253795 -0.00027571328 -3.541571e-05 -0.0009617411 -0.00068394287
4.9471004e-05 -3.1632557e-05 0.00011066604 0.00017451987 -0.00069137674 8.8133544e-07 -0.00044975124 2.3189723e-06
-0.0012073173 -0.00016438888 6.465269e-06 -6.7557025e-06 5.755191e-06 2.0447718e-05 -0.000809861 -0.0012136165
2.723092e-06 -1.0866339e-06 -0.00043597058 -3.601484e-06 2.7351938e-05 -0.00010261978 0.00090128445 9.23478e-05
0.00021048567 6.626387e-06 7.376459e-07 0.0015484447 0.000829302 7.997582e-05 0.0030794924 0.002062553
-1.3657468e-06 0.0006732748 -0.00015569892 -0.00034444398 0.00209145 7.407682e-06 0.0017490673 5.997768e-06
0.004157469 0.0007610624 1.02665135e-05 -3.7690058e-06 -4.2347492e-05 2.6191141e-05 0.00236176 0.004008055
5.7620593e-07 -5.434662e-06 5.816277e-05 3.1950276e-06 -8.5977435e-06 1.9938272e-05 -0.00016183681 -3.849422e-06
2.6967884e-06 -6.457008e-06 6.8383197e-06 -0.00027386955 -0.00017177624 -1.2158469e-05 -0.0005659698 -0.00036322608
-6.4058054e-06 -0.000104313134 -1.902878e-06 6.344372e-05 -0.00036794262 -8.601509e-06 -0.00032189724 -7.008068e-06
-0.00072874373 -0.00016473618 4.0595248e-07 9.2217315e-06 -3.5466153e-06 -1.3556716e-05 -0.00041890948 -0.00072611216
9.640312e-06 2.1000106e-09 7.4859763e-06 5.94131e-06 7.056826e-06 -9.760619e-06 8.0604495e-06 -8.35236e-06
8.7959215e-06 -1.981079e-07 -8.6922855e-06 2.5704105e-06 -1.8203029e-06 -8.812858e-06 -3.4203526e-06 8.108131e-07
7.611322e-06 -2.865669e-06 5.7500747e-06 1.0328793e-06 1.2485701e-07 1.6975592e-06 -6.377274e-06 -8.138376e-06
-2.9339283e-06 -9.151742e-06 -4.465355e-06 2.4236118e-07 -6.4008364e-06 -3.946381e-06 -1.5802954e-06 -9.322124e-07
