checkpoints/ablation_standard/ablation_standard_epoch0020.pt (torch, 38843 bytes, 24 tensors)

0.weight f4 [32, 2]
0.6178372 0.5755095 -0.15916243 0.7048714 -0.12213448 0.21756978 -0.40188375 0.45399174
0.57975817 -0.4891808 0.6085992 0.27981985 0.50083077 0.018663794 0.36740467 -0.12637441
0.58895695 0.14171734 -0.18803072 0.054731563 -0.18396206 -0.001322802 -0.40212762 0.55160856
-0.65002275 -0.47107902 -0.18874477 -0.4548701 0.05731375 -0.7597592 0.5867839 -0.64846593
0.5489834 -0.043475553 -0.34303197 0.51161885 0.12510122 0.6328116 0.19654705 -0.2973373
0.13527212 -0.25690624 0.31105366 0.63006514 0.31707925 -0.36344388 0.5039168 -0.09494983
0.3828646 -0.42184946 -0.74971765 -0.30126193 -0.520457 0.6503921 0.22033793 0.2883844
0.25577533 0.04787816 0.49391708 -0.58106506 0.12070802 -0.60192114 0.3218311 -0.33982748
00000000: 942a 1e3f 9754 133f 7afb 22be 7472 343f
00000010: a421 fabd 9dca 5e3e b5c3 cdbe 9b71 e83e
00000020: 086b 143f e875 fabe 28cd 1b3f 8c44 8f3e
00000030: 7236 003f d0e4 983c 771c bc3e 4b68 01be
00000040: e2c5 163f 5a1e 113e 208b 40be 342e 603d
00000050: 8d60 3cbe df61 adba ace3 cdbe 3836 0d3f
00000060: e467 26bf 4531 f1be 4f46 41be bce4 e8be
00000070: d3c1 6a3d 947f 42bf 7837 163f dd01 26bf
00000080: 2d8a 0c3f 6c13 32bd e3a1 afbe 74f9 023f
00000090: 891a 003e f1ff 213f a143 493e 983c 98be
000000a0: c684 0a3e 3789 83be 6d42 9f3e f34b 213f
000000b0: 3658 a23e 5115 babe b100 013f 0e75 c2bd
000000c0: d406 c43e a7fc d7be 7fed 3fbf 013f 9abe
000000d0: ac3c 05bf 1980 263f 44a0 613e 1fa7 933e
000000e0: fcf4 823e e41b 443d b3e2 fc3e aec0 14bf
000000f0: c435 f73d 8117 1abf 0cc7 a43e defd adbe

0.bias f4 [32]
0.20890887 -0.09797213 0.61416805 -0.4286503 -0.52101994 -0.38974416 0.66213614 0.18570606
0.6909822 -0.43375078 -0.54995954 -0.48427168 -0.38683558 0.3144112 0.24871895 0.56111634
-0.40529183 -0.43598866 0.3986666 -0.2411301 0.42538556 -0.20968805 0.41620502 -0.43074197
-0.4069644 0.2145677 0.15088978 -0.20901418 0.4433343 0.50143236 -0.43311766 -0.33703953
00000000: 35ec 553e 9da5 c8bd 1e3a 1d3f 0d78 dbbe
00000010: 9061 05bf 8c8c c7be c181 293f bb29 3e3e
00000020: 36e4 303f 9514 debe 26ca 0cbf 75f2 f7be
00000030: 500f c6be 81fa a03e 2eb0 7e3e 52a5 0f3f
00000040: 6982 cfbe e839 dfbe 071e cc3e cfea 76be
00000050: 23cc d93e 77b8 56be d318 d53e 368a dcbe
00000060: a35d d0be a3b7 5b3e da82 1a3e d007 56be
00000070: b7fc e23e df5d 003f 99c1 ddbe 7290 acbe

2.weight f4 [32, 32]
0.04075958 6.3012965e-05 -0.004590422 -0.047614574 -0.0062967087 1.3843402e-05 -0.0069222082 -0.022373194
-0.0062686703 -0.014546811 -0.03232932 -0.004719251 -0.036049083 -0.019943854 0.05105461 -0.0085325185
-1.3588758e-05 -0.042976096 -0.012221856 -0.001125202 -0.007086183 -0.036211263 -0.008807007 -0.0077138725
0.00073148194 -0.006002014 6.335037e-07 -0.014051539 -0.019108115 -0.01856508 -0.0024954053 -0.02571695
0.18065183 0.024177903 0.18591957 0.15335861 -0.12770934 0.12452333 -0.02199747 -0.05599722
-0.11370921 -0.0512214 1.6598467e-05 0.08532378 0.03191363 -0.15062374 0.06358306 -0.11190985
-0.033574123 0.14902478 0.1382848 0.008786224 0.15983361 -0.07984515 0.054142803 -0.122654594
-0.08233124 -0.11405398 0.20681153 -0.06551032 0.12304165 0.07230685 -0.021401197 -0.120870546
0.17473412 0.052968647 0.012664059 -0.02673338 -0.010302344 -0.007061764 -0.076516144 0.15927777
0.04615194 -0.004863988 -0.0025935231 0.13905893 0.033322994 -0.084274694 -0.15468709 -0.05637309
-0.15489706 0.19331291 0.15480055 -0.20187275 0.020949816 0.1580719 0.035531115 -0.18670739
-0.027365632 0.055618107 0.051538236 0.08680401 -0.049252115 0.021924984 -0.042035222 -0.18804435
0.16023517 0.17318831 -0.032320403 0.03523393 -0.049982075 0.1613381 0.05390009 0.12168001
-0.14163855 5.6421788e-05 0.031573165 0.14600636 0.098103605 -0.086054385 -0.06741806 -0.069722146
0.031934626 0.13520473 0.1260422 -0.045026556 -0.18842752 -0.016175669 0.020196056 0.051288854
-0.0534357 -0.040706974 0.06322195 0.090046726 -0.10682656 0.1787471 -0.0009500637 -0.05312875
-0.102381036 0.20927888 0.19546062 0.11052848 -0.015867911 -0.2094155 -0.06100833 0.12226386
0.17038926 0.031498082 0.0033623583 0.07856092 -0.09470175 -0.18352899 -0.20558268 -0.18475486
-0.07738677 -0.036101244 0.05835441 -0.006181352 -0.026315313 -0.060077805 -0.13629243 -0.04817364
-3.8710637e-06 0.07524448 0.01858471 -0.11509155 0.046593104 -0.11869745 9.771448e-06 -0.045527138
0.14121556 -0.08217733 0.08796781 0.2040698 0.029733036 -0.043575075 0.13849144 -0.057611056
0.079535656 0.04382134 4.174856e-06 0.15514101 0.117205 -0.14461859 0.04093885 -0.16038586
0.12846273 0.27803355 0.19560774 -0.108562864 -0.15535761 0.13718903 0.108516015 -0.24563539
-0.14018641 -0.11222414 -0.014954264 0.06779956 -0.06366142 -0.042395126 -0.1234906 -0.0036005154
0.13998634 -0.06069831 -0.046283495 -0.111282855 -0.049766246 -0.1111727 0.061297808 -0.07409948
-0.12136597 -2.7765436e-06 5.6996847e-05 -0.047199123 0.16272624 0.0049680592 -0.014372015 -0.055361476
-0.059024807 0.13140711 -0.10200579 0.21903381 -0.036469877 -0.023467034 0.19129106 0.23211955
-0.02954074 0.12944873 0.16018242 0.015184568 0.11943501 0.20374249 0.15026681 0.20948583
-0.11333479 0.0023751028 0.12965295 0.22229546 -0.010251495 -0.011493238 -0.1404819 -0.13963181
-0.14887811 -1.1695602e-05 0.013804117 0.19092736 -0.16151024 -0.16518952 0.023511328 -0.05676701
2.038683e-06 0.23527288 -0.064341076 -4.636699e-06 -0.073416054 0.011781806 -0.055703077 -0.03766062
-0.02759535 -0.09910447 0.19412455 0.04315794 -0.13964999 0.10876841 2.271549e-05 0.004569166
00000000: 84f3 263d d425 8438 406b 96bb 8007 43bd
00000010: 9f54 cebb f540 6837 b1d3 e2bb fd47 b7bc
00000020: 6b69 cdbb bf55 6ebc c06b 04bd f2a3 9abb
00000030: 34a8 13bd 4b61 a3bc a41e 513d facb 0bbc
00000040: 45fb 63b7 b407 30bd 2e3e 48bc 847b 93ba
00000050: 3633 e8bb 4352 14bd 444b 10bc a7c4 fcbb
00000060: ecc0 3f3a 8bac c4bb 0b0e 2a35 6d38 66bc
00000070: 9f88 9cbc cb15 98bc f489 23bb 5aac d2bc
00000080: cbfc 383e bd10 c63c b361 3e3e 0a0a 1d3e
00000090: 3dc6 02be 1606 ff3d 0a34 b4bc 575d 65bd
000000a0: 60e0 e8bd 88cd 51bd f03c 8b37 3cbe ae3d
000000b0: deb7 023d 1c3d 1abe d637 823d fe30 e5bd
000000c0: 0585 09bd f499 183e 889a 0d3e 18f4 0f3c
000000d0: 6cab 233e db85 a3bd d8c4 5d3d 5532 fbbd
000000e0: 489d a8bd 2295 e9bd 67c6 533e 462a 86bd
000000f0: 43fd fb3d 9d15 943d 9051 afbc fa8a f7bd
00000100: 80ed 323e a7f5 583d ea7c 4f3c f6ff dabc
00000110: 2acb 28bc 5f66 e7bb 7fb4 9cbd b619 233e
00000120: d109 3d3d 1762 9fbb 19f8 29bb 7765 0e3e
00000130: b17d 083d 3698 acbd 4b66 1ebe 78e7 66bd
00000140: 569d 1ebe d2f3 453e 0984 1e3e bbb7 4ebe
00000150: f39e ab3c 9add 213e 1389 113d 3930 3fbe
00000160: e42d e0bc d0cf 633d c219 533d 4dc6 b13d
00000170: 96bc 49bd 069c b33c 202d 2cbd b38e 40be
00000180: b014 243e 4758 313e 6662 04bd 7451 103d
00000190: 01ba 4cbd d135 253e 57c6 5c3d 5e33 f93d
000001a0: b209 11be 6fa6 6c38 dd52 013d b182 153e
000001b0: 8bea c83d 483d b0bd 7b12 8abd 7cca 8ebd
000001c0: e2cd 023d 1c73 0a3e 3511 013e c46d 38bd
000001d0: 25f3 40be d682 84bc 3372 a53c 4314 523d
000001e0: 64df 5abd 5bbc 26bd 827a 813d 6b6a b83d
000001f0: e2c7 dabd 7b09 373e b20d 79ba 889d 59bd
00000200: 26ad d1bd 344d 563e d426 483e c15c e23d
00000210: 6cfd 81bc 0471 56be dfe3 79bd 7a65 fa3d
00000220: 867a 2e3e 2204 013d 035b 5c3b 8ce4 a03d
00000230: fef2 c1bd 06ef 3bbe 4484 52be 6130 3dbe
00000240: f47c 9ebd e6de 13bd 0905 6f3d f08c cabb
00000250: 3693 d7bc 2514 76bd 3e90 0bbe b951 45bd
00000260: 2fe4 81b6 c719 9a3d f63e 983c 1eb5 ebbd
00000270: 69d8 3e3d a617 f3bd 0df0 2337 aa7a 3abd
00000280: d09a 103e 974c a8bd 7828 b43d acf7 503e
00000290: b292 f33c c77b 32bd b3d0 0d3e 92f9 6bbd
000002a0: 97e3 a23d 017e 333d bd15 8c36 49dd 1e3e
000002b0: 2d09 f03d e516 14be 7faf 273d 313c 24be
000002c0: bc8b 033e 6a5a 8e3e 654d 483e 3556 debd
000002d0: 1116 1fbe 487b 0c3e a53d de3d d887 7bbe
000002e0: 078d 0fbe c5d5 e5bd bb02 75bc 7fda 8a3d
000002f0: eb60 82bd 83a6 2dbd a4e8 fcbd a0f6 6bbb
00000300: 9458 0f3e cb9e 78bd c393 3dbd 44e8 e3bd
00000310: b1d7 4bbd 83ae e3bd 6913 7b3d 78c1 97bd
00000320: b98e f8bd a854 3ab6 e60f 6f38 de53 41bd
00000330: b5a1 263e 1acb a23b 9a78 6bbc b7c2 62bd
00000340: ffc3 71bd 968f 063e 69e8 d0bd 664a 603e
00000350: 7061 15bd f03d c0bc cee1 433e bfb0 6d3e
00000360: 6cff f1bc 358e 043e dc06 243e b2c8 783c
00000370: 589a f43d dfa1 503e 8bdf 193e 7483 563e
00000380: 121c e8bd 9da7 1b3b bec3 043e 6ca1 633e
00000390: e3f5 27bc 224e 3cbc 7dda 0fbe a4fb 0ebe
000003a0: 8173 18be 3a38 44b7 aa2a 623c 7682 433e
000003b0: f162 25be 7127 29be d49a c03c 8684 68bd
000003c0: 4fd0 0836 60eb 703e 41c5 83bd f194 9bb6
000003d0: 285b 96bd 7a08 413c e928 64bd 0642 1abd
000003e0: a50f e2bc 49f7 cabd 96c8 463e 61c6 303d
000003f0: 6800 0fbe f9c1 de3d 258d be37 f1b8 953b

2.bias f4 [32]
-0.013224032 -0.115188956 -0.0071562263 -0.12374919 0.19674641 -0.17177446 0.082067594 0.16436851
0.07839861 0.09993624 -0.048683356 0.18148555 -0.01776549 -0.18742612 0.15923983 -0.0983669
0.005227776 0.1726061 -0.14266184 -0.058933433 0.03992169 -0.050038077 0.063788645 -0.11524991
0.024748836 0.009303959 -0.09594132 -0.10151607 0.061513256 0.07801329 -0.12356086 0.14643517
00000000: 9ca9 58bc 30e8 ebbd c77e eabb 3770 fdbd
00000010: e477 493e a5e5 2fbe 0e13 a83d 3850 283e
00000020: 738f a03d 5fab cc3d 3368 47bd 59d7 393e
00000030: ef88 91bc a2ec 3fbe c40f 233e 9674 c9bd
00000040: c34d ab3b a7bf 303e f215 12be 2f64 71bd
00000050: ed84 233d baf4 4cbd 9fa3 823d 2508 ecbd
00000060: 12be ca3c a26f 183c e27c c4bd a8e7 cfbd
00000070: 53f5 7b3d 6fc5 9f3d 7a0d fdbd 1af3 153e

4.weight f4 [32, 32]
-1.0254033e-05 0.09373496 -0.03450264 0.17943795 0.17825301 0.20350838 -0.10256334 0.23568487
0.07793936 0.17446394 0.007864128 0.13544554 -0.15262637 0.066775665 -0.12849803 -0.007462527
-0.04273727 0.027221793 0.018930938 0.08319564 -0.037321698 0.04397405 0.23460402 0.19879115
0.09119529 0.11166401 0.3136057 -0.010517652 0.01787839 0.11034896 -0.20272817 -0.1368174
6.6597786e-06 -0.0044227364 0.07139707 0.1300371 0.03620074 0.20060243 -0.04574143 0.21968359
0.20704375 -0.038976494 -0.051504284 -0.1816992 -0.13986583 -0.17382996 -0.053283032 -0.065155156
-0.0046461616 0.014386145 -0.017143877 0.28129464 -0.08885719 -0.07571063 0.11601601 0.10483949
0.092197426 0.13408732 0.3457884 -0.019847896 0.10394007 0.22510919 -0.15654579 0.13815147
0.021111228 -0.0067328666 0.06485469 -0.041949324 -0.061953038 0.022263689 0.033473127 -0.058723442
0.0631284 -0.07668488 0.033819698 0.12742098 0.016895873 -0.032427896 0.060050413 7.840147e-06
0.02683857 0.038196493 0.09896633 -0.07763384 -4.8283964e-06 0.029364584 0.0013236861 0.027367467
-0.100860275 -0.021108048 -1.4399321e-06 -2.2889748e-05 0.091004334 0.0023887774 -0.04187137 -0.02727477
-0.00093643 0.07585444 0.044074807 -0.03490361 -0.022870064 0.06319809 -0.027523004 0.23385389
0.022520225 0.20242095 -0.023339381 -0.17509612 0.010643943 0.047286123 -0.13927224 -0.13589692
0.249981 0.2051568 -0.07023704 0.20759657 -0.038130842 -0.13995367 0.06303097 0.15850046
-0.076303355 0.0914085 0.020790583 0.015092577 0.15725066 0.1687043 -0.025253655 0.04848949
-0.018422747 -0.053401314 -0.083617695 -0.0013714631 -0.07973086 0.04875007 0.15718307 -0.11442971
0.03319249 -0.037097163 0.07996619 0.15733066 0.2195924 0.05826749 0.17990999 0.16482347
-0.24097745 -0.20583242 0.015077481 -0.0022205345 -0.047053438 4.6233336e-06 0.025823878 -0.052450947
-0.034658168 0.0821942 -0.013383934 -0.015000718 0.0335576 -0.06606244 0.13652164 0.20854503
9.0544145e-06 -0.012931342 0.17198305 2.0563588e-05 -0.044618577 0.028555388 -0.14764947 0.010936268
-0.1164241 0.019238153 -2.1849198e-06 0.0042047645 -0.16487734 -0.1545596 0.06160929 0.129578
-0.12644011 0.06005219 -0.103611976 0.03137397 0.14138077 0.02206373 -0.1481167 0.009154971
0.06985328 -0.0020694912 0.05038781 -7.6132055e-05 -0.032851633 -0.076653615 -0.001061418 0.02514948
1.5788997e-05 -0.054166768 -0.12183891 0.044573903 -0.10475805 -0.075444154 0.047854412 -0.02416234
0.09775711 -0.09753156 0.050834242 0.051768422 -0.04232377 0.24471943 0.09196649 -0.02180065
-0.12645715 -0.0032713471 -0.058177836 -0.041620478 0.1277302 -0.035871223 -0.068903245 -0.09427681
0.21612118 0.15821011 -0.070313394 0.044269376 0.015846781 -0.20470406 0.14850155 0.114726715
0.049342778 5.5173366e-08 0.022900835 0.008737647 0.018451141 -0.050971124 0.029353345 -0.032821503
0.03830402 -1.4696468e-06 -0.037001584 2.1823942e-05 1.1464871e-05 -0.03851804 6.7346395e-05 2.6443176e-06
0.024263097 1.2320149e-05 0.007390048 -3.3530393e-06 4.543464e-07 -4.7377143e-06 -0.0121788625 -0.03026756
2.4443023e-05 -0.042867288 -0.0012466811 -9.843206e-07 -0.012378642 -0.00024738058 -3.6153774e-06 -3.078278e-06
00000000: bd08 2cb7 1df8 bf3d a452 0dbd 95be 373e
00000010: f587 363e 8064 503e ba0c d2bd 6057 713e
00000020: ac9e 9f3d ada6 323e 8bd8 003c 3cb2 0a3e
00000030: 164a 1cbe aec1 883d fd94 03be 3788 f4bb
00000040: 470d 2fbd 3d00 df3c 0e15 9b3c 7a62 aa3d
00000050: a3de 18bd 221e 343d 093c 703e e88f 4b3e
00000060: 99c4 ba3d 1ab0 e43d ed90 a03e 3b52 2cbc
00000070: b475 923c a3fe e13d f997 4fbe dc19 0cbe
00000080: 1077 df36 9aec 90bb a138 923d 7228 053e
00000090: 3a47 143d b96a 4d3e 5e5b 3bbd bcf4 603e
000000a0: 4703 543e d1a5 1fbd 28f6 52bd 5b0f 3abe
000000b0: fd38 0fbe 7b00 32be 4f3f 5abd 1170 85bd
000000c0: d43e 98bb deb3 6b3c 5171 8cbc da05 903e
000000d0: c2fa b5bd 2d0e 9bbd cd99 ed3d 16b6 d63d
000000e0: 01d2 bc3d 304e 093e 2d0b b13e 0e98 a2bc
000000f0: 88de d43d 0683 663e 8a4d 20be 9477 0d3e
00000100: 74f1 ac3c 619f dcbb 89d2 843d 0ed3 2bbd
00000110: 78c2 7dbd 5762 b63c 1e1b 093d fe87 70bd
00000120: 7649 813d f60c 9dbd 8686 0a3d a57a 023e
00000130: 3769 8a3c 1dd3 04bd 6cf7 753d 2d89 0337
00000140: 90dc db3c ed73 1c3d dcae ca3d 7efe 9ebd
00000150: 9c03 a2b6 ff8d f03c 897f ad3a bd31 e03c
00000160: d58f cebd c9ea acbc b143 c1b5 5c03 c0b7
00000170: 7b60 ba3d 098d 1c3b 5081 2bbd 576f dfbc
00000180: c17a 75ba 9359 9b3d c987 343d 16f7 0ebd
00000190: 005a bbbc 006e 813d ec77 e1bc 6577 6f3e
000001a0: 567c b83c 7047 4f3e 3b32 bfbc 664c 33be
000001b0: ef63 2e3c 18af 413d 629d 0ebe 9028 0bbe
000001c0: 05fb 7f3e a014 523e 70d8 8fbd 3294 543e
000001d0: 162f 1cbd 0450 0fbe 6216 813d f24d 223e
000001e0: ef44 9cbd 6134 bb3d 0351 aa3c db46 773c
000001f0: 5106 213e d2c0 2c3e c1e0 cebc ea9c 463d
00000200: 4deb 96bc 56bb 5abd c13f abbd aac2 b3ba
00000210: ef49 a3bd 27ae 473d 99f4 203e 205a eabd
00000220: d9f4 073d 32f3 17bd 50c5 a33d 4a1b 213e
00000230: d5dc 603e e4a9 6e3d 533a 383e 7cc7 283e
00000240: cbc2 76be bcc5 52be 8a07 773c 6386 11bb
00000250: 1bbb 40bd 2222 9b36 998c d33c ced6 56bd
00000260: b9f5 0dbd 6f55 a83d 4a48 5bbc 92c5 75bc
00000270: b273 093d bf4b 87bd 54cc 0b3e d48c 553e
00000280: 6ae8 1737 fbdd 53bc 531c 303e f87f ac37
00000290: f8c1 36bd fdec e93c 6c31 17be 082e 333c
000002a0: c26f eebd 5599 9d3c a3a0 12b6 1fc8 893b
000002b0: 9bd5 28be df44 1ebe 065a 7c3d 18b0 043e
000002c0: 8479 01be 49f9 753d 8432 d4bd fe81 003d
000002d0: 1fc6 103e ffbe b43c e7ab 17be bbfe 153c
000002e0: 3d0f 8f3d 4da0 07bb 7363 4e3d 16a9 9fb8
000002f0: 6f8f 06bd 92fc 9cbd 471f 8bba 4806 ce3c
00000300: 9d72 8437 f9dd 5dbd ae86 f9bd 2093 363d
00000310: 638b d6bd 7782 9abd fd02 443d 1af0 c5bc
00000320: e134 c83d a0be c7bd 9137 503d 200b 543d
00000330: b05b 2dbd bb97 7a3e ed58 bc3d 4797 b2bc
00000340: fc7d 01be 1964 56bb e24b 6ebd 3c7a 2abd
00000350: b5cb 023e b4ed 12bd 251d 8dbd 3314 c1bd
00000360: df4e 5d3e d501 223e 7800 90bd ce53 353d
00000370: 1cd1 813c f19d 51be ca10 183e d7f5 ea3d
00000380: a71b 4a3d c2f7 6c33 889a bb3c 5928 0f3c
00000390: d926 973c 19c7 50bd 6d76 f03c d76f 06bd
000003a0: ade4 1c3d ae40 c5b5 f98e 17bd 8f12 b737
000003b0: 3f59 4037 18c5 1dbd 523c 8d38 0875 3136
000003c0: 67c3 c63c a3b2 4e37 3728 f23b c704 61b6
000003d0: e5ec f334 a8f8 9eb6 da89 47bc adf3 f7bc
000003e0: fe0a cd37 9c95 2fbd ad67 a3ba 001d 84b5
000003f0: cacf 4abc dcb2 81b9 b69f 72b6 6a94 4eb6

4.bias f4 [32]
0.11121542 0.057665568 -0.0820798 0.12478447 -0.038805943 -0.024341125 -0.03774151 -0.045072053
0.058941364 0.05371756 -0.0024872576 0.11283521 -0.046549935 -0.04712832 -0.07681704 -0.031254675
-0.00018327212 -0.036935672 0.07681916 -0.035924297 0.015610483 -0.011849649 0.072644964 0.1640207
0.12251098 -0.0048878947 -0.028883714 -0.06423979 0.0008063304 0.05936002 -0.015988918 0.18107219
00000000: e9c4 e33d bb32 6c3d 7419 a8bd 008f ff3d
00000010: fbf2 1ebd 0a67 c7bc d796 1abd 799d 38bd
00000020: 806c 713d f206 5c3d 4201 23bb 2616 e73d
00000030: 25ab 3ebd a009 41bd 4152 9dbd e704 00bd
00000040: bc2c 40b9 dc49 17bd 5d53 9d3d 5b25 13bd
00000050: 1cc3 7f3c 0825 42bc e2c6 943d 0bf5 273e
00000060: 09e7 fa3d a22a a0bb 8a9d ecbc 2790 83bd
00000070: eb5f 533a 7e23 733d 31fb 82bc fd6a 393e

6.weight f4 [2, 32]
0.14305548 0.04539072 0.020871919 0.11341389 -0.08527563 0.124509536 -0.2226579 0.0018943565
-0.16632788 -0.2037063 1.1970654e-05 0.15719412 0.055002805 1.47751925e-05 -0.08362971 -0.09158859
0.007304909 0.0356053 -0.029842084 0.032640435 0.15967032 -0.18786855 -0.072488725 -0.12951162
-0.049659505 -0.02604342 2.0775162e-05 -0.21891241 0.050942685 0.036429096 -0.16223028 -0.24262424
-0.066767186 -0.12719668 0.03590313 -0.19070329 0.13565536 -0.13448405 -0.008614581 -0.0034477026
0.13922115 0.044772055 -0.04673304 -0.17200208 -0.035440564 -0.042340826 0.08998045 0.14463258
-0.010285843 -0.12168349 0.016568294 -0.025988419 -0.16380692 0.042533275 0.22999603 -0.033236366
0.10908599 -5.0067778e-05 -2.3029013e-05 -0.0762122 0.030778408 0.26865345 0.036965013 0.18855302
00000000: 237d 123e 9feb 393d 96fb aa3c 8b45 e83d
00000010: fda4 aebd dbfe fe3d 6f00 64be 0e4c f83a
00000020: db51 2abe 6298 50be 91d5 4837 7ff7 203e
00000030: 9f4a 613d f8e2 7737 0e46 abbd cc92 bbbd
00000040: 055e ef3b ddd6 113d 6377 f4bc fab1 053d
00000050: 9e80 233e 9d60 40be f874 94bd b29e 04be
00000060: c467 4bbd 0359 d5bc 5246 ae37 932a 60be
00000070: 47a9 503d ad36 153d b21f 26be 7d72 78be
00000080: 3cbd 88bd d93f 02be 290f 133d b947 43be
00000090: 3de9 0a3e 30b6 09be 2c24 0dbc daf2 61bb
000000a0: fd8f 0e3e e762 373d 256b 3fbd 5021 30be
000000b0: 202a 11bd 936d 2dbd ac47 b83d 901a 143e
000000c0: f485 28bc 3235 f9bd 3bba 873c aae5 d4bc
000000d0: 00bd 27be 5f37 2e3d 1484 6b3e db22 08bd
000000e0: 7a68 df3d deff 51b8 6e2e c1b7 2415 9cbd
000000f0: 0023 fc3c f28c 893e a068 173d 0b14 413e

6.bias f4 [2]
0.14647616 0.08586235
00000000: d9fd 153e 9ad8 af3d

exp_avg f4 [32, 2]
-0.0010155481 0.0012136073 0.0009365856 4.3452754e-05 0.0011357402 -0.0012862162 0.002164312 -0.00061577157
-0.0018809957 0.0016515348 0.0002504396 -0.0010038841 -2.347685e-05 0.00071104 -0.001555417 -0.00027589055
-0.00012524078 -6.310873e-05 -1.9563247e-05 6.0146976e-06 -1.9153093e-05 -2.1626357e-07 0.0052059605 4.0216768e-05
0.0009924057 0.0049298573 -0.0025957325 -0.0009773143 -0.0015944617 0.0013107366 5.336262e-05 0.0004248635
-0.0030162088 0.0031625696 0.005152046 0.00010827845 0.0022581774 0.0003536529 -0.0040711924 0.00070934737
-0.0009742762 9.679341e-05 -0.0012200616 0.0006825841 0.0012378547 0.0005825531 -0.006297879 0.0077021695
-0.003635844 0.0027352665 0.0011242663 -0.00016982378 0.0005516496 0.0008024143 -0.0007127667 -0.00021757322
0.0003911034 -0.00055905455 -7.3203923e-06 0.00028092405 -0.00046355746 0.0055281147 -0.0044226996 0.0030923795
00000000: 241c 85ba e711 9f3a 3285 753a 0a41 3638
00000010: 1edd 943a 4196 a8ba 21d7 0d3b bb6b 21ba
00000020: be8b f6ba 5078 d83a 6f4d 8339 c394 83ba
00000030: 27f0 c4b7 1665 3a3a 22df cbba 67a5 90b9
00000040: 1153 03b9 3e59 84b8 c11b a4b7 dcd1 c936
00000050: f4aa a0b7 1436 68b4 c396 aa3b 6dae 2838
00000060: 9c13 823a a48a a13b 2a1d 2abb 3a19 80ba
00000070: 42fd d0ba 06cd ab3a add1 5f38 37c0 de39
00000080: 96ab 45bb 1d43 4f3b 7fd2 a83b 8d13 e338
00000090: eefd 133b 7d6a b939 a367 85bb 7ff3 393a
000000a0: 9266 7fba 91fd ca38 79ea 9fba 72ef 323a
000000b0: 833f a23a 7ab6 183a 705e cebb 7b62 fc3b
000000c0: 5747 6ebb 2842 333b 1e5c 933a b912 32b9
000000d0: 949c 103a 1d59 523a f7d8 3aba 5e24 64b9
000000e0: 020d cd39 848d 12ba b1a1 f5b6 fd48 9339
000000f0: a109 f3b9 3025 b53b 4bec 90bb 85a9 4a3b

exp_avg_sq f4 [32, 2]
4.330597e-06 2.5269853e-06 2.0136695e-06 7.385117e-07 3.4473157e-06 1.8360347e-06 3.9858587e-06 1.6913373e-06
5.7852594e-06 2.547356e-06 1.4301319e-06 4.1005904e-07 7.822437e-07 1.5237512e-06 8.670566e-07 1.3960733e-06
5.7159423e-06 3.2810249e-06 9.789684e-11 1.9595551e-11 9.472942e-11 1.9068404e-12 7.065709e-06 4.321872e-06
4.384367e-06 5.1951383e-06 1.1454894e-05 4.512341e-06 8.816475e-06 4.095673e-06 3.893484e-06 2.2276363e-06
2.7819258e-06 6.910976e-07 8.120923e-06 6.7679707e-06 1.3591401e-05 2.889965e-06 6.934992e-06 4.5085235e-06
7.4757277e-06 3.6072468e-06 1.9707531e-06 1.0666615e-06 2.7422523e-06 2.2383495e-06 1.1329226e-05 2.6239697e-06
5.902421e-06 3.1272575e-06 6.296315e-07 1.4157687e-06 1.2557562e-05 5.4444686e-06 1.5439895e-06 6.3303804e-07
2.0772782e-06 1.7162614e-06 2.667651e-06 2.1524004e-06 2.4370443e-06 1.128588e-05 1.2112207e-05 5.662556e-06
00000000: 8c4f 9136 4795 2936 9422 0736 233e 4635
00000010: 6f58 6736 ac6d f635 44be 8536 e801 e335
00000020: 001f c236 3ef3 2a36 f5f2 bf35 1626 dc34
00000030: 61fb 5135 b183 cc35 adbf 6835 b760 bb35
00000040: 92cb bf36 942f 5c36 0647 d72e 425d ac2d
00000050: ec4f d02e 952e 062c fa15 ed36 9904 9136
00000060: 6d1d 9336 e651 ae36 652e 4037 b768 9736
00000070: 79ea 1337 906d 8936 c6a4 8236 807e 1536
00000080: 1fb1 3a36 de83 3935 193f 0837 6d18 e336
00000090: 9f06 6437 38f1 4136 21b3 e836 ec47 9736
000000a0: 03d8 fa36 0714 7236 4841 0436 362a 8f35
000000b0: 8907 3836 8d36 1636 a812 3e37 7517 3036
000000c0: 690d c636 e0dd 5136 f203 2935 7105 be35
000000d0: 51ae 5237 a1af b636 133b cf35 0bee 2935
000000e0: 5e67 0b36 4b5a e635 e505 3336 f571 1036
000000f0: 1a8c 2336 7c58 3d37 8835 4b37 fc00 be36

exp_avg f4 [32]
0.0051514655 -6.766676e-05 0.0006982584 0.00086873013 0.0025223857 0.00057987426 0.0003789152 0.0014776284
0.0013584004 -4.4237888e-05 -5.587976e-05 0.0004889533 0.00013987675 -0.0011647186 0.00078721193 -0.00053960504
-0.001143705 0.0013109981 0.0015392434 0.0020289088 -0.0014827411 0.0030360927 -0.00070790533 -0.003307284
-6.176831e-05 0.00063752127 0.0030694401 0.0015506181 -0.0003515878 -0.0002606347 -0.00082393433 0.0009916876
00000000: a0cd a83b 51e8 8db8 540b 373a 7ebb 633a
00000010: 9c4e 253b b402 183a 23a9 c639 fbac c13a
00000020: 5b0c b23a 128c 39b8 6f60 6ab8 1a2d 003a
00000030: e1ab 1239 79a9 98ba e65c 4e3a 4874 0dba
00000040: 5fe8 95ba ccd5 ab3a 70c0 c93a 71f7 043b
00000050: 8958 c2ba 2ff9 463b b992 39ba 05bf 58bb
00000060: 9c89 81b8 541f 273a a928 493b 1c3e cb3a
00000070: 5155 b8b9 cca5 88b9 4cfd 57ba 84fb 813a

exp_avg_sq f4 [32]
7.760624e-06 3.1117956e-06 5.478546e-06 4.6737036e-06 8.109766e-06 1.4761553e-06 1.8803988e-06 2.7503786e-06
1.0925504e-05 3.800593e-10 5.757519e-10 9.408139e-06 1.0124871e-05 1.870765e-05 1.3423243e-05 6.178015e-06
2.4049168e-06 1.3276511e-05 1.6126476e-05 1.1221655e-05 1.2555243e-05 3.1328e-06 4.384573e-06 8.08194e-06
7.911892e-06 2.747034e-06 2.3996177e-05 1.943496e-06 4.2828015e-06 4.239042e-06 1.4136391e-05 1.5608297e-05
00000000: a033 0237 3ed4 5036 5ad4 b736 cfd2 9c36
00000010: 2e0f 0837 4f20 c635 0362 fc35 2593 3836
00000020: af4c 3737 97f0 d02f f042 1e30 a6d7 1d37
00000030: fddd 2937 5fee 9c37 6434 6137 bf4c cf36
00000040: 2864 2136 2ebe 5e37 5847 8737 a444 3c37
00000050: 5ca4 5237 183d 5236 321f 9336 ab97 0737
00000060: 51bd 0437 af59 3836 664b c937 026d 0236
00000070: fcb4 8f36 183d 8e36 562b 6d37 90ee 8237

exp_avg f4 [32, 32]
4.5613256e-06 7.916789e-09 -4.756031e-07 -5.276354e-06 -8.2255985e-07 2.3651157e-09 -6.4473284e-07 -2.5235818e-06
-6.193942e-07 -1.7622722e-06 -3.6751017e-06 -6.424858e-07 -4.0559908e-06 -2.0869475e-06 5.7217703e-06 -6.5801794e-07
-5.449239e-09 -4.793e-06 -1.5043248e-06 -1.4679448e-07 -6.520349e-07 -4.0842833e-06 -8.163673e-07 -9.938165e-07
6.354858e-08 -5.8153796e-07 -1.2645314e-10 -1.7075594e-06 -2.1574983e-06 -1.815622e-06 -2.9406127e-07 -2.9655712e-06
0.00030530547 -7.382882e-05 0.00017841523 -0.00018235767 5.5376117e-05 -5.166358e-05 0.00046966565 0.0001696928
0.00045589192 -5.650992e-06 -1.1254249e-09 -0.00018473493 -3.415889e-05 -9.108806e-05 6.751382e-05 0.00021263394
1.2800891e-05 -0.00014735413 0.00020747009 2.2492572e-05 0.00024311936 -9.0564936e-05 0.00020429473 6.182165e-05
5.3027805e-05 -0.00028255378 -0.00016552975 -6.284172e-05 0.0002991228 0.00020303545 -2.2168178e-06 4.0111194e-05
0.0011062935 0.00020834235 0.0014826932 -0.00053539395 0.0002298373 -0.0003230968 0.0020044914 0.00056840584
0.0020704344 -6.598112e-07 -3.8163944e-07 -0.00052175485 -0.00013246639 1.1676613e-05 0.00037569992 0.0009084076
2.5192112e-05 -0.00043420476 0.0013506485 5.3165575e-05 0.0010521245 -0.00017763236 0.0007869282 0.0002199345
0.00018978376 -0.0002883613 0.00042621756 -0.00023148858 0.0013159733 0.00080546376 -3.9560323e-06 0.00014450426
-0.00044144312 -0.0004926634 0.0003218625 -0.0011111818 0.000302632 -0.0010568014 0.00084409554 -0.00028309863
0.00077568815 -2.6248714e-09 3.5951505e-06 -0.00121832 -0.00028409422 -0.00033674884 0.00025539455 -0.0002841279
1.711781e-05 -0.001088391 -0.000115225586 3.8537986e-05 0.0006714228 -0.0010979447 0.00013716811 0.00018068175
0.00013508352 -0.001339225 -0.00034616125 -0.0007271495 0.00048449103 -0.00019094034 -1.6505993e-07 0.00011865628
-0.00023833997 -0.00031332026 -0.00073587487 0.00023191156 -1.9076579e-06 0.0003537886 -0.0006525147 4.280926e-05
-0.00071263104 3.587207e-06 4.776105e-07 0.00026666222 0.00025574805 0.00020648062 7.6326185e-05 8.9436886e-05
7.986106e-05 0.00022534165 -0.0007919123 -8.157126e-07 -0.00025585387 0.00012925836 1.3853376e-05 1.3260886e-05
3.3006182e-09 0.00031920001 -0.0005363977 0.00019381252 -0.0004565534 0.000101250436 5.034087e-09 -5.0590643e-06
0.00064811646 0.0002912874 0.0021134433 -0.00054963096 0.00017629862 -0.00097315205 0.0018800402 0.00010251401
0.0019962806 4.881221e-06 -2.7486355e-10 -0.00065217755 -4.9541668e-05 7.132762e-05 0.00021435648 0.0003516286
-0.00019317618 -0.0005802014 0.0015887193 3.265495e-05 0.0010992527 -0.00050166564 0.00051816355 4.2765165e-05
0.00011885116 -3.757073e-05 0.0010390603 -0.0005130839 0.0012917615 0.00033173573 -1.2683605e-05 0.00011364566
-0.0014204961 1.782058e-05 0.00025449216 6.4267195e-05 -0.0011959638 -0.00056869385 -0.00059479265 -0.0006816921
-0.00061995984 4.651479e-11 8.075246e-09 3.6564114e-05 -0.0011266308 3.082697e-05 -0.0004476323 -0.0009240073
-0.00071381766 3.6322643e-05 -0.0006795107 -0.0005096424 -0.00029524925 -0.00010782252 -0.0005345477 -0.0006374574
-0.00092012656 -0.00031581803 -0.00013233555 -4.8745464e-05 -0.00029422255 -0.00077954953 -0.00078797666 -0.00073370774
0.0006561096 0.00028172447 0.0015018133 -0.0012595429 -1.2831792e-06 -3.3151682e-06 0.0016731326 2.2437573e-05
0.0016594147 -2.3231896e-09 1.6801813e-06 -0.0013190206 -0.00046968757 -0.00018492009 4.091731e-05 -0.0005508805
4.0364842e-10 -0.0011203754 0.0014258575 -7.701164e-11 0.00082604354 -0.00035031338 -0.00014516425 -4.2365537e-06
-3.173023e-06 -0.00027047453 0.00059235416 -0.00022970792 0.0011450184 -0.00048292434 6.1253147e-10 6.244733e-07
00000000: 7d0d 9936 6802 0832 6456 ffb4 890b b1b6
00000010: e2cd 5cb5 8e87 2231 b411 2db5 ce5a 29b6
00000020: 7244 26b5 3687 ecb5 c4a1 76b6 4a77 2cb5
00000030: b218 88b6 7c0d 0cb6 a2fd bf36 a6a2 30b5
00000040: 033c bbb1 8ed3 a0b6 35e8 c9b5 8f9e 1db4
00000050: 7f07 2fb5 ba0b 89b6 5524 5bb5 4663 85b5
00000060: 3478 8833 fc1a 1cb5 6509 0baf 4b2f e5b5
00000070: 8ac9 10b6 4cb0 f3b5 79df 9db4 2004 47b6
00000080: 6811 a039 8cd4 9ab8 f914 3b39 4437 3fb9
00000090: a743 6838 59b1 58b8 753d f639 90ef 3139
000000a0: c704 ef39 a79d bdb6 5ead 9ab0 68b5 41b9
000000b0: d445 0fb8 8806 bfb8 3596 8d38 7df6 5e39
000000c0: 69c3 5637 1383 1ab9 548c 5939 6eae bc37
000000d0: dbed 7e39 aeed bdb8 f337 5639 3fa6 8138
000000e0: 2c6a 5e38 ba23 94b9 0e92 2db9 e4c9 83b8
000000f0: 95d3 9c39 eae5 5439 a4c4 14b6 113d 2838
00000100: 0d01 913a 7976 5a39 ee56 c23a ae59 0cba
00000110: 7b00 7139 5265 a9b9 c95d 033b 1201 153a
00000120: 20b0 073b e11d 31b5 20e4 ccb4 60c6 08ba
00000130: ade6 0ab9 ace6 4337 97f9 c439 3422 6e3a
00000140: a653 d337 faa5 e3b9 3e08 b13a 1afe 5e38
00000150: 71e7 893a d342 3ab9 dc49 4e3a 389e 6639
00000160: b100 4739 332f 97b9 f475 df39 bebb 72b9
00000170: bd7c ac3a c225 533a 0fbe 84b6 1186 1739
00000180: 7e71 e7b9 1526 01ba a7bf a839 13a5 91ba
00000190: 94aa 9e39 5f84 8aba 4b46 5d3a db6c 94b9
000001a0: 8d57 4b3a 3a61 34b1 3744 7136 09b0 9fba
000001b0: 7bf2 94b9 aa8d b0b9 7ae6 8539 00f7 94b9
000001c0: 3898 8f37 58a8 8eba 44a5 f1b8 d9a3 2138
000001d0: 6c02 303a e9e8 8fba c9d4 0f39 6375 3d39
000001e0: 35a5 0d39 ef88 afba fa7c b5b9 2d9e 3eba
000001f0: 4903 fe39 2837 48b9 543b 31b4 1bd7 f838
00000200: e6ea 79b9 2245 a4b9 bae7 40ba 492d 7339
00000210: 5005 00b6 b47c b939 850d 2bba 188e 3338
00000220: dccf 3aba bfbb 7036 2535 0035 ccce 8b39
00000230: ec15 8639 b882 5839 4f11 a038 1090 bb38
00000240: 157b a738 b049 6c39 5698 4fba 58f7 5ab5
00000250: 2024 86b9 8789 0739 cc6b 6837 127b 5e37
00000260: 17d1 6231 4d5a a739 0a9d 0cba 273a 4b39
00000270: 8f5d efb9 6a56 d438 4cf8 ac31 08c1 a9b6
00000280: 5ce6 293a efb7 9839 b281 0a3b 1c15 10ba
00000290: cddc 3839 211b 7fba ae6b f63a cafc d638
000002a0: 08d4 023b 5ec9 a336 9b1b 97af e5f6 2aba
000002b0: f6ca 4fb8 b995 9538 e1c4 6039 cb5a b839
000002c0: 568f 4ab9 a818 18ba 933c d03a fcf6 0838
000002d0: cd14 903a 3682 03ba 5ed5 073a bf5e 3338
000002e0: bb3f f938 4495 1db8 1431 883a 7a80 06ba
000002f0: 5350 a93a d1ec ad39 abcb 54b7 0d55 ee38
00000300: f12f baba 677d 9537 5c6d 8539 30c7 8638
00000310: e3c1 9cba 6614 15ba dceb 1bba 95b3 32ba
00000320: cd84 22ba ff92 4c2e 4fbb 0a32 6b5c 1938
00000330: 75ab 93ba 354c 0138 31b0 eab9 1539 72ba
00000340: 7e1f 3bba 2459 1838 3121 32ba 8699 05ba
00000350: afcb 9ab9 c61e e2b8 e420 0cba 0b1b 27ba
00000360: a634 71ba 6194 a5b9 8ec3 0ab9 0b74 4cb8
00000370: e241 9ab9 af5a 4cba 3890 4eba 4b56 40ba
00000380: c5fe 2b3a 6bb4 9339 7ed8 c43a 3f17 a5ba
00000390: b439 acb5 287a 5eb6 044d db3a 5238 bc37
000003a0: b880 d93a fca5 1fb1 9782 e135 fde2 acba
000003b0: 6640 f6b9 1ce7 41b9 a19e 2b38 f768 10ba
000003c0: 77e8 dd2f 8fd9 92ba d7e3 ba3a b359 a9ae
000003d0: d88a 583a 44aa b7b9 3b37 18b9 b827 8eb6
000003e0: 1ff0 54b6 7ace 8db9 3748 1b3a c0dd 70b9
000003f0: 7114 963a 0231 fdb9 125f 2830 7aa1 2735

exp_avg_sq f4 [32, 32]
1.44009665e-11 6.921693e-13 2.0914327e-12 1.6880672e-11 3.5246639e-12 2.7619798e-13 3.887117e-12 8.17774e-12
2.6227956e-12 6.0351563e-12 1.15281664e-11 3.1240642e-12 1.2611218e-11 1.01968494e-11 2.9585487e-11 1.3896703e-11
5.2412507e-13 1.5188432e-11 5.3569935e-12 7.495179e-13 4.275622e-12 1.2827317e-11 7.1359372e-12 4.0376157e-12
2.9569815e-14 3.4360726e-12 6.935616e-15 5.890381e-12 7.247278e-12 1.4516174e-11 1.0891496e-12 9.302378e-12
4.3621498e-07 1.4664921e-07 7.378422e-07 2.6973458e-08 1.360615e-08 2.061098e-08 7.5579e-07 1.3358523e-07
8.4882737e-07 1.8238506e-11 4.1767506e-13 1.5429109e-08 4.1167286e-08 1.9364096e-07 1.2791926e-07 5.940019e-07
9.364718e-09 1.539709e-08 5.40436e-07 5.2321375e-10 2.175498e-07 6.946617e-08 2.648293e-07 2.9917677e-09
3.0838272e-09 5.462814e-07 6.529656e-07 4.6039594e-09 2.7428285e-07 4.5496589e-07 2.3185849e-11 2.283256e-09
2.303618e-06 2.9664616e-07 2.9035848e-06 5.2795233e-08 1.6361527e-07 1.5814948e-07 4.7654626e-06 9.938842e-07
5.305462e-06 3.1698732e-12 2.4100548e-12 4.254384e-08 1.5580365e-07 8.147709e-07 7.8054387e-07 4.5293564e-06
9.505395e-08 3.478928e-08 1.9359268e-06 5.8317418e-09 1.3257577e-06 2.0446143e-07 1.9411468e-06 3.5089116e-08
4.247103e-08 2.1652613e-06 1.8720614e-06 1.8975223e-08 1.6537532e-06 3.4470681e-06 1.1879572e-10 2.7542464e-08
1.1445578e-06 5.231778e-07 1.147488e-06 7.789226e-08 9.9178274e-09 8.7342976e-08 1.1171381e-06 1.3479278e-07
1.4882814e-06 9.111792e-13 1.1279718e-11 9.514197e-08 3.0234708e-09 1.1365571e-08 1.1089201e-08 3.9850357e-07
1.2856936e-08 8.033925e-08 1.5111269e-06 1.8486918e-10 1.4419871e-07 2.9672313e-07 1.8385003e-07 6.750194e-09
1.8744903e-09 2.1563477e-07 1.2512155e-06 3.7229675e-08 4.630281e-07 2.9273772e-07 1.732293e-12 1.4658152e-09
1.2664324e-07 8.5514834e-08 4.1574907e-07 9.887344e-09 6.422588e-12 5.1409805e-09 1.8772604e-07 1.1421223e-08
2.3139773e-07 1.1255125e-11 2.6796297e-12 8.017484e-09 2.7453911e-08 1.0698678e-07 3.1792514e-08 4.686614e-08
2.7222835e-10 7.681267e-09 3.0952893e-07 3.5775569e-12 5.8422778e-08 2.7176506e-08 2.8955077e-08 1.6274048e-11
4.691364e-13 3.515442e-07 3.7627623e-07 2.2963635e-09 9.110172e-08 3.7424055e-08 5.1266294e-13 1.6111642e-11
3.0624014e-06 6.5339015e-07 2.5487275e-06 7.83024e-08 1.3416647e-07 1.8262969e-07 4.7670324e-06 8.1232594e-07
5.559704e-06 1.5492305e-11 5.0035564e-14 9.4527444e-08 2.9813338e-09 1.2209077e-07 3.7850893e-07 3.369752e-06
6.837017e-08 8.140867e-08 2.9889704e-06 4.9957114e-09 9.864452e-07 4.832343e-07 1.4942985e-06 1.816193e-08
3.5158376e-08 3.0609687e-07 1.7681583e-06 4.9856215e-08 1.6748144e-06 2.5567094e-06 1.4322372e-10 2.464146e-08
9.0628043e-07 2.8962017e-08 1.3117232e-06 3.3777214e-09 3.4762382e-07 8.526959e-08 3.5654384e-06 9.045012e-07
3.5131504e-06 9.499354e-15 6.6472533e-13 9.984167e-10 2.3564638e-07 1.9498384e-06 3.2017974e-06 6.837909e-06
7.566345e-08 9.7124e-10 4.5203194e-07 3.211278e-08 1.9554934e-06 6.109196e-08 2.8190357e-06 3.0266e-08
1.5061876e-07 1.7328749e-06 2.392409e-07 6.2412044e-09 1.2236858e-06 5.3075105e-06 6.963542e-08 6.590944e-08
1.5202495e-06 1.8928716e-06 8.093907e-06 3.6733775e-07 4.783099e-12 4.9389316e-11 2.0632665e-06 2.2098217e-08
2.507359e-06 2.6786158e-13 5.818135e-12 3.096336e-07 2.9659554e-07 1.4448254e-06 3.374583e-07 1.2185795e-07
3.376907e-14 2.6187325e-07 5.3826343e-06 2.388535e-14 7.531517e-07 3.8202867e-07 1.16681335e-07 1.33226616e-11
9.996623e-12 5.768192e-06 8.775593e-06 1.1219545e-08 1.2020784e-06 1.0821202e-07 3.726175e-13 3.076292e-12
00000000: 3058 7d2d 0ed4 422b e72b 132c e57b 942d
00000010: b306 782c 537c 9b2a 0ac4 882c 44dd 0f2d
00000020: 1690 382c db57 d42c 3fce 4a2d 23d6 5b2c
00000030: e0db 5d2d 8762 332d 4c1e 022e 3079 742d
00000040: 3187 132b 4f99 852d 827b bc2c 75f8 522b
00000050: 616f 962c 1aa9 612d cf12 fb2c 9c0f 8e2c
00000060: ad2b 0529 c8ca 712c c4e1 f927 d63f cf2c
00000070: adfd fe2c 095f 7f2d c048 992b 30a6 232d
00000080: ee30 ea34 a176 1d34 2110 4635 43b3 e732
00000090: 7bc0 6932 060c b132 7ee1 4a35 a16f 0f34
000000a0: f9da 6335 776d a02d 5221 eb2a f888 8432
000000b0: e9cf 3033 9feb 4f34 2e5a 0934 8073 1f35
000000c0: 77e2 2032 8f42 8432 7b12 1135 e5d1 0f30
000000d0: a297 6934 6e2d 9533 dd2d 8e34 bc97 4d31
000000e0: 43eb 5331 2ca4 1235 7447 2f35 db30 9e31
000000f0: 2641 9334 0942 f434 e4f1 cb2d 77e7 1c31
00000100: db97 1a36 bd42 9f34 35db 4236 f9c0 6233
00000110: 39ae 2f34 cccf 2934 03e7 9f36 9a65 8535
00000120: 9205 b236 5c0f 5f2c b097 292c 72b9 3633
00000130: fb4a 2734 a1b6 5a35 9186 5135 e0fa 9736
00000140: 7620 cc33 386b 1533 f8ea 0136 8b60 c831
00000150: b0f0 b135 ee89 5b34 a644 0236 e4b4 1633
00000160: 6469 3633 e84e 1136 8a43 fb35 f5fe a232
00000170: 87f6 dd35 2e54 6736 069e 022f 8596 ec32
00000180: b59e 9935 8170 0c35 6303 9a35 b945 a733
00000190: 1163 2a32 4f91 bb33 93f0 9535 8fbb 1034
000001a0: f6c0 c735 b13c 802b 556f 462d da50 cc33
000001b0: 76c5 4f31 4f42 4332 d282 3e32 eaf1 d534
000001c0: 67e1 5c32 f886 ac33 edd1 ca35 0c44 4b2f
000001d0: 0ad5 1a34 514d 9f34 5068 4534 56ef e731
000001e0: 62d0 0031 3c89 6734 70ef a735 76e6 1f33
000001f0: 1996 f834 9129 9d34 6fcc f32b ca75 c930
00000200: 6efb 0734 47a4 b733 1e34 df34 00dd 2932
00000210: 88f9 e12c 8ba4 b031 be91 4934 1237 4432
00000220: 2076 7834 9400 462d eb8f 3c2c 44bd 0932
00000230: cad3 eb32 9bc0 e533 3d8c 0833 de49 4933
00000240: bca8 952f 92f6 0332 552d a634 89bf 7b2c
00000250: 86ec 7a33 c571 e932 e3b8 f832 e625 8f2d
00000260: d70c 042b debb bc34 0303 ca34 0ece 1d31
00000270: b3a3 c333 2fbc 2033 424d 102b 31b8 8d2d
00000280: a883 4d36 a164 2f35 ce0a 2b36 3327 a833
00000290: 660f 1034 de18 4434 7ff4 9f36 9d0e 5a35
000002a0: 7e8d ba36 9245 882d 1457 6129 03ff ca33
000002b0: 2ee0 4c31 0e18 0334 df35 cb34 e623 6236
000002c0: e6d2 9233 e4d2 ae33 1f96 4836 bea6 ab31
000002d0: 0066 8435 9cb7 0135 b58f c835 8202 9c32
000002e0: 0b01 1733 a255 a434 7551 ed35 7d21 5633
000002f0: 2fca e035 ef93 2b36 e579 1d2f 25ab d332
00000300: 1e47 7335 26c8 f832 770e b035 811d 6831
00000310: 0ea1 ba34 741d b733 c445 6f36 d9cc 7235
00000320: 77c3 6b36 0a20 2b28 821a 3b2b aa38 8930
00000330: fc05 7d34 f8d9 0236 76de 5636 3171 e536
00000340: 6c7c a233 787c 8530 ccae f234 60ec 0933
00000350: 1f3b 0336 a931 8333 aa2e 3d36 d2fd 0133
00000360: c5b9 2134 2195 e835 0571 8034 3772 d631
00000370: 863d a435 2b17 b236 7a8a 9533 198a 8d33
00000380: 600b cc35 930e fe35 11cb 0737 8436 c534
00000390: 534a a82c 6d37 592e a676 0a36 7ed2 bd32
000003a0: 1a44 2836 ecca 962a 1ab5 cc2c b83b a634
000003b0: c83b 9f34 d3eb c135 ea2b b534 0fd8 0234
000003c0: 1615 1829 9697 8c34 7a9c b436 de23 d728
000003d0: 312c 4a35 9f19 cd34 3e92 fa33 ef5f 6a2d
000003e0: cadc 2f2d 648c c136 e33a 1337 15c0 4032
000003f0: 1957 a135 3062 e833 d7c3 d12a 8d79 582c

exp_avg f4 [32]
-1.2604733e-06 0.00035329975 0.0024392863 0.0009236762 -0.0009765805 0.003110708 1.4597025e-05 0.002275836
0.0016747852 0.001013823 -0.00015140128 0.0021587182 0.00027243022 -0.00024341134 0.0005277115 -9.838675e-06
0.0016674036 0.0018432006 -1.7987666e-05 0.0019371342 -0.0017939702 -2.5187874e-06 0.0007701424 0.0011819554
-0.0011047244 -0.00082893093 0.00047557717 -2.896609e-05 -0.00010119127 0.002069755 0.00093735644 -0.00070779846
00000000: 882d a9b5 173b b939 6fdc 1f3b dc22 723a
00000010: 9b00 80ba 05dd 4b3b bfe5 7437 3126 153b
00000020: 7784 db3a 41e2 843a 79c1 1eb9 4879 0d3b
00000030: f7d4 8e39 3c3c 7fb9 1f56 0a3a ca10 25b7
00000040: c88c da3a 8d97 f13a 38e4 96b7 70e7 fd3a
00000050: a723 ebba 7008 29b6 62e3 493a d8eb 9a3a
00000060: 66cc 90ba 9d4c 59ba e356 f939 34fc f2b7
00000070: a636 d4b8 baa4 073b edb8 753a 8d8b 39ba

exp_avg_sq f4 [32]
1.1074517e-11 1.5477098e-06 6.9766306e-06 1.8259076e-06 7.380542e-07 5.6646613e-06 5.434576e-06 1.3299137e-05
6.6616954e-06 2.385088e-05 1.8169727e-07 1.8762503e-05 1.8952547e-05 1.9295172e-05 1.2400879e-05 5.451708e-07
1.0477271e-05 2.1656835e-05 1.635956e-07 3.792095e-05 2.3321472e-06 3.2592844e-08 1.7540664e-06 1.1764115e-05
1.51577915e-05 8.7129376e-07 4.7853737e-06 1.4419817e-10 4.5486667e-07 2.5583615e-05 2.540799e-05 1.647564e-05
00000000: 31d3 422d e7ba cf35 cd18 ea36 b511 f535
00000010: b31e 4635 1213 be36 a75a b636 5c1f 5f37
00000020: 8787 df36 6013 c837 9118 4334 2b64 9d37
00000030: 49fc 9e37 11dc a137 5f0d 5037 da57 1235
00000040: 89c7 2f37 b3ab b537 d1a8 2f34 4f0d 1f38
00000050: fc81 1c36 36fc 0b33 436d eb35 7d5e 4537
00000060: 384e 7e37 dae2 6935 0c92 a036 2d8c 1e2f
00000070: 6634 f434 659c d637 3e23 d537 2b35 8a37

exp_avg f4 [32, 32]
-5.375477e-09 0.00022952684 -0.00013574101 -0.0008484644 0.0012151866 -0.00036872373 0.000734989 -0.0005595762
-0.0002696666 -0.0006022774 0.00016866256 0.0007299544 0.0009553803 0.0014165323 0.0011111008 -7.4918444e-07
-0.00048682038 -0.00030744282 -3.5982719e-06 -0.0009062905 0.00034500088 1.648769e-06 -3.18639e-05 -0.0007842816
0.001654063 0.00061682134 -0.0010612743 1.6026253e-06 6.331125e-05 -0.00018880027 0.0013889832 0.00015514735
1.4669224e-10 0.00017977493 -9.723793e-05 -0.0006880959 0.00097390916 -0.00029277147 0.00059581746 -0.00045044118
-0.00020225406 -0.0004996511 0.00012549944 0.0005581735 0.0007657544 0.0011168614 0.00089833944 -6.58689e-06
-0.00038822068 -0.00024431333 -6.2978324e-06 -0.00070513 0.00027642198 -9.956291e-06 -3.34682e-05 -0.00063916075
0.0013352068 0.0005040672 -0.0008497207 -7.0897875e-07 6.0160695e-05 -0.00013497188 0.0011193474 0.0001490507
2.4781332e-06 -6.8997383e-07 6.5207487e-06 -4.4521994e-06 -6.710041e-06 2.2558447e-06 3.3761498e-06 -6.2859885e-06
6.3688626e-06 -8.218446e-06 3.832441e-06 1.2962898e-05 1.7972766e-06 -3.6558547e-06 6.082205e-06 -2.8921716e-11
2.717741e-06 3.8491976e-06 1.0061636e-05 -7.920308e-06 -2.1776942e-09 3.0034716e-06 1.3351158e-07 3.1487552e-06
-1.01580445e-05 -2.1333067e-06 -9.791667e-10 -1.7681523e-09 9.260634e-06 2.4170973e-07 -4.6775926e-06 -2.7738668e-06
-1.6270057e-07 0.00032630799 -0.00019204392 -0.0012687572 0.0017437172 -0.0005640412 0.001096063 -0.00082847313
-0.00040553807 -0.00088871614 0.00024110958 0.0010417767 0.0014270209 0.0020673233 0.0016373126 -1.3611356e-05
-0.000683372 -0.00043716526 -1.5061569e-05 -0.0013215041 0.00050807523 -1.8075993e-05 -6.845436e-05 -0.0011602002
0.0024135152 0.0008918371 -0.0015936836 4.7192198e-06 0.00010548039 -0.0002811637 0.0020742656 0.00027114092
-2.1869428e-06 -6.914713e-05 -6.273561e-05 -2.340364e-05 -3.174524e-05 3.7629627e-05 -0.000937574 -1.479076e-05
-6.235724e-06 0.0009529375 -0.00024336111 -0.0010203612 -0.001184562 -0.0015074832 -0.0013549855 1.6527863e-05
2.3589033e-05 0.0006065485 1.5321766e-06 0.00049757736 -0.00010301195 2.7391325e-11 -0.0005160442 5.228983e-05
-0.0014848171 -4.9234506e-05 6.272895e-05 -4.7173376e-06 -5.3956206e-05 0.00026266073 -0.0016290735 -0.0008526801
-2.509075e-09 -1.4325523e-06 1.7228063e-05 -1.1745162e-08 -4.5269294e-06 2.8716486e-06 -1.4781035e-05 1.1083913e-06
-1.1731429e-05 1.9574497e-06 1.7088558e-10 4.2164356e-07 -1.651428e-05 -1.5601834e-05 6.1655774e-06 1.2970892e-05
-1.2848651e-05 6.0143534e-06 -1.0470299e-05 3.1463853e-06 1.4151798e-05 2.5808433e-06 -1.4824135e-05 1.1588628e-06
6.9899006e-06 -2.0717184e-07 5.559719e-06 -3.1153103e-08 -3.3066156e-06 -7.719949e-06 -1.0504629e-07 2.5176657e-06
-4.5315993e-10 -0.00014477629 -0.0002019539 -2.7726803e-05 7.981192e-05 -8.727468e-05 -0.0009552038 2.4875086e-05
-2.3233717e-05 0.00078041054 -0.00026900697 -0.0010298059 -0.00124461 -0.0014354839 -0.0014167115 -2.191455e-06
-0.00010979236 0.00045529427 -6.3723437e-06 0.00020903624 -4.6851983e-05 -4.0485197e-06 -0.0007568543 -1.305423e-06
-0.0014450925 -0.00033990457 0.00012742961 2.147675e-06 -5.4351007e-05 8.606261e-05 -0.0016249884 -0.00088287226
5.4559846e-06 -4.088031e-13 2.6709117e-06 1.1112768e-06 2.1898873e-06 -5.6250274e-06 3.359916e-06 -3.7270975e-06
4.3040695e-06 -1.1940336e-11 -4.167346e-06 2.4380284e-10 9.063059e-10 -4.3265177e-06 1.1446453e-09 2.605764e-10
2.817116e-06 5.3142983e-09 9.564279e-07 -3.9459588e-10 -3.6872363e-11 -1.0937341e-09 -1.4995263e-06 -3.456893e-06
6.485127e-09 -4.781638e-06 -2.0594712e-07 -5.6187086e-11 -1.5218138e-06 -6.061738e-08 6.3156597e-10 2.084122e-10
00000000: 32b3 b8b1 24ad 7039 b355 0eb9 7b6b 5eba
00000010: e546 9f3a 4351 c1b9 47ac 403a 86b0 12ba
00000020: 0a62 8db9 27e2 1dba 03db 3039 695a 3f3a
00000030: 7d72 7a3a f0aa b93a 5ba2 913a 901b 49b5
00000040: ed3b ffb9 4730 a1b9 d779 71b6 2094 6dba
00000050: 3ce1 b439 454b dd35 9aa5 05b8 3f98 4dba
00000060: 25cd d83a 2eb2 213a 751a 8bba c919 d735
00000070: f8c5 8438 b0f8 45b9 8b0e b63a 0daf 2239
00000080: 324a 212f f781 3c39 37ec cbb8 5661 34ba
00000090: f04d 7f3a 1f7f 99b9 a230 1c3a 3129 ecb9
000000a0: 2914 54b9 05fb 02ba 8098 0339 6452 123a
000000b0: e8bc 483a a663 923a 8a7e 6b3a f404 ddb6
000000c0: 198a cbb9 2e17 80b9 f851 d3b6 79d8 38ba
000000d0: bbec 9039 f209 27b7 3560 0cb8 5a8d 27ba
000000e0: 1b02 af3a 6123 043a cabf 5eba a650 3eb5
000000f0: 0e55 7c38 3d87 0db9 11b7 923a 7e4a 1c39
00000100: 014e 2636 a436 39b5 cecc da36 1a64 95b6
00000110: d026 e1b6 1e63 1736 d091 6236 3bec d2b6
00000120: 1db4 d536 f5e1 09b7 6b98 8036 397b 5937
00000130: f439 f135 1b57 75b6 be15 cc36 ea65 fead
00000140: 6f62 3636 5b28 8136 66ce 2837 77e1 04b7
00000150: 67a6 15b1 408f 4936 625b 0f34 344f 5336
00000160: 786c 2ab7 ee29 0fb6 5e93 86b0 5403 f3b0
00000170: 1f5e 1b37 55c4 8134 37f4 9cb6 ab26 3ab6
00000180: cbb2 2eb4 5114 ab39 665f 49b9 6d4c a6ba
00000190: 718d e43a 2adc 13ba c5a9 8f3a e42d 59ba
000001a0: 669e d4b9 bbf8 68ba 5cd2 7c39 3a8c 883a
000001b0: e00a bb3a ee7b 073b 189b d63a 545c 64b7
000001c0: 5224 33ba 5433 e5b9 f2b0 7cb7 5236 adba
000001d0: 5a30 053a e6a1 97b7 288f 8fb8 dc11 98ba
000001e0: 112c 1e3b 2dca 693a 26e3 d0ba ca59 9e36
000001f0: 5a35 dd38 2769 93b9 67f0 073b eb27 8e39
00000200: 64c3 12b6 1503 91b8 ed90 83b8 ef52 c4b7
00000210: 3126 05b8 81d4 1d38 87c7 75ba d525 78b7
00000220: 763c d1b6 8ece 793a c02e 7fb9 a4bd 85ba
00000230: 4e43 9bba be96 c5ba c599 b1ba 51a5 8a37
00000240: 10e1 c537 c800 1f3a 30a5 cd35 da6f 023a
00000250: 1f08 d8b8 c8ef f02d 2447 07ba c751 5b38
00000260: 329e c2ba 2681 4eb8 598d 8338 9f49 9eb6
00000270: 094f 62b8 bab5 8939 a386 d5ba 6586 5fba
00000280: 1d6c 2cb1 1f46 c0b5 fc84 9037 c5c7 49b2
00000290: 07e6 97b6 8cb6 4036 10fc 77b7 09c4 9435
000002a0: 1bd2 44b7 bb5c 0336 04e4 3b2f 405e e234
000002b0: 2588 8ab7 afe0 82b7 e8e1 ce36 8f9d 5937
000002c0: 8990 57b7 e7ce c936 97a9 2fb7 7d26 5336
000002d0: 826d 6d37 8d32 2d36 2db5 78b7 398a 9b35
000002e0: ca8a ea36 f672 5eb4 9f8d ba36 33cd 05b3
000002f0: 39e7 5db6 ee84 01b7 cf95 e1b3 2bf5 2836
00000300: 9720 f9af 17cf 17b9 96c3 53b9 db96 e8b7
00000310: b360 a738 3d07 b7b8 a466 7aba d7aa d037
00000320: 07e6 c2b7 7794 4c3a 8109 8db9 8dfa 86ba
00000330: 2e22 a3ba d926 bcba f3b0 b9ba e910 13b6
00000340: 5340 e6b8 90b4 ee39 04d2 d5b6 bd30 5b39
00000350: ef82 44b8 85d8 87b6 a267 46ba fe35 afb5
00000360: 4269 bdba 3835 b2b9 a09e 0539 c720 1036
00000370: f3f6 63b8 837c b438 90fd d4ba 8e70 67ba
00000380: 8d12 b736 bc22 e6aa ea3d 3336 2e27 9535
00000390: faf5 1236 9ebe bcb6 eb7a 6136 0c1f 7ab6
000003a0: ad6b 9036 7e0e 52ad 3bd5 8bb6 3308 862f
000003b0: 9c1f 7930 812c 91b6 a051 9d30 de40 8f2f
000003c0: af0d 3d36 1099 b631 9d5e 8035 6fee d8af
000003d0: 972a 22ae 5952 96b0 5543 c9b5 f8fc 67b6
000003e0: c8d3 de31 f571 a0b6 5022 5db4 091d 77ae
000003f0: 2041 ccb5 c22c 82b3 819a 2d30 d226 652f
