checkpoints/ablation_standard/ablation_standard_epoch0150.pt (torch, 43835 bytes, 24 tensors)

0.weight f4 [32, 2]
00000000: ecb6 343f 325f 2a3f d2ae 9abe e0af 493f
00000010: 98d7 b9bd 42d6 973e b628 ecbe 8277 ed3e
00000020: 6ee5 1d3f dfa3 03bf 582b 4c3f 146c a53e
00000030: 8d85 f73e 17c7 46bd 2242 1f3f 368c c5bd
00000040: 9147 103f b21b a13d 1216 1cbb 02f9 a334
00000050: 3809 0bbb 25a0 3e16 ff72 edbe f213 0e3f
00000060: 2302 4abf fb72 19bf 853f 8dbe 6490 95be
00000070: 6b17 aabc 9dfa 4bbf 686e e23e aac6 1ebf
00000080: a886 353f 5ae9 103d 9f86 c2be ea98 1a3f
00000090: 8990 493e 90fe 0f3f c26a 823e fc82 d0be
000000a0: d2bf df3d 7cd8 68be 639f c63e 9ac3 433f
000000b0: 36f1 8e3e 4b98 c5be 8280 103f aeb1 c9bd
000000c0: 6b30 e73e d0c3 ffbe a78a 57bf b355 dcbe
000000d0: 10d8 14bf 346a 193f c023 a63e 6bd5 ba3e
000000e0: c76d 8f3e c084 a236 00b8 f73e 1c2f 47bf
000000f0: 78e9 743d 528e 33bf c1b7 c93e db9d cdbe
0.70591617 0.66551507 -0.30211502 0.7878399 -0.09074324 0.29655653 -0.4612481 0.4638024
0.61678207 -0.5142192 0.7975364 0.3230902 0.4834408 -0.04852971 0.62210286 -0.09645884
0.563592 0.078666106 -0.0023816866 3.0542293e-07 -0.0021215212 1.539861e-25 -0.46376798 0.55499184
-0.7890951 -0.5994107 -0.27587524 -0.29211724 -0.02076312 -0.7967928 0.44224858 -0.6202189
0.70908594 0.03537879 -0.37993333 0.6038958 0.19684042 0.56247807 0.25472075 -0.40724933
0.10925259 -0.22738832 0.38793477 0.7647034 0.27918404 -0.38592753 0.5644609 -0.09848343
0.45154127 -0.4995408 -0.8419594 -0.43034133 -0.58142185 0.5992768 0.3244915 0.3649095
0.2801344 4.8434304e-06 0.48382568 -0.7780626 0.059792966 -0.7013904 0.39398006 -0.40159497

0.bias f4 [32]
00000000: 5862 9d3d 0d57 39be ab70 323f d440 e5be
00000010: 7823 0fbf e280 cfbe 9dc2 333f fdcf 973e
00000020: daa1 433f bcf6 92bd 7b41 0ebe a32a 00bf
00000030: 26df cbbe bb37 cf3e c611 753e cd59 323f
00000040: de21 d1be 7b68 d3be 377a e93e 54bf 58be
00000050: 9ad1 f93e 3d9c 83be 6a14 c03e ad38 eabe
00000060: b136 ccbe aff4 333e ab82 833d 4c38 8cbe
00000070: b412 063f 304c fb3e f84d f7be a811 aabe
0.07684773 -0.18099613 0.6970317 -0.44776022 -0.55913496 -0.40528017 0.7021883 0.2965087
0.7641884 -0.07175967 -0.13892166 -0.5006506 -0.39818686 0.40472206 0.23932561 0.69668275
-0.4084615 -0.4129065 0.45601055 -0.21166736 0.48792726 -0.25705138 0.37515575 -0.45746365
-0.39885476 0.17573808 0.06421407 -0.273867 0.5237229 0.49081564 -0.48301673 -0.33216596

2.weight f4 [32, 32]
00000000: ac1e 8e32 0300 5f11 42ec d0ae d716 acb3
00000010: 1941 4f1e 9ad4 1b0e 734e a3b1 40f4 daae
00000020: e5c8 27af 5e68 cea8 8e79 b5b0 c293 6f9b
00000030: 95c0 2ab3 ce52 19b5 3685 15b6 c843 eeb6
00000040: 257a 9110 57c3 f5b2 34e8 78a6 2f47 a91a
00000050: 074c 95b2 3ab2 a0b1 acda edb3 a033 109f
00000060: 429c 8099 63b4 b2b3 a16e 930e 4052 61a8
00000070: 40ca a1b1 409a 8db6 730d db9c 036f 9dae
00000080: 7735 d63e 8e76 3d3e 35a0 0c3e 0a1e f63e
00000090: 39dd 94be 2632 963e 077d c23c 9256 873e
000000a0: e7ed 65bd 2207 2fb4 4522 8d10 565a d73e
000000b0: 6fd4 513e a900 9dbe 1f15 923e de36 39bd
000000c0: 0b3d 4fbe b3d5 f83e 0495 2b3e 883a 90be
000000d0: f388 003e 9033 953e c78f e93d 582d 3abe
000000e0: 612c a8be c54f 3abe f49e 183e e26b 313e
000000f0: aef5 153e 720b 8a3e eefb 3abd e5e7 acbe
00000100: 5cd9 333e 5d79 f93b b564 85bd 4141 bf3d
00000110: 6319 b1bc 622a e03d df5d 2ebe 9645 fa3d
00000120: 47ba 2fbd 3795 a29b 1142 db16 8aff 853e
00000130: 1f4a 873e 8fc9 26bd d97f 863c 8721 ffbd
00000140: 2d72 963d 6b9f ad3e 7da1 7d3d be85 efbd
00000150: 1820 7ebd aadf 8f3e 068d 39bd 422f 0fbe
00000160: 6928 1abd f20e f53d 9acc f33c 50b7 b33e
00000170: 90dd 15be 536f 5cbb a04c ceb9 4443 21be
00000180: 100e 793e a0b9 403e 9b75 e8bd 1c42 373e
00000190: 62cc 12be 200a e83e 1dfe 0c3c f03c 673e
000001a0: c553 33be add6 4792 4f68 8a30 c78d 983e
000001b0: 1f5a d23e 9b40 31bd d878 a33d 380d 84bc
000001c0: f8b1 b83e 9ad5 a93e 2ce6 993d f427 d3bd
000001d0: de5e 90be 5b62 203e 4e5c 323d dd75 643d
000001e0: 9f7b 11be 1cb4 e93b 9b1d 813d 65b2 ca3e
000001f0: a1ac 25be 7cf6 893e 4dca 52be 2fd6 10be
00000200: d424 ffbd c960 a43e f56f 8c3e 2363 d53d
00000210: 5999 3ebf 3d83 22bf fe99 803d 221e 7a3e
00000220: 52fa 933e 42ab 8630 56f8 0918 fe1c 3b3d
00000230: 1ffe dcbe fa84 87be 5871 1fbe 9db1 08be
00000240: 85e5 63bf f8f3 a8bd 59e8 223e 8d8f 24bf
00000250: 48e1 8a3d 0fe1 05be eb5f 98bd 5a79 3fbf
00000260: 5dc7 3bbf 6eae ccbd d076 b4bb be22 e2be
00000270: 001e 2a3e 35ea 2ebd ab74 19bf 471a 44bf
00000280: a2b1 303e 7834 41bd cfdd e33b 91c2 c73e
00000290: fe65 c7bd 70e7 383e d48b ae3d b170 0abd
000002a0: a94d 0f3d 53e6 1533 5e75 170e 25e0 be3e
000002b0: 1898 f73d d2d5 94be a704 d3bc c5cb 3cbe
000002c0: 1775 e63e 2432 0c3f 0ca1 293e 59c3 62be
000002d0: f110 8abe 7d2a 8e3e 15a5 943d af33 a3be
000002e0: 25ea 85be 8b94 0dbe 265f e5bc 5945 b63e
000002f0: 15a7 febd 2006 433c 50bb 13bb 6090 1cbe
00000300: a653 d73e 5aa4 393e 0741 0bbe e143 d23d
00000310: cdea 373e 85ab 6d3e 46be a43c 5739 5d3d
00000320: d761 25be 49ea 9b0e 4ede 1111 52a4 2d3e
00000330: 52fd 023f 90e6 a6bd 3993 613c dd9e b7bd
00000340: 1569 993e 0ac1 e23e 3dea 4bbd 5735 0f3f
00000350: 7b51 ccbd 86fc df3e 25f6 273e 3825 d93e
00000360: 19dd 8d3e 892c 333e de67 8d3e 58ea e63e
00000370: f7b8 863d 4739 5f3e 7ca6 fe3e 6ae8 043f
00000380: fccb a5ba 9a3b 1ebd c3f9 aa3d e3d7 973e
00000390: 28b2 23a3 6f88 8539 7803 7abe 19dc cbbd
000003a0: 172c 7abe 2a15 0510 6aee 2328 53b0 863e
000003b0: 7e57 a43d 527e 10be e9a1 633e dad6 953b
000003c0: 2ddb 030f 2506 983e 89e7 05be 0289 2c0e
000003d0: 1ed6 0abe b728 713e 413e 83bd 47dd f5b1
000003e0: e0c7 61af 3605 9fbd f19a 2e3e 8ea0 1a3e
000003f0: 1ba6 6cbe 1949 3d3d b0cf 1990 066d 0a1b
1.6544924e-08 1.7591602e-28 -9.500713e-11 -8.013529e-08 1.0971951e-20 1.9207589e-30 -4.752843e-09 -9.95688e-11
-1.5259934e-10 -2.2915856e-14 -1.3204031e-09 -1.981736e-22 -3.975636e-08 -5.711744e-07 -2.228027e-06 -7.1008435e-06
5.738061e-29 -2.8610584e-08 -8.635698e-16 7.0011765e-23 -1.7380456e-08 -4.676875e-09 -1.1075949e-07 -3.053589e-20
-1.3298002e-23 -8.321583e-08 3.634483e-30 -1.2507844e-14 -4.70871e-09 -4.2200845e-06 -1.4495681e-21 -7.159253e-11
0.41837665 0.18502256 0.13732989 0.48069793 -0.2907503 0.29335135 0.023741258 0.26433235
-0.056135084 -1.630074e-07 5.5667494e-29 0.42061108 0.20491193 -0.30664566 0.2853174 -0.04521834
-0.2023813 0.4860054 0.16756064 -0.28169656 0.12552242 0.29140902 0.114043765 -0.1818136
-0.32846358 -0.18194492 0.14904386 0.1732631 0.146445 0.26961857 -0.045650415 -0.3377067
0.17563385 0.0076133446 -0.06513349 0.09338618 -0.02161855 0.10945584 -0.17027996 0.12220304
-0.042902257 -2.689708e-22 3.5423052e-25 0.26171523 0.26423737 -0.040719565 0.016418384 -0.12457567
0.07345996 0.3391069 0.061921585 -0.11695431 -0.062042326 0.2810033 -0.045300506 -0.13982871
-0.037636194 0.11965741 0.029760648 0.35100794 -0.146353 -0.003363569 -0.00039348472 -0.15748316
0.2432177 0.1882081 -0.113505565 0.17896312 -0.14335778 0.45320225 0.008605507 0.2258184
-0.17512424 -6.3057936e-28 1.0070468e-09 0.29795668 0.41084382 -0.043274503 0.079820335 -0.016119584
0.3607328 0.33170778 0.07514605 -0.10310355 -0.28197378 0.1566252 0.04354506 0.055776466
-0.14207314 0.0071320664 0.06304475 0.3958923 -0.16179134 0.26945865 -0.20584984 -0.14144205
-0.12458196 0.3210509 0.27429166 0.104192995 -0.7445274 -0.63481504 0.06279372 0.24425557
0.28901917 9.798458e-10 1.7832213e-24 0.045681946 -0.4316263 -0.2646864 -0.15570581 -0.13349004
-0.89022094 -0.08249658 0.15908946 -0.6428154 0.0678125 -0.13074134 -0.0744017 -0.7479454
-0.7335108 -0.09994207 -0.0055073276 -0.4416713 0.16613007 -0.042703826 -0.59943646 -0.76602596
0.17255262 -0.04716918 0.006953932 0.3901563 -0.0973625 0.18057036 0.08522764 -0.033798877
0.034986172 3.4901245e-08 1.8668697e-30 0.37280384 0.120895565 -0.29069382 -0.025759054 -0.18437107
0.45011207 0.5476401 0.16565341 -0.22144832 -0.2696605 0.2776679 0.072580494 -0.3187537
-0.261552 -0.13826196 -0.027999472 0.35599783 -0.12434212 0.011903316 -0.0022542067 -0.1528945
0.42056006 0.18129101 -0.13599025 0.10266853 0.17960663 0.23209961 0.02011026 0.05400976
-0.16150604 3.843606e-30 1.1506986e-28 0.16957214 0.51167786 -0.08149445 0.013768011 -0.08965848
0.29962984 0.44287902 -0.049783934 0.55940765 -0.09976479 0.43747348 0.1640249 0.42411208
0.27707747 0.17497458 0.27618307 0.45100665 0.06578248 0.21799193 0.49736392 0.51917136
-0.0012649293 -0.03863106 0.083484195 0.29656896 -8.873974e-18 0.00025469388 -0.24415386 -0.0995409
-0.24430881 2.624593e-29 9.1000155e-15 0.263064 0.080245 -0.14110687 0.22229733 0.0045727314
6.5010104e-30 0.29692188 -0.13076605 2.1266604e-30 -0.13558242 0.23550688 -0.06408358 -7.155595e-09
-2.053464e-10 -0.07764666 0.17051293 0.15100309 -0.23110239 0.04621229 -3.0333926e-29 1.145032e-22

2.bias f4 [32]
00000000: 9e70 ebb6 4adc 21be 492c b0bd e30b 57be
00000010: 7d24 913e 7bcd 87be 03ed 963a b6ec eb3d
00000020: 5c07 33bc 3d6c 0f3e 85e5 c1bd cb43 e33d
00000030: 0a81 aebd 727a 6dbe ec49 bd3d 667c bcbd
00000040: 2f82 49bd 887c 5b3e 672b 20be 5b43 fdbc
00000050: 33f0 c73d bc3f 90bd a914 aa3c 0d5b 44be
00000060: 424b 893c 17ef 443d d192 13be ed42 18be
00000070: 14c4 123e 763e bf3d 0f1b 12be 64f8 233e
-7.016656e-06 -0.1580669 -0.08602197 -0.21000628 0.2834815 -0.26523957 0.0011514727 0.115197584
-0.010927048 0.14006133 -0.094676055 0.11096915 -0.08520706 -0.2319124 0.09242615 -0.092034146
-0.04919642 0.21434224 -0.15641557 -0.030915907 0.09762611 -0.07043406 0.020761805 -0.19175358
0.016759519 0.048079576 -0.14411475 -0.1486928 0.1433261 0.09338085 -0.14268135 0.16012722

4.weight f4 [32, 32]
00000000: f0c5 bd1b dea6 b0bd 1e87 203d 8b8a 0a3f
00000010: 9d5b 7a3d cc31 b03e c0cb 6bbd ab4e 8c3e
00000020: b35f 013e 39b8 fc3d 8b6d 9ebe db79 8e3d
00000030: 19c9 54be f1c7 44be 4431 61bd 76f7 8cbb
00000040: 7a75 16be 0493 943d abb6 9c3e 52b2 c13c
00000050: c30d 4dbe d8d8 633e 473c 713e ad42 bd3e
00000060: d679 183e 2297 753d a099 133f 4078 cbbe
00000070: fc7c b23d 95d8 c23d 84bc 45be 2426 b8bc
00000080: 5543 589b 8007 4bbe 7ae1 283e 442c 083f
00000090: fb21 b7bd 0081 c43e a19c a23b b82e 893e
000000a0: c3b2 873e 1383 babd e2ab c7be 0a87 81be
000000b0: 7540 56be faf1 ebbe 3056 053d 08dd 77bc
000000c0: 7e0a 04be c1f2 843d ad2d a13e 2986 593e
000000d0: c16d 86be f391 1f3e 5637 f63d 4312 a13e
000000e0: 7017 213e 1bb2 9d3d efb8 223f b406 dbbe
000000f0: 13b2 293e 4225 533e d2e8 12be a6ef 853e
00000100: 9a5a e72c 9b26 83b9 3866 003d 5470 86b7
00000110: f90c 1cb6 bec1 793b a27f 2d3c 5e15 14b7
00000120: db72 9e3c dd69 56b7 a0fa 1631 9628 613c
00000130: a5f3 8d36 f4c3 89b1 648e 323c 1458 820f
00000140: 8152 a33b c89f 5e3c fdf3 373c 1053 b4bb
00000150: 7c13 1e90 9eee ba3a cdb7 e539 8c24 4c2f
00000160: 20a0 1fbd 03ef a5bb 97f5 d18d ff1c 5c8e
00000170: 5b42 153c 4cf1 023a 59fc bbb2 cca8 39bb
00000180: 5b00 9d9e 1ac7 bebd fc9f d43d 1fd6 9e3e
00000190: 3ee0 08be 90e7 413e b280 1e3c 7ada 8a3e
000001a0: ba9a 853d 2927 203e 2fa2 a9be 09fe 64be
000001b0: 8f8e 33bd ac8f 42be 0ec7 a3bd 5b94 dfbd
000001c0: 661c 1e3e 8301 7b3e 4231 513e a663 1c3e
000001d0: 4dac 45be e2c1 0c3d ce99 833d f0d1 a13e
000001e0: 8368 cfbc 29f1 303d 396b 8f3e 2b21 c0be
000001f0: 4144 643e c74b 1e3e 1c55 cabc 64d2 183e
00000200: 7c94 11ad a8e6 4dbd 6951 2abe 7fda 043e
00000210: ad81 973d 67df 293d 9862 6b3e 6d3e afbe
00000220: 824c 05be e0cf 80be 2311 eb3e 7e55 7f3e
00000230: 862e a33e d938 ac3e b954 763e 4386 e83d
00000240: d0bf 4cbe d356 9dbe 07ae 9abe b69d 01be
00000250: ea2e cc3d fbc9 fc3d a2f3 aebb 3ab7 2ebe
00000260: dace 8d3b 8ae0 2cbd 96a4 bfbe 2fde d63e
00000270: 083e 943e 6dda 25be 84af 493e e351 673e
00000280: 73fd 4890 b5fc 4cbe 3dfd 893d fe08 1cbe
00000290: 8dc0 8b3e 0abf 4fbe f638 8cbe bdd0 213c
000002a0: 8f3d 2bbe 133e a6bd 2978 f0be 2106 01be
000002b0: df52 0abe ad72 38bd c3c4 90bd 53fb e83d
000002c0: a80a 01bf 8f69 493e 8cac 2ebe c11a febd
000002d0: b835 d03e 5f24 d8be 66a5 babe 2077 4dbd
000002e0: 28c9 473e 157a 3b3d 6641 9cbd 14df 2bbe
000002f0: 248c 933e ccf6 e6bc 09cf dfbe 5d54 0c3e
00000300: d2de b71b 9e7c c03d a394 5bbe 5aef 1c3e
00000310: 332c cebc 2dbd ccbd fab2 313e ca00 4dbe
00000320: ab3d 55bd 6c87 babe d9ab e63e 1a7e 273e
00000330: d54c b03d 18c6 0a3f 47c6 323e b0f2 33bc
00000340: 9512 743d e6ea fcbd 689d 99be 3f50 21be
00000350: 3d86 5d3e c975 1f3e 9e70 9bbd 7fa1 36be
00000360: f3e4 8a3e 0342 433c c22b acbe 5ee2 f73e
00000370: a8a7 733e cc80 93be 6912 643e 9cff 173e
00000380: b5fe f333 fa57 8d0b 07de ab2d 0062 c6a0
00000390: 5620 8a2b bdfc 26b4 928e ec2f 1a77 d7b0
000003a0: 086b 1332 f7d5 1b8e ae35 cbb1 8dbd 7d90
000003b0: 3660 5a0e 0874 1cb2 516c 3611 5ecb cc8e
000003c0: 11c6 352e d9ab b390 ccfb ee1e 8c31 c80d
000003d0: e45c 038c 3c27 210f 012d 67a6 d9a5 29b0
000003e0: 655b f910 f474 efb2 627c 5416 4f36 330e
000003f0: 620d a2a6 93b3 c392 a363 908f 5090 058f
3.1395341e-22 -0.086255774 0.039191358 0.5411765 0.061122525 0.34412992 -0.057567358 0.2740377
0.12634163 0.12339825 -0.3094295 0.06956836 -0.20779838 -0.19216897 -0.054978624 -0.0043019606
-0.14693251 0.072546035 0.30608115 0.0236446 -0.20024781 0.22250688 0.2355815 0.36964932
0.14890227 0.059958585 0.5765629 -0.3974018 0.08715245 0.09513966 -0.19310194 -0.022479124
-1.7888857e-22 -0.1982708 0.16492262 0.53192544 -0.08942028 0.3837967 0.0049625193 0.26793456
0.26503572 -0.09107032 -0.38998324 -0.2529834 -0.20923026 -0.4608305 0.032552898 -0.015128382
-0.12894627 0.06491614 0.3148016 0.21242584 -0.2625561 0.15583019 0.12022273 0.31459245
0.15731597 0.076999865 0.63563436 -0.42778552 0.16571836 0.20619681 -0.14346626 0.261594
6.5754737e-12 -0.0002501503 0.031347483 -1.6026352e-05 -2.3253363e-06 0.0038109864 0.010589512 -8.826462e-06
0.019341877 -1.2780042e-05 2.1970337e-09 0.013742587 4.2304914e-06 -4.009502e-09 0.010898206 1.2852916e-29
0.0049842005 0.0135878995 0.011227605 -0.005503066 -3.1175016e-29 0.0014261787 0.00043815226 1.8566676e-10
-0.038971066 -0.005063893 -1.2939743e-30 -2.7131055e-30 0.009110059 0.00049950625 -2.188442e-08 -0.002832937
-1.6623169e-20 -0.09315319 0.10382077 0.31022736 -0.13366792 0.1893599 0.009674238 0.2711981
0.065236524 0.15639938 -0.3313155 -0.22362532 -0.043837126 -0.19000119 -0.07996951 -0.109169684
0.1544052 0.24512295 0.20428947 0.15272388 -0.19304009 0.03436459 0.0642582 0.31605482
-0.02531839 0.04319874 0.28011492 -0.37525305 0.22291662 0.15458594 -0.024698786 0.14924008
-8.275266e-12 -0.0502688 -0.16632618 0.12973975 0.073977806 0.04147282 0.2298683 -0.34227315
-0.13017467 -0.25158596 0.45911512 0.24934956 0.31871432 0.3363712 0.24055757 0.113537334
-0.19995046 -0.30730304 -0.30210897 -0.12657818 0.09969886 0.12343212 -0.005339102 -0.17062083
0.004327637 -0.042206325 -0.37430257 0.41966388 0.28953576 -0.16196604 0.1969586 0.22589831
-3.9638295e-29 -0.20018275 0.067377545 -0.15237805 0.27295342 -0.2028772 -0.27387208 0.009876427
-0.16722701 -0.081173085 -0.46966675 -0.12599994 -0.13508175 -0.04503124 -0.07068779 0.11376061
-0.50406885 0.19669174 -0.17058009 -0.12407447 0.40665984 -0.4221525 -0.36454314 -0.050162435
0.19510329 0.045770723 -0.07629661 -0.16784316 0.28817856 -0.028193854 -0.43712643 0.13704057
3.0418805e-22 0.09398769 -0.21443419 0.1532568 -0.02516756 -0.0999702 0.1735343 -0.20019832
-0.052060764 -0.36431444 0.45052984 0.16356698 0.086084045 0.5420852 0.1745845 -0.010983154
0.059588034 -0.12349491 -0.30002904 -0.15753268 0.21633239 0.15572275 -0.075898394 -0.17835043
0.271278 0.011917594 -0.33627135 0.48414892 0.23794425 -0.28809202 0.22272648 0.14843601
1.13619e-07 5.4443597e-32 1.953905e-11 -3.3607356e-19 9.814465e-13 -1.55519e-07 4.3029452e-10 -1.567716e-09
8.580862e-09 -1.9208245e-30 -5.9141803e-09 -5.0041477e-29 2.6916898e-30 -9.1067776e-09 1.4390646e-28 -5.048572e-30
4.1330554e-11 -7.0867824e-29 2.5303371e-20 1.233788e-30 -1.0119826e-31 7.945469e-30 -8.0205216e-16 -6.1717526e-10
9.8354e-29 -2.7876446e-08 1.7164472e-25 2.2089602e-30 -1.1244636e-15 -1.2350499e-27 -1.4237875e-29 -6.5852e-30

4.bias f4 [32]
00000000: 37d5 293e fd32 f43d b779 7cbd a83d 313e
00000010: 2627 81bd 0ef5 173e eba6 7fbd d741 47b3
00000020: c56e 353c d12c 183d 881f babb f807 333e
00000030: bb44 82bd 527f 9bb3 750c ccbd fccd 49bd
00000040: 0137 ebbc 3337 98bd 5ef2 3c3c 74f6 99b1
00000050: c613 37bc 7d85 46bd 9a77 5a3d 8608 1d3e
00000060: b2b0 9a3d 3a06 a89b 9f57 c3af 75cf a4bd
00000070: 68a8 04bd e4ca de3c 2fb4 03bd daf2 133e
0.16585241 0.11923788 -0.061639514 0.17308676 -0.06306295 0.14839575 -0.062415045 -4.639318e-08
0.011073773 0.037152115 -0.0056800283 0.17483509 -0.063607655 -7.2409094e-08 -0.099633135 -0.049268708
-0.028712751 -0.074324034 0.011532394 -4.4809045e-09 -0.011174148 -0.048467148 0.053336717 0.15335283
0.07553233 -2.7797292e-22 -3.5532552e-10 -0.08047382 -0.032387167 0.027196355 -0.03215426 0.1444811

6.weight f4 [2, 32]
00000000: 3b5f 6b3e 697a 443e 128e 833c 4be1 343e
00000010: 4369 82be 8794 343f e872 e5be 2e89 cd16
00000020: 3c3d abbe 064d 0ebf c9eb 1cb7 2128 8c3e
00000030: f385 323f d072 a90f f16c eabe 7c64 9fbe
00000040: 7e5b 2b3f b971 913e 6185 17be ed48 bc30
00000050: c684 133f ae9d d6be 19a2 a5be 5fb7 02bf
00000060: 85e2 91be 20ee ddae 658c 2290 73f9 28bf
00000070: 4d28 343f a3b9 c2be 9f25 e2be 5697 d4be
00000080: 5277 1dbe 2405 8cbe be71 e23c d4e9 81be
00000090: 5611 9c3e 3b0d 37bf 517a 5f3e 2007 a218
000000a0: 6668 9d3e 74c5 cb3e d9ec 22b8 ecb6 93be
000000b0: 5489 2dbf fee7 d2b2 c3a8 ed3e ef6c ba3e
000000c0: 7a1c 2cbf 5458 bdbe a3f8 093e 3875 372d
000000d0: af92 14bf 7d97 8c3e 86bb f53e a9a5 b23e
000000e0: 5332 b03e cff2 1d93 8153 778f 3b7e bb3e
000000f0: cba6 1fbf 9421 2f3f b44d a23e cafa b83e
0.22985546 0.19187321 0.016058955 0.17664067 -0.25470933 0.70539135 -0.4481423 3.320611e-25
-0.33445156 -0.5558628 -9.353223e-06 0.27374366 0.6973564 1.6708911e-29 -0.4578624 -0.3113135
0.6693648 0.28407076 -0.14796974 1.3699527e-09 0.5762447 -0.41917175 -0.32350233 -0.5106105
-0.28493133 -1.0092216e-10 -3.2057023e-29 -0.6600563 0.70373994 -0.38032255 -0.44169328 -0.4152171
-0.15377548 -0.27347672 0.027642127 -0.2537371 0.30481976 -0.71504563 0.21824004 4.1883213e-24
0.30743712 0.39799082 -3.884439e-05 -0.28850496 -0.6778767 -2.4552715e-08 0.46417817 0.36411235
-0.6723095 -0.36981452 0.13473754 1.04283734e-11 -0.5803632 0.27459326 0.47994632 0.34892014
0.34413394 -1.99359e-27 -1.21941225e-29 0.36619744 -0.6236388 0.6841061 0.31699908 0.36128837

6.bias f4 [2]
00000000: aba1 3e3e f0f2 3b3d
0.18616359 0.04588598

exp_avg f4 [32, 2]
00000000: 437b 543a 7d06 15bb 626b c83a 3549 36b9
00000010: 0c15 973b 17ac 67bb aad6 0abc 0d13 1e3b
00000020: b007 b3bb d920 1cbb c55c 88bb ef66 573b
00000030: f4a4 a83b c3ef 65ba cf60 d1ba c59b 283b
00000040: 7dd2 333b 69b2 d6b9 7449 82b4 2a5e 0d2e
00000050: b734 68b4 ea22 c20f 3eb8 5dbc 0711 df38
00000060: fa02 16bc a0f0 b3b8 1998 553b 53d3 8ab9
00000070: fb11 91bb ac79 513b 44fa 063a ea2b bf3a
00000080: 79db e2ba 864e 5238 a0b8 5abc a03d 643b
00000090: 9b7e f73a 482d e7ba b00c 37bb 7110 5a3b
000000a0: 767e 0e3c c3dc 0fbb e7f9 c63a 05df 1fbb
000000b0: f8d6 ddb8 0ea1 b53a c9a1 f6ba fb08 c6bb
000000c0: 048a 7abb ecdf 1e39 e475 15bb a10a 0b3b
000000d0: 1325 27bb 59fa d53a a664 23bb 2848 953b
000000e0: 2268 463b 040d 8e3a f755 16bb e870 b03b
000000f0: 5633 d43a c45d 7139 05dc 86bb b152 4f3a
0.00081055256 -0.0022739463 0.0015290792 -0.00017384144 0.0046106633 -0.0035350376 -0.008474031 0.0024120242
-0.005463563 -0.002382329 -0.0041614496 0.003286775 0.005146617 -0.0008771384 -0.0015974286 0.0025727612
0.0027438693 -0.00040950187 -2.426783e-07 3.2143323e-11 -2.1625861e-07 1.9143325e-29 -0.013532696 0.0001063664
-0.009155983 -8.580205e-05 0.0032591878 -0.0002647886 -0.0044271923 0.0031963391 0.0005148987 0.0014585231
-0.001730784 5.0141032e-05 -0.013349682 0.003482677 0.0018882336 -0.0017637396 -0.0027931146 0.003327396
0.008697143 -0.0021951653 0.0015180678 -0.0024394405 -0.00010578142 0.0013857202 -0.0018816526 -0.006043551
-0.0038229236 0.00015151472 -0.0022805864 0.0021216052 -0.0025504276 0.001632522 -0.0024931817 0.004555721
0.003027447 0.0010837619 -0.0022939423 0.005384553 0.0016189616 0.00023018481 -0.004115584 0.00079087453

exp_avg_sq f4 [32, 2]
00000000: cbd9 b339 c9f1 6b3a e1a4 ba39 671e 1139
00000010: fe7e bf3a cf36 8d3a bb46 973b 6345 e03a
00000020: b628 973b 934a b93a ed4e 9b3a c45a d63a
00000030: 55b5 aa3a 0882 0c3a fa21 6738 1497 4039
00000040: 172b 593a c51b 1b3a cd41 5e2e 8b57 032d
00000050: d403 552e e8a1 3d2b e005 e13b a098 363b
00000060: bdb0 933b 3e98 4c3b 24f6 1f39 4879 1039
00000070: e7dd 153a 7ba0 9839 b255 6f39 cb9c 1639
00000080: 6fc9 413b 9f86 123a 0ccc 253c a4df b83b
00000090: ac04 1e3a b4cb 9439 050d aa3b 2482 2d3b
000000a0: f614 6f3b b35f 223b 2505 d93a bbc4 323b
000000b0: 3777 5239 4f9b 1a39 6e7f df3b dc58 0e3a
000000c0: 78bb 8b3b 6485 e03a fe87 633a 1ade 103a
000000d0: d424 0e3a da8e 8a39 7b14 b53a fb15 c93b
000000e0: a113 763a 5f9e 3b3a e215 9b39 51c8 9c38
000000f0: 4abb a23a 3c98 083c c7ac bf3b b9fb 1f3b
0.0003430381 0.00090005674 0.0003559953 0.00013839603 0.001460999 0.001077378 0.004616586 0.0017110523
0.0046130074 0.0014136605 0.0011849083 0.0016353955 0.0013024012 0.00053599523 5.5106335e-05 0.00018366828
0.0008284314 0.0005916919 5.05354e-11 7.465926e-12 4.8433993e-11 6.737098e-13 0.0068671554 0.0027861968
0.004507153 0.0031218673 0.00015255116 0.00013778091 0.0005716965 0.00029111266 0.0002282474 0.00014363525
0.0029569527 0.0005589518 0.010119449 0.0056418944 0.0006027918 0.0002838053 0.0051895403 0.0026475275
0.0036481 0.002477628 0.0016557319 0.0027277905 0.00020071572 0.00014744441 0.0068206107 0.0005430111
0.0042642914 0.0017129597 0.0008679627 0.000552626 0.0005422358 0.00026427844 0.0013815308 0.0061366535
0.000938708 0.0007157083 0.00029580208 7.4759715e-05 0.0012415436 0.008337077 0.005849454 0.0024411513

exp_avg f4 [32]
00000000: e513 4b3c 7b33 143b b328 0dbc 3ae7 193c
00000010: 64c3 1cbb 2964 56bb 1679 f0bb fb88 e0ba
00000020: bc5f 02bc b37e f2b6 4845 6ab7 8992 293c
00000030: f12d 923c 7122 a6bb 59e0 383b e0f4 7cbb
00000040: c60e b33b 6150 8d3c df2f 08bb 97b2 89bb
00000050: bd66 38bc 9f38 e83b 4373 acb9 27fb 23ba
00000060: f7a0 c5ba edb7 373b b5a7 813b 0144 2e3c
00000070: e433 1bbc 4435 e73a 7e5f 7e3b 8c5a 0ebb
0.01239488 0.0022613693 -0.0086156605 0.009393508 -0.0023920173 -0.0032713509 -0.0073386533 -0.0017130667
-0.007957395 -7.2269117e-06 -1.3963618e-05 0.010349878 0.017844172 -0.0050700237 0.0028209893 -0.0038598105
0.0054644076 0.017250242 -0.0020780487 -0.004202198 -0.011254963 0.007086828 -0.00032892273 -0.0006255381
-0.0015077878 0.0028033212 0.00395676 0.010636331 -0.009472821 0.0017639776 0.0038814242 -0.002172145

exp_avg_sq f4 [32]
00000000: 6e3c b73a e945 303a 869b 133b 1084 a03b
00000010: eea2 9c3b d8ae 463b b0c7 c03a 6fcc ab39
00000020: eac3 ba3a 8344 bd2f 2e37 3330 2fa0 f73b
00000030: 9b68 063c b0c4 d139 60f5 643a cd3d 0c3a
00000040: 9220 693b e87c 503c 063e 8d3a f345 e33b
00000050: af2c aa3b b232 843b 89b5 a139 ac07 ac3b
00000060: 4e78 a63b 2304 ad3a d19c 3e3a e666 fd3b
00000070: c577 cc3a d85e c939 7833 273c 0033 e63b
0.0013979801 0.00067242846 0.002252312 0.0048985556 0.004780165 0.0030316617 0.0014707949 0.00032767977
0.0014249061 3.442758e-10 6.5198236e-10 0.007556937 0.008203651 0.0004001013 0.00087340735 0.0005349785
0.0035572392 0.0127250925 0.0010775931 0.006935829 0.005193315 0.0040343637 0.00030843567 0.005249938
0.0050802594 0.0013200085 0.0007271292 0.0077332137 0.0015599659 0.00038408372 0.010205142 0.0070251226

exp_avg f4 [32, 32]
00000000: 2c91 f72b 21ca 0a0b 1fae 3ba8 2211 15ad
00000010: 2ed6 c317 f064 8709 5d44 10ab 6034 43a8
00000020: 9c67 96a8 1956 3ba2 dc6b 1faa cc03 e594
00000030: 50e6 94ac 5160 84ae e287 7daf ef31 4bb0
00000040: 9195 ec09 68a6 55ac 44a4 e39f 7034 7c14
00000050: 7320 03ac a791 0cab 7b03 4fad 64ab 8698
00000060: 66a6 ec92 7ade 1bad 9496 1a07 8ccf cca1
00000070: 94bc 0eab 8123 f2af 7156 7f96 909a 0ba8
00000080: a417 9139 39e6 21ba 5505 433b 00c0 9cba
00000090: 332d 6b39 47cd b7b9 3bfd 003a 9299 35bb
000000a0: f094 843a 043c 97ad 547f 4b0a 7496 82ba
000000b0: 69f4 dcb9 7d4a 5f39 97aa 24bb 4aae e8ba
000000c0: 8ec1 b639 fd18 82ba 3297 403b f9db ed38
000000d0: f60f 84b7 1e68 8cba a405 caba d314 0839
000000e0: ac27 6539 ea09 85ba d6e7 e63a 1bac 0cb9
000000f0: d892 313a 5de2 91bb 717e abb8 33c9 4a39
00000100: d2ba 473a 1ad9 ab3a c191 893b 438f 563a
00000110: 9227 11b6 f197 5239 bb95 a83a f350 a639
00000120: faf0 af3a 5330 1b95 0dd7 5710 00bb 3b3a
00000130: e68b 0b3b cb54 3e3b 1a22 b9b8 4c6c 433a
00000140: d056 1fb8 ec82 db39 0f85 043b 52c0 44b7
00000150: 39e4 dd3a 4125 2739 e8f8 f839 9d50 7db7
00000160: 5bd4 7cb6 a8b1 843b 71d1 683b 74b4 46b9
00000170: 6d90 b13a 1d08 d438 727d 2cb3 9f45 84b7
00000180: eb45 b03a 7eb7 1a3b ac0b 203c ceb9 ed3a
00000190: e37e 1cba b22e ceb9 01e7 9f3b e3f1 0f3b
000001a0: 04f8 ae3b d297 fd8b fa64 f329 2b1e d23a
000001b0: 596f e13a 13c5 bf3b 4406 45b9 31bd 603b
000001c0: 1d2f c8ba 91b9 533a 09c3 ba3b 259a bcb9
000001d0: 4f35 8f3b 395d f8b9 ac86 ff3a b630 37ba
000001e0: 8ca8 04ba 5585 e33b 5a21 bd3b 5bb1 1cba
000001f0: d15d 8c3b d2ad c33a 66b0 96b7 3a76 f4b9
00000200: a443 7538 385c e5ba 4159 08bb c344 abba
00000210: 6211 253a e96c cc39 bbe5 3cba db5c f7ba
00000220: ef26 8aba 78d7 ec29 fc15 8611 17cf 84ba
00000230: cded 4439 d6a7 99b9 22d8 c73a 510f 3d3a
00000240: 65fa 963a 5089 4bba ee0b 04bb 62f0 1c3a
00000250: eb77 6fb9 1b30 ffb9 2fb9 6539 fac1 4d39
00000260: 79a9 233a e8a8 1e3a bf2b ceba 707d 7b39
00000270: f12c 35ba 50f3 6e39 845e 8e39 fff9 103a
00000280: 3051 01b9 20e8 71ba 134b b1ba ad9b 4bba
00000290: 7857 9439 27fe 5cb9 440a d3b9 ae43 33ba
000002a0: afbc 10ba 1639 822c c1f4 a408 64e0 60ba
000002b0: 7df2 4237 825f 0eba c2c1 7239 a2bc 04ba
000002c0: 02c0 99b9 c052 a7ba da2a 86ba aec0 ea38
000002d0: 5946 a9b9 d903 bbb8 a59a a4b9 0ec8 9a39
000002e0: c7a3 4b39 edb6 c8ba f2ad c4ba 53c0 a7b9
000002f0: b011 e6b9 3320 88ba 674b 76b4 be23 5439
00000300: 92fd 78ba f4e8 eeb9 a517 093b fff2 36ba
00000310: 39dd d5b9 5c72 bdb9 262d 333a e65c b5ba
00000320: f37b 823a 4f50 5d86 e91d f30a c99a 17ba
00000330: 18c6 b2ba 4b67 c639 e335 e9ba 246e 25ba
00000340: 99c8 99b9 0c32 38ba 2e1b fc3a 2c19 f1b9
00000350: 8140 8939 d550 8aba 156b 2aba b545 e0b7
00000360: aada e5b9 cb9d 83ba 65ff 043a 0fe6 48b9
00000370: 5f1c 343a e5cb 1dbb afbb 58b9 694f bab9
00000380: 5214 403a 4037 de3a f69f 713b ed41 473a
00000390: dce4 969c 4791 df32 68bd 613a aa59 1d38
000003a0: db13 7b3a 0e1d 1809 e11f 9521 aa89 373a
000003b0: 0581 d33a b43c 153b 02c8 b0b8 5db6 7238
000003c0: 647a 6508 1822 543a e73c 003b c950 1488
000003d0: 5796 9c3a 48e9 e539 09c2 bd38 4dc2 56ab
000003e0: f68e c7a8 8939 5e3b c7db 663b ee31 ba36
000003f0: 8eca 843a 1051 d537 0576 1c8a a787 8414
1.7590699e-12 2.6729898e-32 -1.0418342e-14 -8.473474e-12 1.2655646e-24 3.259499e-33 -5.125395e-13 -1.08360315e-14
-1.6698279e-14 -2.5388806e-18 -1.4159458e-13 -2.3124588e-26 -4.231983e-12 -6.019774e-11 -2.3058491e-10 -7.392193e-10
5.6955585e-33 -3.0361495e-12 -9.6409994e-20 1.273309e-26 -1.8634233e-12 -4.9940125e-13 -1.17673605e-11 -3.481125e-24
-1.4934714e-27 -8.86013e-12 1.1629923e-34 -1.3878515e-18 -5.071024e-13 -4.404477e-10 -2.0626012e-25 -7.749565e-15
0.0002767417 -0.00061759684 0.0029757817 -0.0011959076 0.00022428184 -0.00035057424 0.0004920547 -0.0027709943
0.0010115188 -1.7193365e-11 9.798042e-33 -0.0009963051 -0.0004214377 0.00021294686 -0.0025126094 -0.0017752138
0.00034857955 -0.000992566 0.0029386994 0.00011342014 -1.5743059e-05 -0.0010712182 -0.0015413058 0.00012977728
0.00021853921 -0.0010150049 0.00176167 -0.00013415555 0.00067738956 -0.0044520334 -8.177467e-05 0.00019339174
0.0007619086 0.0013110966 0.0041982834 0.00081848 -2.1629717e-06 0.00020083763 0.0012862006 0.000317223
0.0013423257 -3.1340122e-26 4.2566943e-29 0.0007161349 0.0021293103 0.002904224 -8.827839e-05 0.0007454797
-3.7989405e-05 0.0004186848 0.002022091 -1.1727288e-05 0.0016928978 0.00015940239 0.00047487696 -1.5098744e-05
-3.7674533e-06 0.0040494986 0.0035525227 -0.00018949975 0.001354707 0.00010110459 -4.0160963e-08 -1.5768046e-05
0.0013448572 0.0023607905 0.009768408 0.0018137039 -0.00059698353 -0.00039326173 0.0048798327 0.0021964244
0.0053396244 -9.768049e-32 1.08088844e-13 0.0016030719 0.0017199322 0.0058523505 -0.00018789718 0.0034292454
-0.001527283 0.0008076663 0.0056995195 -0.00035973 0.0043703686 -0.00047371702 0.0019495091 -0.00069881545
-0.0005060516 0.0069433847 0.005771798 -0.0005977356 0.0042836447 0.0014929122 -1.7963535e-05 -0.00046627392
5.8475547e-05 -0.0017498797 -0.0020805153 -0.0013066757 0.0006296841 0.00038991056 -0.00072058634 -0.0018872278
-0.0010540168 1.0517883e-13 2.115502e-28 -0.0010132518 0.00018780604 -0.00029307482 0.0015246908 0.000721206
0.0011518715 -0.00077642966 -0.0020148712 0.00059867476 -0.00022837489 -0.00048673232 0.00021908128 0.00019622585
0.000624321 0.00060523907 -0.001572959 0.00023983954 -0.0006911299 0.0002278809 0.0002715477 0.00055304164
-0.00012332643 -0.000922801 -0.0013526402 -0.0007767033 0.0002829393 -0.00021075514 -0.00040252705 -0.0006838393
-0.000552128 3.70116e-12 9.927932e-34 -0.00085783587 1.161976e-05 -0.0005431102 0.00023151099 -0.0005063509
-0.0002932549 -0.001276575 -0.001023616 0.00011193879 -0.00032286605 -8.9175715e-05 -0.00031395737 0.0002952222
0.000194206 -0.0015313305 -0.0015005453 -0.00031996015 -0.00043882197 -0.0010385573 -2.2937967e-07 0.0002023121
-0.0009498234 -0.0004556846 0.0020918634 -0.0006978958 -0.0004079135 -0.00036134094 0.0006835036 -0.001383689
0.0009955153 -4.1624482e-35 2.34113e-32 -0.00057832577 -0.0013639359 0.00037842462 -0.0017792549 -0.0006310663
-0.0002933189 -0.00070265005 0.0019234174 -0.00045985857 0.00026178735 -0.0010552654 -0.0006500942 -2.673534e-05
-0.000438412 -0.0010041533 0.0005073457 -0.0001915919 0.00068706827 -0.002407783 -0.00020669283 -0.0003553585
0.0007327247 0.0016953722 0.0036869026 0.0007601071 -9.985326e-22 2.6026681e-08 0.00086112926 3.7515223e-05
0.0009577849 1.8309996e-33 1.0105071e-18 0.00070014095 0.0016136473 0.0022771778 -8.429588e-05 5.7867135e-05
6.905605e-34 0.00080922386 0.001956755 -4.4632092e-34 0.001194666 0.00043852092 9.048364e-05 -7.629772e-13
-2.2155438e-14 0.0033908805 0.0035226212 5.5490445e-06 0.0010131167 2.5429326e-05 -7.533324e-33 1.33821e-26

exp_avg_sq f4 [32, 32]
00000000: dbef bb2c f9a7 892a 1e8e 352c d424 df2c
00000010: 3b9d af2b acb7 db29 1d1e 812c 95e6 522c
00000020: 7c0f 3d2c 6c69 172c 6c41 942c da83 9b2b
00000030: 2570 b52c de90 f92c 93aa 8a2d 1094 4d2d
00000040: f978 502a ca05 c72c 3214 062c a081 952a
00000050: 1d0c 952c 5b0d a62c e222 c02c 9859 c92b
00000060: 5118 3e28 a543 b42c e98d 3027 a0b3 132c
00000070: a34c 852c 6011 372d 0160 e32a 09d2 6c2c
00000080: ae7b f238 51e4 ce38 b752 123a 1214 5e37
00000090: b72b 6836 8617 4437 4bba 9f39 a317 cc38
000000a0: ff65 ce39 88ca f22c af21 262a c7d7 5f37
000000b0: f80b 9037 9688 1b39 1b41 9438 1b6d 8739
000000c0: b2ad fb36 2aef a037 3bbd a539 37bb 4c36
000000d0: e3c1 0d39 592b b837 5d6b ab38 e19d 0e36
000000e0: 43a7 6a36 7917 7539 ea8e a139 d364 b435
000000f0: 4c13 3b39 f054 4739 0b04 a735 fc4a 2e36
00000100: b1c4 1139 65b4 9a39 db80 843a 0f5c 5538
00000110: 8efc 8733 7198 8b36 e87d 2d39 c589 c037
00000120: 5b91 8739 77ce 9d2b c5be 6f2b 5f28 5a38
00000130: f727 3838 a430 8039 5da2 6d36 f822 9237
00000140: 5796 5a34 9177 9238 2927 093a 5be9 1d31
00000150: a110 bb38 0e5b 6738 64ad 8b36 af9a a632
00000160: 7823 8c32 fbbb 1e3a 751b 653a 9218 7336
00000170: 053e 0d39 cfb5 8d36 2319 3c2e 1682 3932
00000180: 424d a03a f664 063a 6933 043b 8974 9d38
00000190: 1430 2a38 bba6 3b39 14d1 013b c4c9 683a
000001a0: 8f23 2d3b 6436 b52a 54e1 902c 55d1 aa38
000001b0: 082f 6f38 560e 8a39 bc04 b638 5e38 be3a
000001c0: 4aa7 f538 aabe e138 2993 d83a 6475 7b37
000001d0: 3144 063a 4392 7939 08f9 f639 4fb4 0038
000001e0: 3218 fe37 bdb9 313a 7b1e 9f3a 1fc0 9a37
000001f0: 822f 833a 0f37 8b3a 163a 6931 38f3 ce37
00000200: 6d1c 7f39 81b4 7539 76cf 953a fcec 1838
00000210: a49f 2e35 4906 6637 5e86 333a 0bc7 4139
00000220: 97c4 5d3a ee8b 902c 8350 852b 7d90 1e38
00000230: 2497 5f38 929d c039 5032 7039 9cbc 433a
00000240: 493d ac36 2ae7 5438 46ce 1e3a e128 4236
00000250: 0bc2 b039 565d 8938 7a3c 7c39 a848 1034
00000260: f111 eb35 87b8 263a b493 353a f516 9936
00000270: 6f3c cb39 f0c9 0b3a 6e09 bf33 99a5 9e35
00000280: 9f88 9339 1a0b 1b39 bced f339 4b0e 3137
00000290: 37b0 ba34 7fed 7b37 19f1 8d39 94e8 8938
000002a0: c79c d839 eb52 cb2c e036 9f28 6ce9 6237
000002b0: 9593 d830 9da1 8a37 41e2 d734 2874 7338
000002c0: 5c24 5336 2031 c637 45f7 f739 8812 7733
000002d0: be0c 5238 138c d138 1c94 8537 532e 1035
000002e0: a811 4134 9ffc df37 9354 7339 cad5 f736
000002f0: f5cb 2539 fe45 cb37 5e81 802e 9bf8 3b34
00000300: 1e59 ea37 5a1d be37 cf87 4639 8ae7 0736
00000310: 0149 3e35 c19d 2036 92d5 1c39 2ed1 3438
00000320: 3b24 3739 47d1 7127 cf32 842a 800b 0236
00000330: 3ba6 b336 fbc3 9d38 05a6 7438 7f5e 4639
00000340: 93a7 ad35 c8ad 5e36 5ec6 af38 c4e9 9035
00000350: c5ed a638 7f48 7836 d707 8138 f424 8934
00000360: 38fb 6f35 cf1a af38 28a3 ac38 e7f2 5034
00000370: bcf1 ab38 4079 1239 4980 9634 2d43 1e35
00000380: f72a 6036 d408 3339 41cc 1a3a 0a80 1538
00000390: d2ff ee2b f987 192e 58f3 1038 5d79 5032
000003a0: 1bde 5f38 d215 d529 15da 112c fbaf 1738
000003b0: 52cc 0938 d8d2 3239 00d7 2436 c7a0 8435
000003c0: 7ce8 5628 ec95 3f38 4bc1 6a39 ee01 1828
000003d0: 3e50 5138 4058 df35 4b31 1734 04e7 ac2c
000003e0: d82e 7f2c 9a82 e739 92f6 183a 9fa0 2232
000003f0: e162 4538 6650 4f33 ae35 142a 3e20 992b
5.341489e-12 2.4452643e-13 2.5800538e-12 6.34213e-12 1.2478138e-12 9.757416e-14 3.6697438e-12 2.9970794e-12
2.686711e-12 2.1516912e-12 4.2136763e-12 1.1050009e-12 5.15678e-12 7.093089e-12 1.5764534e-11 1.1685777e-11
1.8516082e-13 5.656563e-12 1.9053756e-12 2.6557662e-13 4.2361795e-12 4.7194865e-12 5.460841e-12 1.4306776e-12
1.05523915e-14 5.1234177e-12 2.4501836e-15 2.0989668e-12 3.7885957e-12 1.0406204e-11 4.0389916e-13 3.365421e-12
0.000115624964 9.865373e-05 0.00055817835 1.3236904e-05 3.459614e-06 1.1687987e-05 0.00030465642 9.731881e-05
0.00039367375 6.900539e-12 1.4755448e-13 1.3342075e-05 1.7171711e-05 0.00014832834 7.069317e-05 0.00025830496
7.5006037e-06 1.9184856e-05 0.0003161224 3.0507342e-06 0.00013519036 2.1954695e-05 8.1739134e-05 2.1251547e-06
3.4966076e-06 0.00023373765 0.00030814792 1.3440389e-06 0.00017840898 0.0001900976 1.2443646e-06 2.5971667e-06
0.00013901551 0.00029507573 0.0010109203 5.0868894e-05 6.332367e-08 4.1602693e-06 0.0001654547 2.2952338e-05
0.00025857505 1.1212826e-12 8.5174603e-13 5.201285e-05 4.390624e-05 0.00024450303 3.541026e-06 1.742084e-05
2.0357525e-07 6.9840935e-05 0.00052319706 2.2979154e-09 8.919952e-05 5.5159493e-05 4.162708e-06 1.9395285e-08
1.6314274e-08 0.0006055233 0.0008739748 3.6224124e-06 0.00013469912 4.2232928e-06 4.2768577e-11 1.0797995e-08
0.0012230056 0.00051267387 0.0020172244 7.50805e-05 4.0575935e-05 0.00017895822 0.0019808458 0.0008880163
0.00264189 3.21898e-13 4.1177426e-12 8.145223e-05 5.702584e-05 0.00026332092 8.679318e-05 0.0014512648
0.000117136704 0.0001076435 0.0016523349 1.4988098e-05 0.00051218556 0.00023800977 0.0004710632 3.0685504e-05
3.0290426e-05 0.00067796913 0.0012139821 1.8447694e-05 0.0010008665 0.0010621267 3.393898e-09 2.4670371e-05
0.00024329284 0.00023432264 0.0011429626 3.6460333e-05 6.505236e-07 1.3710532e-05 0.00068483304 0.00018480064
0.0008459775 4.1082615e-12 9.472565e-13 3.78047e-05 5.3308104e-05 0.00036738493 0.00022906926 0.00074667647
5.133134e-06 5.0760027e-05 0.0006057959 2.8932047e-06 0.0003371391 6.550054e-05 0.00024055122 1.3437477e-07
1.7514086e-06 0.0006359894 0.00069266115 4.562428e-06 0.00038764204 0.000533252 8.895846e-08 1.1820113e-06
0.00028139816 0.00014786088 0.00046525698 1.055335e-05 3.4773413e-07 1.5016062e-05 0.00027073247 6.57599e-05
0.0004131554 5.7788128e-12 1.7676344e-14 1.35249975e-05 1.5758014e-09 1.6526139e-05 4.0211492e-07 5.8043894e-05
3.1462614e-06 2.3626315e-05 0.0004729574 5.7526023e-08 5.007977e-05 9.9919875e-05 1.5923804e-05 5.371159e-07
1.7980949e-07 2.6701307e-05 0.00023205792 7.386062e-06 0.00015811606 2.4232078e-05 5.843746e-11 1.7506174e-07
2.7936472e-05 2.2663433e-05 0.00018933344 2.025134e-06 7.088675e-07 2.3933683e-06 0.0001495688 4.3110158e-05
0.00017465737 3.3558918e-15 2.3483166e-13 1.9378203e-06 5.3539675e-06 7.5228476e-05 5.832875e-05 0.00018917954
1.2938275e-06 3.3181732e-06 8.381599e-05 1.0796871e-06 7.959785e-05 3.6997078e-06 6.1526596e-05 2.5545125e-07
8.940001e-07 8.349644e-05 8.231989e-05 1.9459877e-07 8.198942e-05 0.00013968814 2.8033017e-07 5.895734e-07
3.340361e-06 0.00017074059 0.000590507 3.5643614e-05 1.6981922e-12 3.490894e-11 3.4558907e-05 1.2134788e-08
5.3374195e-05 9.4628854e-14 2.07268e-12 3.61651e-05 3.2853633e-05 0.00017053948 2.456305e-06 9.881559e-07
1.1929798e-14 4.5677574e-05 0.00022387986 8.438113e-15 4.9904214e-05 1.6640479e-06 1.4080904e-07 4.914182e-12
3.6263683e-12 0.0004415706 0.00058350817 9.466162e-09 4.706055e-05 4.8269065e-08 1.3163664e-13 1.0880253e-12

exp_avg f4 [32]
00000000: c4dd 48b0 1181 133b 134a a33b 36d4 423c
00000010: c4f0 eeba 532b b3ba 317a f73a afa3 863b
00000020: f0dd 483b 5d54 ecbb 4d0c 003a b34e a83a
00000030: a99f 1e3b 099b d13b 6b19 6b39 1174 1ab7
00000040: 1772 2a3b ca9a 95bb 44c8 e13b b06b 5eba
00000050: d2e7 a6ba b21c 843b c336 413b 1b4d ec3b
00000060: 1360 92ba 050f 1ebb 0f75 0c3c cd99 d93b
00000070: ea82 4abb a1e7 a1ba 96c2 d1b9 cfa3 caba
-7.3074724e-10 0.002250735 0.0049831956 0.011891415 -0.0018229713 -0.0013669528 0.001888102 0.004108868
0.0030649863 -0.0072122053 0.00048846455 0.0012840837 0.0024204052 0.0063966555 0.00022420815 -9.206139e-06
0.0026007944 -0.0045655714 0.0068903286 -0.00084846746 -0.0012733883 0.004031741 0.0029482103 0.00721134
-0.0011167548 -0.002411784 0.008572831 0.006640649 -0.0030900785 -0.0012352356 -0.00040008564 -0.0015460196

exp_avg_sq f4 [32]
00000000: b5c7 492d d53d 573a f631 993a 1184 3d3b
00000010: ff61 eb3a 8e29 0b3a 2b56 b639 7a17 353a
00000020: 8e2e 113a 336d 243b eeb0 8a3b 7337 1a3a
00000030: a242 433a c12c 9c3b 70a9 5a39 d9db 4e34
00000040: 6cf4 c639 d31f ac3a b9d8 263b f309 d43a
00000050: 3fa9 623b 297c 153a 1f8e 7639 bda6 333b
00000060: 800a 013a abec 4739 b1e6 b43b 7a66 a33b
00000070: 6ca1 2b3a 6dce 703a 4b76 b839 758e cf38
1.1469871e-11 0.0008210813 0.0011687863 0.002891783 0.0017958282 0.00053086213 0.00034777945 0.00069081003
0.0005538248 0.0025089502 0.0042325174 0.00058828964 0.0007448589 0.0047660773 0.0002085322 1.9265225e-07
0.0003794761 0.0013132043 0.0025458767 0.0016177282 0.0034585742 0.00057024 0.00023513332 0.0027412616
0.0004922524 0.00019066285 0.0055206646 0.0049865814 0.0006547186 0.0009186033 0.0003518335 9.897064e-05

exp_avg f4 [32, 32]
00000000: db52 7215 b983 9f3a adab de37 b936 1cb9
00000010: 7eb7 4dba 0be9 8fb8 d377 1e38 d38f aa38
00000020: 4dcb 1138 5e27 f539 8101 4d38 409c 8938
00000030: 1601 3338 a67d 8a38 fdc9 00ba 8886 e7b4
00000040: b029 2d3a 1e1a 59ba ffcc fd37 59f5 173a
00000050: b6aa cbb9 dec9 4c37 e242 6b3a feee a3b7
00000060: 2dae 71ba 5511 103a 7bed 6e38 5c23 1637
00000070: 3154 17ba efc4 34b9 d4ad e639 e6d3 d4ba
00000080: d4c0 6f14 f32b c03a 7b5b 3838 456e 4ab9
00000090: 57c5 7dba 9c83 b5b8 037f 6038 775c c138
000000a0: 22cf 5f38 2743 0e3a 09ac 7238 7170 4038
000000b0: e155 6b38 9fcf 7038 0982 19ba fa5c ccb5
000000c0: e73e 533a baef 83ba 1f5a 0238 e508 3d3a
000000d0: bb0d f8b9 c3b2 6336 bc77 8c3a 355b 1bb8
000000e0: 3bce 92ba 8fb8 2e3a 4da0 8338 fc31 8937
000000f0: a1e5 35ba aec0 51b9 6845 0e3a a63e feba
00000100: 4bb2 4e26 5303 dab2 560c 5336 55df e3b0
00000110: 5283 85af 3a34 ce34 43db 8e35 94f6 7bb0
00000120: 577b 0236 4153 b6b0 e667 842a cd40 ba35
00000130: 4809 f12f d00f f1aa 1361 9335 3abe 8508
00000140: 27cb 0635 f835 b735 f423 9835 0173 15b5
00000150: eb38 a789 ef2f 1b34 121c 3d33 027e b428
00000160: a250 83b6 71cb 08b5 3cb1 f108 e300 a189
00000170: b507 7735 1407 5833 ec92 23ac bc9e 99b4
00000180: 0812 2298 8c12 b33a 54fb 1538 0671 4eb9
00000190: 871e 6cba 21c2 cab8 cccc 5238 2ebf b738
000001a0: eb6f 0338 5d17 0a3a 5236 6d38 abb5 3638
000001b0: 4172 8c38 bb43 a138 73e6 10ba a155 37b7
000001c0: 4dad 4a3a 6245 6fba 54ea a737 abe6 2d3a
000001d0: 7ed9 e2b9 ca91 03b7 487b 813a 326e 05b8
000001e0: cb0f 8aba 5c25 213a f041 e437 b807 9137
000001f0: b986 26ba ab96 45b9 70a6 063a aa74 ecba
00000200: 2fc5 82a6 6ab4 41b9 e116 3638 39f0 3338
00000210: 2e67 38b9 62dc d9b5 7341 5bb9 bb58 0238
00000220: 966b 5e38 e5bc e039 de3b 9bb8 abd8 87b8
00000230: 99e5 7fb8 3d28 c7b8 9f15 0c38 5acc 3e37
00000240: 8b41 03ba b70e 8b39 2095 e937 9c3b 6e39
00000250: 6b4c 1db8 f692 82b8 84dd 9839 5899 8337
00000260: 4230 47b8 4e40 363a 6ced 5838 311d 06b8
00000270: 6183 30b9 1745 f538 343b 6639 d331 aeb6
00000280: 3490 4d8a da81 193b a8cb fd39 321e 8d38
00000290: d3f9 14bc 86f4 bf38 a901 473b c340 c339
000002a0: 69be f639 9cda 53ba f62b b639 40bb 6c39
000002b0: b4d9 62b7 68ea 97b6 5234 45b5 17f8 3e37
000002c0: c18e 4d3b 67c9 98bb 6264 f139 34ca dcb5
000002d0: 5218 acbb df74 fb39 8111 873b 6c56 c239
000002e0: 5618 1bbb c7e8 3ebb 3fc4 3c3a b20c ef35
000002f0: 2021 a2ba e316 fdba 3cb1 613b dc76 85bb
00000300: 706e 2915 e586 31ba 80ae 7eb8 527a 4839
00000310: 4a38 a137 ed24 0939 27c0 79ba ef3f eeb8
00000320: d0df 36b8 f5c7 783a 6d47 c8b8 8a06 bdb8
00000330: 4c13 d5b8 d02b c8b8 89cd 1d39 dadc 93b5
00000340: 300b a9ba 44e2 ec39 e38d f6b7 cb3b 9239
00000350: 648e 9138 081e 0b38 65f0 0138 3a62 01b8
00000360: 6beb 90b9 451a a93a e6ee 07b8 e187 1cb8
00000370: b5bc 01ba 6f8e 0e39 df12 063a fc90 d7b9
00000380: 1e18 532d 9f1f 3f03 620a 1927 7e34 389a
00000390: e931 f824 924f 90ad 9d94 5029 392c 3daa
000003a0: 13b0 802b 0443 7c86 b09d 31ab fc8c 1c8a
000003b0: ef58 3109 168c 88ab d6d8 b20a c54a 1b88
000003c0: 1e7c a127 3b41 368a dba1 5f18 0578 8008
000003d0: a43c cd06 ea8d 6e88 5875 d39f 4f68 95a9
000003e0: 2bba bb0a c52f 50ac 3011 d90f d1c2 3783
000003f0: a91f 14a0 75a8 5d8c 0b67 ab88 3c41 2988
4.8936872e-26 0.0012169994 2.6544405e-05 -0.00014897705 -0.0007847472 -6.862179e-05 3.778173e-05 8.133021e-05
3.4760033e-05 0.00046759372 4.887721e-05 6.561773e-05 4.2677937e-05 6.6037566e-05 -0.0004912911 -4.3124987e-07
0.0006605638 -0.0008281785 3.0255409e-05 0.00057967525 -0.00038846367 1.2206348e-05 0.0008974505 -1.9542404e-05
-0.00092193746 0.0005495747 5.6964793e-05 8.9489295e-06 -0.00057727384 -0.00017239501 0.0004399853 -0.0016237467
1.2104445e-26 0.0014661535 4.3954216e-05 -0.000193053 -0.000968059 -8.655267e-05 5.352405e-05 9.22018e-05
5.336025e-05 0.00054268766 5.7857516e-05 4.5881086e-05 5.6108347e-05 5.741382e-05 -0.00058558636 -1.5226244e-06
0.00080583844 -0.0010065951 3.1078347e-05 0.0007211103 -0.00047312476 3.392969e-06 0.0010716836 -3.7039823e-05
-0.0011200377 0.00066650746 6.276425e-05 1.6354948e-05 -0.00069388194 -0.00020003572 0.00054272125 -0.0019397333
7.171224e-16 -2.5380052e-08 3.144863e-06 -1.6579899e-09 -2.4285868e-10 3.840849e-07 1.0643638e-06 -9.1663677e-10
1.9443303e-06 -1.3265905e-09 2.3520004e-13 1.3876939e-06 4.384424e-10 -4.2821172e-13 1.0980606e-06 8.049368e-34
5.0214516e-07 1.365027e-06 1.1335346e-06 -5.567418e-07 -4.0257313e-33 1.4452938e-07 4.403052e-08 2.0038662e-14
-3.913491e-06 -5.0959994e-07 1.45463275e-33 -3.8760174e-33 9.2025886e-07 5.0297857e-08 -2.3245251e-12 -2.8613965e-07
-2.0947113e-24 0.0013662144 3.5758436e-05 -0.00019687795 -0.00090072345 -9.66827e-05 5.0258634e-05 8.76173e-05
3.1337066e-05 0.00052677636 5.6555793e-05 4.3561373e-05 6.697002e-05 7.689694e-05 -0.00055275037 -1.0927587e-05
0.00077315123 -0.00091274653 2.0017069e-05 0.00066337985 -0.00043268123 -7.842153e-06 0.000987866 -3.18123e-05
-0.0010533271 0.00061472296 2.7210423e-05 1.7288941e-05 -0.00063524727 -0.00018843512 0.00051364955 -0.001804014
-9.074009e-16 -0.00018473124 4.341349e-05 4.290065e-05 -0.00017586045 -1.62319e-06 -0.00020909849 3.1077052e-05
5.302912e-05 0.00042865347 -7.402127e-05 -6.477659e-05 -6.1010567e-05 -9.4965544e-05 3.3398737e-05 1.1372462e-05
-0.000500702 0.0002652311 2.7845206e-05 0.00022719655 -3.7502887e-05 -6.226257e-05 0.0002915674 1.5687823e-05
-4.749024e-05 0.0006952331 5.171953e-05 -3.1975276e-05 -0.0001683361 0.00011695379 0.00021956564 -5.1914044e-06
-9.8975126e-33 0.0023423345 0.00048407656 6.729028e-05 -0.009092766 9.153136e-05 0.003036598 0.0003724155
0.00047062643 -0.00080815866 0.000347465 0.0002257647 -1.3521338e-05 -4.527439e-06 -7.3464355e-07 1.1382645e-05
0.0031365606 -0.004662681 0.00046041893 -1.6450126e-06 -0.0052519226 0.00047961526 0.0041219597 0.00037066953
-0.0023665628 -0.0029130445 0.0007200874 1.7810582e-06 -0.0012369491 -0.0019309189 0.0034437915 -0.004073007
3.4216398e-26 -0.0006772115 -6.0720835e-05 0.00019119054 1.9218907e-05 0.00013079094 -0.0009527229 -0.00011360633
-4.3600623e-05 0.0009490245 -9.550047e-05 -9.01344e-05 -0.00010160226 -9.544904e-05 0.00015049255 -1.101663e-06
-0.0012897011 0.0004518201 -2.9391556e-05 0.0002789184 6.940661e-05 3.316815e-05 3.097988e-05 -3.0847477e-05
-0.0002764122 0.0012901506 -3.2409e-05 -3.7319845e-05 -0.0004949079 0.00013595236 0.00051145063 -0.00041116017
1.19993165e-11 5.6166154e-37 2.1238644e-15 -3.809271e-23 1.07637407e-16 -1.6406241e-11 4.631418e-14 -1.6801915e-13
9.143817e-13 -4.7445168e-35 -6.310187e-13 -7.537643e-33 2.1347416e-33 -9.702263e-13 1.7222341e-32 -4.6731507e-34
4.4821045e-15 -8.77525e-33 2.890379e-24 7.731936e-34 7.720153e-35 -7.178734e-34 -8.9556105e-20 -6.635024e-14
1.8077474e-32 -2.9585095e-12 2.1404472e-29 -5.4002505e-37 -1.2546563e-19 -1.7075914e-31 -1.0315913e-33 -5.093327e-34
