checkpoints/ablation_standard/ablation_standard_epoch0010.pt (torch, 38459 bytes, 24 tensors)

0.weight f4 [32, 2]
000000 2b 76 18 3f d1 48 18 3f ed d8 1a be 44 a0 34 3f
       0.5955531 0.5948611 -0.15121813 0.70557046
000010 58 be fd bd a8 35 5a 3e b5 b3 c4 be f9 50 e8 3e
       -0.12389821 0.2130953 -0.38418356 0.45374277
000020 88 3b 15 3f 2e 32 f7 be cc 49 1e 3f 22 a8 57 3e
       0.5829396 -0.48280472 0.61831355 0.21060231
000030 fe 7f 03 3f b0 84 e0 3c 57 1f ad 3e 3d 68 0a be
       0.51367176 0.02740702 0.33812973 -0.13516326
000040 64 cb 0f 3f c6 55 1a 3e b3 cb 81 be dc a7 da 3d
       0.56169724 0.15071782 -0.25350723 0.10676548
000050 58 38 7f be ab 37 9e bc 4a 6f b1 be 8a b4 09 3f
       -0.24923837 -0.019313654 -0.3465522 0.53791106
000060 a9 9f 1d bf 00 6c d0 be b3 5e 43 be 40 f3 f1 be
       -0.6157175 -0.40707397 -0.19079094 -0.47255898
000070 c5 6b 78 3d 01 22 40 bf 71 ff 19 3f 0f b0 23 bf
       0.060649652 -0.75051886 0.601554 -0.6394052
000080 06 7a 07 3f 12 88 1c 3d 80 c2 98 be 27 b9 01 3f
       0.5292057 0.038215704 -0.29835892 0.50673145
000090 87 d9 00 3e 01 88 23 3f df 0e 1f 3e 6a 5d 99 be
       0.1258298 0.638794 0.15533017 -0.29954082
0000a0 c7 2e 15 3e 50 2a 82 be dc b1 98 3e 3a 5b 20 3f
       0.14568625 -0.25422907 0.29823196 0.626392
0000b0 39 63 b7 3e 24 a1 bc be 35 c3 e2 3e f1 f4 1f 3d
       0.35817888 -0.3684169 0.44289556 0.039051954
0000c0 11 5f b2 3e cb 29 d1 be 08 03 32 bf 49 3a a4 be
       0.34838155 -0.40852198 -0.69535875 -0.32075718
0000d0 e6 62 08 bf e6 d3 25 3f c4 77 4f 3e 69 22 88 3e
       -0.5327591 0.64776456 0.2026053 0.26588753
0000e0 7a d6 76 3e 9f d1 4b 3d 5b 68 03 3f 73 81 13 bf
       0.24105254 0.049760457 0.5133111 -0.576194
0000f0 05 1b ec 3d 32 bd 11 bf ef a7 97 3e 12 dd a6 be
       0.11528591 -0.56929314 0.2962031 -0.32590538

0.bias f4 [32]
000000 25 e9 7d 3e 64 74 c2 bd d2 33 1c 3f 71 6b cc be
       0.24795969 -0.09494856 0.6101657 -0.3992572
000010 7b ce f0 be 74 be c8 be 7e c3 2f 3f 3d 0b 6d 3e
       -0.47032532 -0.39207804 0.6865767 0.23148818
000020 e9 70 31 3f 20 67 01 bf 2d 7b 1f bf 3e 1a f9 be
       0.6931291 -0.5054798 -0.62297326 -0.48652834
000030 bc c5 ce be a2 19 9f 3e cc c2 89 3e 5f 3e 12 3f
       -0.40385234 0.31074244 0.2690643 0.5712642
000040 68 46 c9 be 19 fe d6 be fd 3d cf 3e 08 7e 57 be
       -0.39311528 -0.41990736 0.4047698 -0.21044171
000050 54 5f d5 3e a0 9b 31 be b7 a7 d3 3e 9f a1 f1 be
       0.41674292 -0.17344522 0.41338894 -0.4719362
000060 b0 58 c2 be fd 49 72 3e 4a a4 35 3e 2f 0a 4b be
       -0.37958288 0.23661037 0.17738453 -0.19828103
000070 4d 2a d9 3e 16 b8 02 3f 95 7e db be d3 3e 9d be
       0.42415085 0.5106214 -0.42870012 -0.30711994

2.weight f4 [32, 32]
000000 f7 c0 b6 3d c6 de 8f bb d6 a0 c2 bb 07 a4 c8 bd
       0.08923524 -0.0043905703 -0.0059395833 -0.09796911
000010 df 74 0b bd b9 91 17 ba bd 28 c4 b9 a3 68 6d bd
       -0.034047004 -0.0005781907 -0.00037414386 -0.057961117
000020 9c 89 16 b7 7b 5c 51 bd 35 c7 9f bd 9f 31 fc bc
       -8.972736e-06 -0.051113587 -0.078016676 -0.03078538
000030 84 e8 a8 bd f2 85 33 bd 80 b8 d3 3d 02 3c fc b9
       -0.08247474 -0.043828912 0.10337925 -0.00048109895
000040 1c 2c 0b 3b 97 9a bc bd 06 59 40 bd 75 25 83 bb
       0.0021236008 -0.09209173 -0.0469599 -0.004002268
000050 39 fb 5f 39 09 84 aa bd 80 d7 6b bc fc 85 1b bd
       0.00021360525 -0.08325965 -0.014394641 -0.037969574
000060 58 da 6c b5 19 c8 fb bb d6 2f bd b8 03 d2 4d bd
       -8.8234583e-07 -0.0076837656 -9.0211324e-05 -0.05024911
000070 66 84 53 bd b7 0d 12 bd dc cf 9d bb c2 cf 8b bd
       -0.051639937 -0.03565761 -0.0048160385 -0.06826736
000080 5a 54 3c 3e 42 8d 7f 3c b6 ac 45 3e 58 8a ee 3d
       0.18391553 0.015597643 0.19304165 0.11647481
000090 a6 6c cb bd 54 dd e5 3d 94 5a 68 bc 23 5b 4e bd
       -0.099328324 0.112238556 -0.014181752 -0.050379883
0000a0 17 ba de bd 1d d5 d1 bd 8b 7d 4f 3a a0 ec 0c 3d
       -0.108753376 -0.10245726 0.00079151307 0.03440535
0000b0 e3 c8 44 3d 7a 23 15 be 81 4a 9b 3d 11 85 e2 bd
       0.048043143 -0.14564314 0.0758257 -0.11060537
0000c0 23 55 97 bc 1a 03 db 3d 64 1a 0e 3e a2 de 7e 3d
       -0.018473214 0.10693951 0.13877255 0.062224038
0000d0 f5 ad 33 3e 1f 5e d2 bd 47 3a 70 3d 91 fd 47 bd
       0.17546828 -0.102718584 0.058649328 -0.048825804
0000e0 84 8b d9 bc c7 47 df bd 7c d0 52 3e 61 ef e5 bd
       -0.026555784 -0.10902362 0.20587343 -0.112272985
0000f0 9d bd 07 3e b5 ee 98 3d fa 2c 06 bc 61 61 8d bd
       0.13255925 0.07467405 -0.008189434 -0.06903339
000100 dd 68 3f 3e 83 64 69 3d a8 cd ef 3c df cc cb bd
       0.18692346 0.05698062 0.02927287 -0.099511854
000110 98 a5 c7 3c d6 70 cf bb 90 68 80 bd a8 48 2a 3e
       0.024370953 -0.0063305898 -0.06269944 0.16629279
000120 63 d0 71 3d 92 57 ff bc c0 c4 c7 bc 5c 6c 5c 3d
       0.059036624 -0.031169686 -0.02438581 0.053814277
000130 da 47 23 3d ec d1 b1 bd 97 3e 1a be b7 b7 63 bd
       0.039863445 -0.086826175 -0.15062939 -0.055595126
000140 23 8f fb bd 98 ae ec 3d 3b 90 2e 3e 55 a8 1b be
       -0.122831605 0.115567386 0.17047207 -0.15200932
000150 30 7e 15 3d da 44 0b 3e 04 b0 1f 3d 7d 85 c6 bd
       0.036497295 0.13600484 0.03898622 -0.096934296
000160 f4 92 da 3c 34 2d 77 3d f1 ff 80 3d e7 ed de 3c
       0.0266814 0.060345843 0.06298817 0.02721305
000170 0a 1a 08 bd a4 d3 bb 3c 16 90 83 bc 04 2e 07 be
       -0.033227958 0.022928067 -0.016059916 -0.13201147
000180 cc 89 08 3e e2 1a 18 3e 69 99 d3 bc 0a 53 79 bd
       0.13333815 0.14854005 -0.025829988 -0.060870208
000190 d0 24 1d 35 f4 1a 23 3d 12 4e 6b 3d 76 2d b2 3d
       5.8540627e-07 0.039820626 0.0574475 0.08700077
0001a0 bc 7f 13 be 05 7d f1 bb 7a a6 9d 3d 08 04 2a 3d
       -0.14404196 -0.00736964 0.076977685 0.04150775
0001b0 47 13 4c 3b 1b 3e d6 bd fd be 23 bd b9 a9 d5 bd
       0.003113942 -0.104610644 -0.039977062 -0.10432763
0001c0 a8 9e 13 bc d5 25 0f 3d 51 1b ea 3d 71 32 96 3c
       -0.009009995 0.03494819 0.114309914 0.0183346
0001d0 0c 2e 15 be 62 b3 9f bd 5b 83 2a 3c 58 8e c8 3d
       -0.14568347 -0.077978864 0.010407294 0.09792775
0001e0 d6 eb bc 39 87 da 8f bd 8f d0 72 3d 21 dc 91 bc
       0.00036033866 -0.07024103 0.05928093 -0.017805161
0001f0 10 be d5 bd 3c 42 1a 3e d7 b3 8e bc fa ae 35 3a
       -0.10436642 0.15064329 -0.017419739 0.00069306756
000200 e5 d7 ea bd 6a d9 39 3e 9e 34 33 3e 8c b0 00 3e
       -0.1146696 0.18149343 0.1750054 0.12567347
000210 3a 9d 5a bd 75 46 d5 bd f8 ef b5 bd fb a0 14 3e
       -0.0533726 -0.10413829 -0.08883661 0.14514534
000220 3b a4 0f 3e 32 70 9d 3d 96 5b dc 3c 76 79 e4 3d
       0.14027493 0.07687415 0.02689914 0.11155979
000230 cb d9 42 bd d9 1c 27 be f9 66 38 be 15 1a 2d be
       -0.047570985 -0.16319598 -0.18008031 -0.16904481
000240 b1 9f e9 3c 42 ad 60 bc a0 d7 ce 3c be 31 0d bd
       0.02851853 -0.013713183 0.025249302 -0.034471266
000250 aa b7 00 bd 63 71 70 bd 05 44 f5 bd 34 06 80 3b
       -0.031425156 -0.058701884 -0.11975864 0.0039069895
000260 13 cd b9 ba a2 50 b8 3d f0 f7 ac bb 7f c1 52 bd
       -0.0014175497 0.089997545 -0.00527858 -0.051454064
000270 a3 fa 9d 3c 30 0d ca bd e8 5e 01 bb 8f 41 c3 bd
       0.019284552 -0.098657966 -0.0019740406 -0.09533989
000280 56 e3 19 3e 54 53 9f bd e4 59 f7 3d 98 ef 0d 3e
       0.15028128 -0.077795655 0.12077692 0.13860929
000290 52 3e 8b 3d 5f c8 a8 bd 9e f2 27 3e a6 8f 42 bd
       0.06798996 -0.08241343 0.16401145 -0.047500275
0002a0 26 0a d5 3d 33 d1 be 3d 0e e8 c7 b9 ea 79 9f 3d
       0.10402326 0.09317245 -0.00038129132 0.07786925
0002b0 57 d1 1d 3d b6 58 0f be 27 78 6f 3d 39 26 18 be
       0.03852972 -0.13998684 0.058464196 -0.14858331
0002c0 75 66 10 3e 8f 9c 52 3e a9 49 5d 3e d7 b8 55 bd
       0.14101584 0.20567535 0.2161013 -0.05217823
0002d0 50 de f9 bd 45 9d e0 3d 3c 4a fd 3d bc 38 33 be
       -0.12200606 0.10967497 0.12367675 -0.17502111
0002e0 31 35 b6 bd 0d 03 de bd 86 de c3 3b 8b d3 6c bb
       -0.08896864 -0.10840426 0.0059774546 -0.0036136832
0002f0 65 1a 13 bd cd 65 f8 bc 8f 85 01 be 3d 8e 53 3d
       -0.035913844 -0.03032198 -0.12648605 0.05164932
000300 32 74 ed 3d 22 c4 70 bd 1b 9b cb bc c2 33 cf bd
       0.11594428 -0.058780797 -0.024854233 -0.10117294
000310 c1 5f cb bd 5f d5 2f be 27 18 9c 3d 68 be 8e bd
       -0.09930373 -0.17171238 0.07621794 -0.06969911
000320 c8 73 d8 bd c8 b2 ba 38 63 92 83 bb f4 7f 82 bd
       -0.105689585 8.902472e-05 -0.0040152534 -0.06372061
000330 79 ba aa 3d a3 03 4d 3c 82 92 29 bc 88 82 3f bd
       0.08336348 0.012513074 -0.010349872 -0.046755344
000340 cf d4 05 be 93 4d 00 3e a2 7c e5 bd 6f 97 12 3e
       -0.13069461 0.12529592 -0.112054124 0.1431558
000350 db ba cd bc ef c3 f0 bc 70 bf 4d 3e f5 9b e8 3d
       -0.025113514 -0.029390303 0.20092559 0.113578714
000360 5c aa b5 bd cd ea ef 3d 5f 1a 18 3e 8e 2d 59 3b
       -0.08870384 0.117147066 0.1485381 0.0033138725
000370 e1 9c 0a 3e 04 cd 59 3e 84 a2 82 3d a1 63 04 3e
       0.13536407 0.21269614 0.06378654 0.1292863
000380 8e 41 cd bd b8 4e cf 3b 14 95 17 3e 28 1f 27 3e
       -0.10022269 0.0063265227 0.14802963 0.16320479
000390 a2 02 31 bd 16 f3 8b bd c7 30 e1 bd d7 31 11 be
       -0.0432154 -0.06833474 -0.10995632 -0.14179169
0003a0 0c d7 fa bd 4e ad 25 3a 1a 09 4c 3d 5c 1d ec 3d
       -0.12248048 0.0006320075 0.049813367 0.11529037
0003b0 f8 8d 2a be f6 9d 23 be db 82 0d 3d 1a 9b de bd
       -0.1665572 -0.15978226 0.03454862 -0.10869427
0003c0 ee cb 94 b9 3f 73 2b 3e 3b 9a 48 bd 34 e9 a5 b7
       -0.000283807 0.16743182 -0.04897521 -1.9778126e-05
0003d0 85 3c 27 bd 15 f2 47 bb f1 80 9e bd cd 73 ae bd
       -0.0408292 -0.0030509282 -0.07739437 -0.08518181
0003e0 65 3a 92 bd 0f ed bc bd a9 a1 4f 3e 9a c7 be bc
       -0.07140044 -0.09224903 0.20276512 -0.023288537
0003f0 06 f9 e3 bd d3 3a 7b 3d fa 63 95 39 ce e2 f8 3c
       -0.11131482 0.061335396 0.00028493983 0.030381586

2.bias f4 [32]
000000 11 8f cd bc ad 4d d9 bd 34 df 1e 3c 73 66 e0 bd
       -0.025092633 -0.106105186 0.00969677 -0.10957041
000010 be 15 38 3e 0c 6c 0c be 65 84 cb 3d 6d 80 3e 3e
       0.17977044 -0.13713092 0.09937362 0.18603678
000020 b7 38 d5 3d c0 ff bb 3d 4a c2 c6 bd 65 ef 4c 3e
       0.10411208 0.0917964 -0.097050264 0.20013197
000030 cb f0 14 bb 3e b2 1f be b7 5c 33 3e ae 12 ca bd
       -0.0022726532 -0.15595338 0.17515837 -0.09866844
000040 a7 a2 f0 3c b0 e2 2e 3e 52 c1 12 be c2 f3 87 bd
       0.029374434 0.17078662 -0.14331558 -0.0663829
000050 0e e3 bb 3c 78 0c 52 bd b0 47 9f 3d 9e 5b cc bd
       0.022935417 -0.051281422 0.07777345 -0.09978412
000060 7f 45 d2 3c 2c e1 d7 bc bc ec b4 bd 73 57 06 be
       0.025667904 -0.026352488 -0.08834216 -0.13119297
000070 7c 2f 76 3d 2a 43 9b 3d 3b 90 da bd 08 b9 1c 3e
       0.06010388 0.0758117 -0.10672041 0.15304959

4.weight f4 [32, 32]
000000 54 d3 dd 3a c0 7d c8 3d 19 96 24 bd 51 81 c4 3d
       0.0016923943 0.0978961 -0.040182207 0.09594978
000010 5f 3f 55 3e 0a 21 45 3e ad 80 ca bd 44 8b 5e 3e
       0.20824955 0.19250885 -0.09887824 0.21732813
000020 01 28 97 3d 6b dd 1a 3e 50 96 87 3d 8c cb 0c 3e
       0.07380677 0.15123527 0.06620467 0.13749522
000030 5a a9 14 be 80 f2 f7 3d 82 f7 f7 bd 89 34 fb bb
       -0.14517727 0.121068 -0.12107755 -0.007666175
000040 92 8f 5a bd b7 75 96 3c c5 2f 6e 3c b1 37 65 3d
       -0.053359576 0.018366678 0.014537756 0.055961315
000050 81 fc e6 bc 57 92 38 3d 34 d1 64 3e 6a 3a 2a 3e
       -0.028196575 0.045061436 0.2234543 0.16623846
000060 ce 2d d0 3d 1c ea d7 3d 9b e6 5d 3e 49 8d d8 38
       0.101649866 0.105427 0.2167 0.00010325999
000070 2b 0a 10 3d bf 0a d3 3d 3d d7 42 be a5 04 18 be
       0.035165947 0.10304784 -0.1902742 -0.14845522
000080 43 bf 90 39 14 fd 66 b9 03 48 86 3d 82 54 10 3d
       0.0002760832 -0.00022028788 0.06556704 0.035236843
000090 be 81 8a 3d 86 51 41 3e e7 bf 2c bd bf 2c 4c 3e
       0.067630276 0.18878755 -0.0421752 0.19938944
0000a0 b3 f4 4f 3e ce bc 83 bd 4c 19 86 bd 43 a9 39 be
       0.20308189 -0.06432496 -0.06547794 -0.18130974
0000b0 53 2b 08 be bb 67 f7 bd 9a 6d 3c bd 6d 0f 90 bd
       -0.13297777 -0.12080332 -0.04600296 -0.07034192
0000c0 a0 91 83 bc a5 b3 99 3b e0 0d 0c bd 8d 63 81 3e
       -0.01606065 0.0046906048 -0.03419292 0.25271264
0000d0 65 b6 a4 bd aa eb b0 bd a4 75 d4 3d 1f 10 8f 3d
       -0.080426015 -0.08638699 0.10374001 0.06985497
0000e0 1b a9 d1 3d 21 93 02 3e 98 86 79 3e 4c 96 71 bd
       0.102373324 0.12751438 0.2436775 -0.058981225
0000f0 e0 3b 07 3e 19 e8 5e 3e 34 9b 14 be 34 9e 01 3e
       0.13206434 0.21768226 -0.1451233 0.12658006
000100 c2 24 7d 3d 14 ea 02 bc d1 0b 8a 3d cd e9 81 bd
       0.061802633 -0.007990379 0.06740535 -0.06343422
000110 1b 5b df bd 00 3c c8 3c 66 b9 11 3d 21 f3 c1 bd
       -0.10906049 0.024442673 0.0355772 -0.09470201
000120 15 a7 89 3d dc e0 00 be a8 ef a3 3d 3f 62 13 3e
       0.067213215 -0.12585777 0.08004695 0.14392947
000130 74 05 d4 3c 7f 38 97 bd e0 9e 86 3d 8d e0 91 b8
       0.025881507 -0.07383823 0.06573272 -6.955965e-05
000140 d9 53 f0 3c be 43 25 3d 9f d8 e3 3d 3c 16 b7 bd
       0.029336857 0.040347807 0.111253016 -0.08939788
000150 95 e5 57 3a 80 fb 0c 3d 79 86 b9 3a a0 8f 91 3d
       0.00082358095 0.034419537 0.0014154456 0.071074724
000160 4a 3c d9 bd 6a 51 ba bc 88 00 e6 b9 a3 c1 f3 38
       -0.10607202 -0.0227439 -0.00043869414 0.000116232106
000170 7f da d2 3d 5c c7 2a 3b 59 b2 b9 bd a1 99 fb bc
       0.10295581 0.002605877 -0.0906722 -0.030712904
000180 25 7c 8d bc 71 17 a3 3d 6b 63 1f 3d f8 ac e1 bd
       -0.01727111 0.079634555 0.03891317 -0.11019319
000190 2b 4d b6 3b 79 e0 55 3d ed 28 ca bc 1f b5 5d 3e
       0.0055633984 0.052216027 -0.024677718 0.21651123
0001a0 3e 45 97 3c d6 09 38 3e be 68 23 ba 51 07 33 be
       0.018465634 0.17972502 -0.00062335643 -0.1748326
0001b0 5e d8 8b 3c 3c ff c5 3d 99 8c 08 be d7 c0 0c be
       0.017070945 0.09667823 -0.13334884 -0.13745438
0001c0 df 09 76 3e 08 9c 49 3e dd 29 9b bd b7 db 39 3e
       0.24027203 0.19688427 -0.07576344 0.18150221
0001d0 75 b1 fd bc 0a bb 12 be 4d 50 52 3d ba 6b 01 3e
       -0.030968407 -0.14329162 0.051346112 0.1263875
0001e0 ec fa 8a bd 37 97 ad 3d d8 78 96 bd f8 68 5a 3d
       -0.06786141 0.084761076 -0.07347268 0.053322762
0001f0 f4 52 2f 3e 3f 97 25 3e 08 60 75 bc a9 5f 19 3d
       0.17121488 0.16170977 -0.014976509 0.037444744
000200 be dd 6b bd 79 6a 2d bd 1b 06 91 bd e1 92 41 bd
       -0.057584517 -0.04233787 -0.07081243 -0.047259215
000210 2d ed b0 bd e5 36 78 3d 5d 61 1f 3e 59 6f ed bd
       -0.08638988 0.060599227 0.15564485 -0.115935035
000220 ba 41 1f 3d e3 95 d6 3c 97 8e c2 3d 4f c5 19 3e
       0.03888104 0.026194518 0.09499853 0.15016674
000230 be 87 55 3e 01 92 af 3b 48 25 2e 3e ec 1c 2c 3e
       0.20852563 0.005357981 0.17006409 0.16807908
000240 1c d2 64 be 6d 2a 2e be 9c 70 8a 3c e8 e6 0d 3d
       -0.22345775 -0.17008372 0.0168994 0.034644037
000250 e2 4f 50 bd 8d 13 32 38 db 2e 1c 3d 3b 19 80 bc
       -0.050857432 4.2456715e-05 0.038130622 -0.01563703
000260 f7 11 23 bd b5 0f d2 3d 8d 1f 75 3d 18 ad 59 bd
       -0.039812054 0.10256902 0.059844542 -0.05314359
000270 f9 e4 57 3b fd e8 21 bd d7 b3 f9 3d 1c 89 5a 3e
       0.0032942875 -0.039528836 0.12192505 0.21341366
000280 8c 53 9b 3a 4e 98 d3 bc c0 4a 32 3e b6 61 0c bc
       0.001185046 -0.02582946 0.17411327 -0.008568218
000290 5a 6e 4a bd dd 60 f3 3c 84 63 18 be af 06 45 3c
       -0.049421646 0.029709274 -0.14881712 0.012025519
0002a0 65 a9 fb bd 22 0f b2 3c 49 70 52 b9 6b 67 8b 3b
       -0.12288169 0.021735732 -0.0002006899 0.0042542717
0002b0 f6 c8 2a be ce 2b 29 be cc 80 7d 3d 09 9f 05 3e
       -0.16678223 -0.16520616 0.06189041 0.13048948
0002c0 08 14 11 be 15 a1 78 3d 1e 8d e4 bd ed 21 03 3d
       -0.14167798 0.060700495 -0.111597285 0.032014776
0002d0 4a bf 11 3e e1 8e 81 3d 96 9d 18 be ae 01 28 3d
       0.14233127 0.0632608 -0.14903864 0.041017227
0002e0 9b 86 8f 3d c1 b4 08 bb 66 62 ce 3d ed 59 2a bc
       0.07008096 -0.002085969 0.10077362 -0.010397417
0002f0 08 ec 0c bd 81 17 a5 bd 1f 73 88 ba 5a ce ce 3c
       -0.034404784 -0.08061124 -0.0010410285 0.02524488
000300 04 7e fe b8 b7 65 7e bd 9f 9a 03 be e7 9c 97 3b
       -0.00012135136 -0.06210872 -0.12851952 0.0046268585
000310 f9 30 c3 bd 1b f7 b2 bd 34 b3 2c 3d 4b 4a 88 bc
       -0.09530825 -0.08738538 0.04216309 -0.016636988
000320 07 dc be 3d 18 b6 07 bd 86 bf 5d 3d db 33 23 3d
       0.09319311 -0.033132643 0.05413773 0.039844375
000330 f0 63 78 bd 8d a1 40 3e 66 82 9b 3d 32 7c b9 bc
       -0.060642183 0.18811627 0.07593231 -0.022642229
000340 65 f6 04 be 8a 8f f2 3c 61 91 e3 bd 6c fe 66 bc
       -0.12984617 0.02960946 -0.11111713 -0.014098745
000350 d4 1f 03 3e 3c 96 a9 bd 96 52 87 bd a8 4d 9f bd
       0.1280511 -0.08280608 -0.06607549 -0.07778484
000360 fd 41 55 3e 0e f9 2a 3e d1 da 4d 3b 26 a9 be 3d
       0.20825954 0.1669657 0.0031410942 0.09309606
000370 e8 09 60 bc 80 7f 3f be 2a 61 05 3e 78 3b ee 3d
       -0.013674237 -0.18700981 0.13025346 0.116324365
000380 d9 0f cd 3d ca 02 e0 35 c1 26 84 3d 73 79 24 3d
       0.10012788 1.6690112e-06 0.06452704 0.040154886
000390 11 03 6c 3d f0 32 d1 bd 75 53 97 3d 12 28 a1 bd
       0.05762011 -0.10214794 0.07388965 -0.07868971
0003a0 3c 30 b0 3d 73 24 65 38 b6 aa ac bd d9 13 d0 39
       0.0860295 5.46318e-05 -0.08430998 0.0003968764
0003b0 70 7c 41 3a ad c3 b0 bd 16 1e dc bb 30 2e cb b8
       0.00073809084 -0.08631072 -0.0067174537 -9.6883974e-05
0003c0 46 50 88 3d 1c ec 07 bb f0 98 18 3d 6a ae a3 39
       0.06655936 -0.0020740097 0.037255228 0.0003121973
0003d0 2a d0 9a 38 e0 36 0b ba e2 05 40 bd f4 f1 99 bd
       7.382066e-05 -0.0005310606 -0.04688061 -0.07516852
0003e0 d1 02 27 bb 7a 51 bc bd 9b 3b 9b bc e4 10 d9 b8
       -0.0025483856 -0.09195228 -0.01894932 -0.000103505125
0003f0 4e 87 41 bd f3 db 4b bc 2d 06 93 39 fd 13 19 b9
       -0.047248177 -0.012442577 0.00028042626 -0.00014598663

4.bias f4 [32]
000000 5a 17 ea 3d 4a e8 78 3d 22 a4 aa bd 73 37 02 3e
       0.11430235 0.060768403 -0.08332087 0.12716465
000010 d7 46 c4 bc 58 7f c7 bc 8d ee d7 bc 47 13 c2 bd
       -0.02395956 -0.024352714 -0.026358867 -0.09476333
000020 58 d1 52 3d a9 3c 79 3d 0a b8 c4 bc 2f f8 eb 3d
       0.051469177 0.060848866 -0.024013538 0.11521947
000030 ef 5f b0 bd 12 64 c7 bd 14 2a 87 bd d7 fe ac bc
       -0.08612048 -0.09735884 -0.06599823 -0.02111761
000040 fe ff bd bb 69 51 05 bd f2 dd 8f 3d 61 bb a9 bd
       -0.005798339 -0.032548342 0.070247546 -0.08287693
000050 a5 98 0e 3d fe c3 9a 3a cd d2 a1 3d bd dc 33 3e
       0.034813542 0.0011807678 0.07901535 0.17564674
000060 0f 1c e6 3d b4 db ff bc ea f8 95 bd 9c ef 4d bd
       0.112358205 -0.031232692 -0.07322867 -0.050277337
000070 c4 98 c2 bc e1 fb 90 3d 35 34 1b bb 68 af 31 3e
       -0.023754485 0.07079292 -0.002368224 0.17352068

6.weight f4 [2, 32]
000000 a5 46 06 3e d9 a5 d4 3c 95 4b ad 3c bd 3d d0 3d
       0.13112886 0.025957989 0.021154204 0.10168026
000010 fd d8 97 bd 1e 19 00 3e 39 e5 51 be 60 7d b2 3c
       -0.07414434 0.12509581 -0.20497598 0.0217883
000020 7b e2 1a be 92 81 34 be bb 89 47 3a 40 42 11 3e
       -0.15125458 -0.17627552 0.0007611771 0.14185429
000030 fb b1 60 3d 32 b1 10 ba fa 09 6e bd 25 01 99 bd
       0.054857235 -0.0005519568 -0.058114983 -0.074709214
000040 2b 57 34 bc d1 bb de 3c 84 fb da bc 68 a6 a0 3d
       -0.011007111 0.027189167 -0.02673126 0.078442395
000050 90 a3 16 3e 2a 37 2e be b1 ab 6f bd f9 ec ea bd
       0.14710832 -0.17013231 -0.058513347 -0.1147098
000060 8b 78 a5 bc 8c a7 8d bd c6 f7 9f b9 7c 2e 3a be
       -0.02019908 -0.06916723 -0.0003051145 -0.18181795
000070 c9 6d cf 3d 31 a7 9b 3d 92 ea 10 be 0a 30 5e be
       0.10128362 0.076002486 -0.14151981 -0.21698013
000080 93 85 60 bd fb bf dc bd d1 23 15 3d 4f 49 37 be
       -0.054814886 -0.10778805 0.03641111 -0.17899059
000090 1a 13 ff 3d ea 5b 0a be 38 9c d8 bc 0a 82 de bc
       0.12454815 -0.13511625 -0.026441678 -0.027161617
0000a0 1d 39 fe 3d 89 4f 8c 3c 75 5f c6 bd 3d 6d 20 be
       0.12413237 0.017127769 -0.09686176 -0.15666671
0000b0 9b 5c 97 bc 22 ef ba bd 12 0a 84 3d 14 d8 02 3e
       -0.018476775 -0.09127642 0.06447233 0.1277774
0000c0 71 6a 2a ba 94 0f e8 bd 8d 65 5c 3c b4 7d 8d bd
       -0.00065008464 -0.11331096 0.013451946 -0.069087416
0000d0 fd e0 1a be 2c 84 ca 3c 67 56 5d 3e 12 87 45 bd
       -0.15124889 0.024721228 0.21614991 -0.048224516
0000e0 9c 35 a3 3d 89 ad 23 bc da 93 c5 38 69 ce e8 bd
       0.079692096 -0.0099901045 9.4212315e-05 -0.113674946
0000f0 c9 06 99 3d 21 d9 6a 3e 2d a0 84 3c 3f cc 26 3e
       0.07471997 0.2293439 0.016189659 0.16288851

6.bias f4 [2]
000000 88 98 19 3e 30 b3 a8 3d
       0.14999592 0.08237302

exp_avg f4 [32, 2]
000000 ef 9a 13 bb 1d e3 8e 39 3d ea 9b b9 2c 79 16 ba
       -0.0022522768 0.00027253563 -0.00029738425 -0.0005740102
000010 3d e6 4c ba e7 09 0b b9 34 fd 3e b8 65 35 91 38
       -0.00078162906 -0.00013259762 -4.5535344e-05 6.924084e-05
000020 a5 85 15 3a 06 f0 fc b9 c5 42 2a 37 78 6b 92 ba
       0.00057038135 -0.00048244017 1.0148336e-05 -0.0011170944
000030 18 1c a6 3a a3 fa 88 3a 85 13 78 b8 96 72 b0 39
       0.0012673168 0.0010450672 -5.9145987e-05 0.0003365471
000040 b8 b4 f7 ba b6 ff 38 3a 99 3b dc b7 88 ee 40 37
       -0.0018898463 0.0007057147 -2.6253796e-05 1.1499629e-05
000050 6a a4 d8 b7 ee 3b 27 b6 77 cc 11 3b 72 f1 02 bb
       -2.5825768e-05 -2.4919823e-06 0.0022247115 -0.0019980338
000060 d0 59 d4 3a b5 12 12 3b 71 2f 9c 3a d2 02 cc b9
       0.0016201083 0.0022288982 0.0011915994 -0.00038912013
000070 40 82 db 3a bf 24 64 3a f6 57 1b 3b 63 d5 b9 3a
       0.0016747192 0.00087029854 0.0023703552 0.0014177974
000080 d8 1e d9 39 78 60 8b 3a 97 dc 0c 3b 68 cf 9e ba
       0.00041412446 0.0010633608 0.0021493786 -0.0012116255
000090 71 22 06 bb 3b 98 37 ba 45 35 7c ba 7d 88 4a 38
       -0.0020467306 -0.000700358 -0.0009620975 4.8287668e-05
0000a0 c3 93 02 3b 14 73 1a 3a 93 f0 21 ba 92 24 e6 b9
       0.0019924499 0.0005891782 -0.0006177511 -0.00043896266
0000b0 c3 46 43 3b 76 ea 33 39 c5 a4 54 bb b5 9e 77 3a
       0.0029796816 0.00017158114 -0.0032446843 0.00094459514
0000c0 b8 c5 42 ba 56 55 9b b9 66 c7 77 3a c0 ab ca b9
       -0.0007429975 -0.00029627484 0.0009452015 -0.00038656406
0000d0 6d 05 17 bb dd bd b6 ba 0f 0c bf b9 72 cf 97 b9
       -0.0023044006 -0.0013942082 -0.00036439343 -0.00028955523
0000e0 e7 18 ae ba fc df 94 b9 bc f1 33 3b a9 af b0 3a
       -0.0013282568 -0.0002839564 0.0027457317 0.0013480085
0000f0 2f eb 4d ba 22 4d 50 3b 02 20 9c ba 8f 14 e6 39
       -0.00078551745 0.0031784256 -0.0011911395 0.00043884336

exp_avg_sq f4 [32, 2]
000000 ab ca 8c 35 68 f3 2c 35 f2 9a 43 35 7b a0 b9 34
       1.0489797e-06 6.4429196e-07 7.2868636e-07 3.45757e-07
000010 98 d1 28 35 71 01 01 35 3a d5 f2 34 c2 bf 4e 34
       6.2889876e-07 4.805834e-07 4.5231155e-07 1.9255006e-07
000020 c9 8e 73 34 87 90 59 34 bf 4a 37 34 48 9e c8 33
       2.2683084e-07 2.0262279e-07 1.7070396e-07 9.342017e-08
000030 a8 18 da 34 2d f5 80 35 65 0f b8 34 56 9b 2e 35
       4.0623604e-07 9.608099e-07 3.4283872e-07 6.5046095e-07
000040 58 8a 5b 35 3e aa 35 35 d7 16 90 2e 45 89 8b 2d
       8.1785174e-07 6.767549e-07 6.552419e-11 1.586343e-11
000050 2f e2 8b 2e 6c 81 0c 2c 3f eb 09 35 e8 33 ff 34
       6.3611665e-11 1.996704e-12 5.1378805e-07 4.7535218e-07
000060 63 e1 07 35 05 56 ea 34 dd a7 28 36 3c a5 96 35
       5.06194e-07 4.3648484e-07 2.513166e-06 1.122396e-06
000070 82 2c b9 35 8f 48 8f 35 f3 32 9e 35 f6 a6 b4 35
       1.3796528e-06 1.0675448e-06 1.1786746e-06 1.3459637e-06
000080 87 2f 14 34 31 28 01 34 a1 9d 4b 35 aa 84 58 35
       1.3800864e-07 1.2028683e-07 7.5852773e-07 8.065932e-07
000090 1d 8b 28 36 24 15 af 35 a0 d8 f4 33 08 64 0f 34
       2.5114925e-06 1.3044669e-06 1.1401539e-07 1.3354304e-07
0000a0 3e 4c f1 35 49 ee c0 35 0a 66 57 34 c8 0d 7b 34
       1.7978089e-06 1.4374465e-06 2.0060557e-07 2.338121e-07
0000b0 a0 64 86 35 a6 b1 bb 35 10 51 b4 34 0f eb cd 32
       1.0013064e-06 1.3984288e-06 3.3586593e-07 2.3972033e-08
0000c0 90 99 f5 33 2e 51 d1 33 db 43 99 33 34 fb 7a 34
       1.14366344e-07 9.7470874e-08 7.1369605e-08 2.3374452e-07
0000d0 2c bc ab 36 8f 13 2d 36 33 c1 07 34 bb 03 dc 33
       5.118103e-06 2.5790393e-06 1.264314e-07 1.0245227e-07
0000e0 c5 a1 98 34 08 57 dd 34 42 1a 8d 35 6e 5c b3 35
       2.842991e-07 4.122778e-07 1.0512961e-06 1.336344e-06
0000f0 a1 b9 49 34 89 ce ce 35 7b 8e dc 34 fb f1 b3 34
       1.8787115e-07 1.5408306e-06 4.1081861e-07 3.3517412e-07

exp_avg f4 [32]
000000 97 1b 00 3a ea ee 14 ba d9 85 40 ba 22 35 cc 3a
       0.00048869237 -0.0005681353 -0.00073441636 0.00155798
000010 0d fb 16 3b cb ee 10 ba ac 09 cb 39 08 8c 1d 3b
       0.0023037822 -0.0005528747 0.00038726383 0.0024039764
000020 1a 77 ec ba 07 f1 57 b8 5f 9f 84 b8 5d be f6 ba
       -0.0018040866 -5.148447e-05 -6.323936e-05 -0.0018825043
000030 6a 04 c8 ba 0e 01 9a 3a e4 8a 34 3b cc 2a ff 3a
       -0.0015260105 0.0011749582 0.0027548606 0.001946771
000040 e6 73 62 3a 28 14 83 b9 7b 50 cb ba 99 c3 3b 3a
       0.0008638486 -0.00025001285 -0.0015511656 0.000716263
000050 97 4b 2f 3a 40 75 53 39 1a c5 97 38 34 17 27 bb
       0.0006686984 0.00020166207 7.236954e-05 -0.0025496008
000060 5b cc 86 3a ed ca 6b 3a d6 21 87 3b 0d e0 b8 b7
       0.0010284291 0.0008994777 0.0041239066 -2.2038841e-05
000070 c1 44 94 ba 44 84 a9 3a 1e 02 09 bb 94 fb 87 3a
       -0.0011311994 0.0012933095 -0.0020905803 0.0010374659

exp_avg_sq f4 [32]
000000 1e 8f 09 36 e1 81 a6 35 c3 95 cb 35 2e 14 39 35
       2.0497896e-06 1.2405764e-06 1.5168265e-06 6.8947236e-07
000010 19 a3 ff 34 7e ca 55 34 d4 b9 81 35 bb 34 63 35
       4.761612e-07 1.9910837e-07 9.665332e-07 8.464082e-07
000020 fe 9d 04 36 54 c6 7a 2f 44 6a b9 2f 58 fe 35 35
       1.9761496e-06 2.2807828e-10 3.372681e-10 6.7797873e-07
000030 a2 71 7a 35 46 e0 bb 36 66 88 3e 36 64 b1 18 36
       9.3297615e-07 5.599143e-06 2.83916e-06 2.275302e-06
000040 01 45 35 34 3c 92 94 35 3b 36 ca 36 c8 69 67 34
       1.6882042e-07 1.1069419e-06 6.0263824e-06 2.1552034e-07
000050 68 95 77 36 98 14 0a 35 b8 79 d9 35 1f d0 5b 34
       3.6892834e-06 5.1438974e-07 1.6203185e-06 2.0471678e-07
000060 54 a6 49 34 76 0a bb 34 f1 de 1e 37 d2 0a 72 34
       1.8780094e-07 3.4839076e-07 9.4694415e-06 2.2541943e-07
000070 79 33 29 35 00 bf cb 35 e6 21 c3 35 4c 6f 11 35
       6.303231e-07 1.5180267e-06 1.4538498e-06 5.417867e-07

exp_avg f4 [32, 32]
000000 e4 25 23 37 fa 7d 53 b5 fd 58 83 b5 c0 ff 31 b7
       9.724379e-06 -7.8786945e-07 -9.78616e-07 -1.0609569e-05
000010 55 3d 88 b6 66 6d 88 33 78 b2 8b b2 ab 53 db b6
       -4.060256e-06 6.352893e-08 -1.6262888e-08 -6.536449e-06
000020 4d d5 dc b0 87 b4 c3 b6 f7 06 10 b7 fd 76 79 b6
       -1.606773e-09 -5.832469e-06 -8.5846905e-06 -3.7173152e-06
000030 df a1 17 b7 72 72 aa b6 96 2f 3b 37 ec 0b a8 b3
       -9.03799e-06 -5.079718e-06 1.1157148e-05 -7.825278e-08
000040 b3 47 04 35 15 02 28 b7 5c 52 b5 b6 fb 5a 46 b5
       4.927817e-07 -1.0014065e-05 -5.4038082e-06 -7.389314e-07
000050 11 62 02 b3 69 f8 18 b7 6d ff 02 b6 57 01 96 b6
       -3.0357175e-08 -9.1177435e-06 -1.9520187e-06 -4.4705043e-06
000060 37 84 ce ae 07 4f 9f b5 f8 d9 f8 31 25 b7 c0 b6
       -9.3912815e-11 -1.1869423e-06 7.24253e-09 -5.7433667e-06
000070 51 86 c5 b6 92 e6 8d b6 e6 bb 61 b5 17 b7 fe b6
       -5.886694e-06 -4.2289694e-06 -8.409246e-07 -7.5911043e-06
000080 55 54 2c ba df 63 d0 b9 bd 62 52 38 6a f4 a3 b9
       -0.0006573846 -0.0003974726 5.015986e-05 -0.00031271885
000090 33 5c ea 38 8e 53 ef b8 d3 88 0a ba 99 ef 82 b9
       0.00011175163 -0.00011411971 -0.00052846706 -0.00024974046
0000a0 e6 42 39 ba f5 9e 39 b7 37 58 a2 34 83 77 94 b9
       -0.00070671586 -1.1063869e-05 3.0239036e-07 -0.00028317803
0000b0 ae e9 ba 39 22 d6 e7 39 d8 a2 a3 39 f6 e5 e3 b9
       0.0003565079 0.00044219295 0.0003121111 -0.00043468148
0000c0 65 97 80 37 89 50 90 b9 34 07 2f ba d2 44 30 38
       1.5329288e-05 -0.00027525824 -0.00066767936 4.2025764e-05
0000d0 17 4a 25 39 c6 9d ff b9 34 4f 78 b9 ba b2 a4 38
       0.00015763227 -0.0004875494 -0.00023680629 7.85342e-05
0000e0 bd 21 01 39 db e9 59 3a eb 9f 12 b8 c4 58 32 b9
       0.00012314967 0.000831274 -3.4958048e-05 -0.0001700847
0000f0 91 ce 66 b9 77 da b2 b9 12 f4 e7 36 25 ad d6 38
       -0.00022011461 -0.00034113575 6.91275e-06 0.00010236566
000100 fa b2 26 ba 71 fa 29 b9 05 f5 bf 39 da 3a fe b9
       -0.0006359067 -0.00016210393 0.00036612913 -0.00048490503
000110 2d 80 02 3a f6 cf fa 37 2c 3d 38 ba e2 e6 fe b9
       0.0004978206 2.9899162e-05 -0.0007028158 -0.00048618676
000120 1d a8 60 ba d4 2e 7c b6 5e e4 4b b6 d0 e1 e9 b9
       -0.00085699727 -3.7578184e-06 -3.0382284e-06 -0.00044609467
000130 2e 38 e8 39 d6 a6 c1 39 8c 30 3a 39 5a 8f 92 ba
       0.00044292345 0.0003693613 0.00017756427 -0.0011181638
000140 da d8 97 39 4e 2c d6 b9 0b 9e e7 b9 ca 28 f8 38
       0.0002896253 -0.0004085027 -0.00044177505 0.00011833159
000150 ff c0 a5 38 da 35 1c ba 41 e3 2d ba f6 c1 4e 39
       7.9037614e-05 -0.0005958952 -0.000663329 0.00019717947
000160 eb 60 db 39 d1 68 a5 3a 61 73 26 3a 1e f1 91 b9
       0.00041843145 0.0012619739 0.000634959 -0.00027836201
000170 e0 75 87 b9 0f a2 77 ba ad 1c ac 37 cc 8b b2 39
       -0.0002583703 -0.0009446451 2.0517351e-05 0.00034054962
000180 2e 30 50 ba 10 6e 3f ba aa 44 61 ba 5d 8d 7f b9
       -0.00079417496 -0.00073024724 -0.00085933006 -0.00024371357
000190 f6 f1 5a b0 1f 3e 24 b8 8f ea 1a ba be e3 b6 b8
       -7.9651785e-10 -3.91585e-05 -0.0005909586 -8.7208566e-05
0001a0 16 03 44 ba dd 53 9a b5 da 40 0e 37 cc e7 69 b9
       -0.00074772665 -1.1498302e-06 8.478959e-06 -0.00022306963
0001b0 83 5f b7 34 b5 88 5e b7 0c 06 9d b6 13 62 7b b8
       3.41559e-07 -1.3264061e-05 -4.6796686e-06 -5.9934402e-05
0001c0 49 ae a7 b5 59 d1 7b b9 ed 56 8e ba bd 15 20 36
       -1.2493193e-06 -0.00024015213 -0.0010859646 2.3854511e-06
0001d0 21 56 cd b8 f1 3c 03 ba 44 66 53 b8 c4 ed 31 37
       -9.7912045e-05 -0.00050063344 -5.0401562e-05 1.0605381e-05
0001e0 85 3c c1 b1 ff 2a 64 b9 70 8a 84 ba 02 84 ef b8
       -5.6239196e-09 -0.00021759792 -0.0010112058 -0.000114209965
0001f0 5f a0 e0 b9 0d 3a c7 b7 f1 60 19 b6 7d dc a6 33
       -0.00042844095 -2.374968e-05 -2.2855204e-06 7.770084e-08
000200 67 4c 79 b9 18 64 cc b9 b9 1c 4a b9 e1 c3 17 b9
       -0.00023774953 -0.00038984488 -0.00019274921 -0.00014473453
000210 69 82 cb b6 b8 0a 21 b7 a6 ae 8a b9 7b 1f e7 37
       -6.065053e-06 -9.5988435e-06 -0.00026451534 2.7552005e-05
000220 49 e0 b9 b9 98 13 0e 37 97 dd 5d 36 44 e4 ba b8
       -0.00035453055 8.468422e-06 3.3060549e-06 -8.911689e-05
000230 9d 4d b5 39 ba f8 a7 39 ba 57 8a 39 10 21 71 38
       0.00034580837 0.00032038038 0.00026386773 5.748967e-05
000240 bb 51 0b b6 02 06 f4 b8 3e ae 1c ba 6a bb 89 b6
       -2.0760187e-06 -0.00011635946 -0.0005976892 -4.104736e-06
000250 1a 51 f9 38 74 ba 41 b9 71 90 90 38 24 1c 43 35
       0.000118883516 -0.00018475374 6.8933594e-05 7.268411e-07
000260 78 b2 d3 b4 65 ee ed 39 dd c1 dd b9 50 89 00 b8
       -3.9431666e-07 0.0004538178 -0.00042296844 -3.064546e-05
000270 ed 5b 15 b9 2a 9a 9a 38 55 8e fd b4 f5 87 2d b7
       -0.00014243992 7.3720075e-05 -4.7228482e-07 -1.03432585e-05
000280 84 33 fc b9 d2 04 7b b9 cf 96 45 39 82 4b 07 ba
       -0.00048103568 -0.00023939021 0.00018843565 -0.0005161093
000290 39 fc 3e 3a aa e6 06 b9 7c 21 08 39 8f 75 3b b9
       0.0007285509 -0.00012865165 0.00012982445 -0.00017877504
0002a0 8a fb 83 38 9c d8 29 37 b0 09 c9 b0 41 d8 2f ba
       6.2934196e-05 1.0123618e-05 -1.4627428e-09 -0.00067079446
0002b0 1e 31 ba b8 9c 77 71 b9 6f 3a 12 37 08 45 ba b9
       -8.87832e-05 -0.00023028109 8.715883e-06 -0.00035528117
0002c0 eb 9d 9a 39 e1 44 1e ba f0 1a 4d b9 e3 d0 4a 39
       0.00029490827 -0.00060374854 -0.00019560358 0.00019342038
0002d0 b5 df 81 39 de d9 53 ba 79 a6 52 b9 a0 ea 35 39
       0.00024771472 -0.0008081476 -0.00020089177 0.0001734891
0002e0 e6 4b 07 3a f7 19 12 37 42 0a 96 39 41 52 e3 b9
       0.0005161151 8.708324e-06 0.00028617872 -0.00043358098
0002f0 9a d1 b2 38 98 88 9f b9 8b a6 ef 37 c9 5f e9 39
       8.526743e-05 -0.00030428614 2.8568573e-05 0.0004451259
000300 f3 ce ef 36 af 2a a0 b8 41 35 7d 3a b7 9c 62 b8
       7.146847e-06 -7.637345e-05 0.00096591195 -5.402855e-05
000310 cf 02 79 ba 6c 7e be b9 f5 9b d2 3a c1 f1 0d 3a
       -0.00094990147 -0.00036333816 0.0016068207 0.0005414747
000320 39 b9 d8 3a cb 1f 50 32 0b cc 46 b5 f8 53 cd b8
       0.0016534693 1.2114422e-08 -7.405767e-07 -9.790802e-05
000330 53 c1 72 ba 7a a9 7f 39 2c 49 7d 39 f2 29 a4 3a
       -0.0009260375 0.0002438183 0.00024155219 0.0012524708
000340 6c 8e d5 b9 f9 0a 9d b8 b4 1a 85 39 9c 7e aa b9
       -0.00040732638 -7.488387e-05 0.00025387632 -0.00032519258
000350 46 01 49 3a 25 52 0b 38 2a 43 6b 3a 7f c1 e2 b8
       0.0007667731 3.3216686e-05 0.0008974547 -0.00010812561
000360 91 9d 3e ba 9a 3f 1a ba 72 3b a9 b9 ee c8 84 b6
       -0.0007271404 -0.0005884111 -0.00032278482 -3.957298e-06
000370 bd ed 6f 3a 94 24 93 3a 7c 49 0b ba 96 08 12 ba
       0.0009152552 0.0011226111 -0.0005313379 -0.00055707374
000380 f2 c2 1c 3a 4c f0 f2 b8 dc 41 13 3b 60 56 96 ba
       0.0005979977 -0.00011584218 0.0022469675 -0.0011469834
000390 01 50 a8 b6 43 ad 52 b7 dd 8c d9 3a d5 b3 9b 37
       -5.016104e-06 -1.2557316e-05 0.0016597767 1.856118e-05
0003a0 75 31 c6 3a ae e7 5a b3 2a 35 bf 36 b7 90 9e ba
       0.001512094 -5.096779e-08 5.6984327e-06 -0.0012097572
0003b0 94 ce ec 39 4f 7f a3 3a 24 61 80 3a 5b 01 aa b8
       0.0004516734 0.0012473854 0.0009794575 -8.106484e-05
0003c0 61 b8 d5 b2 f4 3f 8f ba 98 37 6c 3a 1b a5 c4 b2
       -2.488031e-08 -0.0010929094 0.00090109697 -2.2892484e-08
0003d0 af a8 bc 3a 23 73 6c b9 3f 1c ef 38 ed 3e 1c b7
       0.0014393533 -0.00022549606 0.00011401669 -9.312976e-06
0003e0 8b b8 04 b7 7f 00 ef 3a 3b 6b 81 3a bf 1a 4e b9
       -7.91078e-06 0.0018234401 0.0009873876 -0.00019655655
0003f0 13 1e 98 3a ed a1 bb b7 77 75 6f 34 50 9b 76 36
       0.0011605643 -2.236754e-05 2.2301343e-07 3.674726e-06

exp_avg_sq f4 [32, 32]
000000 aa aa 55 2d 4b 9c 52 2b f9 a3 74 2b c3 36 75 2d
       1.2145543e-11 7.482389e-13 8.691377e-13 1.3938797e-11
000010 7c a5 77 2c ad 64 a8 2a 12 50 49 29 fb 35 eb 2c
       3.5192673e-12 2.9912653e-13 4.4700416e-14 6.6850948e-12
000020 72 2b 22 26 3b 2f c8 2c 85 2b 30 2d 14 fc 5d 2c
       5.626392e-16 5.6895855e-12 1.0014105e-11 3.154592e-12
000030 cd a9 3e 2d d8 af a5 2c 30 e5 84 2d cc d3 10 2a
       1.0837953e-11 4.7091046e-12 1.5108442e-11 1.2863251e-13
000040 20 bf 1f 2b ee c1 5f 2d 5a 2a b4 2c df 0b 4a 2b
       5.6753387e-13 1.27191434e-11 5.1206097e-12 7.178129e-13
000050 60 36 a5 29 4c 45 41 2d aa 2e db 2b cd ff 8b 2c
       7.3369045e-14 1.0986167e-11 1.5573838e-12 3.979017e-12
000060 9f 06 49 23 3f 92 8d 2b 4b 52 07 28 1a f1 c3 2c
       1.0897634e-17 1.0059244e-12 7.51185e-15 5.569001e-12
000070 95 c9 ca 2c ca 5d 82 2c d7 f7 5b 2b 66 58 12 2d
       5.7635654e-12 3.705235e-12 7.8148376e-13 8.3187675e-12
000080 d2 eb 8a 34 b5 04 0d 34 94 a4 07 35 5f 4c c2 32
       2.5876085e-07 1.313336e-07 5.053091e-07 2.2619302e-08
000090 57 ff a8 31 51 f5 d6 31 3a c3 c6 34 52 29 4e 33
       4.9184723e-09 6.256109e-09 3.702242e-07 4.8000693e-08
0000a0 34 ad e1 34 2d 1d 83 2d dc b1 fe 2a b4 60 31 32
       4.2035538e-07 1.4905932e-11 4.5242878e-13 1.0324744e-08
0000b0 c2 64 b3 32 e3 ce f0 33 1a 46 98 33 4c ae 60 34
       2.0884162e-08 1.12135034e-07 7.090803e-08 2.0925035e-07
0000c0 d4 d4 4d 31 91 88 49 32 a1 48 e4 34 d4 75 e7 2e
       2.9952405e-09 1.17307914e-08 4.2521154e-07 1.0525594e-10
0000d0 a3 12 e0 33 de 51 7b 33 50 d9 d6 33 a4 8c 68 2f
       1.0434203e-07 5.851495e-08 1.00046805e-07 2.1150243e-10
0000e0 b3 ac 64 30 26 5c a1 34 81 8e 06 35 20 a1 5b 31
       8.3191337e-10 3.0055634e-07 5.012626e-07 3.1960283e-09
0000f0 12 18 17 34 1a a3 2e 34 b7 c3 02 2d 8d ac 26 30
       1.4071728e-07 1.6264349e-07 7.433102e-12 6.063566e-10
000100 46 83 62 35 a2 0e d6 33 2c 3f aa 35 0b 13 8c 32
       8.438259e-07 9.967813e-08 1.2684372e-06 1.6306805e-08
000110 fd a9 82 33 f3 2e 34 33 3f 93 e0 35 2f ee 9e 34
       6.0845174e-08 4.1952216e-08 1.6732155e-06 2.9603095e-07
000120 ad bd f0 35 35 f3 60 2c 11 de 2e 2c eb 0a 01 32
       1.7936596e-06 3.1967322e-12 2.4850159e-12 7.511271e-09
000130 11 dc 8e 33 83 42 db 34 1b 54 bf 34 d4 dc b3 35
       6.65242e-08 4.0840322e-07 3.5637717e-07 1.3400809e-06
000140 26 d3 fd 32 d2 7f fa 31 9a 7e 60 35 27 3f 86 30
       2.9549096e-08 7.290489e-09 8.363073e-07 9.767732e-10
000150 fe c8 05 35 41 e1 d8 33 91 66 24 35 5e d6 af 30
       4.9838843e-07 1.0099257e-07 6.1244015e-07 1.2793853e-09
000160 eb 1e 82 32 e9 97 79 35 23 24 47 35 1f 71 00 32
       1.5148052e-08 9.2980787e-07 7.418586e-07 7.476301e-09
000170 09 8f 19 35 b7 77 8a 35 e7 f8 3c 2e a4 ac f8 31
       5.7205085e-07 1.0316643e-06 4.296732e-11 7.237377e-09
000180 8f e3 54 33 00 ba 06 33 28 b4 71 33 7c 08 41 31
       4.956706e-08 3.1368472e-08 5.6276036e-08 2.809002e-09
000190 c0 14 6d 25 b7 a6 f9 2e 5a 0f 16 33 e2 b1 dc 30
       2.0563504e-16 1.13528235e-10 3.493856e-08 1.6057664e-09
0001a0 9e c7 41 33 4b 16 8a 2b 90 de 2c 2d 0e a3 e8 30
       4.5117865e-08 9.811677e-13 9.826487e-12 1.6926565e-09
0001b0 48 d8 01 2d 80 01 3a 2f 0c 98 94 2c 48 3c 81 30
       7.380825e-12 1.6917134e-10 4.2232936e-12 9.403118e-10
0001c0 5d aa 20 2d 78 c0 05 31 0d ff ad 33 06 2b 06 2c
       9.132775e-12 1.9463453e-09 8.102334e-08 1.9066428e-12
0001d0 2c 9b 1f 31 63 a0 91 32 98 28 6c 30 4f 0f 75 2d
       2.322575e-09 1.6953157e-08 8.5913987e-10 1.3930037e-11
0001e0 1d 6d 83 29 26 32 dc 31 38 64 a3 33 8d 71 b5 30
       5.836497e-14 6.408544e-09 7.608509e-08 1.3201756e-09
0001f0 ee 6d 6b 32 43 a6 03 30 8d 54 00 2c a8 26 2d 2a
       1.3703795e-08 4.7893794e-10 1.823683e-12 1.5378898e-13
000200 b5 31 27 33 d9 39 2a 33 09 f6 f3 33 08 fa b5 31
       3.8927926e-08 3.963382e-08 1.1360323e-07 5.2962186e-09
000210 03 76 d3 2c 4e 2e 5f 2e d8 dd 46 33 ee 4b e7 30
       6.0100826e-12 5.0745456e-11 4.6302233e-08 1.6829043e-09
000220 e9 5d 75 33 c8 8a 2c 2d 6f dd 40 2c 30 4c 25 31
       5.712892e-08 9.807884e-12 2.7407761e-12 2.4053968e-09
000230 f8 da 57 32 7b 27 3b 33 5c e1 9c 32 8e 7e 0b 32
       1.2564435e-08 4.3575238e-08 1.8263272e-08 8.11964e-09
000240 b2 23 8c 2c 01 9b 67 31 76 c2 f0 33 2b 11 7b 2c
       3.9830023e-12 3.3703034e-09 1.1211243e-07 3.5678775e-12
000250 3a 4d 7f 32 e5 e6 40 32 2d 01 b8 31 a1 f0 47 2b
       1.4860513e-08 1.122837e-08 5.3552385e-09 7.103294e-13
000260 d9 05 0f 2b 48 9b fd 33 9d 68 0c 34 0b 6a 9a 2f
       5.081192e-13 1.1809476e-07 1.3076574e-07 2.8087785e-10
000270 59 5e ab 32 c3 28 ed 31 66 43 1c 2b 07 80 6b 2d
       1.9949924e-08 6.902242e-09 5.551587e-13 1.3386631e-11
000280 2f 68 a3 35 69 4c 55 34 23 52 75 35 b8 9c 83 32
       1.2174768e-06 1.9864969e-07 9.1389137e-07 1.5321675e-08
000290 a3 3f 99 33 99 78 3e 33 cf 54 f4 35 dc 92 a0 34
       7.136193e-08 4.4347505e-08 1.8204099e-06 2.9909177e-07
0002a0 29 eb 08 36 ff a1 63 2d 82 0f 74 29 59 b5 84 32
       2.040246e-06 1.29394264e-11 5.4192334e-14 1.544929e-08
0002b0 fe 02 82 2f 8a 85 5c 33 ff f1 3c 34 e9 24 a0 35
       2.3648988e-10 5.1344195e-08 1.7596902e-07 1.1931671e-06
0002c0 ea 3d f6 32 ca ad 78 32 23 1d 9a 35 73 af fd 30
       2.8666324e-08 1.4475015e-08 1.1482374e-06 1.8458038e-09
0002d0 4a e1 bc 34 7c eb 55 34 4c 49 11 35 a2 69 8e 30
       3.5181648e-07 1.992284e-07 5.412337e-07 1.0361882e-09
0002e0 e6 58 9c 32 1b c9 96 33 6a a1 12 35 12 dc 88 32
       1.8201217e-08 7.0215e-08 5.4624127e-07 1.593256e-08
0002f0 77 29 1f 35 fa 3f 74 35 df f2 dc 2e 92 00 3e 32
       5.9292455e-07 9.099018e-07 1.0047584e-10 1.1059585e-08
000300 f8 a6 b3 34 64 71 f9 32 5b 9f c6 34 7b c0 3b 31
       3.3462834e-07 2.903898e-08 3.699632e-07 2.7321494e-09
000310 a8 53 54 34 3e dc c6 32 c3 7e 85 35 d9 28 95 34
       1.9774473e-07 2.3150388e-08 9.946165e-07 2.7783133e-07
000320 45 97 84 35 59 5c 39 28 4f 55 4a 2b cc 61 44 30
       9.878792e-07 1.0289588e-14 7.1883206e-13 7.144336e-10
000330 7a 64 51 33 86 b7 32 35 f2 c4 ae 35 d7 72 1c 36
       4.8752987e-08 6.657723e-07 1.3021329e-06 2.3312657e-06
000340 1a 19 a5 32 e0 a4 5d 30 00 e8 9d 34 12 ac f2 31
       1.9219943e-08 8.0633633e-10 2.941233e-07 7.062689e-09
000350 61 e9 25 35 2b 17 80 33 0b 02 78 35 28 d9 db 2f
       6.18069e-07 5.964679e-08 9.239017e-07 3.9990167e-10
000360 b7 70 b2 33 4c 0f ff 34 cd c6 0b 34 2f 7c d1 31
       8.3092736e-08 4.750858e-07 1.3017707e-07 6.0968186e-09
000370 31 e1 bb 34 b0 e5 ed 35 2e aa 8c 32 3e 67 9e 32
       3.4995313e-07 1.7724724e-06 1.6375534e-08 1.844057e-08
000380 2f fc 4c 35 06 b8 3f 35 94 8e 50 36 0d e2 2b 34
       7.63629e-07 7.1420834e-07 3.1077407e-06 1.6007853e-07
000390 4c e9 a2 2c 03 7b 4f 2d 62 37 76 35 f0 52 a6 32
       4.630218e-12 1.1793902e-11 9.1722734e-07 1.9362659e-08
0003a0 c4 d9 94 35 e0 4e a3 2a 87 d1 c1 2c 71 71 ab 33
       1.1090237e-06 2.9009347e-13 5.508652e-12 7.983443e-08
0003b0 bb d8 fa 33 ae 72 22 35 f4 c0 4e 34 be 76 32 33
       1.1680955e-07 6.0516584e-07 1.9255441e-07 4.155185e-08
0003c0 20 bc 24 29 3a 17 ae 33 ab e1 11 36 91 09 e9 28
       3.6578488e-14 8.106731e-08 2.173804e-06 2.5872345e-14
0003d0 ec 56 a3 34 c9 91 42 34 de 5d 2b 33 e2 b9 47 2d
       3.042436e-07 1.8120694e-07 3.989941e-08 1.1353115e-11
0003e0 6a a6 1b 2d 64 d9 15 36 de 15 6c 36 67 33 a2 31
       8.847681e-12 2.2329268e-06 3.5179469e-06 4.7206643e-09
0003f0 40 7b ff 34 6e a4 14 33 fa 37 e3 2a aa e2 5a 2c
       4.7587127e-07 3.4608483e-08 4.0362142e-13 3.1105487e-12

exp_avg f4 [32]
000000 38 f5 50 b6 b1 ff 10 39 ae 7e e7 39 80 af 7f ba
       -3.1137151e-06 0.00013828163 0.00044154137 -0.00097536296
000010 dd ea cc b8 ad cf ce 39 32 30 de 3a f9 32 6c 3b
       -9.771225e-05 0.00039446112 0.0016951619 0.0036041124
000020 86 26 ad 3a 51 cf 85 bb 16 70 30 b7 51 c2 0d 3b
       0.0013210333 -0.004083552 -1.05165145e-05 0.0021630714
000030 99 51 3a 3b 68 e5 3b 3b 4a c6 1c 3b 7a e0 5b 36
       0.0028429984 0.0028670672 0.00239219 3.2764206e-06
000040 e8 d3 8a 3a 45 dc 15 bb bc 3a 47 b7 82 ca f4 bb
       0.0010591717 -0.0022866887 -1.18749995e-05 -0.00747043
000050 66 f7 91 39 d8 2f 91 b7 4e 9f 21 39 0f 03 63 3a
       0.0002784088 -1.7307626e-05 0.00015413502 0.00086598186
000060 5a 12 3e 3a cd c0 c5 ba dc 57 ca 39 40 18 60 b7
       0.00072506594 -0.0015087366 0.00038593903 -1.3357087e-05
000070 1d e8 f1 37 c7 87 c1 ba 83 60 68 3b 7b 9c d6 3a
       2.8837525e-05 -0.0014765196 0.0035457916 0.0016373539

exp_avg_sq f4 [32]
000000 fb dc 33 2c f3 be 84 35 a3 85 4c 36 00 84 b5 33
       2.5560099e-12 9.89034e-07 3.0476156e-06 8.45248e-08
000010 51 90 53 34 f5 dc 0c 36 09 33 ce 35 95 23 b0 36
       1.9703408e-07 2.099024e-06 1.5363049e-06 5.249351e-06
000020 57 ea 56 36 04 30 b8 36 47 cc 71 2d e3 27 cb 36
       3.2024889e-06 5.489217e-06 1.3744623e-11 6.054515e-06
000030 7d cb bd 36 41 ed 16 36 c1 8f 44 36 04 89 1e 35
       5.656328e-06 2.2489842e-06 2.9289952e-06 5.905897e-07
000040 1a 4e 91 36 b7 5c d2 36 26 3d 3e 34 66 8b 2f 37
       4.330429e-06 6.269281e-06 1.7717375e-07 1.0463269e-05
000050 51 67 09 35 63 76 17 33 6f dc 40 35 03 e6 84 36
       5.118682e-07 3.52651e-08 7.1846347e-07 3.9606834e-06
000060 bf 87 96 36 0e 9d 9f 34 50 a9 0b 35 e3 b5 08 2f
       4.4861513e-06 2.973033e-07 5.202792e-07 1.2433747e-10
000070 b3 64 b6 34 df 13 04 37 5d 6d ca 36 de cc b2 36
       3.397341e-07 7.87244e-06 6.0328007e-06 5.328663e-06
