checkpoints/ablation_standard/ablation_standard_epoch0100.pt (torch, 41915 bytes, 24 tensors)

0.weight f4 [32, 2]
00000000: 14ec 343f 5316 263f 6fc6 8ebe b1b8 443f
00000010: cc88 b5bd f147 943e 6fe1 e8be e92a ec3e
00000020: 0142 1b3f 101e 03bf 2f5c 473f 136c a83e
00000030: 45fb f53e b794 1fbd 4f45 153f 53e3 8bbd
00000040: f5b3 0e3f cfec ac3d 139e 0dbc 785d 3537
00000050: 76ce 01bc 60a6 5b22 0941 ecbe b196 0c3f
00000060: 8125 49bf 6fb0 17bf b274 82be d167 9ebe
00000070: a5ff b6bc ed0a 47bf b057 e03e 26bf 1abf
00000080: 11ad 323f f16f 363d 97b8 c2be 627f 173f
00000090: c6de 463e ae90 113f ae2f 803e 28b1 cabe
000000a0: 7a08 df3d d72a 64be 2798 c63e 0963 413f
000000b0: a74c 873e df98 c2be b4e8 0e3f 6d08 e3bd
000000c0: 4d97 e23e 1df0 ffbe 82b5 54bf 3abb dbbe
000000d0: 8711 12bf e5ed 183f 078a a23e 8ccb b83e
000000e0: bf47 8b3e 387b 1a3c f382 ec3e b273 39bf
000000f0: edfe 683d ec5c 32bf 114c c63e 120b ccbe
0.70672727 0.64877814 -0.27885768 0.76844317 -0.088639826 0.28961137 -0.45484492 0.46126488
0.6064759 -0.51217747 0.77875036 0.32894954 0.48043266 -0.038960185 0.5830888 -0.06830468
0.5574334 0.08443605 -0.008643645 1.0810203e-05 -0.007922759 2.9768113e-18 -0.46143368 0.54917437
-0.7857285 -0.5925359 -0.25479656 -0.3093858 -0.022338698 -0.77751046 0.438169 -0.6044792
0.6979533 0.04454035 -0.38031456 0.59178746 0.19420919 0.5686139 0.25036377 -0.39588284
0.10890289 -0.22281967 0.38787958 0.7554174 0.2642567 -0.38007256 0.55823827 -0.110855915
0.44256058 -0.4998788 -0.8308946 -0.4291628 -0.57057995 0.59738 0.31745932 0.36092794
0.27203175 0.009428792 0.46193656 -0.7244216 0.05688374 -0.6967304 0.3872991 -0.39852196

0.bias f4 [32]
00000000: 8d78 c23d b49a 3cbe 1bdc 303f 8987 e7be
00000010: c141 11bf b649 d5be deaf 323f 18cd 893e
00000020: 8813 433f 99c6 f0bd 5cb3 4cbe b831 01bf
00000030: 85d1 c8be 6f45 c83e 5942 6c3e d7c8 313f
00000040: 039e cfbe b2b8 d5be b90d e73e 042d 60be
00000050: 14d6 f83e 3bf7 7ebe b99e c13e 67ab edbe
00000060: 755e cdbe cace 2f3e 9f75 763d aa01 8bbe
00000070: a547 053f 2dfd ff3e ff9f f6be 145e abbe
0.094956495 -0.1841839 0.69085854 -0.45220593 -0.5674096 -0.416578 0.697996 0.26914287
0.7620168 -0.117566295 -0.19990295 -0.5046649 -0.3922235 0.39115474 0.23072185 0.6944708
-0.4055024 -0.41742474 0.45127657 -0.21892172 0.4860083 -0.24898998 0.37816408 -0.46419832
-0.40111127 0.17168728 0.060170766 -0.27149707 0.52062446 0.49997845 -0.48168942 -0.33470213

2.weight f4 [32, 32]
00000000: 1af8 a435 d337 0ba0 a0cc a1b3 99dc 85b6
00000010: 6fde d127 2518 281f d18b 88b5 b36d 39b3
00000020: 2e02 dbb3 28b2 3bae 00d2 46b4 308d 40a4
00000030: 5e67 58b6 190c bcb7 cadb c8b7 aa51 f2b8
00000040: c5f4 6d1f f354 f8b5 a4f6 5dac 6f5c f1a7
00000050: d20e 21b6 5442 00b5 d2c6 02b7 5164 5ea6
00000060: 06a9 ee28 093c e6b6 c11f 909d 3442 e9ad
00000070: 5278 74b5 bba6 acb8 8daf b22a 7096 afb2
00000080: 143f d13e 69ec 3c3e da2f 1f3e 9bbb e43e
00000090: 55d8 8ebe e6d4 8c3e 5af6 8d3c 6cdc 5a3e
000000a0: 2d2e 72bd 103d e3b6 2a12 689f 1b22 c93e
000000b0: bf2c 343e 810e 9abe 80d0 643e 6f6f 96bd
000000c0: 5bb2 3bbe 6669 ea3e f426 403e fbae 90be
000000d0: 6f5d f43d 577f 813e 7e76 a03d eec8 2cbe
000000e0: 6bcc a2be b8f7 38be 6db6 323e f9e3 163e
000000f0: 9015 153e 477b 583e ff79 94bd 0fa9 a6be
00000100: b07b 333e 76eb 1a3b c42a 87bd f187 c03d
00000110: c474 b7bc e9ce f33d 5e18 2dbe 1eb7 003e
00000120: 13d0 2fbd 0b57 c2a3 f17e 6ea1 8b35 863e
00000130: 733e 8c3e 40e1 1fbd 90f3 9dbc 8acd eabd
00000140: 72ed 863d 6951 aa3e 46b9 743d 2365 10be
00000150: ba03 72bd a194 8c3e 6721 d3bc 3043 19be
00000160: 8742 25bd 9df7 f33d b3f5 de3c 5c9e aa3e
00000170: 973e 15be 6e15 683b e934 d2ba c7b1 2fbe
00000180: 8a6a 763e f463 3a3e d5b3 dcbd c606 3b3e
00000190: fa80 1ebe 666d e33e c4c2 303c 5342 673e
000001a0: bfc6 31be 262f 98a0 213b 2234 bd34 993e
000001b0: 5ffd d33e 365b ecbc 3977 853d 72e7 69bc
000001c0: 43dd ab3e 2edb a33e 6b37 9e3d 5311 eebd
000001d0: 9b33 8dbe 2de1 193e 05ff 393d eaf8 203d
000001e0: 2eba 1dbe f501 723c c69a 793d 3ff0 c23e
000001f0: fa90 22be 2728 883e 79d5 67be 5500 1ebe
00000200: ca53 f3bd 1ee7 a23e 12ce 8d3e 747c b53d
00000210: 5a74 25bf 35ae 1dbf bfae 6d3d 722b 643e
00000220: 86a9 913e cfed 1e34 cc2d a3a3 4aca 103d
00000230: 94dc d3be ea9e 85be f69e 22be 2a6e 0ebe
00000240: b2b3 51bf f581 b2bd d9ba 233e 48d1 1abf
00000250: 1ec0 863d 9942 0bbe 9ec1 a7bd bd7e 2dbf
00000260: 0a60 2cbf 08aa afbd 56b0 653b e02a dcbe
00000270: 6cd7 263e 3870 5bbd 1c2b ffbe 1152 32bf
00000280: 2701 2f3e efc2 3ebd 9d9b 1b3c b098 c43e
00000290: 638a 3bbd 7696 353e df2e b03d cfd4 26bd
000002a0: d9d9 113d 7305 1036 9f58 0e1e a315 bb3e
000002b0: 6da6 183e 19f5 8fbe c68d 153c 276c 40be
000002c0: 963c db3e 92e8 073f 67b5 2a3e 4f13 2bbe
000002d0: b3af 88be 2798 8c3e 29da 8a3d 8584 8cbe
000002e0: 6396 57be 31e3 13be 4f4e dbbc 664b af3e
000002f0: d866 fcbd 9682 17bc ee31 f4bb 0962 c7bd
00000300: b69b c03e 86a0 203e 2160 f3bd 9950 043d
00000310: b48f 013e fa57 413e ab0d cb3c 6ea1 cf3c
00000320: 8148 20be da7f 069e 19c9 1da0 c2f4 de3d
00000330: 3463 e43e 8cd9 87bd 4f7c 6eba 0337 b6bd
00000340: a84a 843e 4425 bf3e 05f1 13bd 6740 023f
00000350: 53fb bbbd 7be8 b53e 2977 253e 4e81 d53e
00000360: cf83 643e 76b2 2d3e 116d 8f3e bf11 c53e
00000370: 80fa 953d 5b9f 4e3e f054 e73e 1d1b ed3e
00000380: 88b6 81bc e3ae 2cbd 97db a93d 1bc6 973e
00000390: 341d 9ca9 ba12 9f3a 0d97 7fbe 85f9 dcbd
000003a0: c6ff 80be 8da4 169e ad83 b52d 4c18 863e
000003b0: 3888 bd3d bd90 0cbe 91ec 4a3e 9455 b7ba
000003c0: a7d8 f51d 69bb 963e 7838 0abe 2ca9 e69c
000003d0: 9112 09be 4b4a 573e c713 36bd 1d52 30b5
000003e0: f92e 44b3 6543 95bd 386a 2e3e 4d5f 1d3e
000003f0: f3cc 6fbe 80f4 8c3d b9d6 8e1f 7a33 7624
1.2291159e-06 -1.1792229e-19 -7.534368e-08 -3.98939e-06 5.8250316e-15 3.5595356e-20 -1.0173482e-06 -4.317344e-08
-1.0198379e-07 -4.2677112e-11 -1.8516585e-07 -4.1752954e-17 -3.2246676e-06 -2.241698e-05 -2.3944205e-05 -0.0001155467
5.038917e-20 -1.8502163e-06 -3.1542902e-12 -6.6991154e-15 -2.3999496e-06 -4.7780236e-07 -7.794895e-06 -7.7157676e-16
2.649661e-14 -6.861523e-06 -3.8149315e-21 -2.6518433e-11 -9.107217e-07 -8.232655e-05 3.1740965e-13 -2.0441092e-08
0.40868437 0.18449558 0.15545598 0.44674382 -0.27899423 0.2750618 0.017329384 0.21373147
-0.059126068 -6.772236e-06 -4.9142936e-20 0.39283833 0.17595194 -0.3008919 0.22345161 -0.07345473
-0.18329756 0.45783538 0.1876486 -0.282585 0.119318835 0.25292465 0.078351006 -0.16873524
-0.31796584 -0.18063247 0.17452402 0.14735402 0.14559007 0.21140777 -0.072498314 -0.32550856
0.17527652 0.002363888 -0.06599954 0.09400929 -0.022394545 0.11904699 -0.16903827 0.12569854
-0.042923044 -2.1070386e-17 -8.080554e-19 0.26212725 0.27391395 -0.039033175 -0.019281179 -0.11464985
0.06588258 0.33265236 0.059747003 -0.1410108 -0.059085585 0.27457145 -0.025772763 -0.14967036
-0.04034665 0.11912463 0.027216768 0.33323944 -0.14574657 0.0035413164 -0.0016037497 -0.1715766
0.24064079 0.18202192 -0.10776488 0.18264303 -0.15478888 0.44419402 0.010788623 0.22583894
-0.17360972 -2.5781002e-19 1.5108937e-07 0.2992305 0.41404244 -0.028852087 0.065168805 -0.014276372
0.33567247 0.32003158 0.07725414 -0.11624398 -0.27578434 0.15027304 0.04540922 0.039299883
-0.15403053 0.014770974 0.06093862 0.38073918 -0.15875617 0.26593134 -0.22640027 -0.15429814
-0.11881216 0.31816953 0.27696282 0.08861628 -0.64630663 -0.61593944 0.05802798 0.22282198
0.2844965 1.4801411e-07 -1.7691891e-17 0.035349168 -0.41379225 -0.26097804 -0.15880951 -0.13909212
-0.8191482 -0.087161936 0.15989245 -0.6047559 0.06579612 -0.13599624 -0.081912264 -0.6777151
-0.67334044 -0.08577353 0.0035047731 -0.4300146 0.16293114 -0.053573817 -0.49837577 -0.69656473
0.17090283 -0.046572622 0.00949755 0.3839774 -0.045786273 0.17733178 0.0860269 -0.040730294
0.035608146 2.1460844e-06 7.535744e-21 0.36539945 0.14907236 -0.28116682 0.00912804 -0.18791257
0.4281966 0.5308925 0.16670762 -0.16706584 -0.26696548 0.27459833 0.06779892 -0.27444854
-0.21053462 -0.14442135 -0.026770739 0.34237212 -0.123243034 -0.009247443 -0.007452241 -0.097354956
0.37618798 0.15686235 -0.118835695 0.032303426 0.12652475 0.18881217 0.02478679 0.02534553
-0.15652658 -7.12034e-21 -1.3364955e-19 0.108865276 0.44606936 -0.06633291 -0.0009097503 -0.088972114
0.25838208 0.3733312 -0.036118526 0.5087952 -0.09178796 0.3552893 0.16158737 0.41700214
0.22315906 0.16962609 0.280129 0.38490102 0.0732317 0.20177977 0.4518199 0.46309748
-0.015834108 -0.042158972 0.082938366 0.2964333 -6.9328576e-14 0.0012136318 -0.24959965 -0.107897796
-0.2519514 -7.974962e-21 2.0635793e-11 0.26190412 0.09254497 -0.13727088 0.19816805 -0.0013987296
6.5074973e-21 0.29439858 -0.13498104 -1.5263853e-21 -0.13385989 0.21024434 -0.044452455 -6.56846e-07
-4.5677528e-08 -0.07288245 0.17032707 0.15368386 -0.23418026 0.06882572 6.049457e-20 5.338635e-17

2.bias f4 [32]
00000000: 9e53 f6b8 4d4e 18be 93af afbd 2085 50be
00000010: 2fa5 913e ed67 86be 328e 723c 7c90 ec3d
00000020: 610d 2dbc 06ed 093e 8d8e bebd 0a84 e53d
00000030: 2c7d a4bd a561 6cbe dacd c63d 8f55 c0bd
00000040: 22ef 47bd 1422 503e a0f3 1ebe a73d 06bd
00000050: 35db c53d 93f2 91bd 3c18 143d 3b93 42be
00000060: 2a92 4a3c 44fc 173d 811f 11be db2b 17be
00000070: c036 053e a870 b83d 51ee 1cbe 86cb 133e
-0.00011745769 -0.1487362 -0.0857841 -0.20363283 0.28446338 -0.26251164 0.01480441 0.11550996
-0.010562272 0.13469324 -0.09304533 0.11206825 -0.08031687 -0.23084123 0.09707232 -0.09391319
-0.04881204 0.203255 -0.15522623 -0.03277364 0.09660951 -0.071263455 0.036155924 -0.19001476
0.01236395 0.037105814 -0.14172174 -0.14762823 0.13009167 0.090058625 -0.15325285 0.14433107

4.weight f4 [32, 32]
00000000: 3904 af2a d7f1 58bd e489 0b3d fb2b 043f
00000010: 7d83 473d 2775 aa3e 4aa2 77bd cb16 8e3e
00000020: a936 fa3d 1134 193e a8d9 96be c33c a13d
00000030: 05b0 4dbe 292b 36be a281 a3bd db9c a6bb
00000040: 396b fbbd a894 6b3d d2b5 963e 74a1 3a3d
00000050: 406b 56be aa5e 5d3e f7dc 813e ff43 b83e
00000060: a023 033e b57e a03d 0c90 113f 4791 c6be
00000070: 63de 4e3d 4778 c23d adc9 30be 38ed 4abd
00000080: 3264 e0aa 8e5e 27be c302 233e 7f9e 003f
00000090: 1fba d2bd 16b3 bc3e 2a29 063b 8eef 8a3e
000000a0: aa69 853e 484d 82bd 1b8f bfbe 0b31 7abe
000000b0: b252 4cbe 79d0 e4be 68a5 a13b f4b1 c0bc
000000c0: 50cc d0bd 7c29 473d 3d43 9a3e 4738 723e
000000d0: a064 8bbe 392d 173e 28b6 0e3e 4902 9a3e
000000e0: fda7 093e c6b0 c63d c54f 203f cc44 d5be
000000f0: 5b1a 033e 7b28 533e b991 f7bd 15c4 6e3e
00000100: 2070 6731 3a20 31ba cc0a 203d 94e3 2fb9
00000110: bdac 47b8 810d d53b d5e0 753c b7bf fdb8
00000120: a2a1 e23c 2ba8 31b9 aaa5 9134 4565 db3c
00000130: 728c 5238 0bb8 deb4 d785 953c f3a6 299d
00000140: e6ed 073c 5e3f 983c 98fe b03c 220c 48bc
00000150: 649e 151f 8ade 683b b796 203a c8d5 3533
00000160: d0bf 54bd f2ae ffbb 39cd dd9e 1208 6a1f
00000170: 222e 953c 9855 523a 0d4c cbb5 f913 b8bb
00000180: 70c9 9daa 6486 7bbd cc6c cd3d ea17 923e
00000190: 8126 15be 2f01 373e a2ce eb3b a81d 8c3e
000001a0: 60ca 7b3d ab50 393e 5e8b a2be ebe1 5fbe
000001b0: 7720 17bd adc6 35be 097b d0bd 7bf0 eebd
000001c0: 599c 353e 8b0b 6d3e 5950 433e fd77 313e
000001d0: 7c82 4ebe be8a cf3c 96ad a53d 2823 9d3e
000001e0: cd01 37bd 5d7a 763d b111 8a3e f6f1 babe
000001f0: cc74 403e c737 1e3e 768b b3bb b83e fe3d
00000200: fe6e e0b1 1533 5cbd a7c4 0fbe ffb8 0b3e
00000210: a840 603d dfd7 2e3d 1520 673e 202f 99be
00000220: 24fc b3bd 60fd 72be c56a e23e bd28 763e
00000230: 1cc7 9e3e 98d0 a33e f33a 733e c325 023e
00000240: 6457 6bbe 4c3f 9abe 9d8a 82be da49 f6bd
00000250: 9b3b a93d 0e71 053b e46e 3bbb ddcf 11be
00000260: b114 d03a 5685 d4bc 2cb5 a7be abee cf3e
00000270: 5a0a 903e e1b3 22be bcfb 483e 953a 663e
00000280: 2bce 6b9f b1dd 17be 426d 073e 0794 acbd
00000290: 7c1c 513e eb11 afbd 8541 54be 717f 323d
000002a0: 6e5c e5bd caa5 a9bd 1e81 b9be 9e3d 76bd
000002b0: 63dd 12be de7b 85bd b7bd 5bbd 0160 f23d
000002c0: d6d3 d4be 6867 123e f2f8 c7bd 99a2 e2bd
000002d0: 0f26 ac3e 1806 b0be b4a2 a0be 85d3 0f3c
000002e0: 721f 243e 289a e93c a367 6cbc 926d 04be
000002f0: 109c 813e 364a 49bd 1557 8dbe 0b25 cb3d
00000300: b1b3 712a 8c47 913d 3e78 4ebe 1631 393e
00000310: c458 d4bc 09bb 80bd fca0 1c3e 6bf8 52be
00000320: 3e2c 0fbd 858a a6be 965d dd3e cf87 1b3e
00000330: c60e 963d 9caa 063f 18da 343e db8b 5dbc
00000340: 30d6 543c ad93 e0bd 4dca 8dbe 677a 1abe
00000350: 6fba 5d3e 241a 303e e331 9cbd f29d 2ebe
00000360: c7cd 883e e16a 2e3d 46f9 a0be 51d3 f03e
00000370: 6123 673e f480 91be 283a 6b3e e13a 153e
00000380: caa6 ad36 a7dc e61a b474 0432 6a21 d0a7
00000390: ba1c 5830 476a dbb6 a93b ab33 1a28 62b4
000003a0: 98fa 4935 3714 711d a5e4 18b5 4dc1 871f
000003b0: 38ec 071f c62a 53b5 3aa5 0aa0 1d56 031e
000003c0: 3ebf 6932 0028 919f 11b6 8b26 fa65 621e
000003d0: d4f3 231d 7005 509b 111d 51ac bd97 e0b3
000003e0: 2f0f 9e1f 6b8f f3b5 8f64 2222 a2f6 2d9d
000003f0: d947 89ac db58 83a0 dd93 d09e db67 0f1e
3.1089175e-13 -0.05296501 0.03406705 0.5162961 0.04870938 0.33292505 -0.060457505 0.27751765
0.12217457 0.14961268 -0.29462934 0.078729175 -0.20086677 -0.17789902 -0.0798371 -0.0050846166
-0.122763105 0.057514817 0.29435593 0.04556413 -0.2093935 0.21618143 0.25363895 0.35989377
0.12806559 0.078366674 0.56860423 -0.38782713 0.050505053 0.09495597 -0.17264433 -0.049542636
-3.9859918e-13 -0.16344664 0.15919022 0.50241846 -0.10289406 0.36855382 0.0020471313 0.2713589
0.26057178 -0.063623965 -0.37413868 -0.24432771 -0.19953421 -0.44690302 0.004933048 -0.023522355
-0.101952195 0.048623547 0.30129424 0.2365428 -0.27225208 0.14763345 0.13936675 0.30079868
0.13442989 0.097016856 0.6262172 -0.4165405 0.12803023 0.20620911 -0.12088341 0.23316987
3.367866e-09 -0.00067568163 0.039072797 -0.0001677408 -4.7606172e-05 0.006501854 0.015007217 -0.0001209969
0.027664963 -0.00016942683 2.712889e-07 0.026781688 5.01987e-05 -4.148463e-07 0.018252296 -2.2453274e-21
0.0082964655 0.018584903 0.021605775 -0.012209924 3.1682995e-20 0.0035533034 0.0006125974 4.233678e-08
-0.05194074 -0.0078028375 -2.3484163e-20 4.9558103e-20 0.018210474 0.0008023619 -1.5146812e-06 -0.0056176153
-2.8028578e-13 -0.06140746 0.10030517 0.2853387 -0.1456547 0.17871545 0.0071962634 0.27366376
0.061472297 0.18097179 -0.31746954 -0.21863525 -0.036896195 -0.1775157 -0.10179717 -0.11666962
0.17735423 0.23148935 0.19073619 0.17330928 -0.20166963 0.025334712 0.080897495 0.30690885
-0.04467945 0.06017529 0.26966622 -0.36512727 0.18794554 0.15450965 -0.0054792715 0.124143064
-6.5318764e-09 -0.053759653 -0.1403986 0.13644789 0.05474916 0.04268634 0.22570832 -0.29918766
-0.087883264 -0.23729467 0.44222084 0.24038978 0.31011283 0.31995082 0.23752956 0.12709717
-0.22982556 -0.30126417 -0.2549638 -0.12025805 0.08263322 0.0020361575 -0.0028600032 -0.1423945
0.0015875307 -0.025942486 -0.3275541 0.40611777 0.28132898 -0.15888931 0.19627279 0.22483285
-4.9933724e-20 -0.14830662 0.13225272 -0.084266715 0.20421022 -0.085483395 -0.20728119 0.04357857
-0.1119927 -0.08283575 -0.3623132 -0.060117356 -0.14342265 -0.065177664 -0.053647723 0.118347175
-0.41567868 0.14297259 -0.097642794 -0.11066169 0.33622786 -0.3437965 -0.31374133 0.0087784575
0.1602762 0.02851589 -0.014429006 -0.12932423 0.2531438 -0.04914304 -0.276055 0.09919175
2.1467443e-13 0.070937246 -0.20163056 0.18085131 -0.025921233 -0.06285674 0.15295786 -0.20602576
-0.034954302 -0.32527557 0.43235463 0.15188526 0.073270366 0.5260408 0.17661321 -0.013522114
0.012990519 -0.10965667 -0.27693406 -0.15085755 0.2165315 0.17197472 -0.07626703 -0.17052439
0.26719496 0.042582396 -0.3144018 0.47036222 0.2257209 -0.28418696 0.22971404 0.14573242
5.1752186e-06 9.5482254e-23 7.7099465e-09 -5.7767825e-15 7.8621165e-10 -6.539081e-06 7.97366e-08 -2.1062479e-07
7.5242997e-07 3.1906535e-21 -5.6957134e-07 5.7494513e-20 2.8782758e-20 -7.866587e-07 -1.1743724e-19 6.95289e-21
1.3605868e-08 -6.147606e-20 9.694412e-16 1.1985429e-20 2.1698927e-21 -1.7207114e-22 -2.9716821e-12 -1.0458414e-07
6.694072e-20 -1.8146651e-06 2.200833e-18 -2.3023866e-21 -3.901751e-12 -2.2251063e-19 -2.2084011e-20 7.591834e-21

4.bias f4 [32]
00000000: 77ae 193e 52bc d03d 2ab3 89bd 8b6a 223e
00000010: 3c09 79bd 67a9 d13d 14d1 64bd 6619 32b6
00000020: b8bd dc3c 2256 193d 40b5 e7bb a518 233e
00000030: d043 84bd 563b 78b6 d379 cfbd afff 4abd
00000040: a65e f8bc 5f15 91bd c6a8 f73c 5f58 f0b4
00000050: decc e4bb 1f7c 30bd c462 483d e285 203e
00000060: b6ef b83d 31ae 9aa3 f741 94b3 8cd1 a2bd
00000070: ceb3 07bd 2ac6 e73c ac7f f0bc 2284 1e3e
0.1500796 0.10192169 -0.06723626 0.15860955 -0.060799822 0.10237389 -0.055863455 -2.653885e-06
0.026945934 0.03743566 -0.007071167 0.1592737 -0.06458247 -3.6989418e-06 -0.10130658 -0.049560245
-0.03031857 -0.07084154 0.030231845 -4.4767782e-07 -0.00698243 -0.04308712 0.048922315 0.15676072
0.09030096 -1.6770486e-17 -6.903786e-08 -0.07950124 -0.03313046 0.028292734 -0.029357754 0.15480092

6.weight f4 [2, 32]
00000000: d4bf 603e 842c 2f3e 0974 8e3c c043 2d3e
00000010: 8d74 70be 9ed5 0a3f 9717 d5be 86c1 6922
00000020: 4b6c a1be a316 03bf 119d bcb8 ae72 833e
00000030: d707 243f a4e7 4c1f 9ad0 d2be 6883 8dbe
00000040: 0e3e 1c3f b8cd 6f3e 575d 07be b3c1 5734
00000050: 3806 053f 2edf c5be ec05 96be 12bd ebbe
00000060: 2636 88be e192 e5b2 186a f39e 2997 1cbf
00000070: 7203 253f b9d8 aabe 9edb cebe 91e8 cdbe
00000080: c9ca 12be a164 81be 5b27 f53c 6342 7cbe
00000090: 23ec 913e 9f4e 0dbf 7b65 3e3e 5a97 8a23
000000a0: d994 933e 8f38 b53e ec3c 89b9 1403 8bbe
000000b0: f409 1fbf ad88 ddb5 8c0d d63e f493 a83e
000000c0: 34ff 1cbf 39d8 a3be 679c f33d ee0f e1b2
000000d0: 5d14 06bf bc7d 773e 0a44 e63e c4d4 983e
000000e0: e28b a63e fb41 7b20 b7a3 571f c28d a23e
000000f0: cf7c 10bf 2849 233f 21f1 8e3e a747 b23e
0.21948177 0.17106825 0.017389314 0.16920376 -0.2348196 0.54232204 -0.4161956 3.1679839e-18
-0.31527933 -0.51206416 -8.9937945e-05 0.2567343 0.6407446 4.339029e-20 -0.41174775 -0.27639318
0.6103219 0.23418319 -0.132192 2.0093903e-07 0.51962614 -0.38646835 -0.29301393 -0.46042687
-0.26603812 -2.6725901e-08 -2.5772505e-20 -0.6116815 0.6445838 -0.3336847 -0.4040193 -0.40216497
-0.14335169 -0.25272086 0.029925993 -0.246347 0.2850047 -0.5519809 0.18593399 1.502609e-17
0.288245 0.35394713 -0.00026176067 -0.27150786 -0.6212456 -1.6505561e-06 0.4180721 0.3292538
-0.6132691 -0.32000902 0.11895066 -2.6200691e-08 -0.5237482 0.24169058 0.44973785 0.29849827
0.32528597 2.1282358e-19 4.5663443e-20 0.31748778 -0.5644044 0.637835 0.27918342 0.3482029

6.bias f4 [2]
00000000: 7d84 313e 9aaf 703d
0.17335697 0.058761217

exp_avg f4 [32, 2]
00000000: c766 843a d969 20bc ceb8 af3b 4bc6 b5ba
00000010: a67a c83a b989 503b 8b4b 7cbb d00a ae3b
00000020: b1b3 4b3c a7bb 96bb 1a1a 63bb 6d76 acbb
00000030: 82e3 5f3b b46b 1a3b efb0 2ebb c7eb cdb8
00000040: 759a 34ba 69c3 a23b 9212 73b5 8475 aa30
00000050: 8d09 5fb5 a235 1d1c 7a21 13bc 9392 bd3b
00000060: 762a 6dbc 449f 073b 6130 5c3b 4315 28ba
00000070: 92a8 5d39 e3b5 2fba 8092 4739 7184 8f3b
00000080: 5e3e 663b ed3f 72bb dee9 87bc e3c9 b1bb
00000090: 9b9c 233a 225f f538 6f3f 953c 6ea9 95bb
000000a0: 49fe 633c 26a0 55b9 31ed eaba 2801 fbbb
000000b0: 9d50 51b8 33da b439 c7eb 893c 27c5 04bc
000000c0: 3d3c 543c 5e4c 03bc ccbb 9cbb 0d55 25ba
000000d0: e7a1 54bb c731 913a a4f5 babb bdff 2dbc
000000e0: 2b38 6d3a ed8e c23b fd5e c9bb f96a c33b
000000f0: 4343 613b 78a7 6ebc 8138 893c 9155 08bc
0.0010101431 -0.009790861 0.0053626066 -0.00138683 0.0015295341 0.003182037 -0.0038497176 0.0053113475
0.0124329785 -0.0046000066 -0.003465301 -0.005263141 0.0034162705 0.0023562731 -0.0026655754 -9.819079e-05
-0.0006889471 0.0049671424 -9.055158e-07 1.2402528e-09 -8.308787e-07 5.201626e-22 -0.008980149 0.0057852953
-0.0144754555 0.0020694295 0.0033598172 -0.00064118596 0.00021139 -0.00067028234 0.00019032694 0.004379802
0.0035132389 -0.0036964372 -0.016591009 -0.005425678 0.00062412926 0.0001170023 0.018218724 -0.0045673167
0.013915607 -0.00020372923 -0.0017923472 -0.00766005 -4.990456e-05 0.00034494846 0.01683606 -0.008103645
0.012953815 -0.008013813 -0.0047831293 -0.0006306924 -0.0032445134 0.0011077457 -0.005705552 -0.010620055
0.0009049202 0.0059374482 -0.0061453567 0.00596368 0.0034372366 -0.014566295 0.016750576 -0.008321182

exp_avg_sq f4 [32, 2]
00000000: 937e 4f39 536a 1a3a 200e 3939 452b 6e38
00000010: 1d78 4f3a 45ad 273a c2a6 483b 5825 8f3a
00000020: abd5 373b e774 763a effe 573a bbde 853a
00000030: 11b0 203a b1ed 8739 3da5 d137 5f34 e638
00000040: 130a f739 faa0 be39 c596 a52e 37fa 432d
00000050: ffbb 9e2e 0e7a 8d2b ba6a 943b 585e ea3a
00000060: 515a 2f3b ec91 ce3a 1056 9138 5b20 6b38
00000070: fc5e 8039 0989 2739 0bc2 bc38 8c96 8538
00000080: 25a9 033b 254e b439 ff88 c63b bb27 463b
00000090: 669d b639 493c 2639 b65e 4d3b b802 d63a
000000a0: f1e0 003b 0333 b53a 6d97 1f3a 5c49 e93a
000000b0: da4c fa38 3c3a 9e38 dce2 823b b5f5 c739
000000c0: 6b93 273b 6d33 8c3a b6f6 f139 d507 9c39
000000d0: 37bb 9d39 e834 2239 0fdc 553a b1e7 733b
000000e0: adb0 0a3a 661e e739 7867 0839 dbd4 5238
000000f0: 8389 633a 0bb7 9c3b 63c8 6e3b 062e cc3a
0.00019788211 0.00058904773 0.00017648237 5.678392e-05 0.00079143216 0.00063963636 0.0030616974 0.0010921163
0.002805094 0.0009401575 0.0008239587 0.0010213474 0.00061297516 0.000259263 2.4991687e-05 0.000109770095
0.00047119017 0.0003635956 7.530113e-11 1.11400255e-11 7.218403e-11 1.005253e-12 0.0045293244 0.00178809
0.0026756714 0.0015760041 6.930169e-05 5.60585e-05 0.0002448483 0.0001597741 9.000682e-05 6.369976e-05
0.0020089832 0.00034390498 0.0060588117 0.0030236084 0.00034831016 0.00015853452 0.003133697 0.0016327715
0.0019665326 0.0013824407 0.0006087933 0.0017798352 0.00011935244 7.544874e-05 0.003994329 0.00038139304
0.0025570046 0.0010696478 0.00046150916 0.00029760474 0.0003008486 0.00015469233 0.00081580965 0.0037216956
0.0005290609 0.00044082402 0.00013008516 5.026614e-05 0.00086798536 0.0047825626 0.0036435358 0.0015577681

exp_avg f4 [32]
00000000: 3a03 7c3b 6784 24ba 18a7 75bc 428f b63b
00000010: c1bb 3a3c 9a38 cfbb dbbe 1cbc 50da 63bb
00000020: cfde 47bc 2dca 48b7 55ef a9b7 6c7d 113c
00000030: 9ea2 a43c 1563 1bbc f2c6 f23b cbec d9bb
00000040: e761 283c 5d16 de3a 5b3a ce39 292e 833c
00000050: 4a62 8abb 7ff2 c33b e834 883b 5dcb 7e3c
00000060: d7c7 8d3c f834 0f3c 3671 8c3b 3187 e5bb
00000070: 63cb 5ebc c6a3 c7bb 4609 bf3c 4ecc a93c
0.0038454072 -0.0006275833 -0.014993452 0.005571277 0.011397303 -0.006323886 -0.009566988 -0.0034767576
-0.012199118 -1.1968002e-05 -2.0257818e-05 0.008880001 0.020097073 -0.009484072 0.00740897 -0.0066505424
0.010277248 0.0016943921 0.0003933486 0.016013222 -0.0042231428 0.0059798355 0.0041566975 0.015551415
0.017307205 0.008740656 0.0042859567 -0.0070046415 -0.013598296 -0.0060925214 0.023319852 0.020727303

exp_avg_sq f4 [32]
00000000: 8c2a 693a 8aad 9839 a9d6 bc3a 556c 563b
00000010: 8460 4b3b 76f6 033b cc48 3f3a abe6 3c39
00000020: d95a 6b3a a97b 0230 f3e2 6730 fa6a a53b
00000030: debd 983b 9b51 7639 aebc 043a 239a 9039
00000040: 69c3 163b 6d35 ec3b 00de 343a 5603 8d3b
00000050: f2ee 3b3b f668 283b 733a 4339 1475 523b
00000060: e0a5 4e3b 4811 473a c332 cf39 77a8 a03b
00000070: 20a0 823a ce12 7039 977a c73b 04a7 923b
0.00088945846 0.00029120996 0.0014407235 0.003271838 0.003103287 0.0020135916 0.00072969194 0.00018015008
0.0008978076 4.7469456e-10 8.4359825e-10 0.005048153 0.004661306 0.00023490789 0.0005063516 0.0002758066
0.0023004657 0.0072085173 0.00068995357 0.004303376 0.0028676358 0.0025697327 0.00018618423 0.003211324
0.0031531975 0.00075938227 0.00039519937 0.004902895 0.0009965934 0.00022895189 0.006087612 0.004475476

exp_avg f4 [32, 32]
00000000: e535 202f 2614 9497 9d4c 31ad c562 ffaf
00000010: 9edf be21 98b9 b018 fd74 0baf d170 c4ac
00000020: 28a3 6dad 58ea d8a7 f6e5 c6ad c894 8d9d
00000030: 5d01 d3af 4f87 31b1 81b8 33b1 1977 5cb2
00000040: 35b7 a798 56a9 6faf a1b2 06a6 dff3 f6a2
00000050: 6900 a1af 0acd 7cae d462 7db0 4fe2 06a0
00000060: 59f0 9721 fba8 60b0 2949 9b96 dcfa 87a7
00000070: 2a6d f8ae a940 1eb2 4804 e623 03f8 35ac
00000080: 9f08 f239 cea5 c6b9 3e91 983b fbac b3ba
00000090: 4523 3f3a eedd 8c39 ae32 353b 7b35 b7ba
000000a0: bdb3 5b3b cb0e 57b0 bb7c 1d99 c217 a4ba
000000b0: f4ef 3cba 3d28 ce3a 2924 c7ba 509d 903a
000000c0: 3e31 8d3a 98b3 bdba 86b5 723b 98da 0c3a
000000d0: 602b e53a db3d 8aba 0545 1839 f52e ff39
000000e0: edfd 473a 1b79 f139 762b 333b cd3f b0b8
000000f0: fac2 183b 0537 08bb 4113 6ab8 ad5f 353a
00000100: 797e 79ba 57c1 593a 2ba7 4e3b e74f 933a
00000110: fa78 16b6 c51a 9939 8943 223a a7d7 d238
00000120: fb06 063a a951 921c 0032 6d1c 8cb8 8f3a
00000130: 90e1 573a 6f6a 1b3b 0e79 3bba 6041 1d3a
00000140: f415 e537 d13d 3d3a 0306 9a3a 7324 6eb7
00000150: eb12 aa3a dfc7 95ba d44e 073a 76e0 96b7
00000160: e7b5 87b6 f321 643b 08db 3d3b 5efd d0b9
00000170: c2a1 5c3a 940b f739 222e 35b4 a75c 90b7
00000180: c2c1 23bc fe86 c139 91c8 b5ba fb92 be3a
00000190: 8918 dbba 7ee8 92bb 67a2 28bc 058b 0abc
000001a0: 61f4 3ebc 2c77 da99 b5d2 a22d c50e bc3a
000001b0: 4804 51ba eb98 a83a 36e7 7dbb 6c74 29bc
000001c0: 3bd0 a1bb a17d 113a df81 7fbb bb96 92ba
000001d0: 2025 8bbb fdd4 61bb 05a7 bdbb b7c1 f2ba
000001e0: f6dc c9ba c260 323b 24a2 e63a bdef aeba
000001f0: 7b51 d0bb 4254 1ebc 174d 37b7 ad63 c0ba
00000200: 04c5 4b3b b877 deba 56f2 243b e381 fbba
00000210: 4090 5d3a 2e43 9e3a 6127 353b 5aab 7fba
00000220: 0283 443b c18f 9f2d 705f 129d 95ea d9ba
00000230: 114b b33a 0379 c93a d13f a23a 4942 383b
00000240: ac33 033b ad69 c6ba 8990 d43a 18dc 1c3a
00000250: 0d2a ff3a bd5e 113a 152a 9c3a 21f6 d339
00000260: 932d 763a ad85 443b 6a92 1639 c23e fb39
00000270: 22a2 053b 89d1 bd39 010e 9139 8b0d 653a
00000280: eca2 18bb 85ff 083a 4c06 413a f40a 073a
00000290: 1cab 3639 918d 10ba cf3e 9bba 3614 b1ba
000002a0: 91a4 baba cead 8a2f 994f 7997 ad52 fa39
000002b0: 51e9 6a37 4101 8d3a 2dd6 1639 4b36 6fba
000002c0: c286 0cba a421 8c38 f848 dfb9 a0b8 8638
000002d0: 139b 64b8 fce3 c8ba 487c fdb9 9516 2239
000002e0: 4a80 f638 cc37 973a fd40 bf3a d492 2eba
000002f0: 4802 1fba e573 9bba 31d7 50b5 c0de 0639
00000300: 8d49 0dbb d9bd 50ba 5342 cc3a c897 36ba
00000310: c14d 8fb9 61c1 fbb9 23a4 8939 b64e c0ba
00000320: d2c0 a139 b39d 9c15 75f1 8899 024b 22ba
00000330: 1883 b3ba 3349 733a 7323 90ba 390c 9bb8
00000340: 6bd5 aab9 0a12 68ba bf87 463a e1fe 8fb9
00000350: 3446 f139 1cd7 b6ba a0a0 72b9 9356 4838
00000360: d9e3 bdb9 973b a9b9 da2d 083a 4d0f 8bb9
00000370: d365 ce39 f189 dbba db20 60b9 4ede 98b9
00000380: b45f aeb9 b894 ef3a 11fb 763b 240f 863a
00000390: d951 4ca3 23eb 0934 ac4d 273a 424d 9fb7
000003a0: a047 333a 6147 ae98 419f 5427 952e 833a
000003b0: 7e5e 423a c250 123b d58c 01ba 3b03 b8b8
000003c0: b31a 4097 345b 8d3a a86a ff3a a62f 4f97
000003d0: d549 943a e68f a5b9 7f46 4138 63e7 acae
000003e0: 6ac0 c8ac 9359 733b adee 7c3b 81f2 d036
000003f0: 27ec 723a c0f8 a138 f88f b818 734e 061e
1.4571062e-10 -9.569362e-25 -1.0078297e-11 -4.645441e-10 1.2934092e-18 4.5682335e-24 -1.2683539e-10 -5.58318e-12
-1.3508118e-11 -6.020612e-15 -2.2612117e-11 -3.7476225e-21 -3.8381645e-10 -2.5833804e-09 -2.6152807e-09 -1.2832765e-08
-4.335348e-24 -2.1797084e-10 -4.6732676e-16 -6.6936642e-18 -2.928602e-10 -5.7480277e-11 -9.2181307e-10 -1.1425121e-19
1.0295777e-18 -8.173086e-10 -2.508777e-25 -3.774201e-15 -1.1297126e-10 -9.211512e-09 2.4938463e-17 -2.5859321e-12
0.0004616426 -0.00037889037 0.004655986 -0.0013708168 0.00072913273 0.0002686823 0.0027648616 -0.001397773
0.003352388 -7.8237566e-10 -8.141899e-24 -0.0012519287 -0.00072073867 0.0015728545 -0.0015193272 0.0011033211
0.0010772122 -0.0014473079 0.0037034466 0.0005373149 0.001748424 -0.0010546999 0.00014521561 0.00048672376
0.00076290854 0.00046057333 0.0027339137 -8.404218e-05 0.0023309574 -0.0020784747 -5.580788e-05 0.0006918859
-0.0009517442 0.0008306703 0.0031532745 0.0011239023 -2.242216e-06 0.0002920238 0.0006189873 0.00010053749
0.00051127345 9.682578e-22 7.8481346e-22 0.0010965033 0.00082352106 0.0023714562 -0.00071515224 0.00059988163
2.730915e-05 0.0007218989 0.0011751059 -1.4194392e-05 0.0012975609 -0.0011427364 0.00051615876 -1.7985916e-05
-4.0444897e-06 0.0034810274 0.0028969664 -0.00039861625 0.0008416438 0.00047120138 -1.6873722e-07 -1.7209282e-05
-0.009994926 0.00036912406 -0.0013868978 0.0014539653 -0.0016715686 -0.0044832816 -0.010292626 -0.008455996
-0.011654944 -2.2588805e-23 1.851084e-11 0.0014347663 -0.0007973355 0.0012862956 -0.0038742549 -0.010342699
-0.004938153 0.0005550031 -0.0038987321 -0.0011183837 -0.004246369 -0.0034459226 -0.0057877325 -0.0018520866
-0.0015400934 0.0027218317 0.0017595929 -0.0013346594 -0.0063573695 -0.009663643 -1.0925599e-05 -0.0014678143
0.0031092772 -0.0016972935 0.0025168858 -0.001918849 0.0008451976 0.0012074464 0.002764188 -0.00097530114
0.0029985313 1.8140047e-11 -1.937228e-21 -0.0016625697 0.0013678988 0.0015371147 0.0012378638 0.002811568
0.0020019813 -0.0015137695 0.0016217391 0.0005983724 0.0019467488 0.0005545428 0.0011914397 0.00040428436
0.00093909464 0.0029986904 0.00014359658 0.0004792121 0.0020390828 0.00036205005 0.0002766699 0.0008737675
-0.0023290468 0.00052260637 0.0007363304 0.00051514735 0.00017420616 -0.0005514259 -0.001184428 -0.0013510052
-0.0014239718 2.522555e-10 -8.0556706e-25 0.00047745314 1.400181e-05 0.001075782 0.00014384901 -0.0009125217
-0.00053606567 6.681986e-05 -0.0004258824 6.424007e-05 -5.450386e-05 -0.0015326734 -0.00048348517 0.00015457936
0.0001175409 0.0011537015 0.0014591512 -0.00066594523 -0.00060657086 -0.0011860101 -7.7799183e-07 0.00012862217
-0.0021558732 -0.000796286 0.0015583731 -0.0006965366 -0.00027333017 -0.0004801853 0.00026252968 -0.0014671895
0.00030851975 6.3256704e-26 -1.4159594e-23 -0.00061909866 -0.0013695685 0.0009280622 -0.0010996893 -7.3932526e-05
-0.00032583936 -0.00088527857 0.00075733283 -0.00027464985 0.00046019407 -0.0013949606 -0.00023138756 4.7764344e-05
-0.0003621865 -0.0003227859 0.00051948207 -0.00026523546 0.00039367247 -0.0016749484 -0.00021374544 -0.0002915733
-0.0003325917 0.0018278575 0.0037686268 0.0010227901 -1.1076194e-17 1.2844662e-07 0.00063821184 -1.8990253e-05
0.0006838981 -4.505002e-24 2.9507242e-15 0.0010008389 0.0007414593 0.0022325967 -0.0004941945 -8.7744054e-05
-6.2072245e-25 0.0010784627 0.0019486742 -6.694545e-25 0.0011313508 -0.00031578465 4.608044e-05 -7.862757e-11
-5.705704e-12 0.0037132248 0.003859441 6.227114e-06 0.0009266757 7.7234115e-05 4.7708257e-24 7.110124e-21

exp_avg_sq f4 [32, 32]
00000000: 3836 0c2d 2866 cd2a 5e73 872c 6e7a 262d
00000010: ac04 032c f8eb 232a 98a8 c02c 1458 9d2c
00000020: d70c 8d2c 85ec 612c ea36 dd2c e60b e82b
00000030: 015d 072d c130 3a2d 03e8 ce2d 8e5f 992d
00000040: 5888 9b2a 777b 142d ab0f 482c b314 df2a
00000050: 5865 de2c eac4 f72c 4558 0f2d fa37 162c
00000060: 66d2 8d28 cb7c 062d 3eb8 8327 4e63 5c2c
00000070: dce5 c62c 4594 882d 84a2 292b 90ae b02c
00000080: 6337 4b38 9205 0e38 bb10 6039 e849 8936
00000090: 1999 8b35 7824 6436 5b0f fb38 bf89 ff37
000000a0: 74f6 2439 e522 352d 2de3 772a a313 9036
000000b0: 1d4f 6736 5899 2638 1a12 6c37 4309 af38
000000c0: c87c 1836 f292 bf36 caaa 0739 7cf3 3335
000000d0: d163 4638 76f2 2737 6b61 d937 9f63 2935
000000e0: 6c6e 8d35 70f5 9338 04de e938 8294 1b35
000000f0: 5b7d 9238 4089 6538 13ad 4834 fa7b 4935
00000100: 1006 bb38 9bd1 0339 d0b1 f739 e5e9 a937
00000110: 7ce6 ca33 4d4d 5e36 ab35 d338 84e7 7737
00000120: f169 2039 2a77 eb2b 1edd b22b 7eda b237
00000130: f4e1 b937 109d c138 4363 1036 1292 7837
00000140: f470 8034 c1b5 df37 b84c 8e39 4739 6631
00000150: c06d 3b38 88ec 0c38 ddb8 8936 7699 f732
00000160: 420a d132 4ce5 8e39 8c2e cc39 d8b5 1936
00000170: fd5a 9d38 f997 b136 1953 8c2e a246 8932
00000180: 0bd3 383a e062 a039 18aa 9f3a c658 2138
00000190: 488c 6037 3a8a a138 1977 833a 3730 b239
000001a0: bdc0 b23a e731 072b 872d d82c ff1d 3638
000001b0: c368 1838 cfa7 0139 12ab 2438 e603 2a3a
000001c0: 89fc 4538 bc9f 5738 a0dc 863a 0e24 9736
000001d0: e1a2 8639 be21 2739 822a 5839 5bfc 3e37
000001e0: 51cd 2d37 9c5b d639 eb38 423a 405b 4d37
000001f0: 4601 083a 57aa ed39 6b88 a831 e189 0537
00000200: 8c82 3e39 8b98 0539 19a7 393a 502a 9637
00000210: 2699 fb34 a2ff 2737 3cf5 f939 ff75 e338
00000220: ef74 1b3a 2aae d72c aaeb c62b af72 a137
00000230: 4baa f937 4834 5239 29b1 0d39 2d6c ff39
00000240: 7460 9136 c352 c537 afd9 d339 859c 8a35
00000250: 76c1 6639 6630 3f38 c108 2839 6b4e 1c34
00000260: cdfc 9035 a694 bf39 c75b cf39 0253 5536
00000270: dd72 8a39 3dd2 af39 b2e8 7d33 ff45 2835
00000280: 0d73 3739 6f59 af38 825a 8c39 ae4c b236
00000290: 5b45 3d34 cf64 1c37 508c 3339 237f 1438
000002a0: f6f1 8639 02b1 172d f490 ed28 1841 ec36
000002b0: 4850 1c31 796d c536 9b8e bc34 d06a 1a38
000002c0: 444a dc35 23ea 3737 72ee 9739 3377 9d32
000002d0: aef3 0038 acde 7a38 1107 2b37 100c 7634
000002e0: ced0 a533 3e46 6c37 3897 0a39 403f 9636
000002f0: 828f cc38 5bd1 8437 0890 bf2e ed84 9333
00000300: ac6b 8237 1990 c636 a036 8638 bccb 0035
00000310: 0a4b 2435 343c c935 8eef 8d38 5ea2 9737
00000320: c7f6 a138 e668 b427 5b41 c52a 3220 0335
00000330: fd89 5f36 745f 0038 a1b6 0238 7c91 c938
00000340: 0861 8135 f617 4b35 2c10 e937 49ec e134
00000350: dba9 1738 c333 0d36 ab2d 0b38 8407 5a34
00000360: 596b 2235 a6b5 1538 ce80 cb37 299f 1134
00000370: 2b52 1138 956f 9738 91b4 9334 bc55 bc34
00000380: db17 0a36 d024 b138 5a38 a839 9ead 9337
00000390: b44e 322c 6814 652e 1d7d a837 d1fb 4b32
000003a0: 063a f637 56f9 1e2a cea0 592c d0cc 9937
000003b0: 6b65 ad37 1965 a438 0ea5 db35 9f5f 0d35
000003c0: 7555 a028 2e7d af37 78ab 0439 0fd0 6228
000003d0: dcb6 e537 75b7 6d35 cdff 2e34 c5fe 002d
000003e0: 9661 be2c 6574 8239 ae2c a639 d38b 6e32
000003f0: eece e037 8f49 9433 5d25 5d2a 4d7b e42b
7.970118e-12 3.64862e-13 3.849739e-12 9.463192e-12 1.8618813e-12 1.4559176e-13 5.475686e-12 4.471987e-12
4.0088865e-12 3.2105718e-12 6.2872945e-12 1.6487894e-12 7.6945126e-12 1.05837014e-11 2.3522522e-11 1.7436521e-11
2.7628138e-13 8.440241e-12 2.8430407e-12 3.962712e-13 6.320871e-12 7.042024e-12 8.148209e-12 2.1347355e-12
1.574539e-14 7.644728e-12 3.655956e-15 3.1319006e-12 5.653018e-12 1.5527255e-11 6.0266397e-13 5.021601e-12
4.8450554e-05 3.3860626e-05 0.00021368537 4.091522e-06 1.0400864e-06 3.3995875e-06 0.00011971473 3.0462512e-05
0.0001573207 1.0296407e-11 2.2016824e-13 4.2938204e-06 3.4467732e-06 3.9720297e-05 1.4070911e-05 8.3463754e-05
2.2722397e-06 5.7093503e-06 0.00012938227 6.703701e-07 4.729984e-05 1.0010428e-05 2.591378e-05 6.3102374e-07
1.0537456e-06 7.0552225e-05 0.000111516594 5.7958107e-07 6.985172e-05 5.472568e-05 1.8689416e-07 7.5058745e-07
8.917984e-05 0.00012571218 0.00047243992 2.0255286e-05 9.448283e-08 3.3125573e-06 0.000100712605 1.4776251e-05
0.00015298255 1.6730829e-12 1.2709033e-12 2.1320997e-05 2.2158936e-05 9.232212e-05 2.151545e-06 1.4815962e-05
2.3924042e-07 2.6668307e-05 0.0002714151 3.3501963e-09 4.4686487e-05 3.3598888e-05 4.104439e-06 2.882437e-08
2.4335467e-08 0.0002725519 0.00038944592 2.2904624e-06 7.503291e-05 5.292703e-06 6.381224e-11 1.598102e-08
0.0007050491 0.00030591246 0.0012181429 3.8468068e-05 1.3384102e-05 7.702825e-05 0.0010030001 0.00033986729
0.0013637763 4.803089e-13 6.144144e-12 4.3420117e-05 3.633719e-05 0.00012364912 3.925997e-05 0.0006485566
4.720365e-05 5.140876e-05 0.001028914 4.504348e-06 0.00025679826 0.00015938931 0.000206152 1.1383639e-05
1.03594075e-05 0.00040885515 0.0007408994 1.2240198e-05 0.0005188178 0.00045331076 4.9049524e-09 7.95952e-06
0.00018168445 0.00012740695 0.00070820894 1.7901097e-05 4.6863823e-07 1.0013495e-05 0.00047675695 0.00010846182
0.0005930205 6.1300036e-12 1.4134156e-12 1.92461e-05 2.9762412e-05 0.00020046637 0.00013512805 0.00048717987
4.3325654e-06 2.3522769e-05 0.00040407243 1.0327354e-06 0.00022006579 4.5583023e-05 0.0001602499 1.455716e-07
1.0802411e-06 0.0003654111 0.00039550496 3.178779e-06 0.0002640699 0.0003353524 5.9117788e-08 6.2686735e-07
0.000174951 8.3613086e-05 0.00026770314 5.31374e-06 1.7627228e-07 9.321796e-06 0.00017123041 3.5404355e-05
0.00025738747 8.62266e-12 2.6375149e-14 7.040926e-06 2.2746622e-09 5.883802e-06 3.5121488e-07 3.6815938e-05
1.6412891e-06 1.0962164e-05 0.0002897862 1.8331411e-08 3.0744523e-05 5.9812024e-05 1.01940395e-05 2.2914924e-07
7.7213926e-08 1.4083051e-05 0.00013217039 4.4777116e-06 9.7542084e-05 1.5833115e-05 8.7112595e-11 6.8694e-08
1.5547346e-05 5.917635e-06 6.3997926e-05 4.798019e-07 6.1203957e-07 1.4993188e-06 6.7680245e-05 1.807621e-05
7.723044e-05 5.0073767e-15 3.503958e-13 4.8848153e-07 3.330991e-06 3.0606476e-05 3.11645e-05 9.6115255e-05
9.639489e-07 7.565826e-07 2.7783295e-05 4.2081436e-07 3.6159396e-05 2.1040767e-06 3.3182714e-05 2.0305566e-07
6.0505914e-07 3.569354e-05 2.4259465e-05 1.356208e-07 3.464722e-05 7.221025e-05 2.7512263e-07 3.508011e-07
2.0577488e-06 8.4468746e-05 0.00032085442 1.7604612e-05 2.533901e-12 5.2086696e-11 2.0085421e-05 1.1873412e-08
2.9352504e-05 1.4119725e-13 3.092682e-12 1.8334395e-05 2.0670434e-05 7.83896e-05 1.6364809e-06 5.266574e-07
1.780063e-14 2.0919917e-05 0.00012652378 1.2590636e-14 2.7384078e-05 8.8556345e-07 1.6298073e-07 7.332528e-12
5.410959e-12 0.00024882253 0.00031695276 1.3885216e-08 2.679924e-05 6.905167e-08 1.9641706e-13 1.6234597e-12

exp_avg f4 [32]
00000000: d95e 60b2 896f ac3b c51f 7c3b 18f3 96bb
00000010: b075 783b bb8a 2a3a 3a7c e23a 40af 883b
00000020: 51d8 653b 8e0a 5fbc 1b19 dc3c 3f40 133c
00000030: 262c 213c 0307 e23c 5fb9 573a e4ab 1db7
00000040: 6a47 b0b9 4a38 17bc 6b98 8f3b b847 05bc
00000050: 2a43 993b 747c ff39 bda5 dcba f43e 973b
00000060: b501 583b 52f5 42bb 598b 023c 1d58 d33c
00000070: cb7b 50bb ecd0 d2bb 6a4f 12ba 0073 a3ba
-1.3060082e-08 0.0052623195 0.0038471085 -0.0046066158 0.0037911944 0.0006505658 0.0017279454 0.004171282
0.0035071562 -0.013613356 0.02686744 0.008987485 0.009837186 0.027591234 0.00082292216 -9.397951e-06
-0.00033622544 -0.009229729 0.0043821833 -0.008134775 0.004677196 0.00048730115 -0.0016834062 0.004615659
0.0032960002 -0.0029748273 0.007967793 0.025798852 -0.0031812068 -0.006433597 -0.00055812916 -0.0012470186

exp_avg_sq f4 [32]
00000000: 1f8a 962d a949 a339 9992 133a 55c9 de3a
00000010: c3ae 973a adee a639 2dc8 0f39 4127 ca39
00000020: e346 8c39 f4b5 b93a f385 2a3b 0fe9 be39
00000030: 215c f339 3a55 4f3b 76ad 1e39 594e 9a34
00000040: 98ef e838 96b5 4a3a 769f 993a e027 963a
00000050: 1491 103b 6f95 a539 6c27 2b39 b786 bf3a
00000060: 956b b639 3bd4 af38 9f22 3b3b 52ee 5a3b
00000070: a905 a839 d8f1 233a 83ee 8939 ec2f 8138
1.7114364e-11 0.00031144664 0.000562945 0.0016997257 0.0011572469 0.00031839815 0.00013712114 0.0003855769
0.00026755696 0.0014168606 0.0026019781 0.00036413266 0.00046417213 0.0031636492 0.00015132673 2.874174e-07
0.0001110725 0.0007732747 0.0011720497 0.0011455975 0.002205913 0.0003158259 0.00016322517 0.0014612292
0.000347939 8.384181e-05 0.0028554571 0.003340621 0.00032047674 0.0006253994 0.0002630838 6.1601255e-05

exp_avg f4 [32, 32]
00000000: 15fd 3e23 eaba 8d3a eac5 f1b7 be9f b2b9
00000010: f2c3 41ba b055 18b9 b7b3 44ba 9657 e038
00000020: 4542 aab7 e335 d539 6033 61b7 1ddd e736
00000030: 1737 ddb7 933b 4bb7 62d2 55ba 924a 09b5
00000040: 26a7 373a 0823 8eba 08f3 7ab8 fd68 f239
00000050: 91a0 acb9 c977 30b8 7d51 5cb9 c230 94b8
00000060: aae1 caba 3aeb 8339 a597 73b8 58e6 45b8
00000070: 56d1 1eba cba4 b6b9 45a7 13ba 8f87 12bb
00000080: 5f9f 11a4 c2b8 a33a a104 b5b7 2b95 d5b9
00000090: c583 66ba a4b9 33b9 a2c5 63ba 38f1 fa38
000000a0: 824c 45b7 5bda ea39 99a8 9eb7 cbe0 d7b7
000000b0: eac0 e5b7 f561 20b8 3cea 76ba f955 20b6
000000c0: 273e 573a 504f a6ba 8000 9bb8 f475 113a
000000d0: 2652 cbb9 7d85 79b8 2ee8 8ab9 0e9a c5b8
000000e0: d302 edba 1b23 9839 9e75 95b8 1767 58b8
000000f0: 6e54 37ba 5c0c d1b9 3085 2aba 0f23 29bb
00000100: 5f6a f72a b05a 96b3 f61f 8436 cb36 9db2
00000110: 3163 b7b1 cfdc 3135 81e9 cb35 1944 65b2
00000120: 5603 3c36 b24c a0b2 7fd2 102e 2b0b 3836
00000130: b322 bd31 159f 5bae 117d f935 06c7 0098
00000140: 53c1 6235 de34 fc35 9b67 1436 2c99 a8b5
00000150: c625 ae18 b816 c534 8e1d 8533 064d ba2c
00000160: 6c0e b0b6 0bad 54b5 dd67 d197 7010 4b17
00000170: 4d82 fa35 f136 af33 ebcc 44af ed81 1ab5
00000180: 5f1e a4a4 4773 a23a e1e1 e1b7 5dbe dcb9
00000190: 4867 63ba a1d9 43b9 4c44 5fba 6cac f738
000001a0: f5a6 02b8 d823 f539 72f6 5cb7 9150 bfb7
000001b0: 7371 33b7 63ec 37b7 552f 75ba d831 44b7
000001c0: 47ca 5a3a c8ab a0ba c596 aeb8 593d 0e3a
000001d0: 0eda c3b9 fad5 93b8 3173 88b9 8106 c0b8
000001e0: faf0 eaba f60a 9639 ded2 dbb8 6993 40b8
000001f0: 7ba5 32ba 18b9 ceb9 4eea 23ba 05b0 26bb
00000200: dbdd 75ab 2773 483a d82e 1139 8a1f 3b39
00000210: de24 65b8 a59f c036 8dd9 803a c48e 0739
00000220: 0393 1739 c3f1 373a 8c29 7b37 9c17 7a37
00000230: f81d 1b38 450f b437 1d63 0b3a 3914 5637
00000240: 82f0 5838 7a7b 413a fce9 0839 fe44 753a
00000250: 4e8d 00b8 0388 edb2 49f8 003b f9ab b438
00000260: 86ae 623a ec17 a23a c295 4f39 41ad 5138
00000270: 2955 0d39 5817 473a f2f8 743a 3c9d b13a
00000280: 655d 3b18 8877 863b 0b3f a839 3e13 f837
00000290: 9a40 dcbb e9a5 4c38 55df 1c3b 35c1 8a39
000002a0: 8e63 9439 4423 6c3a 6f99 9c39 400a 5c39
000002b0: 185d dfb6 3194 ddb6 d9fc 9e39 01d4 4637
000002c0: 9271 283b 8851 2bbb f918 9a39 691f 073b
000002d0: 83b7 6abb 1645 9439 173a 9f3b d548 7e39
000002e0: f755 caba 103f 8439 5b88 f339 50b5 6637
000002f0: 6f62 b5ba 5e19 89b9 bb82 1f3b b9d2 0ebb
00000300: 4a74 17a4 ac06 f4b9 847f a5b7 5471 a439
00000310: e39d 90b9 14de 5a39 0fda d0b8 06d2 61b9
00000320: 778e 4bb7 935f bc3a 9391 5637 ff9b ad36
00000330: 9343 8237 9264 3538 b2ea 433a f3d1 b6b5
00000340: 0132 b8ba 6057 843a 64b8 9138 a95b 5f3a
00000350: 6474 2538 59d7 9c38 633d d53a 7bc3 56b8
00000360: 722e 133a 29f1 0f3b 5d4e 8938 285c 7e38
00000370: 40b8 34ba 5d3d 083a 8f98 b03a 4e7d 4f3a
00000380: fe00 2530 1704 ca92 629d 8b2b d693 93a1
00000390: 5bf4 ec29 16c3 4fb0 0ea3 2d2d 06c8 e1ad
000003a0: 8ba5 c52e a5cf 8615 9643 96ae 237c 9817
000003b0: a926 9017 bf7e ceae 1c94 199a 4e88 2017
000003c0: 3409 f42b 904a 4618 308a 4420 184c 3417
000003d0: faf2 8215 e3cc 2118 cd16 fea5 c2bf 62ad
000003e0: cba5 7b19 4b20 6baf e482 131c f19b 1016
000003f0: 32f1 25a6 1175 4a1a 1a56 b697 4fba 0f97
1.0353513e-17 0.0010813151 -2.88216e-05 -0.00034069823 -0.0007391564 -0.0001452777 -0.0007503586 0.000106974665
-2.0296438e-05 0.00040666675 -1.3423007e-05 6.9100774e-06 -2.6370906e-05 -1.2113614e-05 -0.00081566547 -5.114499e-07
0.0007005803 -0.001084418 -5.9830985e-05 0.0004623606 -0.00032926028 -4.207323e-05 -0.00021011192 -7.066272e-05
-0.001547863 0.00025161525 -5.8076945e-05 -4.7182984e-05 -0.0006058415 -0.00034836525 -0.000563253 -0.0022358631
-3.1576856e-17 0.0012490975 -2.1579037e-05 -0.00040737665 -0.0008793439 -0.00017139927 -0.00086888124 0.000119658594
-1.1759928e-05 0.00044794646 -1.8913577e-05 -2.5734675e-05 -2.738876e-05 -3.8238202e-05 -0.0009419059 -2.38919e-06
0.00082108605 -0.0012688432 -7.391069e-05 0.00055488874 -0.00038780383 -5.9490547e-05 -0.00026494398 -9.422387e-05
-0.0018082507 0.00029017855 -7.1267816e-05 -5.1594423e-05 -0.0006993477 -0.00039872795 -0.0006504832 -0.002580825
4.3949824e-13 -7.001415e-08 3.9376273e-06 -1.8302122e-08 -5.3372777e-09 6.6258957e-07 1.5192637e-06 -1.3345038e-08
2.8016125e-06 -1.8661328e-08 3.2928767e-11 2.7424637e-06 5.504569e-09 -4.9936128e-11 1.8588345e-06 -1.6644093e-24
8.4472885e-07 1.879085e-06 2.2114025e-06 -1.2561554e-06 4.5016087e-24 3.671064e-07 6.198671e-08 5.2949893e-12
-5.2468877e-06 -7.9227965e-07 -1.3532527e-24 6.5613585e-25 1.8664374e-06 8.159066e-08 -1.7898898e-10 -5.755854e-07
-7.117511e-17 0.0012393974 -2.6927273e-05 -0.00042103502 -0.0008674753 -0.00018677722 -0.0008516952 0.00011809994
-3.1149906e-05 0.00046756747 -1.3170402e-05 -2.2806491e-05 -1.0695646e-05 -1.0962688e-05 -0.00093530613 -1.16941155e-05
0.0008346182 -0.0012258226 -8.3250496e-05 0.00054260116 -0.00037355762 -7.0493625e-05 -0.00026025766 -9.156485e-05
-0.00179246 0.00028618396 -0.00010482011 -4.5913654e-05 -0.00068148196 -0.00039429287 -0.00062528707 -0.0025434506
-8.734937e-13 0.00076465536 0.00013845728 0.00017845459 -5.463219e-05 5.740631e-06 0.000983046 0.00012927788
0.00014455248 0.00070169213 1.4970439e-05 1.4906658e-05 3.698279e-05 2.1464783e-05 0.0005317198 1.2760102e-05
5.1722403e-05 0.0007380765 0.00013057137 0.0009356289 -3.064918e-05 -2.7652282e-08 0.001967924 8.615101e-05
0.0008647222 0.0012366748 0.00019796847 4.999084e-05 0.00013478532 0.0007594726 0.0009344957 0.0013550888
2.4216336e-24 0.0041036047 0.00032090428 2.9572864e-05 -0.0067215683 4.8791906e-05 0.0023936827 0.00026465362
0.00028302934 0.00090079405 0.00029868956 0.00020984653 -6.6567554e-06 -6.603565e-06 0.00030324495 1.1851081e-05
0.0025702459 -0.0026141126 0.00029391775 0.0020618087 -0.0035814948 0.00028280233 0.00485922 0.0002425046
-0.0015436996 0.00025223987 0.00046450165 1.3751283e-05 -0.001383854 -0.00026149576 0.0024339396 -0.002179308
-3.2841406e-17 -0.00046544278 -1.9728912e-05 0.00031364954 -0.00027583455 0.0002087283 -9.9588295e-05 -0.00021535912
-1.2132913e-05 0.0014371745 1.2789288e-05 5.173962e-06 1.5528674e-05 4.3247426e-05 0.0007473632 -1.362116e-06
-0.0014052988 0.001009684 6.948484e-05 0.00085204333 3.9447463e-05 7.478771e-05 0.0016268905 -5.120363e-05
0.0005614526 0.002196381 6.5472654e-05 6.0644146e-05 -0.00068939105 0.0005197132 0.00134732 0.0007915095
6.002806e-10 -1.2749e-27 9.920227e-13 -1.0000239e-18 1.0522894e-13 -7.5583395e-10 9.870117e-12 -2.5668367e-11
8.987929e-11 5.4449774e-26 -6.833216e-11 9.854106e-25 9.315541e-25 -9.39031e-11 -3.17593e-23 5.187083e-25
1.7339797e-12 2.5628545e-24 1.6647568e-19 5.825718e-25 5.288993e-26 2.0912204e-24 -4.4077427e-16 -1.28891915e-11
1.30098775e-23 -2.1384598e-10 4.880739e-22 1.1681434e-25 -5.7572755e-16 4.1867186e-23 -1.1783209e-24 -4.6440947e-25
