checkpoints/ablation_standard/ablation_standard_epoch0050.pt (torch, 39995 bytes, 24 tensors)

0.weight f4 [32, 2]
00000000: e878 343f a02b 153f 7a05 69be 5bd4 3b3f
00000010: f36e dcbd 4ac0 8e3e 994a e3be b517 e73e
00000020: 372b 163f acc8 f7be 2dbf 3c3f fa47 b53e
00000030: b966 e93e 4941 a4bc 61d2 f43e a515 66bd
00000040: 28db 0c3f a661 c03d 2ba4 82bd 15d5 513b
00000050: d84b 7abd c450 81b1 9db1 ecbe aaa6 093f
00000060: 4a8c 42bf 1654 0abf de6e 3abe 852d bcbe
00000070: 401b 443d e8aa 45bf 488e f83e 5666 23bf
00000080: 8229 263f ed51 8c3c 01e9 c9be f1ad 053f
00000090: a3e2 133e af2e 223f c881 733e d368 adbe
000000a0: 15e3 f23d b66f 65be f113 bd3e 27cb 353f
000000b0: 6409 833e 8212 d7be 7a74 093f de4c 0dbe
000000c0: 14b3 d53e 34b4 e9be 6f16 4fbf 7ec6 c7be
000000d0: ba91 09bf 2202 1c3f 2d89 943e 73f7 b43e
000000e0: e669 833e 1930 8e3c 0845 ea3e 41ae 27bf
000000f0: d954 5a3d 15f2 2cbf 3cbc b83e b15c b7be
0.7049699 0.5826969 -0.22755995 0.73370904 -0.107633494 0.2788108 -0.4439285 0.45135275
0.5865969 -0.48395288 0.7372921 0.35406476 0.45586184 -0.020050662 0.47816756 -0.056172986
0.55021906 0.09393625 -0.06378969 0.0032017876 -0.061107486 -3.763576e-09 -0.46229258 0.53769934
-0.75995314 -0.54034555 -0.18206355 -0.3675348 0.04787755 -0.7721391 0.48546052 -0.6382803
0.64907086 0.017128909 -0.3943558 0.5221854 0.14441924 0.63352484 0.23779976 -0.33869037
0.11859719 -0.22405896 0.36929277 0.7101311 0.25593102 -0.42006308 0.53693354 -0.13798854
0.41738188 -0.45645297 -0.80893606 -0.39018625 -0.53737986 0.60940754 0.29010907 0.3534504
0.25666732 0.01735692 0.45755792 -0.65500265 0.053303573 -0.6755689 0.3608111 -0.35812905

0.bias f4 [32]
00000000: a98f e33d 7091 f1bd ffbf 2b3f 3aed ecbe
00000010: 6a9c 17bf 12fb cdbe ea07 2f3f 165a 443e
00000020: 1965 3d3f 570f 87be cba4 bdbe 2890 02bf
00000030: 8499 c8be 075f af3e fd70 593e f91a 223f
00000040: fd0f cebe e5e3 e7be c106 dd3e b97d 84be
00000050: 4e83 f03e d9b0 7ebe ee7c c23e e47a f5be
00000060: 2492 debe b534 2e3e e652 af3d fba3 82be
00000070: 305e 003f 2d87 fd3e 8612 efbe a549 bdbe
0.111113854 -0.11795318 0.6708984 -0.4627474 -0.59223044 -0.40230614 0.6837145 0.1917499
0.7398239 -0.2637889 -0.3703979 -0.51001215 -0.39179623 0.34252188 0.21234508 0.63322407
-0.40246573 -0.45291057 0.43169215 -0.2587717 0.46975178 -0.2487215 0.3798594 -0.4794532
-0.4347087 0.17012294 0.085607335 -0.25515732 0.5014372 0.49517193 -0.4669382 -0.3697025

2.weight f4 [32, 32]
00000000: 4ccf ab3a 0af2 442e 9694 debb 46cd 0abb
00000010: f395 d136 a043 32ad 4411 e5bb 4016 98ba
00000020: 303f d3bb 5bd5 00b8 23dd 21ba ad1c 2133
00000030: ff6f 7ebb 25b0 fbbb b757 60ba 12f7 15bc
00000040: 84eb 812e c2c4 caba 7104 6fb7 08ca 01b8
00000050: faf3 f1bb aa4d 6bba 7328 eebb 5e5b a8b5
00000060: c742 2d38 3d11 0abc df72 1fac 431c deb7
00000070: 3733 aabb b410 10bc bc3c b9b9 393d 88b9
00000080: 087d 8f3e 1ae0 fc3d 067a 413e 658e 813e
00000090: 8cf5 3ebe 8cb1 373e a469 22bb 97c0 eb3c
000000a0: b061 a7bd 06b6 2cbb 7734 ccae 88f2 583e
000000b0: f258 663d a4b4 65be 2e15 663d 6b02 debd
000000c0: 96a1 adbd c0d1 873e d844 433e 4040 1ebe
000000d0: b95f 0a3e 1f1b 473d 12e6 163d cdff 02be
000000e0: 79cf 41be 36da 25be 4d1a 5a3e f896 bfbb
000000f0: 0be3 0e3e 59dd b23d 3f66 92bd cad2 51be
00000100: 6814 2e3e cc76 38bb 1a4c 65bd 7af8 b23d
00000110: 6ca7 c3bc be8e f33d 4609 12be 20bf 173e
00000120: eb01 9abc 3379 fb32 d92a 7131 76e7 813e
00000130: ffe8 5b3e 9b08 3ebd 92a1 f9bd b64a 9abd
00000140: 0eca 81bd cf3a 9b3e 12cd 953d 5495 40be
00000150: a6a0 17bd 0739 743e 8ddb 283c c1cd 39be
00000160: d2b7 37bd c842 d13d 4419 a63c 199b 8c3e
00000170: bb8d fbbd 597f 343c 5337 66bc f38a 48be
00000180: ba60 693e 210e 363e bfd4 9abd 59c7 483e
00000190: ae56 3cbe 7e3e cc3e eeea b03c ad54 593e
000001a0: e4f5 27be 2f72 182e 5d7e 153a 009b 9c3e
000001b0: 59c9 c93e 1468 263c 110b e4bb bfb6 84bc
000001c0: 88d5 463e aab2 983e 2437 cd3d 1bf7 2fbe
000001d0: e452 81be fd2b 053e 2f43 1e3d 3230 2dbc
000001e0: ef18 4dbe 37f4 233d d4d0 7b3d 020c ad3e
000001f0: 94ff 11be 529f 763e d03f 2cbe c7f6 4bbe
00000200: 61d0 d5bd 0ada 9c3e d54b 953e 2beb a93c
00000210: 14a4 b4be bcea 07bf 9211 183d 66ab 123e
00000220: 9abc 873e 804c 143a ccec edb2 978c 99bc
00000230: 711e a5be b8d7 77be f7b9 53be 5f94 30be
00000240: 8f71 0abf 76f9 05be f5e9 2c3e 0c9f adbe
00000250: beab 5f3d bb5f 20be cc40 eebd 9fc4 debe
00000260: 79fb b2be a411 a7bc 1d9d 743d 1d7f c9be
00000270: 93bd 183e c6cc dcbd 00f2 4abe 0eaf b5be
00000280: 2409 203e bb41 72bd 39ca b93c e677 b53e
00000290: da72 4d3c 7983 163e 0cc3 c23d cec8 3dbd
000002a0: 4b74 2c3d 2a62 d73a 4ec1 2f2d 478c a53e
000002b0: 52e5 2b3e 32a3 4fbe a0f7 3f3d 2160 32be
000002c0: 7457 953e 4b0a e93e 9dd8 2b3e 21e6 d6bd
000002d0: f016 75be b85a 743e 2a7c 963d f2cb 5cbe
000002e0: 0163 19be bace f7bd b8e1 eebc a42c 903e
000002f0: cf9e e7bd 8dfd 36bd fd99 41bd 2885 b4bc
00000300: ab5b 6f3e 0b5b 163d 7295 9dbd eff7 04be
00000310: 51d3 243d 146f 803d 8f09 0c3d b5eb 51bd
00000320: 517d 19be 502d a8ac 80d9 2bae 10bb 37bd
00000330: 8497 a13e af28 9dbc 9e6f ccbc bcd5 a3bd
00000340: 008f da3d ee68 213e ad87 15bd 9e7c b43e
00000350: c01e 85bd 0f1e 073e 0aee 2a3e 751e c73e
00000360: 5fd7 9d3d f78a 283e 888c 7c3e 56fc 3f3e
00000370: fc5e b83d 6bef 393e b2e6 ac3e 4b40 a63e
00000380: 1b88 8bbd cc31 0abd f6be ae3d 901e 9b3e
00000390: a60e ceb6 24f2 5e3c 240a 78be c7d4 03be
000003a0: 76a4 7abe bf8d 052e 8ea9 cd37 1fab 8a3e
000003b0: 7b38 2d3d 191c 15be 262e c43d 87a6 20bd
000003c0: 6eb9 7d2d b7bc 9c3e 2975 02be 6377 8f2d
000003d0: 0a85 0bbe f17e 023e 11bd 58bd 2a92 85ba
000003e0: fa5e bcb9 3391 a3bd ba7d 303e 8107 2c3e
000003f0: 846c 6abe 301d f63d 2817 2d2c 9ed0 39b3
0.0013108044 4.4780214e-11 -0.006792615 -0.0021179481 6.2461418e-06 -1.0133144e-11 -0.0069905836 -0.0011603311
-0.0064467415 -3.071628e-05 -0.00061746145 3.7511814e-08 -0.003882408 -0.00768091 -0.00085579924 -0.009153144
5.908077e-11 -0.0015470015 -1.4246544e-05 -3.0944153e-05 -0.0073838206 -0.00089761114 -0.0072680055 -1.2543567e-06
4.1308605e-05 -0.0084269615 -2.2659025e-12 -2.6477623e-05 -0.0051940936 -0.008793045 -0.000353312 -0.00025985556
0.2802508 0.123474315 0.18894204 0.2530395 -0.18648356 0.17938823 -0.0024782205 0.028778357
-0.08172929 -0.0026353612 -9.2861656e-11 0.21186268 0.05623717 -0.2243219 0.056172542 -0.10840305
-0.08478086 0.26527214 0.1906923 -0.15454197 0.13513078 0.04860985 0.036840506 -0.12792893
-0.18926801 -0.16196522 0.21299095 -0.0058468543 0.13953798 0.08733625 -0.07148408 -0.20490566
0.16999972 -0.002814698 -0.05598078 0.087387994 -0.023883544 0.1189246 -0.1426135 0.14819002
-0.018799743 2.927536e-08 3.5094472e-09 0.25371903 0.214756 -0.046394926 -0.1218902 -0.07533781
-0.06337367 0.30318305 0.07314505 -0.18806964 -0.03701844 0.23849879 0.010306251 -0.18144895
-0.04485304 0.10217816 0.02027572 0.2746208 -0.12282892 0.01101669 -0.014051276 -0.19584255
0.22790805 0.17778827 -0.07560109 0.19607295 -0.1839244 0.39891428 0.021596398 0.21223707
-0.16402394 3.4662214e-11 0.00057027285 0.30587006 0.3941143 0.01015665 -0.006959327 -0.016200421
0.19417393 0.2982381 0.10020283 -0.17184107 -0.25258553 0.13005061 0.03863829 -0.010570573
-0.20029043 0.040027823 0.06147845 0.33798224 -0.14257652 0.24084213 -0.16821218 -0.19918357
-0.10440136 0.306351 0.29159418 0.02074202 -0.35281432 -0.5309255 0.03712613 0.14323196
0.2651108 0.00056571513 -2.7698114e-08 -0.018743796 -0.32249787 -0.24203384 -0.20676409 -0.17244099
-0.54079527 -0.13083443 0.16886123 -0.33910406 0.054607145 -0.15661518 -0.11633453 -0.43509385
-0.34957483 -0.020394154 0.059720147 -0.39354792 0.14916067 -0.10781245 -0.19818878 -0.3548512
0.15628487 -0.059144717 0.022679435 0.35443038 0.01253959 0.1469859 0.095098585 -0.04633408
0.042103093 0.0016432453 9.9905206e-12 0.32333586 0.16786698 -0.20277098 0.046867013 -0.17419483
0.29168284 0.45515665 0.1678185 -0.10493112 -0.23934531 0.23862731 0.07347901 -0.21562174
-0.14979173 -0.12099977 -0.029160365 0.28159058 -0.11309587 -0.0446754 -0.047265995 -0.02203615
0.23374812 0.03670792 -0.0769452 -0.12985204 0.04024059 0.062711865 0.034188803 -0.05125018
-0.1498921 -4.779878e-12 -3.9074077e-11 -0.04485613 0.3156091 -0.019184439 -0.024955567 -0.07999751
0.10671806 0.15762684 -0.036506344 0.35251325 -0.06500006 0.1319506 0.16692367 0.38890424
0.077070944 0.16459261 0.24662983 0.18748602 0.09002492 0.18157737 0.33769757 0.32470927
-0.068130694 -0.033738896 0.08532517 0.30296755 -6.1409837e-06 0.0136075355 -0.24222618 -0.12874137
-0.244768 3.0366595e-11 2.451686e-05 0.2708368 0.042290192 -0.145615 0.095791146 -0.039221313
1.4422559e-11 0.30612728 -0.12740006 1.6310236e-11 -0.13624969 0.12743737 -0.052914683 -0.0010190655
-0.00035928917 -0.07986679 0.17235461 0.16799738 -0.22892958 0.12017286 2.4597633e-12 -4.3263405e-08

2.bias f4 [32]
00000000: cca2 1fbc c5c0 f6bd 489d 94bd 664c 31be
00000010: d71c 943e ff0c 7abe 3d4c 533d f89b ef3d
00000020: 3469 203c 8d54 e93d beca b2bd dd6a fb3d
00000030: a461 8abd 6908 5dbe 13bb e53d f554 c6bd
00000040: dedd 31bd 2146 383e db8e 11be fa65 43bd
00000050: 7d1b bc3d 48ed 84bd 8e65 3b3d 0612 33be
00000060: d9ba 943c e11d 583d 6bc6 00be 0c46 0bbe
00000070: a3b5 d53d 3e1f a73d 6b8e 21be 5d28 053e
-0.009743404 -0.120484866 -0.072565615 -0.173143 0.28928253 -0.2441902 0.05158638 0.116996706
0.009790707 0.1139308 -0.08730076 0.12276242 -0.06756905 -0.2158524 0.11217322 -0.09684173
-0.04342448 0.17995502 -0.14214651 -0.047704674 0.091849305 -0.0649057 0.045751147 -0.17487344
0.018155502 0.05276287 -0.1257569 -0.1360094 0.10435035 0.08160256 -0.15776984 0.13003679

4.weight f4 [32, 32]
00000000: a1d0 34b8 7328 f53c c101 de3b 6916 dd3e
00000010: 3595 3a3d e2c1 923e 0009 b6bd 7e34 903e
00000020: 1f34 d53d 5494 523e 26c0 48be 5133 e13d
00000030: 0aab 2fbe cf54 debd a0fb 03be efdd d6bb
00000040: 29f8 2ebd 19c4 3c3d 8335 4c3e ed7e d93d
00000050: e7fd 51be b01d 2d3e 3151 8e3e 19c1 a13e
00000060: 646c b53d 83a5 d43d 6821 013f dc2e 98be
00000070: 39e8 93bc bfaf e53d 7e49 48be 29da c0bd
00000080: 0f7f 9db8 9c53 99bd 9101 fd3d 2149 cf3e
00000090: 4099 dabd 88c5 9c3e 5877 f2bc 3b06 8d3e
000000a0: 3524 743e 9343 54bb 9246 88be 00b6 55be
000000b0: baa0 24be b4bc bcbe 1b8e 57bd ef3a 3dbd
000000c0: 8ab5 c3bb 0d0b 133d d06e 4c3e 5c76 9c3e
000000d0: 9928 89be a77e c13d 4a6c 293e 7818 793e
000000e0: e91d b83d 2968 003e c2b2 0d3f b52a a2be
000000f0: dc11 6b3d 3bac 673e f1a8 16be d37c 3d3e
00000100: 9cab 0e39 dccd 4bbb 50e9 5f3d 5892 d8bb
00000110: 0574 b8bb 2c01 713c de41 d13c ce47 f2bb
00000120: cbc0 433d a6a3 20bc 9810 3c3a 2454 993d
00000130: 23db 1e3b 87ff 50ba e994 243d 564f 02ae
00000140: 180f 943c 2173 f53c 52f4 713d be1c 2abd
00000150: 29da 8d2e 2f6f 6c3c 55d6 853a cafc b639
00000160: bc10 a5bd d657 77bc c326 022e 3f06 a3ae
00000170: 1e22 583d 20da d83a eef4 baba 4745 83bc
00000180: d853 1a3a e6af 833c f734 a23d 8b7e 513e
00000190: 0fc3 18be 3d52 0d3e 9dc3 91bc 1d4a 8d3e
000001a0: c452 3c3d a39f 6d3e 37bd 67be 41dd 49be
000001b0: 081b 2dbc 2924 f0bd 009b 12be 972d 04be
000001c0: 6635 7f3e 7720 633e 77ab c43d 5c48 6a3e
000001d0: 2aef 49be ad51 dcbc ce40 d23d c0f8 883e
000001e0: 4b3c a5bd 315e aa3d 0059 523e b59e 8ebe
000001f0: 6827 ff3d 1b4a 2e3e f4e2 c1bc d1d8 ac3d
00000200: 27a3 1aba 0fef dabc c9b0 b4bd 4044 1b3e
00000210: bd0b ebbc 8ec0 3d3d 5e16 4f3e 4681 0bbe
00000220: 187d 683c 3f47 36be 0f2d ab3e edaf 4f3e
00000230: ef12 8d3e 3db9 783e b0d8 693e 5998 1a3e
00000240: e479 6bbe dfdb 91be 6772 3abd 41c2 a6bd
00000250: f809 c43b 5518 81ad 1c5f 8a3b 1eaa 6abd
00000260: 512a 6ebc d3e9 733c 79b7 23be eab7 9b3e
00000270: b79f 3d3e 9346 0bbe ebbd 3b3e f247 5b3e
00000280: 87c4 daae e0d9 06ba 3faf 263e b982 c0af
00000290: bca3 e7bc 9eaa c33c 2ce8 11be 7ec4 ea3b
000002a0: 459f bbbd a974 363c 7ff7 73ad 51e7 853b
000002b0: 8557 20be e1f6 ebbd a79e 773d 21b1 003e
000002c0: 6358 9dbd 7ca3 6a3d 58bb 98bd 9a66 ea3c
000002d0: 789c 0c3e a347 2839 b073 13be 9ea6 6436
000002e0: 1334 8d3d d4c1 02bb ac96 283b b339 10b0
000002f0: 1829 dbbc ee0b 7bbd de19 88ba ae5e cb3c
00000300: 667f 96b9 c3a3 2b3c b8c2 05be 10b1 3c3e
00000310: 52d3 8dbd 2c83 8dbd 9a13 d13d 5fec 9abd
00000320: 7f58 963d 8a43 83be b876 a33e 8d84 d53d
00000330: 321b e33c 023d e33e 9ac4 1e3e 3209 98bc
00000340: b44d a9bd e3ef c2bd c134 cebd 7253 04be
00000350: a4a9 2f3e 5630 64ba f925 b1bd 962d e1bd
00000360: 6677 763e 1185 b13d 69c1 4cbe 87ca ba3e
00000370: eb6e 1c3e 4386 8fbe fb4a 533e 2e2c fc3d
00000380: 8684 1a3b 3809 43aa 5a1e 4139 ebcb 3036
00000390: 4610 aa38 6c38 2abb a74e e939 663f 2aba
000003a0: e308 8d3a 8aca 18ac e45b 7cba a758 d1ad
000003b0: 53d1 182e 6b92 8fba 0445 582f 0bd5 6b2d
000003c0: 8e6e 6e39 44a4 58ae 5390 7e35 a782 abad
000003d0: 085f 60ac aa79 8a2c 6530 6bb7 7a8f 01ba
000003e0: 9882 0daf 422d c9ba 0b23 53b1 9040 a02c
000003f0: 3257 7db7 150c db2f 96a6 b8ad cdad 80ad
-4.3109645e-05 0.029926514 0.0067751114 0.4318116 0.04555245 0.28663546 -0.08888435 0.28165048
0.10410332 0.20564395 -0.19604549 0.10996116 -0.1715509 -0.1085602 -0.12888956 -0.0065572183
-0.042717133 0.04608545 0.19942288 0.10619912 -0.20507012 0.16905856 0.2779632 0.31592634
0.088585645 0.10383131 0.504416 -0.2972325 -0.018055068 0.112151615 -0.19559285 -0.09416611
-7.51001e-05 -0.0748665 0.123538144 0.4048548 -0.10673761 0.30619454 -0.029597923 0.27543816
0.23841937 -0.003238891 -0.2661634 -0.20870209 -0.16076937 -0.3686272 -0.052625757 -0.04619878
-0.005972569 0.03589921 0.19964147 0.3055905 -0.26788786 0.09447985 0.16545215 0.2432574
0.0899008 0.12539734 0.5535089 -0.31673208 0.05739008 0.22624294 -0.14712884 0.18504648
0.00013606105 -0.0031098044 0.054665864 -0.0066092424 -0.005629065 0.014709752 0.025544103 -0.0073938137
0.047791284 -0.009804642 0.00071741035 0.07486752 0.0024239502 -0.0007972647 0.040181074 -2.9629042e-11
0.018073604 0.029962124 0.059070893 -0.041531317 6.450691e-11 0.014430805 0.0010210971 0.00034902088
-0.080598325 -0.015096625 2.9593005e-11 -7.4134913e-11 0.05276691 0.0016544499 -0.0014263669 -0.016024245
0.00058871275 0.016075086 0.079202585 0.20458429 -0.14918159 0.13800903 -0.017793471 0.27595606
0.04597737 0.23205428 -0.22630773 -0.19713308 -0.010565527 -0.11725647 -0.1431694 -0.12908016
0.24922714 0.22180353 0.09603017 0.22879165 -0.1972014 -0.026894415 0.10266267 0.2675228
-0.080681406 0.08318747 0.20541763 -0.2785546 0.12458688 0.17020456 -0.02366779 0.08439792
-0.00058989454 -0.02672532 -0.088227816 0.15162754 -0.02869212 0.046326213 0.20223376 -0.13623533
0.014189981 -0.17800616 0.33432814 0.20281954 0.27553508 0.24289413 0.22836566 0.15097179
-0.22995716 -0.2848806 -0.04551926 -0.0814252 0.0059826337 -1.4676408e-11 0.0042227637 -0.057291143
-0.014536456 0.014887291 -0.15987958 0.30413753 0.18517958 -0.1360114 0.18334167 0.21414164
-9.9484025e-11 -0.000514416 0.16277789 -3.501748e-10 -0.028276317 0.023885068 -0.14248723 0.007164537
-0.091612376 0.011136212 -1.3867906e-11 0.004086413 -0.15658386 -0.11521698 0.060454037 0.1256757
-0.07682874 0.057284817 -0.07457608 0.028613377 0.13731563 0.00016048415 -0.143996 3.4071631e-06
0.06894698 -0.0019951956 0.0025724573 -5.246889e-10 -0.026752993 -0.061290674 -0.0010383686 0.02482542
-0.0002870515 0.010476056 -0.1306256 0.18426919 -0.06925072 -0.06909785 0.10208817 -0.075646155
0.07341098 -0.25637466 0.31926513 0.10425673 0.027722929 0.44382483 0.15504685 -0.018559072
-0.08266774 -0.09518411 -0.10068656 -0.12922457 0.17154557 -0.00087047124 -0.08649821 -0.10995023
0.24068984 0.086679585 -0.19995655 0.3648264 0.15276687 -0.2803212 0.20634072 0.12313114
0.0023577525 -1.7322678e-13 0.00018417221 2.634474e-06 8.109263e-05 -0.0025973571 0.00044499824 -0.00064944325
0.0010760095 -2.171293e-12 -0.000962673 -2.3799919e-11 3.4746716e-11 -0.001095367 1.9669605e-10 1.34055085e-11
0.00022738634 -4.925861e-11 9.4832393e-07 -1.949847e-11 -3.1885068e-12 3.9357033e-12 -1.4018359e-05 -0.0004942339
-1.2870272e-10 -0.0015348571 -3.072446e-09 4.5546414e-12 -1.5100277e-05 3.9844453e-10 -2.0992357e-11 -1.4629098e-11

4.bias f4 [32]
00000000: ea83 e73d cedc 753d 8829 9dbd 534a 003e
00000010: e145 81bd f14f c6bc 3604 82bd 2be1 eaba
00000020: db6a 853d 7fd7 1a3d 01b9 21bc 6e1a f73d
00000030: 3216 7ebd 188e 06bb c219 b5bd df34 77bd
00000040: 68a6 e8bc 24ae 14bd a8f8 a23d 4f4a 65ba
00000050: c43e 1cbb f6b5 23bd 70ce 503d e3a1 233e
00000060: a2e8 073e e162 ed32 61b4 dcb9 19d9 96bd
00000070: 217c fabc 1cde 1c3d c999 b5bc 7a9b 3e3e
0.113044575 0.06002503 -0.07673937 0.12528352 -0.063121565 -0.02420804 -0.063484594 -0.0017919888
0.06514522 0.03780317 -0.0098707685 0.12065588 -0.062032886 -0.0020531472 -0.088428035 -0.060353156
-0.028399661 -0.036298886 0.07957584 -0.00087467296 -0.0023841122 -0.039968453 0.050978124 0.15979724
0.13272336 2.7635396e-08 -0.00042096063 -0.07365627 -0.030576767 0.038297758 -0.022168057 0.18613997

6.weight f4 [2, 32]
00000000: d73b 4a3e 0ab2 053e 8dc6 a03c 606b 243e
00000010: 4026 2dbe 81d5 f93d 06b5 aabe 4daa ce31
00000020: 7ad9 87be 351a c7be 8077 4abb 5ecf 683e
00000030: 447c e13e 00b7 0daa 8f21 7dbe c768 47be
00000040: 4112 cb3e f186 013e 168e c3bd fd21 273a
00000050: ff8e ac3e ead3 9abe e3df 4cbe cbe8 a0be
00000060: 39cf 59be 27a5 99b9 5015 952e d3ad e6be
00000070: f7ba db3e 1a78 2cbe a9be 97be 2755 bdbe
00000080: 525c f8bd 5067 59be 114d 0a3d 5181 73be
00000090: a5aa 603e b9ec 06be 31ee d13d 4e7a 0333
000000a0: 42f9 733e b7c6 6b3e 1c8d a6bb e8f5 77be
000000b0: 7f7c d7be 1495 c1ba 9fcf 813e 9fa8 7d3e
000000c0: 2e95 ccbe 7790 59be 0666 a83d 137f 98b9
000000d0: 36ac aebe bf09 213e b5ee b63e 8684 1b3e
000000e0: f649 8b3e 25ad 1bb0 fb8d 9fae e375 1f3e
000000f0: c39c b2be 7e44 f23e a261 2f3e 61ab a13e
0.1974939 0.13056198 0.019625926 0.16056585 -0.16909122 0.12198926 -0.33341235 6.01475e-09
-0.2653311 -0.38887182 -0.0030893981 0.22735354 0.4404012 -1.2586807e-13 -0.24719833 -0.19473563
0.39662364 0.12649132 -0.09548585 0.0006375609 0.33702847 -0.30239803 -0.20007281 -0.31427607
-0.21270455 -0.00029305482 6.7795214e-11 -0.45054492 0.4291608 -0.1684269 -0.2963765 -0.3697903
-0.12126984 -0.21230817 0.033764903 -0.23779799 0.21940096 -0.1317624 0.102505095 3.061205e-08
0.23825553 0.23025022 -0.0050827395 -0.242149 -0.4208717 -0.001476916 0.25353715 0.24771355
-0.39957565 -0.21246515 0.082225844 -0.00029086377 -0.34115762 0.15726374 0.35728994 0.15187272
0.27204865 -5.6634725e-10 -7.255704e-11 0.15572314 -0.34885225 0.4731788 0.17127088 0.31576064

6.bias f4 [2]
00000000: 9fcb 143e 1d0e b23d
0.145308 0.08694098

exp_avg f4 [32, 2]
00000000: 8ac7 ffb9 10bb f9bb 8e67 863b c706 23bb
00000010: 66f0 2abb 39b9 a33b 981f c33b 66a3 e3ba
00000020: cf95 e33b 1925 10bb 85e7 a7bb 0392 13bb
00000030: 0325 daba 13c8 e33a baf4 efba 74dd 94bb
00000040: d446 0f3a 9c87 ce3b 3f22 e1b6 9c0a c734
00000050: e4e6 d7b6 5e9f 47ab b417 c13b c5d6 f6ba
00000060: 3f33 f43a 87ba e0bb 5198 e23a d268 57b9
00000070: a59e 2c3b 1a16 8cbb 3ce2 5d3b 072f 22b9
00000080: 1c8b cabb 084f f1bb b9ea 3d3b 6922 30bc
00000090: 6310 98bb 7d54 633a 799b a53b cc81 aabb
000000a0: 5bbd cc37 274a 923a 2920 fdba 91ff 31bc
000000b0: fa0d 493a 6845 3abb 5648 463b fddc 8cbb
000000c0: d7cc a73b e681 a9b9 c49f 93ba f1d6 583a
000000d0: 02e2 213b 6d34 44ba e1da c0bb 5d47 85bb
000000e0: 999b 06b9 653b bb3b c832 c63a d09b 3f3b
000000f0: 7f99 943b 90ec 25bc ace0 ba3b b0a4 78bb
-0.00048786058 -0.0076211765 0.0041017 -0.0024875866 -0.002608323 0.0049964455 0.005954694 -0.0017367422
0.006945349 -0.0021994768 -0.005124035 -0.002251745 -0.001664311 0.0017378352 -0.0018307187 -0.004543001
0.00054655713 0.006302787 -6.7095093e-06 3.7074358e-07 -6.4343785e-06 -7.092017e-13 0.005892718 -0.0018832317
0.0018630995 -0.0068581733 0.0017287825 -0.00020543046 0.0026339677 -0.0042750956 0.003385677 -0.00015467043
-0.006181134 -0.0073641576 0.0028979017 -0.0107503915 -0.0046406253 0.00086719525 0.005053934 -0.0052034613
2.440687e-05 0.0011161015 -0.0019311953 -0.010864154 0.0007669624 -0.0028422717 0.0030255518 -0.004298805
0.0051208544 -0.00032330974 -0.0011262824 0.0008271775 0.0024701362 -0.00074846187 -0.0058854674 -0.004067345
-0.000128372 0.0057138675 0.0015121335 0.0029237159 0.0045348997 -0.010127202 0.0057030525 -0.0037939958

exp_avg_sq f4 [32, 2]
00000000: bab3 fc37 6580 b338 29ef e237 e5f7 e636
00000010: ec3e 8f38 f35d b338 7b5c c039 aef9 1839
00000020: 6c38 f039 0f4f 2e39 2d32 d238 5aa2 0b39
00000030: 9be3 c837 d70e 5237 6d4b 9d36 61ae a437
00000040: a982 8b38 71d9 a638 4080 ed2e 5b2d 922d
00000050: 663f e42e 8219 d32b d57d 173a 88b9 9039
00000060: 50fb 9839 2bba bf39 657d a837 19c5 2937
00000070: e69a 5138 8871 2738 120c 4037 9553 ab36
00000080: c73a 9739 a99c 6838 8881 263a 0010 b639
00000090: 6afb 0f38 1ea1 6f37 474c fa39 87e9 9e39
000000a0: 44ca 2339 09a8 1539 f906 4538 8d07 5039
000000b0: 4fc8 b137 978c 2f37 e1d6 2a3a e102 cf38
000000c0: 5a87 ce39 11ec 3739 ca2d 0f38 2a4d 6338
000000d0: 5b26 4a38 67b7 e537 e07b fa38 07f8 cb39
000000e0: 6659 7538 b580 a338 6c7f 8c37 3239 0537
000000f0: 3fd4 1e39 03a8 6b3a 7f4b 213a 6583 8e39
3.0124433e-05 8.5593005e-05 2.7052667e-05 6.883393e-06 6.8304915e-05 8.5528845e-05 0.00036689997 0.00014588863
0.00045818405 0.00016623385 0.00010022926 0.00013316554 2.3947845e-05 1.2520431e-05 4.6877453e-06 1.9631525e-05
6.652374e-05 7.9559984e-05 1.0800294e-10 1.661842e-11 1.03795014e-10 1.4999532e-12 0.00057789433 0.00027604052
0.00029178942 0.00036569065 2.0085552e-05 1.0119075e-05 4.9973743e-05 3.9921637e-05 1.1446902e-05 5.1059274e-06
0.00028844757 5.545901e-05 0.0006351699 0.00034725666 3.4328004e-05 1.4283023e-05 0.00047740547 0.000303101
0.00015620241 0.00014272345 4.6974954e-05 0.00019839239 2.119332e-05 1.04635465e-05 0.0006517005 9.8710654e-05
0.00039392227 0.00017540182 3.41365e-05 5.4192882e-05 4.8196274e-05 2.738433e-05 0.000119440025 0.00038903972
5.849581e-05 7.796419e-05 1.6748636e-05 7.940735e-06 0.00015147122 0.0008989574 0.00061529124 0.00027182247

exp_avg f4 [32]
00000000: f97c 7e39 6868 41ba 2577 68bc 57c6 a4bb
00000010: b481 0b3c f7b5 db3a 20fd d7ba eb3f d3bb
00000020: 1129 febb 931c e2b7 19ff 1db8 d301 b0bb
00000030: c7b1 853c cf6e f7ba eaa3 103c d8a3 26bb
00000040: 1b49 d339 8b6d 51bc a1be f1bb ff00 413c
00000050: 2846 493a 2dd5 aabb a8a3 bb3b 494d df3b
00000060: c551 ad3b c1fd 073c e9d1 c73a de14 063b
00000070: 7114 ecbb 2598 25bb d4c9 d03c d8c3 193c
0.00024269884 -0.00073779235 -0.0141885625 -0.0050285268 0.00851481 0.0016762604 -0.0016478635 -0.0064468286
-0.0077563603 -2.6954605e-05 -3.7669295e-05 -0.005371311 0.016320122 -0.0018877628 0.008828143 -0.0025427248
0.00040299524 -0.012782465 -0.007377461 0.011780023 0.00076779956 -0.005213401 0.0057262965 0.006814633
0.0052892887 0.008300246 0.0015245053 0.0020459215 -0.0072045852 -0.0025267687 0.025486864 0.009385072

exp_avg_sq f4 [32]
00000000: df03 0139 19f7 ea37 4898 3b39 10a6 cd39
00000010: 505d 0a3a 988f 8e39 684d f037 dfb0 c737
00000020: b96c 2d39 1562 1730 88d6 7530 bda8 303a
00000030: 1b08 3d3a 7d5c 2538 579f e038 182d ee37
00000040: a9f6 8f39 def1 533a 7b6a b238 288d 323a
00000050: b73b ae39 5704 8439 6c28 0d38 1cb3 183a
00000060: 25d0 f539 5530 bb38 0bcb a838 7145 123a
00000070: b6e9 1639 4506 2038 86a3 983a 2e90 433a
0.00012303841 2.8010038e-05 0.00017890439 0.00039224373 0.0005278187 0.00027191336 2.8646275e-05 2.380501e-05
0.00016539068 5.5072863e-10 8.943535e-10 0.0006739011 0.00072109856 3.9425202e-05 0.00010710832 2.839281e-05
0.00027458862 0.0008085052 8.507535e-05 0.0006811195 0.00033232357 0.00025180235 3.3654665e-05 0.0005825029
0.0004688512 8.9258574e-05 8.048684e-05 0.00055798056 0.00014392179 3.815281e-05 0.0011645413 0.0007460144

exp_avg f4 [32, 32]
00000000: d7d2 2834 f895 dd28 acae 42b5 28c8 85b4
00000010: 4fd5 4a30 9e17 c527 28f7 3fb5 34bc 08b4
00000020: 22f4 37b5 c7ae 98b1 f33a a4b3 e314 41aa
00000030: 23a7 d6b4 11a9 46b5 184d 4b33 b5e9 61b5
00000040: 2ea5 9028 d9e6 45b4 74e9 14b1 8b6f 36b2
00000050: da48 47b5 e4e7 eab3 ba96 3fb5 e28e 82af
00000060: 227c d42f 72ec 5db5 11ba e3a5 f8d5 84b1
00000070: a120 0fb5 dfce 5db5 4e85 92b3 5ec1 10b3
00000080: 8296 23bb 0fba beba 4f89 0f39 bcdd eeb9
00000090: 5849 1c39 5d30 adb9 25ff 31ba 716d b1ba
000000a0: 640a 95ba 900d a5b4 652e 24a8 2ed4 02ba
000000b0: 1530 3938 2086 d83a 1d21 9e38 60b1 7639
000000c0: 92bd 8a39 ffd3 feb9 86ec c2ba 743d 0339
000000d0: 1bb0 0b3a 0d9e bbba c562 d139 5455 a637
000000e0: 80a1 2d39 1c09 dd3a 00fd 9738 3c22 5cb9
000000f0: 15a8 bab9 ff49 afb9 e86c b0b6 8f9c 0039
00000100: 8e28 b3ba 5434 1ab9 d2f0 0fb7 e162 57b9
00000110: 669f 45b6 6bb2 26ba b8e8 bd39 5f24 85b9
00000120: d6ab b739 4e91 3eac bcaa 042c cdf3 72b9
00000130: 10fe f1ba 221e 23ba b942 17ba 67e2 1939
00000140: 7643 07ba 7143 8fb9 cf52 4a39 6ee2 9eb7
00000150: c821 c938 8642 afba f7fc 90b8 dee8 43b8
00000160: bfe3 96b6 b591 d1ba 4611 1dba a310 1cba
00000170: ac63 5f39 e651 a9b9 4c0f c7b5 46cf a4b7
00000180: 3224 b2bb 94a8 1abb 015e cfba f6fa 73ba
00000190: b752 8cb9 dab7 55bb c4f4 5fbb dba5 72bb
000001a0: 13e9 87bb 7ce5 1ea9 b336 9833 0bbd 93ba
000001b0: e03e 1dbb e1fe c4ba 8350 2fbb cb3f 87bb
000001c0: ec98 87bb e498 a6ba 1cef ceba 25b0 59b9
000001d0: d9e9 d7ba fb9f 24bb 5c27 31bb 6566 e0b9
000001e0: 0b84 8ab9 dfc6 22bb ff40 97bb 22a7 aeba
000001f0: 6fbe 14bb d59e aabb a091 a938 0680 63b9
00000200: 76dc 9b38 14c1 71ba f2be 00bb 6ce0 beb9
00000210: a3d3 833a 43d5 f83a 719d 97bb 0c8e 2cbb
00000220: 6c91 a9bb 0b0d 9733 285f b7ac 210b b7b9
00000230: c683 273b de74 6d39 0fa6 15bb 8c38 9abb
00000240: dfe1 483b afbe 9ab9 2e6f 0dbb 33f5 693a
00000250: 8427 13bb c0f5 d0b8 1f61 20bb dd7d 103a
00000260: a73d 943a fcbc a23b 11ce 463b 93c4 083a
00000270: ad78 46bb f5fd 8fbb e412 8e39 07f5 613a
00000280: d149 e2ba 9d08 cbb9 cd5f b83a 8a0a 7eb8
00000290: e62f 0638 a65d 8eba d036 c439 503b b3b9
000002a0: d4bb 3d39 b8b3 5134 4486 dc26 ae7f 86b9
000002b0: a56e cfb7 5b84 283a 0431 b5b6 2055 6539
000002c0: 3919 68ba f033 e4b9 0601 b538 ad8d 5cb6
000002d0: e88c 593a 28ff f1ba 718c 2838 5181 b6b7
000002e0: bd51 4a36 d9e6 833a 488b db39 2a07 6dba
000002f0: d6fa d539 f152 0dba 7b18 a6b6 37ea 7a37
00000300: 3deb d1ba 9950 82ba 6cd8 773a 6b51 fdb8
00000310: ff35 5fb9 10d2 4fba 5e50 c93a a7b9 5cb8
00000320: fe53 be3a 1801 06a6 7cd4 9528 1f6e 2db9
00000330: 12ef 4dba 3d27 ac3a 5fda 813a cdd2 1e3b
00000340: 882a 27ba ea64 5cb9 a47f 19ba e353 56b9
00000350: 7753 be3a 17fc 9dba f718 c33a 83b8 b1b8
00000360: 96dd 83b9 bded 64b9 3fb4 aaba d7e8 cdb9
00000370: 3a93 8c3a fc53 ee3a e5ca bab9 50a3 29b9
00000380: 095c ddb9 715b ad39 556f 8cba 597c 3ab9
00000390: d6b3 88b0 2cfb c135 5e3e d639 e739 5ab7
000003a0: e710 2c3a 24e3 85a7 c032 7731 9f1d 87b8
000003b0: fa28 3ebb 190a d6ba 18cb 4aba be2e 36b8
000003c0: d560 8826 6d37 6d38 6c32 153a 18bf 3b25
000003d0: f9c8 26ba 0c0e edb9 dd83 69b9 89a1 04b4
000003e0: 1ddd 43b3 11fb 64bb 51b9 99ba 52c9 84b5
000003f0: f00e 9f38 04f1 4937 a68e 15a8 1e3f 07ac
1.5722922e-07 2.4600967e-14 -7.252481e-07 -2.4918813e-07 7.37903e-10 5.470409e-15 -7.1512704e-07 -1.2734455e-07
-6.852807e-07 -4.443652e-09 -7.647568e-08 -1.714909e-13 -3.9982214e-07 -7.400677e-07 4.7334737e-08 -8.415912e-07
1.6058847e-14 -1.8431037e-07 -2.1669537e-09 -1.0619156e-08 -7.423929e-07 -1.0938655e-07 -7.137238e-07 -2.3748387e-10
3.8650777e-10 -8.267299e-07 -3.9504306e-16 -3.866031e-09 -5.331913e-07 -8.262995e-07 -6.822903e-08 -3.370348e-08
-0.0024961536 -0.0014551299 0.00013688694 -0.00045560102 0.00014904642 -0.00033033165 -0.00067900337 -0.0013536644
-0.0011370894 -3.0743513e-07 -9.113889e-15 -0.00049907237 4.4152217e-05 0.0016519465 7.540195e-05 0.00023526466
0.00026462652 -0.00048604605 -0.0014871515 0.00012516027 0.0005328671 -0.001431407 0.00039937175 1.9828476e-05
0.00016558729 0.0016863677 7.247366e-05 -0.00020993588 -0.00035601915 -0.00033433732 -5.257887e-06 0.00012265354
-0.0013668702 -0.00014706078 -8.579535e-06 -0.00020540833 -2.944807e-06 -0.0006358984 0.00036222278 -0.00025394835
0.00035032508 -2.7081284e-12 1.8853105e-12 -0.00023169741 -0.0018462557 -0.00062224467 -0.00057701353 0.00014675558
-0.0005159894 -0.00027325333 0.0001929507 -1.8940507e-05 9.590719e-05 -0.0013371266 -6.9135735e-05 -4.6708497e-05
-4.4968615e-06 -0.0015988859 -0.00059916486 -0.0005953407 0.00021304068 -0.0003229521 -1.4831107e-06 -1.9646843e-05
-0.0054364437 -0.0023599016 -0.0015820862 -0.00093071104 -0.00026764508 -0.0032610805 -0.0034172991 -0.0037025127
-0.0041476577 -3.5282094e-14 7.088001e-08 -0.0011271549 -0.0023993775 -0.0015029573 -0.002675087 -0.0041274778
-0.0041381028 -0.001271036 -0.0015787813 -0.00020760352 -0.001647289 -0.002511977 -0.0027031517 -0.000428009
-0.0002641979 -0.0024837775 -0.0046159024 -0.0013324956 -0.0022696515 -0.0052069225 8.085673e-05 -0.000216961
7.43204e-05 -0.00092221913 -0.0019645062 -0.0003640683 0.001005758 0.0018984455 -0.004626923 -0.0026329784
-0.0051748063 7.033858e-08 -5.2117373e-12 -0.00034912772 0.002556072 0.00022645618 -0.0022834574 -0.004706448
0.0030652208 -0.0002951524 -0.002158116 0.0008924782 -0.0022453973 -9.9639874e-05 -0.0024471951 0.0005511919
0.0011309878 0.0049663763 0.0030335227 0.000521728 -0.003028433 -0.0043942877 0.00027098425 0.0008619581
-0.0017264431 -0.00038725595 0.0014066637 -6.0568134e-05 3.19927e-05 -0.001086165 0.00037424872 -0.00034185732
0.00018094416 1.9530023e-07 1.5301959e-15 -0.000256536 -2.4727846e-05 0.0006428414 -5.3999265e-06 0.00021870853
-0.0008853856 -0.00043526245 8.630943e-05 -3.286502e-06 0.000829889 -0.0018462883 4.0185118e-05 -2.1756308e-05
3.0147924e-06 0.0010063305 0.00041874708 -0.00090419 0.00040813413 -0.00053910824 -4.9500354e-06 1.4955694e-05
-0.0016015541 -0.0009942233 0.00094545516 -0.000120791454 -0.00021287052 -0.0007927725 0.0015359034 -5.262499e-05
0.0014520881 -4.649207e-16 1.6634473e-14 -0.00016539589 -0.00078557536 0.0013134253 0.0009906999 0.0024234534
-0.0006376882 -0.00021018428 -0.0005855507 -0.0002043988 0.0014520724 -0.0012053278 0.001488476 -8.474386e-05
-0.00025151361 -0.00021832339 -0.0013023688 -0.00039274126 0.0010725029 0.0018182988 -0.00035627853 -0.00016177935
-0.00042220976 0.0003306526 -0.0010714332 -0.00017784665 -9.946415e-10 1.4452721e-06 0.00040863728 -1.3007294e-05
0.0006563798 -3.716118e-15 3.5972079e-09 -6.442819e-05 -0.0029016123 -0.0016329914 -0.0007735952 -4.3435713e-05
9.463142e-16 5.6556823e-05 0.00056914124 1.628441e-16 -0.0006362345 -0.00045214628 -0.00022269734 -1.2352224e-07
-4.5603077e-08 -0.0034939686 -0.0011728202 -9.893358e-07 7.584493e-05 1.2036649e-05 -8.3020935e-15 -1.921969e-12

exp_avg_sq f4 [32, 32]
00000000: 0e34 512d 503d 192b 97c5 c92c e660 782d
00000010: 947e 432c 1397 742a 9983 0f2d dbc3 ea2c
00000020: 1e27 d22c 688d a82c 8709 252d bb1e 2d2c
00000030: 49e5 492d cfb6 8a2d ad5c 1a2e e57b e42d
00000040: 8b12 e82a 218a 5d2d d241 952c 636e 262b
00000050: fca6 252d a1d8 382d 1596 552d c524 602c
00000060: 2e9d d328 e147 482d 808a c427 146c a42c
00000070: f843 142d b779 cb2d eb1c 7d2b 98d0 032d
00000080: 22bb fc35 8535 9e35 73e2 e936 8d64 8333
00000090: fa10 1b33 bc24 0a34 8215 9336 0662 3f35
000000a0: 93ae b636 d01d 872d 39f0 b82a 3c4f 8633
000000b0: b131 5834 8c93 c835 77d6 2635 ec28 5536
000000c0: 6095 9233 a1f1 7d33 bbfa 9036 4129 0f32
000000d0: f3f2 f135 0327 b834 8f50 a935 5682 9f32
000000e0: 0a21 a032 468c 6e36 7aa1 7236 f7e3 a532
000000f0: 4bab 1b36 5a10 1836 8f85 0830 5129 5732
00000100: 68e8 4337 2be3 dd36 06d2 e237 9cdb 1a35
00000110: b95e 1734 9ff8 4635 694c 8637 8b61 0836
00000120: e3d4 b337 baab 2f2c 5371 052c a067 3835
00000130: 9227 0836 5428 4436 0751 6735 8581 da36
00000140: ad92 1534 c473 1f35 c255 b737 a450 a731
00000150: cd20 8836 67d0 4336 4ff5 3736 04ed 3433
00000160: 13eb 1b33 7993 6937 1e60 9d37 6927 9934
00000170: 1c10 0937 3718 9c36 4bf3 d02e 1262 cb32
00000180: 56d0 2239 eb89 8b38 fe1c 8e39 1d7f bf36
00000190: c87f 7935 cd2c 8d37 4d88 5e39 d8a7 2c38
000001a0: 52ed 9839 f2b9 492b a447 212d c0a0 f036
000001b0: 364d 0d37 8937 9337 17cb e436 606b f238
000001c0: 3a7e aa36 5e6b d036 8ff4 7739 16a7 0934
000001d0: 8ea0 5d38 7811 0038 06c8 2638 44b0 8535
000001e0: 9045 df34 200a be38 b200 3139 7663 5636
000001f0: 8fb5 e638 f3d5 ac38 746d a831 1077 a834
00000200: 33dd 0c38 14d2 7e37 e3b3 c238 738f 9535
00000210: daae 2834 de16 3e36 23a8 ab38 6d25 5937
00000220: 8527 d838 a5e8 202d ff67 142c d131 ba35
00000230: 15d4 7c36 8f8d 9a37 be9d 7e37 436a 8e38
00000240: 474f 9335 a122 a235 16e4 8338 a62d c833
00000250: 75ae 0338 1d89 cb36 388a d637 0ffe 9733
00000260: cf7d 1234 786e 2838 8cc3 2e38 5674 2735
00000270: 69b3 3238 9b40 4e38 c2d5 2b32 6744 aa33
00000280: baef 0638 3295 5837 e782 2938 dcf9 4b35
00000290: c414 f833 8b5c 1a36 6bbe 1238 fddf 8936
000002a0: 1bda 5238 7853 622d f53c 3129 7851 9435
000002b0: 1d14 5831 6678 dc34 483a b334 ca77 1c37
000002c0: ee8e 6734 2bf2 8d35 5707 4b38 5997 8e31
000002d0: 64a2 c936 2f0f 1237 5100 7836 e99b 0933
000002e0: 998f 0033 22d7 4536 f7c9 b537 7d73 7535
000002f0: b45b 9537 5afe cb36 6511 0c2f 6d9f b732
00000300: 9bc4 6d36 a0b5 1435 e885 1137 0cb3 2e33
00000310: 7313 1235 2a5e 0635 6e59 6c37 7421 4f36
00000320: 0a6b 7837 9698 0628 ed29 132b c8b0 3e33
00000330: 19d1 e835 5f97 0837 f8e4 4537 1a28 dd37
00000340: 66f8 bb34 9647 2633 179e 3936 71ce e333
00000350: 3d7b 1037 4879 b334 03cc 3237 b712 2134
00000360: 0ce1 9b34 bde8 2b37 fc27 4436 b73e 1d33
00000370: 59a8 cd36 8fe3 ab37 bb1d 8534 4f24 2934
00000380: f8f1 1436 bd41 3737 44b2 2f38 9c2c f635
00000390: 1707 852c 758b aa2e 29d7 ac36 e713 9732
000003a0: e387 d236 2d35 6d2a ff5c a22c 6820 0a36
000003b0: 796e 9236 ece0 da36 788f 1035 331c de33
000003c0: 8b3c ef28 cbb7 de35 4593 b937 2237 a928
000003d0: ada5 4d36 648d 5335 523c 1234 8578 402d
000003e0: f108 0e2d 8294 1738 dea6 3738 ccd4 b032
000003f0: 23a4 8d36 cad4 c633 dffc a42a e575 2a2c
1.1891833e-11 5.444161e-13 5.7347005e-12 1.4118684e-11 2.7781432e-12 2.1723968e-13 8.1578294e-12 6.6724243e-12
5.972902e-12 4.7905464e-12 9.38128e-12 2.4601837e-12 1.1476439e-11 1.5769967e-11 3.509786e-11 2.597562e-11
4.1224345e-13 1.2593066e-11 4.2421422e-12 5.912824e-13 9.416242e-12 1.050729e-11 1.2140973e-11 3.1852726e-12
2.3493872e-14 1.1384644e-11 5.455109e-15 4.6731594e-12 8.427918e-12 2.313248e-11 8.992379e-13 7.492805e-12
1.8829926e-06 1.1787494e-06 6.9703033e-06 6.118453e-08 3.610419e-08 1.2865615e-07 4.3834452e-06 7.129569e-07
5.444346e-06 1.5360963e-11 3.2851654e-13 6.254274e-08 2.0134645e-07 1.4944103e-06 6.2151906e-07 3.1763293e-06
6.825826e-08 5.9125913e-08 4.3207233e-06 8.333076e-09 1.8026607e-06 3.4301056e-07 1.2614927e-06 1.8569306e-08
1.8641476e-08 3.5546414e-06 3.6154802e-06 1.9312195e-08 2.3196505e-06 2.2659283e-06 4.966631e-10 1.2524041e-08
1.1677017e-05 6.612759e-06 2.70391e-05 5.7689044e-07 1.4097431e-07 7.412254e-07 1.6009626e-05 2.0322357e-06
2.1437596e-05 2.4964323e-12 1.8963344e-12 6.8696136e-07 2.0288612e-06 2.922975e-06 8.6172116e-07 6.5119843e-06
1.3930067e-07 5.9400577e-07 2.1855234e-05 4.8695075e-09 4.0569344e-06 2.917857e-06 2.7411913e-06 4.212508e-08
3.630255e-08 1.3922218e-05 1.8760617e-05 2.8527145e-07 8.169587e-06 4.6519813e-06 9.5019624e-11 2.3676908e-08
0.00015527135 6.653726e-05 0.0002710595 5.7070415e-06 9.2945675e-07 1.6829372e-05 0.00021222346 4.1164312e-05
0.00029168517 7.1667596e-13 9.167698e-12 7.171271e-06 8.422232e-06 1.7549626e-05 6.8185723e-06 0.000115594594
5.0810895e-06 6.2113822e-06 0.00023646861 1.2819905e-07 5.2840034e-05 3.0533847e-05 3.976377e-05 9.960572e-07
4.15876e-07 9.061792e-05 0.00016880294 3.1946379e-06 0.000110010726 8.24145e-05 4.901887e-09 3.1379068e-07
3.358461e-05 1.5188492e-05 9.2841474e-05 1.1143114e-06 1.570983e-07 2.8325517e-06 8.185233e-05 1.2942922e-05
0.00010307044 9.1466045e-12 2.1089794e-12 1.3872578e-06 3.7674374e-06 1.8424149e-05 1.5176307e-05 6.7908804e-05
1.0975426e-06 1.2080019e-06 6.289051e-05 9.321529e-08 3.139531e-05 6.0658335e-06 2.5575151e-05 7.0776984e-08
1.3643078e-07 4.0157203e-05 4.166695e-05 6.238164e-07 4.2605596e-05 4.9174396e-05 1.0002113e-08 7.928684e-08
3.2171352e-05 1.29093405e-05 4.0414652e-05 7.5986986e-07 1.1552177e-07 2.3001655e-06 3.4986453e-05 4.108994e-06
5.0271028e-05 1.28651464e-11 3.9354767e-14 1.105057e-06 3.144357e-09 4.1065795e-07 3.3383753e-07 9.326215e-06
2.1565549e-07 1.0575799e-06 4.8405807e-05 4.14995e-09 6.0091716e-06 8.705813e-06 3.6955064e-06 3.2039598e-08
2.9932924e-08 2.9480511e-06 2.1670929e-05 9.143767e-07 1.7804887e-05 6.079482e-06 1.2739106e-10 2.1376502e-08
3.5430191e-06 5.5398596e-07 8.673851e-06 4.0675374e-08 5.441754e-07 5.0055917e-07 1.4087518e-05 3.0864876e-06
1.4806874e-05 7.471581e-15 5.2283075e-13 4.4398604e-08 1.7346202e-06 8.1414755e-06 1.1795426e-05 2.6363927e-05
3.5012198e-07 3.8714994e-08 2.7659169e-06 1.0608063e-07 8.6117625e-06 3.3429592e-07 1.0657127e-05 1.5001102e-07
2.9034743e-07 1.0246583e-05 2.922955e-06 3.661145e-08 6.1290743e-06 2.0490754e-05 2.4794812e-07 1.575256e-07
2.2194563e-06 1.0922956e-05 4.1889274e-05 1.8341411e-06 3.7808745e-12 7.7554775e-11 5.1510474e-06 1.7587764e-08
6.274307e-06 2.1068278e-13 4.6146416e-12 2.0582465e-06 4.364e-06 6.5230906e-06 5.3852955e-07 1.034281e-07
2.6560587e-14 1.659378e-06 2.2122296e-05 1.878668e-14 3.0643816e-06 7.8809376e-07 1.3619254e-07 1.0940697e-11
8.073751e-12 3.6139514e-05 4.3786007e-05 2.0585865e-08 4.2212355e-06 9.2587996e-08 2.9307717e-13 2.4223898e-12

exp_avg f4 [32]
00000000: 6c16 70b5 4f4b 303a 0f34 ae38 6283 33bb
00000010: f572 70bb 8a9a 043b 2351 113b b4e7 cbba
00000020: 15b9 7937 afdb b8bb a319 743c 6ea1 e23b
00000030: 3eae 1a3c 6c2a ca3c 2f1a c43b 4b98 22b7
00000040: 601e efba 24a8 7dbb 2d57 1d3a 6b80 d0bb
00000050: ef1a fcbb 52a2 d5ba a719 90ba 88e7 daba
00000060: f67d 7d3b 613b bcba 0cef 8138 f5bd b33c
00000070: bb0e d93a 7eb2 8cbb c298 a73b 08f8 7b3a
-8.9439595e-07 0.0006725089 8.306663e-05 -0.0027391543 -0.0036689613 0.0020233714 0.0022173605 -0.0015556724
1.4884649e-05 -0.0056414227 0.01489869 0.0069162166 0.009440957 0.024678431 0.0059845666 -9.691411e-06
-0.0018243305 -0.0038704956 0.0006002065 -0.006362965 -0.0076936404 -0.0016298986 -0.0010993973 -0.0016701082
0.0038679815 -0.0014360958 6.195725e-05 0.021941165 0.0016560176 -0.004293739 0.0051146457 0.00096118497

exp_avg_sq f4 [32]
00000000: 0c36 e02d 7c46 4737 29db 2638 6875 d839
00000010: d20d 3439 abf6 7538 6e2e e137 ea9c 6a38
00000020: f4ec e637 c2c9 a039 b8c4 d139 6452 a838
00000030: f74e 0639 81be 303a d8a2 9b38 4638 e634
00000040: 6b0a 2c38 b689 4739 913a 4538 85ad bd39
00000050: f8be c239 fcfa d937 c94b 4538 29cd 3b39
00000060: 82f0 f638 abbe 7337 07c8 8739 2867 103a
00000070: 941a b437 6bd7 5639 c458 1c39 6e98 0b38
2.5489853e-11 1.1877735e-05 3.9781593e-05 0.00041286205 0.00017171286 5.864228e-05 2.684371e-05 5.5936085e-05
2.7528476e-05 0.000306679 0.00040010153 8.026211e-05 0.00012808653 0.00067422545 7.421308e-05 4.2881783e-07
4.1017698e-05 0.0001902942 4.7023004e-05 0.0003617817 0.00037144846 2.598529e-05 4.703904e-05 0.00017910138
0.00011774992 1.4528322e-05 0.00025898239 0.00055085355 2.1470049e-05 0.0002048888 0.00014910387 3.3282144e-05

exp_avg f4 [32, 32]
00000000: 9956 4033 d8bd c03a 95a7 dfb9 400a 3eba
00000010: 9de2 0d3b a25c e9b9 c730 6bba 5c49 91b8
00000020: 97cb 9db9 816d d139 420e af39 58e5 1939
00000030: 7d54 2b39 787c e239 1a4c 2fba 3f1d 31b5
00000040: d564 443a b859 ce38 eeaa dcb9 0850 663a
00000050: f709 923a 9a52 30b9 3909 2fba 9e3e 02ba
00000060: 5f0e 6bba 685a 663a 1d2b 34ba d39f 9939
00000070: 5713 95b9 5617 093a cddc 7eba d261 baba
00000080: 0d97 5fb3 1248 cd3a 3b7d e9b9 0f10 4dba
00000090: 0b35 173b 41fc f9b9 00a4 79ba 512d a1b8
000000a0: ae6d a2b9 5178 d539 f037 b939 bb6e 0339
000000b0: d43f 3b39 5028 e639 21ef 38ba 359b 9db6
000000c0: e975 533a e887 df38 f01e edb9 8a73 7c3a
000000d0: 8a0b 9c3a 6fd3 45b9 b78a 3dba 6405 0eba
000000e0: 31b7 7aba 2166 783a aaa5 40ba 0a35 a539
000000f0: 3e7d 9bb9 7044 163a a855 87ba 5c54 c3ba
00000100: 608a 9b32 615f adb4 66f0 b836 f1a9 42b5
00000110: 97b0 2ab5 d56c c935 37ab 2d36 234e 5cb5
00000120: ce85 a236 badd 91b5 c390 bd33 35da 0037
00000130: 9c8b 8f34 3cc7 d0b3 d776 8936 9a83 7ca5
00000140: b541 f735 386f 4b36 a632 cb36 49a3 8fb6
00000150: 63c4 7c27 3a81 c835 1609 de33 ce85 3e33
00000160: 62af 08b7 e4ec cdb5 88dc 40a6 5174 e3a6
00000170: d6c5 b536 c6d2 3434 9b12 37b4 bcb0 dcb5
00000180: 2467 be33 0e60 f13a 7d84 0aba df64 77ba
00000190: 0252 303b 1b4b 18ba 0ab1 91ba 1dc1 c6b8
000001a0: fa78 cab9 db65 023a 5275 de39 9239 2139
000001b0: 4c0e 7039 e1d8 0f3a 2be2 59ba 3518 59b7
000001c0: 2458 7e3a 4c59 1139 8d7d 0eba 5db6 913a
000001d0: 69ae b73a 3687 76b9 651b 60ba 0ede 26ba
000001e0: 8332 95ba 827e 8f3a 0d62 6dba 0086 c739
000001f0: e0c0 b3b9 7296 2c3a 3ce5 9bba 5658 e6ba
00000200: 357f 8bb3 cd4d 4eb8 4f2b 9d38 67de f0b6
00000210: 44fe f2b9 671f cb36 d595 87b9 a2d2 5c38
00000220: f10e ad38 c7f1 743a 3c82 deb9 7e2b a3b9
00000230: 07e8 88b9 25b5 0aba 2262 afb8 f05a 7e37
00000240: 98db 0fb8 63d9 1f3a e6db b738 e336 3b3a
00000250: d415 7cb9 8323 9b25 23d7 563a 9066 0f38
00000260: 1c42 85b7 c78f 5b3a e659 1639 0004 c4b9
00000270: 5fbc d0b9 eb67 fa39 428f c237 75f2 4739
00000280: d6e6 f4a6 1df1 82b3 6be8 8837 2aca 91a9
00000290: 61fd 41b6 adab 2136 1476 6fb7 694b 4435
000002a0: 527a 1bb7 e77b 9935 9b90 a9a4 fbaf db34
000002b0: 45ad 83b7 150a 44b7 a708 cb36 4e28 5337
000002c0: f403 04b7 83a6 c036 b938 feb6 d2de 4036
000002d0: f8b2 6637 33ed b532 55e9 71b7 a996 1f30
000002e0: ff7d e736 8d9b 56b4 ad30 a134 019c 5da8
000002f0: 1a51 35b6 08e1 cfb6 e738 dfb3 34b4 2636
00000300: 9f97 4a33 1bd3 92b8 18e5 c938 fb2a 83b7
00000310: 99a5 dbb8 c620 b3b6 74ce 78b9 30cf a938
00000320: 66ae e038 7941 9a3a be88 fdb9 6aa0 ccb9
00000330: a816 b2b9 f8c0 14ba 9953 12b9 2b07 fbb5
00000340: 5ae4 cdb8 ecd1 693a decf e638 cc84 643a
00000350: cf20 18b8 011a e4b3 ad62 873a b421 5538
00000360: 629f 6339 8fbd a53a 676c 3a39 bbd5 d9b9
00000370: 92eb a4b9 d8e4 2b3a 8288 a2b6 e34d db39
00000380: 134e 9434 aef2 0b20 b358 cf32 ffe5 fc2f
00000390: ed8a 3e32 9ac3 a2b4 f636 7033 815a acb3
000003a0: 17b9 0b34 4de6 2ca5 842f fbb3 802b 30a8
000003b0: adb0 46a6 6f21 0eb4 bcb1 2ea8 0411 97a5
000003c0: 665c fd32 6e17 8da8 6d91 4c2f 66bf 81a5
000003d0: 469b bd24 5936 49a7 e2b0 12b1 b9c3 84b3
000003e0: fd22 8fa8 3069 44b4 5eea 38ab e4ac 1025
000003f0: 3034 1db1 6ab0 1b2a 3bf6 35a7 2361 51a6
4.4782244e-08 0.0014705015 -0.00042658733 -0.0007249452 0.0021649965 -0.0004451024 -0.0008971807 -6.927803e-05
-0.0003009706 0.00039945173 0.00033389224 0.00014676654 0.00016339305 0.00043198816 -0.000668706 -6.5980197e-07
0.0007491832 9.839557e-05 -0.00042089022 0.00087857293 0.0011141886 -0.0001681544 -0.00066770945 -0.0004968437
-0.000896668 0.00087872753 -0.00068728795 0.00029301512 -0.00028433904 0.00052296126 -0.0009722233 -0.0014219827
-5.2058613e-08 0.0015661737 -0.00044534527 -0.00078225223 0.0023072388 -0.00047680925 -0.0009523034 -7.685519e-05
-0.00030980766 0.0004071617 0.00035327626 0.00012534384 0.00017857488 0.00043899054 -0.0007054676 -4.697033e-06
0.0008066581 0.00010658783 -0.00045227213 0.0009630254 0.0011905294 -0.00018866149 -0.0007230448 -0.00054176734
-0.0009564041 0.00094756676 -0.00073489046 0.0003151077 -0.00029657217 0.0005732244 -0.001032521 -0.001490246
1.81073e-08 -3.2293158e-07 5.5116134e-06 -7.251793e-07 -6.3586907e-07 1.5007341e-06 2.587867e-06 -8.207009e-07
4.843553e-06 -1.0867873e-06 8.82733e-08 7.6802e-06 2.6737405e-07 -9.721995e-08 4.096753e-06 -2.1902104e-16
1.8422057e-06 3.0314095e-06 6.0557677e-06 -4.280741e-06 3.5078487e-15 1.4938771e-06 1.0339333e-07 4.4359517e-08
-8.147066e-06 -1.5342634e-06 -6.6912257e-16 -1.5782817e-15 5.4172515e-06 1.6840485e-07 -1.7049972e-07 -1.6442714e-06
8.8663256e-08 0.0018415467 -0.00052840245 -0.0009437333 0.002690435 -0.00058095314 -0.0011115384 -9.477346e-05
-0.00038618577 0.0004974284 0.0004243055 0.00015375603 0.0002289351 0.00054873346 -0.0008311595 -1.2939844e-05
0.0009702465 0.00013861543 -0.00054355786 0.001111697 0.001401377 -0.00023510758 -0.0008549004 -0.0006365486
-0.0011382852 0.0010947736 -0.0009055443 0.00038056076 -0.00034285244 0.00065836974 -0.0011893879 -0.0017573934
-6.495831e-08 -4.9186685e-05 7.49441e-05 -7.1784484e-06 -0.0004634728 6.053527e-06 -0.0002586084 5.2648254e-05
8.252066e-05 0.0009343889 -0.00042440172 -0.00031122187 -0.00026112815 -0.0005291275 -8.362929e-05 1.5160753e-05
-3.429837e-05 0.0006097762 8.767079e-05 0.00071416626 -0.00024040724 2.6912278e-16 0.000819551 3.4189376e-05
-1.588562e-05 0.00083756115 0.00014338605 -0.00037387013 -0.000398132 0.0004776114 2.3193312e-05 0.00019068441
-1.6993469e-15 -6.097455e-08 1.6320691e-05 -6.4743634e-14 -2.8906727e-06 2.4090798e-06 -1.4273002e-05 7.3125426e-07
-9.2672e-06 1.1435449e-06 -7.353704e-17 4.091997e-07 -1.5697102e-05 -1.1684858e-05 6.0508787e-06 1.2585964e-05
-7.8687335e-06 5.7414304e-06 -7.5763933e-06 2.8739928e-06 1.3750738e-05 2.1179039e-08 -1.4419046e-05 5.8057964e-10
6.8990043e-06 -1.9986892e-07 3.0024003e-07 -1.2301792e-14 -2.701831e-06 -6.195278e-06 -1.0394597e-07 2.484082e-06
4.716969e-08 -7.001144e-05 9.627099e-05 -1.5636431e-05 -0.00010473579 -5.338431e-06 -0.00023728033 8.09714e-05
0.000107136366 0.001176878 -0.000483578 -0.0003902943 -0.00033967686 -0.00056745065 -0.00013954788 -1.8703043e-06
-9.8176955e-05 0.00089195254 0.00011005973 0.0008717298 -3.627018e-05 -1.06218074e-07 0.001032909 5.0814546e-05
0.00021707782 0.0012644994 0.00017778725 -0.00041548707 -0.0003145603 0.00065572327 -4.843868e-06 0.00041828965
2.7623955e-07 1.1854054e-19 2.4138307e-08 4.6001955e-10 1.1091044e-08 -3.031717e-07 5.592934e-08 -8.025837e-08
1.3012719e-07 -1.4996651e-16 -1.1696741e-07 -9.779395e-15 -6.893449e-16 -1.3236944e-07 -9.69748e-15 -2.6205855e-16
2.9495094e-08 -1.5664306e-14 1.8605358e-10 -2.250763e-16 8.222873e-17 -2.7923815e-15 -2.1346342e-09 -6.182331e-08
-1.5891363e-14 -1.829219e-07 -6.569518e-13 1.2548587e-16 -2.2876172e-09 1.3827971e-13 -2.5252278e-15 -7.2643086e-16
