checkpoints/standard/standard_epoch0005.pt (torch, 37861 bytes, 24 tensors)

0.weight f4 [32, 2]
0	0x3f111a6d	0.5668095
1	0x3f13847d	0.57624036
2	0xbe206bce	-0.15666124
3	0x3f2ddcda	0.6791512
4	0xbe0a4ab8	-0.13505065
5	0x3e3826d1	0.17983557
6	0xbebf5513	-0.37369594
7	0x3ee2ae9d	0.44273844
8	0x3f1863bb	0.59527177
9	0xbefa358c	-0.48868978
10	0x3f1ba050	0.6079149
11	0x3e2a873b	0.16653149
12	0x3f086c57	0.53290313
13	0x3d61a304	0.055087104
14	0x3ea933f7	0.3304746
15	0xbddcdf21	-0.10784746
16	0x3f0b1a6e	0.54337204
17	0x3df69dac	0.12041792
18	0xbe94d14b	-0.29065928
19	0x3e10ad6a	0.14128652
20	0xbe929c9d	-0.2863511
21	0xbd3a332c	-0.045458958
22	0xbea07fda	-0.31347543
23	0x3f00b9c6	0.5028347
24	0xbf14a775	-0.5806802
25	0xbeb97ae0	-0.3622656
26	0xbe433284	-0.19062239
27	0xbee3e33e	-0.4450931
28	0x3d9d1b15	0.07671181
29	0xbf362fae	-0.71166503
30	0x3f20d38a	0.62822783
31	0xbf1a0afe	-0.6017302
32	0x3f0c182b	0.5472438
33	0x3da44586	0.08021073
34	0xbe89879e	-0.2686128
35	0x3ef3d014	0.4761969
36	0x3ddc3646	0.10752539
37	0x3f1ac421	0.6045552
38	0x3de23500	0.11045265
39	0xbe819b72	-0.25313908
40	0x3e2a88af	0.16653703
41	0xbe699dc4	-0.22814089
42	0x3e8cb3f7	0.27481052
43	0x3f1bef71	0.60912234
44	0x3ec61d02	0.38694006
45	0xbeb09b4c	-0.34493482
46	0x3ecf04c4	0.40433323
47	0x3db6e39c	0.08930132
48	0x3ea6879b	0.32525334
49	0xbed80aa2	-0.42195612
50	0xbf2d7776	-0.6776041
51	0xbe9c7780	-0.3055992
52	0xbf0bd5e3	-0.5462324
53	0x3f1e87a7	0.6192574
54	0x3e38e96d	0.18057795
55	0x3e880b6a	0.26571208
56	0x3e64919d	0.22321172
57	0x3c8e4c92	0.017370496
58	0x3f0acd31	0.5421935
59	0xbf0ade48	-0.54245424
60	0x3da79803	0.08183291
61	0xbf0667ef	-0.5250234
62	0x3e83ff44	0.2578069
63	0xbe920817	-0.28521797

0.bias f4 [32]
0	0x3e745a75	0.23862632
1	0xbdf65548	-0.12027985
2	0x3f184981	0.5948716
3	0xbec8589e	-0.3913011
4	0xbee616d6	-0.44939297
5	0xbed42ff7	-0.41442844
6	0x3f2b1872	0.66834176
7	0x3e72fb84	0.23728758
8	0x3f2e066b	0.67978543
9	0xbf0b3b24	-0.54387116
10	0xbf29602e	-0.66162384
11	0xbf04349b	-0.5164277
12	0xbee06ed8	-0.43834567
13	0x3e98763f	0.29777715
14	0x3e862345	0.26198784
15	0x3f138368	0.57622385
16	0xbebca729	-0.36846283
17	0xbee296ad	-0.44255581
18	0x3ec62f2a	0.38707858
19	0xbe807187	-0.25086614
20	0x3ed6df67	0.41967317
21	0xbe41293f	-0.1886339
22	0x3ed0acfd	0.4075698
23	0xbf03557d	-0.5130232
24	0xbebbc5fa	-0.36674482
25	0x3e645cd7	0.2230104
26	0x3e33d711	0.1756251
27	0xbe512f4b	-0.20428197
28	0x3ed61475	0.41812482
29	0x3f01ec69	0.5075136
30	0xbef0966e	-0.4698977
31	0xbeac0862	-0.33600146

2.weight f4 [32, 32]
0	0x3dfbfe67	0.12304383
1	0xbcc05918	-0.023479983
2	0xbcd7266e	-0.026263442
3	0xbe0753c9	-0.13215555
4	0xbd8180a7	-0.063233666
5	0x3c222491	0.009896413
6	0x3b167b3b	0.0022961635
7	0xbdb7ff39	-0.08984227
8	0x3801da9c	3.0959593e-05
9	0xbda8b8f0	-0.08238399
10	0xbde3da25	-0.11125592
11	0xbd737483	-0.059437286
12	0xbded78cc	-0.11595306
13	0xbd98394f	-0.07432806
14	0x3e0d1541	0.13777639
15	0x3afe6f11	0.0019411762
16	0x3c99ec12	0.018789325
17	0xbe010ddf	-0.12602948
18	0xbd9f59e5	-0.07780818
19	0xbcba483e	-0.022739526
20	0xba8e06ad	-0.001083573
21	0xbdef296b	-0.11677822
22	0xbd1fa996	-0.03898009
23	0xbd8ab562	-0.06772877
24	0xb8423aae	-4.6307854e-05
25	0xbceeda90	-0.029156953
26	0xba06d2e9	-0.00051431224
27	0xbda6c780	-0.0814352
28	0xbda9e75b	-0.08296081
29	0xbd854cce	-0.0650879
30	0xbcc6d107	-0.024269594
31	0xbdceab34	-0.10091248
32	0x3e179a63	0.14804988
33	0xbca635e5	-0.02028937
34	0x3e2bcb9c	0.1677689
35	0x3d9fe707	0.07807737
36	0xbde3474a	-0.11097582
37	0x3daeb3e6	0.08530407
38	0xbd39ddc5	-0.04537751
39	0xbd9dfc04	-0.07714084
40	0xbe11e439	-0.14247216
41	0xbe0c1a73	-0.13681965
42	0x3c7b5ba6	0.015341675
43	0xbc245e64	-0.01003227
44	0x3d853d83	0.06505873
45	0xbe0b8420	-0.1362462
46	0x3dd37cdb	0.10326549
47	0xbe056a98	-0.13028944
48	0xbd2d7f81	-0.042357925
49	0x3d814ffc	0.06314084
50	0x3dd34000	0.103149414
51	0x3dd52025	0.10406522
52	0x3e2906be	0.16506478
53	0xbe11d296	-0.14240488
54	0x3d23c382	0.039981373
55	0xbd1f256b	-0.038854044
56	0x3b12bfa7	0.0022392066
57	0xbde25995	-0.11052243
58	0x3e37589c	0.17904896
59	0xbe1a2a92	-0.15055302
60	0x3dd16d42	0.102259174
61	0x3d6b36b3	0.057425212
62	0x3cafdc08	0.021467224
63	0xbd6c63db	-0.057712417
64	0x3e2782bf	0.1635847
65	0x3d083eb3	0.03326292
66	0x3caf19ef	0.02137467
67	0xbe103c15	-0.1408542
68	0x3d43e0da	0.047821857
69	0xbca367c7	-0.019946946
70	0xbda3b157	-0.07992809
71	0x3e19fddb	0.15038244
72	0x3d2566bb	0.040381175
73	0xbd754cd1	-0.05988771
74	0xbd541e30	-0.0517866
75	0x3a8525d1	0.0010158365
76	0x3d91a658	0.07111806
77	0xbd8712e9	-0.06595404
78	0xbe03a3ce	-0.12855455
79	0xbd886c46	-0.066612765
80	0xbe009808	-0.12557995
81	0x3d865037	0.065582685
82	0x3e15274d	0.14565773
83	0xbe02a091	-0.12756564
84	0x3d0b4a53	0.034006428
85	0x3dcc6bee	0.099815235
86	0x3ce28e03	0.027655607
87	0xbd7985dd	-0.060918678
88	0x3d7c403a	0.06158469
89	0x3da31be4	0.07964304
90	0x3d786a8b	0.060648482
91	0xbc7953e5	-0.015217756
92	0xbd446665	-0.047949214
93	0x3c4e24ed	0.012582046
94	0xba2cd8c6	-0.0006593581
95	0xbdadff92	-0.08496012
96	0x3e0423b1	0.1290424
97	0x3e1c122e	0.1524131
98	0xbcab8195	-0.020935813
99	0xbd57ee0a	-0.052717246
100	0xb8725d52	-5.7784207e-05
101	0x3c95d922	0.018292014
102	0x3d614765	0.054999728
103	0x3d9e37e2	0.077255026
104	0xbe17389a	-0.14767686
105	0xbceab504	-0.028650768
106	0x3de19acc	0.11015853
107	0x3d544f4a	0.05183343
108	0x3b8e4cef	0.0043426673
109	0xbdddbf8e	-0.10827552
110	0xbd8f5e2c	-0.07000384
111	0xbdfa072f	-0.122084014
112	0xbca9b8df	-0.020718036
113	0x3d3a277d	0.045447815
114	0x3dee16cb	0.11625441
115	0x3d350c4d	0.044201184
116	0xbe16fc0a	-0.14744583
117	0xbdaf88d2	-0.08571018
118	0xba9d5aca	-0.0012005207
119	0x3e074882	0.13211253
120	0xbaecfd91	-0.001808094
121	0xbd84bc85	-0.0648127
122	0x3d87f85d	0.066391684
123	0xbd0ca88d	-0.03434043
124	0xbdd95eb5	-0.10613767
125	0x3e118895	0.14212258
126	0xbd302e62	-0.043012984
127	0xbb5706bf	-0.0032810417
128	0xbe1fa10a	-0.15588775
129	0x3e0abd5e	0.135488
130	0x3e14d48f	0.1453421
131	0x3da12b16	0.07869546
132	0xbdadc895	-0.084855236
133	0xbe0ace10	-0.13555169
134	0xbe02a182	-0.12756923
135	0x3dfc7b5f	0.12328219
136	0x3dcb0c02	0.099144
137	0x3de1616d	0.110049106
138	0x3d609366	0.05482807
139	0x3d7f3232	0.06230373
140	0xbc039256	-0.008030495
141	0xbe0eae3e	-0.13933656
142	0xbe17b876	-0.1481646
143	0xbe2cfe96	-0.16893992
144	0x3d10d73e	0.03536152
145	0xbd81d959	-0.06340284
146	0xbc9bea7e	-0.019032713
147	0xbd828161	-0.06372333
148	0xbcf1decd	-0.029525185
149	0xbdd20821	-0.10255457
150	0xbdf7a9b0	-0.12092912
151	0x3cb8c48f	0.022554664
152	0xbc8bca8d	-0.017064357
153	0x3dd9a4e2	0.10627152
154	0xbd2d3395	-0.04228552
155	0xbdc37833	-0.095444106
156	0xbc8b1c43	-0.01698125
157	0xbdc0280f	-0.093826406
158	0xbc970ce0	-0.018438756
159	0xbe048618	-0.12941778
160	0x3e035ceb	0.12828414
161	0xbdcbbede	-0.099485144
162	0x3dd99117	0.10623377
163	0x3dccc1a5	0.09997872
164	0x3dd20156	0.10254161
165	0xbdce51a1	-0.10074163
166	0x3e1aada0	0.15105295
167	0xbd7333fc	-0.059375748
168	0x3db8302f	0.08993565
169	0x3e02359a	0.1271576
170	0x3b01de05	0.0019816172
171	0x3cc31926	0.023815703
172	0xbbe9b318	-0.0071319453
173	0xbe0b27b5	-0.13589366
174	0x3d94a7c4	0.07258561
175	0xbe1ee87d	-0.15518375
176	0x3e0f8441	0.14015295
177	0x3e1ec5de	0.15505168
178	0x3e47389b	0.19455187
179	0xbc0546d4	-0.0081345625
180	0xbe015751	-0.12630965
181	0x3d98e161	0.074648626
182	0x3dede075	0.116150774
183	0xbe154d81	-0.14580347
184	0xbd350ed3	-0.04420359
185	0xbddbeade	-0.10738157
186	0xbb2262fe	-0.0024778242
187	0xbd405960	-0.046960235
188	0xbd481b1e	-0.048853986
189	0xbd157256	-0.036485992
190	0xbe043845	-0.1291209
191	0x3dd1bb0f	0.10240757
192	0x3dfee230	0.124454856
193	0xbd6717f7	-0.05641934
194	0xbca2dc3a	-0.019880403
195	0xbdd03478	-0.101662576
196	0xbe01dbe9	-0.12681545
197	0xbe356d73	-0.17717533
198	0x3da0e50b	0.078561865
199	0xbd997d7e	-0.07494639
200	0xbdcfd568	-0.10148126
201	0x392d8fa3	0.00016552075
202	0xbcba7cde	-0.02276462
203	0xbdb024ec	-0.08600792
204	0x3d270d86	0.04078438
205	0xbb9b4902	-0.004738928
206	0xbce4ebcf	-0.027944474
207	0xbd67fbea	-0.05663673
208	0xbe14721f	-0.14496659
209	0x3de9d6c8	0.114179194
210	0xbdcb0639	-0.09913296
211	0x3db17552	0.08664955
212	0xbd0be73a	-0.03415606
213	0xbc8f6c1b	-0.017507603
214	0x3e448e48	0.19194901
215	0x3da95420	0.08267999
216	0xbdf3c4ce	-0.11902772
217	0x3dc76b04	0.097372085
218	0x3e152155	0.14563496
219	0x3c6699a1	0.014074714
220	0x3e0b8bb3	0.1362751
221	0x3e4f6757	0.20254265
222	0x3c415cc9	0.011801907
223	0x3d9de23c	0.077091664
224	0xbdd00ed1	-0.10159076
225	0xbbce6688	-0.006298844
226	0x3e1a2c1c	0.15055889
227	0x3e04455b	0.12917082
228	0xbd96d1f4	-0.07364264
229	0xbdd32ea4	-0.1031163
230	0xbdd4c358	-0.10388821
231	0xbe1b8241	-0.15186407
232	0xbdf3b6aa	-0.11900075
233	0xbc1c366e	-0.009534461
234	0x3da5cc67	0.08095627
235	0x3d8f5aaf	0.069997184
236	0xbe16a78e	-0.14712355
237	0xbe147f41	-0.14501669
238	0x3d8081b1	0.06274737
239	0xbdf3f140	-0.11911249
240	0x3b1ee655	0.0024246175
241	0x3e009a85	0.12558945
242	0xbd62f954	-0.05541356
243	0x3b1199d2	0.0022216928
244	0xbc967ac0	-0.018369079
245	0xbc7c21db	-0.015388931
246	0xbda22ba9	-0.07918484
247	0xbdf34bb5	-0.11879674
248	0xbdd58021	-0.10424829
249	0xbdac6a4e	-0.084187135
250	0x3e4985a9	0.19679894
251	0xbd5f79c5	-0.054559488
252	0xbdd5b143	-0.104342006
253	0x3d5ddedb	0.05416761
254	0x3c60fff3	0.013732898
255	0x3d718336	0.058963023

2.bias f4 [32]
0	0xbd57a4cd	-0.0526474
1	0xbe04a5fa	-0.1295394
2	0x3b57db49	0.00329371
3	0xbdd7ea8e	-0.10542785
4	0x3e1f4722	0.15554479
5	0xbe1821a3	-0.14856581
6	0x3dc63339	0.09677739
7	0x3e4525d7	0.19252716
8	0x3dd17987	0.102282576
9	0x3d9d6dcd	0.076869585
10	0xbe065919	-0.13119926
11	0x3e486ce3	0.19572787
12	0xbba534fc	-0.0050417166
13	0xbe252627	-0.16127835
14	0x3e36a3f4	0.1783598
15	0xbdc5c636	-0.09656946
16	0x3c82198e	0.015881326
17	0x3e29dac8	0.16587365
18	0xbe1230e8	-0.14276469
19	0xbdbd1bb1	-0.09233797
20	0x3ca33538	0.019922838
21	0xbd4719e1	-0.048608664
22	0x3d7f4867	0.062324908
23	0xbdee3a91	-0.116322644
24	0x3c59e5c2	0.013299407
25	0xbd83f3d3	-0.0644299
26	0xbda8dd0a	-0.08245285
27	0xbe11d401	-0.1424103
28	0x3d8a6519	0.06757564
29	0x3d85d256	0.06534259
30	0xbdec68f8	-0.11543459
31	0x3e1644c0	0.14674664

4.weight f4 [32, 32]
0	0x3c917978	0.017758116
1	0x3d8cd793	0.06877055
2	0xbd8a396a	-0.06749232
3	0x3d88ab33	0.06673279
4	0x3e494435	0.19654925
5	0x3e24fe32	0.16112593
6	0xbde5fe5b	-0.11230155
7	0x3e47a116	0.19495043
8	0x3d4c6f9e	0.049911134
9	0x3df45379	0.11929984
10	0x3dca282c	0.098709434
11	0x3e0b3d16	0.13597521
12	0xbe1959ab	-0.14975612
13	0x3e0fc810	0.14041162
14	0xbe00d7bd	-0.12582298
15	0xbbe3896b	-0.0069438717
16	0xbdadb8bd	-0.08482502
17	0xbbd95c92	-0.0066333497
18	0x3c58f447	0.013241834
19	0x3ca880ce	0.020569231
20	0xbd278727	-0.040900376
21	0x3d2bac87	0.04191258
22	0x3e4ba8b3	0.19888572
23	0x3e02fba6	0.12791309
24	0x3dc5beb6	0.09655516
25	0x3dad0647	0.08448463
26	0x3e312ef1	0.17303063
27	0xba0e8ae6	-0.00054375676
28	0x3d1808ab	0.03711764
29	0x3d99592b	0.074877106
30	0xbe38bff9	-0.18041982
31	0xbe1f9c48	-0.1558696
32	0xbb1f016e	-0.0024262327
33	0xbcfc2193	-0.030777728
34	0x3d112123	0.035431992
35	0x3a512da6	0.00079795194
36	0x3d607e07	0.05480769
37	0x3e1f984d	0.15585442
38	0xbd4225fe	-0.047399513
39	0x3e33b4a9	0.17549385
40	0x3e354bce	0.17704698
41	0xbdc86a81	-0.09785939
42	0xbdc89082	-0.09793188
43	0xbe314115	-0.17309983
44	0xbe01b58c	-0.12666911
45	0xbdc3ba51	-0.095570214
46	0xbd222a63	-0.039591204
47	0xbd8f835a	-0.07007475
48	0xbd49e7ff	-0.049293514
49	0xbcba65ba	-0.022753585
50	0xbd20990a	-0.03920845
51	0x3e5d02d9	0.21583118
52	0xbdb8f77b	-0.09031578
53	0xbdc1f2e1	-0.094701536
54	0x3dab0c05	0.08351902
55	0x3cfae46b	0.030626496
56	0x3de28469	0.110604115
57	0x3de3db32	0.111257926
58	0x3e4b074f	0.19827007
59	0xbdba7659	-0.09104604
60	0x3e0cf4d5	0.13765271
61	0x3e407143	0.18793206
62	0xbe02c389	-0.12769903
63	0x3e066c2a	0.13127199
64	0x3dc07ca8	0.09398776
65	0xbc0647b1	-0.0081958035
66	0x3d8d0272	0.06885232
67	0xbd95297f	-0.072833054
68	0xbe0bdd99	-0.13658752
69	0x3cd43bfa	0.025907505
70	0x3d16fad5	0.036860306
71	0xbde753cd	-0.112952806
72	0x3d8dd866	0.0692604
73	0xbe1c6027	-0.15271054
74	0x3de83cdf	0.11339735
75	0x3e1a771e	0.15084502
76	0x3cf99a61	0.030469121
77	0xbdcf5779	-0.10124106
78	0x3d8c16ef	0.06840312
79	0x388baef0	6.660621e-05
80	0x3cfccb66	0.030858707
81	0x3d2abf73	0.041686486
82	0x3dee7265	0.11642913
83	0xbdbef22a	-0.09323533
84	0xbc198efc	-0.009372469
85	0x3d1616d5	0.036642868
86	0x3b05e0c3	0.0020428158
87	0x3dd4ca9c	0.10390207
88	0xbddc145e	-0.10746072
89	0xbcbaf3bb	-0.022821298
90	0x3ae153d7	0.0017191124
91	0xbc483c40	-0.012221396
92	0x3ddcce2a	0.1078151
93	0x3b562197	0.003267383
94	0xbdff123c	-0.1245465
95	0xbd01a3fa	-0.03165052
96	0xbd2f62ab	-0.042818706
97	0x3d5436ee	0.051810198
98	0x3c688fcd	0.014194441
99	0xbe0b6b29	-0.13615097
100	0xbbc06591	-0.0058714827
101	0x3cb63545	0.022242198
102	0xbd07f742	-0.033194788
103	0x3e48371f	0.19552277
104	0xbb5fea58	-0.003416678
105	0x3e17e8b8	0.14834869
106	0x3c1d346e	0.00959502
107	0xbe2f8930	-0.17142177
108	0x3c9e4b48	0.019323006
109	0x3df98a51	0.12184585
110	0xbe074647	-0.13210402
111	0xbe0c0b7f	-0.1367626
112	0x3e57b312	0.21064404
113	0x3e317a86	0.17331895
114	0xbd9f83ad	-0.07788787
115	0x3e1737fb	0.14767449
116	0xbd23e9f2	-0.04001803
117	0xbe16ec99	-0.14738692
118	0x3cfd353a	0.03090917
119	0x3db5afd9	0.08871431
120	0xbd879a78	-0.066212595
121	0x3d8ccbc0	0.068748
122	0xbdec2eb6	-0.11532347
123	0x3dac3218	0.08407992
124	0x3e30be60	0.17260122
125	0x3e0a73c1	0.13520719
126	0xbb1494fa	-0.0022671805
127	0x3d161e59	0.036650036
128	0xbdb7296d	-0.08943448
129	0xbd0cf124	-0.034409657
130	0xbd49bc97	-0.04925212
131	0xbd8ff235	-0.07028619
132	0xbdd20a52	-0.10255875
133	0x3dab0ca0	0.083520174
134	0x3e101aae	0.14072677
135	0xbe08159b	-0.13289492
136	0x3d16daf1	0.036829893
137	0x3d77937c	0.060443386
138	0x3e0428d5	0.12906201
139	0x3e06ac45	0.13151653
140	0x3e44b2f3	0.19208889
141	0xbcf132b9	-0.029443132
142	0x3e1ddaee	0.15415546
143	0x3e2b98ba	0.1675748
144	0xbe4b35c8	-0.19844735
145	0xbe194950	-0.14969373
146	0x3c959355	0.01825873
147	0x3d7aadca	0.061200894
148	0xbd72f284	-0.059313312
149	0xbb13dac8	-0.0022560824
150	0x3ce40ca7	0.027838064
151	0x3c27f1e7	0.010250545
152	0xbd7a7602	-0.061147697
153	0x3dd9c9de	0.10634206
154	0x3da26240	0.07928896
155	0xbdac68f2	-0.08418454
156	0xbbb50f61	-0.005525515
157	0xbcad4ca9	-0.021154718
158	0x3dc4e3bf	0.096137516
159	0x3e49e51f	0.19716309
160	0x3c86c352	0.016450558
161	0xbd065b84	-0.03280212
162	0x3e327291	0.17426516
163	0xbcfa496d	-0.03055259
164	0xbd519ca1	-0.051174764
165	0x3cf0f10c	0.029411815
166	0xbe17d475	-0.1482714
167	0x3c4e4b6b	0.012591223
168	0xbdfffb3c	-0.12499091
169	0x3cb8a45b	0.022539308
170	0xbacd1c9c	-0.0015648785
171	0x3bafe43a	0.005367783
172	0xbe2a68a7	-0.16641484
173	0xbe2ce213	-0.16883115
174	0x3d80c4d9	0.06287546
175	0x3e06c9e9	0.1316296
176	0xbe173c73	-0.14769153
177	0x3d7b11b6	0.061296187
178	0xbdeb53ca	-0.11490591
179	0x3d00f30f	0.0314818
180	0x3e130ca4	0.14360291
181	0x3dc3b259	0.095555015
182	0xbe17de25	-0.14830835
183	0x3d91c512	0.07117666
184	0x3d91e673	0.07124033
185	0xbb071d89	-0.002061697
186	0x3e097b6a	0.13425985
187	0xbd087d0f	-0.03332239
188	0xbd0fc9d7	-0.0351046
189	0xbda87d0f	-0.08226978
190	0x39682764	0.00022139918
191	0x3cd7dc31	0.026350113
192	0xb9a01566	-0.0003053352
193	0xbd809542	-0.06278469
194	0xbdd7c931	-0.10536421
195	0x3cc3f645	0.023921141
196	0xbdf344ff	-0.11878394
197	0xbd823c53	-0.06359162
198	0x3cc75ca5	0.024336169
199	0xbd2362e7	-0.039889243
200	0x3d94ab27	0.07259207
201	0x3bcf2dea	0.006322612
202	0x3daf7e1d	0.08568976
203	0x3c8f77f3	0.017513251
204	0xbda434c9	-0.080178805
205	0x3e1b656a	0.15175405
206	0x3d69dea9	0.05709711
207	0xbccb5161	-0.024819078
208	0xbdda91c1	-0.106723316
209	0x3d459595	0.048238356
210	0xbe154782	-0.1457806
211	0x3c676b73	0.014124739
212	0x3df15d40	0.11785364
213	0xbdee2f77	-0.11630147
214	0xbda88b8e	-0.08229743
215	0xbdb56e94	-0.08858982
216	0x3e3cbb0f	0.18430732
217	0x3e289d38	0.16466224
218	0x3b2967cc	0.0025849221
219	0x3e0242f7	0.12720858
220	0xbd06099a	-0.032724
221	0xbe2bdbc1	-0.16783048
222	0x3dd08306	0.10181241
223	0x3dc64aae	0.09682213
224	0x3e09a03f	0.13440035
225	0x37a9456f	2.0178702e-05
226	0x3dc67a81	0.096913345
227	0x3d8fc772	0.07020463
228	0x3db73da1	0.08947302
229	0xbe0bc646	-0.13649854
230	0x3ddae951	0.10689033
231	0xbde54e8f	-0.111966245
232	0x3df51dee	0.11968599
233	0xb90041fd	-0.00012231614
234	0xbdf16be5	-0.117881574
235	0x3c673201	0.014111043
236	0xbb6f7eb6	-0.0036544031
237	0xbdf5b887	-0.119980864
238	0xbce1ef7d	-0.027580017
239	0xbb01d1a4	-0.0019808793
240	0x3dcaef02	0.09908868
241	0xbc98f9f2	-0.01867387
242	0x3d890ae2	0.06691529
243	0xbb1e0710	-0.0024113096
244	0xb9f79423	-0.00047221882
245	0x3b1151d8	0.0022174027
246	0xbd9f2bdf	-0.077720396
247	0xbdddaf8d	-0.10824499
248	0xbca1c9fc	-0.019749634
249	0xbe00e7b1	-0.12588383
250	0xbd384a0f	-0.044992503
251	0x3a0b8793	0.00053226313
252	0xbda00126	-0.07812719
253	0xbd149372	-0.036273427
254	0xba7c86f4	-0.00096331467
255	0x3b1b97ea	0.002374167

4.bias f4 [32]
0	0x3dc9a2f8	0.09845537
1	0x3d492580	0.04910803
2	0xbdaa7d1e	-0.083246455
3	0x3deb1ecc	0.114804834
4	0xbcf64dde	-0.030066427
5	0xbcc01c82	-0.023451094
6	0xbd15bb4d	-0.036555577
7	0xbe03e892	-0.12881687
8	0x3d1f5035	0.03889485
9	0x3d62259e	0.055211656
10	0xbd5240e3	-0.051331412
11	0x3de1011c	0.1098654
12	0xbdf54ff4	-0.119781405
13	0xbe06ad4d	-0.13152047
14	0xbd9f690e	-0.077837095
15	0xbceb434c	-0.028718613
16	0x3b159871	0.0022826458
17	0xbd195a87	-0.03743985
18	0x3d9a49b4	0.07533589
19	0xbdee5685	-0.11637596
20	0x3cd9fcd3	0.026609814
21	0x3b044d25	0.0020187583
22	0x3d938c2d	0.07204471
23	0x3e31ad77	0.17351328
24	0x3ddb35ec	0.10703644
25	0xbd759a30	-0.059961498
26	0xbdd979da	-0.106189445
27	0xbd8152a6	-0.06314592
28	0xbd50f3ef	-0.051013883
29	0x3d8bd65d	0.06827996
30	0xb9500915	-0.00019839809
31	0x3e227c8c	0.15867823

6.weight f4 [2, 32]
0	0x3dd4e5b1	0.10395373
1	0xbb04e949	-0.002028065
2	0x3caaa57f	0.020830868
3	0x3d98b030	0.0745548
4	0xbd5ed45d	-0.054401744
5	0x3e00e88b	0.12588708
6	0xbe34d12c	-0.17657918
7	0x3d46fdec	0.048582003
8	0xbe06b428	-0.13154662
9	0xbe1ac717	-0.15115009
10	0xbb7d970e	-0.0038694772
11	0x3deb7870	0.11497581
12	0x3db118f6	0.08647339
13	0x3c24d959	0.010061585
14	0xbcb69923	-0.022289818
15	0xbd48a029	-0.048980866
16	0xbd0e1bdc	-0.034694538
17	0x3b34708b	0.00275329
18	0xbc92471b	-0.017856171
19	0x3de4c5ba	0.11170526
20	0x3df11abd	0.11772678
21	0xbe19131f	-0.149487
22	0xbd0e9348	-0.034808427
23	0xbdd22d55	-0.10262553
24	0xbc46b2d3	-0.012127596
25	0xbdd0a22e	-0.10187183
26	0x3c3a842f	0.011384054
27	0xbe22874d	-0.15871926
28	0x3e0adb02	0.13560107
29	0x3ddac4b4	0.106820494
30	0xbdfa4ad9	-0.12221307
31	0xbe493811	-0.19650294
32	0xbce25983	-0.027630573
33	0xbda37396	-0.07981031
34	0x3d179c94	0.03701456
35	0xbe1b8458	-0.15187204
36	0x3dd6a9d5	0.10481612
37	0xbe0b2f95	-0.1359237
38	0xbd60d37a	-0.05488918
39	0xbd61dd5b	-0.05514274
40	0x3dd5d803	0.104415916
41	0xbc057485	-0.008145456
42	0xbe0625a7	-0.131003
43	0xbe04e79c	-0.12978977
44	0xbd35ccb9	-0.044384692
45	0xbe002ea2	-0.12517789
46	0x3ceab3c6	0.028650176
47	0x3dd10337	0.10205691
48	0xbab1d823	-0.0013568442
49	0xbdb61001	-0.08889771
50	0x3b95dee2	0.004573689
51	0xbdd07595	-0.10178677
52	0xbdf996f3	-0.121869944
53	0x3b846f70	0.0040416047
54	0x3e451ebf	0.1925001
55	0xbd776008	-0.060394317
56	0x3d92c36d	0.07166181
57	0xbd0602e3	-0.032717597
58	0xbc49ba57	-0.012312493
59	0xbe0c3bab	-0.13694637
60	0x3ddcb68d	0.10777006
61	0x3e4b63f3	0.19862346
62	0xbb4e5652	-0.0031484556
63	0x3e11d1cb	0.14240186

6.bias f4 [2]
0	0x3e159aef	0.14609884
1	0x3db0b6cb	0.08628615

exp_avg f4 [32, 2]
0	0xba61955f	-0.0008605327
1	0xba413072	-0.00073695846
2	0xb7b9bf44	-2.2142784e-05
3	0xba6f9c4f	-0.0009140418
4	0xb8d78a4c	-0.00010277759
5	0xbaee8dda	-0.0018200234
6	0x3a04db19	0.00050680485
7	0xb9bfa56a	-0.00036553602
8	0x3a0db494	0.00054056314
9	0xba49567c	-0.00076804287
10	0x390dc5d5	0.00013520506
11	0xba30ecd8	-0.00067491597
12	0x39bfa55c	0.0003655356
13	0x3b4eb689	0.0031541905
14	0xb98423d7	-0.00025203705
15	0x3b05c9ac	0.0020414395
16	0xb910fa92	-0.00013826255
17	0xbad85010	-0.0016503353
18	0xb7f7c864	-2.9538009e-05
19	0x37784bf2	1.4799634e-05
20	0xb7f43830	-2.9113231e-05
21	0xb6b18bc6	-5.291283e-06
22	0x3a9f8b95	0.0012172336
23	0xbae18fbe	-0.0017208976
24	0x3a4a1f1c	0.0007710324
25	0x3a357546	0.0006922077
26	0xba8010df	-0.0009770653
27	0x3b2bdbfe	0.0026223655
28	0x39237792	0.00015589435
29	0x3b07ecd0	0.0020740516
30	0x3a625f16	0.0008635385
31	0x3b4773cd	0.0030434013
32	0x398f9f1f	0.0002739364
33	0x3a9ab652	0.0011803603
34	0x3acaebf9	0.0015481702
35	0xbb032a7d	-0.0020014339
36	0xb9256b53	-0.00015775608
37	0xbb27895c	-0.002556405
38	0xb91a7527	-0.00014730227
39	0x39b8bfa2	0.00035237992
40	0x3a668b81	0.00087945914
41	0x3b452e18	0.0030087288
42	0x38a70d15	7.965617e-05
43	0xb8069467	-3.20863e-05
44	0x3abf8421	0.0014611521
45	0x3b4117ac	0.0029463572
46	0xb9580c9b	-0.00020604061
47	0x37f09dbb	2.8683678e-05
48	0xb80849d2	-3.2493677e-05
49	0xb9a33030	-0.00031125685
50	0xb976887a	-0.0002351123
51	0x3a833957	0.0010011595
52	0xb9814f5a	-0.0002466392
53	0xbb822aeb	-0.0039724014
54	0x37515ddc	1.2479224e-05
55	0x39e460ab	0.00043559572
56	0xb8a6c82d	-7.9527825e-05
57	0xba975a55	-0.0011547307
58	0x3aaf7efb	0.0013389284
59	0x3b5b3e72	0.0033453968
60	0xba4059db	-0.0007337608
61	0x3b29ecaa	0.0025928416
62	0xbac07873	-0.0014684334
63	0x3aa68e36	0.0012707177

exp_avg_sq f4 [32, 2]
0	0x33b229bb	8.2963616e-08
1	0x33831783	6.1044396e-08
2	0x331de988	3.6766806e-08
3	0x338825a0	6.3398375e-08
4	0x33826847	6.072565e-08
5	0x33e25f11	1.05412376e-07
6	0x3301838a	3.0154787e-08
7	0x32573662	1.2527012e-08
8	0x3388f959	6.3783496e-08
9	0x33e61862	1.0714645e-07
10	0x32ce15cc	2.3991468e-08
11	0x329b7770	1.8098689e-08
12	0x340927b3	1.2773562e-07
13	0x34e712f3	4.304089e-07
14	0x3367006f	5.3784273e-08
15	0x34521dfb	1.9568681e-07
16	0x3383ebf2	6.143081e-08
17	0x33db80a9	1.0221385e-07
18	0x2e26b046	3.7900592e-11
19	0x2d337dc7	1.02029e-11
20	0x2e2218d4	3.6856587e-11
21	0x2be836a4	1.6499757e-12
22	0x334ab77b	4.7198665e-08
23	0x33e0b75e	1.0464167e-07
24	0x328c8f42	1.6363291e-08
25	0x32856d7a	1.5533022e-08
26	0x343fc413	1.7859593e-07
27	0x34874000	2.5192276e-07
28	0x33af78c9	8.171043e-08
29	0x340afbf7	1.2943916e-07
30	0x34387736	1.7179704e-07
31	0x34ae9a7d	3.252243e-07
32	0x333c804a	4.388884e-08
33	0x3334d905	4.2106894e-08
34	0x33c441b8	9.1389154e-08
35	0x34268a86	1.5510349e-07
36	0x3453a979	1.971256e-07
37	0x346b3292	2.1904478e-07
38	0x30927838	1.0657066e-09
39	0x31a92a1f	4.923336e-09
40	0x344e261a	1.9199106e-07
41	0x350351b7	4.8920214e-07
42	0x32172d2a	8.799626e-09
43	0x338bf84f	6.517859e-08
44	0x3489fe4e	2.570327e-07
45	0x352867ad	6.2735745e-07
46	0x319118b4	4.222864e-09
47	0x2e8290d4	5.937442e-11
48	0x31fee89c	7.4188176e-09
49	0x322037d3	9.325919e-09
50	0x3241155f	1.1238938e-08
51	0x3390b799	6.738919e-08
52	0x34bc11a3	3.503056e-07
53	0x353048e0	6.5671156e-07
54	0x324873a1	1.1667823e-08
55	0x33a98f2f	7.895721e-08
56	0x32d3af0d	2.4643237e-08
57	0x33b37ac0	8.357665e-08
58	0x345bec0b	2.0481836e-07
59	0x34f07100	4.4785702e-07
60	0x32a01e11	1.8640124e-08
61	0x348c8e9b	2.618079e-07
62	0x3365d7ac	5.351437e-08
63	0x333f4144	4.453001e-08

exp_avg f4 [32]
0	0xba7ff66c	-0.0009764198
1	0xbae1734e	-0.0017200501
2	0xba873320	-0.0010314919
3	0xb9af7d49	-0.00033471946
4	0x3a2fac8c	0.00067014317
5	0xb9194c2a	-0.0001461959
6	0xbb0c6f2e	-0.0021428573
7	0xb9c777c4	-0.0003804547
8	0xba11571b	-0.0005544291
9	0xb8649229	-5.449556e-05
10	0xb88a9ea5	-6.6099026e-05
11	0xbaf16654	-0.0018417337
12	0xba8a59a5	-0.0010555281
13	0xba9dc9fb	-0.0012038344
14	0xba818f73	-0.000988467
15	0xb610954f	-2.1544581e-06
16	0x3a0f9725	0.00054775394
17	0xbb08b6e7	-0.0020860971
18	0xbadaddb3	-0.0016698152
19	0xb9c03c7e	-0.00036666164
20	0x3a241654	0.00062594307
21	0xb93ea6a3	-0.00018181889
22	0xb95961fc	-0.00020731235
23	0xb969be96	-0.0002229161
24	0x3890d2ff	6.905756e-05
25	0xb9f4aaed	-0.00046666656
26	0xbb09142d	-0.0020916567
27	0x3926765a	0.00015875083
28	0x390572a4	0.00012726575
29	0xba425d6d	-0.0007414434
30	0xbb24d435	-0.00251509
31	0xbadc6e89	-0.001681761

exp_avg_sq f4 [32]
0	0x340a8572	1.2900799e-07
1	0x3449bb46	1.8787713e-07
2	0x33ab9878	7.990542e-08
3	0x33015740	3.0114506e-08
4	0x33e9ae17	1.0881575e-07
5	0x32d55e3c	2.4839316e-08
6	0x34d1d5c7	3.9084827e-07
7	0x346e7187	2.2206778e-07
8	0x33f6ea87	1.1497928e-07
9	0x2f09440d	1.2484254e-10
10	0x2f488fd8	1.8240998e-10
11	0x33f0fb03	1.122153e-07
12	0x330c3c40	3.2651087e-08
13	0x34964785	2.7991715e-07
14	0x34035ad4	1.2233369e-07
15	0x3482fbe8	2.4397673e-07
16	0x33769087	5.7407785e-08
17	0x343c041d	1.7510361e-07
18	0x34cec425	3.8513204e-07
19	0x31b21ae4	5.183539e-09
20	0x34d1547d	3.8990757e-07
21	0x337c4e3e	5.8744483e-08
22	0x34dc1c32	4.0998708e-07
23	0x313c8210	2.7431533e-09
24	0x321aee00	9.018095e-09
25	0x332bb828	3.998153e-08
26	0x3549c9e5	7.517213e-07
27	0x3392708f	6.819129e-08
28	0x335a24ca	5.079054e-08
29	0x34bbd739	3.498806e-07
30	0x3481424a	2.4076354e-07
31	0x339b5a44	7.234169e-08

exp_avg f4 [32, 32]
0	0x375a0ba0	1.2996519e-05
1	0xb64dc88f	-3.066412e-06
2	0xb660eb2e	-3.3515494e-06
3	0xb7692874	-1.3897301e-05
4	0xb6ed1fb4	-7.066841e-06
5	0x35dc18c0	1.639848e-06
6	0xb365e829	-5.3529366e-08
7	0xb722e7aa	-9.709891e-06
8	0xb27795ae	-1.44113255e-08
9	0xb7167eb2	-8.970195e-06
10	0xb7467bc5	-1.1830537e-05
11	0xb6e06e32	-6.6885486e-06
12	0xb74e47ac	-1.2295244e-05
13	0xb7091360	-8.170347e-06
14	0x37727a4a	1.4452797e-05
15	0x3542f1c4	7.2622447e-07
16	0x362d4509	2.5819193e-06
17	0xb75eff85	-1.3291724e-05
18	0xb70edff6	-8.5160045e-06
19	0xb648ace5	-2.990296e-06
20	0x34a425eb	3.057497e-07
21	0xb74fa63c	-1.2376866e-05
22	0xb69bb3e4	-4.640302e-06
23	0xb6fc231b	-7.514272e-06
24	0x3019611b	5.579907e-10
25	0xb674b712	-3.6465394e-06
26	0x3398019c	7.078344e-08
27	0xb714ea53	-8.876045e-06
28	0xb7177483	-9.027429e-06
29	0xb6f3519e	-7.251466e-06
30	0xb65338d6	-3.1474533e-06
31	0xb7354e5f	-1.0806688e-05
32	0xba31da25	-0.000678452
33	0xba963865	-0.0011460899
34	0xbacad6e1	-0.0015475416
35	0xba13f508	-0.00056441175
36	0xb74604bb	-1.1802821e-05
37	0x3835aa8d	4.33126e-05
38	0xba18a6e6	-0.00058232096
39	0xb8392305	-4.414005e-05
40	0xba35cdee	-0.0006935288
41	0xb770e439	-1.4358252e-05
42	0x361513af	2.2214188e-06
43	0xb9b10618	-0.0003376461
44	0xb87cb798	-6.0252467e-05
45	0xb915ac3d	-0.00014273911
46	0x388ad05f	6.619165e-05
47	0xb7ccd34e	-2.4417091e-05
48	0x3770c16d	1.435015e-05
49	0xb9bc4fa5	-0.00035917494
50	0xbace034d	-0.0015717536
51	0x373a8b16	1.1118847e-05
52	0xb901441e	-0.00012327774
53	0xb9ccf35b	-0.00039091226
54	0xb7baa0d6	-2.2247823e-05
55	0xb69b46da	-4.627608e-06
56	0x33d17569	9.753678e-08
57	0xba49e13d	-0.00077011046
58	0xbb0b53ed	-0.002125974
59	0xb7b87dfb	-2.1993174e-05
60	0xb9efc663	-0.00045733442
61	0xb66f4913	-3.565631e-06
62	0x363fe0e5	2.8592124e-06
63	0xb6daa897	-6.5165327e-06
64	0xbaaf5713	-0.001337739
65	0xb9d0936e	-0.00039782695
66	0xba810f0a	-0.0009846401
67	0xb98f464d	-0.00027327464
68	0x39d3fa66	0.00040431618
69	0xb94c73d2	-0.00019498102
70	0xbac2189d	-0.0014808361
71	0xba01f5f5	-0.000495761
72	0xbacf2134	-0.0015802742
73	0xb6e1efed	-6.7334536e-06
74	0xb6c6cd88	-5.924787e-06
75	0xb8f89dcb	-0.00011854953
76	0x3958d46c	0.00020678499
77	0x39b9d401	0.00035443905
78	0x3a2ee7cf	0.00066721154
79	0xba2835f9	-0.0006416734
80	0xb9191f15	-0.00014602796
81	0xb8ec87ce	-0.000112786525
82	0xbad969f6	-0.0016587365
83	0xb7618bc7	-1.34435895e-05
84	0xb99917a8	-0.0002920006
85	0xba18875e	-0.0005818511
86	0xba03c516	-0.00050266215
87	0x376a4698	1.3963923e-05
88	0x397796c9	0.00023611927
89	0x398d9cae	0.0002701035
90	0xba1886c2	-0.00058184203
91	0xb93d7cc9	-0.0001807093
92	0xba481c11	-0.0007633577
93	0xba09b1fd	-0.00052526576
94	0xb5164f6d	-5.5994934e-07
95	0x388b6c85	6.64825e-05
96	0x381afad6	3.695007e-05
97	0x39a9aef8	0.00032364554
98	0x3a0f8ed2	0.0005476299
99	0x391252a9	0.00013954438
100	0x31ec743a	6.8817174e-09
101	0xb7afdbff	-2.096407e-05
102	0x38e1a352	0.00010759257
103	0xb86c128e	-5.6284065e-05
104	0x38f201c7	0.0001153979
105	0xb6714214	-3.595026e-06
106	0x3744a963	1.1721949e-05
107	0x38a05318	7.644872e-05
108	0x34540526	1.9745912e-07
109	0x37b8ad51	2.2015216e-05
110	0xb701dd6a	-7.740551e-06
111	0xb8b33c80	-8.546654e-05
112	0xb72a557f	-1.0152696e-05
113	0x38aec947	8.3344574e-05
114	0x39e85d0f	0.00044319822
115	0x36ad4ffa	5.1651123e-06
116	0x38546890	5.064212e-05
117	0xb86c39e6	-5.6320707e-05
118	0xb84ef5bd	-4.934309e-05
119	0x37691632	1.389305e-05
120	0x343c92c2	1.7562255e-07
121	0x3988fa34	0.00026126357
122	0x3a422781	0.0007406399
123	0xb8bff950	-9.154028e-05
124	0x38fc3fca	0.00012028178
125	0xb83f01a6	-4.5539484e-05
126	0xb6a94f66	-5.0458357e-06
127	0xb56f1be1	-8.907501e-07
128	0xba02838e	-0.00049787096
129	0xb9f5dc57	-0.00046894207
130	0xb9efd4d1	-0.00045744193
131	0xb922c179	-0.00015521598
132	0xb71a9bb2	-9.215366e-06
133	0xb76eca0e	-1.423295e-05
134	0xb9ffc71e	-0.00048785744
135	0xb8783d49	-5.9184884e-05
136	0xba09cb2d	-0.0005256411
137	0x37447ae1	1.171112e-05
138	0x36d0ffd4	6.2286654e-06
139	0xb8bb6154	-8.9349836e-05
140	0x391a8efd	0.00014739852
141	0x39662fd5	0.00021952328
142	0x394ed6fd	0.0001972578
143	0xb798879e	-1.8182964e-05
144	0x368f7515	4.2753622e-06
145	0xb8f0783f	-0.000114664894
146	0xba56729b	-0.00081805297
147	0xb6eec296	-7.1156055e-06
148	0xb78bf06b	-1.6682045e-05
149	0xb9893de3	-0.00026176785
150	0xb7f0078e	-2.8613747e-05
151	0x36476619	2.971274e-06
152	0xb6213401	-2.402114e-06
153	0x397e138f	0.00024230614
154	0xba2cf759	-0.0006598137
155	0xb837c729	-4.3816082e-05
156	0xb986f592	-0.00025741436
157	0xb62a9e55	-2.5424135e-06
158	0xb62ad2a8	-2.5454592e-06
159	0xb7649e2b	-1.3626685e-05
160	0xbacce1ee	-0.0015631297
161	0xb9fbb07c	-0.00048005942
162	0xba81dc46	-0.0009907566
163	0xb90528eb	-0.00012699112
164	0x3a0426cd	0.0005041182
165	0xb9808c17	-0.00024518438
166	0xbaa1d59d	-0.0012346987
167	0xb9ba96da	-0.00035589078
168	0xbab0f069	-0.0013499382
169	0x3760de8b	1.3403255e-05
170	0xb414b247	-1.3848431e-07
171	0xb901f74b	-0.00012394522
172	0xb5b3372e	-1.3352599e-06
173	0x38997276	7.3169285e-05
174	0x39dd3b7f	0.00042196733
175	0xb9883ecc	-0.0002598673
176	0xb9076de8	-0.00012915547
177	0xb8fa998c	-0.00011949529
178	0xbacd1b8b	-0.0015648467
179	0xb5b2b554	-1.3314807e-06
180	0xb99025dd	-0.0002749403
181	0xba67a9a8	-0.00088372314
182	0xb97e1150	-0.00024229777
183	0x36bfde49	5.718121e-06
184	0x3983d28f	0.00025143145
185	0xb8baf0b8	-8.9140085e-05
186	0xba068aa3	-0.0005132353
187	0xb99a928a	-0.0002948235
188	0xba341b25	-0.00068705
189	0xb94c2e33	-0.00019472167
190	0xb7642022	-1.35973405e-05
191	0x38d35e4e	0.0001007883
192	0x3a942544	0.001130261
193	0x39e060ee	0.00042796828
194	0x39823ffb	0.000248432
195	0x390b414b	0.00013280397
196	0xbaaf8502	-0.001339108
197	0x389bd2df	7.430254e-05
198	0xb9882dc6	-0.00025974045
199	0xba1a8f95	-0.0005896029
200	0xb8fbc57a	-0.000120053955
201	0x33edffac	1.1082679e-07
202	0xb648d93f	-2.9928776e-06
203	0x38399d7a	4.42541e-05
204	0xb9e3cb9a	-0.0004344851
205	0xbae74bd4	-0.00176465
206	0xbb3be695	-0.0028671373
207	0xbb36ad2e	-0.002787422
208	0xb807bb51	-3.236096e-05
209	0x3895ffe8	7.15254e-05
210	0x3ac7cb36	0.0015243057
211	0xb8e90954	-0.00011112043
212	0xbaa77bbc	-0.0012777965
213	0x3a3cfb2e	0.00072090595
214	0xbad57c8e	-0.001628773
215	0xb71b22cb	-9.246821e-06
216	0xba653136	-0.000874299
217	0xba8697b8	-0.0010268604
218	0x3a155c66	0.00056976674
219	0x397825ec	0.0002366525
220	0xb9a6d5de	-0.0003182133
221	0xbb20d06b	-0.002453829
222	0xb97db35f	-0.00024194781
223	0xb9a04337	-0.00030567657
224	0xba3e879a	-0.0007268131
225	0xbacea3f9	-0.001576542
226	0xbaa93a7d	-0.0012911108
227	0xbaa07771	-0.0012242628
228	0xb707eee3	-8.102247e-06
229	0xb738f798	-1.1024902e-05
230	0xb9f781a8	-0.00047208113
231	0xb903e100	-0.00012576953
232	0xba1f20ec	-0.00060702744
233	0xb5d6ce50	-1.6004287e-06
234	0x37141e30	8.828516e-06
235	0xba460032	-0.00075531297
236	0x398f4662	0.00027327525
237	0x39efd041	0.00045740794
238	0x3a51c7ef	0.000800251
239	0xb92e57c3	-0.00016626627
240	0x3296d1e0	1.7557738e-08
241	0xba52caf8	-0.0008041109
242	0xbb082ce4	-0.002077871
243	0x33d69890	9.9929025e-08
244	0x39bf999c	0.00036544807
245	0xba230454	-0.00062186015
246	0xb89efc97	-7.5810756e-05
247	0xb752ffba	-1.2576516e-05
248	0xb73ad8ee	-1.1136972e-05
249	0xb90cce52	-0.00013428301
250	0xbb28087c	-0.0025639823
251	0xb91bb246	-0.00014848364
252	0xb98db13a	-0.0002702566
253	0xb8edbf89	-0.00011336717
254	0x3609abc0	2.0514562e-06
255	0x36ded801	6.6412617e-06

exp_avg_sq f4 [32, 32]
0	0x2d0d1564	8.019672e-12
1	0x2b45b8b0	7.0244765e-13
2	0x2b61a2bd	8.01619e-13
3	0x2d1fb16c	9.077499e-12
4	0x2c3d7902	2.6925688e-12
5	0x2aab2d28	3.0407035e-13
6	0x294eb390	4.5896934e-14
7	0x2ca5eee4	4.7161042e-12
8	0x2626b9f4	5.7844833e-16
9	0x2c9001c4	4.092922e-12
10	0x2ced6a92	6.747777e-12
11	0x2c2c571d	2.4491028e-12
12	0x2cfec9e1	7.2415273e-12
13	0x2c741869	3.4688036e-12
14	0x2d2bbe91	9.762539e-12
15	0x2a162d9c	1.33385e-13
16	0x2b1a80d9	5.48906e-13
17	0x2d130e21	8.35912e-12
18	0x2c83507a	3.7321786e-12
19	0x2b3e94a6	6.770785e-13
20	0x29aa7217	7.569308e-14
21	0x2d00f3a2	7.330055e-12
22	0x2bbb62e3	1.3314596e-12
23	0x2c52c937	2.9954492e-12
24	0x234e8a73	1.11966e-17
25	0x2b8039b7	9.110966e-13
26	0x280b2a5c	7.725235e-15
27	0x2c8d53e0	4.016773e-12
28	0x2c91a5dd	4.1395624e-12
29	0x2c46211d	2.8155874e-12
30	0x2b4d77d2	7.2996915e-13
31	0x2cc94ecd	5.7215122e-12
32	0x3336840c	4.2495273e-08
33	0x3358a589	5.0441972e-08
34	0x33e2d086	1.0561875e-07
35	0x322c94e7	1.0045574e-08
36	0x2cec6645	6.7188776e-12
37	0x2eb2b05a	8.125829e-11
38	0x330b67be	3.2457812e-08
39	0x30aa9d9e	1.2413925e-09
40	0x33280d06	3.9127393e-08
41	0x2d29a98b	9.644184e-12
42	0x2afb8f12	4.4685832e-13
43	0x31632c24	3.3057939e-09
44	0x2fb71d4b	3.330832e-10
45	0x313e2bb6	2.7673486e-09
46	0x2f83b325	2.395605e-10
47	0x30b10204	1.2879018e-09
48	0x2d93a1c5	1.6783805e-11
49	0x3180ec77	3.7521732e-09
50	0x33ee0879	1.108428e-07
51	0x2cd40045	6.0254323e-12
52	0x314f0c52	3.0129468e-09
53	0x326b5fdd	1.3700597e-08
54	0x308f501a	1.0427386e-09
55	0x2bba8f5c	1.3255885e-12
56	0x28f333cb	2.7000881e-14
57	0x331eb554	3.695216e-08
58	0x344030fc	1.7899214e-07
59	0x305cab1d	8.02787e-10
60	0x326736cb	1.3458428e-08
61	0x307385bc	8.8592933e-10
62	0x2b32970a	6.344791e-13
63	0x2c24d1a0	2.3422167e-12
64	0x342dd73a	1.619018e-07
65	0x325f22b4	1.2988199e-08
66	0x3412b4e0	1.3663112e-07
67	0x313ea726	2.7743652e-09
68	0x3271a1dd	1.406485e-08
69	0x3219c6e7	8.950997e-09
70	0x34928da5	2.729768e-07
71	0x335bf5ac	5.121335e-08
72	0x349f9f35	2.9731896e-07
73	0x2c2e54d8	2.4773985e-12
74	0x2c0c3a75	1.9927647e-12
75	0x2fefd970	4.3628345e-10
76	0x318bf4b8	4.0732537e-09
77	0x32fad2d0	2.9199697e-08
78	0x331a61f4	3.5945007e-08
79	0x345ce1e8	2.0571281e-07
80	0x31f5bdd6	7.1520203e-09
81	0x2ffca67b	4.5956824e-10
82	0x3424c0e0	1.5343858e-07
83	0x2d162cf1	8.536492e-12
84	0x33786cd6	5.7840985e-08
85	0x32a4daaf	1.9191559e-08
86	0x33c594ba	9.2005806e-08
87	0x2dbe279c	2.161809e-11
88	0x3176e6fc	3.592901e-09
89	0x33c2f8f9	9.079117e-08
90	0x33b457b1	8.397854e-08
91	0x30dd3bbb	1.6096843e-09
92	0x33b502f0	8.4290036e-08
93	0x3423612f	1.5215913e-07
94	0x29f5b7f4	1.09120964e-13
95	0x2f0e00f9	1.291517e-10
96	0x32d35e0a	2.4606397e-08
97	0x3273b4e6	1.4185593e-08
98	0x32ffc0e5	2.9773625e-08
99	0x30a0c6f2	1.1698076e-09
100	0x257387dc	2.1122921e-16
101	0x2e3be2cd	4.2720317e-11
102	0x32a11931	1.8754323e-08
103	0x309273ee	1.0655847e-09
104	0x32bc3802	2.191155e-08
105	0x2b7aed80	8.914744e-13
106	0x2ce97203	6.634916e-12
107	0x2fb6cb7c	3.3250191e-10
108	0x2d070ad1	7.676263e-12
109	0x2f37a15b	1.6701078e-10
110	0x2c5dff78	3.1547803e-12
111	0x3032367b	6.4833444e-10
112	0x2d1d45ac	8.939887e-12
113	0x2fc59c3b	3.59451e-10
114	0x332824c3	3.9148983e-08
115	0x2bdf2645	1.5855725e-12
116	0x30d7743a	1.5676342e-09
117	0x32153511	8.685007e-09
118	0x301b8692	5.657991e-10
119	0x2d1f9a41	9.072355e-12
120	0x298737bd	6.0048734e-14
121	0x31b2cf33	5.2040376e-09
122	0x333460ae	4.1997446e-08
123	0x3081e364	9.450614e-10
124	0x31dcbb22	6.4241172e-09
125	0x2fb675d8	3.318934e-10
126	0x2bd6bf33	1.5258683e-12
127	0x2a33755f	1.5939115e-13
128	0x32010a7f	7.511175e-09
129	0x3205b4e8	7.782752e-09
130	0x3276024c	1.4319607e-08
131	0x30726fea	8.8198127e-10
132	0x2c971a1f	4.294578e-12
133	0x2d26ec26	9.488443e-12
134	0x31f43168	7.1069515e-09
135	0x2eec5d80	1.07486464e-10
136	0x320db2ca	8.247932e-09
137	0x2ce90d1e	6.6237146e-12
138	0x2c189b9c	2.168688e-12
139	0x2f906023	2.6261757e-10
140	0x306ac63e	8.5410423e-10
141	0x3189db3b	4.0121484e-09
142	0x310f7f86	2.0881727e-09
143	0x2fea7d47	4.2653367e-10
144	0x2ba45c15	1.1678459e-12
145	0x2fe005e6	4.0749554e-10
146	0x32b78157	2.136282e-08
147	0x2c3fbd85	2.7247937e-12
148	0x308ca297	1.0232551e-09
149	0x31160038	2.1827997e-09
150	0x2fa33e03	2.969359e-10
151	0x2b3cd108	6.7081106e-13
152	0x2b0bcfaf	4.967094e-13
153	0x323061d3	1.0266791e-08
154	0x32bc5c7d	2.192814e-08
155	0x2e5c3ab0	5.0074334e-11
156	0x312fbf8d	2.5574736e-09
157	0x2fb9591f	3.3714628e-10
158	0x2b177719	5.381126e-13
159	0x2d19fb2f	8.752817e-12
160	0x34555edb	1.9871679e-07
161	0x3261c4c6	1.3141465e-08
162	0x33a37368	7.611271e-08
163	0x3039194d	6.733856e-10
164	0x3203d17f	7.6728375e-09
165	0x3217cb35	8.835561e-09
166	0x34809bd4	2.3955238e-07
167	0x33261430	3.8668247e-08
168	0x348c1fae	2.6100082e-07
169	0x2d1557f4	8.489199e-12
170	0x297aead8	5.5714846e-14
171	0x2fed507a	4.316723e-10
172	0x2a871711	2.3996823e-13
173	0x3106fbc4	1.9642679e-09
174	0x323791ab	1.0685123e-08
175	0x340901a7	1.275972e-07
176	0x31cb60f0	5.919098e-09
177	0x2fed8b1d	4.3208895e-10
178	0x341a39ba	1.4363368e-07
179	0x2a9071f9	2.5658623e-13
180	0x332b49b9	3.988109e-08
181	0x332290d0	3.785027e-08
182	0x3382781a	6.075443e-08
183	0x2de46e27	2.5969516e-11
184	0x30db7a82	1.5969166e-09
185	0x30f73c2b	1.7988716e-09
186	0x32c60110	2.3050717e-08
187	0x317d6a96	3.6876933e-09
188	0x3396964b	7.0122574e-08
189	0x33cbf1f2	9.496934e-08
190	0x2d195e35	8.717961e-12
191	0x2f84d21e	2.4159957e-10
192	0x347046a9	2.2377448e-07
193	0x32df8549	2.6021228e-08
194	0x3429649c	1.5775953e-07
195	0x311a22c4	2.2429711e-09
196	0x34098a31	1.2809393e-07
197	0x321af044	9.01861e-09
198	0x35057f89	4.973195e-07
199	0x3421b3c8	1.5059697e-07
200	0x350d072c	5.253703e-07
201	0x283f616a	1.0623753e-14
202	0x2b3ed21a	6.7793134e-13
203	0x2f707947	2.1870959e-10
204	0x3209ff72	8.032531e-09
205	0x34ad9427	3.2331556e-07
206	0x355149c1	7.7965893e-07
207	0x35bc995a	1.4051723e-06
208	0x31ff3337	7.427299e-09
209	0x2fdebcae	4.051563e-10
210	0x34777b3f	2.3048504e-07
211	0x2faecc21	3.1795458e-10
212	0x34b6a7e0	3.4022287e-07
213	0x33632efb	5.2895285e-08
214	0x350f308e	5.334231e-07
215	0x2da28fd6	1.8481144e-11
216	0x3364b0fa	5.3246346e-08
217	0x341ba701	1.4496256e-07
218	0x33b64aaf	8.48862e-08
219	0x31c0be61	5.609579e-09
220	0x344ec597	1.9257128e-07
221	0x358b2a34	1.036859e-06
222	0x3118f33e	2.2257178e-09
223	0x3126d890	2.427928e-09
224	0x3421b996	1.5061809e-07
225	0x34625926	2.1080322e-07
226	0x352427d2	6.1152707e-07
227	0x337f4873	5.9437706e-08
228	0x2c708624	3.4180514e-12
229	0x2cd0c0f9	5.93314e-12
230	0x340e973c	1.32798e-07
231	0x311f4e4b	2.318205e-09
232	0x34297a6e	1.5783891e-07
233	0x2aa64644	2.953628e-13
234	0x2c8bfc11	3.9786026e-12
235	0x32954689	1.7377959e-08
236	0x32769ab9	1.4354264e-08
237	0x340b11f4	1.2951915e-07
238	0x334a5fbc	4.711886e-08
239	0x325428d3	1.23493065e-08
240	0x29291dc4	3.7551356e-14
241	0x32b4b72c	2.1038055e-08
242	0x3508dac2	5.098228e-07
243	0x28efd589	2.6626936e-14
244	0x33543bb7	4.9414407e-08
245	0x3364412e	5.3144667e-08
246	0x3204f075	7.738085e-09
247	0x2d04cd0b	7.54886e-12
248	0x2cd4a167	6.0433217e-12
249	0x34fd16ad	4.714142e-07
250	0x35758540	9.1463517e-07
251	0x30e266b1	1.6472851e-09
252	0x3398b6ab	7.111279e-08
253	0x321c7e0c	9.109055e-09
254	0x2ae2804d	4.023469e-13
255	0x2c2a417f	2.419481e-12

exp_avg f4 [32]
0	0xb6c9b0a0	-6.0108287e-06
1	0xbaefb5fe	-0.0018288491
2	0xbaade6a6	-0.0013267591
3	0x3a27c5e3	0.0006400032
4	0xba05e425	-0.00051075435
5	0xbaae42cf	-0.0013295057
6	0xba50f40a	-0.0007970935
7	0xba8f1b05	-0.0010918087
8	0xba5430d0	-0.0008094432
9	0xbb03174a	-0.0020002895
10	0xb767927c	-1.3802779e-05
11	0xbae44c30	-0.0017417725
12	0xbb1a004f	-0.002349872
13	0xbaa4ce6b	-0.0012573724
14	0x39346fd6	0.000172078
15	0x3a665663	0.00087866763
16	0xbb1f0765	-0.0024265882
17	0xbae698fd	-0.0017593201
18	0x398297bd	0.00024908586
19	0xbb8cc0d3	-0.0042954474
20	0x39020b8d	0.00012402069
21	0x395904c5	0.0002069651
22	0xba7b988f	-0.0009597623
23	0xbad39f1f	-0.0016145444
24	0xbac1d493	-0.0014788083
25	0xba9c0907	-0.0011904546
26	0xb98c08d1	-0.0002670945
27	0xb71d4f56	-9.376401e-06
28	0x3a9a6447	0.0011779153
29	0xbb34343f	-0.0027496961
30	0xbb3680c7	-0.0027847753
31	0xbae0ed5d	-0.0017160584

exp_avg_sq f4 [32]
0	0x2c0fae27	2.0418196e-12
1	0x342b03ce	1.5927e-07
2	0x34b58c1e	3.3815826e-07
3	0x334e6a76	4.805994e-08
4	0x32c4f2d4	2.2927829e-08
5	0x34619498	2.1008816e-07
6	0x353e7387	7.094863e-07
7	0x3586c343	1.0040607e-06
8	0x35389e23	6.877546e-07
9	0x35777657	9.218688e-07
10	0x2d1dafa9	8.963421e-12
11	0x35b29299	1.3304699e-06
12	0x3601e50f	1.9355828e-06
13	0x34cb7833	3.7899153e-07
14	0x34aa6b05	3.1742834e-07
15	0x352501d4	6.146995e-07
16	0x34fcb4a4	4.707009e-07
17	0x35aab974	1.2719961e-06
18	0x3445ce6a	1.8422148e-07
19	0x35b78402	1.3672982e-06
20	0x342435c5	1.5293251e-07
21	0x331d2da6	3.6595928e-08
22	0x340bc688	1.3017609e-07
23	0x348fdfae	2.6798574e-07
24	0x35615901	8.394855e-07
25	0x339d7b53	7.333315e-08
26	0x321744b1	8.804975e-09
27	0x2f05d0e3	1.2170491e-10
28	0x34adec18	3.2395542e-07
29	0x359f46ee	1.1867066e-06
30	0x35978bb7	1.1291039e-06
31	0x35a6cc7a	1.2427474e-06

exp_avg f4 [32, 32]
0	0x36261087	2.4745548e-06
1	0xba29d55a	-0.000647863
2	0xbaded840	-0.0017001703
3	0xb9ef7a86	-0.0004567692
4	0xb9fcc691	-0.0004821313
5	0xbaa19834	-0.0012328685
6	0xba66d0d2	-0.00088049204
7	0xba6e0332	-0.00090794556
8	0xbae87aac	-0.0017736754
9	0xba314ae6	-0.0006763175
10	0x3731a54d	1.0588509e-05
11	0x38256c00	3.943965e-05
12	0xb8c11369	-9.2065726e-05
13	0x38d4bb43	0.00010143828
14	0xb9cb5cc1	-0.00038788284
15	0x381f9242	3.8044767e-05
16	0xbada59a9	-0.0016658801
17	0xbaf05c4b	-0.0018338052
18	0xb7b0dbc1	-2.1083166e-05
19	0xbae0708c	-0.0017123385
20	0xb947e2b0	-0.00019062567
21	0xb8bb4fa2	-8.9316876e-05
22	0xbac0d1b5	-0.0014710935
23	0xba1128ab	-0.0005537371
24	0xba0d202d	-0.0005383518
25	0xba3c8e76	-0.0007192859
26	0xb95f7865	-0.00021311788
27	0xb31e03dc	-3.6790752e-08
28	0xb914fd02	-0.00014208633
29	0xbb062d4a	-0.0020473772
30	0x39a4d396	0.0003143816
31	0xb981bc6d	-0.00024745186
32	0xb2b75e42	-2.1346867e-08
33	0xb9bbbf9a	-0.00035810174
34	0xba6bb102	-0.0008990915
35	0xb98221c2	-0.00024820684
36	0xb98bdcca	-0.00026676647
37	0xba2ba2c0	-0.0006547384
38	0x37d4a840	2.5350717e-05
39	0xb9fe1293	-0.00048460494
40	0xba748c3e	-0.0009328759
41	0xb9d06bd8	-0.000397532
42	0xb7305a85	-1.0511493e-05
43	0x3a2debc5	0.00066345587
44	0x39f46175	0.00046611918
45	0x398772fd	0.0002583488
46	0x3a09bd51	0.00052543456
47	0x380aa78b	3.30578e-05
48	0xba6bb958	-0.0008992157
49	0xba82f688	-0.0009991685
50	0xb764133f	-1.359434e-05
51	0xba6d0331	-0.0009041308
52	0xb5514f58	-7.797403e-07
53	0xb86698e9	-5.4978682e-05
54	0xb96da6a9	-0.00022664167
55	0xb9a251ce	-0.00030959997
56	0x3a4c1569	0.0007785173
57	0xb78a2738	-1.6469145e-05
58	0xb8e0b2e6	-0.00010714475
59	0xb7245b6e	-9.796449e-06
60	0xb8753c26	-5.846857e-05
61	0xba8ebd04	-0.0010890071
62	0x3a8f9596	0.0010954614
63	0x3a6dfc8c	0.0009078465
64	0x3729cc4c	1.01207515e-05
65	0x35cfa464	1.5470546e-06
66	0x37db2c11	2.6127354e-05
67	0xb6b02ec1	-5.2506516e-06
68	0xb76a78a0	-1.3975572e-05
69	0x3750db59	1.2448837e-05
70	0x37829b27	1.5569456e-05
71	0xb7370ee2	-1.0911115e-05
72	0x37a127c1	1.9211207e-05
73	0xb761ae7a	-1.3451669e-05
74	0x374a09c7	1.2042415e-05
75	0x37b21ada	2.1231757e-05
76	0x36985090	4.5393317e-06
77	0xb72b0a76	-1.019483e-05
78	0x378059e8	1.5300655e-05
79	0x35007326	4.785128e-07
80	0x3750f72c	1.2455315e-05
81	0x379ae6fd	1.8465793e-05
82	0x3790ef72	1.7277638e-05
83	0xb60a9d83	-2.0655286e-06
84	0xb5d5c7ed	-1.5927923e-06
85	0x36c4f674	5.869946e-06
86	0x37754574	1.4619309e-05
87	0x373a45b7	1.1102696e-05
88	0x3676f652	3.6800234e-06
89	0x37008b81	7.661875e-06
90	0x353b696b	6.981633e-07
91	0xb5fdbcb4	-1.8904889e-06
92	0x37678750	1.3800178e-05
93	0x372cb8a0	1.0294985e-05
94	0xb75c89c7	-1.3145101e-05
95	0x35a70ce5	1.2446222e-06
96	0xb6a8a7ce	-5.026325e-06
97	0xba9cdb3c	-0.0011967192
98	0xbb4e2740	-0.00314565
99	0xba64c407	-0.000872672
100	0xba71a9ef	-0.00092187425
101	0xbb1682f8	-0.0022966247
102	0xbae5be8e	-0.0017528103
103	0xbadd0389	-0.0016862015
104	0xbb5872eb	-0.003302748
105	0xbaaf1178	-0.0013356647
106	0x35d7b139	1.6070327e-06
107	0x38ef78f1	0.00011418935
108	0xb71bffec	-9.298306e-06
109	0x39f27d13	0.00046251024
110	0xb9f5de9c	-0.00046895898
111	0x3911784a	0.00013873089
112	0xbb46c483	-0.0030329532
113	0xbb65cc5d	-0.0035064437
114	0xb86bb2cd	-5.6194887e-05
115	0xbb4c5d5b	-0.0031183574
116	0xb9e49ef7	-0.00043605987
117	0xb952a2c0	-0.0002008779
118	0xbb2f301b	-0.0026731554
119	0xba85404e	-0.0010166259
120	0xba5bc06f	-0.0008382862
121	0xba8a5b08	-0.0010555694
122	0xb9e170fb	-0.0004299952
123	0x371b7a5f	9.267212e-06
124	0xb98dda45	-0.0002705624
125	0xbb7790c4	-0.0037775496
126	0x3a602812	0.0008550893
127	0xb9d0869e	-0.0003977315
128	0xb7223a0a	-9.669466e-06
129	0x37a3ab70	1.9510946e-05
130	0x3a537cdd	0.00080676173
131	0xb6186afe	-2.2712043e-06
132	0xb75da556	-1.3211122e-05
133	0x3a37ae83	0.00070069
134	0xba76c731	-0.0009413837
135	0xb83ad3e5	-4.4543198e-05
136	0x38ef05fb	0.00011397522
137	0x39b6a60f	0.00034837468
138	0x37640720	1.3591518e-05
139	0xbac4b975	-0.0015008884
140	0xba9132c2	-0.0011077749
141	0xba1e91e4	-0.0006048961
142	0xbac6200e	-0.0015115754
143	0xb8d7a32f	-0.00010282394
144	0x39fe7604	0.00048534584
145	0x3a3c5dca	0.00071856065
146	0x372a3a5f	1.014638e-05
147	0x3a6d3986	0.0009049404
148	0xb9b3a519	-0.00034264548
149	0xb3cc208a	-9.505409e-08
150	0xba729bbb	-0.0009254773
151	0x35fd6d78	1.8881829e-06
152	0xbb2fd26f	-0.002682831
153	0xb9188d7c	-0.00014548557
154	0x370f9d57	8.560098e-06
155	0xb71aed57	-9.234375e-06
156	0x378f41b0	1.7077517e-05
157	0x3a2c399e	0.0006569865
158	0xbb2a322c	-0.0025969846
159	0xbb211468	-0.0024578813
160	0x361ce453	2.3378714e-06
161	0xb660d48d	-3.3502322e-06
162	0xb85a3518	-5.2024698e-05
163	0xb67e3bfc	-3.7883865e-06
164	0xb6907757	-4.3054274e-06
165	0xb7bb161e	-2.2302436e-05
166	0x392292de	0.00015504236
167	0x3671b1a0	3.601519e-06
168	0xb6c20590	-5.782298e-06
169	0x350ddba9	5.284624e-07
170	0xb411ac46	-1.356685e-07
171	0x397de522	0.00024213319
172	0x38e87d9e	0.0001108602
173	0xb72a24e9	-1.0141383e-05
174	0x399d9e90	0.00030063512
175	0x393df54b	0.00018115823
176	0xb78d1ec5	-1.6822838e-05
177	0x3865e0bd	5.480716e-05
178	0xb796ed76	-1.799197e-05
179	0xb84d6794	-4.8972273e-05
180	0x39625403	0.00021584336
181	0x372c673e	1.0276037e-05
182	0x3967c9e8	0.00022105093
183	0x3703d23c	7.8571575e-06
184	0x3a0a2176	0.00052692683
185	0x36a71f21	4.9806117e-06
186	0x376c8057	1.4096578e-05
187	0xb68889fc	-4.0691793e-06
188	0xb7000db7	-7.632588e-06
189	0xb76e8dac	-1.4218891e-05
190	0x39bc97f6	0.00035971374
191	0x3a08facc	0.000522536
192	0xb3fa7144	-1.1662135e-07
193	0xb5d5b3dc	-1.5922083e-06
194	0x39ced6c2	0.0003945139
195	0x3650d2b6	3.1117065e-06
196	0xb8ba89f7	-8.894869e-05
197	0x39cbfa35	0.00038905596
198	0xba5d7be8	-0.00084489444
199	0xb8c7e7de	-9.532248e-05
200	0xb8decd5a	-0.000106240346
201	0x393d4eeb	0.00018053844
202	0x371bff37	9.298142e-06
203	0xbaa0d61f	-0.0012270844
204	0xba554a90	-0.0008136416
205	0xb9dde88c	-0.00042325666
206	0xba96aeab	-0.0011496147
207	0xb89ecff2	-7.57276e-05
208	0x3921cac3	0.00015429691
209	0x398e6af6	0.00027164043
210	0xb779b95b	-1.4884713e-05
211	0x3a0f261e	0.0005460697
212	0xb98084b0	-0.00024512922
213	0xb74edbb2	-1.2329709e-05
214	0xba69cb44	-0.00089185336
215	0xb7253298	-9.846546e-06
216	0xbb080da7	-0.002076009
217	0xb9593179	-0.00020713163
218	0xb56f5439	-8.9157e-07
219	0x375ffa63	1.33501335e-05
220	0xb7aaab65	-2.0345391e-05
221	0x39957594	0.00028507097
222	0xbaf16f1b	-0.0018419953
223	0xbaf9ed79	-0.0019067965
224	0x376ce15a	1.4119165e-05
225	0x2f5db2cc	2.0163354e-10
226	0x372ea933	1.0410603e-05
227	0x3702332a	7.760516e-06
228	0x37224a71	9.673285e-06
229	0xb7705bf1	-1.43265215e-05
230	0x373f3c33	1.1398503e-05
231	0xb747a9a3	-1.1900821e-05
232	0x37547977	1.2664465e-05
233	0xb31db3c8	-3.671792e-08
234	0xb7517af9	-1.2486003e-05
235	0x360c5c1a	2.0915236e-06
236	0xb57b1897	-9.354057e-07
237	0xb754f6b7	-1.26936275e-05
238	0xb669efe8	-3.485935e-06
239	0xb4025cc4	-1.2140941e-07
240	0x373246a2	1.0626072e-05
241	0xb62c76d2	-2.569916e-06
242	0x36f96bde	7.4333357e-06
243	0xb10441a8	-1.924585e-09
244	0x3250caac	1.2153276e-08
245	0x354c382d	7.607767e-07
246	0xb70eba87	-8.507289e-06
247	0xb7417c0e	-1.153258e-05
248	0xb633f573	-2.6815949e-06
249	0xb75ec1ab	-1.3277323e-05
250	0xb6aff9ee	-5.244502e-06
251	0x331ec72c	3.6968387e-08
252	0xb70f6802	-8.54768e-06
253	0xb6928c00	-4.367437e-06
254	0xb5212ccf	-6.004238e-07
255	0x33942435	6.898373e-08
