checkpoints/standard/standard_epoch0200.pt (torch, 45285 bytes, 24 tensors)

0.weight f4 [32, 2]
000000 2f d2 34 3f d7 dd 2a 3f b3 09 9c be 62 70 4a 3f
       0.70633215 0.6674475 -0.3047615 0.7907773
000010 44 d7 ba bd 8d 6c 98 3e f8 7d ec be a0 dc ed 3e
       -0.0912309 0.29770318 -0.46189857 0.46457386
000020 d2 42 1e 3f e9 52 03 bf 78 f3 4c 3f 27 1d a5 3e
       0.6182071 -0.51298386 0.80059004 0.32248804
000030 ba a0 f7 3e a6 0a 4c bd 77 8e 20 3f 0c 5c cd bd
       0.48364812 -0.049814843 0.62717384 -0.10027322
000040 e2 62 10 3f 7e 39 9f 3d c1 2f f0 ba 71 e4 23 34
       0.56400883 0.07774638 -0.0018324779 1.5263664e-07
000050 78 bc d4 ba 5b 15 79 14 ee 70 ed be 5c 74 0e 3f
       -0.0016230484 1.2575499e-26 -0.4637522 0.556463
000060 35 01 4a bf 48 a9 19 bf 68 2d 8e be b6 2f 95 be
       -0.7890809 -0.6002393 -0.27769017 -0.29137963
000070 fd 0a a2 bc 8c ce 4c bf b9 e0 e2 3e 2d 49 1f bf
       -0.01978063 -0.80002666 0.44312075 -0.6222103
000080 c3 e2 35 3f 0a 0e 0d 3d 2f a9 c2 be d1 db 1a 3f
       0.71049136 0.034437217 -0.38019702 0.60491663
000090 fb 89 49 3e 19 07 10 3f 1b 9f 82 3e 6e 1d d1 be
       0.19681542 0.5626083 0.25512013 -0.40842766
0000a0 7e bf df 3d c3 c3 69 be 6f a2 c6 3e a9 19 44 3f
       0.10925196 -0.22828583 0.38795802 0.76601654
0000b0 3f c2 8f 3e 91 b7 c6 be 58 b6 10 3f 43 67 c5 bd
       0.28077886 -0.38811925 0.56528234 -0.09638836
0000c0 90 a6 e7 3e c8 ba ff be f4 e4 57 bf a2 9c dc be
       0.45244265 -0.4994719 -0.8433373 -0.4308825
0000d0 96 2f 15 bf 7c 90 19 3f f5 ce a6 3e c4 2f bb 3e
       -0.58275735 0.5998609 0.3257977 0.3655988
0000e0 4e e1 8f 3e d9 bb b8 ba 4d 5e f9 3e 3f 5b 49 bf
       0.2810158 -0.0014094069 0.48704758 -0.78654855
0000f0 90 8a 77 3d 6c b8 33 bf d7 22 ca 3e 10 ae cd be
       0.060434878 -0.7020328 0.39479706 -0.40171862

0.bias f4 [32]
000000 db 17 96 3d 8f ba 38 be a4 bd 32 3f 7d 01 e5 be
       0.07328769 -0.18039916 0.6982062 -0.44727698
000010 4d 04 0f bf 52 67 ce be ee ec 33 3f dd bc 99 3e
       -0.5586594 -0.40313202 0.702834 0.30026904
000020 a7 c9 43 3f 3a 1b 85 bd 3a 76 04 be 88 09 00 bf
       0.7647957 -0.06499334 -0.12935725 -0.50014544
000030 c8 79 cc be 52 e0 cf 3e 91 b9 75 3e d2 7e 32 3f
       -0.39936662 0.4060083 0.23996569 0.6972476
000040 b2 69 d1 be ed 62 d3 be 9f fe e9 3e f7 58 58 be
       -0.40900952 -0.41286412 0.45702073 -0.21127687
000050 f4 ee f9 3e 2f 38 84 be a4 c3 bf 3e 7f b9 e9 be
       0.4881512 -0.25824115 0.3745395 -0.45649335
000060 65 30 cc be 4e 6b 34 3e 54 3b 85 3d a6 4f 8c be
       -0.39880672 0.17619058 0.065054566 -0.27404517
000070 28 42 06 3f 96 7f fa 3e 1a 57 f7 be 49 03 aa be
       0.52444696 0.48925465 -0.4830864 -0.3320563

2.weight f4 [32, 32]
000000 db 47 f9 31 f5 5d fd 0d 0e 70 fa ad 45 dc 21 b3
       7.255023e-09 1.5614948e-30 -2.8471472e-11 -3.7686068e-08
000010 e4 3a 0c 1d f0 94 34 8a 3f dd ef b0 d7 c5 0f ae
       1.8559291e-21 -8.694697e-33 -1.7452421e-09 -3.2690153e-11
000020 4c 4e 4e ae 98 24 db a7 b7 e0 0e b0 91 7b 0f 9a
       -4.690852e-11 -6.0824386e-15 -5.197864e-10 -2.9671523e-23
000030 e1 7f 93 b2 75 6f 96 b4 6d 4d ba b5 81 49 89 b6
       -1.7171205e-08 -2.8020773e-07 -1.3880614e-06 -4.091475e-06
000040 90 a2 aa 0c 65 c9 5c b2 db de 71 a5 d9 ad 52 17
       2.6290486e-31 -1.2851477e-08 -2.0978924e-16 6.8074086e-25
000050 b1 b1 eb b1 ad 71 05 b1 39 90 52 b3 9a 8d dd 9d
       -6.8596013e-09 -1.9418664e-09 -4.9025605e-08 -5.8644626e-21
000060 8d 29 47 8e ea ee 19 b3 94 fe 5c 02 50 0e 6b a7
       -2.454865e-30 -3.584038e-08 1.6236108e-37 -3.262056e-15
000070 ec 97 f1 b0 99 c6 1d b6 f2 55 67 9a d6 c4 dc ad
       -1.7578237e-09 -2.3510422e-06 -4.7839106e-23 -2.5098517e-11
000080 9e 33 d6 3e b8 6f 3e 3e 1e cf 0a 3e c8 24 f8 3e
       0.41836256 0.18597305 0.13555571 0.48465562
000090 19 a6 95 be 54 2d 97 3e 6f da c7 3c c1 f8 89 3e
       -0.29228285 0.2952677 0.02439615 0.26947597
0000a0 d0 d1 64 bd b0 fe a9 b3 46 0e fd 0a 07 fe d8 3e
       -0.055864155 -7.916003e-08 2.4368383e-32 0.42381307
0000b0 82 95 51 3e 01 2d 9d be e1 e1 94 3e dd 45 2d bd
       0.20467189 -0.30698398 0.29078582 -0.042302955
0000c0 11 6b 51 be 26 63 fa 3e 7d 66 29 3e 2c 30 90 be
       -0.20450999 0.4890377 0.16543002 -0.28161752
0000d0 2a 56 01 3e 22 40 97 3e 2a 52 f1 3d 7e b2 3b be
       0.12630525 0.29541117 0.1178325 -0.18329808
0000e0 b8 ce a8 be 56 0d 3a be 0e 74 16 3e ae de 33 3e
       -0.32970214 -0.1816915 0.14692709 0.17565414
0000f0 f3 18 16 3e 4b 3e 8d 3e bd c1 31 bd b9 99 ad be
       0.14657955 0.27586588 -0.043397654 -0.33906344
000100 4a 04 34 3e df 1e 07 3c 42 43 85 bd fa 3e bf 3d
       0.17579761 0.008247106 -0.06506969 0.09338184
000110 04 ce af bc c3 17 df 3d 66 41 2e be 7d ae fa 3d
       -0.02146054 0.10893204 -0.17017135 0.12240312
000120 96 7f 2e bd b9 b7 45 9a c5 a1 43 15 e5 0b 86 3e
       -0.042602144 -4.0887055e-23 3.950755e-26 0.2618095
000130 7c 12 86 3e d7 e9 28 bd 60 cb a6 3c 7d ca 00 be
       0.26185977 -0.041238632 0.020360649 -0.12577243
000140 4c 24 9b 3d 32 14 ae 3e 37 56 7f 3d 83 7e e6 bd
       0.075752825 0.33999783 0.06233808 -0.11254599
000150 7e 00 80 bd 24 50 90 3e 03 29 44 bd 67 35 0d be
       -0.06250094 0.28186142 -0.047890674 -0.13789903
000160 0c f2 17 bd 73 8e f4 3d 03 25 f5 3c ac 41 b5 3e
       -0.03709607 0.119412325 0.029924875 0.35401666
000170 cf c7 15 be 81 3c 5c bb 3b 1b 9b b9 12 6d 1e be
       -0.14627002 -0.00336054 -0.00029584192 -0.15471295
000180 21 8d 79 3e 1f 8d 41 3e a9 2c ea bd fe 93 36 3e
       0.24370243 0.1890149 -0.114342995 0.17829892
000190 f7 7a 11 be 80 9c e8 3e 36 a8 07 3c ca 15 67 3e
       -0.14207064 0.454319 0.008279851 0.22566906
0001a0 a9 82 33 be 4f be 72 8f 7e 81 d7 2f 60 6e 98 3e
       -0.17530312 -1.1968173e-29 3.9200282e-10 0.2977171
0001b0 1d 72 d1 3e e6 15 3c bd 01 38 a5 3d 44 4d 88 bc
       0.40907374 -0.04591932 0.080673225 -0.016638406
0001c0 c9 10 ba 3e 90 99 aa 3e 97 bd 99 3d 98 99 d0 bd
       0.3634093 0.33320284 0.075068645 -0.10185546
0001d0 72 f4 90 be 86 d1 21 3e d8 0e 30 3d 79 31 6c 3d
       -0.28311497 0.15802583 0.042982906 0.05766437
0001e0 b8 32 10 be b4 82 b2 3b 6b 24 81 3d 2b 3a cc 3e
       -0.14081848 0.00544771 0.06305774 0.3988813
0001f0 2e 21 26 be 38 01 8a 3e 0c e8 4c be 45 84 0f be
       -0.16223595 0.26954055 -0.20010394 -0.140153
000200 dc 6c 00 be 28 81 a4 3e 86 7f 8c 3e 70 7b d8 3d
       -0.12541527 0.32129788 0.27441043 0.10570419
000210 b9 fa 41 bf e2 3a 23 bf 74 1b 82 3d fc cb 7c 3e
       -0.757732 -0.63761723 0.063528925 0.24687189
000220 87 59 94 3e a4 72 d1 2f da a6 8b 16 2c 44 3e 3d
       0.28974554 3.8098336e-10 2.256196e-25 0.046451733
000230 32 c4 dd be 2b 8d 87 be 6d c1 1f be 14 1d 08 be
       -0.43313748 -0.2647489 -0.1560113 -0.13292342
000240 c1 6a 66 bf 18 1b a9 bd e7 36 23 3e f4 c3 25 bf
       -0.90006644 -0.08257121 0.15938912 -0.64752126
000250 6f cf 8b 3d c6 75 05 be bd ce 96 bd 32 e1 41 bf
       0.06826674 -0.13033208 -0.07363651 -0.75734246
000260 28 a7 3d bf e4 8e cf bd 13 c4 ca bb 7a 4f e3 be
       -0.74083185 -0.10134676 -0.0061879246 -0.44396573
000270 46 bf 2a 3e 13 3f 2b bd 2d 7d 1d bf f3 20 46 bf
       0.16674528 -0.0418082 -0.6151913 -0.77394027
000280 e4 f5 30 3e 30 d5 41 bd c4 5a da 3b 60 1b c8 3e
       0.172813 -0.047322452 0.006663652 0.39083385
000290 4e 77 d7 bd 0d 45 39 3e ff 78 ae 3d 84 b8 05 bd
       -0.105208024 0.18092747 0.08519172 -0.03264667
0002a0 87 40 0f 3d e0 da 87 32 21 39 ad 05 5c 4d bf 3e
       0.034973647 1.5815601e-08 1.6289828e-35 0.37363708
0002b0 67 f0 ec 3d 60 67 95 be 51 be 02 bd c0 26 3c be
       0.115692906 -0.2918043 -0.03191978 -0.18374157
0002c0 a8 bb e7 3e 3a b6 0c 3f 5b 88 29 3e 5b 67 6a be
       0.45260358 0.54965556 0.16555922 -0.2289099
0002d0 07 36 8a be b4 63 8e 3e a3 3d 96 3d 09 80 a6 be
       -0.26994345 0.27810442 0.07335975 -0.32519558
0002e0 34 b5 89 be d3 8c 0c be 60 29 e7 bc 21 55 b7 3e
       -0.2689606 -0.13725595 -0.028217971 0.35807136
0002f0 8a ce fe bd fc 07 76 3c 72 95 e7 ba f1 93 24 be
       -0.12441738 0.015016552 -0.001766844 -0.1607206
000300 db 0f da 3e 92 93 3c 3e 08 ee 0c be 6e 0b e2 3d
       0.42590222 0.18415669 -0.13762677 0.11037336
000310 b2 62 40 3e 1b 22 74 3e 3e 10 a2 3c d7 82 6c 3d
       0.1878765 0.23841135 0.019783136 0.057741966
000320 46 c8 25 be 2e 02 3e 83 de 22 49 0d 88 7e 34 3e
       -0.1618968 -5.5838484e-37 6.1979877e-31 0.17626393
000330 77 36 05 3f 9f ae a9 bd d2 34 83 3c a2 f8 b6 bd
       0.5203623 -0.082852595 0.016016398 -0.08934142
000340 e0 44 9c 3e c5 73 e6 3e 74 e4 51 bd 3e e3 10 3f
       0.30521297 0.450102 -0.05124326 0.56596744
000350 6c 88 cd bd 0a 9c e5 3e e9 c8 28 3e 17 8c d9 3e
       -0.10035786 0.4484561 0.16482891 0.42489693
000360 94 af 91 3e 85 70 34 3e c2 58 8d 3e bb 9c eb 3e
       0.28454268 0.17621048 0.2760678 0.46018013
000370 f4 77 85 3d 1d f4 61 3e 04 3d 01 3f ae cb 06 3f
       0.0651702 0.22065778 0.5048373 0.5265454
000380 59 2c 4d bb 73 c9 1c bd d2 11 ab 3d 72 ea 97 3e
       -0.003130695 -0.038278054 0.08353008 0.29671055
000390 72 6a 11 a2 5f cb 42 39 5a a5 79 be ba 32 cf bd
       -1.9707516e-18 0.00018577043 -0.24379483 -0.10117097
0003a0 7a 91 79 be f1 a9 d6 88 43 7a 29 27 26 d2 86 3e
       -0.24371901 -1.29196095e-33 2.351974e-15 0.26332206
0003b0 2a d3 9f 3d 6f cc 10 be 3a 1b 67 3e 77 b3 bb 3b
       0.07803948 -0.14140485 0.2256898 0.005728181
0003c0 a9 30 3e 05 83 31 98 3e 79 89 05 be 3c 07 67 04
       8.9426945e-36 0.29725274 -0.13040723 2.7157241e-36
0003d0 fb 08 0b be b7 6d 70 3e ee 0a 89 bd a9 ec 4f b1
       -0.13577645 0.23479353 -0.06691538 -3.025699e-09
0003e0 5b c8 a4 ae b6 cd 9f bd ab a7 2e 3e 51 ee 19 3e
       -7.493447e-11 -0.07802908 0.17056148 0.15032317
0003f0 3e 6d 6c be 1c ba 35 3d 2d 19 fd 0a 51 24 a3 19
       -0.23088548 0.04436694 2.4372484e-32 1.6868473e-23

2.bias f4 [32]
000000 ec f1 86 b6 c8 b6 22 be 25 5c b0 bd 0a 1d 58 be
       -4.0216746e-06 -0.15890038 -0.08611325 -0.21104828
000010 4b 44 91 3e b2 f5 87 be b3 00 db b8 86 d7 eb 3d
       0.28372416 -0.26554638 -0.00010442864 0.11515717
000020 e8 8c 2f bc 1e 59 10 3e 8a e1 c2 bd a6 44 e2 3d
       -0.010714747 0.14096496 -0.095156744 0.1104825
000030 df 43 af bd db ac 6d be 3c de bb 3d de b1 bb bd
       -0.08557867 -0.2321047 0.09173247 -0.09164785
000040 67 81 48 bd 15 4f 5d 3e e8 49 20 be 0d 83 fa bc
       -0.048951533 0.21612199 -0.15653193 -0.030580068
000050 1b 5a c8 3d be 1e 90 bd b8 63 93 3c 74 8e 44 be
       0.09782811 -0.070371136 0.017991886 -0.19194967
000060 0c 5b 90 3c 79 26 4b 3d 9a ae 13 be 37 8a 18 be
       0.01762154 0.049597237 -0.14422074 -0.14896475
000070 e9 d8 13 3e 88 76 c0 3d ee 19 11 be 28 32 26 3e
       0.14438213 0.09397608 -0.14170048 0.1623007

4.weight f4 [32, 32]
000000 49 75 8b 17 ed 2d b9 bd fc 81 23 3d b6 7b 0b 3f
       9.012271e-25 -0.09041963 0.039918885 0.5448564
000010 df 3e 81 3d 04 20 b1 3e d0 0a 6a bd ae 1a 8c 3e
       0.0631082 0.34594738 -0.057139218 0.27364105
000020 57 fa 01 3e ec 39 f5 3d ca 2e 9f be d6 ac 8b 3d
       0.12693153 0.11973938 -0.31090385 0.06820075
000030 99 f2 55 be 0c bd 46 be 7c e7 4e bd 32 29 88 bb
       -0.20893325 -0.19408053 -0.05051373 -0.0041553015
000040 c1 a4 19 be a7 38 9a 3d 0a 55 9d 3e 26 13 aa 3c
       -0.15004255 0.07530337 0.30728942 0.020761084
000050 87 65 4b be b5 b5 64 3e 2d 5e 6e 3e 87 16 be 3e
       -0.19862948 0.2233494 0.23278113 0.37126562
000060 45 11 1c 3e 98 cf 6a 3d 20 d0 13 3f eb dd cb be
       0.15240963 0.057326883 0.5773945 -0.39817747
000070 07 35 bc 3d 6e be c3 3d ba 88 49 be 95 9c 92 bc
       0.09189802 0.09557806 -0.19681063 -0.01789693
000080 f7 01 2b 92 6c 6f 4f be c6 9c 29 3e be 46 09 3f
       -5.396051e-28 -0.20257348 0.1656371 0.5362357
000090 ca bf b2 bd 5e bf c5 3e 6d 61 b0 3b a4 06 89 3e
       -0.08727987 0.38622564 0.005382708 0.2676288
0000a0 84 fc 87 3e 9b 39 c2 bd d3 77 c8 be 5b 17 82 be
       0.26559842 -0.094836436 -0.3915392 -0.25408444
0000b0 2e e3 57 be 71 d0 ec be bd 07 19 3d 8d 49 62 bc
       -0.21082756 -0.46252778 0.037360895 -0.013811481
0000c0 47 77 07 be 04 fe 8a 3d fc eb a1 3e 35 4f 56 3e
       -0.13229094 0.06786731 0.31625354 0.20928653
0000d0 86 8e 85 be 6b b4 20 3e 6f 34 f0 3d 0f 3b a2 3e
       -0.260853 0.15693824 0.11728751 0.31685683
0000e0 9d f9 24 3e f8 f1 97 3d b1 fb 22 3f c0 8a db be
       0.16110845 0.07419199 0.636653 -0.42879295
0000f0 38 aa 2e 3e a8 97 53 3e cc f6 16 be 53 5e 88 3e
       0.17057121 0.20663321 -0.14742583 0.26634464
000100 1d 13 14 2c d8 0f 56 b9 24 58 f5 3c bd 5a 28 b7
       2.1042675e-12 -0.00020414533 0.029949255 -1.0034707e-05
000110 9a 54 ac b5 59 b5 5f 3b 8a 6d 21 3c b8 37 b0 b6
       -1.2839621e-06 0.0034135191 0.009852776 -5.2516953e-06
000120 70 27 93 3c 69 61 00 b7 f3 d9 72 30 ee 55 44 3c
       0.017963141 -7.652075e-06 8.834881e-10 0.011983378
000130 c9 94 2d 36 fe 4f e4 b0 ea 8c 20 3c be 39 0a 07
       2.5865613e-06 -1.6611919e-09 0.0097992215 1.0398935e-34
000140 0a 07 93 3b af a7 50 3c ee cc 20 3c 79 20 99 bb
       0.004486923 0.012735291 0.009814484 -0.0046730605
000150 41 0b eb 09 db 0d 9b 3a b3 53 d6 39 d7 64 94 2e
       5.6584775e-33 0.0011829691 0.00040879622 6.7481735e-11
000160 00 6e 16 bd f0 c1 97 bb 5a 26 2c 07 f0 af ff 0a
       -0.036725998 -0.0046312734 1.2951112e-34 2.4621787e-32
000170 c4 76 01 3c 34 7a ed 39 2c e6 26 b2 5c 47 21 bb
       0.007901851 0.0004529521 -9.714807e-09 -0.0024609184
000180 12 2a b7 9c 9c 09 c7 bd 24 9e d5 3d ae ce a0 3e
       -1.2120799e-21 -0.0971863 0.104305536 0.31407684
000190 65 e3 06 be 43 c0 43 3e 43 a4 24 3c 2f b6 8a 3e
       -0.13172682 0.19116311 0.010048929 0.2709212
0001a0 8b c3 86 3d 07 94 1c 3e 58 5c aa be 49 a8 65 be
       0.065802656 0.15290843 -0.33273578 -0.22427477
0001b0 e3 75 38 bd 5c 54 44 be 2b 77 9b bd 19 84 dc bd
       -0.0450343 -0.19172806 -0.07591089 -0.10767383
0001c0 f7 f0 1a 3e c0 9c 7d 3e 78 cc 52 3e 74 8e 19 3e
       0.15130983 0.24766827 0.20585811 0.14995748
0001d0 8f 17 44 be 23 ea 11 3d e1 7c 7c 3d 92 9e a2 3e
       -0.19149612 0.03562368 0.06164253 0.31761605
0001e0 ea 30 b4 bc 7f ca 26 3d 4c 1a 90 3e 8f 9c c0 be
       -0.02199598 0.04072046 0.28145063 -0.37619445
0001f0 95 f2 68 3e 15 b3 1e 3e 65 c6 e7 bc 2b 43 1d 3e
       0.22748788 0.15498002 -0.028292844 0.15357654
000200 f6 a0 2e ac 9b 40 4a bd 6b 55 2e be d0 e0 03 3e
       -2.4816238e-12 -0.04937802 -0.17024772 0.12878728
000210 0f 84 96 3d 4f d3 2a 3d a8 f2 6b 3e b9 e3 b1 be
       0.07349407 0.041705426 0.23041785 -0.3474405
000220 5e 48 0b be e5 5b 82 be 27 eb eb 3e 37 42 80 3e
       -0.13601825 -0.25460735 0.46077845 0.25050518
000230 92 e3 a3 3e 13 51 ad 3e 4b a4 76 3e 0e 28 e3 3d
       0.3200956 0.33850917 0.2408611 0.11091624
000240 8d 2b 49 be cb 75 9e be a1 26 9d be 72 14 03 be
       -0.1964552 -0.30949244 -0.30693534 -0.12800768
000250 f7 d0 ca 3d f1 80 07 3e 81 49 c5 bb c4 16 33 be
       0.09903138 0.13232781 -0.0060207252 -0.17489153
000260 49 d2 81 3b 3e 80 39 bd 4f 51 c2 be 35 8e d7 3e
       0.0039618355 -0.045288317 -0.3795266 0.42100683
000270 7a d6 93 3e 1e 4c 27 be af 87 49 3e aa 74 66 3e
       0.2887457 -0.1633763 0.19680665 0.22505441
000280 5b 93 d6 0a b2 b3 52 be e2 08 75 3d 64 d2 24 be
       2.066288e-32 -0.20576361 0.059822924 -0.16095883
000290 fb 14 90 3e f0 53 5e be 75 da 90 be b2 00 99 3b
       0.28141007 -0.21711707 -0.2829167 0.0046692723
0002a0 c2 71 32 be 42 af a2 bd 7d ae f6 be a6 fe 0b be
       -0.17426208 -0.07943584 -0.4818 -0.1367136
0002b0 e9 6c 08 be fd f2 2a bd fa ca 8f bd 39 13 e7 3d
       -0.13322796 -0.041735638 -0.070211366 0.11282963
0002c0 d3 96 03 bf 10 23 51 3e a7 16 37 be 65 6c ff bd
       -0.51402014 0.20423532 -0.17879735 -0.124718465
0002d0 ce ef d4 3e ee bb dd be fa 41 be be 0f 7a 6d bd
       0.41589206 -0.4330744 -0.3715971 -0.057977732
0002e0 1f e0 4b 3e 49 8f 4a 3d 3d eb ab bd 47 cf 2d be
       0.19909714 0.049453054 -0.083944775 -0.16973601
0002f0 fe b2 94 3e 30 e3 ce bc 00 2e e9 be 7e a5 10 3e
       0.2904281 -0.025254816 -0.45542908 0.1412563
000300 c6 45 53 92 9a 96 c5 3d d2 d6 5c be c7 27 19 3e
       -6.6665863e-28 0.096478656 -0.21566322 0.1495658
000310 61 7e cd bc 8a 87 d5 bd fd 83 34 3e 77 fe 4c be
       -0.025084676 -0.10426243 0.17628475 -0.20018946
000320 7f 67 5c bd 39 02 bd be 70 a0 e7 3e c6 18 29 3e
       -0.05380964 -0.36915758 0.45239592 0.16513357
000330 c0 aa b4 3d b8 48 0b 3f f4 69 32 3e 66 5a 2c bc
       0.088216305 0.54407835 0.1742323 -0.0105196
000340 11 8f 83 3d 85 02 00 be fd b6 9a be e2 ef 21 be
       0.06423772 -0.12500961 -0.30217734 -0.15814164
000350 88 be 5d 3e c9 85 1d 3e 1a e6 9a bd 36 ec 37 be
       0.21654713 0.15383066 -0.0756342 -0.17961201
000360 c6 42 8b 3e a1 9c 09 3c 1b 4b ad be 20 94 f8 3e
       0.27199382 0.00839916 -0.33846363 0.4855051
000370 f2 9e 74 3e f2 b6 93 be dc f1 62 3e 9f 85 18 3e
       0.23888758 -0.28850514 0.22162575 0.14894722
000380 fb 21 69 33 ec 4a 38 81 de 08 e5 2c 6c 69 a2 9f
       5.4280445e-08 -3.3849216e-38 6.509556e-12 -6.8784075e-20
000390 a4 53 a5 2a ce d6 a1 b3 77 dc 31 2f 41 db 2a b0
       2.9367925e-13 -7.5362195e-08 1.6176381e-10 -6.215722e-10
0003a0 da 4c 7b 31 b2 0a c9 02 70 73 2a b1 ed 8e be 8a
       3.6568992e-09 2.9540434e-37 -2.4803875e-09 -1.8350097e-32
0003b0 dd 80 88 08 b5 b1 85 b1 5a e0 5d 0e 66 9c 5f 04
       8.215498e-34 -3.8910124e-09 2.7348374e-30 2.6285339e-36
0003c0 ea 36 79 2d d2 48 ad 8c e6 9d b3 1d 70 83 db 04
       1.4166205e-11 -2.6698698e-31 4.754417e-21 5.160736e-36
0003d0 20 7b 1b 02 aa b9 28 87 ad 3c 60 a5 0f 71 81 af
       1.1422937e-37 -1.2693477e-34 -1.9449461e-16 -2.3545296e-10
0003e0 2b 2a bd 0c f1 df 56 b2 e4 3c 87 14 a7 40 e8 02
       2.914544e-31 -1.2507358e-08 1.3655534e-26 3.4126445e-37
0003f0 3c 7f 9e a5 34 02 87 90 0d fe 9b 87 53 00 78 02
       -2.7494848e-16 -5.3251506e-29 -2.3471126e-34 1.8220255e-37

4.bias f4 [32]
000000 73 43 2c 3e d9 78 f9 3d 84 f5 77 bd d5 81 33 3e
       0.16822605 0.12181253 -0.060536876 0.17529996
000010 c1 f8 83 bd 25 d5 1d 3e 85 23 81 bd d8 e2 b6 b2
       -0.064439304 0.1541334 -0.06305603 -2.1290745e-08
000020 a4 6e 12 3c 1d 1e 15 3d c0 db b1 bb d0 75 35 3e
       0.008937512 0.03640567 -0.0054278076 0.17720723
000030 7b 69 82 bd 2e 97 11 b3 e2 73 cc bd e3 36 47 bd
       -0.06367775 -3.389794e-08 -0.099830404 -0.04863633
000040 b2 56 e9 bc c8 07 99 bd 11 f9 10 3c a5 e3 05 b1
       -0.028483722 -0.07472187 0.008848445 -1.9483448e-09
000050 1d 9c 44 bc 07 82 4a bd 6a 13 5b 3d 2b 92 1c 3e
       -0.012000111 -0.04944041 0.05348531 0.15290134
000060 9e 55 96 3d e5 d6 4c 9a 3f bd 11 af 5d 12 a5 bd
       0.07340549 -4.2359802e-23 -1.3254907e-10 -0.08060143
000070 3c fd 03 bd a5 d8 db 3c 58 6f 08 bd 10 b7 12 3e
       -0.032223925 0.026836703 -0.03330931 0.14327645

6.weight f4 [2, 32]
000000 8e a1 6d 3e 2f 96 48 3e 8e 65 81 3c 8e ae 36 3e
       0.2320616 0.1958854 0.015795495 0.17840025
000010 2c 03 84 be 43 d2 39 3f 85 f0 e7 be 40 14 1e 15
       -0.2578367 0.7258646 -0.4530069 3.192382e-26
000020 87 e4 ac be a8 ce 0f bf 7e b5 c7 b6 f9 f5 8d 3e
       -0.33768103 -0.5617471 -5.9517906e-06 0.27726725
000030 8e 96 34 3f 84 73 63 8a ff 92 ed be f8 03 a2 be
       0.7054223 -1.09513785e-32 -0.46401212 -0.31643653
000040 e4 7d 2d 3f b7 b9 95 3e 59 70 1a be 4a 1c e7 2f
       0.6777022 0.29243252 -0.1508192 4.2038756e-10
000050 cb a6 15 3f bb 2e d9 be 7b 28 a8 be d5 6c 04 bf
       0.5845763 -0.42418465 -0.32843384 -0.51728565
000060 b6 98 93 be e6 7c 1d ae eb e6 83 0a 0c 9a 2a bf
       -0.28827447 -3.58086e-11 1.2701703e-32 -0.66641307
000070 b0 4a 36 3f bb 00 c6 be be d2 e4 be ae c0 d5 be
       0.71207714 -0.38672432 -0.44692034 -0.41748565
000080 0a bc 1f be e7 11 8e be 33 bd de 3c 5a cf 82 be
       -0.15599075 -0.27748033 0.027189827 -0.25548822
000090 57 a9 9d 3e ec 4a 3c bf 23 86 64 3e 0d 09 26 17
       0.3079326 -0.7355182 0.22316794 5.3648917e-25
0000a0 2d 10 9f 3e e6 cd ce 3e 7a 06 de b7 82 84 95 be
       0.3106703 0.40391463 -2.6467478e-05 -0.29202658
0000b0 27 9a 2f bf dd 32 3c b2 a1 ce f0 3e 00 0b bd 3e
       -0.6859459 -1.0954605e-08 0.47032645 0.36922455
0000c0 d7 3e 2e bf 76 9e c1 be 09 e4 0c 3e b1 e3 12 2f
       -0.68064636 -0.3781621 0.13758864 1.3359515e-10
0000d0 a7 b4 16 bf 35 2d 8f 3e 92 3b f8 3e be 15 b6 3e
       -0.58869404 0.27964178 0.4848295 0.35563463
0000e0 78 e7 b1 3e 70 d0 9c 90 f4 ca fd 0a ce c6 be 3e
       0.3474691 -6.18523e-29 2.4439356e-32 0.3726105
0000f0 0f ca 21 bf f7 c0 30 3f e8 fd a4 3e d7 24 ba 3e
       -0.6319894 0.6904444 0.32224965 0.36356232

6.bias f4 [2]
000000 d1 a8 40 3e 43 c9 33 3d
       0.18814398 0.04389311

exp_avg f4 [32, 2]
000000 f6 18 96 39 6c 62 d8 ba b3 0f 45 3b e8 98 af bb
       0.00028628827 -0.0016508824 0.0030069172 -0.005358804
000010 ce 9e 5c 3a 6e c3 15 bc fa 76 88 3a 24 66 cb 3a
       0.0008415998 -0.009140832 0.0010411434 0.0015518111
000020 13 e7 0d bc 5a e9 1e ba ba eb a4 bb 0a fa c7 3b
       -0.008661049 -0.0006061994 -0.0050329836 0.006102805
000030 be b1 96 3a 8f 8e 03 bb c7 37 28 bb eb 39 00 3b
       0.0011497063 -0.0020073985 -0.0025668012 0.0019565772
000040 b3 2f 36 bb 8c 3b 10 bb d6 c4 44 b4 60 46 86 2d
       -0.0027799427 -0.002200815 -1.8325531e-07 1.5265289e-11
000050 e1 47 2e b4 06 1f cc 0d 27 ab 04 bb c6 8c 5b b9
       -1.6231162e-07 1.2579939e-30 -0.0020243616 -0.0002093791
000060 79 c4 30 3c a4 ed 21 3c c5 26 0b ba 50 3f a7 39
       0.01078903 0.009883318 -0.00053082063 0.00031899894
000070 bf d2 e5 39 9b f6 b4 3b 98 0d 00 bb 36 57 13 3b
       0.00043835302 0.0055225617 -0.0019539353 0.0022482402
000080 93 fd 70 bb bf f7 7d 3b 2b d7 8d ba 67 c3 be 3b
       -0.0036772236 0.0038752405 -0.0010821571 0.0058216336
000090 25 81 65 3b d9 7d 9f bb b0 35 9f bb 36 14 0f 3c
       0.0035019603 -0.004867297 -0.004858695 0.008732846
0000a0 47 1a 23 3a 7a f7 af bb 8e 4c e8 38 bb 9a 8a ba
       0.0006221872 -0.0053700777 0.000110768815 -0.0010574678
0000b0 8d f9 9e ba 85 3b 18 3b f9 fb 07 bc c4 16 2f 3a
       -0.0012128815 0.0023228836 -0.008299821 0.00066791126
0000c0 9e ee eb bb 56 de 8d 3b fc fd 26 3b 77 8f 97 3b
       -0.0072000762 0.004329483 0.0025480976 0.0046252566
0000d0 ce 08 52 3b 0b c1 a0 3a fe ef 48 bb 4f a2 71 3c
       0.0032048705 0.0012264563 -0.0030660625 0.01474817
0000e0 c9 b0 96 bb f0 35 cd ba c5 01 3f bb 0b fd 9b 3b
       -0.004598711 -0.0015656333 -0.0029145342 0.0047603897
0000f0 b9 b2 52 bb f9 d5 45 3c dd d9 02 bc 23 41 be 3b
       -0.0032149984 0.012074941 -0.007986513 0.0058061047

exp_avg_sq f4 [32, 2]
000000 a4 b0 e3 39 55 13 99 3a ea be 00 3a d4 be 47 39
       0.00043428421 0.0011678735 0.0004911261 0.00019049208
000010 23 04 fa 3a 2d d1 af 3a 02 9d ba 3b e6 aa 15 3b
       0.0019074719 0.001341378 0.0056949863 0.002283746
000020 58 1a c2 3b 8f 9e db 3a d4 b8 be 3a 64 82 0f 3b
       0.0059235506 0.0016755628 0.0014550933 0.0021897787
000030 12 45 f2 3a 37 c6 47 3a 86 c5 92 38 c3 33 7d 39
       0.0018483719 0.0007620784 6.998614e-05 0.00024147243
000040 8e 5f 91 3a 8f e2 41 3a ac 02 15 2e 46 0c b0 2c
       0.00110911 0.00073961256 3.388105e-11 5.0035835e-12
000050 12 ce 0e 2e f1 2d fe 2a 61 da 0c 3c fa 96 72 3b
       3.247009e-11 4.5151342e-13 0.008596987 0.0037016259
000060 08 eb c1 3b 7b 68 84 3b f9 92 60 39 21 cc 5c 39
       0.0059179105 0.0040407754 0.00021417056 0.00021056879
000070 ae 1f 4f 3a 86 86 c1 39 7d 7c bb 39 39 84 60 39
       0.0007901144 0.00036912056 0.0003576017 0.00021411561
000080 51 52 66 3b 46 a3 40 3a 8b cb 5b 3c 74 4e 03 3c
       0.003514428 0.00073485484 0.013415228 0.00801431
000090 3c 9c 4c 3a 43 86 b4 39 f8 8f dd 3b 29 0e 4f 3b
       0.0007805263 0.00034432308 0.006761547 0.0031594133
0000a0 7d f3 a9 3b f4 a8 61 3b ce 0f 20 3b 35 b5 6c 3b
       0.005186497 0.003443298 0.0024423483 0.003611875
0000b0 9e ec 87 39 76 7a 5b 39 e9 ac 0f 3c b3 a7 17 3a
       0.000259255 0.00020931088 0.008769252 0.0005785182
0000c0 e5 1b b7 3b 84 80 05 3b d3 33 9a 3a e6 ec 38 3a
       0.005588042 0.002037079 0.0011764712 0.00070543436
0000d0 aa 1e 44 3a c1 12 bf 39 fd 10 eb 3a 7a 7a 07 3c
       0.0007481376 0.00036444332 0.001793414 0.008268947
0000e0 f2 3d a5 3a 8d 90 6d 3a f2 b0 e6 39 af 9e ba 38
       0.0012606962 0.0009062372 0.00044000853 8.898728e-05
0000f0 6c 30 c6 3a aa 5c 2d 3c e6 b0 f6 3b ad 8f 3e 3b
       0.0015120632 0.010581175 0.007528412 0.0029077337

exp_avg f4 [32]
000000 17 23 ae 3b b8 e2 d5 bb db 98 19 bb 8d 5e f9 3a
       0.0053142416 -0.006527271 -0.0023437056 0.0019025371
000010 f8 a5 cf bb ac a2 5f bb ab 9f 2a bb bf ad ad bb
       -0.0063369237 -0.003412406 -0.002603511 -0.005300253
000020 f5 97 a5 3b b1 15 da b6 1c 07 59 b7 9b af 08 3b
       0.005053515 -6.4994315e-06 -1.2935863e-05 0.0020856622
000030 61 4c 4a bc 32 4c 16 b9 9b 09 d4 bb f2 3a 02 3b
       -0.012347312 -0.000143335 -0.0064708716 0.001987156
000040 24 bf 55 3b 3c 9b 3a 3c 07 8e b3 bb 62 ff 23 bc
       0.003261515 0.01138955 -0.0054795775 -0.0100096185
000050 47 ab 05 bc fa 25 5f 3b a6 d2 af 38 f0 05 20 bc
       -0.0081585115 0.0034049735 8.3838866e-05 -0.009767041
000060 dc 4b 06 bc 04 31 95 bb b9 07 20 bb bc 0e 96 3c
       -0.008196797 -0.0045529623 -0.0024418666 0.018317573
000070 22 a0 73 3b c7 76 5e 3b b3 7a 24 bc c7 47 24 bc
       0.0037174304 0.0033945309 -0.010039019 -0.010026879

exp_avg_sq f4 [32]
000000 6c 89 eb 3a d7 85 6b 3a 83 f5 43 3b fe 7d cd 3b
       0.0017970032 0.0008984482 0.0029900975 0.006271123
000010 f9 c1 c1 3b 77 87 7e 3b 77 d1 0f 3b 18 ae f6 39
       0.005913016 0.0038838068 0.002194492 0.00047050486
000020 48 29 ed 3a d4 e1 86 2f 91 ce 07 30 a3 4d 1f 3c
       0.0018093968 2.4534919e-10 4.940626e-10 0.0097231
000030 b6 c9 32 3c 9e 3d 0f 3a ac a3 96 3a af 88 3d 3a
       0.010912349 0.0005464199 0.001149287 0.0007230145
000040 96 41 8c 3b 77 df 90 3c 31 9e b3 3a 2f 03 11 3c
       0.0042802794 0.017684681 0.0013703761 0.008850857
000050 56 40 ee 3b a9 29 be 3b 36 d3 d1 39 b6 c1 d6 3b
       0.007270853 0.005803306 0.0004002095 0.006553854
000060 da 7b d3 3b a1 78 e3 3a 50 f3 84 3a 92 8c 29 3c
       0.0064539732 0.0017354676 0.0010143314 0.010348456
000070 5c 12 06 3b 21 aa 09 3a 16 60 51 3c 51 71 11 3c
       0.002045772 0.00052514864 0.012779256 0.008877114

exp_avg f4 [32, 32]
000000 88 3c 4c 2b e0 ad 4f 07 1c 32 4d a7 85 9c 84 ac
       7.2559363e-13 1.5624046e-34 -2.847663e-15 -3.769043e-12
000010 0b d0 65 16 5a 11 94 83 d4 86 44 aa d2 98 6b a7
       1.856412e-25 -8.702642e-37 -1.7455075e-13 -3.2695645e-15
000020 28 09 a9 a7 b7 8e 33 a1 cb 1f 6a a9 a0 25 6b 93
       -4.691685e-15 -6.083644e-19 -5.1986014e-14 -2.967972e-27
000030 b8 b1 f1 ab 16 80 f6 ad 55 a1 18 af 51 f3 e0 af
       -1.7173407e-12 -2.8023844e-11 -1.3881636e-10 -4.091825e-10
000040 aa e0 0b 06 01 e4 b4 ab 9d 2e c6 9e 55 af ac 10
       2.6308051e-35 -1.2853053e-12 -2.0983344e-20 6.811218e-29
000050 a2 1b 41 ab fd a9 5a aa d9 83 ac ac 59 8a 35 97
       -6.860572e-13 -1.9421266e-13 -4.903172e-12 -5.8658874e-25
000060 bf 96 a3 87 9c 3c 7c ac 3e 2d 00 00 b2 98 c0 a0
       -2.4614115e-34 -3.5844999e-12 1.623e-41 -3.262711e-19
000070 64 f1 45 aa f7 42 81 af b0 98 bd 93 f3 e1 34 a7
       -1.7580864e-13 -2.3512545e-10 -4.786087e-27 -2.5102505e-15
000080 b0 ab 1c bb e4 2d 2e bb d9 60 4e bb 93 b4 99 ba
       -0.0023906045 -0.0026577646 -0.0031490831 -0.0011726789
000090 92 cf 07 39 32 64 67 ba 1c 68 98 bb bc a9 91 bb
       0.00012951929 -0.0008826881 -0.0046510827 -0.0044452827
0000a0 62 1d a4 bb 76 46 0b ad 45 75 4f 04 82 b8 89 ba
       -0.0050083855 -7.916881e-12 2.438658e-36 -0.0010507258
0000b0 53 1f 2f b9 3d 80 f0 ba c9 29 62 bb ab 07 a7 bb
       -0.0001670097 -0.0018348765 -0.003450977 -0.0050973496
0000c0 bc 34 83 39 a7 9e b4 ba a0 61 18 bb d4 02 c1 b8
       0.00025025557 -0.0013780192 -0.0023251548 -9.203484e-05
0000d0 84 cc 40 bb b1 8b 10 bb b4 ff 50 bb 62 b8 d9 38
       -0.0029418776 -0.0022055919 -0.0031890692 0.0001038171
0000e0 94 41 43 38 5a 2e 03 bb 1d e0 7d ba f3 95 db b9
       4.6552697e-05 -0.0020016641 -0.00096845796 -0.00041882656
0000f0 01 ff 55 bb 25 e3 d0 bb 29 5e 81 b9 54 4a 77 38
       -0.0032653215 -0.006374734 -0.00024674952 5.8958612e-05
000100 fe b8 7f 3a 1f 14 d7 3a cc fc 60 3b 15 1d 17 3a
       0.0009755044 0.0016409195 0.0034330366 0.00057645264
000110 f7 04 10 b6 f5 0e 6b 38 e9 49 bb 3a 3e a8 21 39
       -2.1460562e-06 5.6042296e-05 0.0014288995 0.00015416832
000120 1a 6a df 3a c3 03 a2 93 df 4f a0 0e 91 b9 1a 3a
       0.001704517 -4.089826e-27 3.951996e-30 0.00059022853
000130 1e a7 2c 3a c9 95 c9 3a 34 b4 0e ba 25 79 78 39
       0.00065861817 0.0015379722 -0.00054437225 0.00023696253
000140 e7 cd bf b8 92 1a f3 39 a0 50 1f 3b 6c d2 3c b7
       -9.145942e-05 0.00046368368 0.002430953 -1.1254666e-05
000150 bc ff 91 3a 90 bc d6 39 84 4f 81 39 2e ef 76 b7
       0.0011138837 0.0004095775 0.0002466404 -1.4718431e-05
000160 b9 f2 78 b6 90 70 c1 3a c3 78 36 3b 85 78 4f b9
       -3.7096163e-06 0.0014758278 0.0027842976 -0.00019785955
000170 c6 c3 ac 3a 2e 68 0c b9 37 23 fe b2 73 c8 81 b7
       0.0013180904 -0.0001339025 -2.9585506e-08 -1.547134e-05
000180 48 e3 a8 3b 9d d8 a5 3a 81 0a 0a 3c ac f7 f8 39
       0.005154047 0.0012653057 0.008425356 0.00047486776
000190 b4 ff c8 b9 65 90 41 3a d5 5a fa 3b 12 de 8c 3b
       -0.00038337486 0.0007383882 0.0076402226 0.004298934
0001a0 dd 7e 0e 3c e2 f4 c6 88 55 91 30 29 b4 2b aa 39
       0.008697239 -1.1974263e-33 3.9205906e-14 0.00032457488
0001b0 94 a3 37 3a 1e eb 4e 3b b9 aa 26 39 08 d1 a9 3b
       0.0007005271 0.0031573246 0.00015894593 0.005182389
0001c0 d1 81 8b ba b9 b4 dd b9 53 77 e3 3b df 61 54 b9
       -0.0010643547 -0.00042287054 0.006941715 -0.00020254355
0001d0 e3 eb 92 3b 3a db d3 3a 05 d7 3a 3b 37 bf f7 b9
       0.0044836863 0.0016163357 0.002850951 -0.00047253977
0001e0 84 46 a2 b9 74 f6 1c 3b 60 b5 10 3b bb 38 22 38
       -0.00030951586 0.0023950608 0.0022080764 3.8676644e-05
0001f0 8b b7 bc 3b 6e 1f 1d 3b f8 64 99 b7 16 76 8f b9
       0.0057591847 0.0023975032 -1.8286039e-05 -0.00027363066
000200 12 ba 09 bb 26 01 2e bb 73 27 80 bb 14 ad 7b ba
       -0.0021015448 -0.0026550977 -0.0039109527 -0.0009600681
000210 54 57 29 3a d0 a4 df 37 b1 54 ee ba 78 19 fb ba
       0.0006459851 2.6660418e-05 -0.0018183199 -0.001915737
000220 55 68 36 bb b3 9a 2b 29 aa df e4 0f 7f 0f 47 ba
       -0.0027833183 3.8103808e-14 2.2568688e-29 -0.00075935567
000230 bc a7 38 3a 88 dc 21 3a 86 93 43 3b 0d e9 fc 3a
       0.00070440373 0.00061745243 0.002984257 0.0019295529
000240 a4 e9 98 3a 34 64 3c ba f8 1f 9f bb 6d 5c 42 3a
       0.001166631 -0.0007186562 -0.004856106 0.0007414285
000250 08 4f 09 b8 8c 77 e9 ba ab b7 8a 3a 52 77 30 39
       -3.273695e-05 -0.0017812117 0.0010583302 0.00016829118
000260 b5 15 31 3a 48 62 01 3b 7f ad 24 bb ae 3a 08 b9
       0.0006755249 0.0019742418 -0.0025127826 -0.0001299183
000270 b6 c3 cc ba 24 6f 0e 3b 72 d9 96 39 7b 03 1c 3a
       -0.0015622291 0.0021733725 0.0002877224 0.00059514464
000280 28 98 44 3b c4 c6 36 3a cb c9 1c 3b bb 8f 03 ba
       0.0029997919 0.00069723674 0.002392399 -0.0005018671
000290 b6 30 84 39 c2 92 0c 3a 13 e8 2e 3b f4 0d 6d 3a
       0.00025213294 0.0005362445 0.002668862 0.00090429117
0002a0 08 86 55 3b a0 9c de 2b 28 c4 11 00 f0 84 0e ba
       0.003258111 1.5817521e-12 1.631571e-39 -0.00054366793
0002b0 ed 33 39 37 4f ab b9 b8 28 82 58 39 43 fc 42 3a
       1.1038949e-05 -8.853396e-05 0.00020647852 0.00074381026
0002c0 81 36 4a b9 0a 44 56 ba 43 19 3b 3b 72 16 cc 38
       -0.00019284525 -0.0008173591 0.0028548993 9.731659e-05
0002d0 76 5c 81 3a 11 0f e3 3a 21 75 9c 39 5c 91 83 39
       0.0009869474 0.0017323216 0.00029841907 0.00025094568
0002e0 b7 5d 32 39 9f 6e 9b ba 0c db 84 39 63 df 4f 39
       0.00017010314 -0.0011858529 0.00025340205 0.00019824276
0002f0 06 43 fa 3a 31 0d 1a ba 7c b8 3d b4 9c 19 3b 39
       0.0019093461 -0.00058765995 -1.7669112e-07 0.0001784325
000300 3b 75 1a bb b1 29 dd ba 5f a9 19 bb 62 09 48 ba
       -0.002356841 -0.0016873387 -0.00234469 -0.00076307927
000310 4a d4 e1 b9 c8 5d 22 ba 6a 08 3f bb 45 83 26 bb
       -0.00043073512 -0.0006193784 -0.0029149302 -0.0025407833
000320 b7 38 4a bb ac 9b 00 80 65 de a4 06 47 46 34 ba
       -0.0030856559 -5.5845e-41 6.2016723e-35 -0.0006876927
000330 26 d7 b4 ba df bd da ba 2c ba 3e bb 79 36 63 bb
       -0.0013797029 -0.0016688666 -0.0029102666 -0.003466992
000340 d8 aa b6 b9 f2 f3 86 ba 37 50 b2 ba 9b 2c 13 ba
       -0.00034841034 -0.001029609 -0.0013604228 -0.0005614252
000350 56 c7 09 bb 40 21 c3 ba b2 24 09 bb fd 1e 9e b7
       -0.0021023354 -0.0014887229 -0.0020926413 -1.8849498e-05
000360 24 cf 00 ba 26 0c 27 bb aa 69 be ba 70 d0 89 b9
       -0.0004913679 -0.0025489419 -0.001452734 -0.00026285974
000370 ad c2 09 bb 6c a3 8c bb 05 d2 80 b9 6f 54 d0 b9
       -0.0021020577 -0.0042919423 -0.0002457054 -0.0003973576
000380 a3 50 96 3a 1b de f9 3a f8 a4 57 3b e5 87 17 3a
       0.0011468123 0.0019063385 0.0032904726 0.0005780443
000390 6d 4d 6e 9b 7d 4f 9f 32 eb f8 a3 3a c7 c6 79 38
       -1.9711916e-22 1.8546183e-08 0.0012510096 5.9551352e-05
0003a0 9f 6d cc 3a 69 04 30 82 34 dd 8a 20 04 64 23 3a
       0.0015596634 -1.2931704e-37 2.352449e-19 0.000623286
0003b0 84 a9 0e 3a a1 7f a4 3a eb 75 cc b9 72 20 c8 b8
       0.000544213 0.0012550243 -0.00038997768 -9.5427866e-05
0003c0 2d c0 09 00 68 75 63 3a fc 6a 22 3b 50 f5 02 00
       8.95459e-40 0.00086768577 0.0024783006 2.71673e-40
0003d0 cf 38 67 3a 8b f2 40 3a 4b f4 65 38 a7 5a aa aa
       0.0008820416 0.00073603605 5.482537e-05 -3.026097e-13
0003e0 b7 02 07 a8 8a 72 b1 3a 23 ae 3c 3b 7e e7 10 36
       -7.494594e-15 0.0013538164 0.0028790317 2.1592418e-06
0003f0 3d a3 9a 3a f3 04 be 37 7c 80 4f 04 d8 ae 05 13
       0.0011797916 2.265207e-05 2.439173e-36 1.6873165e-27

exp_avg_sq f4 [32, 32]
000000 22 e8 7b 2c ef 82 38 2a 57 5a f3 2b 72 8c 95 2c
       3.5798105e-12 1.638791e-13 1.7291263e-12 4.2504273e-12
000010 bc 63 6b 2b 9b 40 93 29 06 11 2d 2c ea 57 0d 2c
       8.362718e-13 6.5393186e-14 2.4594229e-12 2.0086107e-12
000020 9a 69 fd 2b ff f2 ca 2b ee b7 46 2c ed 72 50 2b
       1.8006042e-12 1.4420408e-12 2.8239594e-12 7.4055936e-13
000030 21 32 73 2c a8 41 a7 2c 93 dd 39 2d ca c6 09 2d
       3.4560204e-12 4.7537148e-12 1.0565232e-11 7.831688e-12
000040 58 b7 0b 2a f9 61 85 2c 72 b7 b3 2b 30 65 48 2a
       1.240929e-13 3.7909645e-12 1.2769631e-12 1.7798675e-13
000050 9e c7 47 2c a8 92 5e 2c 84 c4 80 2c 4c f1 86 2b
       2.839041e-12 3.1629508e-12 3.6597964e-12 9.588246e-13
000060 a1 cc fe 27 58 9f 71 2c 55 a6 ec 26 e5 f9 c5 2b
       7.072102e-15 3.4336613e-12 1.6420874e-15 1.4067052e-12
000070 f3 ab 32 2c 67 61 f5 2c 64 62 98 2a f0 b6 1e 2c
       2.5390772e-12 6.9741326e-12 2.7068896e-13 2.2554701e-12
000080 32 b2 31 39 9d 28 21 39 a0 9f 4f 3a 58 a9 b6 37
       0.00016946418 0.00015369286 0.00079202093 2.1774948e-05
000090 bb 5c c1 36 2e 90 a7 37 be a9 e2 39 09 df 26 39
       5.7626435e-06 1.997509e-05 0.00043232547 0.0001591408
0000a0 c6 58 11 3a 4b b7 a2 2c db ad de 29 83 0e b7 37
       0.00055445393 4.6246665e-12 9.8889396e-14 2.1822058e-05
0000b0 43 49 f1 37 d2 1b 72 39 7c 7e f3 38 9c 47 cf 39
       2.8763554e-05 0.00023089282 0.000116107025 0.0003953547
0000c0 7e 14 4e 37 f7 b2 01 38 8e d8 e4 39 bb b6 ad 36
       1.2283328e-05 3.092267e-05 0.00043648895 5.1770744e-06
0000d0 6b ea 48 39 5a b5 04 38 eb f7 04 39 33 64 6c 36
       0.00019160814 3.164015e-05 0.00012680858 3.5225064e-06
0000e0 b1 0f bd 36 12 fd c3 39 68 47 f8 39 19 4f 05 36
       5.6344657e-06 0.0003738185 0.00047355448 1.9864585e-06
0000f0 ac 50 82 39 b4 01 9e 39 c4 8d 0c 36 23 50 8e 36
       0.00024855637 0.00030137377 2.0944144e-06 4.241259e-06
000100 74 a7 3b 39 87 97 ee 39 d1 38 c3 3a ed 00 a4 38
       0.00017896091 0.00045507794 0.0014894252 7.820302e-05
000110 77 47 36 33 e4 36 90 36 7a 8b 61 39 1f d5 e2 37
       4.2440174e-08 4.2979245e-06 0.00021509631 2.7040542e-05
000120 96 1d b2 39 4a 85 53 2b bc ac 20 2b 61 30 a6 38
       0.0003397285 7.5147234e-13 5.7083136e-13 7.924508e-05
000130 35 20 7a 38 67 5b ca 39 d2 55 8d 36 8f 0e 92 37
       5.963464e-05 0.00038596542 4.2121183e-06 1.7411336e-05
000140 fe 96 23 34 ae bb e1 38 cf 8f 41 3a 6a 82 d9 30
       1.5235489e-07 0.00010763794 0.0007383795 1.5825894e-09
000150 e0 8f 05 39 3e 20 9c 38 65 00 73 36 bf 88 60 32
       0.00012737466 7.444665e-05 3.6210051e-06 1.30696085e-08
000160 08 eb 3b 32 d9 6b 6a 3a 9c 94 ab 3a 1d 84 97 36
       1.09382725e-08 0.0008942462 0.0013090554 4.5155307e-06
000170 13 14 3f 39 38 c3 49 36 79 1f fc 2d 33 63 fb 31
       0.00018222658 3.0064966e-06 2.866306e-11 7.316339e-09
000180 ea 0a d0 3a 53 b2 3c 3a 5b cc 2d 3b a5 c4 e5 38
       0.0015872393 0.0007198203 0.002651951 0.00010956199
000190 9c 13 8a 38 e3 52 8f 39 d8 51 30 3b e1 82 b2 3a
       6.584005e-05 0.0002733684 0.0026904251 0.0013619327
0001a0 0a 2d 69 3b bc e4 72 2a bb 31 42 2c 68 18 f8 38
       0.0035579824 2.1573276e-13 2.7596664e-12 0.000118301075
0001b0 e1 89 99 38 05 da c8 39 0d 49 07 39 cb 8c 09 3b
       7.3212905e-05 0.0003830941 0.00012901817 0.002098846
0001c0 62 b2 3a 39 af 2f 29 39 47 51 0a 3b 5f 94 cf 37
       0.00017804795 0.0001613486 0.0021105574 2.4745414e-05
0001d0 d8 ae 38 3a ef 01 9f 39 51 67 34 3a 2d bd 4a 38
       0.0007045097 0.00030328284 0.00068818504 4.8336737e-05
0001e0 2e 24 4b 38 57 0b 6a 3a a1 ce d8 3a b6 f0 c8 37
       4.8432667e-05 0.00089280814 0.0016541072 2.3953948e-05
0001f0 ce 08 b1 3a 24 37 cd 3a b8 23 24 31 a2 f3 26 38
       0.0013506652 0.0015656692 2.3885445e-09 3.9804385e-05
000200 b9 02 9a 39 0d 50 ad 39 46 5e c4 3a e9 3b 5d 38
       0.00029375197 0.00033056774 0.0014981709 5.27463e-05
000210 7e 23 43 35 95 67 92 37 25 bb 55 3a 19 0c 7c 39
       7.269481e-07 1.745279e-05 0.0008153192 0.000240371
000220 7f 3e 83 3a 43 bf 41 2c 23 b1 32 2b 3c 74 62 38
       0.0010013132 2.7533121e-12 6.348413e-13 5.399085e-05
000230 e8 f6 99 38 d7 2c 0b 3a f2 80 a0 39 ff 59 71 3a
       7.3415984e-05 0.0005309111 0.0003061365 0.0009206831
000240 bd 9e bb 36 9d 7b 9a 38 15 63 44 3a 76 8b 8c 36
       5.591514e-06 7.366317e-05 0.0007491571 4.1885605e-06
000250 dd 87 df 39 09 d2 ad 38 ee 17 9a 39 73 fa f3 33
       0.000426351 8.288405e-05 0.00029390998 1.1361126e-07
000260 df 8f 0e 36 4f fb 68 3a b5 4b 7c 3a e7 f9 bf 36
       2.1243393e-06 0.00088875456 0.00096243183 5.721336e-06
000270 63 3c f6 39 78 88 2f 3a 62 b5 f0 33 e5 0e c9 35
       0.00046965768 0.00066960556 1.1208864e-07 1.4980002e-06
000280 88 2e c0 39 85 f0 65 39 17 4b 29 3a 87 19 8a 37
       0.00036655762 0.00021928742 0.00064580276 1.6462769e-05
000290 3e a8 ef 34 3c 19 a0 37 47 d5 b4 39 b7 8f b5 38
       4.463963e-07 1.9085237e-05 0.0003449118 8.6575215e-05
0002a0 64 ac 0b 3a ff 43 88 2c 5d 68 55 28 f6 e3 af 37
       0.00053281174 3.8729016e-12 1.1846505e-14 2.0967778e-05
0002b0 49 c6 96 30 34 b6 eb 37 33 77 e1 34 0d b5 92 38
       1.0970292e-09 2.8099028e-05 4.1996245e-07 6.995546e-05
0002c0 7d e2 81 36 20 c3 1c 38 5e 69 26 3a 8e ef ad 33
       3.8708663e-06 3.7375023e-05 0.00063480984 8.099515e-08
0002d0 08 ec 85 38 64 4c 0e 39 da 00 a0 37 fc bf 3c 35
       6.3858985e-05 0.00013570633 1.9073883e-05 7.031483e-07
0002e0 85 b1 7e 34 5c cd 24 38 04 bb b1 39 ec b2 21 37
       2.3720175e-07 3.9291903e-05 0.00033899408 9.638006e-06
0002f0 f6 6b 56 39 5c b1 ec 37 fd 4b 2c 2e ab ab 7a 34
       0.00020448849 2.8215982e-05 3.9175763e-11 2.3345517e-07
000300 82 30 16 38 61 4b 16 38 c2 ea 8b 39 44 7e 65 36
       3.5807963e-05 3.583299e-05 0.00026687054 3.4197155e-06
000310 e6 c3 51 35 36 0b 52 36 f2 98 51 39 57 65 81 38
       7.8143637e-07 3.1298964e-06 0.0001998877 6.170075e-05
000320 72 3c 75 39 3f 10 22 27 28 32 31 2a e3 22 5b 36
       0.00023387538 2.2490823e-15 1.573816e-13 3.265385e-06
000330 ae 9c e0 36 c1 9e db 38 e3 f8 a6 38 65 ae 83 39
       6.69396e-06 0.00010472304 7.9618556e-05 0.000251162
000340 ad 35 cf 35 dd 6e b6 36 59 2e f9 38 31 d7 d1 35
       1.5438324e-06 5.436929e-06 0.00011881878 1.5634342e-06
000350 54 52 dd 38 45 7f 9e 36 9f 6e a9 38 91 bc a1 34
       0.00010553436 4.723583e-06 8.079153e-05 3.0125787e-07
000360 93 7d 92 35 c4 89 f9 38 78 2b 02 39 d8 98 7f 34
       1.0914395e-06 0.00011898906 0.0001241396 2.380433e-07
000370 18 12 e7 38 fd 46 46 39 de ab 92 34 10 61 4b 35
       0.000110183086 0.00018909197 2.731967e-07 7.576464e-07
000380 2a 13 a9 36 75 01 80 39 43 56 55 3a b1 73 53 38
       5.0388235e-06 0.00024415148 0.0008138159 5.0414066e-05
000390 be 2c a0 2b 38 ca cd 2d 76 ed 41 38 ab b6 6e 32
       1.1381102e-12 2.3395605e-11 4.623594e-05 1.3894957e-08
0003a0 91 f2 96 38 ac ce 8e 29 27 7f c3 2b 49 5d 53 38
       7.197739e-05 6.3419186e-14 1.3890875e-12 5.03932e-05
0003b0 da a3 2b 38 0d 11 84 39 0f 11 3c 36 29 56 a3 35
       4.0922176e-05 0.00025189706 2.8024112e-06 1.2169522e-06
0003c0 74 07 10 28 b6 e8 87 38 18 22 9e 39 67 bf cb 27
       7.995222e-15 6.4806474e-05 0.0003016151 5.6551337e-15
0003d0 7d b9 8f 38 11 1e 32 36 1c 42 e6 33 38 c1 67 2c
       6.853321e-05 2.6541568e-06 1.0722235e-07 3.2934332e-12
0003e0 59 05 2b 2c 00 f8 1d 3a ff 84 52 3a e4 50 dd 31
       2.430353e-12 0.00060260296 0.0008030682 6.4411427e-09
0003f0 0c aa 83 38 d2 76 0c 33 35 a8 c6 29 2e 3f 4d 2b
       6.2782405e-05 3.2704357e-08 8.8221456e-14 7.291831e-13

exp_avg f4 [32]
000000 ea 1c dd af 60 3a aa bb 0a b8 75 3b c9 10 2f 3c
       -4.022021e-10 -0.005194947 0.003749373 0.010685154
000010 6a d9 41 bb a2 1e 30 3b 45 42 77 bb 95 79 60 3b
       -0.0029579052 0.0026873727 -0.0037728709 0.0034252156
000020 cc 7f 03 3b 85 9c 41 3c fb 97 e9 bb b1 b8 14 bb
       0.0020065187 0.011817102 -0.007128713 -0.0022693092
000030 f7 36 f5 ba 64 d6 13 bc 34 2a 0c bb 79 c2 19 b7
       -0.0018708397 -0.009023283 -0.002138746 -9.16479e-06
000040 72 1e c1 bb 6f 29 59 3b 42 5d c2 3b 8a 7a d1 3b
       -0.005893522 0.0033136269 0.0059315274 0.0063927816
000050 86 e6 12 bc 46 0c 8b 3a 8d e1 02 3b 80 ec db 3b
       -0.008966094 0.0010608516 0.0019970865 0.0067115426
000060 0f b4 b9 bb c6 69 7b 3b 6f 48 18 3c 84 58 e6 bb
       -0.0056672166 0.0038362606 0.009294613 -0.007029595
000070 e8 7c bd bb ae cb 6e 3b f0 92 8f bb 3d 1b 3c bb
       -0.0057827123 0.003643732 -0.00438153 -0.0028702759

exp_avg_sq f4 [32]
000000 1c 3b 07 2d c8 28 96 3a 69 6e de 3a 42 2b 78 3b
       7.6869865e-12 0.0011456246 0.0016970161 0.003786758
000010 3b 30 17 3b 95 c0 3a 3a 46 04 f7 39 de 9f 76 3a
       0.002306952 0.0007124034 0.00047114695 0.00094079773
000020 0c b8 54 3a 11 22 49 3b 3e 25 a9 3b 6d ed 46 3a
       0.00081145833 0.0030690471 0.0051619103 0.000758848
000030 f7 10 80 3a 28 60 c2 3b 80 a7 85 39 27 aa 0a 34
       0.0009770681 0.005931873 0.00025492534 1.2914153e-07
000040 f1 1b 1a 3a 43 67 d4 3a a7 39 79 3b c6 d7 f0 3a
       0.00058787974 0.0016205091 0.0038028748 0.0018374852
000050 2c 3a 95 3b 86 94 4d 3a de 58 9d 39 a1 c9 7f 3b
       0.004554054 0.0007842261 0.00030011585 0.0039030092
000060 68 e7 10 3a 4e 13 88 39 c5 54 02 3c 27 85 ce 3b
       0.0005527646 0.00025954325 0.007954781 0.006302494
000070 56 14 75 3a db 00 8f 3a ac b7 db 39 ce 05 03 39
       0.00093490386 0.0010910289 0.0004190778 0.00012495296
