checkpoints/adversarial/adversarial_epoch0020.pt (torch, 38551 bytes, 24 tensors)

0.weight f4 [32, 2]
000000 e5 09 0e 3f 12 d9 17 3f ea af 38 be 3f 07 2d 3f
       0.5548385 0.593156 -0.18035856 0.6758918
000010 ba 31 0f be ba 06 5a 3e c9 f7 ce be b6 a0 d2 3e
       -0.13983813 0.21291628 -0.4042342 0.41138238
000020 cc f2 11 3f 5d de eb be ff e8 1f 3f 9a 23 2b 3e
       0.57011104 -0.46068087 0.624649 0.167128
000030 7e eb f3 3e bc 65 a3 3c 16 5f 9f 3e 41 cc d8 bd
       0.47640604 0.019945972 0.31127232 -0.10585833
000040 1a 95 11 3f 0c e0 22 3e 20 8b 40 be 34 2e 60 3d
       0.56868136 0.1590578 -0.18803072 0.054731563
000050 8d 60 3c be df 61 ad ba da e0 9e be 19 9c 04 3f
       -0.18396206 -0.001322802 -0.31030923 0.51800686
000060 05 0e 20 bf de fd e4 be f8 8d 3c be 26 aa f2 be
       -0.6252139 -0.44724935 -0.18413532 -0.47395438
000070 dc 2a 81 3d 01 55 42 bf 6a 0e 1c 3f 45 83 23 bf
       0.06307003 -0.75910956 0.60959494 -0.63872176
000080 d5 24 07 3f e8 7b be 3d 8f 38 71 be 4a 59 fe 3e
       0.52790576 0.09300977 -0.23556732 0.49677497
000090 b7 23 df 3d f4 7c 28 3f 99 e4 a7 3d c8 8a 91 be
       0.10895484 0.65815663 0.081978984 -0.28426194
0000a0 6a 93 17 3e 4d 00 81 be f6 51 85 3e f0 9e 20 3f
       0.14802328 -0.25195542 0.26039094 0.6274252
0000b0 1f be a8 3e 3f fa bd be 2d f0 ef 3e db 05 62 bc
       0.3295755 -0.37104985 0.46862927 -0.013795341
0000c0 7f fd c7 3e da d8 d6 be 04 eb 32 bf dc ce ad be
       0.3906059 -0.4196232 -0.69889855 -0.33946884
0000d0 d1 89 fb be 23 a9 26 3f b0 9e 34 3e b4 ab 8b 3e
       -0.49128583 0.6510183 0.1763866 0.27279437
0000e0 ec 0a 83 3e 4b 5d 02 3d 77 cf fa 3e 94 03 16 bf
       0.2559427 0.031827252 0.48986408 -0.5859921
0000f0 31 b7 24 3d 50 c0 10 bf 4c 63 8e 3e 49 0d 8c be
       0.040213767 -0.56543446 0.27810133 -0.27353886

0.bias f4 [32]
000000 25 7d 6a 3e 16 be 8a bd b8 05 1b 3f e0 bb c4 be
       0.22899301 -0.06774537 0.605556 -0.38424587
000010 5b d9 ec be 35 32 c3 be 1a e8 2a 3f a0 45 6d 3e
       -0.4625958 -0.38124242 0.6676041 0.23171091
000020 a5 5d 2e 3f 95 14 de be 26 ca 0c bf 12 80 fc be
       0.6811164 -0.43375078 -0.54995954 -0.4931646
000030 75 49 c2 be b6 c2 a7 3e 46 2b 85 3e b1 b3 0e 3f
       -0.37946668 0.3276574 0.26009578 0.5574294
000040 89 de c4 be be a3 dd be fb fc ce 3e d2 9d 72 be
       -0.3845103 -0.43288988 0.40427384 -0.23693016
000050 90 18 d1 3e 9e 3c 4a be 92 0c cd 3e 61 97 ec be
       0.40839052 -0.19749686 0.40048653 -0.46209243
000060 1b a8 a6 be 7e 93 6a 3e 87 fa 4b 3e 4a 74 52 be
       -0.3255013 0.22907826 0.19919787 -0.20552173
000070 6e 1d da 3e 8a 7a 04 3f 7e 04 e2 be b1 d7 a7 be
       0.42600578 0.5174948 -0.44144052 -0.32781747

2.weight f4 [32, 32]
000000 84 f3 26 3d d4 25 84 38 ff 6b ee bb 80 07 43 bd
       0.04075958 6.3012965e-05 -0.0072760577 -0.047614574
000010 01 e1 18 bc f5 40 68 37 0d 69 13 bc 4d 72 e4 bc
       -0.009330989 1.3843402e-05 -0.008997214 -0.027886534
000020 35 d3 0d bc bf 55 6e bc c0 6b 04 bd f2 a3 9a bb
       -0.008656313 -0.014546811 -0.03232932 -0.004719251
000030 17 12 12 bd ad b0 d3 bc eb 08 5d 3d 49 a4 1f bc
       -0.035661783 -0.025841082 0.053963583 -0.0097437585
000040 45 fb 63 b7 b4 07 30 bd 2e 3e 48 bc e5 99 fe ba
       -1.3588758e-05 -0.042976096 -0.012221856 -0.0019424526
000050 48 cd 13 bc 43 52 14 bd e9 92 3d bc a7 c4 fc bb
       -0.009021111 -0.036211263 -0.011570671 -0.0077138725
000060 2c 51 b5 bb 69 5f 0c bc 0b 0e 2a 35 6d 38 66 bc
       -0.005533358 -0.008567669 6.335037e-07 -0.014051539
000070 21 69 cd bc ac 91 bc bc 72 8f 93 bb 93 84 d2 bc
       -0.025074543 -0.02301868 -0.004503184 -0.025697982
000080 7a 45 1d 3e 18 b2 09 bc cc d6 36 3e d4 cf 8d 3d
       0.15358534 -0.008404277 0.17855376 0.06924406
000090 bf 48 1d bd 1c cb 17 3d 0d aa 09 bd 45 0c 91 bd
       -0.038399454 0.037058935 -0.03360944 -0.07082418
0000a0 69 f8 04 be 88 cd 51 bd f0 3c 8b 37 71 32 0d bd
       -0.12985386 -0.0512214 1.6598467e-05 -0.034471933
0000b0 e9 5d a9 bc f4 06 35 be ad e9 e5 3b f2 7f 00 be
       -0.020674663 -0.17678434 0.0070163817 -0.12548807
0000c0 6a cb b2 bd 86 bb fb 3c 64 0c e8 3d bd 12 e1 3c
       -0.087302044 0.030729067 0.11330488 0.027474755
0000d0 1b 08 2e 3e b0 64 11 be 0c d3 f7 3c 2d 11 c7 bc
       0.1699528 -0.14198565 0.030252002 -0.024300182
0000e0 e2 34 29 ba 38 37 ee bd 35 43 42 3e 2b 34 29 be
       -0.00064547185 -0.11631626 0.1897095 -0.16523807
0000f0 cc 3e e2 3d 64 10 5c 3d 46 2e 38 b8 c2 20 89 bb
       0.11047134 0.05372657 -4.3912114e-05 -0.0041848132
000100 7f 62 31 3e 93 1f 85 3d 7a b5 44 3d a4 db bb bd
       0.1732273 0.06500163 0.048024632 -0.091727525
000110 b8 61 35 3c 20 3f c9 bc 29 56 97 bd 1a 58 12 3e
       0.011070661 -0.024566233 -0.073894806 0.1429142
000120 05 fc 4a 3d 17 62 9f bb 19 f8 29 bb d0 cf a2 3c
       0.04955675 -0.004863988 -0.0025935231 0.019874483
000130 26 b5 20 3b 20 c5 a6 bd c1 a1 32 be 1b ff a0 bd
       0.0024522035 -0.08143067 -0.17444517 -0.078611575
000140 4e a4 0a be 30 ba a8 3d 76 b3 41 3e 6a 06 a8 bd
       -0.1353924 0.082386374 0.18916115 -0.082043484
000150 0a e9 c4 3c 5f e1 15 3e af 5d 8a 3c 9d 18 e4 bd
       0.024036903 0.14636753 0.016890375 -0.11137507
000160 10 4d ae 3c 42 47 97 3d 3f 6c c8 3d 85 fd 67 3d
       0.02127698 0.07386638 0.09786271 0.05663826
000170 99 36 2e bd 04 3e 3b bb 07 fe b4 b6 dd df 05 be
       -0.042532537 -0.00285709 -5.3939907e-06 -0.13073678
000180 03 3e 0c 3e ca d3 1e 3e 95 45 da bc d1 23 08 bd
       0.1369553 0.15510479 -0.026644507 -0.033237282
000190 da d7 f8 b4 39 75 00 3d ad 69 4c 3d e1 b9 b7 3d
       -4.6350652e-07 0.031361792 0.049905468 0.089710005
0001a0 ec d6 16 be 6f a6 6c 38 dd 52 01 3d 1a 3d c6 3d
       -0.14730424 5.6421788e-05 0.031573165 0.09679623
0001b0 4b 52 6f 3c 76 cd fe bd 45 c3 0d bc b9 cc 8c bd
       0.0146070225 -0.12441532 -0.008652513 -0.06874985
0001c0 ce d6 25 3b ba 37 b4 3d b0 81 ed 3d a1 31 93 3a
       0.0025305036 0.087996915 0.115970016 0.001123
0001d0 68 a2 28 be 77 77 78 bd a4 34 9f 3c f2 e4 42 3d
       -0.16468203 -0.060660806 0.01943428 0.04758162
0001e0 46 1d 0e b6 9b 2e a9 bd 23 38 84 3d bd 2f be 3c
       -2.1176688e-06 -0.082608424 0.0645602 0.023216123
0001f0 0e 3c db bd 60 dd c4 3d b2 0d 79 ba f9 f6 2b 37
       -0.10704814 0.096125364 -0.0009500637 1.0249897e-05
000200 29 d3 e4 bd 19 7e 34 3e 45 f2 30 3e 2d 41 f4 3d
       -0.11173088 0.17626227 0.17279918 0.11926494
000210 cf 84 65 3b 9b 32 a5 bd 31 8f a8 bd e5 74 14 3e
       0.0035021787 -0.08066293 -0.082304366 0.14497717
000220 a5 2e 15 3e 22 04 01 3d 03 5b 5c 3b ec 0d 85 3d
       0.14568575 0.031498082 0.0033623583 0.06496796
000230 96 b1 9b bd f5 05 31 be e4 e6 48 be 24 09 03 be
       -0.07602231 -0.17287429 -0.19619328 -0.12796456
000240 a4 f3 94 3c fe 63 1c bd 48 ee 06 3d f0 8c ca bb
       0.018182583 -0.038181297 0.032942086 -0.006181352
000250 40 ec a7 bc ed 3c 86 bd f0 4c ce bd c7 05 a0 3c
       -0.020498395 -0.065545894 -0.100732684 0.019534005
000260 b5 68 8c 3c 5e 98 b7 3d bd 5a 00 bc 6a 9b b1 bd
       0.017139772 0.089646086 -0.007834134 -0.08672221
000270 bb 0d b6 3c 1f 09 83 bd 0d f0 23 37 aa 7a 3a bd
       0.022223344 -0.06398224 9.771448e-06 -0.045527138
000280 f2 7a 08 3e 0b 6d c3 bd 47 e6 e9 3d 6d c8 b7 3d
       0.1332815 -0.09542283 0.11420875 0.08973775
000290 c3 c1 51 3d 8e 38 e3 bd 3b ac 15 3e 4b dd 8d bd
       0.051210176 -0.11094771 0.14616482 -0.06926974
0002a0 a4 30 b1 3d 01 7e 33 3d bd 15 8c 36 a8 33 61 3d
       0.086518556 0.04382134 4.174856e-06 0.054980904
0002b0 f1 b6 e8 3c 79 69 ec bd ce 2c 13 3d 7d 6e 32 be
       0.028407546 -0.11543555 0.0359314 -0.1742496
0002c0 ea f7 f6 3d 00 82 38 3e cc 3b 51 3e 06 19 e9 36
       0.120590046 0.18018341 0.20432967 6.9468542e-06
0002d0 be f4 0b be a5 42 df 3d 05 28 d0 3d 82 a9 37 be
       -0.1366758 0.10901383 0.10163883 -0.17935756
0002e0 ef 69 d7 bd 38 d8 c9 bd 5c a5 1f b9 ef 14 a7 3c
       -0.10518252 -0.098556936 -0.00015225023 0.020395724
0002f0 19 07 58 bd 6f fa 63 bd bc 8e 39 bd 08 59 c0 3c
       -0.052741144 -0.055658754 -0.045302138 0.023479953
000300 5c a6 e8 3d 3d d0 93 bd 3d 37 24 bd 6b a8 12 be
       0.113598555 -0.07217453 -0.04009174 -0.14322059
000310 1e 51 e2 bd cf 08 40 be d7 10 6b 3d ee 14 ae bd
       -0.11050628 -0.1875336 0.057389107 -0.08500086
000320 5c 19 00 be a8 54 3a b6 e6 0f 6f 38 4a b9 e4 bd
       -0.12509674 -2.7765436e-06 5.6996847e-05 -0.111681536
000330 1f 52 c7 3d b8 4e 11 3c c1 eb 81 bb f5 6a 60 bd
       0.0973246 0.008868866 -0.0039648716 -0.054789502
000340 3b db 19 be 47 dc a1 3d 24 07 fd bd 5e 13 fe 3d
       -0.15025036 0.07903343 -0.123548776 0.12406038
000350 36 d8 04 bd 3e 83 39 bd 34 21 44 3e ad 88 03 3e
       -0.032432757 -0.045291178 0.19153291 0.12845106
000360 b6 77 d4 bd d1 76 e7 3d 23 c5 fd 3d 15 dc e4 bc
       -0.103743955 0.11301959 0.123911165 -0.027936975
000370 fb b7 f3 3d 57 cf 51 3e f1 74 ab 3d e8 db db 3d
       0.11900326 0.2048925 0.08371914 0.10735303
000380 40 ff d3 bd 38 09 53 bc 3b f6 1b 3e f7 a0 15 3e
       -0.103514194 -0.012880616 0.15230648 0.14612184
000390 1c d9 81 3b cb 6a 2f bd 50 3b 9c bd e0 37 b4 bd
       0.003962649 -0.042826455 -0.076285005 -0.0879972
0003a0 9a f4 b7 bd 3a 38 44 b7 aa 2a 62 3c 7f 49 b6 3d
       -0.08982201 -1.1695602e-05 0.013804117 0.08900737
0003b0 6d 46 5a be 3e 0f 0f be bd 50 40 3d 7e 6f 67 bd
       -0.21315928 -0.13970658 0.046951998 -0.05650281
0003c0 06 0d 30 3b cf 2b 12 3e 61 cb 3a bd cc 36 b9 3a
       0.0026863231 0.14274524 -0.045604113 0.0014130711
0003d0 73 29 66 3b 02 ce da bb a3 bc 8d bc 06 42 1a bd
       0.003511992 -0.00667739 -0.017301863 -0.03766062
0003e0 49 09 b8 bb 4b e0 cb bd df be 44 3e d4 76 77 3c
       -0.0056163413 -0.0995489 0.19213437 0.015104014
0003f0 7c bf a8 bd e8 66 e6 3d 0f f4 99 3c d2 7f 1d 3c
       -0.08239648 0.112500966 0.018793134 0.009612994

2.bias f4 [32]
000000 aa eb 87 bc 4b e1 ef bd b2 f4 69 3c 20 66 e7 bd
       -0.016591866 -0.11712893 0.014279531 -0.11298776
000010 f3 57 37 3e 3f d3 19 be 6f 0c ab 3d 51 63 4a 3e
       0.17904644 -0.1502199 0.08351981 0.19764449
000020 4e e9 e8 3d da 7a c6 3d 3c 08 40 bd 40 75 31 3e
       0.11372624 0.09691401 -0.046882853 0.17329884
000030 0e c2 06 bc d8 ed 32 be 4b 7c 3d 3e 6a ac c4 bd
       -0.008224977 -0.17473543 0.18504445 -0.09603198
000040 21 5a ca 3b ef 2a 34 3e 23 71 13 be 02 39 8b bd
       0.006175295 0.17594503 -0.14398627 -0.06797983
000050 49 24 33 3d 89 7e 55 bd 8b ae 2c 3d 3c 48 ff bc
       0.043735776 -0.052122626 0.042158645 -0.031162374
000060 52 d8 79 3c 9a df 93 bd 1f e6 b3 bd 1c f0 26 bd
       0.015249329 -0.07220383 -0.087841265 -0.04075633
000070 bd 48 84 3d f6 5d 81 3d 84 37 dd bd 0c 65 17 3e
       0.06459186 0.0631675 -0.108016044 0.1478464

4.weight f4 [32, 32]
000000 44 e9 35 b6 0d de 71 3d 78 99 2f bd 04 ee f6 3d
       -2.710688e-06 0.059049655 -0.04287097 0.12057117
000010 4b 6b 3b 3e 61 fc 3c 3e 09 2a 02 be 99 83 3d 3e
       0.18302648 0.1845565 -0.12711348 0.18507232
000020 16 86 82 3d c8 9f 0e 3e 71 cd c4 3c 7c 38 d2 3d
       0.06373231 0.13928139 0.024023743 0.1026468
000030 42 9e 2d be 12 1c e9 3d 09 d6 03 be e4 58 8f bb
       -0.16954902 0.11382307 -0.12874617 -0.0043746103
000040 ea 75 6e bd 31 45 1a 3c 9c ad 15 3c 8e 6f 3d 3d
       -0.05821792 0.009415911 0.00913563 0.046248965
000050 54 38 b3 bc 4c 05 06 3d 22 67 4c 3e 50 03 d6 3b
       -0.021877445 0.032719895 0.19961217 0.0065311566
000060 5f cf a5 3d 97 1f e0 3d ac 75 3d 3e 4e f7 90 35
       0.080961935 0.10943525 0.1850192 1.0800811e-06
000070 39 3b be 3c c4 14 c3 3d 97 b2 6b be fa 07 1b be
       0.023221599 0.09525445 -0.23017345 -0.15139762
000080 bf 81 85 39 82 57 13 bd e4 fb 7c 3d 70 9c 80 3d
       0.00025464405 -0.035972126 0.06176366 0.06279838
000090 21 bb 2d 3d 48 c4 37 3e 91 fb 48 bd 16 bd 24 3e
       0.04241479 0.17945969 -0.049068037 0.16087756
0000a0 bd 5a 42 3e f9 9c 8c bd 58 cd c0 bc 6d 41 35 be
       0.18979926 -0.06865878 -0.023535416 -0.17700739
0000b0 e4 b5 f6 bd 0a 97 99 bc 80 99 d2 bc 08 a2 74 bd
       -0.12046412 -0.018748779 -0.02570796 -0.059724838
0000c0 e7 8f 9e bc d3 b5 b9 bb 19 d5 03 bd 40 8a 72 3e
       -0.019355727 -0.005667427 -0.032185648 0.2368555
0000d0 c6 3f 7e bd d6 db 94 bd 00 59 c1 3d 94 a5 c7 b5
       -0.062072538 -0.07268493 0.094408035 -1.4874845e-06
0000e0 ed d4 e3 3d 13 78 10 3e 8d ed 41 3e a8 44 9e bc
       0.11124597 0.14108305 0.18938275 -0.019319847
0000f0 d2 61 e5 3d 14 14 54 3e bf 71 15 be c7 01 11 3e
       0.11200298 0.20710784 -0.14594172 0.14160834
000100 74 f1 ac 3c 40 c8 02 bc e2 f9 85 3d fc 57 2a bd
       0.021111228 -0.007982314 0.06541802 -0.041587815
000110 0c da 3e bd ce 8d c4 3c bf 5c 09 3d 95 f7 66 bd
       -0.046594664 0.023993399 0.033535715 -0.056388456
000120 8c c4 80 3d 64 5d ae bd 86 86 0a 3d f5 5a 08 3e
       0.06287488 -0.085139066 0.033819698 0.13315947
000130 09 28 a9 3c 1a 73 52 bd fe 5c 79 3d 2d 89 03 37
       0.020648973 -0.0513793 0.0608797 7.840147e-06
000140 ca ad e7 3c 3e 65 19 3d e7 60 d8 3d 19 33 a1 bd
       0.028281111 0.037450068 0.10565358 -0.07871074
000150 38 8e b5 b7 95 6a ef 3c 83 8a c5 3a bd 31 e0 3c
       -2.1643107e-05 0.029225627 0.0015071187 0.027367467
000160 7b 7f d0 bd 7f ea a2 bc b1 43 c1 b5 5c 03 c0 b7
       -0.10180565 -0.019887207 -1.4399321e-06 -2.2889748e-05
000170 1a f0 b6 3d ac 83 b0 3a 50 81 2b bd ec 89 e4 bc
       0.089325145 0.0013466976 -0.04187137 -0.027897798
000180 ba 99 b5 ba e8 09 2e 3d d1 f2 11 3d de df a7 bd
       -0.0013855018 0.042489916 0.03563196 -0.08196996
000190 0c 31 87 bc 81 b6 35 3d aa 7f ee bc 8b 07 3e 3e
       -0.01650288 0.044363502 -0.02911361 0.18557565
0001a0 5f d0 0e 3c 82 5e 30 3e 0c 67 4a 37 cd 21 29 be
       0.008716672 0.17223552 1.2064131e-05 -0.165168
0001b0 10 29 fe 3c 1c ec 0a 3e 31 c3 eb bd f6 55 07 be
       0.03102544 0.13566631 -0.11511839 -0.13216385
0001c0 a8 1f 6e 3e c4 53 3f 3e 34 2e a1 bd d3 57 2c 3e
       0.23254263 0.18684298 -0.07870141 0.16830377
0001d0 26 07 a6 bc 5f d4 14 be ec f4 33 3d bb 66 2a b8
       -0.02026708 -0.14534138 0.043934748 -4.0626834e-05
0001e0 ef 73 69 bd 78 43 be 3d cc f3 b1 bd 84 68 7d 3c
       -0.05699533 0.092902124 -0.08689079 0.015466813
0001f0 08 00 23 3e a9 47 1d 3e 2c 0d 0f bc 39 dc 63 3d
       0.1591798 0.15359367 -0.008731168 0.055629943
000200 65 42 95 bc 7c 28 11 bd 2a e0 af bd cc 4d a5 bb
       -0.018220136 -0.035439 -0.08587678 -0.0050446745
000210 8c 85 ad bd 8b 00 2c 3d 16 85 1c 3e b1 d2 0d be
       -0.08472738 0.041992705 0.15285143 -0.13849904
000220 f0 03 c6 3b 67 f0 80 3c fe 5f 39 3d dd 1b 1a 3e
       0.00604295 0.015739633 0.04525756 0.15049691
000230 e0 0d 47 3e b9 c0 5a bd c3 7c 1a 3e 53 7d 24 3e
       0.19438887 -0.05340645 0.15086655 0.16063432
000240 16 19 87 be 0e 27 31 be 10 45 8f 3c ba c4 f4 3c
       -0.26386327 -0.17300054 0.017488986 0.029878963
000250 fb 6d 8f bd 22 22 9b 36 bf 67 ad 3c 97 09 8a 37
       -0.07003399 4.6233336e-06 0.021167634 1.6455348e-05
000260 1a 63 39 bd 19 b8 84 3d de 7b 0a 3d d2 b3 7e bc
       -0.045260526 0.06480426 0.033809535 -0.015545802
000270 6f 35 32 3d 66 5d 61 bd 2e 41 fe 3d 79 6b 52 3e
       0.04350799 -0.055020712 0.12414776 0.2054881
000280 6a e8 17 37 bf 6e 22 bd bb 13 5d 3e 80 21 35 3d
       9.0544145e-06 -0.039656397 0.21589558 0.0442214
000290 fd 7c be bc 62 ea 8a 3d 70 1c 05 be fb ae 3f 3d
       -0.023252958 0.06782986 -0.1299913 0.046797734
0002a0 af 82 b0 bd 85 15 66 3d a3 a0 12 b6 b6 07 ef 3a
       -0.08618676 0.056172866 -2.1849198e-06 0.0018236551
0002b0 43 fa 38 be 15 cf 13 be 83 0a 6e 3d 0e 49 07 3e
       -0.18064217 -0.14434464 0.058115494 0.13211462
0002c0 94 7d bb bd 14 fb db 3d 76 fe da bd 2e c5 89 3d
       -0.091548115 0.10741249 -0.10693066 0.06727062
0002d0 3c 79 20 3e 76 f3 b4 3c f2 80 07 be bb fe 15 3c
       0.15671247 0.022088747 -0.13232782 0.009154971
0002e0 ab 1c 90 3d c9 c5 cf 3c 39 50 32 3e 16 a9 9f b8
       0.07036718 0.025362866 0.17413415 -7.6132055e-05
0002f0 13 ec e3 bc 0e 71 40 bd f6 1c 21 bd c5 49 19 3d
       -0.02782253 -0.046982817 -0.03933426 0.037423868
000300 a8 05 cd b7 62 f1 c1 bd d6 db 04 be e1 bc 8a b8
       -2.4440538e-05 -0.09469868 -0.12974486 -6.615534e-05
000310 c3 8f ff bd d3 fd a2 bd 82 bf 2f 3d 56 8d 8f bd
       -0.12478592 -0.079585694 0.042907245 -0.070093796
000320 86 f2 75 3d 5f 85 a9 bc b6 b9 85 3c 67 cf 47 3d
       0.06004574 -0.02069348 0.016323905 0.04878178
000330 66 4d 81 bd 66 cc 8d 3d c5 5d 90 3d d0 16 d3 bc
       -0.06313591 0.069237515 0.07049135 -0.025767714
000340 e3 35 03 be c8 d0 1e 3d dd a4 94 bd 01 24 10 3c
       -0.12813525 0.038773328 -0.07258008 0.0087976465
000350 a0 a3 cd 3d b4 ed 12 bd 70 65 90 bd 95 31 93 bc
       0.100409746 -0.035871223 -0.07050598 -0.017967978
000360 e4 58 53 3e c3 f6 1a 3e 80 30 7d bd 5a 53 33 3d
       0.20639378 0.15133195 -0.06181383 0.043780662
000370 1e d8 2e bc 04 9b 44 be 54 d4 0a 3e 3e a1 e8 3d
       -0.010671644 -0.19199759 0.13557559 0.113588795
000380 a7 1b 4a 3d c2 f7 6c 33 88 9a bb 3c 59 28 0f 3c
       0.049342778 5.5173366e-08 0.022900835 0.008737647
000390 d9 26 97 3c 19 c7 50 bd 6d 76 f0 3c d7 6f 06 bd
       0.018451141 -0.050971124 0.029353345 -0.032821503
0003a0 ad e4 1c 3d ae 40 c5 b5 f9 8e 17 bd 8f 12 b7 37
       0.03830402 -1.4696468e-06 -0.037001584 2.1823942e-05
0003b0 3f 59 40 37 18 c5 1d bd 52 3c 8d 38 08 75 31 36
       1.1464871e-05 -0.03851804 6.7346395e-05 2.6443176e-06
0003c0 67 c3 c6 3c a3 b2 4e 37 37 28 f2 3b c7 04 61 b6
       0.024263097 1.2320149e-05 0.007390048 -3.3530393e-06
0003d0 e5 ec f3 34 a8 f8 9e b6 da 89 47 bc ad f3 f7 bc
       4.543464e-07 -4.7377143e-06 -0.0121788625 -0.03026756
0003e0 fe 0a cd 37 9c 95 2f bd ad 67 a3 ba 00 1d 84 b5
       2.4443023e-05 -0.042867288 -0.0012466811 -9.843206e-07
0003f0 ca cf 4a bc dc b2 81 b9 b6 9f 72 b6 6a 94 4e b6
       -0.012378642 -0.00024738058 -3.6153774e-06 -3.078278e-06

4.bias f4 [32]
000000 33 2f d4 3d 4f 3f 81 3d b8 f3 a9 bd 5e 28 04 3e
       0.10360565 0.06310903 -0.08298439 0.12906024
000010 ba 06 19 bd 58 2c bd bb 94 b7 f8 bc 79 9d 38 bd
       -0.03735993 -0.0057731085 -0.030360974 -0.045072053
000020 a1 0c fb 3c 68 1c 7a 3d 42 01 23 bb 1f ed ec 3d
       0.03064567 0.061062247 -0.0024872576 0.11568665
000030 3d 2d 1d bd a0 09 41 bd 7e ee 5b bd 77 25 da bc
       -0.03837322 -0.04712832 -0.05369424 -0.026629193
000040 21 2f 5a bc 18 c8 d9 bc 67 f9 8b 3d 5b 25 13 bd
       -0.0133169005 -0.02658467 0.06834679 -0.035924297
000050 07 5b 00 3c ff 5a 35 bc 10 1f 90 3d af 96 21 3e
       0.007834203 -0.011069058 0.07037175 0.15780137
000060 dd c5 d0 3d a2 2a a0 bb 8a 9d ec bc 34 91 4d bd
       0.101939894 -0.0048878947 -0.028883714 -0.050187305
000070 64 3c 1e bb 6a 9b 90 3d 5a fb b0 ba 02 75 23 3e
       -0.0024144882 0.07060893 -0.0013502643 0.15962604

6.weight f4 [2, 32]
000000 16 28 fe 3d 85 68 61 3c 57 be 99 3c dd 17 bb 3d
       0.124099895 0.01375783 0.018767519 0.09135411
000010 50 53 8e bd f3 c3 1c 3e 8d 07 59 be 0e 4c f8 3a
       -0.06949484 0.15309124 -0.21194287 0.0018943565
000020 d8 a0 07 be 96 96 24 be 91 d5 48 37 bc 53 02 3e
       -0.13244951 -0.16073069 1.1970654e-05 0.12727255
000030 00 45 89 3c f8 e2 77 37 43 42 78 bd 5e 97 a0 bd
       0.016756535 1.47751925e-05 -0.060610067 -0.07841371
000040 ab 35 d0 bb 8d aa 88 3c 0c 49 bc bc fa b1 05 3d
       -0.006354054 0.016682887 -0.02298405 0.032640435
000050 11 07 9d 3d 3b 5d 22 be 0a 00 64 bd 1c 19 e9 bd
       0.076673634 -0.15855877 -0.0556641 -0.11381742
000060 28 08 ca bb 03 59 d5 bc 52 46 ae 37 ae 3f 2f be
       -0.006165523 -0.02604342 2.0775162e-05 -0.17114136
000070 30 eb 4d 3d cb e0 a6 3d 0f 38 0d be f1 75 52 be
       0.05027312 0.081483446 -0.13790916 -0.20552804
000080 11 18 44 bd df a2 c3 bd f1 a4 1c 3d e9 a7 2c be
       -0.047874514 -0.095525496 0.038243238 -0.16860928
000090 29 70 f5 3d 10 02 27 be 9e da 9c bc da f2 61 bb
       0.119842835 -0.1630938 -0.019147214 -0.0034477026
0000a0 37 ce d7 3d c0 76 00 3b 25 6b 3f bd 3d 7c 11 be
       0.10537379 0.001960203 -0.04673304 -0.1420755
0000b0 a4 df 96 ba 93 6d 2d bd cb 0b 88 3d d1 99 06 3e
       -0.0011510742 -0.042340826 0.06642874 0.13144614
0000c0 79 ec 19 3b 80 5c d2 bd 49 21 1f 3c aa e5 d4 bc
       0.0023486896 -0.10271549 0.009712526 -0.025988419
0000d0 a5 05 a4 bd 59 2b 59 3c ae 2a 5a 3e 34 94 48 bd
       -0.08008889 0.013254964 0.21305344 -0.048969463
0000e0 57 39 86 3d de ff 51 b8 6e 2e c1 b7 89 55 fd bd
       0.065539055 -5.0067778e-05 -2.3029013e-05 -0.1236983
0000f0 80 51 f5 3c 63 81 64 3e e3 65 4f 3c 80 1f 1b 3e
       0.029946089 0.22314982 0.012658569 0.15148735

6.bias f4 [2]
000000 35 24 1b 3e 48 8b a5 3d
       0.1515053 0.080832064

exp_avg f4 [32, 2]
000000 8e eb c8 b9 6f cd 62 b9 90 bc 37 39 35 cf 31 b9
       -0.00038322475 -0.0002162957 0.00017522485 -0.00016957226
000010 fd 3a be b9 d6 ce 8e b8 cd f7 6e 38 11 b6 f1 37
       -0.00036283574 -6.809614e-05 5.6974404e-05 2.881422e-05
000020 e9 f5 18 39 9f b2 85 b9 c4 5b 1c b9 3b fd fd 38
       0.00014587458 -0.0002550082 -0.00014911505 0.00012111148
000030 28 86 4b 39 67 51 5f b9 21 b6 21 b9 51 76 ce b9
       0.00019409566 -0.00021297262 -0.00015422005 -0.00039379534
000040 bf 3b ca ba d5 51 2a 38 c1 1b a4 b7 dc d1 c9 36
       -0.0015429183 4.060737e-05 -1.9563247e-05 6.0146976e-06
000050 f4 aa a0 b7 14 36 68 b4 1f 17 ad b9 3b e8 f5 b9
       -1.9153093e-05 -2.1626357e-07 -0.00033014358 -0.00046903067
000060 19 fe 8b 39 73 77 9d 3a fd 68 64 39 7d 79 46 ba
       0.00026701464 0.0012013748 0.00021782886 -0.0007571204
000070 8b 67 4d 3a 89 c9 e5 38 eb ee 0c 3a 88 7f 80 38
       0.00078355585 0.0001095711 0.0005376178 6.12727e-05
000080 27 98 f5 39 6e 53 d5 b8 dc 4c 5d ba 2f 34 eb b9
       0.00046843404 -0.000101721715 -0.0008441934 -0.00044861573
000090 ee 1e aa ba 67 c7 92 ba c2 64 98 39 41 fc 67 39
       -0.0012979188 -0.0011198343 0.0002906677 0.00022123849
0000a0 1e af 3e 3a 1e 7d 9a 39 e0 2b 77 b9 01 b4 94 b9
       0.00072740193 0.00029466389 -0.000235721 -0.00028362873
0000b0 3e 8c 43 3a ab 36 ca 39 cc 9e 07 39 ba b4 01 3a
       0.00074595574 0.00038569173 0.0001293376 0.000494789
0000c0 4d 9e 3c 3a 12 3e 36 ba 96 55 8c 36 9a 7e 00 b9
       0.00071952195 -0.0006951998 4.1822886e-06 -0.00012254194
0000d0 a8 c9 5c ba f3 7c 1a ba b1 eb 45 b9 ae c3 c4 b9
       -0.0008422383 -0.00058932527 -0.00018875186 -0.00037529826
0000e0 56 81 36 b9 71 70 cc 38 c6 86 64 3a 86 06 25 39
       -0.00017405054 9.748422e-05 0.00087175926 0.00015738056
0000f0 81 c3 f5 39 1b 82 7e 37 ff be 02 3a ee 7c c7 b9
       0.00046875703 1.5169872e-05 0.0004987567 -0.00038049318

exp_avg_sq f4 [32, 2]
000000 41 0e c5 35 5d 03 45 35 76 66 3e 35 38 00 14 34
       1.4681792e-06 7.3393113e-07 7.0929616e-07 1.3783654e-07
000010 57 b8 a9 35 4e 04 08 35 be 96 49 35 3a 0a 84 34
       1.2645131e-06 5.067021e-07 7.5097694e-07 2.4594357e-07
000020 32 49 09 34 4c 15 16 34 0d ae 73 34 d7 0d 45 33
       1.2785748e-07 1.3977586e-07 2.2694458e-07 4.5880224e-08
000030 27 38 64 35 92 eb 44 35 22 5b fb 34 58 ef 76 35
       8.501833e-07 7.335849e-07 4.68187e-07 9.199043e-07
000040 13 62 3f 36 37 f6 a8 35 06 47 d7 2e 42 5d ac 2d
       2.8518305e-06 1.2588633e-06 9.789684e-11 1.9595551e-11
000050 ec 4f d0 2e 95 2e 06 2c 06 8c 09 35 cc ef 3b 35
       9.472942e-11 1.9068404e-12 5.124024e-07 7.001188e-07
000060 4b 7f 38 36 7b 63 ca 35 5b 64 0d 37 ee 81 43 36
       2.749223e-06 1.5079125e-06 8.427621e-06 2.9132893e-06
000070 c3 23 ce 36 0f 5a da 35 4f 2d f1 35 6b 8d 35 35
       6.1434416e-06 1.6268476e-06 1.7969086e-06 6.7633545e-07
000080 7e 09 d7 34 a8 a0 07 33 fd c1 54 35 d4 f8 aa 35
       4.0053777e-07 3.1578253e-08 7.9258444e-07 1.2738406e-06
000090 89 f5 30 37 94 81 e6 35 86 a4 07 34 f4 0d bc 34
       1.0547586e-05 1.7174048e-06 1.2632708e-07 3.502788e-07
0000a0 d0 3b 42 36 fa b6 de 35 96 a5 51 35 63 51 e3 34
       2.8943068e-06 1.6593542e-06 7.8099526e-07 4.2341262e-07
0000b0 f1 c6 08 36 ea dd ca 35 57 3a a1 35 02 88 71 33
       2.0381378e-06 1.5114758e-06 1.2012414e-06 5.6235884e-08
0000c0 0b 9b 78 35 dc 6a 77 34 ce 52 1b 35 ca 81 59 35
       9.2612817e-07 2.3042543e-07 5.7862496e-07 8.102767e-07
0000d0 30 43 84 36 db 88 dc 35 c0 66 89 34 ba e2 e3 33
       3.941728e-06 1.6431107e-06 2.5593e-07 1.06117525e-07
0000e0 e1 fb 17 35 9d 72 0d 35 15 8b 13 36 34 38 a0 35
       5.6618416e-07 5.269338e-07 2.1985663e-06 1.1937286e-06
0000f0 00 cb 2d 35 8f 91 34 36 c5 64 8d 35 52 df 1f 35
       6.4742926e-07 2.6906816e-06 1.0534646e-06 5.955709e-07

exp_avg f4 [32]
000000 2e 3d 52 b8 41 22 89 ba db f6 6b b9 f9 0e 22 38
       -5.012488e-05 -0.0010462479 -0.00022503307 3.8637754e-05
000010 b3 1f 4c 39 f9 42 b6 b9 36 a3 70 39 e9 c3 bd 39
       0.00019466765 -0.00034763644 0.00022948984 0.00036194854
000020 77 bb c8 38 12 8c 39 b8 6f 60 6a b8 df 06 a4 b9
       9.571661e-05 -4.4237888e-05 -5.587976e-05 -0.00031285637
000030 a2 77 9f ba b1 2a 7f b9 46 f8 98 3a 34 52 b3 39
       -0.0012166391 -0.00024334599 0.0011670671 0.00034202787
000040 13 cd 02 3a 1f e0 13 38 e5 ae b4 39 04 f9 c4 37
       0.0004989665 3.525626e-05 0.00034462582 2.3480978e-05
000050 1f 02 66 3a db 1f 34 b9 ab e7 96 3a d7 dd 8f 39
       0.000877412 -0.00017178005 0.0011513134 0.0002744037
000060 81 23 aa 3a 37 01 8c b8 2b 0a 48 ba 81 ef 9b b9
       0.0012980552 -6.6759465e-05 -0.00076309097 -0.00029742348
000070 4c 8e 50 b9 85 78 38 39 ff d7 36 3a f6 da 33 3a
       -0.00019889435 0.00017592504 0.0006974935 0.0006860936

exp_avg_sq f4 [32]
000000 d6 9a 34 36 ac 48 96 35 b6 58 e8 35 75 05 36 35
       2.6912217e-06 1.1197021e-06 1.7311165e-06 6.7808224e-07
000010 9f 45 49 34 0e ca 80 34 6a 15 c8 35 e9 12 be 35
       1.8744912e-07 2.3988872e-07 1.4907394e-06 1.4161607e-06
000020 14 43 96 36 97 f0 d0 2f f0 42 1e 30 81 35 81 35
       4.4781573e-06 3.800593e-10 5.757519e-10 9.626821e-07
000030 58 b0 91 36 7f e1 29 37 60 6f ed 36 60 23 2f 36
       4.341866e-06 1.0125687e-05 7.076116e-06 2.6097623e-06
000040 0f 30 ca 34 83 dd e0 35 ae 7d 37 37 26 f9 e5 34
       3.76604e-07 1.6753769e-06 1.0936912e-05 4.2835853e-07
000050 70 5f 98 36 3a 98 bd 35 03 14 72 36 8c 50 6e 35
       4.5410634e-06 1.4125901e-06 3.6072458e-06 8.877912e-07
000060 42 4a 89 35 03 df e4 35 10 24 b9 36 a1 e8 96 34
       1.0228907e-06 1.7052229e-06 5.517628e-06 2.8108937e-07
000070 f9 38 9b 35 8e 03 5f 36 fc 2a 56 36 0d 0b bd 35
       1.1564981e-06 3.3231659e-06 3.1913505e-06 1.4084814e-06

exp_avg f4 [32, 32]
000000 7d 0d 99 36 68 02 08 32 b0 1b 28 b5 89 0b b1 b6
       4.5613256e-06 7.916789e-09 -6.262517e-07 -5.276354e-06
000010 67 9b 92 b5 8e 87 22 31 96 21 27 b5 19 75 44 b6
       -1.0923076e-06 2.3651157e-09 -6.226122e-07 -2.9274436e-06
000020 69 78 2d b5 36 87 ec b5 c4 a1 76 b6 4a 77 2c b5
       -6.462274e-07 -1.7622722e-06 -3.6751017e-06 -6.424858e-07
000030 6f 11 87 b6 b3 6c 20 b6 dd 13 ce 36 ac e8 ec b4
       -4.025343e-06 -2.390513e-06 6.141591e-06 -4.4127717e-07
000040 03 3c bb b1 8e d3 a0 b6 35 e8 c9 b5 3e 64 7b b4
       -5.449239e-09 -4.793e-06 -1.5043248e-06 -2.3412665e-07
000050 29 7f 28 b5 ba 0b 89 b6 7b 6d 62 b5 46 63 85 b5
       -6.276992e-07 -4.0842833e-06 -8.4350876e-07 -9.938165e-07
000060 61 e6 1a b5 7c f3 35 b5 65 09 0b af 4b 2f e5 b5
       -5.7704716e-07 -6.778207e-07 -1.2645314e-10 -1.7075594e-06
000070 e5 ba 2d b6 e0 f0 fd b5 7f e0 f6 b4 e8 db 46 b6
       -2.5887796e-06 -1.8920073e-06 -4.5984413e-07 -2.9632301e-06
000080 ef 68 ac 39 9d 59 3b 38 92 38 2a 39 f5 6b 52 b8
       0.00032884578 4.4667733e-05 0.00016233537 -5.0168444e-05
000090 ef 9f 90 b6 d8 6b 56 38 b6 6a 8c 39 a5 cd 9f 38
       -4.310153e-06 5.1122013e-05 0.00026782387 7.620015e-05
0000a0 50 27 a1 39 a7 9d bd b6 5e ad 9a b0 da 2f b6 37
       0.00030737603 -5.650992e-06 -1.1254249e-09 2.1718373e-05
0000b0 83 5e 34 38 85 ec f5 38 39 de 1b 38 fc 52 9a 38
       4.3003365e-05 0.000117265656 3.716184e-05 7.358749e-05
0000c0 67 6f b6 37 cd 4e 2a 38 04 29 73 39 84 13 54 36
       2.1747966e-05 4.0604547e-05 0.00023189565 3.1601821e-06
0000d0 21 36 e9 38 00 e2 50 39 63 ef ee 38 5d c4 d3 b5
       0.00011120388 0.00019920617 0.000113933136 -1.5777874e-06
0000e0 cf 45 4e 34 bf f9 12 35 0b 02 70 38 70 34 9b 38
       1.9210641e-07 5.4752667e-07 5.722236e-05 7.400743e-05
0000f0 d0 20 39 39 55 a9 de 38 23 a8 05 b2 8e 2f 1b b5
       0.00017655198 0.000106173255 -7.779849e-09 -5.78112e-07
000100 9a aa e4 b9 c5 92 d6 b8 c7 8b 31 ba 56 84 50 b8
       -0.00043614657 -0.00010231653 -0.00067728426 -4.9714312e-05
000110 01 0c 97 38 89 19 51 b9 22 2f 61 ba 47 e5 4e b9
       7.202477e-05 -0.00019941306 -0.0008590092 -0.00019731103
000120 86 0d 8c ba e1 1d 31 b5 20 e4 cc b4 64 ed e7 b7
       -0.0010685183 -6.598112e-07 -3.8163944e-07 -2.764789e-05
000130 7a bd ed 39 c1 ad 27 b9 e8 a4 3f 39 3a da c8 b9
       0.00045345334 -0.0001599109 0.00018276612 -0.00038309564
000140 32 c0 03 b9 17 1a 1a b8 fd df 69 ba 59 6a 0f b7
       -0.00012564732 -3.674076e-05 -0.00089216215 -8.548225e-06
000150 6d 7e 8d b9 6c d0 d7 b9 08 d2 82 b9 a7 be ea 37
       -0.0002698781 -0.00041163282 -0.00024952018 2.7983753e-05
000160 e8 f6 a3 38 1e c6 37 b8 60 ab ac b9 5a 34 30 b9
       7.8184356e-05 -4.381511e-05 -0.0003293408 -0.0001680417
000170 f7 5b 0d ba d5 6e 9a b9 e9 59 f3 2f 2c 70 91 37
       -0.0005392427 -0.00029455745 4.4265328e-10 1.7337581e-05
000180 3a e3 56 ba c3 54 ea b9 1d 7d d0 b9 31 93 95 b8
       -0.00081973115 -0.0004469511 -0.00039766068 -7.13229e-05
000190 e5 4e 9d 2c fb d1 a3 b7 6b 8e 06 ba 7b bb 25 b9
       4.4709674e-12 -1.9528894e-05 -0.0005132916 -0.00015805468
0001a0 de d2 35 ba 3a 61 34 b1 37 44 71 36 c5 ce de b8
       -0.0006936024 -2.6248714e-09 3.5951505e-06 -0.00010624299
0001b0 b6 74 d5 35 3a c5 60 37 f2 d8 93 b5 07 d3 bf b8
       1.5903704e-06 1.3397361e-05 -1.1015493e-06 -9.1468966e-05
0001c0 af 8f 02 b4 71 d3 fb b8 7a b4 49 ba 26 fb 4a 34
       -1.2159465e-07 -0.00012007997 -0.00076944346 1.8904083e-07
0001d0 54 8a 5b b8 fe 4d 10 ba 74 67 9f b8 19 ee b0 36
       -5.2342497e-05 -0.0005504786 -7.6009805e-05 5.272927e-06
0001e0 6a ff f4 2f f5 af d4 38 db 36 df b9 c9 57 2b b9
       4.4564824e-10 0.00010141722 -0.00042574745 -0.00016340533
0001f0 6b 25 b1 b9 a1 a4 6b b8 54 3b 31 b4 a5 a3 8c 30
       -0.0003378795 -5.618169e-05 -1.6505993e-07 1.0232851e-09
000200 20 01 00 36 4c a2 1a 37 cb 0a fb 38 4c 5f 57 b8
       1.9074141e-06 9.216903e-06 0.00011970623 -5.1348747e-05
000210 b4 21 82 b7 9a 30 8d b8 43 5c 9b b7 0e 26 2f b7
       -1.5512902e-05 -6.732457e-05 -1.8520403e-05 -1.0439673e-05
000220 b6 42 84 b8 bf bb 70 36 25 35 00 35 9d 1d 99 37
       -6.3066764e-05 3.587207e-06 4.776105e-07 1.8252811e-05
000230 0b 67 5b 39 d2 2b 92 39 45 1e 61 39 1e 19 00 b8
       0.00020923854 0.0002787994 0.00021468948 -3.054097e-05
000240 9b 76 19 b8 41 d6 69 37 c6 a3 cd b8 58 f7 5a b5
       -3.6588503e-05 1.3937767e-05 -9.805667e-05 -8.157126e-07
000250 96 4e bd 38 1d 65 0b 38 b0 b2 58 38 fd 9a 5a b7
       9.02686e-05 3.323435e-05 5.166483e-05 -1.3029899e-05
000260 f6 5f 57 b5 ac bc 96 39 81 e3 1b b5 63 bc a3 37
       -8.0233383e-07 0.000287508 -5.807306e-07 1.9518839e-05
000270 3b b1 ae 36 a3 b7 21 38 4c f8 ac 31 08 c1 a9 b6
       5.2062364e-06 3.8556416e-05 5.034087e-09 -5.0590643e-06
000280 92 d4 74 b9 fe 4b 8f b8 8d f8 2e 39 a6 6e 9c 38
       -0.00023348842 -6.832926e-05 0.00016686525 7.4592695e-05
000290 cc e0 1c 39 f4 aa 75 b8 0d 9f 68 39 f9 8a 14 39
       0.00014961063 -5.8571764e-05 0.00022184495 0.00014166151
0002a0 5c 60 1b 39 5e c9 a3 36 9b 1b 97 af 05 ae 32 b8
       0.00014817849 4.881221e-06 -2.7486355e-10 -4.2600575e-05
0002b0 d8 03 3e b7 16 57 94 38 15 ee a8 39 e5 21 0d 3a
       -1.1325777e-05 7.073411e-05 0.00032220842 0.0005383774
0002c0 0b 68 a9 b6 f7 16 5e b8 14 00 0c b9 22 56 25 31
       -5.0487047e-06 -5.2950312e-05 -0.0001335147 2.405962e-09
0002d0 9b 10 82 39 25 0f d6 b9 3e 59 a3 39 e6 29 04 38
       0.00024807904 -0.00040828544 0.00031156273 3.1510273e-05
0002e0 e4 05 e8 38 02 f0 16 39 0b 53 3c 38 71 20 38 b9
       0.00011063719 0.00014394525 4.4900033e-05 -0.00017559693
0002f0 77 25 00 39 4e 37 f4 39 a8 f7 a8 b6 a9 69 fb 37
       0.00012220988 0.00046580512 -5.035621e-06 2.9970734e-05
000300 ac 07 de 39 c3 e8 2a 38 9a fa d3 39 05 42 ca b6
       0.00042348856 4.0747935e-05 0.0004043177 -6.027755e-06
000310 77 f8 03 39 ad 6a 9e 38 f5 90 69 3a f4 90 b5 39
       0.00012585694 7.553897e-05 0.0008909845 0.0003463101
000320 d3 ba 84 3a ff 92 4c 2e 4f bb 0a 32 72 2b a0 36
       0.0010126479 4.651479e-11 8.075246e-09 4.7734293e-06
000330 57 d2 3f b9 a4 ef 8d 39 57 00 49 39 46 dd 55 3a
       -0.00018293537 0.00027072162 0.0001916898 0.00081582775
000340 51 db 56 34 04 15 13 38 1f 7d bb 39 ce 7c 55 b8
       2.001009e-07 3.5067103e-05 0.00035760642 -5.089939e-05
000350 d3 b4 d3 39 fb e2 a0 39 56 dc 0b 3a 4a 81 7b b8
       0.0004037978 0.00030686692 0.0005335262 -5.9963473e-05
000360 79 91 c1 38 3e 75 0c b8 eb 02 0b 39 f5 05 08 39
       9.2300535e-05 -3.348779e-05 0.0001325716 0.0001297219
000370 19 ee 0d 3a 59 ef 3b 3a 23 12 2c b9 a5 8d a4 36
       0.00054142025 0.00071691495 -0.00016409955 4.9040705e-06
000380 a6 ed f5 b6 25 70 ca b8 fe a5 3f b9 3b cf 23 38
       -7.329235e-06 -9.652999e-05 -0.00018277016 3.9055227e-05
000390 ef a4 a8 b7 7d d1 52 b5 5d e2 6a b9 d0 c3 60 36
       -2.0103964e-05 -7.853594e-07 -0.00022400306 3.349258e-06
0003a0 fc 1b a0 b9 fc a5 1f b1 97 82 e1 35 05 9e 41 b8
       -0.00030538428 -2.3231896e-09 1.6801813e-06 -4.6161953e-05
0003b0 6e 2f 20 39 ca 31 e6 b9 ef c8 11 b9 c2 ce f6 b8
       0.00015276458 -0.00043906114 -0.00013903131 -0.00011768706
0003c0 75 f0 fb 34 2f 25 91 b8 74 de 62 b9 bc 95 31 38
       4.692735e-07 -6.921065e-05 -0.0002163591 4.233954e-05
0003d0 ad c2 fe b8 0e 7e a0 b9 68 72 f5 b8 b8 27 8e b6
       -0.00012147925 -0.00030611496 -0.0001170382 -4.2365537e-06
0003e0 53 c5 01 b8 79 87 39 b9 ba 8f 09 b9 f2 ad 2c b9
       -3.093977e-05 -0.00017693442 -0.0001311888 -0.00016467998
0003f0 3a ff 19 b9 db a5 e2 b8 e1 93 bb 38 dd 5a fb 35
       -0.00014686296 -0.00010807413 8.9443995e-05 1.8727402e-06

exp_avg_sq f4 [32, 32]
000000 30 58 7d 2d 0e d4 42 2b 2d 05 d0 2c e5 7b 94 2d
       1.44009665e-11 6.921693e-13 5.91229e-12 1.6880672e-11
000010 10 34 90 2c 53 7c 9b 2a ea 4d ad 2d 63 c8 61 2d
       4.0985063e-12 2.7619798e-13 1.9702424e-11 1.2834264e-11
000020 80 f8 6b 2d db 57 d4 2c 3f ce 4a 2d 23 d6 5b 2c
       1.34133815e-11 6.0351563e-12 1.15281664e-11 3.1240642e-12
000030 a6 13 5e 2d 4c 95 07 2e 81 96 95 2e bc 9c 97 2e
       1.2623602e-11 3.082805e-11 6.8024704e-11 6.8945266e-11
000040 31 87 13 2b 4f 99 85 2d 82 7b bc 2c 93 78 76 2b
       5.2412507e-13 1.5188432e-11 5.3569935e-12 8.7564087e-13
000050 9a fb aa 2d 1a a9 61 2d 9b 67 00 2e 9c 0f 8e 2c
       1.9438496e-11 1.2827317e-11 2.919585e-11 4.0376157e-12
000060 49 ea e9 2b 41 ba 46 2d c4 e1 f9 27 d6 3f cf 2c
       1.6620673e-12 1.1296354e-11 6.935616e-15 5.890381e-12
000070 2f 84 63 2d b5 7b 84 2e 0f db 04 2c 67 a6 23 2d
       1.2932807e-11 6.02464e-11 1.887993e-12 9.302426e-12
000080 80 dc a8 34 4f 31 34 34 3a 19 f3 34 2c aa b1 32
       3.1452873e-07 1.6781745e-07 4.5280632e-07 2.0682897e-08
000090 2d f5 80 2d 30 4d 87 31 d3 14 a2 34 25 38 e8 32
       1.4660795e-11 3.9377923e-09 3.0190003e-07 2.7033886e-08
0000a0 6b cf d7 34 77 6d a0 2d 52 21 eb 2a 4a b6 df 31
       4.0197787e-07 1.8238506e-11 4.1767506e-13 6.510878e-09
0000b0 f1 db 5d 31 a5 31 9c 32 e2 e2 b2 2f 90 e7 83 33
       3.2284755e-09 1.8183366e-08 3.253922e-10 6.142284e-08
0000c0 23 4b 47 30 ef 8e ea 31 e2 7d 0f 35 67 30 2f 2d
       7.2502554e-10 6.826546e-09 5.3454835e-07 9.958346e-12
0000d0 4c 87 1b 33 88 54 95 33 49 da 05 33 a5 3a 1b 2d
       3.62118e-08 6.953729e-08 3.1165005e-08 8.823752e-12
0000e0 67 2b a3 29 9b 1b 13 34 f8 4e 0a 35 5c 84 5a 31
       7.246183e-14 1.3700485e-07 5.152392e-07 3.1798413e-09
0000f0 2a 55 01 34 76 81 42 33 33 92 2d 2b 1b c5 4f 2c
       1.2045044e-07 4.528689e-08 6.166484e-13 2.9525885e-12
000100 93 22 52 36 38 49 b6 34 d5 c4 40 36 28 30 5a 33
       3.1312563e-06 3.3953415e-07 2.87248e-06 5.0800878e-08
000110 91 af 77 34 e4 1f 8e 34 1a 99 cb 36 ff 0b a8 35
       2.3067538e-07 2.6472765e-07 6.067695e-06 1.2520467e-06
000120 f2 b8 ee 36 5c 0f 5f 2c b0 97 29 2c d0 99 68 32
       7.114483e-06 3.1698732e-12 2.4100548e-12 1.353915e-08
000130 cd 60 7f 34 89 74 70 35 22 ed 81 35 19 63 c7 36
       2.3783942e-07 8.957655e-07 9.680264e-07 5.9421986e-06
000140 af 36 04 34 bb 3b 74 32 16 04 2b 36 cc 32 ca 2e
       1.2313352e-07 1.421625e-08 2.5483364e-06 9.19492e-11
000150 67 ec ce 35 7d fd 73 34 ca d5 23 36 aa 1c ea 31
       1.5416998e-06 2.2723357e-07 2.4413334e-06 6.813555e-09
000160 90 0d de 33 4e 05 27 36 15 14 f0 35 26 89 53 32
       1.03401476e-07 2.4888027e-06 1.7887238e-06 1.2313e-08
000170 c1 63 0f 36 0d d4 97 36 08 f9 da 29 29 a4 e7 31
       2.1366725e-06 4.5248366e-06 9.724345e-14 6.7416477e-09
000180 ea 26 b6 34 d6 35 7f 34 c0 c2 02 35 91 1b b7 32
       3.3928455e-07 2.3768311e-07 4.871217e-07 2.131654e-08
000190 7f e4 5a 25 f9 f0 bb 2f 8e 06 89 34 26 18 49 32
       1.8985903e-16 3.4186323e-10 2.5523008e-07 1.1705231e-08
0001a0 56 95 c5 34 b1 3c 80 2b 55 6f 46 2d 5e 8c 1b 32
       3.6802766e-07 9.111792e-13 1.1279718e-11 9.054103e-09
0001b0 51 58 a1 2d e8 ea 1e 31 75 d1 97 2c 44 1a 8e 31
       1.8342801e-11 2.3125555e-09 4.3149325e-12 4.13573e-09
0001c0 03 4c 39 2b 11 6d 2e 32 91 56 31 35 bf 8a ff 2b
       6.583069e-13 1.0152932e-08 6.606361e-07 1.815735e-12
0001d0 1d 54 92 32 cf c1 c7 33 d1 5a 9b 31 5a 60 94 2d
       1.7034887e-08 9.301913e-08 4.5214184e-09 1.686844e-11
0001e0 e4 b0 72 29 2e 45 88 33 33 16 25 35 45 25 79 31
       5.3888223e-14 6.345577e-08 6.1499594e-07 3.6255454e-09
0001f0 40 2a ec 33 c0 59 37 31 6f cc f3 2b 79 dc 1f 2a
       1.09972916e-07 2.6681022e-09 1.732293e-12 1.4198529e-13
000200 6e aa de 33 a4 a5 60 33 fc 17 67 34 23 c8 fb 31
       1.03686816e-07 5.2304713e-08 2.1522277e-07 7.3278144e-09
000210 d7 5c 05 2e 2a c9 09 31 68 77 0b 34 80 e0 8c 32
       3.0323157e-11 2.0050472e-09 1.2988824e-07 1.6400236e-08
000220 d4 14 30 34 94 00 46 2d eb 8f 3c 2c 6a 02 0c 31
       1.6398855e-07 1.1255125e-11 2.6796297e-12 2.0374054e-09
000230 39 13 9c 32 fa 4f 74 33 a9 12 ce 32 28 85 76 33
       1.8169532e-08 5.6883415e-08 2.3990042e-08 5.7397443e-08
000240 18 94 f0 2f 00 2e 16 31 27 49 3a 34 89 bf 7b 2c
       4.3760973e-10 2.185402e-09 1.7349213e-07 3.5775569e-12
000250 e9 ae 02 33 3e ba 9a 32 38 86 ed 32 84 52 9a 2d
       3.0427064e-08 1.8012653e-08 2.7651467e-08 1.7544417e-11
000260 f4 41 2f 2c 59 5b 3b 34 48 51 72 34 46 c0 23 30
       2.4905607e-12 1.7448964e-07 2.2567576e-07 5.957229e-10
000270 54 01 5f 33 85 be 40 33 42 4d 10 2b 31 b8 8d 2d
       5.192244e-08 4.487676e-08 5.1266294e-13 1.6111642e-11
000280 c9 2e 11 36 f1 6d fa 34 9e 1b eb 35 09 7a 5e 33
       2.1633916e-06 4.6646122e-07 1.7516902e-06 5.1799393e-08
000290 b3 4b ba 33 61 48 0a 34 c5 af 59 36 b8 9c 1a 35
       8.6750696e-08 1.2878583e-07 3.243783e-06 5.7597526e-07
0002a0 8a a4 84 36 92 45 88 2d 14 57 61 29 8a 88 a5 32
       3.9530614e-06 1.5492305e-11 5.0035564e-14 1.9270619e-08
0002b0 3a 4d fc 2f 7b f8 80 33 da c3 6b 34 21 8e 25 36
       4.5893406e-10 6.005663e-08 2.1957331e-07 2.4669646e-06
0002c0 2c a3 7c 33 0d 9a b1 32 4f 69 17 36 3b 06 8a 2a
       5.8821726e-08 2.0675566e-08 2.256205e-06 2.4518048e-13
0002d0 df 2e 2b 35 80 bc 92 34 0b 2f 87 35 a9 8b 56 31
       6.377067e-07 2.733177e-07 1.0071975e-06 3.1220486e-09
0002e0 08 e3 11 33 2b 50 73 34 f2 35 b0 35 00 3d 76 32
       3.3966927e-08 2.2660304e-07 1.3128722e-06 1.4332954e-08
0002f0 a6 71 9c 35 3c a6 f7 35 32 ff 8c 2d d6 f8 e7 30
       1.1655982e-06 1.8451315e-06 1.6029487e-11 1.6878186e-09
000300 b0 70 14 36 40 31 9f 34 12 bc 25 36 44 9a 24 33
       2.2119311e-06 2.9651892e-07 2.4696387e-06 3.832453e-08
000310 dd 50 8b 34 81 e5 1f 34 73 15 b2 36 b7 47 9d 35
       2.5949603e-07 1.4891522e-07 5.3073104e-06 1.1718283e-06
000320 0a 1a c3 36 0a 20 2b 28 82 1a 3b 2b e8 2c 37 32
       5.814484e-06 9.499354e-15 6.6472533e-13 1.06622124e-08
000330 90 f5 64 34 22 99 01 36 f8 66 37 36 e3 5d f2 36
       2.132349e-07 1.9311633e-06 2.732906e-06 7.223092e-06
000340 f4 b1 99 33 72 02 48 32 37 19 03 36 ee f3 55 31
       7.156987e-08 1.1642088e-08 1.9535198e-06 3.1134237e-09
000350 44 4d 08 36 53 00 72 34 91 18 46 36 1c 97 6c 31
       2.0310554e-06 2.2538124e-07 2.9518599e-06 3.4428416e-09
000360 f0 ca 23 34 bd 86 21 36 15 cc ac 35 e8 de 88 32
       1.5254386e-07 2.4069298e-06 1.2874394e-06 1.593385e-08
000370 c6 16 ff 35 cb e0 bc 36 34 71 5b 32 d9 70 2c 32
       1.9005608e-06 5.629006e-06 1.2773217e-08 1.0037376e-08
000380 f0 bf ed 35 ca e9 9e 35 f3 e7 8c 36 41 48 2f 34
       1.7713737e-06 1.1839959e-06 4.1993276e-06 1.6324431e-07
000390 b9 e0 e9 31 2c e0 e9 30 f3 5f 12 36 e7 46 64 34
       6.8067405e-09 1.7016695e-09 2.1811545e-06 2.1259949e-07
0003a0 0a ff 31 36 ec ca 96 2a 1a b5 cc 2c 7d c0 56 33
       2.6523508e-06 2.6786158e-13 5.818135e-12 5.0000825e-08
0003b0 84 8c 84 34 cc 8d cc 35 6a 90 89 35 1b 72 ba 35
       2.4689155e-07 1.5240453e-06 1.0249325e-06 1.3891289e-06
0003c0 b2 6a 71 2b ff 2b 63 33 43 be 74 36 cc ef 8c 30
       8.576847e-13 5.289257e-08 3.646958e-06 1.0254495e-09
0003d0 cc fb 52 35 20 c1 df 34 5b 7b 31 35 ef 5f 6a 2d
       7.859751e-07 4.1677504e-07 6.6117144e-07 1.33226616e-11
0003e0 a2 e5 5c 32 b6 b7 6a 36 ff 62 8e 36 15 3b 88 32
       1.2857898e-08 3.497565e-06 4.2434544e-06 1.5859351e-08
0003f0 eb 92 75 35 0f e4 9e 35 3c 7c af 31 82 85 ac 2f
       9.1483406e-07 1.1838291e-06 5.107294e-09 3.138148e-10

exp_avg f4 [32]
000000 49 3d af b5 9d c7 6e 39 3b e1 7c ba 13 ef f3 b9
       -1.3056352e-06 0.0002277181 -0.0009646599 -0.00046526696
000010 02 6e 55 39 df 96 c6 39 2e af 54 3a ec 1d 9c b9
       0.00020354244 0.0003787791 0.0008113262 -0.00029776932
000020 30 86 67 b9 54 6b b8 ba 9d 7d ae b6 f9 54 ee 3a
       -0.00022079865 -0.0014070072 -5.2002274e-06 0.0018183283
000030 b0 42 66 3a 75 d7 92 b7 7a 64 7b 39 57 18 21 b7
       0.0008783741 -1.7504886e-05 0.00023974656 -9.602015e-06
000040 20 79 0c ba 8d f3 9c ba 7f 8e ee b6 c4 c0 83 ba
       -0.0005358625 -0.0011974439 -7.1095415e-06 -0.0010051955
000050 24 9c de b9 88 cf 95 b5 7c 9a a9 b8 60 59 6e b6
       -0.00042459473 -1.1161765e-06 -8.087323e-05 -3.5516787e-06
000060 2d a8 54 3a 54 4e 81 b9 28 5b 24 39 8f 0a 99 b6
       0.00081122183 -0.00024663156 0.00015674217 -4.5609845e-06
000070 75 14 fd b8 58 47 07 ba f3 11 55 3a 87 82 1a 3a
       -0.000120677905 -0.00051604724 0.000812798 0.0005894084

exp_avg_sq f4 [32]
000000 87 39 38 2e 36 04 42 35 2f f8 f9 36 3f 5f 3c 35
       4.188785e-11 7.227676e-07 7.4496706e-06 7.017406e-07
000010 35 7e c9 34 89 c2 84 36 0a c2 ff 36 58 2f 01 37
       3.7530995e-07 3.9565534e-06 7.6221813e-06 7.700022e-06
000020 a6 e9 46 36 02 a9 80 37 bd 19 92 2d 47 ec 5c 37
       2.96403e-06 1.533749e-05 1.6609708e-11 1.31680345e-05
000030 26 b4 56 37 57 cc 31 33 79 e2 8c 36 b5 4b 08 35
       1.2797338e-05 4.139687e-08 4.19869e-06 5.0774116e-07
000040 d6 c3 d0 35 ae 0c 53 37 1c 0e 3c 34 49 6b 60 37
       1.5554203e-06 1.2579532e-05 1.7513997e-07 1.337642e-05
000050 8f 9c 0c 35 d0 cc 64 33 a4 b5 65 35 39 12 44 2d
       5.2381887e-07 5.3271663e-08 8.557347e-07 1.1145356e-11
000060 8c 1b 0f 37 f7 4f ba 35 03 95 96 35 0c 53 7d 2d
       8.529878e-06 1.3881353e-06 1.1219239e-06 1.4399825e-11
000070 01 dd 9c 34 dc a7 17 37 d7 22 9d 37 e9 ff 21 37
       2.9218066e-07 9.039384e-06 1.8732082e-05 9.6559315e-06
