checkpoints/adversarial/adversarial_epoch0050.pt (torch, 39703 bytes, 24 tensors)

0.weight f4 [32, 2]
0.5625462 0.5833165 -0.17331596 0.6863723 -0.13892831 0.2118014 -0.42194265 0.38766557
0.5607833 -0.4279216 0.61056423 0.13704498 0.4832384 0.017797174 0.32555297 -0.08572391
0.5945135 0.14096329 -0.06378969 0.0032017876 -0.061107486 -3.763576e-09 -0.23545219 0.5470418
-0.610265 -0.47914675 -0.17389804 -0.44447303 0.068295926 -0.7673403 0.61566 -0.6375719
0.5067081 0.0883209 -0.14339091 0.53286743 0.11131435 0.699415 0.05044636 -0.31438828
0.14040966 -0.248752 0.25556868 0.6254852 0.32179865 -0.37249053 0.4749917 -0.099372156
0.37408695 -0.38110968 -0.67171264 -0.33514997 -0.48267126 0.6640316 0.16442123 0.32218274
0.24928828 0.02192433 0.46335924 -0.5864726 0.04195839 -0.5795917 0.29163104 -0.23780088
00000000: 0703 103f 3b54 153f bd79 31be 18b6 2f3f
00000010: 3943 0ebe 77e2 583e de08 d8be 1a7c c63e
00000020: 7f8f 0f3f 8a18 dbbe f04d 1c3f 8555 0c3e
00000030: 066b f73e 61cb 913c e1ae a63e 0490 afbd
00000040: 0932 183f ae58 103e 2ba4 82bd 15d5 513b
00000050: d84b 7abd c450 81b1 611a 71be ee0a 0c3f
00000060: 543a 1cbf b952 f5be 5412 32be f891 e3be
00000070: bcde 8b3d 6a70 44bf e59b 1d3f e937 23bf
00000080: 9fb7 013f 97e1 b43d 11d5 12be 006a 083f
00000090: c7f8 e33d dd0c 333f d8a0 4e3d 80f7 a0be
000000a0: 8dc7 0f3e d8b8 7ebe e6d9 823e cc1f 203f
000000b0: cbc2 a43e 14b7 bebe 1d32 f33e a183 cbbd
000000c0: 5388 bf3e cf20 c3be 5cf5 2bbf c798 abbe
000000d0: b020 f7be fafd 293f 0a5e 283e 23f5 a43e
000000e0: 6d45 7f3e a79a b33c 6c3d ed3e 1123 16bf
000000f0: 90dc 2b3d 1f60 14bf aa50 953e 1382 73be

0.bias f4 [32]
0.21646719 -0.037068054 0.60280794 -0.38699433 -0.4591249 -0.37105206 0.6555882 0.21707675
0.66575605 -0.2637889 -0.3703979 -0.5022074 -0.36702418 0.34581923 0.24632107 0.5388649
-0.4152138 -0.44428748 0.3714503 -0.24662392 0.4061888 -0.22407241 0.3894045 -0.47248805
-0.3583444 0.25083834 0.20053296 -0.20352368 0.42883596 0.52491134 -0.4596708 -0.3399592
00000000: 93a9 5d3e acd4 17bd 9f51 1a3f 1f24 c6be
00000010: 6b12 ebbe 89fa bdbe a1d4 273f 5e49 5e3e
00000020: fd6e 2a3f 570f 87be cba4 bdbe aa90 00bf
00000030: 98ea bbbe 380f b13e 973b 7c3e 0df3 093f
00000040: e796 d4be a679 e3be bc2e be3e fb8a 7cbe
00000050: faf7 cf3e 3d73 65be 0760 c73e f4e9 f1be
00000060: eb78 b7be e26d 803e 8358 4d3e 8368 50be
00000070: 6390 db3e 9760 063f f959 ebbe 220f aebe

2.weight f4 [32, 32]
0.0013108044 4.4780214e-11 -1.4703275e-05 -0.0021179481 -1.8313938e-06 -1.0133144e-11 -0.0004986805 -0.0006773312
-0.00023031756 -3.071628e-05 -0.00061746145 3.7511814e-08 -0.00085146393 -0.0027104462 0.012451779 -0.002295805
5.908077e-11 -0.0015470015 -1.4246544e-05 -6.0370806e-09 -0.00048876804 -0.00089761114 -0.0011364926 -1.2543567e-06
-8.865437e-09 -0.00015236072 -2.2659025e-12 -2.6477623e-05 -0.0006151577 -0.0048020207 -2.17734e-08 -0.00027156607
0.16335154 0.01713486 0.1840744 0.10044476 -0.0019869623 0.035692465 -0.03258634 -0.056549825
-0.12663925 -0.0026353612 -9.2861656e-11 -0.068991914 -0.042895384 -0.25005656 -0.13804802 -0.12531088
-0.12631723 -0.057988968 0.12698267 0.00035383244 0.14712477 -0.14166114 -0.00040326576 -0.002733905
8.348681e-09 -0.11944436 0.20412159 -0.1926105 0.110225186 0.026216352 1.4234446e-10 4.754913e-08
0.16304882 0.050105356 0.057724584 -0.0741618 -0.009345416 -0.014417615 -0.073409736 0.13021223
0.05251382 2.927536e-08 3.5094472e-09 0.045842838 -0.030811915 -0.0672283 -0.19512162 -0.08413597
-0.12429735 0.1421553 0.19768395 -0.023955029 0.02385721 0.16719742 0.011569382 -0.15657687
-0.0032131074 0.08461505 0.10699002 0.11372875 -0.040858403 -0.009035889 -1.2482589e-12 -0.15760948
0.16844459 0.17671515 -0.04116934 0.011815734 -4.6409653e-14 0.025747329 0.044335328 0.09288071
-0.1429708 3.4662214e-11 0.00057027285 0.20210728 0.0006932306 -0.21446007 -2.4929427e-06 -0.097737744
-0.053576883 0.22220026 0.12628593 1.8998538e-09 -0.23117632 0.0146048935 -0.0075981473 0.002113518
-2.3739831e-11 -0.12101758 0.06412887 0.15450047 -0.112662986 0.054708313 -3.3196584e-10 4.025154e-11
-0.09551273 0.19801073 0.18067774 0.18030864 0.004011539 -0.014654663 -0.0718427 0.1429061
0.1626103 0.00056571513 -2.7698114e-08 0.028017681 -0.12958607 -0.21262819 -0.2506533 -0.12501678
0.057987917 -0.09271378 0.06882352 -2.3028905e-07 -0.03651743 -0.037430346 -0.11935837 0.022302346
-0.04490377 0.07800155 0.018386332 -0.077653706 0.031131843 -0.08020745 -2.8942262e-11 -0.053237528
0.13834433 -0.10558567 0.1057759 0.095632605 0.017936887 -0.08955033 0.14487265 -0.067778096
0.08655045 0.0016432453 9.9905206e-12 0.11253509 0.019419195 -0.095915586 0.016955007 -0.17229499
0.1365764 0.2517176 0.2025223 -6.891218e-11 -0.14066999 0.12855327 0.10367917 -0.2036835
-0.14073719 -0.10833906 -0.013090416 0.076286756 -0.05385134 -0.052491322 -0.001820185 -0.028810972
0.11925918 -0.053569775 -0.039735965 -0.14077665 -0.11392911 -0.18737225 0.05586022 -0.08127851
-0.12715493 -4.779878e-12 -3.9074077e-11 -0.12457803 0.092820324 -0.0032969739 -0.0050735767 -0.05858329
-0.13786034 0.017942382 -0.11385027 0.21967879 -0.03638681 -0.060264003 0.18673824 0.21187149
-0.10054079 0.10463845 0.124785684 -0.06910885 0.11723037 0.20030685 0.2010251 0.13125977
-0.11338272 -0.020730207 0.15585805 0.13635354 0.00091518473 -0.071600884 -0.078872986 -0.111593984
-0.09182097 3.0366595e-11 2.451686e-05 0.11286695 -0.19104387 -0.11133876 0.055035308 -0.058031317
8.878873e-09 0.20115404 -0.047419652 -0.07464921 0.011474723 0.011713378 -0.013392612 -0.0010190655
-0.01800141 -0.078819185 0.19246677 0.07707985 -0.083405964 0.11422115 -0.072753266 -0.020564122
00000000: 4ccf ab3a 0af2 442e 16ae 76b7 46cd 0abb
00000010: 36ce f5b5 a043 32ad e2b9 02ba ed8e 31ba
00000020: 6681 71b9 5bd5 00b8 23dd 21ba ad1c 2133
00000030: c734 5fba bea1 31bb 8c02 4c3c 3775 16bb
00000040: 84eb 812e c2c4 caba 7104 6fb7 b96e cfb1
00000050: ab20 00ba aa4d 6bba 5df6 94ba 5e5b a8b5
00000060: 9b4e 18b2 05c3 1fb9 df72 1fac 431c deb7
00000070: 8942 21ba 455a 9dbb 3708 bbb2 fb60 8eb9
00000080: a045 273e 685e 8c3c 007e 3c3e fbb5 cd3d
00000090: b237 02bb 4332 123d 4179 05bd caa0 67bd
000000a0: b8ad 01be 06b6 2cbb 7734 ccae a24b 8dbd
000000b0: 12b3 2fbd 6a07 80be 765c 0dbe 7f51 00be
000000c0: 4e59 01be d785 6dbd bf07 023e 9682 b939
000000d0: e0a7 163e 9e0f 11be 6a6d d3b9 512b 33bb
000000e0: e36d 0f32 3f9f f4bd 4005 513e b03b 45be
000000f0: bebd e13d adc3 d63c 6782 1c2f d238 4c33
00000100: 45f6 263e 463b 4d3d 9d70 6c3d 24e2 97bd
00000110: 841d 19bc dc37 6cbc d857 96bd 5b56 053e
00000120: bb18 573d 3379 fb32 d92a 7131 b3c5 3b3d
00000130: 4569 fcbc feae 89bd f6cd 47be 7b4f acbd
00000140: 9c8f febd 2991 113e a96d 4a3e 563d c4bc
00000150: 3270 c33c cd35 2b3e 818d 3d3c b055 20be
00000160: ff92 52bb a84a ad3d 951d db3d 9eea e83d
00000170: 245b 27bd 440b 14bc 44ad afab 6164 21be
00000180: bd7c 2c3e d1f4 343e 2fa1 28bd c896 413c
00000190: b002 51a9 10ec d23c f698 353d 3e38 be3d
000001a0: f066 12be 2f72 182e 5d7e 153a 36f5 4e3e
000001b0: ebb9 353a 6c9b 5bbe 6e4c 27b6 ba2a c8bd
000001c0: 6f73 5bbd 7788 633e 1951 013e 958e 0231
000001d0: 7cb9 6cbe 5d49 6f3c e1f9 f8bb f382 0a3b
000001e0: 59d1 d0ad 11d8 f7bd ff55 833d 5f35 1e3e
000001f0: dabb e6bd d315 603d 0a80 b6af 3507 312e
00000200: 2e9c c3bd 53c3 4a3e 9603 393e d4a2 383e
00000210: 3a73 833b 1d1a 70bc 4422 93bd fa55 123e
00000220: 5183 263e 804c 143a ccec edb2 5685 e53c
00000230: 36b2 04be 34bb 59be a155 80be 6604 00be
00000240: bd84 6d3d b9e0 bdbd 58f3 8c3d 5f45 77b4
00000250: 4d93 15bd 9050 19bd 2972 f4bd 69b3 b63c
00000260: 04ed 37bd 47bf 9f3d ef9e 963c e808 9fbd
00000270: 3508 ff3c ce43 a4bd 2e94 fead 980f 5abd
00000280: 23aa 0d3e 4d3d d8bd 09a1 d83d 07db c33d
00000290: 61f0 923c 2a66 b7bd 7f59 143e 3ecf 8abd
000002a0: 5d41 b13d 2a62 d73a 4ec1 2f2d cc78 e63d
000002b0: 0115 9f3c 646f c4bd 3ae5 8a3c 196e 30be
000002c0: afda 0b3e 21e1 803e 0162 4f3e 1c8a 97ae
000002d0: cb0b 10be 78a3 033e bf55 d43d 6892 50be
000002e0: 691d 10be dee0 ddbd 2f79 56bc 3b3c 9c3d
000002f0: 3993 5cbd 2401 57bd 4693 eeba fd04 ecbc
00000300: 283e f43d fb6b 5bbd 2ec2 22bd c127 10be
00000310: aa53 e9bd 83de 3fbe b0cd 643d 5975 a6bd
00000320: e734 02be 502d a8ac 80d9 2bae c422 ffbd
00000330: 9518 be3d 0b12 58bb 3f40 a6bb 08f5 6fbd
00000340: 432b 0dbe e7fb 923c 552a e9bd 7af3 603e
00000350: 560a 15bd 63d7 76bd 4f38 3f3e d7f4 583e
00000360: 54e8 cdbd af4c d63d a38f ff3d f188 8dbd
00000370: 7a16 f03d 3d1d 4d3e 86d9 4d3e f668 063e
00000380: 3335 e8bd 65d2 a9bc 4199 1f3e 43a0 0b3e
00000390: 02e9 6f3a 7ca3 92bd 2988 a1bd 638b e4bd
000003a0: a20c bcbd bf8d 052e 8ea9 cd37 ca26 e73d
000003b0: 01a1 43be 9305 e4bd b46c 613d 3fb2 6dbd
000003c0: b289 1832 53fb 4d3e 1c3b 42bd afe1 98bd
000003d0: 7a00 3c3c 78e9 3f3c b06c 5bbc 2a92 85ba
000003e0: b177 93bc f46b a1bd 0216 453e 0adc 9d3d
000003f0: bfd0 aabd c7ec e93d aaff 94bd 1776 a8bc

2.bias f4 [32]
-0.0024672975 -0.113962665 0.02071786 -0.13569564 0.18004079 -0.15684745 0.08145814 0.20272914
0.11471554 0.100224264 -0.0020208785 0.16657542 -0.010629849 -0.16509154 0.18871199 -0.09448949
0.021284744 0.17816603 -0.14012839 -0.07466384 0.04468403 -0.056288112 0.047662303 -0.00245234
0.013868877 -0.069459066 -0.09236319 -0.001310476 0.069929756 0.060571037 -0.10938048 0.1484917
00000000: 62b2 21bb 4265 e9bd 80b8 a93c ccf3 0abe
00000010: 9d5c 383e 9e9c 20be 86d3 a63d 3a98 4f3e
00000020: fbef ea3d 6142 cd3d b770 04bb bf92 2a3e
00000030: d128 2ebc c20d 29be b73d 413e b583 c1bd
00000040: 585d ae3c 2871 363e d17d 0fbe 5be9 98bd
00000050: 9a06 373d 5d8e 66bd 8c39 433d 70b7 20bb
00000060: 493a 633c 8e40 8ebd ea28 bdbd 47c4 abba
00000070: 5537 8f3d 5619 783d e002 e0bd 350e 183e

4.weight f4 [32, 32]
-2.8265728e-11 0.022758648 -0.040230095 0.25378954 0.17985524 0.19423003 -0.12737584 0.19027406
0.061164133 0.14071217 0.00021936379 0.053645734 -0.19183573 0.040521808 -0.13899189 -0.0038643975
-0.05343262 0.012036251 0.006981822 0.049337924 -0.016688462 0.02306789 0.1998454 0.0002934134
0.07471774 0.11752529 0.18909004 -5.219612e-12 0.0074538547 0.09444749 -0.2784188 -0.12773694
7.5796747e-10 -0.07078915 0.06216043 0.19874252 0.039676808 0.1879171 -0.040342953 0.15792136
0.1836352 -0.063456625 -0.00020356869 -0.18058029 -0.11730204 -0.000640901 -0.023647005 -0.041070227
-0.015237428 -0.0043279333 -0.013442087 0.23478429 -0.06153628 -0.027212225 0.10361672 6.805394e-05
0.113897085 0.14063257 0.18758014 -9.700622e-05 0.06844344 0.20248397 -0.14831102 0.15718783
0.00013606105 -0.0037426436 0.056450337 -0.006996053 -0.001997184 0.016712938 0.02620635 -0.005995753
0.04873512 -0.01333906 0.00071741035 0.08599189 0.004341281 -0.0047591613 0.04300153 -2.9629042e-11
0.01960646 0.029934034 0.07143063 -0.04526573 -3.4966807e-11 0.014443128 0.0012018165 0.00034902088
-0.08369688 -0.015311228 2.9593005e-11 -7.4134913e-11 0.052905902 0.00095833046 -0.0014263669 -0.01760037
-1.5182363e-09 0.007975542 0.036775686 0.05288209 -0.018103931 0.05536118 -0.02131363 0.18461968
0.005188126 0.17529775 -2.7213612e-11 -0.16990465 0.03235086 0.08784028 -0.11277008 -0.12585528
0.23483028 0.18757822 -0.070819855 0.16846988 -0.02058875 -0.12500136 0.05355266 3.3384236e-05
-0.05325028 0.09480921 -0.07057978 3.976431e-05 0.12721951 0.1511643 -0.012110626 0.071090125
-8.037239e-05 -0.029268198 -0.10278084 1.4750227e-08 -0.13008413 0.0012163564 0.15849426 -0.11455745
-0.015972903 0.01618093 0.0018147015 0.15408763 0.19749308 -0.024968877 0.15675004 0.1475457
-0.31633016 -0.16257848 0.012173843 0.031976674 -0.058054533 -1.4676408e-11 0.02412079 -7.1102777e-06
-0.037301544 0.06847993 -0.017725948 -4.0615858e-05 0.12311022 -0.05677703 0.12844081 0.21051075
-9.9484025e-11 -0.07524913 0.21988957 0.18923667 -0.023907052 0.080547996 -0.12695736 0.054721374
-0.08566191 0.061989803 -1.3867906e-11 -0.035840645 -0.19138825 -0.11381302 0.05619149 0.12843849
-0.08548836 0.11326254 -0.08953398 0.0757767 0.15919363 0.002355571 -0.12170457 0.00093031116
0.068847425 0.042862304 0.18346243 -5.246889e-10 -0.040141564 -0.04408302 -0.077391066 0.06140838
1.5084517e-09 -0.07118587 -0.14097424 -9.899563e-11 -0.17743982 -0.1049727 0.04735999 -0.081183635
0.037122246 -0.016764402 4.9667735e-05 0.05537746 -0.05392019 0.01691595 0.0792816 -0.021943202
-0.17462052 0.042637214 -0.007816773 0.019534523 0.09115834 -0.00087047124 -0.06594536 -0.00015104802
0.2100127 0.1688098 -0.15900736 0.0016385362 0.058877107 -0.18652387 0.14090344 0.11631509
0.0023577525 -1.7322678e-13 0.00018417221 2.634474e-06 8.109263e-05 -0.0025973571 0.00044499824 -0.00064944325
0.0010760095 -2.171293e-12 -0.000962673 -2.3799919e-11 3.4746716e-11 -0.001095367 1.9669605e-10 1.34055085e-11
0.00022738634 -4.925861e-11 9.4832393e-07 -1.949847e-11 -3.1885068e-12 3.9357033e-12 -1.4018359e-05 -0.0004942339
-1.2870272e-10 -0.0015348571 -3.072446e-09 4.5546414e-12 -1.5100277e-05 3.9844453e-10 -2.0992357e-11 -1.4629098e-11
00000000: c3a0 f8ad 5870 ba3c 50c8 24bd b4f0 813e
00000010: f92b 383e 3de4 463e d06e 02be 34d7 423e
00000020: 3e87 7a3d da16 103e 0505 6639 a1bb 5b3d
00000030: 9670 44be 32fa 253d e453 0ebe d541 7dbb
00000040: 2adc 5abd b233 453c c5c7 e43b 9016 4a3d
00000050: 3eb6 88bc dff8 bc3c 46a4 4c3e 48d5 9939
00000060: 9d05 993d 19b1 f03d d2a0 413e 16a6 b7ac
00000070: 773f f43b b06d c13d e98c 8ebe 79cd 02be
00000080: 3859 5030 e7f9 90bd ef9b 7e3d 2983 4b3e
00000090: 2684 223d 576d 403e a73e 25bd 23b6 213e
000000a0: de0a 3c3e 8cf5 81bd 0e75 55b9 0aea 38be
000000b0: 0d3c f0bd 2302 28ba 5db7 c1bc 4139 28bd
000000c0: 68a6 79bc 56d1 8dbb 333c 5cbc 4b6b 703e
000000d0: 770d 7cbd 2cec debc 0135 d43d 2eb8 8e38
000000e0: e042 e93d fc01 103e 0215 403e d16f cbb8
000000f0: 132c 8c3d f557 4f3e d8de 17be d9f5 203e
00000100: 9cab 0e39 2447 75bb 7838 673d 253f e5bb
00000110: 30e3 02bb 92e9 883c b3ae d63c 0678 c4bb
00000120: 7a9e 473d 138c 5abc 9810 3c3a 841c b03d
00000130: 4e41 8e3b bdf2 9bbb 5f22 303d 564f 02ae
00000140: ba9d a03c 3838 f53c 394a 923d 8f68 39bd
00000150: 20c9 19ae dfa2 6c3c 4586 9d3a cafc b639
00000160: 4569 abbd f2db 7abc c326 022e 3f06 a3ae
00000170: dcb3 583d 7838 7b3a eef4 baba a72e 90bc
00000180: 31aa d0b0 d9ab 023c 1aa2 163d e49a 583d
00000190: b24e 94bc 68c2 623d ec99 aebc f10c 3d3e
000001a0: 2801 aa3b 4181 333e 9b5f efad 7cfb 2dbe
000001b0: 5682 043d 9be5 b33d 00f4 e6bd 35e0 00be
000001c0: 5977 703e 8114 403e 000a 91bd 5e83 2c3e
000001d0: bda9 a8bc 5b00 00be 095a 5b3d 0d06 0c38
000001e0: f71c 5abd 552b c23d 228c 90bd 9ac8 2638
000001f0: d545 023e d0ca 1a3e a66b 46bc b397 913d
00000200: 998d a8b8 dcc3 efbc c37e d2bd 2f68 7d32
00000210: c634 05be 266e 9f3a 524c 223e 199d eabd
00000220: 9bd9 82bc df8d 843c 47db ed3a 26c9 1d3e
00000230: a03b 4a3e 888b ccbc 1583 203e 3816 173e
00000240: 07f6 a1be f97a 26be cc74 473c f9f9 023d
00000250: 97ca 6dbd 5518 81ad f798 c53c d294 eeb6
00000260: 81c9 18bd 353f 8c3d 0236 91bc f25a 2ab8
00000270: 3621 fc3d 088f 68bd fd85 033e 2190 573e
00000280: 87c4 daae 371c 9abd bb2a 613e 42c7 413e
00000290: b9d8 c3bc 59f6 a43d 1c01 02be 8523 603d
000002a0: 836f afbd 05e9 7d3d 7ff7 73ad a4cd 12bd
000002b0: 48fb 43be cd16 e9bd 0c29 663d 6185 033e
000002c0: 8514 afbd 31f6 e73d 975d b7bd d130 9b3d
000002d0: a803 233e ec5f 1a3b 3f40 f9bd 20e0 733a
000002e0: e1ff 8c3d 6290 2f3d 93dd 3b3e b339 10b0
000002f0: 7b6b 24bd 6690 34bd 357f 9ebd 5a87 7b3d
00000300: ed51 cf30 e6c9 91bd 8d5b 10be 96b1 d9ae
00000310: c9b2 35be edfb d6bd 8dfc 413d 9b43 a6bd
00000320: 7f0d 183d 8055 89bc 5352 5038 7ad3 623d
00000330: 6bdb 5cbd 5293 8a3c 645e a23d 3bc2 b3bc
00000340: b9cf 32be 5ca4 2e3d ec11 00bc dd06 a03c
00000350: 39b1 ba3d 5630 64ba 5c0e 87bd a562 1eb9
00000360: 920d 573e 7adc 2c3e d3d2 22be 27c4 d63a
00000370: 1f29 713d 1d00 3fbe fe48 103e 9b36 ee3d
00000380: 8684 1a3b 3809 43aa 5a1e 4139 ebcb 3036
00000390: 4610 aa38 6c38 2abb a74e e939 663f 2aba
000003a0: e308 8d3a 8aca 18ac e45b 7cba a758 d1ad
000003b0: 53d1 182e 6b92 8fba 0445 582f 0bd5 6b2d
000003c0: 8e6e 6e39 44a4 58ae 5390 7e35 a782 abad
000003d0: 085f 60ac aa79 8a2c 6530 6bb7 7a8f 01ba
000003e0: 9882 0daf 422d c9ba 0b23 53b1 9040 a02c
000003f0: 3257 7db7 150c db2f 96a6 b8ad cdad 80ad

4.bias f4 [32]
0.10536184 0.067961134 -0.07814432 0.13380405 -0.03008262 -0.00015327513 -0.025862291 -0.0017919888
0.032994088 0.062148724 -0.0043992433 0.12050864 -0.028800305 -0.0020531472 -0.046373468 -0.026104167
-0.008993765 -0.021873541 0.062289957 -0.00087467296 0.007684706 -0.013382164 0.06778646 0.15783547
0.10003003 2.7635396e-08 -0.00042096063 -0.046420738 -3.678832e-10 0.0744662 -0.0069764387 0.15400447
00000000: f3c7 d73d 352f 8b3d 210a a0bd ee03 093e
00000010: d46f f6bc 7bb8 20b9 28dd d3bc 2be1 eaba
00000020: cf24 073d a98f 7e3d 8727 90bb 3ccd f63d
00000030: 9eee ebbc 188e 06bb 1bf2 3dbd 68d8 d5bc
00000040: 965a 13bc 2430 b3bc c123 7f3d 4f4a 65ba
00000050: fccf fb3b dd40 5bbc a1d3 8a3d 9f9f 213e
00000060: 8bdc cc3d e162 ed32 61b4 dcb9 ac23 3ebd
00000070: f53e caaf bc81 983d 9c9a e4bb 59b3 1d3e

6.weight f4 [2, 32]
0.13477118 0.022693465 0.017870171 0.09476574 -0.07848096 0.17886415 -0.22404958 6.01475e-09
-0.14451468 -0.17431305 -8.789878e-09 0.13189568 0.0073904423 -1.2586807e-13 -0.07085134 -0.08604086
-0.0031115154 0.016871104 -0.016128046 0.0006375609 0.041663583 -0.16519764 -0.06583321 -0.12212044
-0.0058589135 -0.00029305482 6.7795214e-11 -0.17789565 0.002493022 0.076102056 -0.13741924 -0.21445444
-0.058659405 -0.104367286 0.036417603 -0.17194207 0.12875025 -0.18882093 -0.00651812 3.061205e-08
0.11751834 0.01606466 -0.0019893378 -0.14668417 0.0010165559 -0.001476916 0.07665607 0.139006
0.0011975549 -0.10273081 0.0028745504 -0.00029086377 -0.04360866 0.02011916 0.2228744 -0.04022774
0.064883135 -5.6634725e-10 -7.255704e-11 -0.115964115 0.0004765493 0.22747514 0.012339779 0.16050173
00000000: 7501 0a3e a5e7 b93c 7764 923c 8a14 c23d
00000010: a0ba a0bd 2a28 373e 416d 65be 4daa ce31
00000020: a8fb 13be 1f7f 32be 4b02 17b2 a90f 073e
00000030: 862b f23b 00b7 0daa 821a 91bd 3136 b0bd
00000040: 91ea 4bbb 4535 8a3c f71e 84bc fd21 273a
00000050: 6fa7 2a3d 9229 29be 90d3 86bd 481a fabd
00000060: 21fc bfbb 27a5 99b9 5015 952e 472a 36be
00000070: f861 233b 65db 9b3d a1b7 0cbe f299 5bbe
00000080: d844 70bd 84be d5bd a02a 153d 9511 30be
00000090: 1bd7 033e 465a 41be f495 d5bb 4e7a 0333
000000a0: 75ad f03d 099a 833c 8d5f 02bb 6034 16be
000000b0: f53d 853a 1495 c1ba dcfd 9c3d 9757 0e3e
000000c0: 46f7 9c3a 8864 d2bd f462 3c3b 137f 98b9
000000d0: ff9e 32bd f0d0 a43c 3039 643e d8c5 24bd
000000e0: 73e1 843d 25ad 1bb0 fb8d 9fae 987e edbd
000000f0: 5dd9 f939 3eef 683e c92c 4a3c 915a 243e

6.bias f4 [2]
0.15646316 0.07578739
00000000: e137 203e 6b36 9b3d

exp_avg f4 [32, 2]
-0.0001835161 0.0007841269 0.00029990033 0.00036829538 0.00076163537 0.00024734522 0.0009351451 0.0005351495
-3.5658075e-05 -8.095769e-05 0.00022402842 6.8603054e-05 -0.0006949993 0.00050969835 -0.00045814266 1.9013833e-05
6.1845176e-06 0.0003495898 -6.7095093e-06 3.7074358e-07 -6.4343785e-06 -7.092017e-13 -0.0022592635 0.0017299997
-0.0011930304 0.00048693508 -0.0015704678 -0.00057587115 -0.0024564718 0.00017440719 -0.0009128499 0.00012846124
-0.00024696472 2.1163238e-05 -0.00281977 0.0006123909 0.0016232411 0.00022928618 -0.0003192928 0.0013735698
-0.00017633579 -0.0011876309 -0.00012649212 0.00083311554 -0.0011172374 2.2365251e-05 -0.0034553797 0.000713062
-0.0008581498 8.195567e-06 -0.00039520647 1.3259781e-05 -3.48273e-05 0.0007100682 0.00043831335 0.00021332034
0.0006921954 -0.0003705291 -0.00025041652 0.00015060275 0.00028829116 0.0014741276 -0.0009932409 -5.7933667e-05
00000000: 3a6e 40b9 de8d 4d3a f13b 9d39 c517 c139
00000010: 7ca8 473a 1dae 8139 8624 753a 4649 0c3a
00000020: 918f 15b8 d4c7 a9b8 2ce9 6a39 fcde 8f38
00000030: 9d30 36ba 479d 053a de32 f0b9 e57f 9f37
00000040: 9a84 cf36 2649 b739 3f22 e1b6 9c0a c734
00000050: e4e6 d7b6 5e9f 47ab 2710 14bb 28c1 e23a
00000060: 755f 9cba 524b ff39 28d8 cdba 0ff6 16ba
00000070: c2fc 20bb 13e1 3639 524c 6fba 8db3 0639
00000080: 0b7b 81b9 b587 b137 e4cb 38bb dc88 203a
00000090: efc2 d43a 8a6c 7039 c166 a7b9 5b09 b43a
000000a0: c7e6 38b9 48aa 9bba f8a2 04b9 7065 5a3a
000000b0: 4470 92ba 039d bb37 a773 62bb c8ec 3a3a
000000c0: 75f5 60ba b17f 0937 b733 cfb9 5376 5e37
000000d0: 8713 12b8 df23 3a3a 6ccd e539 beae 5f39
000000e0: 7274 353a 9343 c2b9 564a 83b9 1eeb 1d39
000000f0: c925 9739 8437 c13a a22f 82ba cdfd 72b8

exp_avg_sq f4 [32, 2]
3.745932e-06 2.5054323e-06 3.0324672e-06 4.285653e-07 4.807227e-06 1.7336729e-06 5.1877346e-06 5.801339e-07
1.1683183e-07 1.2063637e-07 5.6575846e-07 8.908554e-08 2.135948e-06 2.15524e-06 2.0088887e-06 3.5136745e-06
8.550813e-06 4.2299257e-06 1.0800294e-10 1.661842e-11 1.03795014e-10 1.4999532e-12 2.6723649e-06 3.5404564e-06
1.1109997e-05 7.6482565e-06 2.174577e-05 9.833638e-06 2.1980648e-05 5.9480108e-06 5.667526e-06 2.2323204e-06
2.5652828e-06 1.7186296e-07 4.316456e-06 7.78862e-06 2.8382414e-05 5.1349894e-06 2.453796e-06 7.664418e-06
9.370209e-06 6.6028215e-06 4.564936e-06 2.5779193e-06 5.858405e-06 3.8804246e-06 2.0710977e-05 1.4953608e-06
2.6343644e-06 9.113282e-07 1.3581853e-06 2.7592985e-06 1.3532705e-05 4.36043e-06 2.8780069e-06 2.1139574e-06
1.7750772e-06 1.4299643e-06 6.0651314e-06 2.3424498e-06 5.737079e-06 2.5290745e-05 6.302494e-06 2.6594385e-06
00000000: 9f62 7b36 0023 2836 6481 4b36 9115 e634
00000010: c44d a136 8cb0 e835 4d12 ae36 7fba 1b35
00000020: fae4 fa33 4688 0134 a0de 1735 4b4f bf33
00000030: 4f57 0f36 bea2 1036 72d0 0636 78cc 6b36
00000040: 7675 0f37 c9ee 8d36 4080 ed2e 5b2d 922d
00000050: 663f e42e 8219 d32b e156 3336 9498 6d36
00000060: 1365 3a37 0351 0037 af6a b637 27fb 2437
00000070: 1563 b837 0695 c736 ad2b be36 f9ce 1536
00000080: 3927 2c36 5589 3834 13d6 9036 deab 0237
00000090: c516 ee37 394d ac36 e5ab 2436 6d96 0037
000000a0: be34 1d37 ce8d dd36 802c 9936 5100 2d36
000000b0: 5193 c436 9834 8236 7cbc ad37 35b4 c835
000000c0: 09ca 3036 ffa1 7435 e44a b635 632c 3936
000000d0: 870a 6337 cf4f 9236 c823 4136 83dd 0d36
000000e0: 303f ee35 33ed bf35 1583 cb36 fb32 1d36
000000f0: 2281 c036 7627 d437 037a d336 ce78 3236

exp_avg f4 [32]
0.0013934972 -5.7763216e-05 0.0006363696 -0.00025006649 -7.63106e-05 2.5216685e-05 0.00043544327 0.00021835812
0.0012064256 -2.6954605e-05 -3.7669295e-05 0.0028857547 9.6487034e-05 -0.0016059298 2.3757035e-05 -5.1091833e-05
1.7252856e-05 0.0019691295 0.0023465457 -0.0007259234 -0.0016871726 0.0017773487 0.00028204598 -0.0025915212
-0.0007537179 -0.0009327811 0.00068082573 0.0011223182 -0.0005996436 -0.00021522414 -0.00017513413 -0.00061118347
00000000: 02a6 b63a c846 72b8 0ad2 263a 5b1b 83b9
00000010: f108 a0b8 6b88 d337 354c e439 10f7 6439
00000020: ed20 9e3a 931c e2b7 19ff 1db8 ee1e 3d3b
00000030: 1559 ca38 107e d2ba d849 c737 704b 56b8
00000040: 3aba 9037 830c 013b 81c8 193b e54b 3eba
00000050: 1e24 ddba edf5 e83a 92df 9339 83d6 29bb
00000060: 2795 45ba e185 74ba 7179 323a c01a 933a
00000070: 6731 1dba caad 61b9 36a4 37b9 d437 20ba

exp_avg_sq f4 [32]
7.0465617e-06 3.966127e-06 7.465458e-06 4.152885e-06 1.6741708e-07 5.697285e-07 4.4467415e-06 5.9062236e-06
1.3103351e-05 5.5072863e-10 8.943535e-10 4.8306238e-06 1.786613e-05 3.1536543e-05 2.8931563e-05 8.292249e-06
2.2652466e-06 9.713829e-06 3.8663587e-05 9.400838e-06 1.5904643e-05 7.5784965e-06 1.0589537e-05 1.6554635e-05
3.0194149e-06 4.9610085e-06 1.8753908e-05 4.558201e-06 3.2286493e-06 8.579844e-06 3.0378294e-05 7.1637446e-06
00000000: 8171 ec36 c614 8536 cc7f fa36 0359 8b36
00000010: 42c3 3334 72ef 1835 3835 9536 132e c636
00000020: 77d6 5b37 1562 1730 88d6 7530 be16 a236
00000030: 39df 9537 1b46 0438 0fb2 f237 f01e 0b37
00000040: a404 1836 94f8 2237 b62a 2238 4bb8 1d37
00000050: f66a 8537 ca4a fe36 b7a9 3137 cfde 8a37
00000060: 27a1 4a36 bd76 a636 b651 9d37 a6f2 9836
00000070: c6ab 5836 26f2 0f37 e4d4 fe37 1960 f036

exp_avg f4 [32, 32]
1.5722922e-07 2.4600967e-14 -2.1487914e-09 -2.4918813e-07 -3.3946373e-10 5.470409e-15 -5.8112338e-08 -8.2717385e-08
-2.8042653e-08 -4.443652e-09 -7.647568e-08 -1.714909e-13 -1.04002815e-07 -3.0423627e-07 1.3387192e-06 -2.4705727e-07
1.6058847e-14 -1.8431037e-07 -2.1669537e-09 -3.339136e-13 -5.7031833e-08 -1.0938655e-07 -1.2815289e-07 -2.3748387e-10
-3.3504532e-12 -1.9022544e-08 -3.9504306e-16 -3.866031e-09 -7.509404e-08 -5.1958534e-07 -3.254004e-12 -3.4945604e-08
-0.0004772944 -0.0010663924 -0.0013231554 -0.00030538315 -2.3585157e-07 4.0184095e-05 -0.00042697543 -4.5896257e-05
-0.00045608284 -3.0743513e-07 -9.113889e-15 -8.080579e-06 -4.039598e-05 -3.059202e-05 3.252497e-05 0.0001122717
1.8161652e-05 7.233902e-05 -0.0013399719 4.494241e-08 -8.655759e-05 -0.00017670337 0.00017697392 -3.225457e-07
4.6985777e-13 -0.00067424815 -0.0017364295 7.019228e-06 -0.00035613892 0.00022568315 7.5148265e-16 5.1643247e-12
0.0012124632 0.0006717593 0.0006536474 5.640853e-05 0.00032083996 0.00024509727 0.0012679916 0.0006514944
0.0013278552 -2.7081284e-12 1.8853105e-12 8.962325e-06 -9.9068275e-06 -0.00019116704 0.00039348195 0.0011094878
0.0001999698 -4.3016174e-05 0.000998254 -2.5441755e-06 0.0004532921 0.0001140647 0.00065718987 0.00017645198
0.00015997986 -0.00027401664 0.00057329313 -3.7774524e-05 0.00076083816 0.0009469394 -2.4650859e-15 4.514398e-05
0.00094489794 0.0014569431 0.0027294103 0.00014461153 3.3208267e-17 1.566466e-05 0.0015413805 0.00019373746
0.0016038902 -3.5282094e-14 7.088001e-08 -0.00011095617 8.13323e-08 0.0003282419 -4.3768852e-10 0.00017840655
5.7077614e-06 -0.00019410101 0.0024387008 5.3892085e-13 0.0006993912 -2.8570634e-05 0.00012955129 2.4868746e-07
-5.2751703e-16 0.00091554795 0.0027424914 -0.00017750851 0.0011164345 0.00017066285 -3.2810983e-13 1.2315052e-15
0.00012680859 -0.00031041136 -0.00055155007 -0.00014842104 8.2953135e-05 5.980356e-05 9.768626e-05 0.000180016
0.0001095004 7.033858e-08 -5.2117373e-12 1.2764854e-06 -3.1858697e-05 -0.00016589135 4.3298012e-05 0.00027420564
8.0624864e-05 1.0580667e-05 -0.00039276519 -5.821046e-11 1.6171423e-05 -3.791842e-05 0.00021691782 4.891542e-05
3.7267513e-05 -0.0005303659 -0.00077895995 1.2757813e-06 1.7052239e-06 0.00030276246 -1.4616153e-14 5.6758468e-06
0.0005561245 0.0005508592 0.0008213514 1.6575883e-05 0.00020026194 1.9700181e-05 0.000704455 0.00017400221
0.0007732434 1.9530023e-07 1.5301959e-15 -6.4836044e-05 1.993985e-06 -1.0626014e-05 0.00016980058 0.0002522826
8.768582e-05 -8.023826e-05 0.00084854744 -2.2286305e-15 0.0002679245 0.00010561083 0.00014813013 8.323803e-05
8.701954e-05 0.000118061864 0.0008938146 -5.1526848e-05 0.0004564478 0.0001876109 -2.1544444e-07 2.3815499e-05
-0.0007411909 -0.00051344186 -0.0006633116 -8.594233e-05 -0.00013106264 -0.0001529148 -0.0010263269 -0.0004936023
-0.001105362 -4.649207e-16 1.6634473e-14 -1.2840585e-05 0.00020954503 8.664284e-05 -0.0002698471 -0.0008444095
-0.0001597126 4.8300488e-05 -0.00092105736 -9.159761e-05 -0.00038435406 -6.600145e-05 -0.00047112472 -0.00013247387
-0.000101073514 0.00024410665 -0.0005465731 3.1209507e-05 -0.0006249987 -0.00068163406 -0.00018648697 -3.861683e-05
0.0011158924 0.0012078063 0.0014251572 0.00026623585 2.3608356e-05 1.7851757e-05 0.0016234668 0.0006972125
0.0017120729 -3.716118e-15 3.5972079e-09 1.7929662e-05 -0.00041998544 -0.00016181021 0.0004126581 0.0011998286
1.0948887e-12 -8.191043e-05 0.0017240922 0.0001247685 0.0005574747 0.000208832 0.00063836534 -1.2352224e-07
7.012233e-05 -0.0004048818 0.0014798116 -2.4067502e-05 0.0010298935 0.000956406 0.00024183706 7.834448e-06
00000000: d7d2 2834 f895 dd28 f0a9 13b1 28c8 85b4
00000010: 469f baaf 9e17 c527 3197 79b3 5da2 b1b3
00000020: 72e2 f0b2 c7ae 98b1 f33a a4b3 e314 41aa
00000030: 2758 dfb3 ea55 a3b4 0bae b335 4ba3 84b4
00000040: 2ea5 9028 d9e6 45b4 74e9 14b1 05fa bbaa
00000050: 2af3 74b3 e4e7 eab3 669a 09b4 e28e 82af
00000060: 66c4 6bac 0467 a3b2 11ba e3a5 f8d5 84b1
00000070: 6343 a1b3 a279 0bb5 edfa 64ac 1917 16b3
00000080: 5f3d fab9 31c6 8bba ba6d adba d51b a0b9
00000090: 633e 7db4 588b 2838 acdb dfb9 bb80 40b8
000000a0: 671e efb9 900d a5b4 652e 24a8 d391 07b7
000000b0: da6e 29b8 ee4f 00b8 6c6b 0838 6973 eb38
000000c0: da59 9837 b7b4 9738 ffa1 afba b406 4133
000000d0: 4186 b5b8 7349 39b9 1392 3939 582a adb4
000000e0: d240 042b 07c0 30ba e898 e3ba b686 eb36
000000f0: 28b8 bab9 5ca5 6c39 a299 5826 1ab4 b52c
00000100: 84eb 9e3a 0119 303a 8959 2b3a 3398 6c38
00000110: 6936 a839 6680 8039 bd32 a63a 0dc9 2a3a
00000120: 6d0b ae3a 4e91 3eac bcaa 042c e55c 1637
00000130: 8035 26b7 0374 48b9 414c ce39 3c6c 913a
00000140: fcae 5139 446c 34b8 d9d7 823a 9abc 2ab6
00000150: d6a7 ed39 0536 ef38 4447 2c3a f805 3939
00000160: 44c0 2739 e4a9 8fb9 0d49 163a 1670 1eb8
00000170: fc72 473a 073c 783a cfa0 31a7 fb58 3d38
00000180: 07b3 773a e6f6 be3a e8df 323b dda2 1739
00000190: 6725 1924 9a67 8337 2608 ca3a 0126 4b39
000001a0: a039 d23a 7ce5 1ea9 b336 9833 24b1 e8b8
000001b0: e8a8 ae33 e217 ac39 2f9f f0af a512 3b39
000001c0: 4c85 bf36 9887 4bb9 9cd2 1f3b 57b1 172b
000001d0: 5957 373a f8aa efb7 29d8 0739 5883 8534
000001e0: e30b 18a6 6201 703a 5fbb 333b 9421 3ab9
000001f0: 5355 923a f6f3 3239 9cb5 b8aa 867a b126
00000200: ecf7 0439 b5be a2b9 e695 10ba 78a1 1bb9
00000210: 20f7 ad38 95d5 7a38 e9dc cc38 adc2 3c39
00000220: 94a3 e538 0b0d 9733 285f b7ac b453 ab35
00000230: 04a0 05b8 1ff3 2db9 e39a 3538 42c3 8f39
00000240: 2515 a938 9e83 3137 0dec cdb9 9301 80ae
00000250: dea7 8737 980a 1fb8 6f74 6339 882a 4d38
00000260: b04f 1c38 4108 0bba 1e33 4cba 833b ab35
00000270: 0cdf e435 17bc 9e39 8ea6 83a8 2773 be36
00000280: e2c8 113a 8967 103a f64f 573a 700c 8b37
00000290: 68fd 5139 d141 a537 2dab 383a 5d74 3639
000002a0: 7cb3 4a3a b8b3 5134 4486 dc26 96f8 87b8
000002b0: 67d0 0536 6246 32b7 7f0c 3239 cc44 8439
000002c0: f7e3 b738 9645 a8b8 0e71 5e3a fa96 20a7
000002d0: 3878 8c39 627b dd38 6153 1b39 1490 ae38
000002e0: 437e b638 fb97 f738 e24e 6a3a 881e 58b8
000002f0: 634f ef39 6bb9 4439 eb54 67b4 65c7 c737
00000300: 7b4c 42ba 8098 06ba 17e2 2dba f03b b4b8
00000310: dc6d 09b9 c157 20b9 d185 86ba 1765 01ba
00000320: cbe1 90ba 1801 06a6 7cd4 9528 e56d 57b7
00000330: 51b9 5b39 05b4 b538 447a 8db9 5d5b 5dba
00000340: 8678 27b9 4196 4a38 1d73 71ba 1818 c0b8
00000350: 2183 c9b9 426a 8ab8 4a01 f7b9 afe8 0ab9
00000360: 6ef7 d3b8 e1f6 7f39 e647 0fba f4e6 0238
00000370: f4d6 23ba b0af 32ba b78b 43b9 81f8 21b8
00000380: 2343 923a 414f 9e3a 57cc ba3a 9295 8b39
00000390: 8f0a c637 5bc0 9537 82ca d43a 24c5 363a
000003a0: a267 e03a 24e3 85a7 c032 7731 a867 9637
000003b0: 7e31 dcb9 99ab 29b9 085a d839 9143 9d3a
000003c0: 8617 9a2b 54c7 abb8 effa e13a 4ad4 0239
000003d0: 7e23 123a eaf9 5a39 f957 273a 89a1 04b4
000003e0: a40e 9338 5146 d4b9 3df6 c13a 91e4 c9b7
000003f0: 7efd 863a 52b7 7a3a a495 7d39 b370 0337

exp_avg_sq f4 [32, 32]
1.1891833e-11 5.444161e-13 4.6620837e-12 1.4118684e-11 3.238266e-12 2.1723968e-13 1.5530754e-11 1.0345239e-11
1.0576054e-11 4.7905464e-12 9.38128e-12 2.4601837e-12 1.03309115e-11 2.4585965e-11 5.5580974e-11 5.4299416e-11
4.1224345e-13 1.2593066e-11 4.2421422e-12 6.889853e-13 1.53231e-11 1.050729e-11 2.3031174e-11 3.1852726e-12
1.3105518e-12 8.908148e-12 5.455109e-15 4.6731594e-12 1.0375948e-11 4.7752573e-11 1.4873229e-12 7.4925335e-12
2.1693647e-06 1.4830239e-06 3.744759e-06 1.6369464e-07 1.3011133e-11 2.053245e-08 2.1225644e-06 2.1646858e-07
2.8797363e-06 1.5360963e-11 3.2851654e-13 4.3670976e-08 3.768764e-08 2.5438658e-07 4.53031e-09 4.116259e-07
1.5981576e-09 3.2751515e-08 4.0400046e-06 8.0413514e-12 2.6796667e-07 4.1228967e-07 1.9985686e-07 1.3755658e-11
5.726857e-14 1.4839065e-06 4.4427675e-06 2.892277e-08 9.2502495e-07 3.037058e-07 4.850156e-13 2.324575e-12
9.188348e-06 1.449377e-06 1.1180943e-05 1.775333e-07 3.359311e-07 7.190819e-07 1.7367809e-05 3.3740828e-06
2.074473e-05 2.4964323e-12 1.8963344e-12 4.2957712e-08 8.207214e-07 3.286031e-06 2.2348324e-06 1.5115485e-05
2.6271422e-07 3.3780704e-08 8.237098e-06 7.781949e-11 4.5668176e-06 5.9976816e-07 6.1343826e-06 3.8454026e-08
1.3689846e-07 8.551505e-06 7.035049e-06 3.7973155e-08 6.5476243e-06 1.1466504e-05 7.6485496e-14 8.217656e-09
5.2581895e-06 4.2296488e-06 7.5674157e-06 3.2414798e-07 1.4933094e-16 1.1900225e-08 4.1515586e-06 2.7223837e-07
5.908794e-06 7.1667596e-13 9.167698e-12 1.616493e-07 1.4508956e-11 3.6555416e-08 3.40639e-12 1.7516109e-07
2.456393e-10 1.32329e-07 1.0643215e-05 1.4282466e-12 3.094191e-07 1.2658577e-06 1.2319272e-07 1.4107552e-11
4.2385024e-14 9.121777e-07 9.532342e-06 9.842195e-08 1.8983005e-06 1.2388918e-07 1.3625825e-12 1.11676476e-13
8.6311945e-07 1.8526185e-07 1.326241e-06 2.3074932e-08 6.792703e-09 5.756452e-08 1.5355016e-06 2.7645257e-07
1.8350693e-06 9.1466045e-12 2.1089794e-12 5.8451675e-09 1.3430441e-07 5.306896e-07 2.4109832e-07 1.1781677e-06
1.629975e-08 4.6410475e-09 8.4505416e-07 2.8195265e-12 4.5678902e-07 7.215431e-08 5.0611277e-07 2.9646385e-09
1.3608125e-09 1.2492789e-06 8.8792626e-07 4.263633e-09 6.001355e-07 9.2675714e-07 4.0322783e-13 8.479987e-11
6.812649e-06 1.6799705e-06 5.2108308e-06 1.3266809e-07 1.0262729e-07 3.428074e-07 9.290248e-06 1.5799129e-06
1.1854035e-05 1.28651464e-11 3.9354767e-14 5.9398154e-08 3.670994e-10 1.240209e-07 3.2108585e-07 5.804416e-06
1.1773476e-07 5.0663413e-08 7.235735e-06 1.9284335e-13 1.6055945e-06 7.913322e-07 2.3475097e-06 1.5215512e-08
3.52632e-08 5.089223e-07 4.028596e-06 5.1413362e-08 3.501906e-06 4.2741485e-06 1.33481325e-11 1.7010273e-09
5.4099137e-06 9.917793e-07 6.8966833e-06 1.1374705e-07 4.8692425e-07 3.7338808e-07 1.3696113e-05 2.9683251e-06
1.5135409e-05 7.471581e-15 5.2283075e-13 2.9125557e-08 5.3351073e-07 4.7474064e-06 6.908727e-06 1.8885634e-05
1.3495017e-07 2.4141267e-08 5.0345197e-06 1.2470216e-08 5.2566106e-06 4.3767193e-07 7.603868e-06 2.2108209e-08
2.8825335e-07 5.568855e-06 4.074556e-06 2.9833338e-08 5.065029e-06 1.4968654e-05 3.9510756e-08 2.1453248e-08
4.495256e-06 4.3316327e-06 1.4950986e-05 5.2334843e-07 8.381006e-08 3.8889914e-09 8.705726e-06 1.2415778e-06
9.2552e-06 2.1068278e-13 4.6146416e-12 1.4134902e-07 1.0213488e-06 7.299224e-06 8.11675e-06 1.1845377e-05
6.7497906e-13 1.1345575e-07 1.1205605e-05 1.8761149e-08 4.559582e-06 1.0233354e-06 5.1630636e-06 1.0940697e-11
9.274178e-08 1.23470145e-05 1.5522e-05 5.8308125e-08 3.7418617e-06 1.0371292e-05 5.6865428e-08 2.9958211e-09
00000000: 0e34 512d 503d 192b 5108 a42c e660 782d
00000010: 6adf 632c 1397 742a 269c 882d d1fe 352d
00000020: 500e 3a2d 688d a82c 8709 252d bb1e 2d2c
00000030: 4abe 352d ac42 d82d 9d72 742e b5cf 6e2e
00000040: 8b12 e82a 218a 5d2d d241 952c 9fee 412b
00000050: 8ec8 862d a1d8 382d 9895 ca2d c524 602c
00000060: 9b71 b82b bbb6 1c2d 808a c427 146c a42c
00000070: 1e89 362d 9e04 522e 7452 d12b 5fcf 032d
00000080: 6795 1136 500c c735 784e 7b36 0ac4 2f34
00000090: efe4 642d 565f b032 6171 0e36 6e6e 6834
000000a0: 7e41 4136 d01d 872d 39f0 b82a bf90 3b33
000000b0: 00de 2133 a092 8834 07a9 9b31 6ffd dc34
000000c0: 2ca6 db30 acaa 0c33 608f 8736 0777 0d2d
000000d0: 0fdd 8f34 a958 dd34 3c98 5634 fafd 712d
000000e0: 15f5 8029 a42a c735 1513 9536 d871 f832
000000f0: 3b4f 7835 020d a334 0f85 082b d293 232c
00000100: a727 1a37 3788 c235 c995 3b37 fb9f 3e34
00000110: 055a b434 ef06 4135 16b1 9137 4d6e 6236
00000120: f804 ae37 baab 2f2c 5371 052c 8180 3833
00000130: 8c4f 5c35 9585 5c36 21fa 1536 8498 7d37
00000140: 2b0b 8d34 4716 1133 1132 0a37 7a20 ab2e
00000150: aa3c 9936 c1ff 2035 f2d5 cd36 a628 2533
00000160: 5dfe 1234 6f78 0f37 9c0e ec36 ed17 2333
00000170: aab3 db36 4260 4037 e33a ac29 a22d 0d32
00000180: 816f b036 68ec 8d36 9beb fd36 8f06 ae34
00000190: b72a 2c25 be71 4c32 9e4d 8b36 2828 9234
000001a0: 2744 c636 f2b9 492b a447 212d d291 2d34
000001b0: 873e 7f2d 1b01 1d33 11b4 6f2c ea13 3c34
000001c0: a80a 872f 5216 0e34 4390 3237 0202 c92b
000001d0: 3d1e a634 8ae6 a935 f546 0434 c42e 782d
000001e0: 9be2 3e29 60dc 7435 19ed 1f37 0a5c d333
000001f0: 1cc9 fe35 6606 0534 35c4 bf2b 1b79 fb29
00000200: 1eb1 6735 64ec 4634 4b01 b235 5036 c632
00000210: 3f65 e931 dc3c 7733 6f17 ce35 5a6b 9434
00000220: 804c f635 a5e8 202d ff67 142c a3d6 c831
00000230: 5135 1034 b674 0e35 4d70 8134 8921 9e35
00000240: 8803 8c32 1677 9f31 aed7 6235 1368 462c
00000250: 9b3c f534 40f3 9a33 cedb 0735 79ba 4b31
00000260: 5507 bb30 e5ac a735 d459 6e35 507f 9231
00000270: ff18 2135 44c6 7835 41ff e22a 157a ba2e
00000280: 3698 e436 597b e135 b2d8 ae36 8773 0e34
00000290: f363 dc33 170b b834 50dd 1b37 650d d435
000002a0: b1e0 4637 7853 622d f53c 3129 f61c 7f33
000002b0: a6d0 c92f 9b2a 0534 b461 ac34 8ec3 c236
000002c0: 5ed5 fc33 0399 5933 7eca f236 501f 592a
000002d0: cf7f d735 ef6b 5435 e989 1d36 44b3 8232
000002e0: 4c74 1733 e09c 0835 602d 8736 97d1 5c33
000002f0: 4902 6b36 a86a 8f36 a5d2 6a2d 94c9 e930
00000300: ce86 b536 471d 8535 0f6a e736 1a45 f433
00000310: 2eb5 0235 1176 c834 5bc8 6537 7033 4736
00000320: 16ee 7d37 9698 0628 ed29 132b c72f fa32
00000330: 9436 0f35 e94b 9f36 83d1 e736 976c 9e37
00000340: d2e6 1034 355f cf32 32ee a836 973c 5632
00000350: f161 b036 2cf9 ea34 bb24 ff36 77e8 bd32
00000360: 3dc1 9a34 1adc ba36 2bb8 8836 1a22 0033
00000370: 45f4 a936 e121 7b37 89b2 2933 3148 b832
00000380: f4d5 9636 7158 9136 ffd5 7a37 3b7c 0c35
00000390: 11fb b333 ee9f 8531 cf0e 1237 4aa4 a635
000003a0: c846 1b37 2d35 6d2a ff5c a22c b9c5 1734
000003b0: 4715 8935 dbeb f436 2d2d 0837 82bb 4637
000003c0: 5efd 3d2b f5a4 f333 b5ff 3b37 3428 a132
000003d0: 83fe 9836 8959 8935 613e ad36 8578 402d
000003e0: 5529 c733 0626 4f37 3e35 8237 766e 7a33
000003f0: b21c 7b36 5c00 2e37 333c 7433 0bdf 4d31

exp_avg f4 [32]
-2.7187778e-07 -0.0014933333 0.0011117681 0.003484188 -0.00054523506 0.0010904546 -0.0010430209 0.0020188254
0.0004139944 0.0015675313 -2.3820778e-07 -0.00050501764 -0.0006201462 -1.6554066e-05 -0.0005332175 -9.456268e-06
-0.0002705035 0.0015011585 -1.4031338e-05 0.0024446133 0.00021796889 -4.7418152e-06 0.00050803047 -2.9095304e-07
-0.0006770578 0.00070502295 0.0009041689 -1.5719144e-07 0.0003287779 0.001925752 -0.00088231533 -0.0006319597
00000000: 99f6 91b4 f3bb c3ba bfb8 913a fa56 643b
00000010: 1bee 0eba 96ed 8e3a f9b5 88ba 454e 043b
00000020: 630d d939 9f75 cd3a 0ec6 7fb4 2963 04ba
00000030: 4f91 22ba 96dd 8ab7 9fc7 0bba 5da6 1eb7
00000040: 5dd2 8db9 85c2 c43a 2368 6bb7 ce35 203b
00000050: 948e 6439 e21b 9fb6 592d 053a 4834 9cb4
00000060: 947c 31ba 4ad1 383a bf05 6d3a 74c8 28b4
00000070: d35f ac39 8469 fc3a 2e4b 67ba 19aa 25ba

exp_avg_sq f4 [32]
3.3109297e-11 5.8717023e-06 2.7244076e-05 1.1076451e-05 3.0664569e-06 1.1422518e-05 2.0525536e-05 2.9874653e-05
1.01025635e-05 4.2531527e-05 1.3872698e-11 4.0912284e-05 3.8274644e-05 3.262182e-08 1.6109465e-05 3.9937626e-07
8.412809e-06 3.5690286e-05 1.3779675e-07 4.2580137e-05 1.8940465e-06 4.2623434e-08 3.2835515e-06 1.2837628e-11
2.5504054e-05 3.2752123e-06 6.9928665e-06 1.1890826e-11 1.5349844e-06 3.076826e-05 6.1837134e-05 2.2805283e-05
00000000: c19d 112e 8a05 c536 358a e437 ffd4 3937
00000010: 54c9 4d36 57a3 3f37 412e ac37 549b fa37
00000020: 2e7e 2937 e163 3238 140d 742d 3b99 2b38
00000030: 1689 2038 121c 0c33 d022 8737 db69 d634
00000040: bd24 0d37 27b2 1538 48f5 1334 1398 3238
00000050: f136 fe35 f610 3733 fc5a 5c36 89d7 612d
00000060: 8af1 d537 b8cb 5b36 44a4 ea36 852f 512d
00000070: aa05 ce35 2b0d 0138 8fae 8138 f94d bf37

exp_avg f4 [32, 32]
1.0031384e-14 0.00074048014 0.00058032246 -0.00017510148 0.000788895 0.000120401724 8.6869484e-05 0.0003751258
0.0007969174 0.00049038575 2.850427e-08 0.00015974333 0.0002185041 4.2593347e-06 0.00028935153 -3.8874487e-07
0.00041839044 0.0006282854 7.0731016e-07 0.00052500895 0.00041343705 2.3457585e-06 0.0003371297 4.6786372e-08
0.0003560738 8.405117e-05 4.5350036e-05 -9.3627224e-17 -5.3047053e-05 0.0006680016 0.00036301243 -3.2971097e-05
-2.3824316e-14 0.00047858444 0.0003958135 -0.00011039082 0.0005135506 8.683998e-05 7.994849e-05 0.0002623749
0.0005474794 0.0002916283 -2.6548799e-08 7.432118e-05 0.00015621113 -7.664447e-08 0.00023360952 -4.1818494e-06
0.00028003496 0.0004159835 -1.4028033e-06 0.0003912444 0.00026607298 -2.8532459e-06 0.0002502253 4.220783e-09
0.00028782306 8.9589965e-05 3.6977148e-05 -1.3140167e-08 3.1440737e-07 0.0004644011 0.00026655663 5.2166197e-05
1.81073e-08 -3.8835663e-07 5.6851e-06 -7.649701e-07 -2.3549443e-07 1.7007131e-06 2.6519097e-06 -6.7164615e-07
4.9335795e-06 -1.4624112e-06 8.82733e-08 8.781355e-06 4.6927082e-07 -5.3722425e-07 4.372798e-06 -2.1902104e-16
1.9956165e-06 3.0258154e-06 7.278763e-06 -4.649188e-06 4.751226e-15 1.4947384e-06 1.2149708e-07 4.4359517e-08
-8.448718e-06 -1.5505153e-06 -6.6912257e-16 -1.5782817e-15 5.4259435e-06 9.741882e-08 -1.7049972e-07 -1.7996992e-06
-6.3349895e-13 0.0010183074 0.00081169925 -0.00027368296 0.0010573585 0.000143671 0.00016750784 0.00052941474
0.001100811 0.0006321789 4.0384723e-15 0.00017595351 0.0003501501 8.968924e-06 0.00047438225 -1.2615018e-05
0.00060565665 0.000879978 -7.1178656e-06 0.000777262 0.00056230836 -1.2593129e-05 0.0004937446 2.0361881e-08
0.00056334597 0.00016404301 2.801706e-05 5.6634137e-09 2.9264504e-07 0.0009370315 0.0005822659 6.832592e-05
-1.09889955e-08 -3.5137998e-06 -7.7000295e-06 -6.667139e-12 8.587802e-05 4.1067917e-05 -0.0002637926 9.33729e-06
7.0662095e-06 -0.00017131165 2.1482124e-07 -0.00014353228 -0.0003948999 -2.5909912e-06 -0.0006269387 1.4814721e-05
5.126576e-05 -0.00026383577 1.2388573e-06 -0.0002719429 -2.4743835e-05 2.6912278e-16 -0.0005453943 -1.0612358e-09
-0.00049749564 -0.00018469924 1.5399652e-05 -5.7774217e-09 -6.526411e-05 -0.000105197694 -0.00046404428 -0.0005409025
-1.6993469e-15 0.0013925497 0.001089872 -0.0003630415 0.0014539793 0.00019358283 0.00017146902 0.0007102801
0.0014606742 0.0008333891 -7.353704e-17 0.0003184933 0.00031889672 -1.151164e-05 0.00040443547 1.28611955e-05
0.0007873544 0.0011266997 -9.029935e-06 0.00084595225 0.0008185125 2.9146707e-07 0.00045813885 1.2496454e-07
0.0006415024 3.590737e-05 6.7628396e-05 -1.2301792e-14 -7.787251e-05 0.0011668283 0.0006743947 -8.0572754e-05
-5.428131e-14 -7.675462e-06 9.472455e-06 -2.8018113e-14 0.00015913282 1.1869653e-05 -0.0002493352 7.549224e-05
5.7647027e-05 -0.0001748579 6.9822983e-09 -0.00017782385 -0.000458098 1.8132761e-06 -0.0006529422 -2.2113088e-06
8.540854e-05 -0.00017030194 -8.7455084e-07 -0.0002846277 4.7659556e-05 -1.06218074e-07 -0.0005361129 -2.0649136e-08
-0.00040440052 -0.00019629326 6.8423295e-05 1.9476309e-07 -5.1758365e-05 -0.00010939107 -0.0004928442 -0.00048685304
2.7623955e-07 1.1854054e-19 2.4138307e-08 4.6001955e-10 1.1091044e-08 -3.031717e-07 5.592934e-08 -8.025837e-08
1.3012719e-07 -1.4996651e-16 -1.1696741e-07 -9.779395e-15 -6.893449e-16 -1.3236944e-07 -9.69748e-15 -2.6205855e-16
2.9495094e-08 -1.5664306e-14 1.8605358e-10 -2.250763e-16 8.222873e-17 -2.7923815e-15 -2.1346342e-09 -6.182331e-08
-1.5891363e-14 -1.829219e-07 -6.569518e-13 1.2548587e-16 -2.2876172e-09 1.3827971e-13 -2.5252278e-15 -7.2643086e-16
00000000: 98b5 3428 c81c 423a c820 183a 729b 37b9
00000010: d9cd 4e3a 2f80 fc38 b32d b638 88ac c439
00000020: 39e8 503a 3b8d 003a 8dd9 f432 c680 2739
00000030: 3f1e 6539 68eb 8e36 1bb4 9739 b0b4 d0b4
00000040: 6a5b db39 85b3 243a fcdd 3d35 c1a0 093a
00000050: 95c2 d839 d36b 1d36 c8c0 b039 29f2 4833
00000060: 6baf ba39 a144 b038 3b36 3e38 c2e3 d7a4
00000070: d77e 5eb8 d41c 2f3a b452 be39 724a 0ab8
00000080: 2297 d6a8 84ea fa39 3085 cf39 9f81 e7b8
00000090: cc9f 063a dc1d b638 05aa a738 5d8f 8939
000000a0: b884 0f3a b0e5 9839 6d0d e4b2 e1dc 9b38
000000b0: 9bcc 2339 be97 a4b3 14f5 7439 d051 8cb6
000000c0: a8d1 9239 5c18 da39 f447 bcb5 ef1f cd39
000000d0: b67f 8b39 647a 3fb6 ac30 8339 6606 9131
000000e0: f5e6 9639 3fe2 bb38 e917 1b38 11bf 61b2
000000f0: d2cb a834 dc7a f339 a0c0 8b39 07cd 5a38
00000100: 608a 9b32 547f d0b4 a3c2 be36 5858 4db5
00000110: 37dc 7cb4 0f44 e435 76f7 3136 2c4b 34b5
00000120: 208b a536 1148 c4b5 c390 bd33 a253 1337
00000130: 17f0 fb34 c535 10b5 0cba 9236 9a83 7ca5
00000140: 6eec 0536 1d0f 4b36 193c f436 3900 9cb6
00000150: 532e ab27 d29e c835 dd74 0234 ce85 3e33
00000160: f8be 0db7 4d1b d0b5 88dc 40a6 5174 e3a6
00000170: 8010 b636 9034 d133 9b12 37b4 328d f1b5
00000180: 6950 32ab ba78 853a 37c8 543a 1b7d 8fb9
00000190: 1097 8a3a 64a6 1639 0ba5 2f39 6cc8 0a3a
000001a0: 1649 903a cfb8 253a 5580 9127 2980 3839
000001b0: 5a94 b739 3c79 1637 82b6 f839 17a5 53b7
000001c0: eec4 1e3a 53ae 663a 00d6 eeb6 2bc1 4b3a
000001d0: e067 133a 1447 53b7 a46e 013a 40e8 ae32
000001e0: 82ad 133a f602 2c39 2e06 eb37 ea97 c231
000001f0: d41c 9d34 1fa3 753a 34a3 183a 334a 8f38
00000200: 1dca 3cb2 9fce 6bb6 602f 01b7 4094 eaac
00000210: 6919 b438 5740 2c38 a54d 8ab9 5ba7 1c37
00000220: 471a ed36 1fa2 33b9 9da9 6634 2781 16b9
00000230: 910a cfb9 e4e0 2db6 2559 24ba be8c 7837
00000240: 3106 5738 7053 8ab9 d046 a635 8f93 8eb9
00000250: fb90 cfb7 8323 9b25 cbf8 0eba eada 91b0
00000260: 5e6a 02ba d3ab 41b9 802e 8137 bd82 c6b1
00000270: 67de 88b8 959d dcb8 f84a f3b9 5acb 0dba
00000280: d6e6 f4a6 3786 b63a 09da 8e3a 9b56 beb9
00000290: 7393 be3a 7ffc 4a39 5dcc 3339 1732 3a3a
000002a0: 1874 bf3a cc77 5a3a 9b90 a9a4 72fb a639
000002b0: 9831 a739 1e22 41b7 690a d439 6ac6 5737
000002c0: 7666 4e3a c5ad 933a 477f 17b7 e5c2 5d3a
000002d0: 7291 563a ee7a 9c34 5b32 f039 fe2d 0634
000002e0: 7f2a 283a 3f9b 1638 b8d3 8d38 019c 5da8
000002f0: 7c4f a3b8 43f0 983a ddc9 303a 2bf9 a8b8
00000300: 1776 74a9 dcc5 00b7 e2eb 1e37 5f5d fca8
00000310: e4dc 2639 c523 4737 34b9 82b9 9651 9e38
00000320: 06ca 7138 0f5a 37b9 f2e8 ef31 3a76 3ab9
00000330: df2c f0b9 b15f f335 362a 2bba ff65 14b6
00000340: 5c1d b338 1493 32b9 adc2 6ab5 153a 95b9
00000350: 0fe6 4738 011a e4b3 ed89 0cba ee5f b1b2
00000360: b805 d4b9 12d4 4db9 7a7e 8f38 1220 5134
00000370: 1f17 59b8 e268 e5b8 3732 01ba 4f40 ffb9
00000380: 134e 9434 aef2 0b20 b358 cf32 ffe5 fc2f
00000390: ed8a 3e32 9ac3 a2b4 f636 7033 815a acb3
000003a0: 17b9 0b34 4de6 2ca5 842f fbb3 802b 30a8
000003b0: adb0 46a6 6f21 0eb4 bcb1 2ea8 0411 97a5
000003c0: 665c fd32 6e17 8da8 6d91 4c2f 66bf 81a5
000003d0: 469b bd24 5936 49a7 e2b0 12b1 b9c3 84b3
000003e0: fd22 8fa8 3069 44b4 5eea 38ab e4ac 1025
000003f0: 3034 1db1 6ab0 1b2a 3bf6 35a7 2361 51a6
