checkpoints/adversarial/adversarial_epoch0005.pt (torch, 37975 bytes, 24 tensors)

0.weight f4 [32, 2]
000000 a0 63 0d 3f c3 1c 13 3f ad 3c 26 be 8f ef 28 3f
       0.5523014 0.5746576 -0.16234083 0.6599054
000010 6d 69 05 be 41 4e 32 3e c5 b5 b5 be 99 69 d4 3e
       -0.13028498 0.17412664 -0.35490242 0.41486815
000020 71 18 1a 3f 77 89 fd be be af 21 3f 2f ba 27 3e
       0.60193545 -0.4951894 0.63158786 0.16379617
000030 89 52 02 3f ee df 76 3d 45 2e a6 3e 2d a4 c1 bd
       0.5090719 0.06027215 0.32457176 -0.09455142
000040 91 46 0c 3f 0e f7 fa 3d 4b d1 94 be 6a ad 10 3e
       0.54795176 0.12254153 -0.29065928 0.14128652
000050 9d 9c 92 be 2c 33 3a bd 72 f7 95 be a5 7e fa 3e
       -0.2863511 -0.045458958 -0.29290348 0.48924747
000060 fb 79 14 bf 25 d9 b7 be 83 cc 4e be fb d2 e1 be
       -0.5799863 -0.35907856 -0.20195203 -0.44106278
000070 34 ae 88 3d 81 59 33 bf 70 dd 20 3f 41 e7 16 bf
       0.066738516 -0.7005845 0.62837887 -0.58946615
000080 17 3f 0b 3f 44 3e da 3d 0b b0 7a be a0 db ec 3e
       0.5439314 0.106564075 -0.24481218 0.4626131
000090 22 a7 f2 3d fc 38 19 3f a2 cd cb 3d 5a 0a 7c be
       0.11848284 0.59852576 0.09951331 -0.24613324
0000a0 4e 17 26 3e 13 fa 62 be 7e a1 8f 3e 14 9d 1c 3f
       0.16219828 -0.22165708 0.28052896 0.6117718
0000b0 73 3a c4 3e 7a 1f ae be ac 1b d0 3e 77 a1 d1 3d
       0.38325843 -0.3400839 0.40646112 0.10235875
0000c0 9d 42 b9 3e 39 67 e2 be e7 50 32 bf 66 d3 9b be
       0.36183634 -0.44219378 -0.696547 -0.30434722
0000d0 d4 28 03 bf b4 fc 1c 3f 0e 47 3a 3e 48 80 8b 3e
       -0.51234174 0.61323094 0.18191168 0.27246308
0000e0 14 6c 6b 3e 4e fb 1e 3c 2e 06 09 3f 8f db 09 bf
       0.22990447 0.00970347 0.53525054 -0.53850645
0000f0 b2 7f 84 3d 6e 8c 04 bf 38 d0 78 3e 18 97 88 be
       0.064696684 -0.5177678 0.24298179 -0.26677775

0.bias f4 [32]
000000 0c 19 6b 3e 52 fe fb bd c5 d6 16 3f e6 14 d2 be
       0.22958773 -0.12304367 0.5892146 -0.4103157
000010 f2 e7 e0 be 00 82 ca be 5f ef 28 3f e8 2a 78 3e
       -0.4392696 -0.39552307 0.6599025 0.24235117
000020 ae 65 2f 3f 24 3b 0b bf 2e 60 29 bf ef 36 06 bf
       0.68514526 -0.54387116 -0.66162384 -0.5242757
000030 8f e2 df be f0 56 9d 3e a0 a3 84 3e 73 8d 12 3f
       -0.43727538 0.3073039 0.25906086 0.57247084
000040 4d 71 ba be 40 79 e9 be d5 fc c8 3e 07 90 84 be
       -0.36414567 -0.4560032 0.39255396 -0.25891134
000050 fc e6 d7 3e b7 27 3e be 7a 7d cd 3e 4f 0d 07 bf
       0.42168415 -0.18569838 0.40134794 -0.5275468
000060 12 25 ad be 32 11 65 3e e7 5a 2d 3e c1 2d 4b be
       -0.33817345 0.2236984 0.16929208 -0.19841672
000070 e4 ca d8 3e c2 91 00 3f 29 d3 f3 be e9 3a b3 be
       0.42342293 0.5022241 -0.4762204 -0.35005882

2.weight f4 [32, 32]
000000 67 fe fb 3d 18 59 c0 bc 6e 26 d7 bc c9 53 07 be
       0.12304383 -0.023479983 -0.026263442 -0.13215555
000010 a7 80 81 bd 91 24 22 3c 3b 7b 16 3b 39 ff b7 bd
       -0.063233666 0.009896413 0.0022961635 -0.08984227
000020 9c da 01 38 f0 b8 a8 bd 25 da e3 bd 83 74 73 bd
       3.0959593e-05 -0.08238399 -0.11125592 -0.059437286
000030 cc 78 ed bd 4f 39 98 bd 41 15 0d 3e 11 6f fe 3a
       -0.11595306 -0.07432806 0.13777639 0.0019411762
000040 12 ec 99 3c df 0d 01 be e5 59 9f bd 3e 48 ba bc
       0.018789325 -0.12602948 -0.07780818 -0.022739526
000050 ad 06 8e ba 6b 29 ef bd 96 a9 1f bd 62 b5 8a bd
       -0.001083573 -0.11677822 -0.03898009 -0.06772877
000060 ae 3a 42 b8 90 da ee bc e9 d2 06 ba 80 c7 a6 bd
       -4.6307854e-05 -0.029156953 -0.00051431224 -0.0814352
000070 5b e7 a9 bd ce 4c 85 bd 07 d1 c6 bc 34 ab ce bd
       -0.08296081 -0.0650879 -0.024269594 -0.10091248
000080 22 b1 11 3e 7f aa 18 bd 26 4f 1c 3e db ae 5b 3d
       0.14227727 -0.037271973 0.15264568 0.053633552
000090 4a 47 e3 bd 0a 11 c4 3d 90 a2 51 bd 3a 81 96 bd
       -0.11097582 0.095735624 -0.051180422 -0.07348867
0000a0 47 76 18 be 73 1a 0c be a6 5b 7b 3c 83 ad 1c bd
       -0.14888869 -0.13681965 0.015341675 -0.03825141
0000b0 dc 2c 42 3d cd 5f 18 be dc ba c6 3d 0d 48 00 be
       0.047406062 -0.14880295 0.09703609 -0.12527485
0000c0 83 dd 13 bd 2c 72 00 3d 18 d7 b6 3d 25 20 d5 3d
       -0.036099922 0.031358883 0.089277446 0.10406522
0000d0 a6 bf 23 3e d7 bd 17 be e1 48 26 3d 6b 25 1f bd
       0.15991077 -0.14818512 0.040596846 -0.038854044
0000e0 a7 bf 12 3b 99 5e 02 be a1 51 25 3e fe 58 13 be
       0.0022392066 -0.12731399 0.1614442 -0.14389417
0000f0 2c 0a be 3d 5a 4f 80 3d 08 dc af 3c db 63 6c bd
       0.09279284 0.06265135 0.021467224 -0.057712417
000100 5f 6b 30 3e f0 52 14 3d 8b 39 e7 3c 9b bb 1a be
       0.17228459 0.036211908 0.02822568 -0.15110628
000110 56 03 4f 3d e1 c6 04 bc e6 9a 94 bd ff 44 1f 3e
       0.05054029 -0.008104057 -0.07256107 0.15553664
000120 cb cd 43 3d d1 4c 75 bd 30 1e 54 bd 34 82 2b bc
       0.04780368 -0.05988771 -0.0517866 -0.010468055
000130 0e 6d 83 3d f2 5e 7f bd 27 54 ff bd a3 18 76 bd
       0.06417285 -0.062346406 -0.12467223 -0.06008209
000140 79 1f ea bd a3 9b 60 3d 2e 47 1e 3e 68 1a 04 be
       -0.11431784 0.054835927 0.1545684 -0.12900698
000150 f7 02 23 3d 4e 87 dd 3d a1 86 0c 3d 5a 72 57 bd
       0.03979775 0.10816823 0.03430808 -0.05259929
000160 f3 32 80 3d e8 7e a1 3d 59 2e 88 3d bd 20 fa bb
       0.06259718 0.078855336 0.06649465 -0.0076332972
000170 e7 71 29 bd 2b 5b 8b 3c c6 d8 2c ba ab ee a7 bd
       -0.04136839 0.017011246 -0.0006593581 -0.08199819
000180 31 99 f3 3d 43 0d 1e 3e a1 d1 8f bc fd d8 0d bd
       0.11894453 0.15434746 -0.017556014 -0.034630764
000190 52 5d 72 b8 ae cc 6a ba cd 71 3c 3d 27 4c 72 3d
       -5.7784207e-05 -0.0008956891 0.046006966 0.059154656
0001a0 15 f7 1f be 04 b5 ea bc cc 9a e1 3d c0 bd 9b 3d
       -0.15621598 -0.028650768 0.11015853 0.07604551
0001b0 50 ae c4 3a 80 73 de bd 2c 5e 8f bd e2 c9 06 be
       0.0015005562 -0.108618736 -0.07000384 -0.1316295
0001c0 18 2f b1 bc 1a 6a 8c 3d 9c a0 eb 3d 4d 0c 35 3d
       -0.021628901 0.06856175 0.11505243 0.044201184
0001d0 1f bd 1d be 32 68 c5 bd a1 a8 76 bc 82 48 07 3e
       -0.15404175 -0.09639014 -0.015054853 0.13211253
0001e0 91 fd ec ba b6 c5 65 bd 71 87 95 3d ce 66 4b bd
       -0.001808094 -0.056096755 0.07301224 -0.04965859
0001f0 72 48 e4 bd ea 4f d3 3d 62 2e 30 bd bf 06 57 bb
       -0.1114663 0.10317977 -0.043012984 -0.0032810417
000200 f1 0a 29 be e2 a1 00 3e ca dc 08 3e d6 08 8d 3d
       -0.1650808 0.12561753 0.13365474 0.06886451
000210 95 c8 ad bd 10 ce 0a be 1d 5a 13 be 80 b3 dd 3d
       -0.084855236 -0.13555169 -0.14389844 0.108252525
000220 87 3a a8 3d 6d 61 e1 3d 66 93 60 3d 94 be 50 3d
       0.08214288 0.110049106 0.05482807 0.050963
000230 73 81 eb 3b db 9d 0e be 6d d9 12 be b5 30 35 be
       0.0071870624 -0.13927405 -0.14340754 -0.17694362
000240 3e d7 10 3d 66 22 92 bd a6 de 00 bd 61 81 82 bd
       0.03536152 -0.07135467 -0.031462334 -0.06372333
000250 f3 c5 20 bd 24 eb e0 bd 3e 8b 03 be 8f c4 b8 3c
       -0.03925128 -0.109823495 -0.12846085 0.022554664
000260 8d ca 8b bc c0 73 da 3d 88 33 56 bd 0a 2c d3 bd
       -0.017064357 0.10666609 -0.052295238 -0.10311134
000270 38 a0 05 bd 52 51 cb bd e0 0c 97 bc 18 86 04 be
       -0.0326235 -0.0992762 -0.018438756 -0.12941778
000280 53 a5 fe 3d 8b 5e d8 bd 76 a5 d7 3d 21 2e b7 3d
       0.12433877 -0.10564908 0.10529606 0.08944345
000290 66 eb db 3d 07 c6 da bd 5b 6e 18 3e f8 91 77 bd
       0.10738258 -0.10682302 0.14885847 -0.06044194
0002a0 8c 5e b3 3d 9a 35 02 3e 05 de 01 3b a1 1d 87 3c
       0.08758268 0.1271576 0.0019816172 0.01649362
0002b0 18 b3 e9 bb 5e 45 fe bd 1b da a0 3d 3f a8 20 be
       -0.0071319453 -0.124155745 0.078541 -0.15689181
0002c0 e8 14 09 3e 2a 62 14 3e 8b 72 41 3e d8 aa 01 bc
       0.13386881 0.14490572 0.18891351 -0.0079142675
0002d0 54 3b 01 be e3 7d 8f 3d 42 2d ed 3d 42 31 13 be
       -0.12620288 0.07006433 0.11580898 -0.14374259
0002e0 f2 a3 33 bd 79 f0 d5 bd 72 f4 d4 bb 98 32 4c bd
       -0.043857522 -0.10446257 -0.0064988667 -0.049852937
0002f0 a5 39 51 bd 97 4a 1c bd 45 38 04 be ef 98 d2 3d
       -0.051080365 -0.038157072 -0.1291209 0.10283076
000300 1a e4 f7 3d 51 16 5a bd fb 38 c8 bc 1a 45 c9 bd
       0.12104054 -0.05324394 -0.024441233 -0.09827633
000310 2d 1b 09 be f7 e8 48 be a9 bb 81 3d bb b2 b3 bd
       -0.13389273 -0.19620119 0.063346215 -0.087743245
000320 c0 7d ee bd a3 8f 2d 39 de 7c ba bc 30 44 ac bd
       -0.11645079 0.00016552075 -0.02276462 -0.08411443
000330 fe f6 31 3d 47 cf f7 bb 79 7b 01 bd cb 91 85 bd
       0.04344844 -0.007562551 -0.031611893 -0.065219484
000340 85 8a 2a be 5e d9 ee 3d 54 c2 cb bd 1e 04 8a 3d
       -0.16654404 0.11662553 -0.099491745 0.067390665
000350 84 be 2e bd 5d ab 87 bc be fb 3a 3e fa e0 95 3d
       -0.04266216 -0.016561205 0.18260095 0.073183015
000360 ce b2 01 be b4 7a ca 3d 0e 82 17 3e d3 36 80 3c
       -0.12665865 0.09886685 0.14795706 0.015651142
000370 97 98 fd 3d da 83 46 3e cf 42 88 bb f4 9a 86 3d
       0.1238262 0.19386235 -0.004158355 0.06572524
000380 2f 30 eb bd e3 50 c3 bc 4c 1e 0e 3e e9 81 e9 3d
       -0.114838 -0.02384228 0.13878745 0.114017315
000390 f4 d1 96 bd a4 2e d3 bd c4 dc d6 bd 95 76 12 be
       -0.07364264 -0.1031163 -0.104913265 -0.14303048
0003a0 95 dc f6 bd 6e 36 1c bc 67 cc a5 3d 0c 0c 6a 3d
       -0.120537914 -0.009534461 0.08095627 0.057140395
0003b0 fe a4 28 be 83 8b 17 be b7 a9 8e 3d e1 a5 e1 bd
       -0.1646919 -0.14799313 0.06965964 -0.11017967
0003c0 55 e6 1e 3b ba c4 e5 3d 7d 68 88 bd d2 99 11 3b
       0.0024246175 0.11219163 -0.066605546 0.0022216928
0003d0 ba ee 41 bc 0c 5c f7 bc d5 73 89 bd b5 4b f3 bd
       -0.011836702 -0.030195259 -0.06711546 -0.11879674
0003e0 21 80 d5 bd 0f 71 c9 bd e0 d6 38 3e 71 b7 79 bd
       -0.10424829 -0.09836017 0.18050718 -0.06096596
0003f0 f9 a4 db bd 9e b7 81 3d f3 ff 60 3c 36 83 71 3d
       -0.107248254 0.0633385 0.013732898 0.058963023

2.bias f4 [32]
000000 cd a4 57 bd df a7 12 be 46 ac 18 3c b1 01 d4 bd
       -0.0526474 -0.1432185 0.009318417 -0.10351885
000010 d1 2a 13 3e bd 66 1b be 4c 6f b4 3d e3 b6 3b 3e
       0.14371802 -0.1517591 0.08810291 0.18331484
000020 41 8e cc 3d 0e 82 98 3d 19 59 06 be 36 cc 3c 3e
       0.0998807 0.07446681 -0.13119926 0.18437275
000030 41 bc 59 bc c9 bf 35 be 2c 9c 42 3e 95 fd bc bd
       -0.013289512 -0.17748941 0.19004887 -0.092280544
000040 8c 57 02 bc 4d 7e 27 3e c3 21 11 be 70 f2 ce bd
       -0.007955443 0.16356774 -0.14173035 -0.10104835
000050 1b bd 97 3c b6 47 3e bd a1 6f 4c 3d 7e 60 e0 bd
       0.01852279 -0.046455108 0.049911145 -0.109559044
000060 77 68 3d 3c 79 59 aa bd 50 3a a7 bd 16 fc fb bd
       0.011560551 -0.08317847 -0.08165419 -0.12303941
000070 73 07 97 3d c6 56 7b 3d 48 79 f1 bd 67 f4 13 3e
       0.07374468 0.06136205 -0.11790711 0.14448701

4.weight f4 [32, 32]
000000 78 79 91 3c ea 8b 52 3d ff 14 96 bd 27 28 70 3d
       0.017758116 0.051402964 -0.073282234 0.058632042
000010 17 da 33 3e 7d ca 1e 3e c1 ed fe bd ab 6c 2f 3e
       0.17563663 0.1550693 -0.12447692 0.17131297
000020 b7 50 17 3d 14 9a e3 3d 2c 28 ca 3d a3 e8 0f 3e
       0.03694221 0.111133724 0.098709434 0.14053588
000030 3d 61 12 be 35 76 22 3e 41 28 fb bd 89 22 82 bb
       -0.14294906 0.15865405 -0.12263537 -0.003971402
000040 b4 b0 c4 bd ad ff 96 bc dc fb 08 3c c2 5c 83 3c
       -0.09604016 -0.018432463 0.008360829 0.016035441
000050 fd 22 38 bd a5 8b 0a 3d 94 d2 40 3e 2e 74 84 3d
       -0.044955242 0.03382458 0.18830329 0.06467472
000060 43 7b b9 3d 9c 5d c0 3d c5 40 18 3e e6 8a 0e ba
       0.090567134 0.093928546 0.14868458 -0.00054375676
000070 d6 39 f8 3c 99 8f 86 3d b5 45 38 be 7b 5c 1f be
       0.030301016 0.06570358 -0.17995341 -0.15562622
000080 6e 01 1f bb e1 0d 41 bd 37 7b ef 3c f9 f5 c9 bb
       -0.0024262327 -0.047132377 0.029233558 -0.0061633554
000090 11 10 0a 3d 86 9f 19 3e 80 79 5b bd 1f 88 18 3e
       0.03370673 0.1500226 -0.05358267 0.14895676
0000a0 11 ae 26 3e 63 f8 d5 bd 82 90 c8 bd 72 42 25 be
       0.16277339 -0.10447767 -0.09793188 -0.16138628
0000b0 a7 1c e5 bd 1c 5f 4e bd 78 7d d4 bc 89 cb 83 bd
       -0.111871056 -0.050383672 -0.025938734 -0.064353056
0000c0 c8 2c 74 bd 3c 4b 15 bd e3 b2 36 bd f3 81 57 3e
       -0.05961302 -0.036448702 -0.044604193 0.21045665
0000d0 1c 3b b5 bd b2 69 ce bd 37 07 9f 3d cc 65 81 ba
       -0.08849165 -0.100787535 0.07765048 -0.0009872257
0000e0 5c d4 ec 3d 93 4e 05 3e 41 69 21 3e 40 4f ba bd
       0.11563942 0.13018255 0.15762807 -0.09097147
0000f0 c1 17 04 3e 4a 3a 36 3e 16 3b fc bd 70 b4 0d 3e
       0.12899686 0.17795673 -0.12315957 0.13838363
000100 a8 7c c0 3d bb 63 1e bc f6 2d 8d 3d e9 20 91 bd
       0.09398776 -0.009667332 0.06893532 -0.07086355
000110 00 5a 05 be a8 0e e0 3c fc 26 16 3d 16 b4 ea bd
       -0.13022614 0.027350739 0.036658272 -0.1146013
000120 58 4f 8c 3d e1 6a 22 be df 3c e8 3d d9 8a 1c 3e
       0.06851071 -0.15861084 0.11339735 0.15287341
000130 3b fd 07 3d 64 1c de bd 1e bd 8b 3d f0 ae 8b 38
       0.033200484 -0.10845259 0.068231806 6.660621e-05
000140 cb 89 03 3d 75 9d 26 3d 7c a1 f4 3d b9 73 bd bd
       0.03211383 0.040677506 0.11944863 -0.09250588
000150 7f c7 47 bc 5d 37 15 3d e0 f9 0f 3b 9c ca d4 3d
       -0.01219356 0.03642975 0.0021969005 0.10390207
000160 5c 46 dc bd 40 bd ac bc d7 53 e1 3a 40 3c 48 bc
       -0.107556075 -0.021086335 0.0017191124 -0.012221396
000170 dd 8a d7 3d 27 fd 0a 3b 3c 12 ff bd 04 d7 01 bd
       0.10524533 0.002120802 -0.1245465 -0.031699196
000180 ab 62 2f bd 44 ce 10 3d 1c 63 08 3c 00 cc 12 be
       -0.042818706 0.03535296 0.008324411 -0.14335632
000190 90 ca cb bc d9 33 81 3c de 5c 38 bd fd 60 31 3e
       -0.024876863 0.015771793 -0.04501044 0.17322154
0001a0 4c 98 82 bc 19 a3 0f 3e 6e 34 1d 3c 26 48 29 be
       -0.015941761 0.1402706 0.00959502 -0.16531429
0001b0 ed 88 e4 3c 39 9c 1e 3e f8 15 01 be 15 67 08 be
       0.027897323 0.15489282 -0.12606037 -0.13320573
0001c0 b3 7e 4b 3e bb 00 24 3e d0 c1 a8 bd 45 dc 11 3e
       0.1987255 0.16015904 -0.08240092 0.14244182
0001d0 79 26 30 bd 57 13 1e be 64 ad a5 3c 82 69 ad 3c
       -0.04300544 -0.15437065 0.02022428 0.021168474
0001e0 7d 73 8c bd 54 48 a6 3d fd c9 05 be c3 43 ac 3d
       -0.06857965 0.08119264 -0.13065334 0.08411362
0001f0 7a 21 2a 3e 4d 18 01 3e 3a 52 e0 ba a4 66 1b 3d
       0.16614333 0.12606926 -0.0017114349 0.037939683
000200 6d 29 b7 bd ac 54 e2 bc 3f d4 47 bd ff 90 77 bd
       -0.08943448 -0.027628265 -0.048786398 -0.060441013
000210 55 e2 c5 bd ae a7 b1 3d f3 f6 06 3e bd 5c 0b be
       -0.0966231 0.086745605 0.13180141 -0.13609596
000220 75 d8 1a 3d 86 e3 83 3d d5 28 04 3e db ed f9 3d
       0.037804086 0.06439881 0.12906201 0.122035705
000230 94 8c 35 3e ef 33 89 bd 43 d5 10 3e 3e f3 26 3e
       0.17729408 -0.06699359 0.14143853 0.16303727
000240 ce 4e 44 be 25 51 14 be 27 3b a4 3c 6b b9 7c 3d
       -0.19170687 -0.14484079 0.020047737 0.061700266
000250 b7 77 85 bd c8 da 13 bb 53 1b 81 3c 57 03 2a 3c
       -0.065169744 -0.0022560824 0.0157601 0.010376773
000260 ab 40 8e bd 46 d7 a8 3d 71 87 a2 3d a6 90 ac bd
       -0.06945928 0.08244185 0.0793599 -0.08426027
000270 59 71 2d bc c3 f5 98 bc 6a 00 ba 3d 27 e2 41 3e
       -0.010586106 -0.018671876 0.0908211 0.18933927
000280 52 c3 86 3c 0f 8e 33 bd 8d 88 40 3e 6d 49 fa bc
       0.016450558 -0.04383665 0.1880209 -0.03055259
000290 44 41 48 bd 79 68 2b 3d c5 cb 08 be 0c 32 73 3c
       -0.048890367 0.04184768 -0.13358982 0.014843475
0002a0 55 92 f3 bd fb 19 07 3d 9c 1c cd ba 50 ac 82 3c
       -0.11893145 0.03298376 -0.0015648785 0.015951306
0002b0 40 7b 1e be a3 33 1f be 42 71 90 3d 2e 27 09 3e
       -0.15476704 -0.15547042 0.07052852 0.13393852
0002c0 e1 c8 05 be 49 56 9e 3d 25 1a ea bd 60 a5 38 3d
       -0.1306491 0.07731301 -0.11430768 0.04507959
0002d0 87 7d 15 3e 59 b2 c3 3d 43 85 0c be 12 c5 91 3d
       0.14598666 0.095555015 -0.1372271 0.07117666
0002e0 aa c9 9b 3d fb 15 86 3c 45 e0 16 3e 0f 7d 08 bd
       0.07606824 0.016367903 0.1473399 -0.03332239
0002f0 ba f4 d9 bc 85 f8 99 bd db 14 82 39 62 bb 04 3d
       -0.026605953 -0.075181045 0.0002481107 0.032405265
000300 66 15 a0 b9 58 e9 7b bd 87 84 d7 bd 45 f6 c3 3c
       -0.0003053352 -0.06150183 -0.105233245 0.023921141
000310 45 a8 ef bd 7d a7 79 bd 7a 14 96 3c 75 54 3a bd
       -0.11702017 -0.060950745 0.01832031 -0.0454907
000320 e0 b9 a0 3d 28 f3 51 3c 1d 7e af 3d 7a 41 4c 3c
       0.07847953 0.012814321 0.08568976 0.012466783
000330 13 e1 bb bd 73 a1 dc 3d 0d 17 48 3d c1 ec f0 bc
       -0.09173789 0.107729815 0.048850108 -0.029409768
000340 98 ab 9e bd 71 51 64 3d 7f 83 1e be 0f a1 8d 3c
       -0.07747573 0.05574173 -0.1547985 0.017288713
000350 a7 99 e5 3d 77 2f ee bd ca a5 b5 bd de 82 b5 bd
       0.112109475 -0.11630147 -0.088695124 -0.088628516
000360 5f 41 37 3e e5 ed 12 3e c7 80 e2 3a 66 27 02 3e
       0.17896031 0.14348562 0.001728081 0.12710342
000370 f9 b0 40 bd 56 4d 29 be 50 92 c7 3d 46 92 bb 3d
       -0.047043774 -0.16533408 0.09744704 0.09158759
000380 3f a0 09 3e 6f 45 a9 37 81 7a c6 3d 72 c7 8f 3d
       0.13440035 2.0178702e-05 0.096913345 0.07020463
000390 a1 3d b7 3d 46 c6 0b be 51 e9 da 3d 8f 4e e5 bd
       0.08947302 -0.13649854 0.10689033 -0.111966245
0003a0 ee 1d f5 3d fd 41 00 b9 e5 6b f1 bd 01 32 67 3c
       0.11968599 -0.00012231614 -0.117881574 0.014111043
0003b0 b6 7e 6f bb 87 b8 f5 bd 7d ef e1 bc a4 d1 01 bb
       -0.0036544031 -0.119980864 -0.027580017 -0.0019808793
0003c0 02 ef ca 3d f2 f9 98 bc e2 0a 89 3d 10 07 1e bb
       0.09908868 -0.01867387 0.06691529 -0.0024113096
0003d0 23 94 f7 b9 d8 51 11 3b df 2b 9f bd 8d af dd bd
       -0.00047221882 0.0022174027 -0.077720396 -0.10824499
0003e0 fc c9 a1 bc b1 e7 00 be 0f 4a 38 bd 93 87 0b 3a
       -0.019749634 -0.12588383 -0.044992503 0.00053226313
0003f0 26 01 a0 bd 72 93 14 bd f4 86 7c ba ea 97 1b 3b
       -0.07812719 -0.036273427 -0.00096331467 0.002374167

4.bias f4 [32]
000000 3e d8 bb 3d 02 5e 42 3d 01 fb ab bd 98 c9 de 3d
       0.09172104 0.047452934 -0.083974846 0.10878295
000010 26 8c 20 bd 26 99 76 bc f5 c0 2a bd 92 e8 03 be
       -0.039196156 -0.015051162 -0.041687924 -0.12881687
000020 1b 5c 02 3d dd b0 62 3d e3 40 52 bd 7d 26 de 3d
       0.03182612 0.05534445 -0.051331412 0.10847185
000030 f4 4f f5 bd 4d ad 06 be ec c2 97 bd 08 bc 0a bd
       -0.119781405 -0.13152047 -0.07410225 -0.033870727
000040 68 22 dd ba c9 ca 16 bd 4a 15 9e 3d 85 56 ee bd
       -0.0016871216 -0.036814485 0.07718904 -0.11637596
000050 54 76 11 3c c2 1f 31 3b bd 6b 86 3d 4b 1d 33 3e
       0.008878309 0.0027026986 0.06563518 0.17491643
000060 08 7a e0 3d 30 9a 75 bd da 79 d9 bd 51 7a 80 bd
       0.109607756 -0.059961498 -0.106189445 -0.0627333
000070 ef f3 50 bd e2 4a 8b 3d a4 74 9f 3a a7 03 1a 3e
       -0.051013883 0.06801392 0.0012165499 0.15040456

6.weight f4 [2, 32]
000000 58 75 bd 3d 66 09 71 bc 78 60 99 3c 14 7b 81 3d
       0.09250897 -0.014711713 0.018722758 0.063223034
000010 69 1c 2d bd a8 49 05 3e 9f b1 2f be ec fd 46 3d
       -0.042263422 0.13016379 -0.17157601 0.048582003
000020 cd 3e e6 bd b3 61 16 be 0e 97 7d bb b6 33 d3 3d
       -0.11242447 -0.14685707 -0.0038694772 0.103125975
000030 f6 18 b1 3d 59 d9 24 3c 41 e7 97 bc 0d 0f 3a bd
       0.08647339 0.010061585 -0.018542888 -0.04542451
000040 d2 eb 0c bd 9d 79 1a bb 55 b7 81 bc ba c5 e4 3d
       -0.034404583 -0.0023571022 -0.01583449 0.11170526
000050 2e be be 3d a5 49 12 be 17 5c e1 bc 5f 51 dc bd
       0.09313618 -0.14285906 -0.027509732 -0.10757708
000060 2b dd 86 bc 2e a2 d0 bd 2f 84 3a 3c 58 50 1c be
       -0.016462883 -0.10187183 0.011384054 -0.15265024
000070 02 db 0a 3e 64 4e e9 3d bb 04 fb bd 33 64 3c be
       0.13560107 0.11391905 -0.12256762 -0.18397598
000080 38 c9 84 bc 03 73 89 bd 2b 54 20 3d ce e6 0f be
       -0.01620923 -0.0671139 0.03914277 -0.14052889
000090 8e c5 bd 3d b1 90 0f be 5a 0b 75 bd 5b dd 61 bd
       0.09266196 -0.14020039 -0.05982528 -0.05514274
0000a0 d5 b0 ae 3d d0 33 4b bc a7 25 06 be a5 89 f1 bd
       0.08529822 -0.01240249 -0.131003 -0.11793832
0000b0 b9 cc 35 bd a2 2e 00 be b2 aa c7 3c f4 b8 c9 3d
       -0.044384692 -0.12517789 0.024373386 0.0984973
0000c0 43 8b 32 bb 5f 98 ab bd e4 3f 27 3b 95 75 d0 bd
       -0.002724365 -0.08378672 0.002552026 -0.10178677
0000d0 5b 15 c7 bd bc 3c 29 bb 9e 99 3d 3e fc 18 63 bd
       -0.0972087 -0.0025823554 0.18515632 -0.05544375
0000e0 7b a2 9b 3d e3 02 06 bd 57 ba 49 bc ab 63 12 be
       0.0759935 -0.032717597 -0.012312493 -0.14295833
0000f0 8d b6 dc 3d 5f fc 43 3e c6 dd 36 bb 83 00 05 3e
       0.10777006 0.1913924 -0.0027903183 0.12988476

6.bias f4 [2]
000000 e8 3e 14 3e 89 6f b3 3d
       0.14477122 0.08761508

exp_avg f4 [32, 2]
000000 21 a6 a4 b9 7e 9c 1e ba d7 eb 3c b8 62 9d 83 b9
       -0.00031404293 -0.0006050541 -4.5042336e-05 -0.00025103526
000010 d2 ef 7c b9 42 d5 20 ba c8 81 0b 38 b5 ab b2 b8
       -0.00024121933 -0.00061352935 3.326105e-05 -8.519684e-05
000020 16 eb 40 3a 7b b1 3a ba 73 00 0c b9 77 df f8 b9
       0.0007359249 -0.00071217836 -0.00013351608 -0.0004746874
000030 e9 4e 51 3a c4 e3 b7 3a 0e 1f 9e 39 52 19 47 3a
       0.0007984476 0.0014029671 0.00030159246 0.00075950206
000040 5e c0 0b ba 00 80 c7 ba 64 c8 f7 b7 f2 4b 78 37
       -0.0005331094 -0.0015220642 -2.9538009e-05 1.4799634e-05
000050 30 38 f4 b7 c6 8b b1 b6 08 c1 67 39 9a 8f 14 ba
       -2.9113231e-05 -5.291283e-06 0.00022101786 -0.000566715
000060 20 c1 35 3a b4 20 29 3a cc 5c 99 b9 45 51 d3 3a
       0.000693338 0.00064517115 -0.00029251573 0.0016122243
000070 88 88 5e 39 c1 38 74 3a 76 c8 31 3a da e8 72 3a
       0.00021222432 0.00093163183 0.0006781885 0.0009266265
000080 6c 21 25 39 5e 2b 87 38 1d 82 44 39 ab 07 41 ba
       0.00015748077 6.4453794e-05 0.00018740488 -0.00073635083
000090 31 52 bf b9 3d a4 f7 ba c9 66 16 b9 ce 2a 7a 39
       -0.00036491596 -0.0018893551 -0.00014343405 0.00023857804
0000a0 52 4b 7d 3a a2 bd 00 3b 08 d0 7a 37 e9 36 13 39
       0.00096624077 0.001964428 1.4949597e-05 0.00014039468
0000b0 29 33 d7 3a c9 0e 11 3b 6c b7 a5 b9 94 e6 21 38
       0.0016418445 0.0022134057 -0.00031607912 3.8600134e-05
0000c0 0c a7 a6 b9 0d 8c a8 37 df 6b d3 38 c6 df 70 3a
       -0.00031786447 2.0092377e-05 0.000100813566 0.0009188618
0000d0 84 fa 99 ba 76 af ee ba 53 bf 0c 39 0b ad bf 39
       -0.0011747633 -0.001821025 0.00013422714 0.00036559286
0000e0 89 84 e4 b9 e6 3e 17 ba 8b 2e bc 3a d9 2d 17 3b
       -0.00043586295 -0.00057695655 0.0014357133 0.0023068099
0000f0 33 ab 4b b8 1f de 8b 3a 11 de a2 b9 95 50 68 39
       -4.8558413e-05 0.0010671056 -0.000310645 0.00022155263

exp_avg_sq f4 [32, 2]
000000 db 90 d5 32 d2 3d 40 33 b0 df ae 32 b8 67 07 32
       2.4862336e-08 4.475971e-08 2.0357987e-08 7.881617e-09
000010 bb fa 57 33 81 8d 3b 33 f3 62 92 31 68 9b a2 31
       5.0286626e-08 4.3668027e-08 4.2604085e-09 4.732488e-09
000020 bf 40 86 33 ad cc d8 33 69 6c a0 32 6f e7 78 32
       6.2516385e-08 1.0095514e-07 1.867575e-08 1.4488122e-08
000030 bc 2e a1 33 7d 1b ff 33 b3 c0 86 32 76 75 72 33
       7.505648e-08 1.1879363e-07 1.5687283e-08 5.6451846e-08
000040 78 eb 82 33 fc 71 98 33 46 b0 26 2e c7 7d 33 2d
       6.096428e-08 7.098785e-08 3.7900592e-11 1.02029e-11
000050 d4 18 22 2e a4 36 e8 2b d9 36 e0 31 2c 04 8b 32
       3.6856587e-11 1.6499757e-12 6.5254935e-09 1.6183627e-08
000060 78 18 78 32 6f 2c 38 32 50 d5 b7 33 4a 52 c9 33
       1.44410635e-08 1.0720313e-08 8.560403e-08 9.37476e-08
000070 59 6e f9 32 ee cf 0d 33 04 f8 44 33 76 04 cb 33
       2.9037595e-08 3.301823e-08 4.5860375e-08 9.4537356e-08
000080 c6 e1 d7 31 85 51 c7 30 83 30 42 32 4b 18 2e 33
       6.282991e-09 1.4502325e-09 1.13033165e-08 4.0534626e-08
000090 b1 bc 33 34 7a b9 06 34 d9 71 0f 31 e2 22 80 31
       1.673932e-07 1.2547198e-07 2.0873954e-09 3.729256e-09
0000a0 8e 70 dd 33 cf 32 69 34 65 44 94 32 e2 74 85 33
       1.0311588e-07 2.17183e-07 1.726057e-08 6.214556e-08
0000b0 57 3f 2f 34 05 d0 cf 34 2f e4 12 32 06 92 f4 2e
       1.6321188e-07 3.870811e-07 8.550201e-09 1.1121774e-10
0000c0 74 24 92 31 c2 d3 42 31 fe 35 3f 32 0d 05 48 33
       4.2533035e-09 2.8351086e-09 1.112994e-08 4.6570722e-08
0000d0 b3 10 16 34 dc be 0c 34 99 a0 ae 32 28 c1 87 33
       1.3975914e-07 1.310795e-07 2.0329297e-08 6.321562e-08
0000e0 79 d6 a9 32 67 a6 aa 32 68 ed 04 34 92 12 67 34
       1.977172e-08 1.9866276e-08 1.2379826e-07 2.1520307e-07
0000f0 44 62 0d 31 8f ce 24 33 a6 06 cb 31 0a 0c 96 31
       2.0574058e-09 3.837209e-08 5.9088334e-09 4.3669433e-09

exp_avg f4 [32]
000000 43 85 32 ba 3c 6f 22 ba a3 76 19 ba e4 81 20 b9
       -0.00068100187 -0.0006196385 -0.0005854165 -0.00015307177
000010 31 6a 01 3a 40 5f 05 ba 58 91 6a ba bb 3e 7e b9
       0.0004936783 -0.0005087741 -0.00089480495 -0.00024246697
000020 a5 c7 ba b9 29 92 64 b8 a5 9e 8a b8 13 18 29 ba
       -0.0003562543 -5.449556e-05 -6.6099026e-05 -0.0006450426
000030 d2 41 7b ba 65 5c 93 ba 62 33 08 ba 4f 5f 7b 39
       -0.0009584698 -0.0011242746 -0.0005195645 0.0002397273
000040 d8 c0 2e 39 54 3d 43 ba 0d 76 e5 ba ad 50 9b b9
       0.00016665773 -0.0007447798 -0.0017506495 -0.00029624012
000050 89 1a 39 3a 6c b1 70 38 5e c1 04 3a 69 82 9d b9
       0.0007061144 5.7385696e-05 0.00050642143 -0.00030042537
000060 db 05 82 b9 9c 45 ae b9 09 19 86 ba ff c6 6a 39
       -0.00024799895 -0.0003323973 -0.001023085 0.00022390111
000070 cb 74 fd 38 84 a6 40 ba e3 6a 91 ba ea fe c8 b9
       0.000120857345 -0.00073490315 -0.0011094477 -0.00038336898

exp_avg_sq f4 [32]
000000 c2 f8 7b 33 db 1d d6 32 f7 59 8e 33 8f 71 03 32
       5.8666735e-08 2.4926456e-08 6.628755e-08 7.651024e-09
000010 ed 95 d1 33 78 ce e6 32 37 55 db 33 3a 2f 1f 33
       9.759592e-08 2.6869415e-08 1.0213483e-07 3.7063025e-08
000020 00 8e 89 33 0d 44 09 2f d8 8f 48 2f 42 39 b6 32
       6.405389e-08 1.2484254e-10 1.8240998e-10 2.1213626e-08
000030 c7 b2 d2 32 1c e4 e1 33 7d 60 f0 32 3e 79 6d 33
       2.4528516e-08 1.0518872e-07 2.7983555e-08 5.529113e-08
000040 87 cf f9 31 1b a8 47 33 fd a8 85 34 52 14 a1 31
       7.270447e-09 4.648619e-08 2.4896136e-07 4.688027e-09
000050 4b 08 1c 34 bb f6 83 33 01 9b 89 34 a9 ba b0 31
       1.4531649e-07 6.145043e-08 2.563102e-07 5.143495e-09
000060 de a2 9a 31 f1 2d 26 33 57 5a ff 33 ce 06 92 33
       4.5005057e-09 3.869167e-08 1.18907955e-07 6.7998926e-08
000070 ec 29 ba 32 09 eb 29 34 07 be 2c 33 21 e3 11 32
       2.1672314e-08 1.5824857e-07 4.02197e-08 8.491754e-09

exp_avg f4 [32, 32]
000000 a0 0b 5a 37 8f c8 4d b6 2e eb 60 b6 74 28 69 b7
       1.2996519e-05 -3.066412e-06 -3.3515494e-06 -1.3897301e-05
000010 b4 1f ed b6 c0 18 dc 35 29 e8 65 b3 aa e7 22 b7
       -7.066841e-06 1.639848e-06 -5.3529366e-08 -9.709891e-06
000020 ae 95 77 b2 b2 7e 16 b7 c5 7b 46 b7 32 6e e0 b6
       -1.44113255e-08 -8.970195e-06 -1.1830537e-05 -6.6885486e-06
000030 ac 47 4e b7 60 13 09 b7 4a 7a 72 37 c4 f1 42 35
       -1.2295244e-05 -8.170347e-06 1.4452797e-05 7.2622447e-07
000040 09 45 2d 36 85 ff 5e b7 f6 df 0e b7 e5 ac 48 b6
       2.5819193e-06 -1.3291724e-05 -8.5160045e-06 -2.990296e-06
000050 eb 25 a4 34 3c a6 4f b7 e4 b3 9b b6 1b 23 fc b6
       3.057497e-07 -1.2376866e-05 -4.640302e-06 -7.514272e-06
000060 1b 61 19 30 12 b7 74 b6 9c 01 98 33 53 ea 14 b7
       5.579907e-10 -3.6465394e-06 7.078344e-08 -8.876045e-06
000070 83 74 17 b7 9e 51 f3 b6 d6 38 53 b6 5f 4e 35 b7
       -9.027429e-06 -7.251466e-06 -3.1474533e-06 -1.0806688e-05
000080 e8 a0 89 38 de 55 5b b7 37 62 bd b8 69 07 36 b3
       6.56264e-05 -1.307341e-05 -9.030516e-05 -4.2381917e-08
000090 bb 04 46 b7 54 04 b9 37 dc 16 04 b8 82 20 a0 37
       -1.1802821e-05 2.2055734e-05 -3.1492542e-05 1.9088624e-05
0000a0 75 02 26 b8 39 e4 70 b7 af 13 15 36 9f 65 ac b5
       -3.9579772e-05 -1.4358252e-05 2.2214188e-06 -1.2844574e-06
0000b0 e9 3b 2a 37 b4 82 7f 36 1b 2c 2e 37 8c 80 ee b7
       1.01467385e-05 3.807404e-06 1.0381477e-05 -2.843167e-05
0000c0 63 24 73 b4 01 10 e9 36 07 e6 16 b8 16 8b 3a 37
       -2.2644376e-07 6.945804e-06 -3.5977017e-05 1.1118847e-05
0000d0 29 51 b7 b7 d2 10 8c 38 98 eb 16 37 da 46 9b b6
       -2.1853093e-05 6.678853e-05 8.99555e-06 -4.627608e-06
0000e0 69 75 d1 33 75 b4 74 b8 41 c9 b1 b8 15 83 38 38
       9.753678e-08 -5.8342197e-05 -8.477504e-05 4.39911e-05
0000f0 2f f6 b0 b7 fb 21 28 b7 e5 e0 3f 36 97 a8 da b6
       -2.1095473e-05 -1.0021492e-05 2.8592124e-06 -6.5165327e-06
000100 26 47 9c ba 6e 89 52 b9 a7 fa ad ba d0 9b 67 b8
       -0.0011923059 -0.00020078357 -0.0013273553 -5.5219803e-05
000110 e1 b4 4f 3a 2e 7e 9a 38 ba 08 c5 ba 5c 23 b9 b9
       0.00079233764 7.366795e-05 -0.0015032508 -0.00035312294
000120 c4 de d7 ba ed ef e1 b6 88 cd c6 b6 39 db 83 b6
       -0.0016469588 -6.7334536e-06 -5.924787e-06 -3.929625e-06
000130 5d 7e 9c 39 21 6b af 38 35 e0 38 3a 0c 76 91 b9
       0.00029848787 8.3646046e-05 0.00070524524 -0.00027744507
000140 c5 4d f4 38 70 56 a2 36 39 bf ed ba ca e6 31 b7
       0.000116493124 4.838039e-06 -0.0018138654 -1.0603757e-05
000150 a3 e0 d6 b9 e6 c4 23 ba c8 ba 9b b9 a4 46 b2 37
       -0.00040984628 -0.00062472967 -0.00029703067 2.1252148e-05
000160 23 d6 e5 39 eb 15 b2 38 b7 0a 02 ba f4 00 62 b9
       0.00043837828 8.491784e-05 -0.0004960703 -0.00021553395
000170 af 2f 5f ba 66 57 49 b9 6d 4f 16 b5 e0 98 a0 38
       -0.00085138803 -0.00019201412 -5.5994934e-07 7.65787e-05
000180 68 a7 46 b9 63 bc 12 b9 ff e3 34 b9 e7 5d 15 b8
       -0.00018945115 -0.00013993825 -0.00017251073 -3.561182e-05
000190 3a 74 ec 31 fa bf 40 33 33 df 19 b9 56 59 0b b8
       6.8817174e-09 4.4878085e-08 -0.00014674365 -3.3223383e-05
0001a0 9a 75 45 b9 14 42 71 b6 63 a9 44 37 84 3c 90 b7
       -0.00018831194 -3.595026e-06 1.1721949e-05 -1.7194317e-05
0001b0 a4 be 7e 34 49 0b 92 b7 6a dd 01 b7 e0 8b 97 b7
       2.3724948e-07 -1.7409811e-05 -7.740551e-06 -1.8065737e-05
0001c0 72 ff 40 b6 1c b8 c2 b7 f9 7a 74 b9 fa 4f ad 36
       -2.8758918e-06 -2.3212335e-05 -0.00023315464 5.1651123e-06
0001d0 99 d0 30 b8 91 89 0d b9 0e fd b5 b7 32 16 69 37
       -4.215594e-05 -0.00013498055 -2.169472e-05 1.389305e-05
0001e0 c2 92 3c 34 38 39 8b b7 3c 8a 4f b9 7b 7a 38 b8
       1.7562255e-07 -1.6596736e-05 -0.00019792555 -4.3983087e-05
0001f0 0d e2 d2 b8 31 d1 f4 36 66 4f a9 b6 e1 1b 6f b5
       -0.000100556856 7.2961197e-06 -5.0458357e-06 -8.907501e-07
000200 f3 a8 ba b8 78 84 9d b8 f2 7c 7c b8 67 aa 81 b7
       -8.9006404e-05 -7.5110176e-05 -6.0197846e-05 -1.5457348e-05
000210 b2 9b 1a b7 0e ca 6e b7 b9 c6 f1 b8 21 83 be 36
       -9.215366e-06 -1.423295e-05 -0.000115287905 5.6777067e-06
000220 3c de e2 b8 e1 7a 44 37 d4 ff d0 36 98 bc 00 b7
       -0.00010817914 1.171112e-05 6.2286654e-06 -7.673305e-06
000230 6d 76 7d 38 7c 55 8b 38 df 2e 1c 38 6e af 03 b8
       6.0430193e-05 6.643959e-05 3.723695e-05 -3.1396215e-05
000240 15 75 8f 36 b2 56 bd b7 15 ba 2b b9 96 c2 ee b6
       4.2753622e-06 -2.2570926e-05 -0.00016377152 -7.1156055e-06
000250 b8 50 86 b6 65 80 30 b8 22 03 7d b7 19 66 47 36
       -4.002908e-06 -4.2081247e-05 -1.50807045e-05 2.971274e-06
000260 01 34 21 b6 2d dc d4 38 f2 a4 e5 b8 e8 c7 14 b7
       -2.402114e-06 0.00010149959 -0.000109502944 -8.868032e-06
000270 3d 71 5f b8 c1 38 9e b7 a8 d2 2a b6 2b 9e 64 b7
       -5.3272805e-05 -1.8861496e-05 -2.5454592e-06 -1.3626685e-05
000280 9c 50 97 ba 0c e7 5b b9 b8 25 4f ba 17 41 c5 b7
       -0.0011544409 -0.00020971539 -0.0007902044 -2.351454e-05
000290 ca 4c 02 3a 3a 44 9a b8 4e 8d 8e ba 5c 82 be b9
       0.0004970549 -7.3560004e-05 -0.0010875852 -0.0003633675
0002a0 dc e3 9c ba 8b de 60 37 47 b2 14 b4 96 4c 37 b8
       -0.0011969763 1.3403255e-05 -1.3848431e-07 -4.3701926e-05
0002b0 2e 37 b3 b5 a1 6a 7d b8 7f 3d 65 39 de 84 d2 b9
       -1.3352599e-06 -6.0419206e-05 0.00021862051 -0.00040153315
0002c0 4e c8 1d 37 bb ca 1c b8 50 e7 94 ba a3 e7 be b5
       9.404566e-06 -3.7382106e-05 -0.001136044 -1.4223518e-06
0002d0 35 e9 bb b9 59 15 20 ba e7 d0 a8 b9 62 a8 5b 36
       -0.00035841172 -0.00061066967 -0.000321991 3.2731555e-06
0002e0 3d be 88 39 d0 e9 0e 38 97 1a 2f b9 e4 e0 5f b9
       0.0002608168 3.4073193e-05 -0.00016699206 -0.00021350716
0002f0 83 07 23 ba 54 ca a5 b9 22 20 64 b7 ea 89 4e 38
       -0.0006219076 -0.00031622 -1.35973405e-05 4.924267e-05
000300 8c db f1 3a 44 ef 2b 3a f2 e0 6c 3a d3 36 08 39
       0.0018452271 0.00065587857 0.0009036205 0.00012990394
000310 40 c5 7e ba af 22 95 38 45 3d 9a 3a 16 8c 80 38
       -0.00097187236 7.111334e-05 0.0011767527 6.129609e-05
000320 77 c9 b7 3a ac ff ed 33 3f d9 48 b6 c9 e0 73 38
       0.0014021833 1.1082679e-07 -2.9928776e-06 5.8145062e-05
000330 85 eb 32 ba 2c 73 ca ba 12 79 1c bb 6f 87 b7 ba
       -0.0006825256 -0.0015445701 -0.0023875874 -0.0014002154
000340 3b 09 43 b7 24 2f be 38 c3 51 21 3b 79 d4 7f b7
       -1.1625055e-05 9.0686866e-05 0.0024615384 -1.5248655e-05
000350 4d b8 17 ba 52 1e 88 3a 7a fb 3c ba 30 33 85 b7
       -0.0005787656 0.0010385013 -0.0007209104 -1.5878672e-05
000360 53 1c 1e ba 51 ad ab ba dd 83 85 3a 45 96 b1 39
       -0.00060314423 -0.0013097917 0.0010186393 0.0003387203
000370 52 9f ee 39 e0 59 a6 ba df e5 a4 b8 1e aa c5 b8
       0.000455136 -0.001269158 -7.862946e-05 -9.425379e-05
000380 27 c4 28 ba ab cb 39 ba 04 3f 8f ba 0c f2 8b b9
       -0.00064379204 -0.0007087539 -0.0010928814 -0.00026692485
000390 e3 ee 07 b7 98 f7 38 b7 db 86 90 ba 5b 4a 97 b9
       -8.102247e-06 -1.1024902e-05 -0.0011026518 -0.00028856363
0003a0 48 57 a1 ba 50 ce d6 b5 30 1e 14 37 8e 25 21 b9
       -0.0012309337 -1.6004287e-06 8.828516e-06 -0.00015368147
0003b0 55 67 d2 39 df ed ef 38 fa 98 94 39 6b 13 e4 b9
       0.0004013131 0.00011440715 0.00028342736 -0.00043502016
0003c0 e0 d1 96 32 56 d9 39 b9 eb 6f c8 ba 90 98 d6 33
       1.7557738e-08 -0.00017723939 -0.0015292143 9.9929025e-08
0003d0 76 b8 84 b9 17 89 e0 b9 94 e7 b1 b9 ba ff 52 b7
       -0.00025314436 -0.0004282675 -0.0003393261 -1.2576516e-05
0003e0 ee d8 3a b7 80 ee 21 39 a6 8d 9c ba 00 86 cf b8
       -1.1136972e-05 0.00015443005 -0.001194407 -9.8954886e-05
0003f0 d9 07 25 ba 1d 42 b5 b9 c0 ab 09 36 01 d8 de 36
       -0.000629542 -0.00034572268 2.0514562e-06 6.6412617e-06

exp_avg_sq f4 [32, 32]
000000 64 15 0d 2d b0 b8 45 2b bd a2 61 2b 6c b1 1f 2d
       8.019672e-12 7.0244765e-13 8.01619e-13 9.077499e-12
000010 02 79 3d 2c 28 2d ab 2a 90 b3 4e 29 e4 ee a5 2c
       2.6925688e-12 3.0407035e-13 4.5896934e-14 4.7161042e-12
000020 f4 b9 26 26 c4 01 90 2c 92 6a ed 2c 1d 57 2c 2c
       5.7844833e-16 4.092922e-12 6.747777e-12 2.4491028e-12
000030 e1 c9 fe 2c 69 18 74 2c 91 be 2b 2d 9c 2d 16 2a
       7.2415273e-12 3.4688036e-12 9.762539e-12 1.33385e-13
000040 d9 80 1a 2b 21 0e 13 2d 7a 50 83 2c a6 94 3e 2b
       5.48906e-13 8.35912e-12 3.7321786e-12 6.770785e-13
000050 17 72 aa 29 a2 f3 00 2d e3 62 bb 2b 37 c9 52 2c
       7.569308e-14 7.330055e-12 1.3314596e-12 2.9954492e-12
000060 73 8a 4e 23 b7 39 80 2b 5c 2a 0b 28 e0 53 8d 2c
       1.11966e-17 9.110966e-13 7.725235e-15 4.016773e-12
000070 dd a5 91 2c 1d 21 46 2c d2 77 4d 2b cd 4e c9 2c
       4.1395624e-12 2.8155874e-12 7.2996915e-13 5.7215122e-12
000080 b8 ce 3a 33 b2 3e 99 32 c9 a0 33 33 d4 01 03 30
       4.349451e-08 1.7840055e-08 4.182292e-08 4.766012e-10
000090 45 66 ec 2c 21 92 05 2e 39 5e 20 33 33 fc 03 31
       6.7188776e-12 3.0370487e-11 3.7338598e-08 1.9206368e-09
0000a0 83 72 3c 33 8b a9 29 2d 12 8f fb 2a 45 f7 e0 2e
       4.387631e-08 9.644184e-12 4.4685832e-13 1.02302646e-10
0000b0 1e cf 8d 2d 0e ef fc 2f 0e 7c db 2c ad cc 9b 30
       1.6121823e-11 4.6008392e-10 6.238127e-12 1.1335907e-09
0000c0 da 9e 09 2d 35 6a 0f 2f d8 b5 86 33 45 00 d4 2c
       7.8228205e-12 1.3043507e-10 6.2729384e-08 6.0254323e-12
0000d0 20 b7 88 31 7c 2d 64 32 ad c7 ab 30 5c 8f ba 2b
       3.97894e-09 1.3281689e-08 1.2498639e-09 1.3255885e-12
0000e0 cb 33 f3 28 fc 26 9a 31 42 5c 3f 33 c2 56 94 30
       2.7000881e-14 4.486422e-09 4.455456e-08 1.0793075e-09
0000f0 19 12 56 32 29 d7 3d 30 0a 97 32 2b a0 d1 24 2c
       1.2460554e-08 6.906356e-10 6.344791e-13 2.3422167e-12
000100 b0 64 56 34 4f ce 01 32 19 28 f2 33 d7 ca 56 30
       1.9966933e-07 7.555697e-09 1.1276297e-07 7.8141e-10
000110 b8 cd e0 32 86 b7 87 32 6d 3b c0 34 c8 0c 93 33
       2.6170582e-08 1.5799525e-08 3.5806025e-07 6.847546e-08
000120 0c 2e da 34 d8 54 2e 2c 75 3a 0c 2c 60 3d db 2e
       4.0639168e-07 2.4773985e-12 1.9927647e-12 9.9698694e-11
000130 28 7d 9e 31 70 2a 03 33 ce 9d 80 33 e1 da a0 34
       4.612634e-09 3.053941e-08 5.989169e-08 2.9961578e-07
000140 5f 0a 3f 32 a8 9d 01 2f 2c f9 2e 34 71 29 0e 2d
       1.1120021e-08 1.1788492e-10 1.6295661e-07 8.080967e-12
000150 b0 2d b5 33 03 ad d4 32 3b 10 0d 34 1e 4a 1b 2e
       8.43678e-08 2.4758725e-08 1.3137553e-07 3.530875e-11
000160 1b 08 03 32 31 5b 56 33 fc 78 42 33 a8 61 1d 31
       7.6270465e-09 4.9908696e-08 4.527918e-08 2.2902018e-09
000170 68 dd f2 33 1b 31 6b 34 f4 b7 f5 29 ea 58 77 2f
       1.1309277e-07 2.1903945e-07 1.09120964e-13 2.2496108e-10
000180 cf 5a c6 32 8e cc 87 32 76 33 13 33 56 b2 11 30
       2.3091529e-08 1.580909e-08 3.4272908e-08 5.3004123e-10
000190 dc 87 73 25 cb 7a c7 27 58 44 aa 32 e0 2b 0c 30
       2.1122921e-16 5.5366728e-15 1.9821684e-08 5.0994053e-10
0001a0 d3 da cc 32 80 ed 7a 2b 03 72 e9 2c d4 b1 da 2e
       2.3848235e-08 8.914744e-13 6.634916e-12 9.945081e-11
0001b0 75 66 43 29 94 d0 30 2f 78 ff 5d 2c bc c2 19 2e
       4.3387565e-14 1.6081209e-10 3.1547803e-12 3.496113e-11
0001c0 19 18 34 2b 0d 6f 1c 2f 25 0d 45 33 45 26 df 2b
       6.398229e-13 1.422757e-10 4.587959e-08 1.5855725e-12
0001d0 4f e8 04 31 a2 c4 f8 31 69 24 27 2f 41 9a 1f 2d
       1.934058e-09 7.2401045e-09 1.5201497e-10 9.072355e-12
0001e0 bd 37 87 29 6e 34 7d 31 44 a8 3a 33 2a 20 cf 2f
       6.0048734e-14 3.6846148e-09 4.3459536e-08 3.7675935e-10
0001f0 19 0d fe 31 51 a7 7e 2d 33 bf d6 2b 5f 75 33 2a
       7.393862e-09 1.447538e-11 1.5258683e-12 1.5939115e-13
000200 09 9f c3 30 26 0e 19 31 be 01 ea 31 48 43 8f 2f
       1.4233318e-09 2.2272473e-09 6.8104944e-09 2.6059355e-10
000210 1f 1a 97 2c 26 ec 26 2d 2e a1 0c 31 76 25 57 2e
       4.294578e-12 9.488443e-12 2.0464301e-09 4.8918612e-11
000220 15 b4 25 31 1e 0d e9 2c 9c 9b 18 2c fb 0c 8c 2e
       2.4113025e-09 6.6237146e-12 2.168688e-12 6.368769e-11
000230 43 d0 83 2f c9 33 b4 30 1d 49 d2 2f 44 c7 95 2f
       2.397674e-10 1.3111442e-09 3.8250728e-10 2.724453e-10
000240 15 5c a4 2b d2 b6 c1 2e 9c 1a c1 31 85 bd 3f 2c
       1.1678459e-12 8.809099e-11 5.6200644e-09 2.7247937e-12
000250 56 f9 22 30 cf 97 dd 2f 1e d3 43 2f 08 d1 3c 2b
       5.9289584e-10 4.0307532e-10 1.781015e-10 6.7081106e-13
000260 af cf 0b 2b 04 41 a9 31 34 5d 1a 32 d9 f9 09 2d
       4.967094e-13 4.9259388e-09 8.985172e-09 7.843026e-12
000270 e8 1c 85 30 bb 41 4a 2f 19 77 17 2b 2f fb 19 2d
       9.685239e-10 1.8395145e-10 5.381126e-13 8.752817e-12
000280 21 14 0c 34 d3 ee 58 32 98 c1 a2 33 47 8f 5c 30
       1.3045839e-07 1.2627157e-08 7.578927e-08 8.0239143e-10
000290 2c 89 0d 32 96 c9 11 32 82 17 47 34 45 d8 0f 33
       8.2384695e-09 8.485946e-09 1.8541871e-07 3.3491478e-08
0002a0 57 2d 64 34 f4 57 15 2d d8 ea 7a 29 57 65 8a 2f
       2.1250649e-07 8.489199e-12 5.5714846e-14 2.517406e-10
0002b0 11 17 87 2a 46 35 a7 30 50 59 ca 31 24 16 04 34
       2.3996823e-13 1.216599e-09 5.8891274e-09 1.2301513e-07
0002c0 39 cb b8 31 89 7d 8c 2f ba e0 f3 33 46 fd 90 2a
       5.3782085e-09 2.555505e-10 1.1356447e-07 2.5755282e-13
0002d0 34 b3 16 33 56 33 a6 32 23 0e 6b 33 72 03 ab 2d
       3.508758e-08 1.9348288e-08 5.472806e-08 1.944198e-11
0002e0 89 c0 02 31 41 f5 d5 31 78 14 21 33 1c db f5 30
       1.9026933e-09 6.226998e-09 3.750435e-08 1.7888371e-09
0002f0 c1 bc 7d 33 10 9f c1 33 35 5e 19 2d db b8 84 2e
       5.9077824e-08 9.016196e-08 8.717961e-12 6.035502e-11
000300 98 30 cc 34 c8 55 18 33 75 fe 6a 34 07 3c eb 30
       3.8033318e-07 3.5468275e-08 2.1885519e-07 1.7115561e-09
000310 7c dd b7 33 15 03 ae 32 91 32 21 35 8a 42 15 34
       8.561889e-08 2.0257668e-08 6.005076e-07 1.3900913e-07
000320 3a 55 37 35 6a 61 3f 28 1a d2 3e 2b 73 56 ac 2f
       6.8296833e-07 1.0623753e-14 6.7793134e-13 3.1348044e-10
000330 72 fc a2 32 b0 9d a2 34 5e 53 27 35 16 d5 8f 35
       1.8974081e-08 3.0289584e-07 6.2333663e-07 1.0716346e-06
000340 30 3c 79 32 11 16 10 30 50 49 cc 34 c8 ef 2e 2e
       1.4507393e-08 5.2418253e-10 3.8051303e-07 3.9775988e-11
000350 c3 90 90 34 10 17 a7 33 e1 d8 da 34 8b f1 03 2e
       2.6927418e-07 7.7807385e-08 4.0763464e-07 3.0000485e-11
000360 8f 8c 1b 33 37 b1 5f 34 d6 70 07 34 e2 50 1a 32
       3.6216587e-08 2.0832964e-07 1.2613904e-07 8.98237e-09
000370 a8 ed 62 34 0e 40 50 35 2e ec 4b 30 71 95 09 30
       2.1134349e-07 7.757925e-07 7.41866e-10 5.005268e-10
000380 1c 99 b2 33 45 08 b9 33 c3 62 9f 34 61 f1 dc 31
       8.316621e-08 8.616238e-08 2.9687916e-07 6.4302843e-09
000390 24 86 70 2c f9 c0 d0 2c 0a 5d f6 33 f1 33 5a 31
       3.4180514e-12 5.93314e-12 1.14721914e-07 3.17527e-09
0003a0 d0 40 15 34 44 46 a6 2a 11 fc 8b 2c 09 4d c7 30
       1.3900285e-07 2.953628e-13 3.9786026e-12 1.450105e-09
0003b0 f8 f0 3a 32 0f 64 69 33 13 bf a9 32 96 88 56 32
       1.0881415e-08 5.4340543e-08 1.976108e-08 1.24874955e-08
0003c0 c4 1d 29 29 81 87 01 31 0e 09 94 34 89 d5 ef 28
       3.7551356e-14 1.8848996e-09 2.7573736e-07 2.6626936e-14
0003d0 84 85 cf 32 61 08 c0 32 63 1c f9 31 0b cd 04 2d
       2.4158687e-08 2.2355552e-08 7.250081e-09 7.54886e-12
0003e0 67 a1 d4 2c 0a b8 55 34 2c 8a c0 34 8f 05 fe 2f
       6.0433217e-12 1.9904124e-07 3.586332e-07 4.620628e-10
0003f0 2b 77 56 33 aa dc 13 32 4d 80 e2 2a 7f 41 2a 2c
       4.993414e-08 8.606699e-09 4.023469e-13 2.419481e-12

exp_avg f4 [32]
000000 a0 b0 c9 b6 c1 8e 29 b9 8b 26 ec ba d5 b1 64 b9
       -6.0108287e-06 -0.00016170276 -0.0018016858 -0.00021810022
000010 b9 e5 8a b8 fb 16 9b ba 92 3f 05 3a 5a b6 b7 ba
       -6.623142e-05 -0.001183241 0.000508302 -0.0014016137
000020 0b d0 0f ba d9 96 38 bb 7c 92 67 b7 37 7d f9 b8
       -0.0005486018 -0.0028166084 -1.3802779e-05 -0.00011896568
000030 a8 87 26 ba e0 0e 6b 37 c8 af c8 37 50 8a 66 3a
       -0.0006352612 1.4010555e-05 2.3923712e-05 0.0008794414
000040 f0 6f ac b9 43 76 a1 ba d2 66 5a 39 7b 0a 44 bb
       -0.00032889796 -0.001231857 0.00020828404 -0.0029913473
000050 11 7d e5 b9 76 d3 13 3a 28 38 e0 b8 97 aa 43 b7
       -0.00043771465 0.0005639115 -0.00010691612 -1.1662624e-05
000060 e1 24 ba b9 fb 2b 34 ba 7a d0 09 b9 c2 09 5a b7
       -0.00035504161 -0.00068730087 -0.00013143002 -1.29960845e-05
000070 00 83 3d 3a 70 eb 0c bb 30 47 0e bb 01 a6 50 ba
       0.00072292984 -0.0021502636 -0.0021709912 -0.0007959307

exp_avg_sq f4 [32]
000000 27 ae 0f 2c 12 ce a3 33 a1 38 bb 34 9a 66 75 33
       2.0418196e-12 7.627763e-08 3.4872667e-07 5.7136823e-08
000010 11 a7 47 32 24 bf 54 34 cd 3e 4c 35 2c 6a 09 35
       1.1621311e-08 1.9813575e-07 7.608731e-07 5.119098e-07
000020 b1 33 9b 34 81 79 5a 35 a9 af 1d 2d 00 4c f5 34
       2.890861e-07 8.138814e-07 8.963421e-12 4.5690103e-07
000030 27 82 95 35 de 4e 48 33 f0 7a 91 33 cf f5 16 35
       1.1139244e-06 4.6637858e-08 6.774451e-08 5.6237053e-07
000040 97 62 f5 32 74 4f 7f 35 1d c3 52 34 b4 9c 5b 35
       2.8566587e-08 9.511052e-07 1.9628756e-07 8.181189e-07
000050 a1 bf 6d 34 cc 35 7f 33 e9 41 b9 33 43 4a e7 2c
       2.2142059e-07 5.9420742e-08 8.626723e-08 6.5736596e-12
000060 77 8e cb 34 bc 64 85 33 a7 e7 24 31 29 13 0d 2d
       3.7915353e-07 6.2116186e-08 2.399682e-09 8.0191765e-12
000070 bb f2 52 34 42 7a c2 34 73 7d e5 34 74 2f 19 35
       1.9646079e-07 3.622427e-07 4.274585e-07 5.7065995e-07
