checkpoints/ablation_eps_0.05/ablation_eps_0.05_epoch0150.pt (torch, 43835 bytes, 24 tensors)

0.weight f4 [32, 2]
000000 b0 d9 28 3f 91 99 23 3f ef eb 52 be c3 04 48 3f
       0.65957165 0.639062 -0.20597814 0.78132266
000010 0c 30 2d be 3d 14 7d 3e 97 b1 03 bf fa 5a de 3e
       -0.1691286 0.24714752 -0.51442856 0.43428785
000020 33 1f 23 3f c9 3c 0c bf 50 c3 2f 3f e9 29 88 3e
       0.6371948 -0.5478025 0.686574 0.26594475
000030 09 fa fa 3e 81 99 bf bb 83 33 03 3f 23 92 76 bd
       0.49018887 -0.0058471565 0.51250476 -0.06019796
000040 36 2b 0c 3f b2 bd c1 3d 12 16 1c bb 02 f9 a3 34
       0.54753435 0.0946001 -0.0023816866 3.0542293e-07
000050 38 09 0b bb 25 a0 3e 16 ea ef 94 be 55 3a 24 3f
       -0.0021215212 1.539861e-25 -0.2908929 0.6415151
000060 ca 09 3f bf 27 8f 04 bf 50 4f 20 be 66 c4 da be
       -0.7462431 -0.51780933 -0.15655255 -0.42727965
000070 ae a9 c7 3d 77 e8 45 bf 2c c1 ed 3e 70 ec 20 bf
       0.09749161 -0.7730784 0.4643644 -0.62860775
000080 b2 d1 31 3f d6 c7 b5 3d 1d 29 21 be fd ce 1b 3f
       0.69460595 0.08876006 -0.1573834 0.60862714
000090 56 33 38 3e 8f e6 1e 3f 70 c1 26 3e 38 5c aa be
       0.17988333 0.62070554 0.16284728 -0.33273482
0000a0 63 01 2b 3e 65 bc 73 be b4 ad b8 3e 47 ca 32 3f
       0.16699748 -0.23802336 0.36070025 0.698399
0000b0 3f de 88 3e 4a 0c ab be b0 80 03 3f 63 ca 13 be
       0.2673206 -0.33407813 0.51368237 -0.14432673
0000c0 0a 72 b8 3e 53 7d f2 be 38 93 46 bf e4 98 cc be
       0.36024505 -0.4736124 -0.7756839 -0.39960396
0000d0 fd de 11 bf 4b 84 21 3f f6 e8 ab 3e ce 77 b3 3e
       -0.5698088 0.6309249 0.33576173 0.3505234
0000e0 cd 0a 97 3e 95 70 67 3d 2c ce ce 3e ff bf 0b bf
       0.29500428 0.05650385 0.40391672 -0.5458984
0000f0 5e c5 8a 3d 72 ab 27 bf 72 db b4 3e 73 a2 7f be
       0.06775926 -0.6549598 0.35323673 -0.24964313

0.bias f4 [32]
000000 90 e4 b5 3d c4 44 c3 bd ce a0 2c 3f ac 45 cf be
       0.088814855 -0.095346004 0.6743287 -0.40482843
000010 cd e9 f0 be 46 c6 f0 be c6 cb 2b 3f 4f b7 65 3e
       -0.47053376 -0.4702627 0.6710781 0.22433208
000020 6d f5 3b 3f bc f6 92 bd 7b 41 0e be a1 3c 00 bf
       0.73421365 -0.07175967 -0.13892166 -0.5009251
000030 07 62 d4 be 7b e4 af 3e 10 80 5d 3e 19 24 35 3f
       -0.4148104 0.34354004 0.21630883 0.70758206
000040 33 16 ce be 02 a3 ef be c3 df be 3e 13 21 96 be
       -0.40251312 -0.46804053 0.37280092 -0.2932211
000050 d1 fe e7 3e e6 74 7c be 68 f8 ce 3e b3 c7 f6 be
       0.45311597 -0.24653968 0.40423894 -0.48199233
000060 70 6d cd be b3 76 63 3e 16 ea 35 3e 7a a5 83 be
       -0.40122557 0.22213249 0.17765078 -0.25712186
000070 16 c9 f7 3e 99 2a 1a 3f 38 7e 00 bf e0 0e c3 be
       0.48395604 0.6022125 -0.50192595 -0.38097286

2.weight f4 [32, 32]
000000 e5 d8 85 bd b8 15 c5 3d 3b 62 ab 3d 36 14 fc be
       -0.0653551 0.09623283 0.08368345 -0.4923417
000010 bc 37 2e bd 3a 64 f6 bd fb 30 83 3d 38 4b a7 bd
       -0.04253362 -0.120308354 0.06405827 -0.08168644
000020 15 21 7c 3d 5e 68 ce a8 8e 79 b5 b0 9c 58 b2 be
       0.061554987 -2.2915856e-14 -1.3204031e-09 -0.3483323
000030 0c 85 d7 be 81 0b 3d 3d ae 6b e8 3d 94 00 6a 3d
       -0.42093694 0.04615355 0.11348663 0.057129458
000040 1b f3 8a bd 0d 99 c4 be 75 38 a8 bd 36 77 bb be
       -0.0678465 -0.38398018 -0.08213893 -0.36614388
000050 4a f0 8c 3d bd 3b fc be 73 f1 6c 3d 81 32 a3 be
       0.06881769 -0.49264327 0.05784745 -0.3187447
000060 a4 a8 39 be 51 df 99 bc 70 3a b0 3c 28 a1 ec be
       -0.18130738 -0.018783243 0.02151224 -0.46216702
000070 8b db 22 3d 80 79 27 3d 12 2d 0c bf cd c3 8c be
       0.039760154 0.040887356 -0.5475627 -0.27493134
000080 33 78 03 3e 8d b5 8f 3d 04 af 8e 3e bf d1 b5 3d
       0.12838821 0.0701705 0.278679 0.088778965
000090 d1 d7 2b bf d8 90 03 bf e5 3f 6d 3d 6e b6 27 bd
       -0.67126185 -0.5139289 0.057922263 -0.040945463
0000a0 c2 cc 25 bd 22 07 2f b4 45 22 8d 10 4b b0 5d be
       -0.040478475 -1.630074e-07 5.5667494e-29 -0.21649282
0000b0 94 18 a9 be c8 83 78 be 9f 00 54 3d 7a 34 ed bd
       -0.33026564 -0.2426902 0.051758405 -0.11582275
0000c0 dc c4 50 bf 70 9c 6b be 67 4e 46 3e dc 93 69 be
       -0.81550384 -0.23008895 0.19365846 -0.2281031
0000d0 b8 a1 8a 3e 9b bc 4e be d3 2c 26 3d ad 21 c3 be
       0.27076507 -0.20189135 0.04057009 -0.3811163
0000e0 07 c7 e5 be bd f9 32 be 38 47 55 3e 4c 63 e0 be
       -0.44878408 -0.1747808 0.20827949 -0.43825758
0000f0 7e 7f 55 3e d8 c7 65 3d f2 b9 42 be c6 87 77 be
       0.20849416 0.05609879 -0.19016245 -0.24172887
000100 a4 6e 31 3e 15 45 c0 3c 9c 45 81 bc 04 29 f4 bb
       0.17327362 0.02347044 -0.015780263 -0.0074511785
000110 5b 60 9a bd b2 5d d6 3d 1a 2a d5 bd 78 5b 14 3e
       -0.075379096 0.1046709 -0.10408421 0.14488018
000120 48 be b2 3c 37 95 a2 9b 11 42 db 16 9b db 46 3e
       0.021819249 -2.689708e-22 3.5423052e-25 0.1941971
000130 df 2b e6 3d 25 f9 41 bd c5 f9 31 be c9 7d a0 bd
       0.112388365 -0.047356743 -0.17380436 -0.078364916
000140 ff c6 21 3c 0d f5 9b 3e 7d fe 06 3e c4 50 9e bd
       0.0098741045 0.30460396 0.13183017 -0.077302486
000150 6a f9 02 bc 16 87 4a 3e 9e 5e 76 3c e5 ff 85 be
       -0.007994035 0.19778094 0.015037207 -0.26171795
000160 82 06 36 bd d5 c5 6e 3d 6f b6 54 3d 11 66 6c 3e
       -0.0444398 0.058294136 0.051931795 0.2308581
000170 d1 a1 a2 bd fb ed 43 ba 97 ea 46 b7 95 ad 6d be
       -0.0794102 -0.00074741215 -1.1856339e-05 -0.23210748
000180 ab 6e 70 3e c1 a7 57 3e a1 dc 9a bd 3a 85 2b 3e
       0.23479716 0.21060087 -0.07561613 0.1675004
000190 b2 19 a2 be 7d 51 f7 3e 3d d5 84 3c 13 78 4a 3e
       -0.3166023 0.48304358 0.016214961 0.19772367
0001a0 91 b8 2a be ad d6 47 92 4f 68 8a 30 e8 36 f4 3e
       -0.16671969 -6.3057936e-28 1.0070468e-09 0.4769814
0001b0 da 9c a5 3e 14 4e 00 be cc 69 83 be 8a bf bb bd
       0.3234623 -0.12529784 -0.25666654 -0.091673926
0001c0 6f 2f d1 3e 12 54 fc 3e 10 58 0a 3e d4 c5 ee 95
       0.408565 0.4928289 0.13510156 -9.643955e-26
0001d0 e0 38 a4 be 26 ef 3a 3e 71 41 72 bc 78 c0 33 be
       -0.32074642 0.1825529 -0.01478611 -0.1755389
0001e0 81 6b 87 be 2c cd 19 bd 83 17 57 3d 38 a4 dc 3e
       -0.26449206 -0.037549183 0.052512657 0.4309404
0001f0 0e ba 10 be 52 54 12 3e 78 7c 4d 95 ad 2a b5 be
       -0.14133474 0.14289978 -4.149761e-26 -0.35384122
000200 38 aa c7 bd 07 01 8d 3e 94 41 80 3e d8 19 33 3e
       -0.097492635 0.27539846 0.25050032 0.17490327
000210 67 a7 b2 be 02 81 f7 be 53 72 85 39 d4 d8 43 3e
       -0.34893343 -0.48340613 0.00025452915 0.19125682
000220 c2 d0 6a 3e 42 ab 86 30 56 f8 09 18 39 17 90 bd
       0.22931197 9.798458e-10 1.7832213e-24 -0.07035679
000230 6e 64 95 be 62 8b 8b be 76 53 0f be 36 29 f6 bd
       -0.29178184 -0.27254778 -0.13996682 -0.12019579
000240 30 3a 00 bf 1f 1e 83 be ce 71 ec 3d 19 be 03 be
       -0.5008879 -0.25608918 0.11545144 -0.12865485
000250 d2 5f 31 3d e2 97 91 bd 63 8e c6 bd 8d 94 08 be
       0.043304272 -0.071090475 -0.09695127 -0.13337918
000260 cb 15 2f be 44 ad 99 3c c2 a4 97 3c f1 4e 9e be
       -0.17098157 0.018759377 0.01851118 -0.30919603
000270 6d 24 e0 3d cc fc 80 bd 08 b3 30 be f8 fd 87 bd
       0.10944448 -0.06298217 -0.17255795 -0.066402376
000280 da 3f 22 3e 97 15 ab bd f3 29 cd 3c 7c 69 50 3e
       0.1584467 -0.08353727 0.025044417 0.20352739
000290 44 72 ac bc fe 99 26 3e ef 0e c5 3d c3 10 20 bd
       -0.02105058 0.16269681 0.09621989 -0.039078485
0002a0 63 8f 2a 3d 53 e6 15 33 5e 75 17 0e 35 44 c6 3e
       0.04164065 3.4901245e-08 1.8668697e-30 0.38723913
0002b0 d7 5c b5 3d 74 40 34 be f7 0e 81 3c 3a 88 4e be
       0.088555984 -0.17602712 0.015754206 -0.20169154
0002c0 e7 4a da 3e 4c 23 0b 3f 51 0f 2c 3e a5 5d f8 bc
       0.4263527 0.54350734 0.16802718 -0.03031809
0002d0 f6 53 6d be 18 23 80 3e 11 af 88 3d 03 5c 6d be
       -0.2317656 0.25026774 0.06674016 -0.23179631
0002e0 9d 93 1a be c8 5a f3 bd 6b 86 25 bd ba 70 a2 3e
       -0.15095372 -0.118825495 -0.040411394 0.3172663
0002f0 ef ba df bd 36 3c a1 bd 07 b1 19 b9 06 9e de bd
       -0.10924327 -0.078728124 -0.00014657165 -0.10869984
000300 2e 92 f8 3d 6f 9f b8 bc c4 33 36 bc b4 5c 6f be
       0.121372566 -0.022536961 -0.01112074 -0.23375207
000310 8f 46 98 bd 36 b7 8d be fc dd 72 3d f0 ee ac bd
       -0.07435333 -0.2767884 0.059293732 -0.08444011
000320 f5 e4 f2 bd 49 ea 9b 0e 4e de 11 11 d2 f1 98 be
       -0.11860076 3.843606e-30 1.1506986e-28 -0.29871994
000330 1a ef 04 3e d7 6f 4d bd 78 44 55 bd 3a 2d b9 bd
       0.12981835 -0.050155487 -0.05206725 -0.090418294
000340 42 f8 69 be e7 d3 2c be 65 1c 8a bc b9 c0 bb 3e
       -0.22848609 -0.1687771 -0.016859243 0.36670473
000350 23 ab 4a bd d6 a9 b5 bd 39 b0 20 3e e7 46 cd 3e
       -0.049479615 -0.08870284 0.15692224 0.40093157
000360 d9 13 ad 3c 0f 31 b4 3d e3 da 3d 3e c4 1d 49 be
       0.021127628 0.0879842 0.1854053 -0.19640261
000370 8c cb 00 3e 2d 6a 2b 3e 3e ad ee 3e d6 fd 9b 3e
       0.12577647 0.16739722 0.46616548 0.304671
000380 f2 7f 6d bd e8 19 48 bc 16 4e 25 3e 37 ef 3c 3e
       -0.057983346 -0.012213208 0.16143069 0.18450628
000390 4e d4 14 be 2b 0e 86 3e f4 07 d4 bd 43 0c 02 be
       -0.14534113 0.26182684 -0.103530794 -0.1269999
0003a0 0e 70 d2 bd 2a 15 05 10 6a ee 23 28 e6 92 86 3e
       -0.10275279 2.624593e-29 9.1000155e-15 0.2628395
0003b0 f8 bc e3 bd b2 24 bd bd 2a 6b a6 bd 1d 03 d8 bc
       -0.11120027 -0.09235515 -0.08125909 -0.026368672
0003c0 0c a4 8a 3e ba 7c bd 3e 42 62 eb bc b6 e1 41 af
       0.27078283 0.3700922 -0.028733376 -1.7633436e-10
0003d0 f4 72 2f bd 7f 0b bb 3d 20 18 e9 3b a9 fe c0 bd
       -0.042834237 0.09133052 0.0071134716 -0.094235726
0003e0 d1 d2 00 be 7d ac 9e bd 06 dc 60 3e d0 3a 8e 3e
       -0.1258042 -0.07747743 0.21958932 0.27779245
0003f0 5b 64 d0 bd d4 4d 04 3e f7 c3 20 bc 37 14 3a be
       -0.10175391 0.12920314 -0.009812347 -0.18171774

2.bias f4 [32]
000000 11 85 8d 3d 0f b5 62 bc 20 aa 25 bd 20 9a 3e be
       0.06910146 -0.013837113 -0.040445447 -0.18613482
000010 95 78 82 3e ad 3c 79 be 6c ea bb 3d 7d 0f 46 3e
       0.25482622 -0.24339552 0.09175572 0.19341846
000020 9c f3 49 3d bd fd c8 3d 7d a8 93 b3 cc bb f1 3d
       0.04930459 0.09814022 -6.875869e-08 0.118033975
000030 18 03 d8 bc eb 79 62 be 57 57 1c 3e 52 b7 b8 bd
       -0.026368663 -0.2211682 0.15267693 -0.090193406
000040 1b 21 b3 3b 27 0c 3c 3e ab e2 02 be fc e2 68 bd
       0.005466593 0.18364011 -0.1278178 -0.056857094
000050 a6 e0 df 3d ae a4 4d bd ca 45 5d bd b9 c7 28 bc
       0.1093152 -0.05020588 -0.054021634 -0.010301524
000060 c4 da 86 3c 28 c1 3f bd c2 07 cf bd 13 81 9d b9
       0.016461737 -0.046815068 -0.101089016 -0.0003004154
000070 55 93 95 3d d0 06 66 3d f9 f4 e9 bd a9 b9 14 3e
       0.07303492 0.05615884 -0.11423678 0.14523949

4.weight f4 [32, 32]
000000 67 63 ab 3e d6 b4 98 bd f5 fb 87 bd 0e c2 18 3f
       0.33474275 -0.07456367 -0.06639854 0.59671104
000010 45 42 fe 3d 5c ed 9b 3e ec 4b f9 bd 5f d6 88 3e
       0.12414984 0.30454528 -0.12172684 0.26726052
000020 af 81 d1 3c fd a8 e6 3d e4 10 20 2e 5c 4f 8e 3d
       0.025574533 0.11262701 3.639479e-11 0.0694873
000030 eb de 7a be 38 a6 d9 bd 7c a3 12 be 11 38 61 bb
       -0.24499099 -0.10627407 -0.14320177 -0.0034365694
000040 0a c6 1d bd 81 ee 8a 3b 1c 71 78 3b 25 ac 35 3d
       -0.038518943 0.0042398577 0.0037909215 0.044353623
000050 58 fc d0 bd 11 12 3d 3c 54 1c c6 3e 72 37 1d 2d
       -0.10204381 0.011539952 0.38693488 8.936728e-12
000060 63 6a 8b 3d 9f 1c c0 3d f3 d7 10 3f 8a d7 03 8e
       0.06807401 0.09380459 0.5657951 -1.6250775e-30
000070 ce 45 dd 3d 89 46 f8 3d 7c d5 a0 be df d6 dc bd
       0.1080433 0.121228285 -0.31412876 -0.10783171
000080 66 3a 9d 3e 8e b6 70 be 9a 5c 08 3d 54 fc 14 3f
       0.30708617 -0.23507139 0.033291437 0.5819752
000090 f2 d6 59 bd b3 0e a6 3e a0 74 3d bd 10 51 7d 3e
       -0.053183503 0.3243309 -0.0462538 0.24737954
0000a0 a7 ab 16 3e ad 6c c2 bc 76 8d f5 ad b8 b4 5e be
       0.14713918 -0.023733461 -2.7916097e-11 -0.21748626
0000b0 fb 9a 23 be 68 89 13 bf 6a ff a2 bc 2f bb 6b bc
       -0.15977089 -0.5763154 -0.019897182 -0.01438789
0000c0 00 8b 95 b9 81 1d c5 3c df d6 32 ba 8c ab 89 3e
       -0.00028523058 0.02406192 -0.00068221794 0.26888692
0000d0 9e 4b 33 bd 27 07 39 bb 3f cf 6b 3e 8f 56 8c 1d
       -0.043773286 -0.0028233023 0.23028277 3.714719e-21
0000e0 a2 45 dc 3d a3 58 40 3e db de 1b 3f ec 58 fd ab
       0.10755469 0.18783812 0.60886925 -1.8001412e-12
0000f0 f1 86 80 3d e1 4d 69 3e 77 0d 2f be da 6e 3c 3e
       0.06275738 0.22783615 -0.1709498 0.18401662
000100 9a 5a e7 2c 98 c4 a4 b9 ba 37 08 3d 41 dd 77 b7
       6.5754737e-12 -0.0003142699 0.03325627 -1.4773862e-05
000110 59 41 55 b4 7d 4f 9d 3b d0 03 37 3c 73 53 c6 b5
       -1.9860944e-07 0.0048007355 0.011170343 -1.4776437e-06
000120 50 d3 ae 3c 84 ef c9 b8 a0 fa 16 31 9d 8f 8a 3c
       0.021340996 -9.62904e-05 2.1970337e-09 0.016914183
000130 b2 d5 aa 36 63 e0 b3 b2 c7 2d 51 3c 14 58 82 0f
       5.091272e-06 -2.0940382e-08 0.012767262 1.2852916e-29
000140 b3 16 b8 3b 2a d9 6c 3c a1 c5 7e 3c a2 d5 fd bb
       0.0056179403 0.014456073 0.015550048 -0.0077464143
000150 6c ae d7 8f b4 11 b3 3a 19 ee 41 39 8c 24 4c 2f
       -2.1267822e-29 0.0013661892 0.00018494613 1.8566676e-10
000160 1c f7 2e bd 41 64 c0 bb 97 f5 d1 8d ff 1c 5c 8e
       -0.04271613 -0.005871326 -1.2939743e-30 -2.7131055e-30
000170 bf af 20 3c f1 3b 73 39 59 fc bb b2 c5 9b 43 bb
       0.009807526 0.00023196616 -2.188442e-08 -0.0029847485
000180 37 f3 90 3e 88 d1 09 be 5e 4d 83 3c 58 f2 bb 3e
       0.28310558 -0.13458836 0.016028102 0.3670833
000190 90 24 ca bd fe 70 18 3e a8 4e fc bc fb 62 85 3e
       -0.09870255 0.14886853 -0.030799225 0.2605208
0001a0 25 3f bb bc 8d a9 56 3e 59 77 e8 8f f4 8d 49 be
       -0.022857258 0.20963116 -2.2922937e-29 -0.19683057
0001b0 10 aa 11 bc ab bf a0 be 6d f0 e2 bd 60 a5 de bd
       -0.008890644 -0.3139623 -0.11081014 -0.108713865
0001c0 5d 72 7f 3e 2f e0 56 3e 7a af 3b bd 53 73 4a 3e
       0.2494597 0.20983957 -0.045821644 0.19770555
0001d0 ea cd 23 bb 37 95 b2 bd 12 31 19 3e a6 e7 44 30
       -0.002499456 -0.08719867 0.14960125 7.1633577e-10
0001e0 f9 25 78 bd 64 3f 0b 3e 2e d9 8e 3e a4 84 90 29
       -0.06058309 0.135984 0.2790007 6.417894e-14
0001f0 d8 d5 ef 3d d0 ea 30 3e a2 77 16 bd 1f 89 b6 3d
       0.11710709 0.17277074 -0.036735184 0.089128725
000200 17 88 31 be 07 75 a5 3e 6c 9c 0a be 0f 1d c9 bd
       -0.1733707 0.32315847 -0.13536233 -0.098199956
000210 75 7a 91 3c 21 d7 af 3c 62 5a 42 3e ff 8b 15 be
       0.017758587 0.021464886 0.18979791 -0.14604186
000220 3e 86 88 bd ed 34 82 bd 72 a8 4f 33 1c 86 4d 3e
       -0.0666623 -0.06357751 4.8349143e-08 0.2007069
000230 a0 0e 7d 3e 83 17 dd 3e 25 c1 2c 3e 2a c6 e9 3d
       0.2471261 0.43182 0.16870554 0.1141475
000240 e5 28 ae be 92 a4 54 be ea f7 1c 3b f7 02 1a bc
       -0.34015575 -0.20765904 0.002395148 -0.009400121
000250 b2 80 ef bd a5 c9 f0 0e a5 09 48 3d 07 d4 2a 10
       -0.116944686 5.9358745e-30 0.048837323 3.3689928e-29
000260 d7 a1 82 bc 51 57 05 3d f5 24 a6 be 85 26 ce a9
       -0.015946312 0.032553975 -0.3245007 -9.15492e-14
000270 ae 7a a0 3e e5 51 ef bd e1 ab 25 3e 2d 08 67 3e
       0.31343597 -0.11685542 0.16178848 0.22561713
000280 2b 33 9f 3e 93 35 67 be 0d 5a 47 3e 9e 78 11 3f
       0.31093726 -0.2257903 0.19467945 0.5682467
000290 9b c2 d5 bd 0e 6c 55 3e c6 0f ec bd b6 d5 06 3e
       -0.10437509 0.20842001 -0.11526446 0.13167462
0002a0 cc a1 f2 bd 7a 60 f6 3d 79 6a 5a 8e 17 52 ae bc
       -0.118472666 0.1203012 -2.692184e-30 -0.021279378
0002b0 df 1a 33 be f2 61 22 bf 8a 4a ce 3d cc 53 eb 3d
       -0.1749072 -0.634307 0.10072811 0.11490592
0002c0 82 37 87 bd 4b 4c 0c 3e b2 87 23 bd 68 23 e0 3d
       -0.06602384 0.13700978 -0.03992433 0.10944253
0002d0 25 55 35 3e 35 40 28 3b 20 67 8d 3c b8 d1 43 34
       0.17708261 0.0025673036 0.017261088 1.8237085e-07
0002e0 50 78 bd 3d 7e 89 b4 3d 9b c9 0f 3f 68 3c 0e 93
       0.092514634 0.08815287 0.56167 -1.7952702e-27
0002f0 9c 95 90 bd d5 33 41 bc ab e0 de bc 0d 2c cc 3d
       -0.07059786 -0.011792143 -0.02720674 0.099693395
000300 cd 6f 1e be 63 e6 76 3e 87 b6 57 be c6 9d 36 bd
       -0.15472336 0.24111323 -0.21065722 -0.04458406
000310 e7 d9 2f bd 79 0b c8 bd da db 91 3d 2d 73 d9 bd
       -0.042932417 -0.09767813 0.071220115 -0.10617671
000320 0d f2 c4 bc 6a 19 07 be c1 02 2c 2a a2 2d c5 3d
       -0.0240412 -0.13193288 1.5277624e-13 0.096278444
000330 c6 6b 7d bc d4 5a 1d 3f 6e f5 a0 3d 08 8d 42 bc
       -0.01546759 0.6146672 0.07859312 -0.011874445
000340 63 a1 89 be 91 57 05 bd 3a 16 1f b6 e6 cd 5f bd
       -0.2688094 -0.032554213 -2.3705784e-06 -0.05463972
000350 e9 ed f6 3c a6 f1 90 b1 20 e0 35 bd d2 c8 3a ab
       0.030142741 -4.218424e-09 -0.044403195 -6.635917e-13
000360 6a 54 68 3e 5d 39 bb 3d a6 75 ac be 8a e7 0e 33
       0.22688451 0.091418006 -0.3368351 3.3272535e-08
000370 6e 88 8c 3e 9e 19 85 be 43 49 31 3e 15 c8 fa 3d
       0.27447838 -0.25996107 0.17313103 0.12245194
000380 b5 fe f3 33 fa 57 8d 0b 07 de ab 2d 00 62 c6 a0
       1.13619e-07 5.4443597e-32 1.953905e-11 -3.3607356e-19
000390 56 20 8a 2b bd fc 26 b4 92 8e ec 2f 1a 77 d7 b0
       9.814465e-13 -1.55519e-07 4.3029452e-10 -1.567716e-09
0003a0 08 6b 13 32 f7 d5 1b 8e ae 35 cb b1 8d bd 7d 90
       8.580862e-09 -1.9208245e-30 -5.9141803e-09 -5.0041477e-29
0003b0 36 60 5a 0e 08 74 1c b2 51 6c 36 11 5e cb cc 8e
       2.6916898e-30 -9.1067776e-09 1.4390646e-28 -5.048572e-30
0003c0 11 c6 35 2e d9 ab b3 90 cc fb ee 1e 8c 31 c8 0d
       4.1330554e-11 -7.0867824e-29 2.5303371e-20 1.233788e-30
0003d0 e4 5c 03 8c 3c 27 21 0f 01 2d 67 a6 d9 a5 29 b0
       -1.0119826e-31 7.945469e-30 -8.0205216e-16 -6.1717526e-10
0003e0 65 5b f9 10 f4 74 ef b2 62 7c 54 16 4f 36 33 0e
       9.8354e-29 -2.7876446e-08 1.7164472e-25 2.2089602e-30
0003f0 62 0d a2 a6 93 b3 c3 92 a3 63 90 8f 50 90 05 8f
       -1.1244636e-15 -1.2350499e-27 -1.4237875e-29 -6.5852e-30

4.bias f4 [32]
000000 51 9c bc 3d 73 c1 a2 3d 41 1d 84 bd 5c bf 10 3e
       0.092095025 0.07947054 -0.06450892 0.14135498
000010 05 09 04 bd 2a 88 dd 3c b3 d9 39 bd d7 41 47 b3
       -0.032235164 0.027042467 -0.04537363 -4.639318e-08
000020 f5 13 83 3c 65 0a 22 3d 89 84 eb b9 b3 28 02 3e
       0.016000727 0.039560694 -0.0004492144 0.12710838
000030 a1 8e 01 be 52 7f 9b b3 d4 a6 98 bd 26 ec 0c bd
       -0.12652065 -7.2409094e-08 -0.07453695 -0.034404896
000040 5b bd 85 bd c2 a2 d9 bb 03 79 74 3d f7 85 05 bc
       -0.06530257 -0.0066417167 0.05968572 -0.0081496155
000050 29 2c a0 3d 88 33 22 bd 3c 4b 41 3d 5f 64 16 3e
       0.07820923 -0.039599925 0.04719089 0.14686726
000060 58 cc ec 3d 11 59 61 2b 9f 57 c3 af 3b b3 8b bd
       0.11562413 8.005966e-13 -3.5532552e-10 -0.06821295
000070 91 ce 1d 18 e3 8d c4 3d 37 70 08 bb 84 30 2e 3e
       2.0396064e-24 0.09597375 -0.0020818838 0.17010695

6.weight f4 [2, 32]
000000 3c 98 80 3e 46 ab 27 3e 59 a8 80 3c 66 7e 30 3e
       0.25116146 0.1637393 0.015705274 0.17235717
000010 61 a3 2a be ca d1 d4 3e e5 a9 a2 be 2e 89 cd 16
       -0.16663887 0.41566306 -0.31770244 3.320611e-25
000020 b7 7c da be bd 8b 01 bf 3b b3 0f 13 3a b8 7a 3e
       -0.42673275 -0.5060385 1.8137505e-27 0.2448434
000030 0c 83 3c 3f d0 72 a9 0f da b5 af be 66 4b 24 be
       0.7363746 1.6708911e-29 -0.3431843 -0.16044387
000040 e6 cf 34 3f 29 fa 27 3e 44 60 02 be 92 7b 8d 3b
       0.7062973 0.16404022 -0.12732035 0.0043177092
000050 6c 71 f9 3e 3d 4e b8 be 11 1a 8e be 1b 9c b9 be
       0.48719347 -0.3599719 -0.27754262 -0.36251912
000060 48 c0 a6 be b5 0c de ae 65 8c 22 90 f1 61 1c bf
       -0.32568574 -1.00976484e-10 -3.2057023e-29 -0.61086947
000070 0f 37 12 34 90 43 70 be 23 30 9c be e9 79 cd be
       1.361734e-07 -0.23463273 -0.30505475 -0.40132073
000080 80 69 33 be 82 33 7b be bc b3 f0 3c 69 6d 7f be
       -0.17520714 -0.24531367 0.029382579 -0.2494408
000090 70 fc 5d 3e a1 eb d9 be 67 9b b3 3d 20 07 a2 18
       0.21678329 -0.42562583 0.08769875 4.1883213e-24
0000a0 8b b5 cc 3e 94 7b b2 3e 5e 17 8f b3 b8 eb 84 be
       0.39982256 0.34859908 -6.663207e-08 -0.2596109
0000b0 2b d4 33 bf fe e7 d2 b2 68 c7 b2 3e fa 61 5a 3e
       -0.7024562 -2.4552715e-08 0.3491776 0.21326438
0000c0 68 7c 35 bf c0 af 7f be dd aa e9 3d 51 4e 89 bb
       -0.70892954 -0.24969387 0.11409543 -0.0041902442
0000d0 da 80 fa be c7 92 5c 3e 1c 33 de 3e 17 e7 4d 3e
       -0.4892643 0.21540366 0.43398368 0.20107685
0000e0 e6 f2 c4 3e de 9a 18 2a 81 53 77 8f cb b8 a2 3e
       0.38466567 1.3554042e-13 -1.21941225e-29 0.3178161
0000f0 90 b3 15 30 f7 c0 09 3f 83 94 38 3e 1b e2 b1 3e
       5.446106e-10 0.53810066 0.18025403 0.34742817

6.bias f4 [2]
000000 52 67 22 3e 3d 7c 96 3d
       0.15859726 0.07347915

exp_avg f4 [32, 2]
000000 44 61 8d bb 79 8a 4e bb aa 39 c9 3a e9 84 db ba
       -0.0043145735 -0.0031515642 0.0015352268 -0.0016747984
000010 eb 3b c5 3b 3c 61 fe bb b5 48 49 3b 68 e4 03 bc
       0.0060191057 -0.007763056 0.0030713503 -0.008050062
000020 a8 b1 9d bc 08 77 d6 3b 26 bc bc bb 28 6a 9f bb
       -0.019249752 0.0065449513 -0.0057597337 -0.0048649497
000030 d5 85 dc ba e4 e5 13 3b 41 10 90 bb aa 4f 4f ba
       -0.0016824553 0.0022567445 -0.004396469 -0.0007908294
000040 e0 38 03 3b 84 99 fb 38 74 49 82 b4 2a 5e 0d 2e
       0.0020022914 0.00011997207 -2.426783e-07 3.2143323e-11
000050 b7 34 68 b4 ea 22 c2 0f 85 62 09 3c 9e 8d d3 bb
       -2.1625861e-07 1.9143325e-29 0.008385305 -0.006456091
000060 64 6d 1a 3c 84 50 9d 3c f9 71 95 3a 39 d4 5b 3a
       0.009425495 0.019203432 0.0011401764 0.00083858107
000070 16 4c 59 bb 7d 56 8a 3b e8 ff ff 3a 93 9e ad 3a
       -0.0033156923 0.004221736 0.0019531222 0.0013246111
000080 91 92 80 bc 4a fb 9d b8 d5 7a 88 3b 22 71 53 bc
       -0.015694888 -7.5331496e-05 0.0041650333 -0.012905391
000090 68 d5 41 bb b3 b1 af b9 11 74 a3 bc bc b8 7e 3c
       -0.0029576663 -0.00033510997 -0.019952806 0.015546974
0000a0 64 e7 5c 3a e9 0b bd 3b e6 c0 71 ba 92 bf 41 bc
       0.0008426814 0.005769242 -0.00092221645 -0.011825459
0000b0 8c 1e 26 3b 45 dd 62 3b 6f dd a5 bc c8 73 24 3c
       0.0025347797 0.003461675 -0.02024719 0.01003737
0000c0 41 74 4c bc bc 7c 76 3b de 14 e8 3a bc 4c 25 3b
       -0.012478889 0.0037610969 0.0017706414 0.002522274
0000d0 b7 07 04 3b b1 f8 05 bb 39 3c 05 bc 08 c1 10 bc
       0.00201462 -0.002044242 -0.008132034 -0.008835085
0000e0 98 70 09 3b f9 f5 de ba 0a 8d 89 3b 09 af f2 ba
       0.0020971652 -0.0017010561 0.0041977214 -0.0018515299
0000f0 e6 e1 32 bc d4 aa cc 3c f1 89 b7 bc 31 fd 40 3c
       -0.010918116 0.024983801 -0.022404643 0.011779116

exp_avg_sq f4 [32, 2]
000000 86 b4 91 39 83 c7 ed 39 c9 25 2a 39 be 43 0d 38
       0.00027791056 0.0004535281 0.0001622654 3.368011e-05
000010 66 4e 7f 3a 83 19 83 3a b7 8f 87 3a ca de 1e 3a
       0.00097391603 0.001000211 0.0010342513 0.000606042
000020 64 48 1b 3b e9 0c e5 3a 39 93 b9 3a 11 51 bf 3a
       0.0023694271 0.0017475161 0.0014158256 0.0014596303
000030 f2 2d e0 39 01 3a 1a 39 94 7d b2 38 25 23 26 39
       0.0004275884 0.00014708193 8.511092e-05 0.00015844086
000040 6d e3 4c 3a 8a 00 35 3a cd 41 5e 2e 8b 57 03 2d
       0.00078158715 0.00069046824 5.05354e-11 7.465926e-12
000050 d4 03 55 2e e8 a1 3d 2b 50 ed 23 3b 83 44 a7 3b
       4.8433993e-11 6.737098e-13 0.0025013275 0.005104603
000060 ba 99 74 3b 4b a4 87 3b 14 2d c9 39 49 12 6b 39
       0.0037323073 0.0041394583 0.00038371293 0.00022418158
000070 94 24 73 39 f2 22 25 39 50 45 61 39 42 72 94 38
       0.00023187912 0.00015748644 0.00021483493 7.078472e-05
000080 e4 3f 18 3b 8d bc a8 3a bc b6 2a 3b 90 e5 02 3c
       0.002323144 0.0012873575 0.002604886 0.007989302
000090 1f 06 c5 39 df 5d de 38 b9 cf 68 3b f0 c9 c7 3b
       0.0003757933 0.0001060327 0.0035524203 0.006097071
0000a0 0e 0c cb 3a da b5 05 3b 6b 43 9f 3a ca 2a e8 3a
       0.0015491263 0.0020402581 0.001215083 0.0017712947
0000b0 83 52 32 3a 6a a1 94 39 b4 d8 14 3c 73 c2 f9 3a
       0.00068024563 0.00028349023 0.009084869 0.0019055143
0000c0 c0 26 24 3b eb 05 10 3b 07 f3 cc 39 38 29 f5 39
       0.002504751 0.0021976184 0.00039090982 0.00046760752
0000d0 28 0f 08 39 b1 39 7b 38 6e 03 c1 3a 6a 4c 87 3b
       0.00012975617 5.9896793e-05 0.0014725754 0.0041289823
0000e0 9a 93 b0 3a 3e ec 9f 3a 76 65 79 39 1e 20 7c 38
       0.0013471723 0.0012201143 0.00023784288 6.0111393e-05
0000f0 73 36 93 3b dc d9 94 3c 20 41 e1 3b a4 a5 14 3b
       0.004492575 0.01817029 0.0068742186 0.0022681737

exp_avg f4 [32]
000000 87 aa 94 bb 25 7a 15 bb dc 61 48 3c 37 68 d9 bb
       -0.00453693 -0.00228084 0.012230363 -0.006634738
000010 41 e3 a9 bc d8 95 60 bb cb 42 ae b9 6a cd d2 bb
       -0.020738246 -0.0034269001 -0.0003323763 -0.0064331787
000020 35 ed 08 3c b3 7e f2 b6 48 45 6a b7 32 5b 00 bc
       0.008357336 -7.2269117e-06 -1.3963618e-05 -0.007834243
000030 97 83 ad bc f2 ac 9d 3a 99 07 3e bb cb 20 2e bb
       -0.021180911 0.0012029691 -0.0028996228 -0.002656984
000040 65 b5 60 bc e5 6e 45 bc 0a 83 59 39 39 ab d1 bc
       -0.013715123 -0.012050365 0.00020743549 -0.02559434
000050 ef e5 27 3c d9 62 31 bc f9 fc fc bb 50 04 b2 bc
       0.010247692 -0.01082679 -0.0077205864 -0.021730572
000060 c6 08 39 bc d5 05 5d bb e7 01 68 bb 7d 91 0d bc
       -0.011293596 -0.00337254 -0.0035401525 -0.008640644
000070 fe 95 4e 3c b7 cb bb bb e2 d8 da bc 88 45 cd bc
       0.012609003 -0.005731072 -0.026714746 -0.02505757

exp_avg_sq f4 [32]
000000 6e 82 2a 3a 7f 66 23 39 68 5e 08 3b cf 2a a2 3a
       0.0006504421 0.00015583074 0.0020808224 0.0012372377
000010 fe 8b 71 3b 97 7b 53 3b cf cd db 39 08 56 9f 39
       0.0036857123 0.003226971 0.00041924274 0.00030390942
000020 e8 1a bc 3a 83 44 bd 2f 2e 37 33 30 b1 6f d0 3b
       0.001435128 3.442758e-10 6.5198236e-10 0.006360971
000030 80 d0 0c 3c 73 49 4f 3a 60 a5 bc 39 8b f1 af 39
       0.008594632 0.0007907368 0.00035981368 0.00033558565
000040 48 4b 87 3b a8 b4 17 3c ad 70 11 3a 38 a6 0e 3c
       0.0041288473 0.00925938 0.0005548101 0.008706622
000050 68 07 52 3b 6d 82 22 3b 8c b5 68 3a 67 a9 0a 3c
       0.0032047872 0.0024796978 0.000887715 0.00846324
000060 7f 5f 84 3b e6 5b 66 3a f8 46 42 39 93 a5 b2 3b
       0.0040397043 0.00087874976 0.0001852772 0.005451867
000070 da 8f 21 3b 34 89 8f 39 61 52 b5 3c dd 79 ef 3b
       0.0024652393 0.0002737731 0.022134008 0.0073082284

exp_avg f4 [32, 32]
000000 2f ec 98 3b 8b 32 68 3a d6 7d 0c 3b 50 23 22 3b
       0.004666827 0.0008857629 0.0021437309 0.0024740286
000010 fc 92 5d 3a 8e 93 51 ba 93 d5 05 3c d3 63 11 3c
       0.00084523833 -0.00079947046 0.008168596 0.008873898
000020 dc ad 09 3c 19 56 3b a2 dc 6b 1f aa be d9 9b 39
       0.008403268 -2.5388806e-18 -1.4159458e-13 0.00029726134
000030 56 58 88 3b 4e 68 82 3b 4a 5a 07 3c 57 2f 46 3c
       0.004160921 0.0039797192 0.008261273 0.012096248
000040 d9 a8 f4 38 fb 00 a4 39 dc 8b d1 3a a8 78 be 39
       0.00011666277 0.00031281248 0.0015987116 0.0003632952
000050 5f b4 be 3b 14 ee 53 3b 5f dc de 3b 3e 4d 3b 39
       0.0058198418 0.003233795 0.0068011726 0.00017862485
000060 6d 4a 6d 3a e7 b6 36 3b 06 04 10 bb 20 7f 2c 3a
       0.0009051923 0.0027880014 -0.0021975054 0.00065802224
000070 67 e7 a7 3b 40 12 2a 3c 6f de 8d 3a fc 10 fb 39
       0.005124021 0.010380328 0.0010823737 0.00047887105
000080 b3 ea 7c 3b e1 53 87 3a 10 82 b4 3b c4 73 c0 ba
       0.003859204 0.001032468 0.0055086687 -0.0014682938
000090 4a a2 13 3b 4c 98 ee 3a 7d 60 c1 3b 15 a9 7d 3a
       0.0022527152 0.0018203347 0.005901395 0.0009676379
0000a0 ab bf cf 3b 04 3c 97 ad 54 7f 4b 0a bb ba 0e 3a
       0.0063399873 -1.7193365e-11 9.798042e-33 0.0005444695
0000b0 a8 5c a1 3a 05 c5 8b 3b d3 29 70 3b 8a 62 d6 3b
       0.0012310939 0.00426543 0.0036646023 0.0065425085
0000c0 6a ab 08 3b dc 94 19 3a 80 61 3f 3b de ab f9 b7
       0.0020854124 0.00058586686 0.0029202402 -2.9763145e-05
0000d0 92 6a 8a 3b aa b6 89 3a ef f4 77 3b 7a 68 7d 37
       0.00422413 0.0010506709 0.00378352 1.51043005e-05
0000e0 1e 84 a6 39 5b 74 82 3b 38 89 83 3b 84 e3 7c 3a
       0.00031760422 0.003981156 0.0040141605 0.00096469396
0000f0 3d 63 89 3b 27 94 b8 3b 8b 23 80 b9 bc ea ad b6
       0.0041927383 0.0056328955 -0.00024440544 -5.1831285e-06
000100 b0 b9 4d ba c0 7e 6d b9 c3 11 9f 38 3d 46 a4 38
       -0.0007847799 -0.000226493 7.585019e-05 7.833212e-05
000110 aa 0b 15 38 4a b4 2b b9 6f 17 ac b9 b7 1a 7b b9
       3.553523e-05 -0.00016374994 -0.00032823856 -0.00023947177
000120 90 e5 dc b9 53 30 1b 95 0d d7 57 10 27 7e 87 b8
       -0.00042132707 -3.1340122e-26 4.2566943e-29 -6.460799e-05
000130 c6 ed 06 b9 7e 05 2b 39 e1 50 e1 b8 3c c8 94 38
       -0.00012867813 0.00016309877 -0.00010743901 7.0944865e-05
000140 00 44 20 b9 32 9f a8 b8 d5 59 c1 b9 aa 2b 02 b7
       -0.00015284121 -8.040517e-05 -0.0003687876 -7.75877e-06
000150 6e 03 80 37 b5 f4 f3 b9 16 25 62 37 10 80 11 38
       1.5260386e-05 -0.00046530893 1.34792845e-05 3.468996e-05
000160 4b 45 10 37 a2 2c 10 3a 9d 8e 8b 38 78 5e 30 b9
       8.599202e-06 0.0005499815 6.6546e-05 -0.0001681986
000170 38 bd 64 b9 62 3f 8b 38 5f 81 a8 b0 c7 a8 ae 36
       -0.00021814264 6.6398425e-05 -1.2260378e-09 5.2052524e-06
000180 f1 cb 40 bc 89 1e bd bb 8b 9b 45 bc cc 0a 14 bb
       -0.011767373 -0.0057714623 -0.01206101 -0.0022589443
000190 d7 30 49 3a 47 d2 2e bb ae 2a 30 bc 98 66 ca bb
       0.0007674819 -0.0026675628 -0.010752363 -0.006176781
0001a0 e4 5f 52 bc d2 97 fd 8b fa 64 f3 29 02 52 17 bb
       -0.012840245 -9.768049e-32 1.08088844e-13 -0.0023089652
0001b0 fd 24 6d ba 8a fb 13 bb 8f 85 2a 39 38 44 a2 bb
       -0.0009046344 -0.002258035 0.00016262218 -0.00495198
0001c0 7c ee 16 bb 15 6f de ba cc 2a 47 bc 97 43 75 8f
       -0.0023030331 -0.0016970361 -0.0121562 -1.209245e-29
0001d0 ad bc 95 bb 1a f8 dc bb 70 64 50 bb 84 9d ce 39
       -0.004569611 -0.006743443 -0.0031798147 0.0003940874
0001e0 e4 cf 00 38 d3 df a5 bb 14 71 01 bc 1b 2b 5c bb
       3.071119e-05 -0.0050620823 -0.007900495 -0.0033595029
0001f0 8e 96 07 bc 78 fe 87 bb 33 c6 d4 8e c9 26 fd 38
       -0.008275641 -0.004150208 -5.2452894e-30 0.000120712044
000200 2f 5f a4 3a 5c 0d 40 3a bd 42 25 3b f5 80 08 ba
       0.0012540574 0.00073262095 0.002521678 -0.00052072044
000210 02 53 75 3a c7 34 80 3a d1 c8 0c 3b 26 d4 58 38
       0.00093583774 0.0009781354 0.0021482 5.169599e-05
000220 c4 eb 1a 3b 78 d7 ec 29 fc 15 86 11 c6 36 a7 39
       0.0023639062 1.0517883e-13 2.115502e-28 0.00031893532
000230 c0 19 c1 39 35 2f 03 3b 91 1c b9 3a 2e 30 16 3b
       0.00036831014 0.0020017151 0.0014122893 0.00229169
000240 0c e0 4b 3a 53 ec ac 39 77 7d a8 3a ae e9 ae 37
       0.0007777221 0.00032982472 0.0012854774 2.0851232e-05
000250 fc 56 d6 3a 1d 36 cf 39 12 d9 ae 3a a5 b0 b6 b8
       0.0016352828 0.00039522434 0.0013339838 -8.711339e-05
000260 1c 0b 1a 39 98 8e f8 3a cc ff 1a 3b 6e 0a f9 39
       0.00014690723 0.0018963395 0.0023651002 0.00047500752
000270 bf a3 ce 3a 1b 43 01 3b 55 3a 42 b8 84 6a b1 b8
       0.0015765353 0.0019723836 -4.630753e-05 -8.459858e-05
000280 cf ee 48 bb 46 57 f5 ba 81 e7 ea ba 2f a1 9d b9
       -0.003065992 -0.0018718026 -0.0017921777 -0.00030065465
000290 69 70 ca 39 b1 68 20 ba 3b e9 d8 ba 61 53 88 ba
       0.00038612194 -0.0006119116 -0.0016549 -0.0010400825
0002a0 65 a5 0e bb 16 39 82 2c c1 f4 a4 08 46 7b 82 ba
       -0.0021766063 3.70116e-12 9.927932e-34 -0.0009954951
0002b0 c8 d6 14 37 98 26 32 39 da d1 d2 39 aa 68 b1 39
       8.871495e-06 0.0001698978 0.00040210673 0.00033838052
0002c0 b0 09 ad b9 26 55 83 ba fb d4 40 bb 4a 60 4c b6
       -0.0003300435 -0.0010019883 -0.0029423821 -3.0454416e-06
0002d0 e1 52 29 b9 19 94 1a bb a2 ed 7b 38 41 bc 26 39
       -0.00016147971 -0.0023586808 6.0064376e-05 0.00015901124
0002e0 3f b2 3c 37 e8 82 33 37 24 54 ad ba 4c a0 98 ba
       1.1247174e-05 1.069971e-05 -0.0013223928 -0.0011644452
0002f0 df 9a b1 ba 6e a8 b0 39 e0 7e 81 b2 0a c1 78 38
       -0.0013550184 0.00033694826 -1.5075273e-08 5.930759e-05
000300 78 b5 49 39 89 eb ab 38 58 4a 02 bb fc 7b 98 b9
       0.00019236456 8.197787e-05 -0.0019880738 -0.00029084075
000310 f5 5b e4 b9 ef 5a e8 38 d9 59 11 bb 0f 9e ad ba
       -0.00043556062 0.0001107956 -0.0022178798 -0.0013245958
000320 41 06 12 bb 4f 50 5d 86 e9 1d f3 0a 1f 59 1e 39
       -0.002228156 -4.1624482e-35 2.34113e-32 0.00015101254
000330 02 d9 38 ba f5 d8 dc ba a4 0e d3 ba 0f 25 70 bb
       -0.00070513797 -0.0016849326 -0.0016102386 -0.0036643182
000340 cf 0d 6f b9 e5 56 5a 39 7f 48 51 ba 04 61 cd b8
       -0.0002279796 0.00020822471 -0.000798352 -9.793232e-05
000350 f3 a3 01 bb 39 63 c5 39 81 63 02 bb 65 50 86 b9
       -0.001978156 0.00037648695 -0.0019895735 -0.0002561837
000360 4a 94 95 b9 17 a3 0a bb f1 82 15 ba 19 59 38 39
       -0.0002852998 -0.0021154338 -0.0005703411 0.00017580799
000370 50 09 c5 ba 15 c5 4b bb 34 e1 ae b9 05 e4 50 b9
       -0.0015032683 -0.0031092812 -0.00033355656 -0.0001992137
000380 93 0a 84 ba ab 2a 96 ba 6f c2 a5 bb 03 ea f6 39
       -0.0010073952 -0.0011456808 -0.0050585787 0.0004709513
000390 85 7b 17 39 63 cc 47 b9 fa d8 21 bb 45 4c 27 3a
       0.00014446497 -0.00019054259 -0.0024695978 0.00063819095
0003a0 a9 c1 40 bb 0e 1d 18 09 e1 1f 95 21 94 54 77 b9
       -0.0029412305 1.8309996e-33 1.0105071e-18 -0.00023587263
0003b0 50 b5 e3 b9 a6 86 f4 ba 62 ad b8 39 dc 9e 8e ba
       -0.00043431902 -0.0018655851 0.00035224395 -0.0010881084
0003c0 a5 c1 e3 b8 9b e5 80 b9 90 2e 4a bb f8 bb b1 a8
       -0.000108602726 -0.00024585132 -0.0030850507 -1.9732466e-14
0003d0 08 9e cf ba 21 e5 4d b9 e2 d8 37 ba d3 2b 9d 38
       -0.0015839944 -0.0001963568 -0.0007013214 7.494506e-05
0003e0 ee 85 77 b5 15 90 1c bb 39 0d 80 bb 09 10 45 b9
       -9.2209564e-07 -0.002388959 -0.0039078263 -0.00018793358
0003f0 3c 14 0a bb d5 de 64 ba ba a0 84 b5 c6 4a 66 37
       -0.002106919 -0.00087307143 -9.881544e-07 1.3726478e-05

exp_avg_sq f4 [32, 32]
000000 20 38 80 3a 0e 95 49 39 3f 33 3f 3b 0b 9e db 37
       0.0009782352 0.00019224381 0.0029174832 2.6180429e-05
000010 5e c7 89 39 96 a1 88 38 a0 eb 95 3b af 78 aa 3a
       0.00026279216 6.515083e-05 0.004575208 0.0013005937
000020 15 00 a9 3b 6c 69 17 2c 6c 41 94 2c 91 08 3f 36
       0.0051574805 2.1516912e-12 4.2136763e-12 2.8466204e-06
000030 c2 29 87 39 20 85 0f 3b e6 cd 42 3b c0 fe 0a 3c
       0.00025780319 0.0021899417 0.0029724776 0.008483589
000040 c9 a7 08 39 ea c8 dc 33 87 e2 7b 3a 64 ef 1c 37
       0.00013032476 1.02810944e-07 0.00096086453 9.354062e-06
000050 35 39 25 3b e6 8e 55 38 e4 69 32 3b 93 c6 87 37
       0.00252111 5.0916242e-05 0.002722376 1.6185722e-05
000060 e7 04 93 38 be fb 2b 3b 61 18 86 3a fe 8a 10 37
       7.010419e-05 0.002624258 0.0010230654 8.6154305e-06
000070 60 a8 08 3b 42 9e cb 3b 84 e2 f0 37 94 39 1f 37
       0.0020852312 0.006213934 2.8715709e-05 9.4905445e-06
000080 79 61 84 3a 79 bc 14 3a d2 ee 16 3b d0 b3 b1 38
       0.001009985 0.00056738366 0.0023030532 8.4735104e-05
000090 54 b7 34 37 05 c1 9e 37 2c b5 00 3b e6 d7 eb 39
       1.07715205e-05 1.892495e-05 0.0019639237 0.0004498355
0000a0 51 2d 25 3b 88 ca f2 2c af 21 26 2a 57 ef 21 38
       0.0025204013 6.900539e-12 1.4755448e-13 3.8608294e-05
0000b0 45 25 83 38 9f aa 02 3a 44 bc e8 39 f7 aa 00 3b
       6.253509e-05 0.0004984531 0.00044390757 0.0019633153
0000c0 e6 e1 ae 37 fa 0c a0 37 0c c6 c8 3a 91 90 c9 32
       2.0847609e-05 1.9079529e-05 0.0015317812 2.346522e-08
0000d0 29 87 38 3a b2 8b 61 39 d6 c5 28 3a 53 b5 bc 32
       0.00070391834 0.00021509713 0.0006438171 2.1968537e-08
0000e0 af 5c 84 35 f4 c9 8b 3a d6 cb c6 3a d4 13 ca 37
       9.861741e-07 0.0010665045 0.0015166949 2.408951e-05
0000f0 70 e3 86 3a e5 94 b9 3a fe ec b9 34 a8 65 1b 32
       0.001029117 0.0014158754 3.463137e-07 9.045301e-09
000100 c3 b8 51 38 40 a5 ba 37 12 d9 a9 38 03 67 5e 36
       5.0001556e-05 2.2249878e-05 8.0989805e-05 3.3140539e-06
000110 01 eb db 34 da 21 10 36 1f 24 8e 38 a7 a6 8c 37
       4.0962917e-07 2.1477376e-06 6.777816e-05 1.6766904e-05
000120 73 0c c1 38 77 ce 9d 2b c5 be 6f 2b 03 43 d3 35
       9.205276e-05 1.1212826e-12 8.5174603e-13 1.5740228e-06
000130 a7 19 76 36 8a 4f 02 37 4b f8 ea 35 12 6d 1f 38
       3.6671788e-06 7.767123e-06 1.7506621e-06 3.8010134e-05
000140 d5 84 16 36 7e 6c 55 35 d1 83 88 38 b8 c0 ac 30
       2.242906e-06 7.950656e-07 6.509538e-05 1.2569421e-09
000150 bf 2c 83 37 76 ab 26 37 fe 03 62 37 91 3c 0c 34
       1.5637253e-05 9.934292e-06 1.3471579e-05 1.306055e-07
000160 2e 93 e3 32 90 cc 1c 38 79 63 7b 38 2c 0c b2 35
       2.6493208e-08 3.7383812e-05 5.9935704e-05 1.3265576e-06
000170 9d 4a 16 38 6e 59 e3 37 a1 37 91 2d 67 1e 85 32
       3.5832276e-05 2.7102153e-05 1.6509296e-11 1.5497063e-08
000180 20 4a 30 3b b9 64 08 3b 93 43 93 3b 32 72 60 39
       0.002689965 0.0020811989 0.0044941395 0.00021404846
000190 c3 9e ff 36 b8 d8 8e 38 03 a6 2e 3b d5 5e 00 3a
       7.6180745e-06 6.811455e-05 0.0026649244 0.00048969436
0001a0 2f f4 80 3b 64 36 b5 2a 54 e1 90 2c 41 61 32 39
       0.003935359 3.21898e-13 4.1177426e-12 0.00017011633
0001b0 c6 b3 35 37 53 1a 3d 38 cd d4 09 37 98 b7 2f 3a
       1.08302975e-05 4.5085628e-05 8.215383e-06 0.0006703078
0001c0 bc 52 60 38 8d 4e b8 38 cf 5b 95 3b 20 91 34 2b
       5.3482814e-05 8.788435e-05 0.0045580636 6.415025e-13
0001d0 0c dc d1 39 2d 45 55 3a de 30 80 39 c1 10 43 36
       0.00040027534 0.0008135613 0.0002445047 2.9067016e-06
0001e0 2b 3b a1 32 8b e4 0c 3a 1e 92 7c 3b 10 c5 c8 38
       1.8769773e-08 0.0005374632 0.003853924 9.573449e-05
0001f0 f9 73 d2 3a 33 4a f0 39 e6 43 2c 2b ae a2 c5 33
       0.0016056291 0.0004583165 6.1200903e-13 9.2031186e-08
000200 1a 7d ba 39 69 b4 4a 39 bf 74 47 3a bb 5a eb 37
       0.00035569892 0.00019331429 0.0007608644 2.8056433e-05
000210 5b d8 4e 37 1d 6f 2a 37 fc f9 3b 3a 84 fa 3e 39
       1.2328931e-05 1.015866e-05 0.00071707345 0.00018213136
000220 f0 98 6f 3a ee 8b 90 2c 83 50 85 2b 70 10 5d 37
       0.0009139916 4.1082615e-12 9.472565e-13 1.3176454e-05
000230 1b d2 bd 37 f2 77 22 39 d1 4a 22 39 77 ae 3f 3a
       2.2628394e-05 0.00015494207 0.00015477395 0.0007312069
000240 88 42 76 37 c3 ed d9 36 a4 07 08 3a bf 70 1c 33
       1.4678233e-05 6.494783e-06 0.0005189127 3.6424122e-08
000250 17 47 84 39 08 c9 96 38 d6 31 7b 39 08 c1 55 35
       0.00025229968 7.190002e-05 0.0002395579 7.962958e-07
000260 f6 d2 ca 35 44 a0 a6 39 73 13 04 3a 16 87 0c 37
       1.511157e-06 0.00031781395 0.00050382986 8.376102e-06
000270 94 11 c2 39 7d b5 0a 3a 24 eb 6b 33 5c 52 8f 34
       0.0003701566 0.0005291326 5.492906e-08 2.669575e-07
000280 00 95 e7 39 e7 2e 8d 39 3b 1f 14 3a b1 4d 66 37
       0.00044170767 0.0002692856 0.00056504057 1.3727157e-05
000290 50 17 b0 35 45 8e 2e 37 b8 62 df 39 e3 b5 a9 38
       1.3119807e-06 1.0404333e-05 0.00042607426 8.092427e-05
0002a0 8c 67 23 3a eb 52 cb 2c e0 36 9f 28 18 23 99 37
       0.0006233386 5.7788128e-12 1.7676344e-14 1.8255363e-05
0002b0 81 17 b5 31 09 24 7f 35 e2 1d c9 35 ae 3b e4 38
       5.2704654e-09 9.504734e-07 1.4984364e-06 0.000108830034
0002c0 20 c0 0b 37 bb 81 42 37 60 83 2d 3a 93 45 69 30
       8.329778e-06 1.1593506e-05 0.00066190027 8.4863777e-10
0002d0 17 7c 81 38 cb 00 0e 39 48 7e 26 38 06 2f f2 34
       6.174313e-05 0.0001354247 3.9695093e-05 4.5110227e-07
0002e0 c5 a7 8c 32 7d e9 86 37 32 99 d9 39 a2 eb 81 37
       1.6374438e-08 1.6082771e-05 0.00041503605 1.5487723e-05
0002f0 c8 07 83 39 5a 41 9d 38 13 02 cb 2d 4f d0 b5 32
       0.00024992065 7.498516e-05 2.307935e-11 2.1165901e-08
000300 10 2f 5f 39 2a 9b 98 38 ef f9 d1 39 54 52 3b 37
       0.0002128447 7.276826e-05 0.00040049801 1.1165237e-05
000310 b4 ab 11 38 30 96 50 37 17 fe 22 3a cb 5d 3f 39
       3.4730605e-05 1.2432734e-05 0.0006217672 0.0001825012
000320 71 92 3e 3a 47 d1 71 27 cf 32 84 2a 35 78 b3 36
       0.0007269746 3.3558918e-15 2.3483166e-13 5.3486096e-06
000330 97 32 08 38 04 f3 7b 39 df 17 b2 39 b9 86 86 3a
       3.2472042e-05 0.00024027756 0.0003396859 0.0010263539
000340 93 18 b0 37 15 ce 34 36 19 02 6c 39 e1 04 9b 35
       2.0992278e-05 2.6942046e-06 0.00022507495 1.154982e-06
000350 96 b7 9d 39 60 ae 00 38 d5 44 ae 39 b3 03 28 36
       0.00030082156 3.0679977e-05 0.0003323915 2.5036104e-06
000360 32 c3 15 37 77 09 a1 39 7b e0 4f 39 17 6a 90 36
       8.9265395e-06 0.00030715365 0.00019824684 4.303885e-06
000370 a5 e9 96 39 8a ab 45 3a ff 39 59 36 15 42 b4 35
       0.00028784308 0.0007540515 3.2369278e-06 1.3430277e-06
000380 15 90 51 39 e0 0f 10 39 03 7f 07 3a e3 41 ae 37
       0.00019985468 0.00013738824 0.00051687675 2.0773097e-05
000390 43 47 bb 34 06 b9 99 36 48 0b 95 39 60 74 59 38
       3.4883314e-07 4.581295e-06 0.000284279 5.1845214e-05
0003a0 37 85 c9 39 d2 15 d5 29 15 da 11 2c 1e 89 25 37
       0.0003843696 9.4628854e-14 2.07268e-12 9.8666915e-06
0003b0 4b 75 cf 37 e0 f0 db 38 1e 6d 75 38 d4 3f 5f 39
       2.4730942e-05 0.000104876 5.8514175e-05 0.00021290715
0003c0 f1 84 84 36 ea a1 a1 36 2c 36 b2 39 29 6c 01 2c
       3.949383e-06 4.817023e-06 0.00033991167 1.8392044e-12
0003d0 81 3f ce 38 8b 10 4f 38 ef de 93 38 fe 53 0e 34
       9.834674e-05 4.9368053e-05 7.051031e-05 1.3255337e-07
0003e0 96 e9 83 30 1d cc 9a 39 96 46 c4 39 ca 32 c3 36
       9.597894e-10 0.00029525245 0.00037436624 5.8173655e-06
0003f0 f0 db 2a 39 78 f3 1b 39 fd 7f bf 2f 5a d6 88 31
       0.00016294396 0.00014872651 3.483364e-10 3.98249e-09

exp_avg f4 [32]
000000 dc 20 e9 3b fb 9e 0c 3c c9 61 ab 38 fa f6 6f bc
       0.007114513 0.008582826 8.172129e-05 -0.014646286
000010 3f 78 71 3b d8 20 e0 ba b8 83 66 bb 03 db bf bb
       0.0036845354 -0.0017099632 -0.0035173725 -0.0058549657
000020 a5 a3 b7 b9 15 db 28 3b 19 f2 ff ac 7c 3a 86 bb
       -0.00035026405 0.0025765349 -7.274414e-12 -0.0040963273
000030 36 5b 83 bb 1c 11 db bc c4 b3 4e bb e8 2b ee b6
       -0.004008676 -0.026741557 -0.0031540254 -7.098064e-06
000040 f6 4e 96 b9 7f 51 0e 3b 6b 8e 56 b7 f3 9a 18 3b
       -0.0002866906 0.0021716056 -1.2788553e-05 0.0023285716
000050 60 20 c7 3b 8a 64 6c b6 a5 b5 a7 bb 68 e8 8a b5
       0.0060768574 -3.5225262e-06 -0.0051180893 -1.034944e-06
000060 05 71 27 bb a3 58 05 3b 14 55 3d bb 57 44 04 b3
       -0.0025549543 0.002034702 -0.0028889822 -3.07958e-08
000070 4c dc 2b bb 09 1e 92 bb 9e 89 ae bb ef 94 06 bb
       -0.0026223836 -0.004459147 -0.005326464 -0.0020535549

exp_avg_sq f4 [32]
000000 68 c5 01 3c a7 ea 81 3b 90 65 02 39 1e 83 b8 3b
       0.0079206005 0.0039647403 0.00012435601 0.0056308648
000010 10 50 af 3a 9a cc 42 3a ec 58 81 3a c3 10 4e 3a
       0.0013375301 0.00074310007 0.000986842 0.0007860774
000020 2b ab 7f 38 81 69 02 3b 0f 41 db 2c 22 4b d2 39
       6.095615e-05 0.001989931 6.2315773e-12 0.000401103
000030 24 2a 39 3a 81 ba 8e 3c 88 4f 09 39 7d f2 50 34
       0.00070634694 0.017422916 0.00013094966 1.9459726e-07
000040 6e c5 76 38 13 11 83 3a aa 3c 81 33 94 18 db 3a
       5.883484e-05 0.0009999595 6.018065e-08 0.0016715699
000050 26 c6 08 3a 50 4e 82 32 30 6f 29 3a 31 1c 5a 30
       0.00052175147 1.5169604e-08 0.00064634066 7.9348e-10
000060 50 85 18 3a 15 5d 63 3a b8 3a 7e 3b 2c 5d 01 2e
       0.0005818205 0.0008673233 0.0038792323 2.9413957e-11
000070 ab 58 05 3a c9 65 b3 39 2e 9c 42 3a 87 7e c9 38
       0.000508676 0.00034217376 0.0007423785 9.6079944e-05
