checkpoints/ablation_eps_0.05/ablation_eps_0.05_epoch0001.pt (torch, 38139 bytes, 24 tensors)

0.weight f4 [32, 2]
000000 21 7a 0a 3f 63 60 14 3f 23 5b 29 be 8f 25 28 3f
       0.54092604 0.57959574 -0.16538672 0.6568231
000010 05 3c 18 be 0c 46 19 3e be bb b1 be 16 6e d3 3e
       -0.14866646 0.14968127 -0.34713548 0.41294926
000020 4a d5 1d 3f b5 0a 03 bf da 9c 1e 3f d6 4d 0f 3e
       0.6165358 -0.5118821 0.61958086 0.13994536
000030 e5 06 06 3f 62 7d b4 3d 73 31 ac 3e ae ed bd bd
       0.5235427 0.088129774 0.33631477 -0.092738494
000040 5c 64 0b 3f 0a ba cc 3d 09 ec a4 be 80 63 30 3e
       0.5445001 0.09996422 -0.3221133 0.17225456
000050 65 b6 a2 be cf 82 99 bd 27 1c 94 be 9c 72 f2 3e
       -0.3177978 -0.07495653 -0.2892773 0.47353065
000060 97 5b 0e bf b6 92 aa be 7c 08 53 be 02 3a d6 be
       -0.55608505 -0.33315057 -0.20608705 -0.4184113
000070 2a 66 87 3d b8 39 31 bf b3 03 23 3f 3b 03 18 bf
       0.06611283 -0.69228697 0.6367752 -0.5937993
000080 3a 31 0d 3f d3 8f ef 3d 81 ce 71 be 00 1d e3 3e
       0.5515324 0.11697354 -0.23613931 0.44358063
000090 e3 c3 e0 3d de 6f 12 3f c0 47 ac 3d de 7a 6b be
       0.109748624 0.57201946 0.08412123 -0.22996089
0000a0 3a f5 3e 3e a0 54 4b be a8 e6 94 3e 14 e7 1f 3f
       0.18648234 -0.198565 0.29082227 0.6246197
0000b0 cf 7d cf 3e 16 09 a2 be 75 1a ce 3e fc 8c f7 3d
       0.40525672 -0.31647557 0.4025456 0.120874375
0000c0 d7 12 b6 3e bd 56 df be ee df 31 bf 22 f2 8e be
       0.3556125 -0.43620864 -0.69482315 -0.27919108
0000d0 db af 09 bf f9 2c 16 3f 63 31 49 3e fb 8c 92 3e
       -0.5378396 0.5866237 0.19647746 0.28623185
0000e0 41 15 63 3e 20 23 5b bc 17 2a 0e 3f 38 6c 02 bf
       0.22176076 -0.013375074 0.55532974 -0.5094638
0000f0 ea 0f 55 3d 5b c0 fa be 74 98 66 3e 2e 6f 80 be
       0.05201713 -0.4897488 0.22519094 -0.25084823

0.bias f4 [32]
000000 b0 3b 5e 3e e7 77 0f be 59 5c 15 3f aa c0 d6 be
       0.21702456 -0.14010583 0.58344036 -0.41943866
000010 13 38 db be 2b be d4 be 0e 2e 24 3f 38 31 6e 3e
       -0.4281622 -0.41551337 0.64132774 0.23260963
000020 62 3f 2e 3f 14 58 13 bf 6c 80 31 bf 43 28 0c bf
       0.68065464 -0.5755627 -0.6933658 -0.54748935
000030 32 bb ef be 46 b3 92 3e 59 6b 7d 3e b3 05 15 3f
       -0.46822506 0.286524 0.24747981 0.5821182
000040 8b 02 b8 be e4 4d f3 be 7c 10 c1 3e ef a1 8e be
       -0.3593944 -0.47520363 0.3770789 -0.2785792
000050 1c 66 d9 3e 91 ae 32 be af 71 cd 3e 92 ce 0b bf
       0.42460716 -0.17449404 0.40125796 -0.54612076
000060 e7 95 b4 be c1 f1 56 3e df bd 1e 3e 6b 7b 3f be
       -0.35270616 0.2099066 0.15502118 -0.18699424
000070 5b 4e da 3e a1 04 f9 3e 7e 64 01 bf e4 7b bd be
       0.42637905 0.48636344 -0.50543964 -0.37008584

2.weight f4 [32, 32]
000000 ab 93 1d 3e 31 bf 53 bd 65 1b 60 bd 0c fa 26 be
       0.15388362 -0.051696006 -0.054713625 -0.16306323
000010 7a ff be bd 01 5f 14 3d b8 72 7d bc d0 74 f6 bd
       -0.09326072 0.036223415 -0.015469246 -0.12033999
000020 bb 89 dd ba 4d f6 e6 bd de 66 11 be 5a 08 b7 bd
       -0.0016902009 -0.11277447 -0.14199397 -0.0893714
000030 61 41 16 be f7 2f d6 bd 7c c5 2c 3e da b4 d0 3c
       -0.14673378 -0.10458367 0.1687221 0.025476862
000040 1a 92 3e 3d 6b a8 20 be 89 70 dd bd 8f 6f 50 bd
       0.046526052 -0.15689246 -0.1081248 -0.05088764
000050 59 d1 a1 3c 95 1b 17 be 41 ae 8b bd 6e 68 c8 bd
       0.019753145 -0.14756615 -0.06820346 -0.097855434
000060 70 f4 11 b7 07 d5 6c bd 5f f1 95 bb 1e fd e4 bd
       -8.699586e-06 -0.057820346 -0.004575893 -0.11181091
000070 5b 29 e8 bd d6 e1 c2 bd 3a 44 57 bd bd b3 06 be
       -0.11336013 -0.09515731 -0.0525553 -0.13154502
000080 93 30 12 3e 0e 61 23 bd 04 0d 17 3e f8 48 52 3d
       0.14276342 -0.03988748 0.14751059 0.05133912
000090 c0 1c 11 be 81 46 ec 3d 0c 36 5c bd da 01 96 bd
       -0.14171124 0.11536885 -0.05376248 -0.07324572
0000a0 3d 77 1b be 07 c9 2b be 8d 9f 2e 3d 1e 70 27 bd
       -0.15182205 -0.16775905 0.04263263 -0.040878408
0000b0 48 0f 80 3d 8a 37 1a be 4c 73 fc 3d aa e4 08 be
       0.06252915 -0.15060249 0.12326679 -0.13368478
0000c0 2a 54 14 bd 21 e4 0a 3d 50 dc b0 3d 20 f7 09 3e
       -0.036213078 0.033908967 0.08635771 0.13473177
0000d0 5f ce 1f 3e b7 51 15 be 79 9b 22 3d 0d 69 8b bd
       0.15606068 -0.14581953 0.03969905 -0.06807146
0000e0 a7 24 3d bc 02 e1 0a be c5 50 20 3e 93 72 0b be
       -0.011544383 -0.13562396 0.15655811 -0.13617925
0000f0 29 43 b7 3d 10 15 6d 3d 83 b8 4a 3d 49 68 b3 bd
       0.08948357 0.057881415 0.04949237 -0.08760125
000100 b1 9f 20 3e 82 9b 07 3d ea 03 8b 3c f1 eb 23 be
       0.15685917 0.03310729 0.01696964 -0.16007973
000110 da 31 8a 3d ea 7a c8 bc a8 ae ad bd 4d 78 17 3e
       0.0674779 -0.024472672 -0.08480579 0.14791985
000120 a1 74 11 3d 87 fa b7 bd 22 eb a6 bd 8d 46 59 bc
       0.035511617 -0.08983331 -0.08150317 -0.0132614495
000130 2a fb b9 3d a2 64 4a bd ec 9d dc bd 86 17 86 bd
       0.09081109 -0.049412377 -0.10772309 -0.065474555
000140 0e df 04 be ff 7f 6c 3d 94 16 09 3e 23 3e 22 be
       -0.12975714 0.057739254 0.13387519 -0.15844016
000150 73 17 13 3d 6b b6 b3 3d e0 42 e5 3c 81 34 73 bd
       0.035911035 0.08775028 0.02798599 -0.059376244
000160 45 d7 ad 3d b9 92 b5 3d 68 ff 77 3d 25 8d 06 bd
       0.08488325 0.08865876 0.06054631 -0.03284945
000170 c3 75 52 bd 8a 5b 64 3c 66 11 bf bc 11 bd 74 bd
       -0.051381838 0.01393784 -0.023323726 -0.05975062
000180 0a ac f3 3d ae 55 21 3e 65 8b 42 bc df b3 0e bd
       0.11898048 0.1575534 -0.011874055 -0.034839507
000190 7d ca 90 ba d1 48 42 bb 15 7a 46 3d 50 21 67 3d
       -0.0011046674 -0.0029645453 0.04845627 0.056428254
0001a0 bb 40 1e be 31 9d 6a bd 7a 44 10 3e f6 8c 94 3d
       -0.1545438 -0.057278816 0.14088622 0.07253449
0001b0 30 6b 51 bb fe 23 d0 bd a8 29 cd bd 77 07 1a be
       -0.0031954758 -0.10163115 -0.10017711 -0.1504191
0001c0 ea 72 4b bd b2 aa 82 3d dc a5 f2 3d cd d5 96 3d
       -0.049670137 0.06380214 0.118480414 0.07364998
0001d0 6b cb 19 be 9e 1e cd bd fe 0b ae bc b1 ee 26 3e
       -0.15019004 -0.100156054 -0.021245953 0.16301991
0001e0 ce f1 90 3c 65 af 2d bd ac 02 a1 3d d2 13 78 bd
       0.017693426 -0.042403597 0.07861838 -0.060565777
0001f0 db 21 de bd 5c e6 f8 3d b6 4d 94 bd d5 71 e1 bc
       -0.10846301 0.121533126 -0.07241385 -0.0275201
000200 75 94 37 be f9 6d ea 3d a1 01 05 3e 61 e2 74 3d
       -0.17927726 0.11446757 0.12988903 0.059786204
000210 78 19 ec bd 70 7a 2a be 24 9f 17 be 6c 02 ff 3d
       -0.11528295 -0.16648269 -0.14806801 0.12451634
000220 d7 46 a4 3d 84 27 10 3e e9 55 ad 3d 36 4e 24 3d
       0.08021324 0.14077574 0.08463652 0.04011365
000230 21 f5 8a 3b 72 55 0b be 29 29 18 be b0 36 2f be
       0.0042406474 -0.13606814 -0.14859451 -0.17110705
000240 9d e5 83 3d df 11 b9 bd 03 e6 22 bd 2a 06 c0 bd
       0.0644028 -0.09036612 -0.039770138 -0.09376176
000250 0f c1 14 bd 74 4f 02 be 9c e1 f8 bd 81 9b 4f 3d
       -0.036316928 -0.12725621 -0.121524066 0.05068541
000260 13 a4 36 bd 64 5f d9 3d 19 0a 78 bd 85 87 04 be
       -0.044590067 0.106138974 -0.060556505 -0.12942322
000270 c9 45 11 bd 1d f2 bb bd 5f f7 3c bd 3c 27 24 be
       -0.035466943 -0.09177039 -0.04613435 -0.16030592
000280 98 c9 d5 3d 29 65 f2 bd e3 86 b8 3d f3 8d 9d 3d
       0.104388416 -0.11835701 0.090101026 0.0769309
000290 24 00 f4 3d 38 f8 03 be 9e b5 06 3e 4a bd a0 bd
       0.11914089 -0.12887657 0.13155219 -0.07848604
0002a0 3c 84 8f 3d 61 d2 21 3e c1 b9 8b bc c5 08 95 bb
       0.070076436 0.1580291 -0.017056348 -0.0045481646
0002b0 5e 39 06 bd 97 7a 10 be 07 19 a6 3d 38 66 2f be
       -0.032769553 -0.14109264 0.08110242 -0.17128837
0002c0 75 24 ec 3d 27 ea 02 3e 42 46 2f 3e 79 4e 0a bd
       0.11530391 0.12784635 0.17116645 -0.033766244
0002d0 96 d6 10 be fd 35 3d 3d 14 d8 ce 3d 57 fd 2b be
       -0.14144358 0.046194065 0.100998074 -0.1679586
0002e0 b4 e0 03 bd 78 93 e3 bd 8c f3 8e bc 88 4d a3 bd
       -0.032196715 -0.11112112 -0.017450117 -0.07973772
0002f0 54 73 8b bd 30 ca 55 bd dc d8 23 be 9f 5a 0c 3e
       -0.068091065 -0.052194774 -0.16000694 0.13706444
000300 a2 c7 10 3e e1 58 0c bd 04 72 bc bc 5d 18 a3 bd
       0.14138654 -0.03426445 -0.023003586 -0.07963631
000310 f7 1e 1c be b2 b9 35 be 90 f7 89 3d 09 69 bd bd
       -0.15246187 -0.17746618 0.06736672 -0.092485495
000320 1a 51 e5 bd a6 cb c6 bb 55 8c 50 bd 3c 61 84 bd
       -0.111971095 -0.0060667573 -0.05091508 -0.064638585
000330 f2 9b 5a 3c cf 63 f8 bc 05 8b 5c bd e6 39 a1 bd
       0.013342844 -0.03032103 -0.053843517 -0.078723714
000340 59 e5 18 be 43 16 10 3e 61 38 9f bd b7 4a 5b 3d
       -0.14931239 0.14070992 -0.07774425 0.05353805
000350 83 15 64 bd 4b d9 e8 3b 2a 7f 2e 3e 4f 31 a5 3d
       -0.055684578 0.0071059815 0.17040697 0.080660455
000360 2a 4f 15 be a7 05 9d 3d b5 1d 26 3e 31 4b 20 3d
       -0.1458098 0.07667094 0.1622227 0.039134208
000370 90 9f f9 3d 8d 80 38 3e 24 ea a7 bc 57 14 35 3d
       0.12188637 0.18017788 -0.02049739 0.04420885
000380 65 ab f2 bd d9 5f fa bc ec e5 0a 3e 0a 94 c8 3d
       -0.11849097 -0.030563282 0.1356427 0.09793861
000390 0a c2 d4 bd bf fb 08 be 10 59 ee bd f5 31 2c be
       -0.103885725 -0.13377284 -0.11638081 -0.16815932
0003a0 d7 2d 07 be 33 8f 12 bd 0e fe e3 3d a5 5f 17 3d
       -0.1320108 -0.035781097 0.111324415 0.036956448
0003b0 aa 30 0d be 49 5e 0f be 75 16 b0 3d b6 3b 00 be
       -0.13788095 -0.1400081 0.08598033 -0.12522778
0003c0 57 f9 63 bc 69 97 bc 3d a7 98 9c bd 5a 95 3b bc
       -0.013914428 0.09208567 -0.076463036 -0.011449182
0003d0 e8 6f 4f bc 4f 97 17 bd 25 d2 aa bd 3d 31 19 be
       -0.012660958 -0.037009533 -0.08340863 -0.14960189
0003e0 a0 27 0a be 7c 40 ba bd df 63 34 3e 38 a7 a4 bd
       -0.13491678 -0.09094331 0.17616223 -0.08039707
0003f0 69 95 ea bd bc 80 49 3d a1 07 27 3d 49 09 b6 3d
       -0.11454279 0.049195036 0.04077876 0.0888849

2.bias f4 [32]
000000 7e bc a8 bd 0a 9c 18 be 66 29 81 3a c9 b7 c8 bd
       -0.08239077 -0.14903274 0.0009854257 -0.09800679
000010 93 a9 10 3e b7 45 2b be b5 93 a8 3d 71 fd 38 3e
       0.14127187 -0.16725813 0.08231298 0.1806543
000020 61 cb bf 3d b7 92 83 3d 99 fd 25 be 4a a0 33 3e
       0.09364963 0.06424468 -0.16210021 0.17541614
000030 71 bb cd bc 84 c1 2d be 07 12 36 3e 42 c5 a0 bd
       -0.025113793 -0.16968352 0.17780314 -0.07850124
000040 0a 0e 52 bc 8f 81 26 3e 85 63 03 be 2d 2d f1 bd
       -0.01282073 0.1626036 -0.12830932 -0.11776195
000050 72 c0 c5 3c 58 8c f6 bc 3e 2d 3c 3d d0 a5 0f be
       0.024139617 -0.030096218 0.045941584 -0.14028096
000060 48 66 a4 3a c5 8f ab bd 61 3d b6 bd 82 92 1d be
       0.0012542689 -0.08377031 -0.08898426 -0.1538792
000070 7e 78 b3 3d 33 35 25 3d 72 2b 12 be e1 28 0b 3e
       0.087632164 0.040333938 -0.14274386 0.13589813

4.weight f4 [32, 32]
000000 50 d7 39 3d 1b 02 21 3d ea 19 c6 bd 6e 8b 0b 3d
       0.045371354 0.03930865 -0.096729115 0.034068517
000010 15 c1 33 3e 0f 58 03 3e 9e 93 06 be c0 94 2b 3e
       0.17554124 0.1282656 -0.13142249 0.16755962
000020 37 b4 a7 3c ca 03 ba 3d b7 6b 04 3e 21 8c 17 3e
       0.020471675 0.09082754 0.12931715 0.14799549
000030 75 0b 10 be 87 88 22 3e 7e 50 ff bd 50 a2 d0 3b
       -0.1406687 0.15872394 -0.124665245 0.0063670054
000040 eb 80 ee bd dd 21 06 bd f1 b2 8d ba 77 7a 5b bc
       -0.11645683 -0.03274714 -0.0010810775 -0.013395897
000050 e6 b8 0d bd e6 36 ab 3c f2 89 37 3e 5c 04 c2 3d
       -0.03460016 0.020900201 0.17923716 0.09473488
000060 36 73 c5 3d 54 35 9b 3d d7 26 13 3e 45 90 4d ba
       0.09641115 0.07578531 0.14370285 -0.0007841627
000070 13 15 a5 3c 82 f9 30 3d 66 29 25 be f6 ba 16 be
       0.02015165 0.0432067 -0.16129074 -0.14719757
000080 ae 76 62 3c 15 70 7f bd 10 68 84 3b 14 15 07 bd
       0.013822241 -0.06236275 0.0040407255 -0.032979086
000090 fb 5d 06 3d 27 46 fa 3d ff 0e 56 bd f4 f8 16 3e
       0.03280447 0.12220412 -0.052260395 0.14743406
0000a0 43 f6 15 3e 8e d3 03 be 86 9d 03 be b5 ac 14 be
       0.14644723 -0.1287367 -0.12853059 -0.14519008
0000b0 ee eb cb bd 9c f2 81 bd cf cf 93 bc 67 f4 4c bd
       -0.099571094 -0.06345102 -0.018043427 -0.050037768
0000c0 50 00 a8 bd 7c ef 4c bd 81 4f 68 bd 20 9e 39 3e
       -0.082031846 -0.050033078 -0.056716446 0.18126726
0000d0 ba 18 94 bd 9f 65 f4 bd 73 35 a0 3d 16 2d 2d bb
       -0.07231279 -0.11933445 0.07822695 -0.0026424578
0000e0 e9 a6 07 3e 6e 20 ec 3d 88 28 2a 3e b0 cc f8 bd
       0.13247265 0.11529623 0.16617024 -0.12148416
0000f0 f5 60 f5 3d e9 05 1f 3e 3a 8d c1 bd ab 32 21 3e
       0.11981384 0.15529598 -0.09450765 0.15741985
000100 4f 0e ff 3d 46 7a 5e bb e9 2e a1 3d 32 da 89 bd
       0.12453901 -0.0033947392 0.078702755 -0.067310706
000110 45 1f 1f be 2d 12 1b 3d 2f c6 3d 3d 7c f3 f5 bd
       -0.15539272 0.03785913 0.04633158 -0.120093316
000120 37 bd a2 3d d0 2a 20 be 6e 9d 13 3e ec ed 27 3e
       0.07946246 -0.15641332 0.14415523 0.16399354
000130 1c 68 27 3d 18 a0 ed bd 7f 49 a2 3d 66 11 b6 3c
       0.04087077 -0.11602801 0.079241745 0.022225093
000140 27 75 2a 3d 2f 89 53 3d 5a ec 02 3e 0b a6 a9 bd
       0.04161563 0.0516445 0.12785473 -0.08283623
000150 cd b5 04 bd 9b 0c 2f 3d 1f 6c 4e 3c e9 cb 09 3e
       -0.03239994 0.04273663 0.01259902 0.13456692
000160 00 4b cb bd 1d 3d 5b bc ab c9 cd 3c 94 c8 1f bd
       -0.099264145 -0.01338127 0.025120577 -0.039009646
000170 46 2c eb 3d dd 5a 58 3c ac 20 1f be de dd d0 bc
       0.11483054 0.013205257 -0.15539807 -0.02549642
000180 a7 e3 93 bd 93 bf c1 3c 5c 1f 5e bc b4 f4 2b be
       -0.072211556 0.02365092 -0.013557281 -0.16792566
000190 0f 7b db bc c0 fe 22 bc c3 16 3c bd 7b bf 2c 3e
       -0.026792077 -0.009948432 -0.045920145 0.16869919
0001a0 ee 75 02 bd 68 ac f4 3d fe dc 12 3d 12 49 1b be
       -0.031850748 0.119469464 0.035855286 -0.15164593
0001b0 cb 80 1d 3d db 86 1a 3e 90 3c f6 bd cb f7 f7 bd
       0.038452905 0.15090506 -0.1202327 -0.1210781
0001c0 2f 54 38 3e 32 8d 17 3e 7c db bb bd 0c a1 e9 3d
       0.18000863 0.14799955 -0.09172723 0.114076704
0001d0 46 86 ef bc 33 5d 2b be cd a2 95 3c b2 5f 49 3d
       -0.029238831 -0.16734771 0.018266106 0.049163528
0001e0 10 e2 62 bd ee 4c 88 3d 5f 4c 13 be e0 8e ea 3d
       -0.05539137 0.06655298 -0.14384602 0.114530325
0001f0 8b 7d 20 3e d7 81 d5 3d a3 3f bb 3c 3c a3 5a 3d
       0.15672891 0.104251556 0.022857493 0.05337833
000200 24 9c f5 bd 0e dd 2c bd de 3c c7 bc ec 23 b9 bd
       -0.11992672 -0.042203 -0.024321016 -0.09040055
000210 d9 10 fb bd 64 e1 e5 3d 60 26 f7 3d 5d 39 1c be
       -0.12259073 0.112246305 0.12067866 -0.15256257
000220 b5 71 50 3d 9a 71 9e 3d 4d c9 23 3e 68 fe d7 3d
       0.05088969 0.077365115 0.15994759 0.10546571
000230 a5 5c 29 3e 2b 6a 7f bd e0 93 04 3e 8a 31 1a 3e
       0.16539247 -0.06235711 0.12947035 0.1505796
000240 46 f2 30 be b3 55 10 be 44 d0 ec 3c 41 07 b6 3d
       -0.1727992 -0.14095192 0.028907903 0.08888102
000250 09 89 a6 bd 86 b7 3e 3c 58 e2 8e 3b 77 c2 16 3d
       -0.08131606 0.011640435 0.0043604784 0.03680655
000260 78 ba b6 bd 2f e1 c4 3d aa 6b e0 3d ee dc ea bd
       -0.08922285 0.09613263 0.10958035 -0.1146792
000270 80 10 4f b6 54 9b 7c ba a8 c9 82 3d 5c 44 2e 3e
       -3.0855008e-06 -0.0009636183 0.06386119 0.17018265
000280 dd cb 33 3d e6 f8 1c bd 97 7d 29 3e 8e ee 72 bd
       0.04389559 -0.038323306 0.16551815 -0.059309535
000290 80 3d 3e bd 0b d0 96 3c 7a 9b 0a be 93 d4 77 3c
       -0.04644537 0.01840975 -0.13535872 0.015126365
0002a0 e8 79 f9 bd 20 31 bd 3c 7b ca 15 3c dd df a8 3c
       -0.12181455 0.023094714 0.009142513 0.020614559
0002b0 a6 c0 1b be 00 ff 26 be ac 3c 9b 3d 44 50 14 3e
       -0.15210208 -0.16308212 0.075799316 0.14483744
0002c0 33 d6 1a be 5e 4c 8a 3d 54 b0 fb bd b1 93 95 3c
       -0.15120773 0.06752847 -0.12289491 0.018258901
0002d0 5e bf 21 3e 0e 27 01 3e 9b 12 09 be aa 9c cf 3d
       0.15795657 0.12612554 -0.13386004 0.10137303
0002e0 5b 62 b1 3d bb 63 1a 3b 52 4b 29 3e 84 f9 7e bd
       0.08661338 0.002355798 0.16532639 -0.062249675
0002f0 c1 41 0f bd b8 fc af bd 9b 91 96 3c cc d8 29 3d
       -0.034974817 -0.08593124 0.018379977 0.04146652
000300 c4 20 d0 3b d7 5d bb bd 27 9a af bd f5 b6 55 3d
       0.006351562 -0.09148758 -0.08574324 0.052176435
000310 2d 8c 16 be c5 77 0c bd 6e bf dc ba cb 5a 82 bd
       -0.1470191 -0.03429391 -0.0016841718 -0.06364974
000320 06 a6 70 3d 18 5c 8e 3c 60 d5 ed 3d b8 6f 3a bc
       0.058752082 0.017377898 0.11612964 -0.011379175
000330 20 61 de bd 2d 6b f5 3d 04 31 f8 3c 6c 15 33 bd
       -0.10858369 0.11983333 0.03029681 -0.0437216
000340 57 48 de bd cb 95 34 3d 45 85 30 be fd 2c 21 3d
       -0.108536415 0.044088166 -0.17238338 0.039349545
000350 03 83 c0 3d 83 9d 16 be 4d f9 e1 bd d5 ef f3 bd
       0.093999885 -0.14708523 -0.110338785 -0.11910979
000360 f0 29 1e 3e f0 9f 19 3e 57 e3 61 3b 11 c4 21 3e
       0.15445685 0.15002418 0.003446778 0.1579745
000370 47 75 51 bd dc e9 27 be 4f 14 8d 3d b9 aa 8b 3d
       -0.051137235 -0.16397804 0.06888639 0.06819672
000380 95 4a 29 3e 04 f3 a1 b7 64 8f 02 3e 05 95 cd 3d
       0.16532357 -1.9305859e-05 0.12750012 0.10038189
000390 9e b0 f5 3d 4c 74 2b be 54 e3 0c 3e d1 22 12 be
       0.11996578 -0.16743582 0.13758594 -0.14271094
0003a0 4a 1c 1a 3e c0 42 ac b8 4e 3f 18 be 2c d3 28 3d
       0.15049854 -8.214032e-05 -0.14867899 0.041217014
0003b0 a9 e4 e5 bc 3c 6a 1a be 43 e9 65 bd 95 9c 2a 3c
       -0.028063135 -0.15079588 -0.05613066 0.010413309
0003c0 47 d0 04 3e ee 0a 3e bd e0 b4 c6 3d fe 01 6a 3c
       0.12970077 -0.046397142 0.09702468 0.014282702
0003d0 c4 5b 75 ba c2 45 d4 3c bb 41 dd bd fa 49 0e be
       -0.00093596824 0.02591217 -0.10803553 -0.13895407
0003e0 c9 f2 42 bd f1 81 20 be e3 84 98 bd dd cf 47 3a
       -0.04759482 -0.15674569 -0.07447221 0.00076222216
0003f0 9b 1a de bd fa dc 85 bd 94 71 c3 bc 3a 3d 4d bc
       -0.10844918 -0.065362886 -0.02385787 -0.012526805

4.bias f4 [32]
000000 65 0f b3 3d 94 6c 50 3d c8 49 98 bd 79 8a e2 3d
       0.08743171 0.0508848 -0.07435948 0.11061568
000010 1b 74 53 bd d2 48 2d bc 3a 00 7e bd 93 88 23 be
       -0.0516244 -0.010576444 -0.062011935 -0.15970068
000020 08 b0 d0 3c 1c c5 3b 3d e9 f4 a5 bd 70 21 e4 3d
       0.025474563 0.045842275 -0.081033535 0.1113919
000030 83 35 1a be 64 52 26 be 25 47 cf bd d0 ea 5d bd
       -0.15059476 -0.16242367 -0.101209916 -0.054179013
000040 99 5c 41 bc 32 27 05 bd f5 3f 9d 3d 33 b1 16 be
       -0.011801862 -0.032508083 0.076782145 -0.14716034
000050 65 90 ce 3c 80 b6 7a 37 ca 0b 5b 3d 4e b4 30 3e
       0.025215337 1.4943653e-05 0.05347804 0.17256281
000060 5d 88 d8 3d 33 22 b8 bd bc 29 0c be 06 be 49 bd
       0.10572884 -0.08990898 -0.13687795 -0.049253486
000070 19 49 a5 bd 97 dc 6f 3d 6f 28 bc ba 33 cc 0f 3e
       -0.08070583 0.05855998 -0.0014355312 0.1404274

6.weight f4 [2, 32]
000000 63 3d 9b 3d b2 4e d9 bc f6 44 4d 3c 17 87 46 3d
       0.07580068 -0.026526783 0.012528649 0.048468675
000010 e4 a4 d9 bc c9 7f 0b 3e c3 b7 13 be 8e 23 a0 3d
       -0.026567884 0.13622965 -0.14425568 0.078192815
000020 cd 86 dd bd d7 cf 18 be b9 6b e8 bc d7 5e bc 3d
       -0.10816727 -0.14923035 -0.028371679 0.09197777
000030 1f 76 ef 3d c1 31 15 3d 55 47 f6 bb 27 1a 89 bc
       0.11692452 0.036424402 -0.0075158277 -0.016736103
000040 e2 74 82 bd 3d fa 4e bc 44 9f 13 bc c6 dd 11 3e
       -0.0636995 -0.012632904 -0.00901014 0.14244756
000050 e1 b1 d7 3d 4f d0 0b be 30 c5 c3 bb eb a1 d5 bd
       0.105319746 -0.13653682 -0.0059744343 -0.10431274
000060 5f 0d b5 bc fe b1 07 be e4 b6 1b 3d 3b 59 09 be
       -0.022101102 -0.13251492 0.038016215 -0.13412945
000070 77 87 2a 3e 68 f1 0a 3e de 7f ed bd 8b 49 2d be
       0.16653238 0.13568652 -0.11596654 -0.16922586
000080 7e 8f 0b 3a 46 99 62 bd 8b 1d 3a 3d 14 d0 00 be
       0.0005323811 -0.055321954 0.04543833 -0.12579376
000090 71 ac 9d 3d 8d c8 15 be 93 a9 b2 bd a5 ff ad bd
       0.07698906 -0.14627285 -0.0872375 -0.08496026
0000a0 ae f0 a5 3d bb 01 28 bc cb c9 25 be b8 b6 da bd
       0.08102547 -0.010254319 -0.16190259 -0.10679382
0000b0 cf 39 97 bd 79 c7 1f be d4 1a 72 3c 9d fb 8e 3d
       -0.07384073 -0.15603437 0.014776904 0.06981585
0000c0 52 ea c8 bc 39 a8 96 bd 8b 18 8c bb 75 9b 07 be
       -0.024525795 -0.07356305 -0.0042753867 -0.13242896
0000d0 9a 3b e0 bd cf 9f 12 bc d2 a5 27 3e 52 b7 70 bd
       -0.10948868 -0.008949234 0.16371849 -0.058768578
0000e0 93 3c a7 3d 05 5a 7c bd 43 39 20 bd 61 7d 25 be
       0.081658505 -0.061609287 -0.03911711 -0.1616111
0000f0 40 cc 0d 3e e1 f3 2d 3e 11 7a 1a bc c1 c3 eb 3d
       0.13847446 0.16987564 -0.009428517 0.115119465

6.bias f4 [2]
000000 96 20 17 3e 77 b2 ad 3d
       0.14758524 0.08481305

exp_avg f4 [32, 2]
000000 51 68 69 b9 df 7e 28 3a c1 7e ec 35 dc 0f f2 b8
       -0.00022259472 0.00064275967 1.762026e-06 -0.00011542413
000010 2e f8 db b9 17 b4 38 ba 5f b3 03 39 b5 a4 08 38
       -0.00041955843 -0.00070458784 0.00012559954 3.2578322e-05
000020 ec 86 6f 3a dc 50 ba ba 21 92 2b b9 e2 9d f0 b9
       0.00091372314 -0.0014214772 -0.00016362268 -0.00045894
000030 ac 51 e8 b8 c0 64 8d 3a 17 51 75 39 95 62 51 ba
       -0.00011077835 0.0010787472 0.00023395229 -0.0007987407
000040 a5 e8 68 b8 70 9a 04 39 5d c7 9b b7 53 5c 28 37
       -5.5529777e-05 0.00012646033 -1.8570276e-05 1.0035076e-05
000050 8a b7 99 b7 1c c2 96 b6 c5 54 90 b6 a7 05 15 b8
       -1.8324488e-05 -4.4929457e-06 -4.301403e-06 -3.5529632e-05
000060 fe 41 2a 37 8a 02 27 38 9f 21 13 39 14 c8 36 b9
       1.0148155e-05 3.9818267e-05 0.00014031537 -0.00017431407
000070 42 18 cc b7 cc 87 c6 b9 b4 33 e9 38 73 27 9f ba
       -2.4329991e-05 -0.0003786668 0.00011119936 -0.0012142494
000080 6d d9 72 b9 aa 4b e0 38 5a f0 bf 38 5c b2 ad b9
       -0.00023159916 0.00010695246 9.152359e-05 -0.0003313002
000090 f7 06 6b 36 18 12 8e b9 a7 f6 ac b8 ba 80 fe 38
       3.5021783e-06 -0.00027097831 -8.247542e-05 0.00012135641
0000a0 bf c9 e8 39 34 40 a8 3a d1 ef b1 39 8f 51 80 3a
       0.000444008 0.0012836517 0.00033938748 0.0009789931
0000b0 7c da 35 3a c8 4d 1c 3b 82 a7 d4 37 14 c2 3a 37
       0.0006937159 0.0023850072 2.5350371e-05 1.1131651e-05
0000c0 cf 4a f0 38 f0 4a 0a 39 22 d8 51 b9 a1 a9 04 3a
       0.00011458026 0.00013188622 -0.00020012309 0.0005060677
0000d0 e5 f9 51 b9 11 a5 05 ba f8 b7 12 3a 2b a9 81 3a
       -0.00020024886 -0.0005098144 0.00055968715 0.0009892335
0000e0 6e 2f 73 b7 37 da 2e b8 f9 8f 9b b8 75 b9 9c 3a
       -1.4494972e-05 -4.168806e-05 -7.417793e-05 0.0011957126
0000f0 e3 1f fd b8 e9 5b dc 39 36 33 96 b9 5b d5 66 39
       -0.000120699195 0.00042030148 -0.00028648385 0.0002201399

exp_avg_sq f4 [32, 2]
000000 4e dc 3c 31 50 84 44 32 42 fd 01 30 71 6b 2d 30
       2.748283e-09 1.1438786e-08 4.728983e-10 6.3089717e-10
000010 1e da 51 32 cc cb 68 32 64 59 34 31 9b b1 0b 30
       1.2214995e-08 1.3550515e-08 2.624426e-09 5.08203e-10
000020 54 c1 f5 32 06 eb 8d 33 38 1f 92 31 92 9d d7 31
       2.860967e-08 6.608575e-08 4.2527084e-09 6.275237e-09
000030 88 bf 38 32 1b 36 06 33 76 fc 9e 31 7b 7e cc 32
       1.0753759e-08 3.1248515e-08 4.6271067e-09 2.3806242e-08
000040 f8 75 61 30 4d 99 1e 31 44 9b 15 2d 08 43 2f 2c
       8.2022167e-10 2.3079167e-09 8.504145e-12 2.4906206e-12
000050 db ad 11 2d 8c ae 0d 2b 28 c5 1a 2f e0 cc 8e 2f
       8.280899e-12 5.0335495e-13 1.4076262e-10 2.5975222e-10
000060 e2 a4 a6 2e c2 da 5d 2e 9e 13 82 30 46 98 e5 30
       7.578095e-11 5.0443878e-11 9.46432e-10 1.6705222e-09
000070 b8 8e 7e 31 42 5f cd 31 19 45 7b 31 d3 54 65 33
       3.704299e-09 5.977115e-09 3.6564585e-09 5.3395365e-08
000080 ec 3b 90 31 5a 7a 4c 30 89 44 2a 30 1b 98 b9 31
       4.197764e-09 7.438864e-10 6.1943034e-10 5.401501e-09
000090 33 db 69 31 6a 43 82 31 a8 25 98 2f 8e 4f 21 30
       3.4030563e-09 3.791162e-09 2.7675395e-10 5.8684513e-10
0000a0 77 7b 03 32 86 19 85 33 1f 47 a7 31 51 64 42 33
       7.653276e-09 6.197938e-08 4.868425e-09 4.5260382e-08
0000b0 f6 e9 ba 32 8e cf 34 34 c8 3b 8c 2e b1 1f 1c 2d
       2.1759643e-08 1.6839314e-07 6.377082e-11 8.87461e-12
0000c0 b8 2a 00 30 bd 3c ca 30 b0 41 87 31 59 81 58 32
       4.6626836e-10 1.4714697e-09 3.936485e-09 1.2602265e-08
0000d0 59 75 70 31 76 69 4f 32 84 0e 39 32 8e 1b 30 33
       3.49913e-09 1.2072965e-08 1.0771718e-08 4.1003254e-08
0000e0 7d 09 b2 30 f4 6c 7e 30 b5 1b 5f 31 aa 54 2e 33
       1.2953901e-09 9.2559493e-10 3.246652e-09 4.0589534e-08
0000f0 d6 a3 dc 2f e8 40 bd 31 57 aa 2b 31 bc f3 c3 30
       4.013418e-10 5.508003e-09 2.4980602e-09 1.4257391e-09

exp_avg f4 [32]
000000 a4 3a 64 b9 22 58 34 b9 80 9f 16 39 37 f9 85 b8
       -0.0002176562 -0.0001719897 0.00014364533 -6.388354e-05
000010 60 a8 a4 3a 6c 5b 9b b9 fe 4e 45 ba ae 6f 9d 39
       0.0012562387 -0.00029632018 -0.00075267244 0.0003002858
000020 26 d6 99 38 0b 6f 0a b8 19 93 26 b8 3e a7 ab b8
       7.335497e-05 -3.300518e-05 -3.971448e-05 -8.185067e-05
000030 6b c6 b2 b8 2f 1e a2 37 74 9e 81 39 5f 07 54 3a
       -8.52466e-05 1.932596e-05 0.00024722854 0.00080882566
000040 6b bb 88 b9 ef b6 b0 b9 36 29 7e b8 44 f6 10 b9
       -0.0002607958 -0.00033705632 -6.05967e-05 -0.00013824651
000050 91 d3 3d 38 2d 09 5e 3a 72 1a 96 b9 ea 0d f0 b7
       4.5258148e-05 0.0008469995 -0.00028629933 -2.8616709e-05
000060 57 57 63 b8 11 e8 34 38 b6 17 da b9 4d af 82 3a
       -5.420236e-05 4.3131473e-05 -0.00041597866 0.0009970457
000070 c7 54 be b8 73 cc 78 ba 96 26 e0 b9 b9 a6 a8 b9
       -9.075697e-05 -0.00094909145 -0.00042753358 -0.00032167675

exp_avg_sq f4 [32]
000000 7e 3b ff 31 d3 73 c7 30 d9 30 83 32 c9 0b fd 30
       7.4282402e-09 1.4512075e-09 1.527262e-08 1.8411522e-09
000010 0f 10 80 33 ba 75 ce 31 c4 bc da 32 1f 61 32 32
       5.9633855e-08 6.008773e-09 2.546438e-08 1.0383046e-08
000020 ba 8c 98 30 07 f1 eb 2d d6 c0 2a 2e 09 8a f3 2f
       1.1099452e-09 2.6823445e-11 3.8824798e-11 4.4299522e-10
000030 a9 c3 80 2f 55 40 d5 30 56 6a 4a 31 70 f5 f6 32
       2.342209e-10 1.5516074e-09 2.9455314e-09 2.8749781e-08
000040 d0 ca b1 31 6d 0e b3 31 5f b1 eb 31 71 00 35 30
       5.174435e-09 5.2112257e-09 6.859565e-09 6.5848044e-10
000050 40 3c 93 32 85 b7 2a 33 16 dd 5b 33 5c 21 32 2e
       1.714045e-08 3.974812e-08 5.1190987e-08 4.0502143e-11
000060 39 d0 b1 30 d4 a0 54 31 d9 6f 6a 32 fc 5d 37 33
       1.2937625e-09 3.094148e-09 1.3646024e-08 4.2693486e-08
000070 4d 66 53 31 9d e3 1a 33 dc ba b5 31 d5 c7 48 31
       3.0762692e-09 3.6062932e-08 5.2890368e-09 2.9217422e-09

exp_avg f4 [32, 32]
000000 4a ce 16 37 cf 93 54 b6 03 1e 60 b6 e0 93 1f b7
       8.988727e-06 -3.1676498e-06 -3.339607e-06 -9.511568e-06
000010 05 bf b9 b6 6f 64 19 36 54 c0 93 b5 c2 80 ed b6
       -5.5356672e-06 2.2857237e-06 -1.1008328e-06 -7.07814e-06
000020 df d9 1a 33 15 0b df b6 b9 71 0b b7 e5 4f b2 b6
       3.605407e-08 -6.647208e-06 -8.311524e-06 -5.3141143e-06
000030 39 f9 0f b7 66 63 cf b6 31 fc 24 37 04 82 e0 35
       -8.581491e-06 -6.1806522e-06 9.83388e-06 1.672714e-06
000040 0d ce 40 36 56 ae 19 b7 0c 28 d6 b6 67 7c 51 b6
       2.8730167e-06 -9.160101e-06 -6.382359e-06 -3.1215839e-06
000050 d3 a2 b4 35 da c4 10 b7 53 d9 89 b6 42 87 c2 b6
       1.3458433e-06 -8.628902e-06 -4.108218e-06 -5.7973966e-06
000060 6f 1e 99 31 47 ff 6b b6 f9 b3 fd b4 9f 33 dd b6
       4.456346e-09 -3.516632e-06 -4.725587e-07 -6.5923227e-06
000070 a5 29 e0 b6 0b 5f bd b6 10 dd 57 b6 8e 75 01 b7
       -6.6805683e-06 -5.6437034e-06 -3.2166172e-06 -7.7163695e-06
000080 bf f7 cf 39 95 fb 2d 39 5d dc 34 39 d0 b2 19 37
       0.00039666702 0.00016592287 0.0001724823 9.161144e-06
000090 8d 2c 0b b7 66 6b 4b 37 a9 3f 92 39 32 72 aa 38
       -8.295418e-06 1.21247485e-05 0.0002789472 8.127502e-05
0000a0 ff 63 98 39 9c 10 24 b7 9d e9 31 36 ac a8 cb b6
       0.00029066202 -9.779029e-06 2.6511036e-06 -6.0695074e-06
0000b0 bf 6b 5c 37 2d a8 ec 37 a0 4d f3 36 07 8a e4 37
       1.3138108e-05 2.8211705e-05 7.251001e-06 2.7243992e-05
0000c0 72 3d 89 36 22 39 ad 36 ff 5d a7 39 24 81 04 37
       4.0900713e-06 5.162453e-06 0.00031922755 7.897881e-06
0000d0 09 81 a0 38 d1 15 8b 39 c7 8d 62 38 bb 98 89 b6
       7.653429e-05 0.000265284 5.401464e-05 -4.1006983e-06
0000e0 db 19 6b b5 c7 fd 3e b8 17 5d 22 39 4d 21 ee 38
       -8.7581947e-07 -4.553588e-05 0.00015484203 0.00011354927
0000f0 de d8 13 39 c0 76 fa 37 5f 26 4c 36 ba ed ae b6
       0.00014099802 2.985762e-05 3.0420704e-06 -5.213279e-06
000100 19 5e 09 39 d7 2c 57 39 2d 29 a3 39 13 a1 84 37
       0.00013100392 0.00020520702 0.0003112046 1.5810632e-05
000110 0f c2 99 39 24 55 f2 b7 ef ee 68 39 b2 09 13 39
       0.0002932702 -2.8888295e-05 0.00022214254 0.00014022624
000120 5c 51 81 39 ec 31 b3 b6 b9 45 a3 b6 3c 13 6c 37
       0.00024665415 -5.3404274e-06 -4.8658953e-06 1.40711745e-05
000130 5e 0d 2d 39 8e 0d e6 39 66 4a 2d 3a 55 d8 0a 3a
       0.00016503545 0.00043879118 0.00066105125 0.0005296518
000140 a9 55 05 b8 dc a8 be 37 92 59 a9 b6 f3 28 1b b7
       -3.178945e-05 2.2728396e-05 -5.04702e-06 -9.248254e-06
000150 f1 d6 a2 39 55 10 34 38 1e 0e a0 39 83 e8 26 b6
       0.00031059192 4.2930555e-05 0.00030528096 -2.4871267e-06
000160 7d ba 51 39 70 85 d2 39 7d 23 80 39 91 51 24 b7
       0.00020001266 0.0004015374 0.00024440503 -9.794153e-06
000170 96 1a 5d 39 cc 29 e9 39 ab 02 d0 b5 3b 3c 57 37
       0.00021086106 0.00044472364 -1.5497984e-06 1.2829022e-05
000180 cb ae 84 b9 8f 1f 2b b9 ea 46 3b b9 3c d8 ff b7
       -0.00025307233 -0.00016319587 -0.00017860127 -3.049906e-05
000190 df 8b 88 b2 e2 88 ca b4 67 4b 48 b9 46 96 0b b8
       -1.589609e-08 -3.7725027e-07 -0.00019101576 -3.3280136e-05
0001a0 10 22 63 b9 29 ed 69 b6 b9 62 0a 37 38 ed 12 b7
       -0.00021661096 -3.485775e-06 8.248427e-06 -8.75751e-06
0001b0 2d 3a 31 b5 ae 32 56 b7 44 f7 c6 b6 6b 22 5d b7
       -6.6022295e-07 -1.2767194e-05 -5.9296453e-06 -1.318064e-05
0001c0 69 d4 4c b6 0a 6e 89 b7 cc ba 8c b9 bc 42 94 36
       -3.0522008e-06 -1.6382914e-05 -0.00026842055 4.4185126e-06
0001d0 b8 82 55 b8 79 d3 45 b9 d9 b1 53 b7 48 89 1f 37
       -5.09049e-05 -0.00018866164 -1.2617988e-05 9.509102e-06
0001e0 05 d5 a4 35 a1 f9 a8 37 c5 6a 54 b9 ca 8d 8b b8
       1.2280949e-06 2.0143403e-05 -0.0002025767 -6.654447e-05
0001f0 fc 93 de b8 d7 c6 84 36 d0 e5 91 b6 83 28 f0 b5
       -0.00010613349 3.9570546e-06 -4.3480904e-06 -1.7893184e-06
000200 5b 0b c5 b7 5d 2e 3a 32 b3 ba 05 38 57 99 75 37
       -2.3489518e-05 1.0837167e-08 3.188355e-05 1.463884e-05
000210 73 d6 e3 b6 60 d8 22 b7 b1 f7 22 38 6f 0d b9 37
       -6.7900924e-06 -9.706331e-06 3.885449e-05 2.2059974e-05
000220 a6 07 62 38 b3 47 0a 37 fe 42 a9 36 b9 ae 06 37
       5.3889722e-05 8.242135e-06 5.0443914e-06 8.027703e-06
000230 d2 d1 09 b8 25 56 cc b7 91 7f 59 b8 f3 15 b2 37
       -3.2858756e-05 -2.435881e-05 -5.1855637e-05 2.1229474e-05
000240 49 95 82 36 b8 10 f0 b4 af 7e 32 38 2d b4 ba b6
       3.891681e-06 -4.4715648e-07 4.255649e-05 -5.564207e-06
000250 cf 03 27 37 3f dc a7 b7 ac 3e c3 37 6a b6 50 36
       9.954862e-06 -2.0010511e-05 2.3274995e-05 3.1100594e-06
000260 65 66 39 b6 e6 2c ac b7 00 3e 7c 37 27 2f ca b6
       -2.762675e-06 -2.0524905e-05 1.5034806e-05 -6.0255584e-06
000270 96 6f a1 37 b8 0a a4 37 84 4e 3f b6 5e f1 1c b7
       1.9244657e-05 1.9555315e-05 -2.850692e-06 -9.354522e-06
000280 5b 39 1b b9 68 02 8e b8 d9 9b bc b7 92 db f8 b6
       -0.00014803318 -6.771536e-05 -2.2483919e-05 -7.4165373e-06
000290 7e 5a 13 36 79 9a 49 b8 00 77 d2 b8 ca 17 44 b8
       2.195738e-06 -4.8066e-05 -0.00010035746 -4.6752197e-05
0002a0 48 54 e6 b8 65 c4 1a 37 ff f0 9f b5 83 66 c4 b6
       -0.00010982953 9.224842e-06 -1.1916562e-06 -5.853189e-06
0002b0 ce 2c 0c b6 e9 69 1a b7 96 dc 28 36 37 4c 63 b8
       -2.0887705e-06 -9.203774e-06 2.5162349e-06 -5.4191998e-05
0002c0 1d a3 fe b7 02 4c 09 b6 6e 8d c9 b8 51 fd 0f b6
       -3.0355115e-05 -2.0458833e-06 -9.61077e-05 -2.145611e-06
0002d0 1d b7 de b7 34 8c e2 b8 e9 87 e3 b7 d4 8e 23 b7
       -2.6549731e-05 -0.00010802635 -2.7123797e-05 -9.748812e-06
0002e0 8b fb 09 b6 56 1a 9b 37 c3 04 0e b8 26 41 71 b8
       -2.0561008e-06 1.8489704e-05 -3.3859873e-05 -5.751955e-05
0002f0 b8 85 52 b8 d9 85 2c b8 3a a8 1c b7 cb bb 06 37
       -5.0192437e-05 -4.113265e-05 -9.337493e-06 8.030746e-06
000300 45 a1 82 3a f2 39 c7 39 94 e1 bf b9 e2 ca d0 38
       0.0009966275 0.0003799941 -0.00036598428 9.956003e-05
000310 69 02 ac ba 74 d7 14 39 8d 0a 77 ba 13 55 77 ba
       -0.0013123277 0.00014194642 -0.00094238744 -0.00094349793
000320 94 cc 82 ba a1 3a 16 b5 45 97 51 b6 18 33 15 38
       -0.0009979182 -5.596467e-07 -3.1231477e-06 3.5571953e-05
000330 df af 8e b9 f9 85 01 bb de f7 4f bb 41 8b 71 bb
       -0.00027215385 -0.0019763692 -0.0031733434 -0.0036856683
000340 ab 54 08 39 c3 33 4c 38 56 51 9e 3a c5 44 87 b7
       0.00013001512 4.8685597e-05 0.0012078683 -1.6125277e-05
000350 81 f4 dd ba a9 91 3c 3a c8 aa 0a bb 5b cd 3a 36
       -0.001693383 0.0007193336 -0.0021158922 2.7835692e-06
000360 4f 06 69 ba 2b 97 6b ba ab 96 0f 3a 98 2a 98 39
       -0.00088891847 -0.00089870644 0.00054774684 0.00029023434
000370 68 58 6e ba 84 75 4a bb d4 44 bf b8 7a 46 a2 b8
       -0.0009092153 -0.0030892799 -9.12041e-05 -7.737889e-05
000380 69 01 06 b9 36 fc b7 b9 51 ba ca b9 29 8b 82 b9
       -0.00012779761 -0.00035092392 -0.0003866726 -0.00024899215
000390 e5 0d ce b6 8d 96 03 b7 a9 2c 5d b9 e5 26 4b b8
       -6.140896e-06 -7.843261e-06 -0.0002109284 -4.8435195e-05
0003a0 71 da 6c b9 28 b3 17 b6 98 45 dc 36 a7 1d 08 b9
       -0.0002258809 -2.2605036e-06 6.5646127e-06 -0.00012981017
0003b0 eb f5 de 38 02 d4 b8 38 91 a3 79 39 41 14 c2 b8
       0.00010631591 8.813293e-05 0.00023807424 -9.2544135e-05
0003c0 67 cc 87 b5 3b 31 03 b9 e1 3e 12 ba 17 a2 69 b5
       -1.0117773e-06 -0.00012511473 -0.00055788277 -8.7035136e-07
0003d0 35 f4 09 38 2a dd 0a b9 ce 48 b2 b8 db b6 12 b7
       3.289078e-05 -0.00013243096 -8.501262e-05 -8.7448525e-06
0003e0 67 ae 04 b7 67 eb a6 b8 2e 20 2d ba 81 c2 28 b8
       -7.908419e-06 -7.959344e-05 -0.00066042214 -4.0235467e-05
0003f0 d4 01 d4 b8 bb 19 8f b8 1e d2 2a 36 d8 61 b1 36
       -0.00010109288 -6.823564e-05 2.5454278e-06 5.2864016e-06

exp_avg_sq f4 [32, 32]
000000 68 b9 0c 2c 98 c3 8d 2a 85 64 9d 2a 3a 82 1d 2c
       1.9998118e-12 2.5182352e-13 2.7958552e-13 2.2383332e-12
000010 a5 77 56 2b a0 ef 14 2a a4 7a 0f 29 85 dc ae 2b
       7.6194113e-13 1.3228177e-13 3.1858752e-14 1.242465e-12
000020 9d f6 d3 25 99 4f 9a 2b a1 c7 f0 2b 5e be 45 2b
       3.6769777e-16 1.0964451e-12 1.7108434e-12 7.0252647e-13
000030 5a 4e 00 2c 8c 82 85 2b a4 53 28 2c 6e 7b a1 29
       1.8233388e-12 9.486452e-13 2.3920666e-12 7.171248e-14
000040 8e c6 69 2a 22 1f 12 2c 6e 51 8e 2b 5a b7 89 2a
       2.0763445e-13 2.076513e-12 1.0112308e-12 2.4463314e-13
000050 5c 83 53 29 e8 b8 01 2c 55 40 ed 2a 4b 19 6b 2b
       4.6965348e-14 1.8434646e-12 4.2144296e-13 8.352387e-13
000060 49 af 16 23 29 56 ae 2a b2 a9 ed 27 29 c9 97 2b
       8.168634e-18 3.0968395e-13 6.59647e-15 1.0785028e-12
000070 1e db 9b 2b 63 de 5e 2b 95 21 92 2a 68 a8 cf 2b
       1.107423e-12 7.9178867e-13 2.5958112e-13 1.4754977e-12
000080 70 b7 91 32 29 ce 06 32 8d e2 9b 32 ee a6 be 2f
       1.696364e-08 7.846702e-09 1.8147398e-08 3.467941e-10
000090 ec d9 ef 2b 6c 18 f3 2c 2b 41 64 32 92 3f 1c 30
       1.7042457e-12 6.9091868e-12 1.3286164e-08 5.684281e-10
0000a0 72 c7 82 32 d7 75 26 2c 8a 79 47 2a 9e 46 db 2e
       1.5224689e-08 2.3655433e-12 1.7716918e-13 9.971511e-11
0000b0 f6 ab 5d 2d 79 2b 5a 2f d9 a1 b7 2b 2a 7a c7 2f
       1.2600579e-11 1.9842429e-10 1.3047854e-12 3.6284692e-10
0000c0 b8 01 6d 2c 4a 57 f1 2e 66 91 dc 32 f3 7f d9 2b
       3.368068e-12 1.0974917e-10 2.567749e-08 1.545429e-12
0000d0 0b 11 d6 30 75 95 c8 31 d4 3c 02 30 0c 64 ec 2a
       1.5575393e-09 5.8377574e-09 4.7380166e-10 4.1991443e-13
0000e0 20 66 b9 28 c9 56 fe 30 bc 61 b0 32 c7 19 20 30
       2.0583416e-14 1.8505598e-09 2.0533541e-08 5.824429e-10
0000f0 c2 d1 9a 31 d1 c6 8d 2f 13 de 82 2a 66 5b 3e 2b
       4.5058366e-09 2.5789018e-10 2.3246734e-13 6.76284e-13
000100 03 14 0d 32 a0 54 43 31 2f 5f 20 32 71 b4 0b 2f
       8.21183e-09 2.8424338e-09 9.334868e-09 1.2706082e-10
000110 36 08 66 31 43 9b da 2f ed 73 94 32 39 f8 8c 31
       3.3474072e-09 3.976429e-10 1.7282185e-08 4.102756e-09
000120 d6 4b a8 32 bc b1 47 2b aa fc 25 2b 3d 01 2f 2e
       1.959226e-08 7.094566e-13 5.897042e-13 3.9791493e-11
000130 50 9c 3a 30 ed e8 04 32 f1 dc 84 32 72 a7 ec 32
       6.788854e-10 7.736372e-09 1.5467295e-08 2.7550161e-08
000140 29 0a bc 2f 04 cf 7d 2e 2a 49 00 32 00 f0 14 2c
       3.420422e-10 5.7709407e-11 7.467216e-09 2.1165292e-12
000150 4b a1 0f 32 7e 0f d5 30 47 53 3c 32 d4 b8 b3 2a
       8.360369e-09 1.5502193e-09 1.0961975e-08 3.1925038e-13
000160 6a 65 9d 30 04 b6 07 32 f8 6b d5 31 3e 9b fe 2e
       1.1452077e-09 7.89942e-09 6.2113905e-09 1.1578159e-10
000170 f0 d8 e8 31 35 28 a7 32 d9 23 8b 29 f5 b5 c5 2c
       6.7767516e-09 1.9459643e-08 6.1790586e-14 5.619278e-12
000180 cb db e9 31 cc 9e a0 31 e5 af 08 32 7b fc 9c 2f
       6.80618e-09 4.674666e-09 7.956236e-09 2.8555633e-10
000190 a8 82 2e 25 2b 85 a0 27 a7 ae a5 31 58 9a 8c 2e
       1.5136362e-16 4.45533e-15 4.8219877e-09 6.39388e-11
0001a0 9e 75 c6 31 1c 52 ab 2a f7 26 ed 2b 7b 30 a1 2e
       5.77593e-09 3.0432677e-13 1.6850678e-12 7.330044e-11
0001b0 e6 78 49 29 c4 a5 eb 2d 52 e2 75 2b f9 0a ad 2c
       4.4735828e-14 2.6790022e-11 8.735557e-13 4.918174e-12
0001c0 f6 ba 83 2a 71 72 c1 2e 9f 3c 4d 32 b6 0f 09 2b
       2.3400005e-13 8.796953e-11 1.1946354e-08 4.869398e-13
0001d0 26 29 e8 2f d5 6f 41 31 ce 60 61 2d 60 6d 1d 2c
       4.2229792e-10 2.8148766e-09 1.2811264e-11 2.2371757e-12
0001e0 a6 28 31 29 e4 a7 3e 30 45 43 40 32 e2 e3 43 2f
       3.9337152e-14 6.9360184e-10 1.1191166e-08 1.7816107e-10
0001f0 5b 07 e3 30 f2 e7 d0 2b af c2 04 2b f7 38 b8 29
       1.6518514e-09 1.4843667e-12 4.7166e-13 8.181123e-14
000200 83 00 70 30 01 31 b4 30 3c 91 9d 31 fa 3d 16 2f
       8.731222e-10 1.3110651e-09 4.5858126e-09 1.3664439e-10
000210 85 fb a0 2b b3 00 24 2c 98 1e bb 30 09 54 a3 2d
       1.1438494e-12 2.330619e-12 1.3614736e-09 1.8568274e-11
000220 44 78 e5 30 be ca ec 2b eb 4c 32 2b 7a f6 ed 2d
       1.6696124e-09 1.6825081e-12 6.334505e-13 2.7053238e-11
000230 a2 1e 39 2e 59 8b ba 2f 48 94 0e 2f c3 30 b5 2e
       4.2091337e-11 3.3932215e-10 1.2967505e-10 8.239589e-11
000240 61 19 d5 2a 0a 48 d9 2d 04 92 81 31 ca ab 58 2b
       3.785401e-13 2.4702036e-11 3.770994e-09 7.697702e-13
000250 e7 10 b6 2f f6 0e 68 2f 3d b2 87 2e 75 b6 88 2a
       3.3117617e-10 2.1105592e-10 6.170751e-11 2.4285058e-13
000260 2c 61 58 2a 75 be e6 30 4d c9 b9 31 d5 20 50 2c
       1.9218367e-13 1.6788834e-09 5.407094e-09 2.9576803e-12
000270 8a 40 39 30 11 0f 5c 2e 9c 33 66 2a 27 5e 18 2c
       6.7394323e-10 5.003559e-11 2.0446009e-13 2.1652764e-12
000280 4a 48 d1 30 cf 15 0f 30 e3 6a b0 30 3a 83 07 2e
       1.5227297e-09 5.205409e-10 1.2836064e-09 3.0812e-11
000290 57 70 d0 2b 73 1c a1 2e c6 31 c1 30 52 de 37 2f
       1.481047e-12 7.326486e-11 1.4056745e-09 1.6722737e-10
0002a0 97 e8 de 30 de 2f 14 2c 31 26 27 29 67 4b f7 2c
       1.6218732e-09 2.1058637e-12 3.7114575e-14 7.0285336e-12
0002b0 4e 84 f9 29 16 48 74 2c 8a c4 a0 2b 28 74 ab 2f
       1.10807725e-13 3.4714501e-12 1.1423234e-12 3.1187253e-10
0002c0 be 37 27 2e ff 5f 11 2d 3a 72 f9 30 04 84 03 2a
       3.8020913e-11 8.263611e-12 1.81496e-09 1.168094e-13
0002d0 be 00 61 2f b7 47 09 30 29 c8 41 2f ec f8 24 2c
       2.0463894e-10 4.994222e-10 1.7624359e-10 2.3443981e-12
0002e0 34 e9 f1 29 a6 51 fb 2e 90 02 b1 30 84 04 ce 2e
       1.0743004e-13 1.1428662e-10 1.2879173e-09 9.3685976e-11
0002f0 f7 28 fa 2f ec 9b 69 2f be d0 17 2c 36 d9 e0 2b
       4.5503842e-10 2.1246621e-10 2.1574266e-12 1.5976445e-12
000300 c4 ee 65 33 6b 54 3e 32 42 31 5e 33 df 24 e6 2f
       5.3535373e-08 1.107865e-08 5.1733203e-08 4.1862955e-10
000310 5b 5f 59 33 93 f2 e6 30 90 83 f2 33 5a 49 41 33
       5.0610975e-08 1.6803646e-09 1.1292934e-07 4.5003027e-08
000320 ea 55 07 34 47 14 21 28 47 da 89 2a 4b 52 70 2e
       1.260411e-07 8.941692e-15 2.448755e-13 5.4642773e-11
000330 05 23 06 31 4a 1e f3 33 50 dc 9c 34 29 2f 04 35
       1.9519473e-09 1.1321079e-07 2.9217563e-07 4.924246e-07
000340 b0 29 c7 30 2d f8 ae 2e bf c6 a8 33 44 1a 2e 2d
       1.4491004e-09 7.956689e-11 7.859261e-08 9.896587e-12
000350 ac 2c e6 33 e8 2f b2 32 3c 42 39 34 cd 43 ca 2b
       1.07183354e-07 2.0743713e-08 1.7253564e-07 1.4371782e-12
000360 57 93 bb 32 90 b9 21 33 e6 db 2a 33 eb 1c 4f 31
       2.1836668e-08 3.76545e-08 3.9781206e-08 3.0138902e-09
000370 7f ad 64 33 78 22 ba 34 d2 ea c2 2f b4 53 3b 2f
       5.324318e-08 3.467028e-07 3.5455244e-10 1.7037288e-10
000380 ec 4a 3c 32 cf 18 87 32 33 24 9a 33 b4 62 3c 31
       1.09600755e-08 1.572735e-08 7.1777684e-08 2.7413707e-09
000390 9c ce 83 2b a6 83 d6 2b d8 a6 90 32 16 5a 18 2f
       9.365455e-13 1.5242154e-12 1.6839678e-08 1.3856324e-10
0003a0 39 d8 ab 32 61 b8 11 2a ce 84 96 2b d0 be 3b 30
       2.0005347e-08 1.2942556e-13 1.0695002e-12 6.8301365e-10
0003b0 06 b3 80 30 6c a3 5f 32 e6 11 52 31 8f 99 db 30
       9.364107e-10 1.3017466e-08 3.0569196e-09 1.5977991e-09
0003c0 92 15 f4 28 89 bd 2b 30 26 1e 48 33 b8 35 b7 28
       2.7098796e-14 6.2478783e-10 4.659355e-08 2.0340378e-14
0003d0 98 5f e1 31 b1 f1 76 31 fe 19 8b 30 fa 37 05 2c
       6.5592296e-09 3.5935097e-09 1.0120969e-09 1.893151e-12
0003e0 04 14 da 2b b6 54 55 33 30 04 ad 33 9c 47 f5 2e
       1.5495387e-12 4.966997e-08 8.056702e-08 1.11540305e-10
0003f0 97 a6 24 32 2a ff 78 30 34 19 38 2a 12 b3 43 2b
       9.5839345e-09 9.0584484e-10 1.6351227e-13 6.9526427e-13

exp_avg f4 [32]
000000 0f f8 a4 b6 3c 8e 70 39 a9 5a 1c 3a 4a 53 78 b9
       -4.9164587e-06 0.0002294117 0.0005964437 -0.0002368215
000010 53 cc 3a 38 8f 39 6e b8 26 a5 ec ba 7d c2 cd b9
       4.4536147e-05 -5.6797227e-05 -0.0018054589 -0.00039245552
000020 7c d6 03 ba 54 81 8d b7 4e a8 1e b7 2c 97 b5 ba
       -0.0005029214 -1.6868733e-05 -9.45672e-06 -0.0013854257
000030 4b 93 2f bb d4 3c 03 3a de 45 ae b7 ac 99 71 3b
       -0.0026790674 0.00050063175 -2.077495e-05 0.0036865277
000040 e7 c1 b9 b8 20 d5 fe 39 77 63 d7 3a 37 29 d8 ba
       -8.8576046e-05 0.00048605446 0.0016432841 -0.0016491775
000050 fa e2 a7 3a 9e 8e 95 39 99 62 14 ba a9 ce 09 b7
       0.0012808733 0.00028525753 -0.0005660444 -8.213953e-06
000060 f1 f4 3b b9 10 ec 0b 39 92 be fa b7 35 cd 16 b7
       -0.00017924958 0.00013344013 -2.9891064e-05 -8.988475e-06
000070 58 d6 a6 3a 25 52 09 ba b5 85 8d ba 40 e8 a9 b9
       0.0012728674 -0.0005238376 -0.0010797294 -0.00032407232

exp_avg_sq f4 [32]
000000 2a 6e 29 2b 78 87 09 33 df 9b 04 33 69 79 60 32
       6.0193745e-13 3.2021006e-08 3.087541e-08 1.30661215e-08
000010 64 98 07 32 c7 6e 2c 31 c0 c2 63 34 2b 61 08 34
       7.892684e-09 2.5092264e-09 2.1211872e-07 1.2701337e-07
000020 5f 3b 9f 33 5c 67 17 34 19 b4 1b 2c ce e8 b2 33
       7.414814e-08 1.4100573e-07 2.21268e-12 8.331118e-08
000030 be 69 a7 34 ab 9a 22 33 be a0 37 32 00 0c ff 34
       3.1183112e-07 3.7859234e-08 1.06885505e-08 4.7506182e-07
000040 36 ee aa 30 24 16 31 34 ed a2 20 34 72 db e8 33
       1.2436832e-09 1.6492464e-07 1.4960433e-07 1.0843259e-07
000050 96 b1 bf 33 57 77 5c 32 1e 58 cc 32 8e 2e eb 2b
       8.926433e-08 1.283282e-08 2.3788797e-08 1.6710676e-12
000060 2e 73 57 33 d0 cf 99 31 24 f2 e6 2f 65 b7 0c 2c
       5.0163344e-08 4.4765116e-09 4.2008808e-10 1.9997e-12
000070 32 4f 0a 34 e4 a4 91 32 74 e4 1c 33 ec d0 91 33
       1.2881063e-07 1.6955205e-08 3.6529357e-08 6.790091e-08
