checkpoints/ablation_eps_0.05/ablation_eps_0.05_epoch0050.pt (torch, 39995 bytes, 24 tensors)

0.weight f4 [32, 2]
0.6439964 0.5851565 -0.19146943 0.72689885 -0.14569385 0.22643647 -0.47486332 0.402013
0.58076316 -0.48038325 0.6425659 0.31404123 0.47055727 -0.016871545 0.40868264 -0.04938024
0.56259346 0.111650296 -0.06378969 0.0032017876 -0.061107486 -3.763576e-09 -0.32139292 0.59799457
-0.6776938 -0.5087941 -0.16560666 -0.39727294 0.073764056 -0.7582236 0.5205206 -0.65508384
0.6364799 0.12116614 -0.2352504 0.5572144 0.12241489 0.6659966 0.15479045 -0.32309598
0.15867773 -0.24478461 0.34978038 0.6497594 0.29437327 -0.35813972 0.5063367 -0.15045273
0.35586643 -0.43443465 -0.74879134 -0.349274 -0.5243321 0.6322271 0.25820717 0.35452527
0.27494904 0.05050598 0.4515406 -0.5773104 0.06878578 -0.63029975 0.33939114 -0.2743765
00000000: f3dc 243f d1cc 153f 9010 44be 0b16 3a3f
00000010: c530 15be f6de 673e 4921 f3be a6d4 cd3e
00000020: e5ac 143f cbf4 f5be 337f 243f 03ca a03e
00000030: e2ec f03e 3236 8abc da3e d13e ef42 4abd
00000040: 2006 103f e9a8 e43d 2ba4 82bd 15d5 513b
00000050: d84b 7abd c450 81b1 9d8d a4be 2c16 193f
00000060: 577d 2dbf 5540 02bf cb94 29be 5c67 cbbe
00000070: 9c11 973d f11a 42bf d740 053f 93b3 27bf
00000080: 59f0 223f f425 f83d 7be5 70be 9aa5 0e3f
00000090: a8b4 fa3d c17e 2a3f 6381 1e3e d66c a5be
000000a0: 6a7c 223e d1a8 7abe 6a16 b33e a256 263f
000000b0: 18b8 963e 175e b7be 489f 013f 4810 1abe
000000c0: 2034 b63e 386e debe cab0 3fbf 0bd4 b2be
000000d0: a13a 06bf a3d9 213f bb33 843e 5684 b53e
000000e0: 1fc6 8c3e 5cdf 4e3d 5430 e73e 9dca 13bf
000000f0: 8fdf 8c3d 535b 21bf adc4 ad3e 147b 8cbe

0.bias f4 [32]
0.14012596 -0.09882879 0.6439811 -0.41476595 -0.5434828 -0.40664345 0.65172577 0.18455967
0.70452946 -0.2637889 -0.3703979 -0.50971824 -0.41387412 0.34141624 0.2322374 0.63549656
-0.36237973 -0.4638313 0.3483314 -0.2803044 0.4366385 -0.24238744 0.39194202 -0.4748983
-0.4217538 0.23632275 0.15606901 -0.2164949 0.46499473 0.54037356 -0.48147225 -0.37628463
00000000: 2e7d 0f3e c066 cabd f2db 243f 345c d4be
00000010: b021 0bbf 9233 d0be 80d7 263f 36fd 3c3e
00000020: 0b5c 343f 570f 87be cba4 bdbe e57c 02bf
00000030: 4fe7 d3be 1cce ae3e a4cf 6d3e e7af 223f
00000040: d689 b9be 4c7b edbe 7e58 b23e 0f84 8fbe
00000050: 158f df3e 6a34 78be a0ac c83e df25 f3be
00000060: 1df0 d7be 97fe 713e 8ed0 1f3e d7b0 5dbe
00000070: ca13 ee3e ec55 0a3f 8883 f6be 61a8 c0be

2.weight f4 [32, 32]
-0.039248075 0.06413838 0.050091803 -0.2338757 -0.10269536 -0.13682212 0.044063907 -0.036402654
0.040525757 -3.071628e-05 -0.00061746145 -0.10342741 -0.29709682 0.032103922 0.118220516 0.046268024
-0.10681692 -0.086657725 -0.109849565 -0.29309344 0.051590834 -0.2255452 0.045680583 -0.29795048
-0.18475318 -0.011849476 -0.02465158 -0.20825176 0.017284535 0.031487554 -0.38068044 -0.2794921
0.14782304 0.039669096 0.25241306 0.00914525 -0.31212908 -0.31637695 0.030747274 -0.07378648
-0.06917782 -0.0026353612 -9.2861656e-11 -0.21444486 -0.2039604 -0.2168944 0.03950452 -0.12950805
-0.5335633 -0.13921142 0.17105013 -0.111279696 0.25348115 -0.21543613 0.027770396 -0.28328338
-0.22257295 -0.13705748 0.22813405 -0.38604137 0.17988099 0.042564634 -0.057770368 -0.20034178
0.16830488 0.045651376 0.004780701 0.0047445036 -0.014773843 0.05989906 -0.09937426 0.13812026
0.025877595 2.927536e-08 3.5094472e-09 0.18834865 0.0533122 -0.0658889 -0.18046942 -0.08031017
-0.06110099 0.23941009 0.14905699 -0.14698188 -0.0019726022 0.19636682 0.01285035 -0.19834468
-0.016327765 0.075291686 0.070897676 0.19058228 -0.0714337 -0.003011927 -0.004503494 -0.198714
0.1962351 0.20128243 -0.058853995 0.1537158 -0.1799909 0.35991526 0.02113415 0.1574848
-0.16538599 3.4662214e-11 0.00057027285 0.3758998 0.29060414 -0.11838726 -0.15209232 -0.06888858
0.2497416 0.36057037 0.12863624 1.8998538e-09 -0.28648952 0.10220855 0.006843392 -0.08471452
-0.16699564 -0.04144604 0.06328675 0.29402092 -0.1363451 0.16246809 -3.3196584e-10 -0.19989608
-0.08901074 0.24701497 0.22360906 0.10875053 -0.033283893 -0.2989432 -0.03310029 0.15757306
0.19812131 0.00056571513 -2.7698114e-08 -0.07134761 -0.20752887 -0.25820768 -0.20580643 -0.15624575
-0.2430713 -0.17163928 0.09551334 -2.3028905e-07 0.009901135 -0.09562384 -0.1305496 -0.044123854
-2.0712694e-09 0.044706248 0.038963392 -0.26694304 0.07651178 -0.09982973 -2.8942262e-11 -0.0019030301
0.13656895 -0.09741136 0.0590674 0.17458478 0.017620051 0.01609627 0.11384485 -0.068899274
0.055901106 0.0016432453 9.9905206e-12 0.23526464 0.12070881 -0.13598022 0.040068224 -0.17753817
0.22813168 0.3578681 0.1734713 -0.06589838 -0.18553843 0.18752487 0.09184557 -0.26582134
-0.1391478 -0.11214499 -0.029971402 0.18343565 -0.090941586 -0.058772262 -0.020870503 -0.040239893
0.13889039 -0.046374977 -0.03097635 -0.24936785 -0.030285392 -0.21456891 0.05841786 -0.088675655
-0.12099908 -4.779878e-12 -3.9074077e-11 -0.28026012 0.15233172 -0.033445198 -0.036907457 -0.08223914
-0.14725171 -0.07889153 -0.053965006 0.31441763 -0.0461386 -0.093530945 0.16584465 0.3642352
0.023803275 0.095031664 0.16690344 -0.1616039 0.12152566 0.17690308 0.3234108 0.30014184
-0.0765446 -0.008793079 0.13191791 0.23154558 -6.1409837e-06 0.17806451 -0.11395608 -0.07915664
-0.11673909 3.0366595e-11 2.451686e-05 0.25666544 -0.16375323 -0.13387029 -0.012389373 -0.014001717
0.10680983 0.30112714 -0.053637594 1.6310236e-11 -0.053875625 0.0758272 0.014449912 -0.0010190655
-0.00035928917 -0.101640016 0.1893263 0.21333212 -0.11750648 0.15143646 2.4597633e-12 -4.3263405e-08
00000000: 97c2 20bd fc5a 833d 102d 4d3d 1d7d 6fbe
00000010: f251 d2bd 191b 0cbe 5b7c 343d f31a 15bd
00000020: 56fe 253d 5bd5 00b8 23dd 21ba c0d1 d3bd
00000030: 131d 98be 677f 033d 991d f23d 8a83 3d3d
00000040: d4c2 dabd 9b79 b1bd cff8 e0bd 5810 96be
00000050: e950 533d 52f5 66be 901b 3b3d f78c 98be
00000060: f02f 3dbe 4e24 42bc 1cf2 c9bc f33f 55be
00000070: 4c98 8d3c 18f9 003d 8ce8 c2be 9719 8fbe
00000080: ec5e 173e 107c 223d 493c 813e f5d5 153c
00000090: 62cf 9fbe 29fc a1be b5e1 fb3c 5e1d 97bd
000000a0: 1aad 8dbd 06b6 2cbb 7734 ccae 6f97 5bbe
000000b0: ffda 50be 9119 5ebe 7ecf 213d c29d 04be
000000c0: 9b97 08bf 708d 0ebe c427 2f3e 9ce6 e3bd
000000d0: 48c8 813e 4a9b 5cbe be7e e33c 850a 91be
000000e0: 2aea 63be cc58 0cbe f99b 693e 37a7 c5be
000000f0: b932 383e 4158 2e3d 9fa0 6cbd 6526 4dbe
00000100: 1d58 2c3e f0fc 3a3d 6da7 9c3b c877 9b3b
00000110: fd0d 72bc b758 753d bb84 cbbd 666f 0d3e
00000120: 40fd d33c 3379 fb32 d92a 7131 78de 403e
00000130: e55d 5a3d c2f0 86bd facc 38be a979 a4bd
00000140: 0845 7abd eb27 753e 65a2 183e 6b82 16be
00000150: c646 01bb 6214 493e 468a 523c de1a 4bbe
00000160: cec1 85bc 8732 9a3d cd32 913d 0028 433e
00000170: d54b 92bd c063 45bb 0c92 93bb af7b 4bbe
00000180: dbf1 483e fb1c 4e3e e310 71bd ad67 1d3e
00000190: 894f 38be d046 b83e 8621 ad3c b243 213e
000001a0: f25a 29be 2f72 182e 5d7e 153a f075 c03e
000001b0: 11ca 943e 0575 f2bd 17be 1bbe 7515 8dbd
000001c0: 43bc 7f3e ae9c b83e 38b9 033e 958e 0231
000001d0: c1ae 92be b752 d13d 883e e03b ce7e adbd
000001e0: e800 2bbe 53c3 29bd 7c9c 813d e989 963e
000001f0: 0d9e 0bbe 095e 263e 0a80 b6af 8fb1 4cbe
00000200: 434b b6bd 7ef1 7c3e c6f9 643e 99b8 de3d
00000210: b154 08bd 150f 99be 2b94 07bd d55a 213e
00000220: 50e0 4a3e 804c 143a ccec edb2 b21e 92bd
00000230: 7382 54be cc33 84be ecbe 52be e3fe 1fbe
00000240: afe7 78be 35c2 2fbe 7f9c c33d 5f45 77b4
00000250: 5f38 223c 6fd6 c3bd cbae 05be 37bb 34bd
00000260: 2856 0eb1 e61d 373d 1498 1f3d c2ac 88be
00000270: 35b2 9c3d 8873 ccbd 2e94 fead 186f f9ba
00000280: bbd8 0b3e 9b7f c7bd a8f0 713d 5ac6 323e
00000290: ed57 903c 53dc 833c 7d27 e93d 101b 8dbd
000002a0: 8ff8 643d 2a62 d73a 4ec1 2f2d 37e9 703e
000002b0: 2e36 f73d 663e 0bbe 941e 243d 91cc 35be
000002c0: 5a9b 693e 7d3a b73e 76a2 313e bbf5 86bd
000002d0: c9fd 3dbe 8506 403e 8819 bc3d bc19 88be
000002e0: c37c 0ebe 46ac e5bd 9686 f5bc 8ed6 3b3e
000002f0: 953f babd 2fbb 70bd 9ef8 aabc 96d2 24bd
00000300: 4839 0e3e b0f3 3dbd 1dc2 fdbc 495a 7fbe
00000310: 1219 f8bc f4b7 5bbe 9147 6f3d 959b b5bd
00000320: 5ece f7bd 502d a8ac 80d9 2bae 417e 8fbe
00000330: d9fc 1b3e d5fd 08bd 462c 17bd ff6c a8bd
00000340: 27c9 16be e291 a1bd 690a 5dbd 59fb a03e
00000350: d4fb 3cbd 278d bfbd 2ed3 293e 097d ba3e
00000360: 16ff c23c f69f c23d bce8 2a3e 7e7b 25be
00000370: 72e2 f83d 1526 353e 1a96 a53e 31ac 993e
00000380: 6ac3 9cbd d910 10bc 7d15 073e 491a 6d3e
00000390: a60e ceb6 8b56 363e ce61 e9bd e01c a2bd
000003a0: e714 efbd bf8d 052e 8ea9 cd37 a769 833e
000003b0: edae 27be 4b15 09be ccfc 4abc 7567 65bc
000003c0: 1dbf da3d 562d 9a3e 18b3 5bbd 6377 8f2d
000003d0: b0ac 5cbd 4b4b 9b3d 53bf 6c3c 2a92 85ba
000003e0: fa5e bcb9 a428 d0bd c1de 413e bc73 5a3e
000003f0: 3da7 f0bd 2912 1b3e 2817 2d2c 9ed0 39b3

2.bias f4 [32]
0.042996924 -0.0385185 -0.023942512 -0.16443853 0.22561944 -0.20526227 0.082569115 0.16912884
0.08394605 0.09233179 -0.0020208785 0.14402367 -0.031310502 -0.20855218 0.16894211 -0.09446072
0.0014077087 0.17923237 -0.14002094 -0.05723554 0.092897505 -0.053035516 -0.013864842 -0.022952072
0.015465959 -0.05175888 -0.10023763 -0.023449808 0.07951396 0.030757295 -0.12893479 0.14717765
00000000: 8b1d 303d 93c5 1dbd 1623 c4bc 9362 28be
00000010: c808 673e 4630 52be ff19 a93d 1c30 2d3e
00000020: e8eb ab3d 7318 bd3d b770 04bb f17a 133e
00000030: 713f 00bd b48e 55be 29ff 2c3e 9f74 c1bd
00000040: de82 b83a b188 373e a661 0fbe d06f 6abd
00000050: 0c41 be3d c53b 59bd 5d29 63bc fc05 bcbc
00000060: ef64 7d3c 1f01 54bd 6349 cdbd d019 c0bc
00000070: 37d8 a23d b9f6 fb3c 7b07 04be bdb5 163e

4.weight f4 [32, 32]
0.12926786 -0.026956214 -0.036247954 0.4077252 0.1405976 0.20979843 -0.15991712 0.22193374
0.07015601 0.12246706 0.00021936379 0.0964231 -0.17886804 0.018363154 -0.13217114 -0.0051524355
-0.031024896 -0.0011801043 0.009765547 0.057284053 -0.06921039 0.028405536 0.26082158 0.000112301175
0.06816511 0.11265018 0.44924903 -5.219612e-12 0.08990353 0.09787556 -0.2382448 -0.1381663
0.20710087 -0.14610831 0.06822047 0.3822227 -0.007976895 0.20976308 -0.068511866 0.20156412
0.19558242 -0.02904339 -0.00020356869 -0.18816313 -0.14569226 -0.43677035 -0.0323483 -0.044621028
0.008581383 0.01693236 -0.011746377 0.2778904 -0.020898005 -0.036596887 0.11325008 -3.0255043e-07
0.10349701 0.18527386 0.48745137 -9.5625226e-05 0.105987296 0.20862526 -0.15538839 0.16340367
0.00013606105 -0.0037455345 0.05505578 -0.006437131 -0.0027412057 0.015585097 0.025356553 -0.0044394536
0.048417423 -0.018154994 0.00071741035 0.07963362 0.0025652654 -0.0012729946 0.041401383 -2.9629042e-11
0.018569427 0.029608874 0.065345235 -0.046116695 -3.6208477e-11 0.014086115 0.00039431432 0.00034902088
-0.0833718 -0.015859716 2.9593005e-11 -7.4134913e-11 0.05310616 0.00067703275 -0.0014263669 -0.016699117
0.19152637 -0.055713087 0.041788336 0.19307661 -0.060011663 0.07012399 -0.04826643 0.22080089
0.014863138 0.20764937 -2.7213612e-11 -0.17767443 0.005967015 -0.19416362 -0.12101997 -0.12755273
0.25865802 0.20497939 -0.066686824 0.20440735 0.018183362 -0.12724672 0.05749983 0.00036035138
-0.06441004 0.13393681 0.16583943 3.976431e-05 0.1570284 0.15562242 -0.022108825 0.07197455
-0.18169715 0.21074687 -0.09182594 -0.05485923 -0.036575876 0.035421852 0.18571113 -0.09782533
0.004286396 -0.056665115 0.0018147015 0.1778972 0.23544449 0.3041197 0.17656212 0.15014671
-0.27772567 -0.20435621 0.0097010145 -0.0007893716 -0.14366063 -1.4676408e-11 0.08419226 1.9234444e-11
-0.022387514 0.03775606 -0.1625334 -4.330466e-05 0.19434375 -0.033846993 0.1438476 0.21539494
0.20965841 -0.15579057 0.21974726 0.3688381 -0.07619544 0.097417 -0.14321922 0.07353484
-0.085837245 0.110241316 -1.3867906e-11 0.009281264 -0.16225952 -0.49514386 0.08528525 0.1261269
-0.069624916 0.12181851 -0.08350511 0.10830012 0.19330063 0.0008499292 -0.09847089 0.001223301
0.08066508 0.081133015 0.4351544 -5.246889e-10 -0.033692002 -0.044534285 -0.012823901 0.075052865
-0.16350947 0.113689005 -0.14737222 0.017892886 -0.10267014 -0.0943186 0.06274001 -0.06635293
0.029233366 -0.12097859 4.9667735e-05 0.06872527 -0.027123872 0.48598865 0.08809238 -0.019823145
-0.18390934 -0.024659341 -0.0059882123 -0.042739883 0.006972926 -0.00087047124 -0.014310047 -7.304355e-05
0.22075175 0.10442181 -0.19979563 0.0016218568 0.13522375 -0.18437475 0.15476246 0.11341602
0.0023577525 -1.7322678e-13 0.00018417221 2.634474e-06 8.109263e-05 -0.0025973571 0.00044499824 -0.00064944325
0.0010760095 -2.171293e-12 -0.000962673 -2.3799919e-11 3.4746716e-11 -0.001095367 1.9669605e-10 1.34055085e-11
0.00022738634 -4.925861e-11 9.4832393e-07 -1.949847e-11 -3.1885068e-12 3.9357033e-12 -1.4018359e-05 -0.0004942339
-1.2870272e-10 -0.0015348571 -3.072446e-09 4.5546414e-12 -1.5100277e-05 3.9844453e-10 -2.0992357e-11 -1.4629098e-11
00000000: cb5e 043e 47d3 dcbc bc78 14bd 5bc1 d03e
00000010: d1f8 0f3e 66d5 563e 50c1 23be 9942 633e
00000020: f4ad 8f3d 03d0 fa3d 0505 6639 7979 c53d
00000030: 2f29 37be 536e 963c df57 07be c3d5 a8bb
00000040: ec27 febc bbad 9aba acff 1f3c afa2 6a3d
00000050: 2dbe 8dbd bab2 e83c 688a 853e 3c83 eb38
00000060: 269a 8b3d 23b5 e63d f803 e63e 16a6 b7ac
00000070: 581f b83d fb72 c83d 72f6 73be 777b 0dbe
00000080: 4012 543e 6b9d 15be 2cb7 8b3d b2b2 c33e
00000090: 86b1 02bc 22cc 563e f34f 8cbd d366 4e3e
000000a0: c246 483e 67ec edbc 0e75 55b9 d6ad 40be
000000b0: 5a30 15be 5da0 dfbe a77f 04bd 8ac4 36bd
000000c0: ee98 0c3c bcb5 8a3c e073 40bc a747 8e3e
000000d0: 4b32 abbc 9ee6 15bd a8ef e73d 376e a2b4
000000e0: 3ef6 d33d 6eb8 3d3e 3a93 f93e 678a c8b8
000000f0: de0f d93d dca1 553e 221e 1fbe 4b53 273e
00000100: 9cab 0e39 a477 75bb 2b82 613d 92ee d2bb
00000110: cda5 33bb a258 7f3c 8cb8 cf3c d678 91bb
00000120: 5951 463d c8b9 94bc 9810 3c3a f416 a33d
00000130: 031e 283b 9cda a6ba 7f94 293d 564f 02ae
00000140: e91e 983c 4f8e f23c b9d3 853d dce4 3cbd
00000150: 1f3f 1fae 73c9 663c f9bb ce39 cafc b639
00000160: d6be aabd 3cec 81bc c326 022e 3f06 a3ae
00000170: d885 593d e67a 313a eef4 baba 96cc 88bc
00000180: 7d1f 443e 6833 64bd 3f2a 2b3d e0b5 453e
00000190: cace 75bd 2b9d 8f3d 05b3 45bd a119 623e
000001a0: 8584 733c 09a2 543e 9b5f efad 49f0 35be
000001b0: f386 c33b d4d2 46be 51d9 f7bd 2f9d 02be
000001c0: d36e 843e 1ee6 513e 1a93 88bd 2950 513e
000001d0: 46f5 943c f74c 02be f184 6b3d 8bed bc39
000001e0: 69e9 83bd bb26 093e d0d1 293e 9ac8 2638
000001f0: 0ecc 203e 7c5b 1f3e 911d b5bc 6567 933d
00000200: d10e 3abe 07ce 573e 3d0f bcbd 12b4 60bd
00000210: 96d0 15bd 8116 113d 0f2b 3e3e a658 c8bd
00000220: e574 8c3b ae19 68bd 47db ed3a af2a 363e
00000230: 5c18 713e 94b5 9b3e b3cc 343e 0fc0 193e
00000240: 0f32 8ebe c142 51be 01f1 1e3c d5ed 4eba
00000250: c61b 13be 5518 81ad fe6c ac3d 1e30 a92d
00000260: 0566 b7bc 19a6 1a3d 286f 26be 06a2 35b8
00000270: 0c02 473e 25a3 0abd c94c 133e 7e90 5c3e
00000280: b2b0 563e 9087 1fbe 6d05 613e 59d8 bc3e
00000290: 5b0c 9cbd 9082 c73d 0fa8 12be 6f99 963d
000002a0: 70cb afbd 33c6 e13d 7ff7 73ad 7110 183c
000002b0: 5c27 26be 7f83 fdbe 08aa ae3d 6927 013e
000002c0: 8297 8ebd fc7b f93d ba04 abbd 74cc dd3d
000002d0: 9af0 453e c8cd 5e3a 1bab c9bd 2c57 a03a
000002e0: bc33 a53d 1129 a63d 8fcc de3e b339 10b0
000002f0: a000 0abd 9569 36bd 571b 52bc 51b5 993d
00000300: 076f 27be c8d5 e83d bee8 16be 1a94 923c
00000310: b944 d2bd 1c2a c1bd d67d 803d 0ce4 87bd
00000320: d07a ef3c 9fc3 f7bd 5352 5038 d6bf 8c3d
00000330: e232 debc 81d3 f83e c769 b43d 2664 a2bc
00000340: bb52 3cbe 6302 cabc c438 c4bb 0410 2fbd
00000350: 257d e43b 5630 64ba b074 6abc f52e 99b8
00000360: bf0c 623e 1adb d53d 3a97 4cbe 7c94 d43a
00000370: 1878 0a3e bccc 3cbe 0d7a 1e3e a946 e83d
00000380: 8684 1a3b 3809 43aa 5a1e 4139 ebcb 3036
00000390: 4610 aa38 6c38 2abb a74e e939 663f 2aba
000003a0: e308 8d3a 8aca 18ac e45b 7cba a758 d1ad
000003b0: 53d1 182e 6b92 8fba 0445 582f 0bd5 6b2d
000003c0: 8e6e 6e39 44a4 58ae 5390 7e35 a782 abad
000003d0: 085f 60ac aa79 8a2c 6530 6bb7 7a8f 01ba
000003e0: 9882 0daf 422d c9ba 0b23 53b1 9040 a02c
000003f0: 3257 7db7 150c db2f 96a6 b8ad cdad 80ad

4.bias f4 [32]
0.07867631 0.06468245 -0.078826725 0.12938261 -0.033192307 0.0042290674 -0.045596886 -0.0017919888
0.016095517 0.043674383 -0.006675779 0.11412691 -0.1054239 -0.0020531472 -0.07247394 -0.03287237
-0.041237358 -0.024532555 0.07505002 -0.00087467296 0.009872455 -0.039310075 0.049280856 0.14291169
0.12061759 2.7635396e-08 -0.00042096063 -0.06690775 -3.678832e-10 0.09706979 0.011954312 0.17351107
00000000: 0c21 a13d 3b78 843d e86f a1bd e07c 043e
00000010: a8f4 07bd fd93 8a3b cdc3 3abd 2be1 eaba
00000020: bfda 833c e9e3 323d 7ec0 dabb 5fbb e93d
00000030: 7ce8 d7bd 188e 06bb 386d 94bd 2ea5 06bd
00000040: 81e8 28bd 7ff8 c8bc d3b3 993d 4f4a 65ba
00000050: 14c0 213c 9a03 21bd b9da 493d 7157 123e
00000060: 5b06 f73d e162 ed32 61b4 dcb9 ee06 89bd
00000070: f53e caaf 87cc c63d 05dc 433c e3ac 313e

6.weight f4 [2, 32]
0.15818927 0.084724754 0.018771145 0.12742 -0.11979798 0.29580933 -0.25759083 6.01475e-09
-0.26093367 -0.33170256 7.2093274e-09 0.18375094 0.4045887 -1.2586807e-13 -0.16302368 -0.12565553
0.34916177 0.06381327 -0.056235455 0.0006375609 0.054107565 -0.25148445 -0.15443467 -0.17561136
-0.1433857 -0.00029305482 6.7795214e-11 -0.38550335 0.002493022 -0.07831306 -0.21076578 -0.30182216
-0.08202972 -0.1664392 0.035105407 -0.20462838 0.17009796 -0.30580124 0.026772244 3.061205e-08
0.2339023 0.17348616 -0.0019961123 -0.19854388 -0.37057844 -0.001476916 0.16904187 0.17862934
-0.35180297 -0.14973348 0.042978488 -0.00029086377 -0.05661602 0.10638196 0.31158444 0.013314488
0.202592 -5.6634725e-10 -7.255704e-11 0.09130953 0.0004765493 0.3826521 0.08565379 0.24782296
00000000: 5efc 213e 2c84 ad3d f2c5 993c 637a 023e
00000010: a558 f5bd 5274 973e f2e2 83be 4daa ce31
00000020: 1999 85be ebd4 a9be eab5 f731 3529 3c3e
00000030: 4026 cf3e 00b7 0daa aeef 26be d8ab 00be
00000040: 55c5 b23e 88b0 823d 2657 66bd fd21 273a
00000050: e59f 5d3d 92c2 80be 1f24 1ebe 77d3 33be
00000060: b3d3 12be 27a5 99b9 5015 952e b260 c5be
00000070: f861 233b 9962 a0bd fcd2 57be 6f88 9abe
00000080: 33ff a7bd 0a6f 2abe b0ca 0f3d 1a8a 51be
00000090: 292e 2e3e fb91 9cbe 7751 db3c 4e7a 0333
000000a0: 1684 6f3e 5ba6 313e 35d1 02bb 164f 4bbe
000000b0: 75bc bdbe 1495 c1ba 5019 2d3e 9cea 363e
000000c0: 851f b4be bc53 19be 360a 303d 137f 98b9
000000d0: 33e6 67bd c9de d93d ff87 9f3e 0325 5a3c
000000e0: 4774 4f3e 25ad 1bb0 fb8d 9fae 7e00 bb3d
000000f0: 5dd9 f939 faea c33e 416b af3d 4dc5 7d3e

6.bias f4 [2]
0.14838831 0.08385966
00000000: 1bf3 173e 9dbe ab3d

exp_avg f4 [32, 2]
-0.005267504 0.0033099265 -0.00098212 0.00052798406 0.0077364733 -0.004796116 -0.0013522824 0.005299493
-0.012934302 0.011060574 -0.0039075534 5.9351598e-05 0.0014488099 -0.0009878814 -0.0012560477 -0.00067582936
0.0077299685 -0.004243853 -6.7095093e-06 3.7074358e-07 -6.4343785e-06 -7.092017e-13 -0.0151121365 0.0077839005
0.0039373385 0.0024916898 0.0011050265 -0.0014488713 -0.003982876 0.0024619773 0.0017643508 -0.0006853437
-0.0132906 0.002960526 -0.02217429 0.009107587 0.000120262266 -0.00061733567 -0.006895844 0.0146187395
0.005375668 -0.007433684 -0.005730291 0.0020957584 -0.003156512 0.002112746 -0.01941837 0.002960213
-0.0093464 0.013921029 -0.0026320016 0.0061422894 -0.0015147557 0.002301404 -0.002981232 -0.00087583106
0.006722037 -0.008072028 -0.0002006796 -0.00049744215 -0.0029625716 0.021002302 -0.02002329 0.0051991753
00000000: 079b acbb 5aeb 583b 7bba 80ba 6968 0a3a
00000010: 3e82 fd3b bd28 9dbb 113f b1ba 5fa7 ad3b
00000020: 65ea 53bc 6937 353c ef0a 80bb 4bf0 7838
00000030: fee5 bd3a cd7b 81ba f8a1 a4ba 242a 31ba
00000040: ad4b fd3b 0510 8bbb 3f22 e1b6 9c0a c734
00000050: e4e6 d7b6 5e9f 47ab e598 77bc 1710 ff3b
00000060: ca04 813b 9e4b 233b 89d6 903a 0ee8 bdba
00000070: c982 82bb 2059 213b ca41 e73a a3a8 33ba
00000080: d1c0 59bc 6205 423b dba6 b5bc fd37 153c
00000090: 5035 fc38 b2d4 21ba 88f6 e1bb 7083 6f3c
000000a0: 5f26 b03b 4396 f3bb 2ac5 bbbb fe58 093b
000000b0: 7cdd 4ebb ff75 0a3b 4613 9fbc 2200 423b
000000c0: a521 19bc 0715 643c a97d 2cbb 4245 c93b
000000d0: c48a c6ba 27d3 163b c660 43bb 0798 65ba
000000e0: 8944 dc3b 8a40 04bc 856d 52b9 c766 02ba
000000f0: b427 42bb 050d ac3c e207 a4bc d85d aa3b

exp_avg_sq f4 [32, 2]
1.4452199e-05 1.7008528e-05 9.947141e-06 3.9509973e-06 6.816541e-05 5.3578417e-05 6.231727e-05 2.7759903e-05
0.00013633097 6.942381e-05 1.9453026e-05 2.79197e-05 1.3312021e-05 6.9317225e-06 2.5791367e-06 5.0866715e-06
3.2781416e-05 2.7560138e-05 1.0800294e-10 1.661842e-11 1.03795014e-10 1.4999532e-12 0.0001259226 0.00013312303
0.0001071494 0.00020217072 1.580991e-05 6.5214804e-06 3.7582533e-05 2.1139951e-05 5.6578465e-06 1.7678032e-06
6.390406e-05 2.125412e-05 0.00012860466 0.00014226005 2.6221811e-05 7.4689146e-06 0.00014426104 0.00021462722
7.788885e-05 6.236129e-05 2.0799642e-05 3.4964247e-05 3.5294306e-05 2.3376018e-05 0.0004617271 0.000101490616
0.00015113813 0.00010186159 1.2153837e-05 2.4919087e-05 2.0194228e-05 8.611402e-06 3.4254383e-05 6.77395e-05
5.1226813e-05 4.4433298e-05 5.0617014e-06 3.6220915e-06 0.0001303124 0.00048147148 0.00039629443 0.00017971807
00000000: b977 7237 89ad 8e37 a5e2 2637 cf92 8436
00000010: 07f4 8e38 63b9 6038 54b0 8238 f0dd e837
00000020: 11f4 0e39 a097 9138 0e2f a337 1935 ea37
00000030: b256 5f37 0b97 e836 3b15 2d36 2dae aa36
00000040: c77e 0938 f230 e737 4080 ed2e 5b2d 922d
00000050: 663f e42e 8219 d32b 170a 0439 f196 0b39
00000060: 65b5 e038 cafd 5339 869f 8437 17d3 da36
00000070: f0a1 1d38 b355 b137 88d8 bd36 4145 ed35
00000080: 3b04 8638 e04a b237 0dda 0639 a42b 1539
00000090: e9f6 db37 7d9d fa36 c744 1739 8e0d 6139
000000a0: 4258 a338 f6c7 8238 e47a ae37 93a6 1238
000000b0: f908 1438 9e17 c437 f613 f239 5cd7 d438
000000c0: d57a 1e39 869e d538 55e8 4b37 5509 d137
000000d0: c666 a937 b179 1037 5dac 0f38 5e0f 8e38
000000e0: 5fdc 5638 e45d 3a38 afd7 a936 0f13 7336
000000f0: 78a4 0839 026e fc39 bdc5 cf39 b472 3c39

exp_avg f4 [32]
0.0045658066 0.001762305 0.0032035743 0.006527162 -0.016355673 0.0007764476 -0.0034890021 -0.00015885461
0.00010770889 -2.6954605e-05 -3.7669295e-05 0.016663805 0.0024873228 0.0015655551 -0.002391779 -1.8837565e-06
-0.0074166376 0.022266805 0.00011507215 -0.011012526 -0.014069973 0.0032091958 -0.0040618796 -0.012243908
-0.01630287 -0.0001123934 0.0021425986 0.0032004162 -0.004349763 0.0005261116 -0.0093121035 -0.015378582
00000000: c39c 953b 25fd e63a 0ff3 513b cee1 d53b
00000010: 55fc 85bc 848a 4b3a bea7 64bb 3692 26b9
00000020: c5e1 e138 931c e2b7 19ff 1db8 8882 883c
00000030: 5a02 233b 5033 cd3a 65bf 1cbb 61d5 fcb5
00000040: 4407 f3bb e068 b63c e452 f138 e26d 34bc
00000050: be85 66bc 5f51 523b 8419 85bb ac9a 48bc
00000060: 998d 85bc bfb4 ebb8 d76a 0c3b 13be 513b
00000070: 7588 8ebb c0ea 093a cb91 18bc 73f6 7bbc

exp_avg_sq f4 [32]
3.0923875e-05 1.4073482e-05 0.000113314374 7.18136e-05 0.00017517916 4.8933452e-05 1.7425507e-05 7.769996e-06
5.8080906e-05 5.5072863e-10 8.943535e-10 0.000212108 0.0003244672 2.1225027e-05 5.4518358e-05 8.514458e-06
6.5579334e-05 0.00022068208 3.7991522e-05 0.0003292793 0.00013654881 5.107165e-05 5.2820684e-05 0.00045142823
0.0002280668 4.0908308e-05 2.7262784e-05 0.000104728475 9.2684095e-05 8.629345e-06 0.0005890859 0.00048215446
00000000: 42b4 0138 251d 6c37 31a3 ed38 a29a 9638
00000010: 4cb0 3739 e53d 4d38 fe2c 9237 e15b 0237
00000020: e69b 7338 1562 1730 88d6 7530 4f69 5e39
00000030: 401d aa39 660c b237 a4aa 6438 52d9 0e37
00000040: a387 8938 e566 6739 1659 1f38 1fa3 ac39
00000050: 8b2e 0f39 c435 5638 c78b 5d38 acad ec39
00000060: 3725 6f39 f694 2b38 62b2 e437 aca1 db38
00000070: 655f c238 c1c6 1037 e36c 1a3a adc9 fc39

exp_avg f4 [32, 32]
0.008367267 0.0016321618 0.007767078 0.00074619276 0.0015675225 0.0020679296 0.012853853 0.008141479
0.014036693 -4.443652e-09 -7.647568e-08 0.0003471046 0.003124695 0.0046907165 0.0074252244 0.014972352
0.0018882354 0.0002548365 0.0064676004 0.0011498731 0.008034102 0.002937611 0.008698617 0.0013469794
0.0012906712 0.003744869 0.0039615193 0.0012127651 0.008623437 0.012895964 0.0028361923 0.0007854805
-0.00078233954 -0.0047535994 -0.011083446 -0.0010931854 0.0011216428 0.0018272072 -0.0078682685 -0.0014310711
-0.0087129725 -3.0743513e-07 -9.113889e-15 -0.0006459117 0.0014445515 -0.0031410747 -0.003374246 -0.0057057547
0.002290191 -0.00021918061 -0.007388347 9.063181e-05 -0.0048232996 -0.00016129215 -0.0034986604 0.00015536103
0.0005188169 -0.0027538633 -0.0064320615 0.0004315223 -0.0061019505 -0.0048723333 6.118839e-05 0.00017963792
0.0008781376 0.0016350211 0.002830219 0.000238603 0.00017428394 -0.00019508353 0.0016864267 0.00024887692
0.001968934 -2.7081284e-12 1.8853105e-12 0.00023469982 -0.00053450355 2.2170616e-05 0.00011635146 0.00039780323
-0.0002610657 9.017232e-05 0.0026515643 -1.4839739e-05 0.0007235952 0.00017967077 0.00028482778 0.00013730934
3.1171327e-05 0.00072410365 0.0025532395 -8.764989e-05 0.0014074395 0.00034087984 -4.934639e-07 3.5489073e-05
-0.0010260576 0.0056192228 0.013148548 0.0015205133 0.00046555774 -0.0024912732 0.0052450215 -0.0006796154
0.0058558644 -3.5282094e-14 7.088001e-08 -0.00019286285 8.4005784e-05 0.002439249 0.00057286135 0.0011971961
-0.0020820845 -0.0007878655 0.008336501 5.3892085e-13 0.0036862108 -0.0033545247 0.0010356411 0.0004212017
6.274421e-05 0.006096563 0.012524467 -0.0024093357 0.004735462 0.0009897632 -3.2810983e-13 0.00012400818
-0.001181699 -0.0028323184 -0.0046016234 -0.00072382356 6.3366046e-05 0.00085138873 -0.0027517416 -0.00043057775
-0.0032805908 7.033858e-08 -5.2117373e-12 -0.00038879222 0.0006509801 -0.000103930055 -0.00030452482 -0.0007767431
0.00093377044 -0.00015176582 -0.004264708 -5.821046e-11 -0.001186591 -8.7531065e-05 -0.00050367176 2.2216685e-05
4.982194e-13 -0.0006637957 -0.0039434177 0.00026399753 -0.0022846386 -0.0006596027 -1.4616153e-14 -2.2505436e-07
0.0015856331 0.0009866394 0.0035509479 -3.4629524e-05 7.489707e-05 -0.00057799055 0.0029023588 0.0006098264
0.0033604905 1.9530023e-07 1.5301959e-15 -0.00034684606 1.2081338e-05 0.0003338338 -5.285496e-06 0.0012896452
-0.0006419673 -0.00039082952 0.0029137493 -6.666015e-06 0.0015187631 1.5291327e-05 0.00095652905 2.3464941e-05
5.8873534e-06 0.0005224162 0.0020078246 -0.00029979722 0.0021924225 0.0010656619 -2.2517495e-06 2.9662087e-05
-0.0029106755 -0.0023394627 -0.005777794 -0.00035589296 -0.00075196946 -0.00023137341 -0.007003821 -0.00312349
-0.0077755894 -4.649207e-16 1.6634473e-14 -0.00032185973 0.0003768182 -0.0016084528 -0.0027913752 -0.0065254145
-0.00025586598 -9.643466e-05 -0.0052147233 -0.00045720366 -0.0039648945 -0.0003631398 -0.0038652164 -0.00068357406
-0.00055430154 -0.0007734086 -0.0039264895 5.282045e-05 -0.0049400823 -0.00557438 -0.0011532928 -0.00037567996
-0.00039761426 0.002666072 0.0048150504 0.00081705645 -9.946415e-10 -0.00049699936 0.0017695442 -6.636311e-05
0.0018552232 -3.716118e-15 3.5972079e-09 0.00047330977 -0.00043863693 0.0008684437 0.0008896221 0.0006260241
-0.00031532344 0.00014450494 0.0032605766 1.628441e-16 0.00120697 -0.00072818575 0.00036979667 -1.2352224e-07
-4.5603077e-08 0.0026297935 0.0046618814 -0.000606878 0.0016584786 0.0005762007 -8.3020935e-15 -1.921969e-12
00000000: dd16 093c 43ee d53a f982 fe3b 269c 433a
00000010: 5475 cd3a 1a86 073b f898 523c d763 053c
00000020: 28fa 653c c7ae 98b1 f33a a4b3 97fb b539
00000030: afc7 4c3b 95b4 993b 4c4f f33b 994e 753c
00000040: ab7e f73a 939b 8539 2aee d33b 57b7 963a
00000050: 77a1 033c ef84 403b a584 0e3c 218d b03a
00000060: bd2b a93a 7a6c 753b a2cf 813b a5f5 9e3a
00000070: 5149 0d3c 9849 533c 69df 393b b4e8 4d3a
00000080: eb15 4dba 15c4 9bbb 5897 35bc 3749 8fba
00000090: 1604 933a e67e ef3a e9e9 00bc c792 bbba
000000a0: dbc0 0ebc 900d a5b4 652e 24a8 6752 29ba
000000b0: 1b57 bd3a 7dda 4dbb 7422 5dbb 57f7 babb
000000c0: 0717 163b d9d3 65b9 f219 f2bb 9511 be38
000000d0: c50c 9ebb 8820 29b9 c849 65bb 69e8 2239
000000e0: 3601 083a 297a 34bb 0bc4 d2bb f13d e239
000000f0: dff2 c7bb 18a8 9fbb 4452 8038 305d 3c39
00000100: d132 663a 344e d63a 327b 393b 8131 7a39
00000110: fdbf 3639 568f 4cb9 170b dd3a b27b 8239
00000120: 3b09 013b 4e91 3eac bcaa 042c c119 7639
00000130: ed1d 0cba 09fb b937 b701 f438 3f90 d039
00000140: a5df 88b9 e51a bd38 dec5 2d3b 32f8 78b7
00000150: a7af 3d3a 0166 3c39 f054 9539 b2fa 0f39
00000160: f5bd 0238 c6d1 3d3a 4054 273b add0 b7b8
00000170: d579 b83a 1eb8 b239 9576 04b5 1ada 1438
00000180: c87c 86ba 7521 b83b 026d 573c f64b c73a
00000190: 1a16 f439 a144 23bb 6ede ab3b 3828 32ba
000001a0: 8de2 bf3b 7ce5 1ea9 b336 9833 3a3b 4ab9
000001b0: 432c b038 cfdb 1f3b 132c 163a 3ceb 9c3a
000001c0: 9573 08bb c288 4eba d295 083c 57b1 172b
000001d0: 5b94 713b 96d7 5bbb 59be 873a bcd4 dc39
000001e0: 8b95 8338 adc5 c73b 6c33 4d3c f2e5 1dbb
000001f0: ef2b 9b3b f1ba 813a 9cb5 b8aa 3108 0239
00000200: 3de3 9aba 6b9e 39bb 37c9 96bb fabe 3dba
00000210: 63e3 8438 bb2f 5f3a 9056 34bb 2bbf e1b9
00000220: 2eff 56bb 0b0d 9733 285f b7ac cfd6 cbb9
00000230: 89a6 2a3a 06f5 d9b8 a1a8 9fb9 599e 4bba
00000240: 46c8 743a 5423 1fb9 f7be 8bbb 9301 80ae
00000250: 6387 9bba e290 b7b8 d708 04ba f85d ba37
00000260: 7e3c 0c2b 9302 2eba c937 81bb 2669 8a39
00000270: e0b9 15bb 30e9 2cba 8ea6 83a8 79a6 71b4
00000280: 05d5 cf3a 2052 813a 05b7 683b 2b3f 11b8
00000290: 0f12 9d38 4a84 17ba 8035 3e3b c2dc 1f3a
000002a0: ad3b 5c3b b8b3 5134 4486 dc26 e4d8 b5b9
000002b0: f4b0 4a37 6a06 af39 115a b1b6 5009 a93a
000002c0: b249 28ba 40e8 ccb9 9af4 3e3b a2ac dfb6
000002d0: 3c11 c73a e045 8037 94bf 7a3a 94d6 c437
000002e0: fb8b c536 c2f2 083a b595 033b 1a2e 9db9
000002f0: bfae 0f3b aead 8b3a c31c 17b6 d9d2 f837
00000300: 08c1 3ebb ac51 19bb a653 bdbb 2597 bab9
00000310: d11f 45ba d49c 72b9 4f80 e5bb 77b3 4cbb
00000320: 5fca febb 1801 06a6 7cd4 9528 48bf a8b9
00000330: af8f c539 b8d2 d2ba 81ef 36bb 25d3 d5bb
00000340: c025 86b9 f73c cab8 45e0 aabb d6b4 efb9
00000350: f2eb 81bb cd63 beb9 924f 7dbb e131 33ba
00000360: 8c4e 11ba 93be 4aba c8a9 80bb 878b 5d38
00000370: 6ae0 a1bb 4aa9 b6bb 162a 97ba e9f6 c4b9
00000380: e276 d0b9 44b9 2e3b 92c7 9d3b bb2f 563a
00000390: d6b3 88b0 1049 02ba 0df0 e73a 6c2c 8bb8
000003a0: f62a f33a 24e3 85a7 c032 7731 9026 f839
000003b0: daf8 e5b9 45a8 633a 8735 693a c41b 243a
000003c0: ff51 a5b9 4086 1739 66af 553b 18bf 3b25
000003d0: 3133 9e3a b8e3 3eba 45e1 c139 89a1 04b4
000003e0: 1ddd 43b3 9d58 2c3b b2c2 983b e516 1fba
000003f0: 4f61 d93a 2d0c 173a a68e 15a8 1e3f 07ac

exp_avg_sq f4 [32, 32]
3.8559752e-05 1.8221458e-06 6.228353e-05 1.409896e-07 4.3150444e-06 2.633649e-06 0.00017656737 4.016634e-05
0.00019129603 4.7905464e-12 9.38128e-12 1.7503032e-08 7.2094813e-06 6.816931e-05 0.000117649135 0.00032590408
3.2602613e-06 7.601513e-09 1.9170913e-05 4.3273266e-07 8.983696e-05 1.0723955e-06 0.000116968025 7.759358e-07
1.6382536e-06 5.6144807e-05 1.1444472e-05 1.6532981e-07 7.135005e-05 0.00024902818 1.4361019e-06 6.31217e-07
2.5996407e-05 1.378579e-05 5.9684742e-05 1.7141965e-06 2.1112461e-07 1.0729941e-06 4.5100853e-05 7.13939e-06
5.9220114e-05 1.5360963e-11 3.2851654e-13 7.658706e-07 1.1727785e-06 8.430691e-06 6.2487397e-06 3.31346e-05
8.236192e-07 5.273924e-07 4.2293406e-05 2.0106035e-09 1.3111519e-05 3.86107e-06 1.2406739e-05 1.9080309e-08
3.846007e-08 2.623393e-05 4.4788205e-05 6.2179794e-07 2.2919237e-05 2.4824332e-05 1.6375918e-09 9.852613e-09
1.0144475e-05 2.9533387e-06 1.5486095e-05 4.0115566e-07 3.1012357e-07 5.743396e-07 1.6514872e-05 3.1924808e-06
2.0872141e-05 2.4964323e-12 1.8963344e-12 1.6168113e-07 7.5687575e-07 2.69977e-06 1.6457302e-06 1.2379898e-05
4.181575e-07 1.253458e-07 1.1877536e-05 2.6725797e-09 4.124267e-06 1.0851087e-06 5.0126846e-06 5.943768e-08
5.6120896e-08 9.4954e-06 1.1163426e-05 1.3966456e-07 7.0465626e-06 9.461493e-06 3.6744635e-11 2.6882912e-08
0.00011609507 6.147549e-05 0.00015944391 5.945933e-06 1.7062527e-07 4.7477097e-06 0.00011137635 1.5551743e-05
0.00016557671 7.1667596e-13 9.167698e-12 4.3804657e-06 1.7255326e-07 2.4184205e-06 3.8365303e-07 2.8215833e-05
2.2409615e-06 3.36897e-06 0.00018194043 1.4282466e-12 1.5969421e-05 2.5645752e-05 1.210971e-05 1.8112915e-07
8.117359e-09 2.5600002e-05 0.00013648925 4.374891e-06 6.094582e-05 2.0733994e-05 1.3625825e-12 1.6602046e-08
7.464455e-06 4.7060385e-06 1.7393304e-05 5.7800384e-07 3.9110798e-10 2.582665e-07 9.7229895e-06 1.3266282e-06
1.36513045e-05 9.1466045e-12 2.1089794e-12 2.596793e-07 3.071107e-07 1.6579995e-06 3.314921e-07 3.7796092e-06
1.2706498e-07 1.7610665e-07 1.3807636e-05 2.8195265e-12 2.1585556e-06 1.291861e-06 1.5345032e-06 1.2631418e-10
8.336985e-13 7.5076446e-06 1.4842651e-05 2.1070582e-07 5.378146e-06 2.8139793e-06 4.0322783e-13 1.3455015e-11
1.206794e-05 4.05336e-06 1.27955955e-05 3.2124157e-07 1.7431574e-07 5.373655e-07 1.5034884e-05 2.5256618e-06
2.031671e-05 1.28651464e-11 3.9354767e-14 2.506132e-07 1.1611584e-08 3.0204959e-07 5.809888e-07 7.978219e-06
3.15391e-07 2.1891185e-07 1.50792575e-05 1.8672817e-09 2.7109147e-06 1.993358e-06 3.2576788e-06 3.1206792e-08
3.0939667e-08 1.6155637e-06 9.161945e-06 2.862753e-07 6.7996657e-06 6.0201337e-06 5.1074867e-11 1.6576458e-08
1.8979988e-05 4.5966153e-06 3.033504e-05 6.0803904e-07 1.365727e-06 9.74549e-07 5.4038584e-05 1.1893192e-05
6.181442e-05 7.471581e-15 5.2283075e-13 2.5983826e-07 2.0863217e-06 1.8045e-05 2.9087481e-05 8.327123e-05
9.733417e-07 1.9190918e-07 1.8664065e-05 1.1020139e-07 2.3405202e-05 1.6534275e-06 3.05712e-05 2.2982884e-07
4.9110486e-07 2.1195112e-05 1.6425704e-05 2.4558287e-07 2.2435985e-05 6.398728e-05 3.393821e-07 1.949615e-07
9.332724e-06 1.3851497e-05 4.957374e-05 1.941961e-06 3.7808745e-12 5.7522495e-08 1.0944902e-05 4.439699e-07
1.5866204e-05 2.1068278e-13 4.6146416e-12 8.820219e-07 1.8441801e-06 7.711048e-06 1.6366954e-06 1.5836672e-06
4.724647e-09 6.835484e-07 3.246646e-05 1.878668e-14 3.401202e-06 2.4091908e-06 8.6745376e-07 1.0940697e-11
8.073751e-12 3.2742315e-05 4.8996015e-05 2.750289e-07 7.5818784e-06 1.3300668e-06 2.9307717e-13 2.4223898e-12
00000000: 38bb 2138 7490 f435 379e 8238 ed62 1734
00000010: f3c9 9036 bfbd 3036 f124 3939 4778 2838
00000020: a396 4839 688d a82c 8709 252d 9359 9632
00000030: f9e8 f136 1ff6 8e38 66ba f638 1bde aa39
00000040: ddca 5a36 cf97 0232 39d1 a037 5352 e834
00000050: da66 bc38 3bef 8f35 bb4c f538 e749 5035
00000060: f7e1 db35 077d 6b38 a201 4037 8385 3134
00000070: c4a1 9538 ff8f 8239 16c0 c035 e770 2935
00000080: dc12 da37 8449 6737 0156 7a38 5813 e635
00000090: 7eb1 6234 cc03 9035 ac2a 3d38 e58e ef36
000000a0: 1d63 7838 d01d 872d 39f0 b82a 3a96 4d35
000000b0: 5d68 9d35 8b71 0d37 44ac d136 01fa 0a38
000000c0: ae16 5d35 2192 0d35 3364 3138 e92a 0a31
000000d0: 8cf9 5b37 578e 8136 8a26 5037 0be6 a332
000000e0: 4b2f 2533 f010 dc37 f8da 3b38 a1e9 2635
000000f0: b042 c037 d93d d037 a411 e130 4044 2932
00000100: 3032 2a37 f931 4636 23e8 8137 6a5e d734
00000110: 0f7f a634 512c 1a35 6b89 8a37 673e 5636
00000120: 9516 af37 baab 2f2c 5371 052c 929a 2d34
00000130: 1b2c 4b35 b22d 3536 dce2 dc35 42b3 4f37
00000140: 217f e034 cb96 0634 a145 4737 85a8 3731
00000150: 2f63 8a36 0da4 9135 a232 a836 6c48 7f33
00000160: 9409 7133 6f4e 1f37 8d4a 3b37 b4f6 1534
00000170: 8371 ec36 cebc 1e37 c89a 212e 26ec e632
00000180: 1178 f338 67ec 8038 6630 2739 2d83 c736
00000190: 1e35 3734 844e 9f36 b992 e938 1d75 8237
000001a0: a99e 2d39 f2b9 492b a447 212d eafb 9236
000001b0: 1447 3934 264c 2236 dff8 cd34 0ab1 ec37
000001c0: 6d63 1636 7716 6236 43c7 3e39 0202 c92b
000001d0: 12f6 8537 d521 d737 cf2a 4b37 677c 4234
000001e0: 8674 0b32 96bf d637 8e1e 0f39 07cc 9236
000001f0: 13a0 7f38 eaed ad37 35c4 bf2b 499c 8e32
00000200: 2e77 fa36 90e8 9d36 d6e7 9137 1f28 1b35
00000210: 8e03 d72f e1a7 8a34 ec1f 2337 990e b235
00000220: e807 6537 a5e8 202d ff67 142c 0d6a 8b34
00000230: f9e0 a434 6e88 de35 edf7 b134 31a5 7d36
00000240: 5b6f 0834 d417 3d34 58a7 6737 1368 462c
00000250: b4db 1036 0264 ad35 21f5 cd35 48e2 0a2f
00000260: 4faa 6a2b 2dea fb36 b304 7937 603e 6234
00000270: ec75 b436 ccd7 3c36 41ff e22a 00b4 6c2d
00000280: 6877 4a37 1902 8836 aaac 5637 1b77 ac34
00000290: 8c2b 3b34 7a3f 1035 563e 7c37 8a7e 2936
000002a0: cd6d aa37 7853 622d f53c 3129 048c 8634
000002b0: 497c 4732 6129 a234 3ff5 1b35 31da 0537
000002c0: 0253 a934 080e 6b34 ebfc 7c37 9151 0031
000002d0: 29ed 3536 a1c5 0536 7f9e 5a36 3b08 0633
000002e0: 86e2 0433 59d6 d835 41b6 1937 61b1 9934
000002f0: af28 e436 8e00 ca36 30a1 602e 0464 8e32
00000300: 3737 9f37 a03c 9a36 0178 fe37 2038 2335
00000310: 064e b735 40cd 8235 7da7 6238 df88 4737
00000320: 5da2 8138 9698 0628 ed29 132b e67f 8b34
00000330: bc02 0c36 585f 9737 e400 f437 e7a1 ae38
00000340: c4a3 8235 980f 4e34 c690 9c37 dba7 ec33
00000350: 4a56 c437 56eb dd35 9339 0038 dfc6 7634
00000360: 78d4 0335 28cc b137 eec9 8937 a7d8 8334
00000370: e934 bc37 e930 8638 5234 b634 9c56 5134
00000380: bf93 1c37 ba63 6837 66ed 4f38 a352 0236
00000390: 1707 852c a70e 7733 ff9f 3737 c25a ee34
000003a0: 6a18 8537 2d35 6d2a ff5c a22c 15c4 6c35
000003b0: 8c85 f735 b35e 0137 6dac db35 648e d435
000003c0: 6f56 a231 177d 3735 992c 0838 2237 a928
000003d0: 3540 6436 95ad 2136 f8da 6835 8578 402d
000003e0: f108 0e2d cb54 0938 1281 4d38 afa7 9334
000003f0: d767 fe36 bf84 b235 dffc a42a e575 2a2c

exp_avg f4 [32]
0.014460353 -0.014914056 0.0033454453 0.01587003 -0.0054535107 0.0047331313 -0.008992326 0.0056859716
0.0020223965 0.012231428 -2.3820778e-07 -0.002627542 -0.003377349 -0.014919471 -0.0009473803 -9.453097e-06
0.0024292956 0.007901877 -1.4020853e-05 0.011950826 0.0025638342 2.0626978e-06 0.0016677292 -2.3225198e-06
-0.0049699186 0.0072840555 0.011592854 -2.506059e-06 0.0005667592 0.0043184175 -0.003603825 -0.0016596429
00000000: 1eeb 6c3c 165a 74bc 423f 5b3b dd01 823c
00000010: 5db3 b2bb 6218 9b3b 8d54 13bc 6351 ba3b
00000020: 2f8a 043b 5466 483c 0ec6 7fb4 d732 2cbb
00000030: 8456 5dbb cc70 74bc 9e59 78ba be98 1eb7
00000040: d134 1f3b e076 013c 1b3b 6bb7 66cd 433c
00000050: 0006 283b e16c 0a36 b597 da3a 96dc 1bb6
00000060: b3da a2bb 16af ee3b f4ef 3d3c c42d 28b6
00000070: 9192 143a 8381 8d3b 272e 6cbb 6088 d9ba

exp_avg_sq f4 [32]
0.00024669128 0.00010507024 2.9810499e-05 0.00023593813 2.7098165e-05 2.2987857e-05 8.347881e-05 7.168041e-05
5.9748004e-06 0.00015183851 1.3872698e-11 6.1128594e-05 0.00010344819 0.00082317315 2.3526598e-05 4.3315003e-07
1.2602478e-05 0.000110883804 1.3377237e-07 0.00019644797 4.5607518e-05 3.3691993e-08 2.2764341e-05 1.7639857e-09
4.4980065e-05 3.861786e-05 0.000189568 6.503894e-11 6.496971e-06 4.9225702e-05 0.00010459118 2.694782e-05
00000000: 5856 8139 2859 dc38 8f11 fa37 2966 7739
00000010: de50 e337 0cd6 c037 5811 af38 2153 9638
00000020: 257b c836 d736 1f39 140d 742d 2a32 8038
00000030: 53f2 d838 37ca 573a fc5a c537 b08b e834
00000040: 3b6f 5337 4a8a e838 12a3 0f34 9afd 4d39
00000050: b34a 3f38 bdb4 1033 0df6 be37 bb70 f230
00000060: faa8 3c38 9df9 2138 c6c6 4639 ab05 8f2e
00000070: 8e00 da36 b277 4e38 f657 db38 010e e237

exp_avg f4 [32, 32]
-0.0003879675 0.0018751285 0.0005684226 -0.000739666 0.0022192355 -0.00036176134 0.00033302745 0.0005956753
0.0011324715 0.0006478645 2.850427e-08 0.00011519157 5.7495017e-05 0.00012385647 5.7072975e-05 -5.183233e-07
0.0007914083 0.00101245 9.903068e-07 0.0008438498 0.00091913843 2.859607e-06 -0.00024492992 1.4800769e-08
0.0007193815 0.00016496693 -0.00038843308 -9.3627224e-17 -0.00010626478 0.00078240334 0.00011416459 0.000266301
-0.0002526165 0.0024208862 0.0006057145 -0.00077347015 0.0023589071 -0.00037719865 0.00079418 0.00061631284
0.0011991713 0.0008324923 -2.6548799e-08 0.0002934923 0.00049033767 0.00096298935 0.0010503024 -4.537866e-06
0.0008282124 0.0013513196 -1.2259038e-06 0.0013377047 0.0012638667 -3.8124442e-06 0.00022032895 5.7812012e-11
0.0017327165 0.0006341684 -0.0004009355 -1.2964395e-08 2.9515313e-05 0.0008255001 0.000988432 0.0013534585
1.81073e-08 -3.8869766e-07 5.546646e-06 -7.0692295e-07 -3.1891236e-07 1.5859251e-06 2.566544e-06 -5.032932e-07
4.9007626e-06 -1.967473e-06 8.82733e-08 8.151e-06 2.8237125e-07 -1.5197868e-07 4.2130414e-06 -2.1902104e-16
1.8901213e-06 2.9923842e-06 6.676248e-06 -4.736309e-06 1.8689826e-15 1.4586112e-06 3.9874394e-08 4.4359517e-08
-8.420127e-06 -1.6094468e-06 -6.6912257e-16 -1.5782817e-15 5.4464804e-06 6.878448e-08 -1.7049972e-07 -1.7132398e-06
-0.00035081737 0.0032310558 0.0007928356 -0.0010708662 0.0031205828 -0.0005277564 0.0010698527 0.00080620573
0.001558418 0.0011201642 4.0384723e-15 0.00040816594 0.00068412547 0.0013383318 0.00140538 -1.2785281e-05
0.0011136616 0.0018000735 -6.705635e-06 0.0017485756 0.001677542 -1.2823806e-05 0.00028948078 4.4691056e-08
0.002297983 0.0008252117 -0.00059022935 5.6634137e-09 4.119947e-05 0.0010758573 0.0013538982 0.001797737
-0.00015255365 -0.0005858565 0.000100801575 1.0091495e-06 -0.000118972566 3.0397789e-05 -0.0007221579 -2.5034973e-05
3.3036104e-05 -9.95997e-05 2.1482124e-07 -0.0003893991 -0.0006360465 -0.0011932808 -0.0013281446 1.50754895e-05
4.1013802e-05 -0.00033813991 9.904385e-07 -0.00041793846 -0.00037390672 2.6912278e-16 -0.0006974041 6.961937e-15
-0.0014527242 -0.00040573417 0.00017463168 -6.1340604e-09 -0.00027677193 2.2872913e-05 -0.0012355811 -0.0014937015
-0.0006505085 0.005820431 0.001450004 -0.0019185863 0.0056379274 -0.00095034245 0.0018834177 0.0014285679
0.0028077415 0.001993939 -7.353704e-17 0.00073779083 0.0011676648 0.0023482002 0.0024736417 1.2629947e-05
0.0019643 0.003221596 -8.442347e-06 0.0031206193 0.0030380357 3.4461706e-08 0.0004612849 1.4057068e-07
0.004082867 0.0014439791 -0.0010424147 -1.2301792e-14 4.1972835e-05 0.0019149813 0.0023645593 0.003156355
-0.00012578613 -0.0005825022 6.3491076e-05 9.746546e-06 -9.845089e-05 1.6516808e-05 -0.0006934967 1.8036395e-05
3.6336416e-05 -0.00012753684 6.9822983e-09 -0.0003922704 -0.00066000153 -0.0011494553 -0.0013913326 -1.9972804e-06
4.9311406e-05 -0.00034142323 -6.769258e-07 -0.00048576813 -0.0003367106 -1.06218074e-07 -0.00071795116 -1.00475015e-08
-0.0013952617 -0.0004755373 0.00016322185 1.9287592e-07 -0.00024917375 -2.3805305e-06 -0.0012115052 -0.001457075
2.7623955e-07 1.1854054e-19 2.4138307e-08 4.6001955e-10 1.1091044e-08 -3.031717e-07 5.592934e-08 -8.025837e-08
1.3012719e-07 -1.4996651e-16 -1.1696741e-07 -9.779395e-15 -6.893449e-16 -1.3236944e-07 -9.69748e-15 -2.6205855e-16
2.9495094e-08 -1.5664306e-14 1.8605358e-10 -2.250763e-16 8.222873e-17 -2.7923815e-15 -2.1346342e-09 -6.182331e-08
-1.5891363e-14 -1.829219e-07 -6.569518e-13 1.2548587e-16 -2.2876172e-09 1.3827971e-13 -2.5252278e-15 -7.2643086e-16
00000000: 1e68 cbb9 dfc6 f53a 3202 153a 25e6 41ba
00000010: 9870 113b c9aa bdb9 309a ae39 1827 1c3a
00000020: 706f 943a 73d5 293a 8dd9 f432 0193 f138
00000030: ce26 7138 78df 0139 a461 6f38 e822 0bb5
00000040: 8376 4f3a 2fb4 843a afea 8435 cd35 5d3a
00000050: 56f2 703a ade7 3f36 f069 80b9 7846 7e32
00000060: e094 3c3a f9fa 2c39 9ba6 cbb9 c2e3 d7a4
00000070: 78da deb8 331a 4d3a a66b ef38 519e 8b39
00000080: 9d71 84b9 bba7 1e3b d0c8 1e3a b4c2 4aba
00000090: e597 1a3b bfc2 c5b9 8530 503a 0e90 213a
000000a0: 832d 9d3a 9d3b 5a3a 6d0d e4b2 dfdf 9939
000000b0: 018a 003a 1f71 7c3a 4daa 893a f943 98b6
000000c0: 651c 593a c31e b13a bc89 a4b5 ec55 af3a
000000d0: 54a8 a53a 4bd9 7fb6 1a08 6739 8a42 7e2e
000000e0: 511c e33a 523e 263a a734 d2b9 03ba 5eb2
000000f0: a797 f737 6066 583a 468e 813a 8866 b13a
00000100: 608a 9b32 33ae d0b4 541d ba36 60c3 3db5
00000110: fb36 abb4 f9db d435 e43c 2c36 0c1a 07b5
00000120: 3b71 a436 ee08 04b6 c390 bd33 47c0 0837
00000130: cf98 9734 952f 23b4 c05d 8d36 9a83 7ca5
00000140: 13b0 fd35 c5d0 4836 8904 e036 96ec 9eb6
00000150: a5ac 0627 80c5 c335 5c42 2b33 ce85 3e33
00000160: 2c44 0db7 2c04 d8b5 88dc 40a6 5174 e3a6
00000170: e9c0 b636 abb6 9333 9b12 37b4 79f2 e5b5
00000180: e9ed b7b9 1fc0 533b 4cd6 4f3a 4f5c 8cba
00000190: b182 4c3b 2259 0aba 4d3a 8c3a 8d57 533a
000001a0: d543 cc3a 79d2 923a 5580 9127 1bff d539
000001b0: e256 333a f76a af3a ba34 b83a 5d80 56b7
000001c0: 48f8 913a 72f0 eb3a f700 e1b6 7630 e53a
000001d0: f8e0 db3a d425 57b7 74c5 9739 56f2 3f33
000001e0: c299 163b 0553 583a 9fb9 1aba ea97 c231
000001f0: 98cd 2c38 c803 8d3a 4975 b13a 0ba2 eb3a
00000200: cff6 1fb9 2a94 19ba 6f65 d338 1d72 8735
00000210: e980 f9b8 c1fe fe37 324f 3dba 3202 d2b7
00000220: 3f90 0a38 2fe0 d0b8 9da9 6634 4328 ccb9
00000230: 5cbc 26ba dc67 9cba 2315 aeba bcec 7c37
00000240: 3c06 2c38 5f48 b1b9 35ef 8435 c01e dbb9
00000250: e908 c4b9 8323 9b25 ffd1 36ba 89d4 fa27
00000260: 5669 beba b8b8 d4b9 561d 3739 c4c3 d2b1
00000270: b31b 91b9 35df bf37 39f3 a1ba 4ec8 c3ba
00000280: e386 2aba 50b9 be3b 100e be3a 1379 fbba
00000290: 5dbe b83b 6720 79ba 03dd f63a c93e bb3a
000002a0: 1602 383b bfac 023b 9b90 a9a4 4e68 413a
000002b0: 540c 993a 43e4 193b d21c 223b 36e5 5337
000002c0: 7cbb 003b 6921 533b 9ba3 0db7 4e83 4c3b
000002d0: c819 473b 0c03 1433 9cd8 f139 c6ef 1634
000002e0: 92c9 853b e643 bd3a a2a1 88ba 019c 5da8
000002f0: fd0b 3038 1c00 fb3a b9f6 1a3b d9da 4e3b
00000300: 75e5 03b9 10b3 18ba 8326 8538 1985 2337
00000310: 6b77 ceb8 938d 8a37 c7cb 35ba dd4c 9737
00000320: ee67 1838 69bb 05b9 f2e8 ef31 a4a9 cdb9
00000330: f403 2dba 52a9 96ba 605d b6ba 0409 06b6
00000340: b8d3 4e38 0d01 b3b9 fdb5 35b5 b2ae feb9
00000350: 8888 b0b9 011a e4b3 e334 3cba 619d 2cb2
00000360: 37e1 b6ba 8951 f9b9 8826 2b39 5419 4f34
00000370: 89a3 82b9 34c1 1fb6 5ecb 9eba 53fb beba
00000380: 134e 9434 aef2 0b20 b358 cf32 ffe5 fc2f
00000390: ed8a 3e32 9ac3 a2b4 f636 7033 815a acb3
000003a0: 17b9 0b34 4de6 2ca5 842f fbb3 802b 30a8
000003b0: adb0 46a6 6f21 0eb4 bcb1 2ea8 0411 97a5
000003c0: 665c fd32 6e17 8da8 6d91 4c2f 66bf 81a5
000003d0: 469b bd24 5936 49a7 e2b0 12b1 b9c3 84b3
000003e0: fd22 8fa8 3069 44b4 5eea 38ab e4ac 1025
000003f0: 3034 1db1 6ab0 1b2a 3bf6 35a7 2361 51a6
