checkpoints/ablation_eps_0.05/ablation_eps_0.05_epoch0005.pt (torch, 38267 bytes, 24 tensors)

0.weight f4 [32, 2]
0	0x3f106c04	0.5641482
1	0x3f1389c0	0.57632065
2	0xbe259219	-0.16169013
3	0x3f2c4c86	0.67304265
4	0xbe04e553	-0.12978105
5	0x3e364194	0.17798454
6	0xbebad98f	-0.3649411
7	0x3edc64e2	0.43045717
8	0x3f1a62ce	0.60307014
9	0xbefb474a	-0.49077827
10	0x3f1fc471	0.6240912
11	0x3e2b1c20	0.16709948
12	0x3f048450	0.5176439
13	0x3d680f7f	0.056655403
14	0x3ea9162d	0.3302473
15	0xbdcec228	-0.10095626
16	0x3f0b211d	0.543474
17	0x3e00241a	0.12513772
18	0xbe94d14b	-0.29065928
19	0x3e10ad6a	0.14128652
20	0xbe929c9d	-0.2863511
21	0xbd3a332c	-0.045458958
22	0xbe9e662c	-0.30937326
23	0x3f00aa49	0.50259835
24	0xbf13f799	-0.5779968
25	0xbebc38bf	-0.36762044
26	0xbe4d6e0e	-0.20061514
27	0xbee34bcd	-0.4439377
28	0x3d8982a8	0.06714374
29	0xbf350f91	-0.7072688
30	0x3f1f2bc3	0.6217615
31	0xbf1893e9	-0.59600693
32	0x3f0b2be3	0.5436384
33	0x3db5e4de	0.088815436
34	0xbe854fdb	-0.26037487
35	0x3ef2268a	0.47295028
36	0x3df1453a	0.11780782
37	0x3f1a82c5	0.6035579
38	0x3de76d9b	0.113002025
39	0xbe850dc2	-0.2598706
40	0x3e273425	0.16328485
41	0xbe66ec0e	-0.22550985
42	0x3e8e9771	0.27849916
43	0x3f1c2b98	0.6100402
44	0x3ec3577d	0.38152686
45	0xbeaf71e7	-0.34266588
46	0x3ecc920c	0.39955175
47	0x3dd3f488	0.10349375
48	0x3ea98643	0.33110246
49	0xbedf66a3	-0.43632993
50	0xbf2fb943	-0.6864206
51	0xbe9c8fcd	-0.3057846
52	0xbf055117	-0.5207686
53	0x3f1d2cab	0.6139628
54	0x3e3b2915	0.1827739
55	0x3e8914b2	0.26773602
56	0x3e667c8d	0.2250845
57	0x3c8a83c1	0.016908528
58	0x3f0989df	0.53726
59	0xbf0a68de	-0.54066265
60	0x3da50a17	0.08058565
61	0xbf05d928	-0.5228448
62	0x3e81e62d	0.25370923
63	0xbe8fe685	-0.2810556

0.bias f4 [32]
0	0x3e70dae2	0.23520997
1	0xbdef4a82	-0.11684133
2	0x3f17a76c	0.5923984
3	0xbeccf3a2	-0.40029627
4	0xbee2731a	-0.4422844
5	0xbeceadc8	-0.4036696
6	0x3f299d2a	0.6625544
7	0x3e7df534	0.24800569
8	0x3f3076eb	0.68931454
9	0xbf0b3b24	-0.54387116
10	0xbf29602e	-0.66162384
11	0xbf047000	-0.517334
12	0xbedf18e0	-0.43573666
13	0x3e9cacc9	0.30600575
14	0x3e85d8bb	0.26141915
15	0x3f125565	0.5716155
16	0xbebc3a89	-0.3676341
17	0xbee48000	-0.44628906
18	0x3eca55d7	0.39518616
19	0xbe7cb718	-0.2467922
20	0x3ed86143	0.42261705
21	0xbe3eba8e	-0.18625852
22	0x3ecf0d83	0.40439996
23	0xbf06a146	-0.52589834
24	0xbeb6c723	-0.35698804
25	0x3e630859	0.22171153
26	0x3e2badb0	0.16765475
27	0xbe4e8777	-0.20168863
28	0x3ed49af3	0.41524467
29	0x3f011048	0.5041547
30	0xbef194f5	-0.47183958
31	0xbeaddb3e	-0.3395633

2.weight f4 [32, 32]
0	0x3dfbfe67	0.12304383
1	0xbcc05918	-0.023479983
2	0xbcd7266e	-0.026263442
3	0xbe0753c9	-0.13215555
4	0xbd8180a7	-0.063233666
5	0x3c222491	0.009896413
6	0x3b167b3b	0.0022961635
7	0xbdb7ff39	-0.08984227
8	0x3801da9c	3.0959593e-05
9	0xbda8b8f0	-0.08238399
10	0xbde3da25	-0.11125592
11	0xbd737483	-0.059437286
12	0xbded78cc	-0.11595306
13	0xbd98394f	-0.07432806
14	0x3e0d1541	0.13777639
15	0x3afe6f11	0.0019411762
16	0x3c99ec12	0.018789325
17	0xbe010ddf	-0.12602948
18	0xbd9f59e5	-0.07780818
19	0xbcba483e	-0.022739526
20	0xba8e06ad	-0.001083573
21	0xbdef296b	-0.11677822
22	0xbd1fa996	-0.03898009
23	0xbd8ab562	-0.06772877
24	0xb8423aae	-4.6307854e-05
25	0xbceeda90	-0.029156953
26	0xba06d2e9	-0.00051431224
27	0xbda6c780	-0.0814352
28	0xbda9e75b	-0.08296081
29	0xbd854cce	-0.0650879
30	0xbcc6d107	-0.024269594
31	0xbdceab34	-0.10091248
32	0x3e113837	0.141816
33	0xbd0c573d	-0.034262884
34	0x3e1ec605	0.15505226
35	0x3d72211e	0.059113614
36	0xbde3474a	-0.11097582
37	0x3dbce1a5	0.09222726
38	0xbd515b85	-0.05111267
39	0xbd9d4fbc	-0.07681224
40	0xbe183c78	-0.14866817
41	0xbe0c1a73	-0.13681965
42	0x3c7b5ba6	0.015341675
43	0xbcf651d2	-0.030068312
44	0x3d3327b4	0.043739036
45	0xbe193004	-0.14959723
46	0x3dbd96e1	0.092572935
47	0xbe06c48a	-0.13160911
48	0xbd092ca8	-0.033489853
49	0x3d255da4	0.040372506
50	0x3dba9fdd	0.09112523
51	0x3dd52025	0.10406522
52	0x3e23a493	0.15980749
53	0xbe18c01f	-0.14917038
54	0x3d187d7b	0.037229043
55	0xbd1f256b	-0.038854044
56	0x3b12bfa7	0.0022392066
57	0xbdfbec93	-0.12300982
58	0x3e28e71e	0.16494414
59	0xbe175798	-0.14779508
60	0x3dbf8656	0.093517944
61	0x3d66d8f9	0.056359265
62	0x3cafdc08	0.021467224
63	0xbd6c63db	-0.057712417
64	0x3e30c085	0.1726094
65	0x3d0ea732	0.03482742
66	0x3ce7fb91	0.028318198
67	0xbe15099d	-0.14554448
68	0x3d585fee	0.05282586
69	0xbb93fc16	-0.004516135
70	0xbd926485	-0.07148079
71	0x3e2248be	0.15848061
72	0x3d4825a3	0.04886402
73	0xbd754cd1	-0.05988771
74	0xbd541e30	-0.0517866
75	0xbbce5ac7	-0.0062974426
76	0x3d84ef50	0.06490958
77	0xbd753c0f	-0.05987173
78	0xbdfa9551	-0.12235511
79	0xbd735540	-0.059407473
80	0xbde230f3	-0.110444926
81	0x3d69c0f4	0.05706878
82	0x3e1db131	0.15399624
83	0xbe0885d6	-0.13332304
84	0x3d2cf6c6	0.04222753
85	0x3ddc240e	0.107490644
86	0x3d10a7bc	0.035316214
87	0xbd70e777	-0.058814492
88	0x3d846cdf	0.06466078
89	0x3da64ceb	0.0812014
90	0x3d8887ec	0.0666655
91	0xbc0ab9fb	-0.008467193
92	0xbd2369a8	-0.039895684
93	0x3ca2812d	0.019836986
94	0xba2cd8c6	-0.0006593581
95	0xbda4c45f	-0.08045267
96	0x3e019a6d	0.12656565
97	0x3e2253f3	0.15852337
98	0xbc76164e	-0.015019966
99	0xbd00cc8f	-0.031445082
100	0xb8725d52	-5.7784207e-05
101	0x3c93c8aa	0.01804002
102	0x3d546e04	0.05186273
103	0x3d9523b4	0.072822005
104	0xbe1a092c	-0.15042561
105	0xbceab504	-0.028650768
106	0x3de19acc	0.11015853
107	0x3da0f116	0.078584835
108	0x3c52fb64	0.012877319
109	0xbdcf72ae	-0.10129295
110	0xbd8f5e2c	-0.07000384
111	0xbdffeca0	-0.124963045
112	0xbcb342ed	-0.021882499
113	0x3d92d0e9	0.07168753
114	0x3df495e8	0.11942655
115	0x3d350c4d	0.044201184
116	0xbe1a7311	-0.15082957
117	0xbdb28546	-0.08716826
118	0xbb8a5d29	-0.0042225313
119	0x3e074882	0.13211253
120	0xbaecfd91	-0.001808094
121	0xbd56ee81	-0.05247355
122	0x3d9a0c52	0.07521881
123	0xbd19690b	-0.037453692
124	0xbddab795	-0.10679547
125	0x3e06f3fa	0.13179007
126	0xbd302e62	-0.043012984
127	0xbb5706bf	-0.0032810417
128	0xbe20efe5	-0.15716513
129	0x3e09abcf	0.13444446
130	0x3e1615d4	0.14656764
131	0x3d9ad96c	0.07561001
132	0xbdadc895	-0.084855236
133	0xbe0ace10	-0.13555169
134	0xbe05fdae	-0.13085052
135	0x3df88179	0.1213407
136	0x3dc4c6d9	0.0960824
137	0x3de1616d	0.110049106
138	0x3d609366	0.05482807
139	0x3d6d80cb	0.057984155
140	0x3ad0605e	0.001589786
141	0xbe057957	-0.13034569
142	0xbe0ef7dd	-0.1396174
143	0xbe2bea4d	-0.16788597
144	0x3d10d73e	0.03536152
145	0xbd888493	-0.066659115
146	0xbca86a21	-0.020558419
147	0xbd828161	-0.06372333
148	0xbccb8486	-0.024843466
149	0xbdd39f4a	-0.10333116
150	0xbdf2d5af	-0.11857163
151	0x3cb8c48f	0.022554664
152	0xbc8bca8d	-0.017064357
153	0x3dedeacf	0.11617052
154	0xbd2b8a2d	-0.04187982
155	0xbdce7675	-0.10081188
156	0xbc998c44	-0.018743642
157	0xbdb923df	-0.09040045
158	0xbc970ce0	-0.018438756
159	0xbe048618	-0.12941778
160	0x3e068da8	0.13139975
161	0xbdc0aae4	-0.09407595
162	0x3de67783	0.11253264
163	0x3dc97c95	0.09838215
164	0x3ddd6f2f	0.10812222
165	0xbdcde968	-0.10054284
166	0x3e1eac58	0.15495431
167	0xbd66defc	-0.056365
168	0x3dc0126d	0.093785144
169	0x3e02359a	0.1271576
170	0x3b01de05	0.0019816172
171	0x3cb87568	0.022516921
172	0xbbe9b318	-0.0071319453
173	0xbe036030	-0.12829661
174	0x3d9eab96	0.07747571
175	0xbe1c3551	-0.15254714
176	0x3e1096d4	0.14120036
177	0x3e1cb2f9	0.15302648
178	0x3e49ea56	0.19718298
179	0xbc3d16ae	-0.011541052
180	0xbdf930a0	-0.121674776
181	0x3d9e26e7	0.07722264
182	0x3df56e58	0.11983937
183	0xbe11f4e3	-0.14253573
184	0xbd466f87	-0.048446205
185	0xbdcc3625	-0.09971265
186	0x3ac98120	0.0015373565
187	0xbd3c8a70	-0.04603046
188	0xbd37f7eb	-0.044914167
189	0xbd0aa7c6	-0.033851407
190	0xbe043845	-0.1291209
191	0x3dd3e93c	0.1034722
192	0x3df3959d	0.11893771
193	0xbd6f9029	-0.05848709
194	0xbce38b0f	-0.02777627
195	0xbddd91bb	-0.108188115
196	0xbe070458	-0.13185251
197	0xbe4b1744	-0.19833094
198	0x3d874f61	0.06606937
199	0xbdae767e	-0.08518694
200	0xbde935e8	-0.11387235
201	0x392d8fa3	0.00016552075
202	0xbcba7cde	-0.02276462
203	0xbdc205c8	-0.09473759
204	0x3d32c79a	0.043647386
205	0xbbc6d004	-0.006067278
206	0xbcf47828	-0.029842451
207	0xbd81757f	-0.06321239
208	0xbe2c4809	-0.16824354
209	0x3ddf1fbe	0.10894726
210	0xbdd10535	-0.10206071
211	0x3dacff89	0.08447177
212	0xbd279c5f	-0.04092061
213	0xbc9f4b83	-0.019445186
214	0x3e3d1f2c	0.18468922
215	0x3d9efb0e	0.07762729
216	0xbdfcf3da	-0.123511985
217	0x3dc5e377	0.09662526
218	0x3e111558	0.14168298
219	0x3c594e6e	0.013263328
220	0x3e005e15	0.1253589
221	0x3e48955b	0.19588225
222	0x3bc05a2d	0.005870125
223	0x3d957de9	0.07299406
224	0xbddbc4f6	-0.10730927
225	0xbc511eb2	-0.012763666
226	0x3e12ed0a	0.14348236
227	0x3e00b4d2	0.12568977
228	0xbd96d1f4	-0.07364264
229	0xbdd32ea4	-0.1031163
230	0xbdd9407c	-0.106080025
231	0xbe170a58	-0.1475004
232	0xbdf8ba50	-0.12144911
233	0xbc1c366e	-0.009534461
234	0x3da5cc67	0.08095627
235	0x3d89bbec	0.067252964
236	0xbe229233	-0.15876083
237	0xbe17a234	-0.1480797
238	0x3d84ff91	0.06494058
239	0xbdec76c0	-0.11546087
240	0x3b1ee655	0.0024246175
241	0x3dfb48dc	0.12269756
242	0xbd787648	-0.060659677
243	0x3b1199d2	0.0022216928
244	0xbc8e7ec8	-0.017394438
245	0xbc9df7d6	-0.019283216
246	0xbd968640	-0.07349825
247	0xbdf34bb5	-0.11879674
248	0xbdd58021	-0.10424829
249	0xbdbdde14	-0.09270874
250	0x3e41f277	0.18940149
251	0xbd625b72	-0.05526299
252	0xbddd32fa	-0.10800739
253	0x3d6d493d	0.057931174
254	0x3c60fff3	0.013732898
255	0x3d718336	0.058963023

2.bias f4 [32]
0	0xbd57a4cd	-0.0526474
1	0xbe10b54f	-0.14131664
2	0x3c2c3061	0.010509581
3	0xbdce9773	-0.100874804
4	0x3e210236	0.157235
5	0xbe14613d	-0.14490218
6	0x3db32dc6	0.08748965
7	0x3e3e9f38	0.18615425
8	0x3dd2cd67	0.10293084
9	0x3d9e13f8	0.077186525
10	0xbe065919	-0.13119926
11	0x3e45438c	0.19264048
12	0xbc23d250	-0.009998873
13	0xbe2d3fb5	-0.16918834
14	0x3e407479	0.18794431
15	0xbdbfb137	-0.09359973
16	0x3b9fcbb3	0.0048765778
17	0x3e27b01c	0.16375774
18	0xbe107403	-0.14106755
19	0xbdc359ab	-0.09538587
20	0x3cd4621a	0.025925685
21	0xbd4fadce	-0.050702862
22	0x3d4c5f8b	0.049895804
23	0xbde0607e	-0.109559044
24	0x3c87b6f7	0.016566737
25	0xbd8ec656	-0.06971423
26	0xbdafd113	-0.085847996
27	0xbe0e6ebb	-0.13909428
28	0x3d8f9515	0.07010857
29	0x3d7d9e6d	0.061918665
30	0xbdee0558	-0.11622113
31	0x3e152d48	0.14568055

4.weight f4 [32, 32]
0	0x3c917978	0.017758116
1	0x3d7a65f5	0.06113239
2	0xbd8e1024	-0.06936672
3	0x3d883aa7	0.06651812
4	0x3e415e46	0.18883619
5	0x3e23cd42	0.15996268
6	0xbdf49439	-0.11942334
7	0x3e402464	0.18763882
8	0x3d3bda14	0.045862272
9	0x3deded70	0.11617553
10	0x3dca282c	0.098709434
11	0x3e0d4abd	0.13798042
12	0xbe16a21b	-0.14710276
13	0x3e14ec56	0.1454328
14	0xbdfbf967	-0.12303429
15	0xbbb04a70	-0.0053799674
16	0xbdb39cbb	-0.08770128
17	0xbc41b8c5	-0.011823838
18	0x3c4224b6	0.011849573
19	0x3c9e8b5a	0.019353557
20	0xbd3239a4	-0.043512
21	0x3d1f9236	0.038957797
22	0x3e4643d4	0.19361812
23	0x3d84742e	0.06467472
24	0x3dc03da3	0.09386756
25	0x3dbc9495	0.09208027
26	0x3e2c0d36	0.16801915
27	0xba0e8ae6	-0.00054375676
28	0x3d0cd42f	0.03438204
29	0x3d93671c	0.07197401
30	0xbe38d983	-0.18051724
31	0xbe1fb479	-0.15596189
32	0xbb1f016e	-0.0024262327
33	0xbd1932a1	-0.0374018
34	0x3d08f7c0	0.033439398
35	0x3a30edb6	0.0006749289
36	0x3d408fb8	0.04701206
37	0x3e1ebb4c	0.15501136
38	0xbd55bbd2	-0.052181073
39	0x3e2b2578	0.16713512
40	0x3e30ffd3	0.17285089
41	0xbdce703c	-0.10080001
42	0xbdc89082	-0.09793188
43	0xbe2bc59e	-0.16774604
44	0xbdf73468	-0.120705426
45	0xbda0b5f8	-0.07847208
46	0xbd02d62e	-0.03194254
47	0xbd8adbe0	-0.06780219
48	0xbd535c53	-0.05160172
49	0xbceac0df	-0.028656421
50	0xbd266cc9	-0.04063109
51	0x3e5b5734	0.21419984
52	0xbdb8c5cb	-0.09022101
53	0xbdc6978b	-0.09696873
54	0x3da35fff	0.07977294
55	0xba8165cc	-0.0009872257
56	0x3de7bad4	0.113149315
57	0x3dffa108	0.12481886
58	0x3e3f3c54	0.18675357
59	0xbdba6cbd	-0.091027714
60	0x3e097166	0.13422164
61	0x3e3d497a	0.1848506
62	0xbe01910f	-0.12652992
63	0x3e09b9f4	0.13449842
64	0x3dc07ca8	0.09398776
65	0xbc1ec591	-0.009690658
66	0x3d8b3059	0.06796331
67	0xbd946be0	-0.07247138
68	0xbe075a44	-0.13218027
69	0x3cd2144f	0.02564445
70	0x3d128e2f	0.035780128
71	0xbde6b798	-0.112654865
72	0x3d8b0329	0.06787712
73	0xbe241dc9	-0.16026987
74	0x3de83cdf	0.11339735
75	0x3e1a9864	0.15097195
76	0x3cfb3372	0.03066418
77	0xbdd31fcf	-0.103088014
78	0x3d8943d7	0.067023925
79	0x388baef0	6.660621e-05
80	0x3cfa6a9c	0.030568413
81	0x3d24368e	0.04009109
82	0x3df08d02	0.11745645
83	0xbdc08f35	-0.094023146
84	0xbbd92f90	-0.0066279843
85	0x3d13cd42	0.03608442
86	0x3a9b9a6d	0.0011871584
87	0x3dd4ca9c	0.10390207
88	0xbdde4a5b	-0.10854026
89	0xbcbcbacb	-0.023038289
90	0x3ae153d7	0.0017191124
91	0xbc483c40	-0.012221396
92	0x3dd8563a	0.105633214
93	0x3adfcf3f	0.0017075314
94	0xbdff123c	-0.1245465
95	0xbd06550d	-0.032795954
96	0xbd2f62ab	-0.042818706
97	0x3d34f087	0.044174697
98	0x3c45344c	0.012036394
99	0xbe0b8d6d	-0.13628168
100	0xbc50ada4	-0.012736712
101	0x3cab9946	0.02094711
102	0xbd24006a	-0.040039457
103	0x3e412e26	0.1886526
104	0xbbf67426	-0.00752117
105	0x3e145436	0.14485249
106	0x3c1d346e	0.00959502
107	0xbe2bc6d1	-0.16775061
108	0x3cc1ca8e	0.023656156
109	0x3e0a8b69	0.13529743
110	0xbe026faf	-0.12737916
111	0xbe0a25e0	-0.1349101
112	0x3e5450ad	0.207339
113	0x3e2b12a5	0.16706331
114	0xbda259ab	-0.07927259
115	0x3e155e98	0.14586866
116	0xbd2bb2d5	-0.041918594
117	0xbe198fe9	-0.14996304
118	0x3ccfd972	0.02537224
119	0x3cad6982	0.021168474
120	0xbd87a2fd	-0.066228844
121	0x3da04600	0.078258514
122	0xbdf20e7b	-0.11819168
123	0x3dac43c3	0.08411362
124	0x3e2df686	0.16988572
125	0x3e072aca	0.13199916
126	0xbad6bd21	-0.0016383269
127	0x3d1b7cfd	0.037960995
128	0xbdb7296d	-0.08943448
129	0xbca786ae	-0.020449962
130	0xbd460e76	-0.048353635
131	0xbd80a311	-0.062811024
132	0xbdcfc205	-0.10144428
133	0x3daf396a	0.08555873
134	0x3e0d90a3	0.13824706
135	0xbe07eed7	-0.13274704
136	0x3d342bd9	0.04398713
137	0x3d88697e	0.06660746
138	0x3e0428d5	0.12906201
139	0x3e02cf82	0.1277447
140	0x3e3e2203	0.18567662
141	0xbd357dd9	-0.04430947
142	0x3e18097e	0.14847371
143	0x3e29beb7	0.16576658
144	0xbe453c6e	-0.19261333
145	0xbe12d450	-0.14338803
146	0x3c915f9f	0.017745791
147	0x3d7dba96	0.06194552
148	0xbd7b706e	-0.06138652
149	0xbb13dac8	-0.0022560824
150	0x3cbc63c7	0.022996796
151	0x3c2a0357	0.010376773
152	0xbd8445aa	-0.064586
153	0x3db9cb06	0.09071927
154	0x3da2ecbe	0.07955311
155	0xbdac455b	-0.08411666
156	0xba775faa	-0.00094365573
157	0xbc6d7eba	-0.014495546
158	0x3dc11028	0.0942691
159	0x3e46a056	0.19397101
160	0x3c86c352	0.016450558
161	0xbd15c391	-0.03656346
162	0x3e41b006	0.18914804
163	0xbcf31060	-0.029670894
164	0xbd059a0a	-0.032617606
165	0x3d34fe28	0.044187695
166	0xbe0b8690	-0.1362555
167	0x3cc8affb	0.024497977
168	0xbde87faa	-0.11352475
169	0x3d28834e	0.041140847
170	0xbacd1c9c	-0.0015648785
171	0x3c80c0c6	0.015716922
172	0xbe1d43d1	-0.15357901
173	0xbe23d2f9	-0.15998448
174	0x3d93ebf0	0.07222736
175	0x3e0705e0	0.13185835
176	0xbe054694	-0.13015205
177	0x3da13d92	0.07873072
178	0xbdea22dc	-0.1143243
179	0x3d3dd0c2	0.046341665
180	0x3e1369be	0.14395806
181	0x3dc3b259	0.095555015
182	0xbe0cfd05	-0.13768394
183	0x3d91c512	0.07117666
184	0x3d9c2db7	0.07625907
185	0x3c87b5f8	0.016566262
186	0x3e12221f	0.14270829
187	0xbd087d0f	-0.03332239
188	0xbcbbdeb2	-0.022933338
189	0xbd8ebc5c	-0.069695204
190	0x3ab3d427	0.0013719843
191	0x3d052d7a	0.032514073
192	0xb9a01566	-0.0003053352
193	0xbd7c5251	-0.06160194
194	0xbddc2b91	-0.10750497
195	0x3cc3f645	0.023921141
196	0xbdf44783	-0.11927702
197	0xbd82431a	-0.06360455
198	0x3caf48fd	0.021397108
199	0xbd33a181	-0.043855194
200	0x3d964669	0.073376484
201	0x3c43d4a1	0.01195255
202	0x3daf7e1d	0.08568976
203	0x3c786b2f	0.015162273
204	0xbdaf78cc	-0.08567962
205	0x3e09e893	0.13467626
206	0x3d5845eb	0.052801054
207	0xbcd98c20	-0.026556075
208	0xbdc75598	-0.097331226
209	0x3d53eb08	0.051737815
210	0xbe1bcb2e	-0.15214226
211	0x3c748281	0.014923693
212	0x3dedd6b4	0.11613217
213	0xbdee2f77	-0.11630147
214	0xbdaf8ab0	-0.085713744
215	0xbdb582de	-0.088628516
216	0x3e3a5acd	0.181987
217	0x3e1a7bb3	0.1508625
218	0x3b0aacf4	0.0021160217
219	0x3e023cee	0.12718555
220	0xbd170172	-0.036866613
221	0xbe2a626e	-0.1663911
222	0x3dcdf45f	0.10056376
223	0x3dc1b559	0.094584174
224	0x3e09a03f	0.13440035
225	0x37a9456f	2.0178702e-05
226	0x3dc67a81	0.096913345
227	0x3d8fc772	0.07020463
228	0x3db73da1	0.08947302
229	0xbe0bc646	-0.13649854
230	0x3ddae951	0.10689033
231	0xbde54e8f	-0.111966245
232	0x3df51dee	0.11968599
233	0xb90041fd	-0.00012231614
234	0xbdf16be5	-0.117881574
235	0x3c673201	0.014111043
236	0xbb6f7eb6	-0.0036544031
237	0xbdf5b887	-0.119980864
238	0xbce1ef7d	-0.027580017
239	0xbb01d1a4	-0.0019808793
240	0x3dcaef02	0.09908868
241	0xbc98f9f2	-0.01867387
242	0x3d890ae2	0.06691529
243	0xbb1e0710	-0.0024113096
244	0xb9f79423	-0.00047221882
245	0x3b1151d8	0.0022174027
246	0xbd9f2bdf	-0.077720396
247	0xbdddaf8d	-0.10824499
248	0xbca1c9fc	-0.019749634
249	0xbe00e7b1	-0.12588383
250	0xbd384a0f	-0.044992503
251	0x3a0b8793	0.00053226313
252	0xbda00126	-0.07812719
253	0xbd149372	-0.036273427
254	0xba7c86f4	-0.00096331467
255	0x3b1b97ea	0.002374167

4.bias f4 [32]
0	0x3dc2b027	0.09506255
1	0x3d4406ce	0.047858052
2	0xbdadb2fa	-0.08481403
3	0x3de4d2e1	0.111730345
4	0xbd09adba	-0.033612944
5	0xbc6c1f70	-0.014411792
6	0xbd216c6e	-0.039410047
7	0xbe03e892	-0.12881687
8	0x3d127024	0.035751477
9	0x3d41acd7	0.047283974
10	0xbd5240e3	-0.051331412
11	0x3dded23d	0.108799435
12	0xbdf54ff4	-0.119781405
13	0xbe06ad4d	-0.13152047
14	0xbd970761	-0.07374454
15	0xbd0139b1	-0.03154916
16	0xba337db1	-0.00068470376
17	0xbd190f8a	-0.037368335
18	0x3d9d14d3	0.076699875
19	0xbdee5685	-0.11637596
20	0x3c37b41a	0.011212373
21	0x3b2035ab	0.002444605
22	0x3d8ce683	0.06879904
23	0x3e32ba6c	0.17453927
24	0x3dde97c3	0.1086879
25	0xbd759a30	-0.059961498
26	0xbdd979da	-0.106189445
27	0xbd8099bb	-0.06279322
28	0xbd50f3ef	-0.051013883
29	0x3d8be0ab	0.068299614
30	0x3a64c732	0.0008727192
31	0x3e1e66ef	0.15468954

6.weight f4 [2, 32]
0	0x3dcc0809	0.0996247
1	0xbc01423e	-0.0078893285
2	0x3ca2008f	0.019775657
3	0x3d8e0b4d	0.06935749
4	0xbd4753ae	-0.048663788
5	0x3e03d76c	0.12875146
6	0xbe32fabb	-0.17478459
7	0x3d46fdec	0.048582003
8	0xbdfa52fb	-0.122228585
9	0xbe11df3f	-0.14245318
10	0xbb7d970e	-0.0038694772
11	0x3ddf63eb	0.1090773
12	0x3db118f6	0.08647339
13	0x3c24d959	0.010061585
14	0xbcc33025	-0.023826668
15	0xbd4473c5	-0.04796197
16	0xbd0bf684	-0.034170642
17	0x3a0ed93b	0.000544924
18	0xbc8ba0f2	-0.017044518
19	0x3de4c5ba	0.11170526
20	0x3dbba026	0.09161405
21	0xbe15924d	-0.1460659
22	0xbd02677b	-0.031836968
23	0xbdd855c1	-0.10563231
24	0xbc631ae6	-0.013861394
25	0xbdd0a22e	-0.10187183
26	0x3c3a842f	0.011384054
27	0xbe1f3418	-0.15547216
28	0x3e0adb02	0.13560107
29	0x3de18667	0.11011963
30	0xbdfaa9e5	-0.12239436
31	0xbe42f3ba	-0.19038287
32	0xbcbef5be	-0.023310538
33	0xbd976f63	-0.07394292
34	0x3d1bfa48	0.038080484
35	0xbe163087	-0.14666949
36	0x3dcae5f1	0.09907139
37	0xbe0e1e7f	-0.13878821
38	0xbd681327	-0.05665889
39	0xbd61dd5b	-0.05514274
40	0x3dc2c427	0.09510069
41	0xbc89bade	-0.016812738
42	0xbe0625a7	-0.131003
43	0xbdfdba44	-0.12389043
44	0xbd35ccb9	-0.044384692
45	0xbe002ea2	-0.12517789
46	0x3cf4acae	0.029867496
47	0x3dceecae	0.10103737
48	0xbbaaf52a	-0.005217214
49	0xbdb18b04	-0.08669093
50	0x3b768abe	0.0037619318
51	0xbdd07595	-0.10178677
52	0xbdc40e46	-0.09573035
53	0x3a230dae	0.0006219995
54	0x3e420f6e	0.18951198
55	0xbd6b104b	-0.057388585
56	0x3d964f69	0.07339365
57	0xbd0602e3	-0.032717597
58	0xbc49ba57	-0.012312493
59	0xbe0f8780	-0.14016533
60	0x3ddcb68d	0.10777006
61	0x3e47f3c1	0.19526578
62	0xbb425a94	-0.002965604
63	0x3e0b8ea9	0.1362864

6.bias f4 [2]
0	0x3e14910e	0.14508459
1	0x3db2cb3d	0.08730171

exp_avg f4 [32, 2]
0	0xba85910d	-0.0010190323
1	0xba71c3f0	-0.00092226174
2	0xb9764bda	-0.00023488645
3	0xba5b7ce3	-0.00083727966
4	0xba23f573	-0.00062545313
5	0xba9a1a49	-0.0011757101
6	0x39995ad1	0.00029250098
7	0xb9afbebd	-0.00033520712
8	0x39ad553d	0.0003306064
9	0xba7a0d81	-0.00095387554
10	0xb9cf13d8	-0.000394969
11	0xba563fc2	-0.0008172953
12	0x3a53f5ec	0.00080856564
13	0x3b16f167	0.002303207
14	0x38dcd944	0.00010530886
15	0x3a964f3d	0.0011467707
16	0xba21baa1	-0.00061694725
17	0xbb054ee1	-0.0020341205
18	0xb7f7c864	-2.9538009e-05
19	0x37784bf2	1.4799634e-05
20	0xb7f43830	-2.9113231e-05
21	0xb6b18bc6	-5.291283e-06
22	0x39fa2a40	0.00047715195
23	0xba904231	-0.0011006055
24	0x3a14a339	0.0005670074
25	0x3a4e1836	0.0007861884
26	0xb9ea9726	-0.00044744572
27	0x3b0eec34	0.0021808269
28	0x3a0baa34	0.00053277914
29	0x3ad071fa	0.0015903108
30	0x3a7e313e	0.0009696669
31	0x3afa0100	0.0019073784
32	0x39889a8b	0.00026055085
33	0x39d4847f	0.00040534508
34	0x3a02ddc2	0.0004992151
35	0xbaa77b78	-0.0012777885
36	0xba762df2	-0.00093910017
37	0xbb344e20	-0.0027512386
38	0xb9872a8a	-0.000257809
39	0x3a1b251a	0.00059183093
40	0x3ac6808c	0.0015144511
41	0x3b3e93c7	0.0029079781
42	0xb8bdd021	-9.050989e-05
43	0x385bcc8c	5.2404168e-05
44	0x3b0ba72e	0.0021309364
45	0x3b4a58a5	0.003087559
46	0x385b5cc3	5.230006e-05
47	0x38162dc4	3.580541e-05
48	0x389dd02a	7.525117e-05
49	0xb8cfdffe	-9.912251e-05
50	0xb856adc6	-5.1183415e-05
51	0x3a973808	0.0011537084
52	0xba8badc0	-0.001065664
53	0xbb2bee10	-0.0026234426
54	0xb7d190ce	-2.4982171e-05
55	0x3a1e4d1e	0.0006038713
56	0xb984b74e	-0.00025313575
57	0xba6f3858	-0.00091255223
58	0x3ae17cf9	0.0017203382
59	0x3b3dcb89	0.0028960428
60	0xb9db7c1c	-0.00041863404
61	0x3b008d37	0.001961542
62	0xba60e460	-0.00085789524
63	0x3a4618ce	0.0007556797

exp_avg_sq f4 [32, 2]
0	0x336d303e	5.522474e-08
1	0x3372e7d7	5.6555873e-08
2	0x3313b44c	3.4390084e-08
3	0x32f3b412	2.837081e-08
4	0x33900275	6.7059695e-08
5	0x339289d5	6.823726e-08
6	0x32332ef4	1.0429847e-08
7	0x3211916e	8.473178e-09
8	0x335a505d	5.083017e-08
9	0x33f7b6b4	1.1535067e-07
10	0x33008bc6	2.9929446e-08
11	0x32d27f1a	2.4505017e-08
12	0x33bd0af4	8.802991e-08
13	0x34673484	2.1532657e-07
14	0x32c3967a	2.2769417e-08
15	0x339e799e	7.3795704e-08
16	0x337663e6	5.7367195e-08
17	0x33e922e4	1.08562546e-07
18	0x2e26b046	3.7900592e-11
19	0x2d337dc7	1.02029e-11
20	0x2e2218d4	3.6856587e-11
21	0x2be836a4	1.6499757e-12
22	0x32879b1c	1.5786604e-08
23	0x33360717	4.2381625e-08
24	0x32452ea8	1.1477518e-08
25	0x3275e6b9	1.4313337e-08
26	0x33eb2f6a	1.0951665e-07
27	0x342389bd	1.5230667e-07
28	0x3344e682	4.5844452e-08
29	0x33985f25	7.095358e-08
30	0x336e0db0	5.5426142e-08
31	0x341a2e2c	1.4359165e-07
32	0x325d25cd	1.2872488e-08
33	0x31f154f7	7.0236825e-09
34	0x32b08c2e	2.0552843e-08
35	0x339e142a	7.361116e-08
36	0x3451e2d6	1.9547164e-07
37	0x345665a0	1.9967274e-07
38	0x3120f0aa	2.3419866e-09
39	0x3217df23	8.840092e-09
40	0x3445a8b3	1.8408427e-07
41	0x34ba5814	3.4709285e-07
42	0x323835f1	1.07224745e-08
43	0x33890f1e	6.3823094e-08
44	0x347200f8	2.2538359e-07
45	0x3510f6b8	5.4003203e-07
46	0x3101366e	1.880291e-09
47	0x2ed74348	9.7890196e-11
48	0x313c94ea	2.7442248e-09
49	0x3157b90a	3.13918e-09
50	0x3236e4cd	1.0645818e-08
51	0x338cb5f8	6.552358e-08
52	0x3463a331	2.1200391e-07
53	0x3488ddd8	2.5493387e-07
54	0x329565d8	1.7392196e-08
55	0x33a2b169	7.5759836e-08
56	0x3265ebf4	1.3383204e-08
57	0x32f2d094	2.8267358e-08
58	0x3405ad11	1.2449551e-07
59	0x349d4138	2.9290982e-07
60	0x31e4ce9a	6.6591612e-09
61	0x33e89430	1.0830297e-07
62	0x32b901d9	2.1537675e-08
63	0x3286c067	1.5687148e-08

exp_avg f4 [32]
0	0xba82695e	-0.0009949615
1	0xbac935c7	-0.001535111
2	0xba98a33b	-0.0011645326
3	0xb9dd33ee	-0.00042191095
4	0x3a0514bf	0.0005076639
5	0xba272d2d	-0.0006377276
6	0xbab8c5ae	-0.0014096999
7	0xba24f380	-0.0006292388
8	0xba3f4293	-0.0007295992
9	0xb8649229	-5.449556e-05
10	0xb88a9ea5	-6.6099026e-05
11	0xba8faec1	-0.0010962115
12	0xba712333	-0.00091986655
13	0xbac04e4e	-0.0014671774
14	0xba019c91	-0.00049442897
15	0x39866443	0.00025633172
16	0x39963aa7	0.0002865393
17	0xbaa05deb	-0.0012235021
18	0xbb3b586a	-0.0028586634
19	0xba23f85e	-0.0006254966
20	0x3a86c22c	0.0010281256
21	0xb9185888	-0.0001452883
22	0x3a346adb	0.0006882378
23	0xb805a82d	-3.1866297e-05
24	0x38214893	3.845298e-05
25	0xba015be1	-0.00049346505
26	0xbac5af81	-0.0015082211
27	0x398cfc94	0.00026891066
28	0x38caa37c	9.662562e-05
29	0xba40c214	-0.00073531386
30	0xbafe39e9	-0.0019395921
31	0xba89f845	-0.0010526261

exp_avg_sq f4 [32]
0	0x33a6cc95	7.7671906e-08
1	0x339f51c2	7.418886e-08
2	0x33eb8276	1.0966771e-07
3	0x3276ad05	1.4358425e-08
4	0x33d3f82a	9.870594e-08
5	0x331da492	3.6704087e-08
6	0x34450c25	1.8351473e-07
7	0x33a303d7	7.5909774e-08
8	0x33885145	6.347776e-08
9	0x2f09440d	1.2484254e-10
10	0x2f488fd8	1.8240998e-10
11	0x3343aef8	4.556111e-08
12	0x32c838ba	2.330886e-08
13	0x341eebf7	1.480074e-07
14	0x332aae99	3.9740005e-08
15	0x33a1b1d5	7.529494e-08
16	0x327634b9	1.4331072e-08
17	0x33a0ba1b	7.484433e-08
18	0x34d6ca37	4.0007737e-07
19	0x322988a5	9.868164e-09
20	0x3454e414	1.9827013e-07
21	0x337d2075	5.8935672e-08
22	0x34b32d88	3.3374477e-07
23	0x30a56b9b	1.2035913e-09
24	0x315fa32b	3.2543521e-09
25	0x334a7d87	4.7145956e-08
26	0x3484d257	2.4739958e-07
27	0x339abbe3	7.20536e-08
28	0x33142fb8	3.4502335e-08
29	0x3435cff5	1.6932593e-07
30	0x33e21e80	1.0529493e-07
31	0x330065e9	2.989501e-08

exp_avg f4 [32, 32]
0	0x375a0ba0	1.2996519e-05
1	0xb64dc88f	-3.066412e-06
2	0xb660eb2e	-3.3515494e-06
3	0xb7692874	-1.3897301e-05
4	0xb6ed1fb4	-7.066841e-06
5	0x35dc18c0	1.639848e-06
6	0xb365e829	-5.3529366e-08
7	0xb722e7aa	-9.709891e-06
8	0xb27795ae	-1.44113255e-08
9	0xb7167eb2	-8.970195e-06
10	0xb7467bc5	-1.1830537e-05
11	0xb6e06e32	-6.6885486e-06
12	0xb74e47ac	-1.2295244e-05
13	0xb7091360	-8.170347e-06
14	0x37727a4a	1.4452797e-05
15	0x3542f1c4	7.2622447e-07
16	0x362d4509	2.5819193e-06
17	0xb75eff85	-1.3291724e-05
18	0xb70edff6	-8.5160045e-06
19	0xb648ace5	-2.990296e-06
20	0x34a425eb	3.057497e-07
21	0xb74fa63c	-1.2376866e-05
22	0xb69bb3e4	-4.640302e-06
23	0xb6fc231b	-7.514272e-06
24	0x3019611b	5.579907e-10
25	0xb674b712	-3.6465394e-06
26	0x3398019c	7.078344e-08
27	0xb714ea53	-8.876045e-06
28	0xb7177483	-9.027429e-06
29	0xb6f3519e	-7.251466e-06
30	0xb65338d6	-3.1474533e-06
31	0xb7354e5f	-1.0806688e-05
32	0x38c35c19	9.315479e-05
33	0xb94ce00c	-0.0001953842
34	0xb99f3e37	-0.00030373197
35	0xb8a5010a	-7.868007e-05
36	0xb74604bb	-1.1802821e-05
37	0x382f61f6	4.1814485e-05
38	0xb69cf1ae	-4.6772975e-06
39	0x38a405ed	7.821233e-05
40	0xb7c99330	-2.4029607e-05
41	0xb770e439	-1.4358252e-05
42	0x361513af	2.2214188e-06
43	0xb82dadc4	-4.1408246e-05
44	0x378a9712	1.652123e-05
45	0xb772c7ae	-1.4470816e-05
46	0x372fed75	1.04861e-05
47	0x3893d438	7.049035e-05
48	0x36c04f4c	5.7312773e-06
49	0xb822a63a	-3.877862e-05
50	0xb96200cf	-0.00021553341
51	0x373a8b16	1.1118847e-05
52	0xb6bf1f63	-5.6958975e-06
53	0x388db795	6.757599e-05
54	0x38a12efd	7.6858305e-05
55	0xb69b46da	-4.627608e-06
56	0x33d17569	9.753678e-08
57	0xb94b8082	-0.00019407462
58	0xb9e902f4	-0.00044443423
59	0x388195b1	6.1790815e-05
60	0xb8123e53	-3.4867157e-05
61	0x3897d0ce	7.239134e-05
62	0x363fe0e5	2.8592124e-06
63	0xb6daa897	-6.5165327e-06
64	0xbb11cbe4	-0.0022246772
65	0xb9c431f6	-0.00037421257
66	0xbac2595f	-0.001482766
67	0xb8f7d088	-0.0001181672
68	0x39b020f7	0.00033593897
69	0xba0ccb0d	-0.0005370833
70	0xbb1f60a0	-0.0024319068
71	0xba5e924b	-0.0008490427
72	0xbb2d333d	-0.0026428245
73	0xb6e1efed	-6.7334536e-06
74	0xb6c6cd88	-5.924787e-06
75	0xb80e456d	-3.3920096e-05
76	0x3998da48	0.0002915433
77	0x39adfcf1	0.00033185587
78	0x3a3f2240	0.00072911754
79	0xba8ddf30	-0.0010823961
80	0xb9c7dc18	-0.0003812022
81	0xb7c9a40a	-2.4037454e-05
82	0xbb1b6c93	-0.0023715838
83	0x3517fa11	5.661578e-07
84	0xba323454	-0.00067979586
85	0xba80b819	-0.000982049
86	0xba5a236b	-0.0008321318
87	0x364c33c6	3.0428505e-06
88	0x3984ad6e	0.00025306217
89	0x391aef0f	0.00014775641
90	0xba364cc0	-0.00069541857
91	0xb9a3f8df	-0.00031275206
92	0xbaa96ce6	-0.0012926131
93	0xba6a0ce6	-0.00089283136
94	0xb5164f6d	-5.5994934e-07
95	0x38bc8587	8.98941e-05
96	0xb9f2c28c	-0.00046302786
97	0xb9393c46	-0.00017665428
98	0xb8e3a5c9	-0.000108550834
99	0xb817a681	-3.6156274e-05
100	0x31ec743a	6.8817174e-09
101	0xb7c024ad	-2.2905262e-05
102	0xb99c5d6e	-0.0002982425
103	0xb915f70c	-0.0001430178
104	0xb9ba3177	-0.0003551354
105	0xb6714214	-3.595026e-06
106	0x3744a963	1.1721949e-05
107	0xb81571ff	-3.5630535e-05
108	0xb647327f	-2.9682703e-06
109	0xb7305ba8	-1.0511758e-05
110	0xb701dd6a	-7.740551e-06
111	0xb8f1e15d	-0.00011533753
112	0xb711238c	-8.65095e-06
113	0xb828fc32	-4.0289196e-05
114	0xb9aa1222	-0.00032438437
115	0x36ad4ffa	5.1651123e-06
116	0xb8429c1a	-4.6398585e-05
117	0xb9b85a23	-0.00035162372
118	0xb8ccbb2b	-9.762341e-05
119	0x37691632	1.389305e-05
120	0x343c92c2	1.7562255e-07
121	0x3886a6be	6.420676e-05
122	0xb897da40	-7.240893e-05
123	0xb90e7635	-0.00013586211
124	0xb921f7d9	-0.00015446487
125	0xb88b154b	-6.6320026e-05
126	0xb6a94f66	-5.0458357e-06
127	0xb56f1be1	-8.907501e-07
128	0xb9d46645	-0.00040511988
129	0xb9cfaf60	-0.0003961278
130	0xba32acb8	-0.0006815898
131	0xb8cfd568	-9.910279e-05
132	0xb71a9bb2	-9.215366e-06
133	0xb76eca0e	-1.423295e-05
134	0xba09e88b	-0.0005260787
135	0xb8562deb	-5.106434e-05
136	0xba1436cb	-0.0005653917
137	0x37447ae1	1.171112e-05
138	0x36d0ffd4	6.2286654e-06
139	0xb879f968	-5.9598504e-05
140	0x38bc386a	8.9750465e-05
141	0xb840457c	-4.584108e-05
142	0xb68eaaff	-4.2518363e-06
143	0xb8da562e	-0.00010411102
144	0x368f7515	4.2753622e-06
145	0xb8ad82ce	-8.273647e-05
146	0xba4baa4c	-0.00077692117
147	0xb6eec296	-7.1156055e-06
148	0xb938982c	-0.00017604296
149	0xb958374f	-0.0002061997
150	0xb8b141af	-8.452252e-05
151	0x36476619	2.971274e-06
152	0xb6213401	-2.402114e-06
153	0xb9159672	-0.00014265793
154	0xba43b923	-0.0007466247
155	0xb7ec46f2	-2.8166429e-05
156	0xb9ad386c	-0.0003303917
157	0xb8aef263	-8.3421146e-05
158	0xb62ad2a8	-2.5454592e-06
159	0xb7649e2b	-1.3626685e-05
160	0xbb10b4ef	-0.00220805
161	0xba3acf3e	-0.00071262184
162	0xbabc069a	-0.0014345229
163	0xb90b9f27	-0.00013315362
164	0x398c0e47	0.00026713518
165	0xb9e57cf1	-0.00043771372
166	0xbb0386f5	-0.0020069454
167	0xba336f13	-0.00068448595
168	0xbb10ac48	-0.0022075344
169	0x3760de8b	1.3403255e-05
170	0xb414b247	-1.3848431e-07
171	0xb9086055	-0.00013005857
172	0xb5b3372e	-1.3352599e-06
173	0x3802873a	3.1120355e-05
174	0x397a3645	0.00023862075
175	0xba577808	-0.0008219485
176	0xb98f7120	-0.0002735937
177	0xb9076d73	-0.00012915376
178	0xbb0bbaf2	-0.0021321145
179	0x36367ce9	2.719282e-06
180	0xba204d98	-0.0006115078
181	0xba92eae9	-0.0011208925
182	0xba243916	-0.000626461
183	0xb717279e	-9.0095255e-06
184	0x3932ddd6	0.00017058043
185	0xb8f30b20	-0.00011589215
186	0xba63273f	-0.0008665211
187	0xb9b2678c	-0.00034027954
188	0xba92a9de	-0.001118954
189	0xba31ee52	-0.00067875267
190	0xb7642022	-1.35973405e-05
191	0x388b4100	6.640144e-05
192	0x3b307c1b	0.0026929441
193	0x3a7b231d	0.00095801224
194	0x3a9c4b6d	0.0011924334
195	0x398539c0	0.00025410764
196	0xba569e66	-0.00081870554
197	0x3a0cef7b	0.00053762615
198	0x3ad2ab09	0.0016072701
199	0x39522ddf	0.00020044249
200	0x3af8d105	0.0018983191
201	0x33edffac	1.1082679e-07
202	0xb648d93f	-2.9928776e-06
203	0x3913ea0b	0.000141062
204	0xba22daef	-0.0006212433
205	0xbaf1fa8f	-0.0018461513
206	0xbb328e45	-0.0027245444
207	0xbab9bf22	-0.0014171342
208	0x39bc0989	0.00035865259
209	0x3937c649	0.00017526107
210	0x3b45af1f	0.0030164195
211	0xb8b52e69	-8.639397e-05
212	0xba1ffb0c	-0.00061027776
213	0x3ab552de	0.00138339
214	0xba38ec37	-0.0007054242
215	0xb3368f89	-4.250572e-08
216	0xba2037e9	-0.0006111847
217	0xba94798a	-0.0011327725
218	0x3abdbb84	0.001447544
219	0x39dba8c2	0.0004189667
220	0x3a314443	0.0006762186
221	0xbaa7ea73	-0.001281096
222	0xb936f484	-0.00017447962
223	0xb92f07ee	-0.00016692255
224	0xba48dea8	-0.0007662573
225	0xba8bf438	-0.0010677641
226	0xba98c4ff	-0.0011655389
227	0xba28d9b7	-0.00064411334
228	0xb707eee3	-8.102247e-06
229	0xb738f798	-1.1024902e-05
230	0xba6cdb85	-0.00090353965
231	0xb982c90f	-0.00024945333
232	0xba8923bb	-0.0010462919
233	0xb5d6ce50	-1.6004287e-06
234	0x37141e30	8.828516e-06
235	0xb9e26a3e	-0.00043185236
236	0x39c09d2d	0.000367382
237	0x3983570d	0.00025051125
238	0x39f2c092	0.00046301313
239	0xb9c2720e	-0.0003708754
240	0x3296d1e0	1.7557738e-08
241	0xb9ed116a	-0.00045217137
242	0xbae91db9	-0.0017785347
243	0x33d69890	9.9929025e-08
244	0xb7afd20f	-2.0959442e-05
245	0xba1a6824	-0.0005890152
246	0xb98befcf	-0.00026690817
247	0xb752ffba	-1.2576516e-05
248	0xb73ad8ee	-1.1136972e-05
249	0x38c00971	9.157032e-05
250	0xbadc9906	-0.0016830273
251	0xb9044e45	-0.00012617659
252	0xba04af6d	-0.0005061541
253	0xb997dce0	-0.0002896553
254	0x3609abc0	2.0514562e-06
255	0x36ded801	6.6412617e-06

exp_avg_sq f4 [32, 32]
0	0x2d0d1564	8.019672e-12
1	0x2b45b8b0	7.0244765e-13
2	0x2b61a2bd	8.01619e-13
3	0x2d1fb16c	9.077499e-12
4	0x2c3d7902	2.6925688e-12
5	0x2aab2d28	3.0407035e-13
6	0x294eb390	4.5896934e-14
7	0x2ca5eee4	4.7161042e-12
8	0x2626b9f4	5.7844833e-16
9	0x2c9001c4	4.092922e-12
10	0x2ced6a92	6.747777e-12
11	0x2c2c571d	2.4491028e-12
12	0x2cfec9e1	7.2415273e-12
13	0x2c741869	3.4688036e-12
14	0x2d2bbe91	9.762539e-12
15	0x2a162d9c	1.33385e-13
16	0x2b1a80d9	5.48906e-13
17	0x2d130e21	8.35912e-12
18	0x2c83507a	3.7321786e-12
19	0x2b3e94a6	6.770785e-13
20	0x29aa7217	7.569308e-14
21	0x2d00f3a2	7.330055e-12
22	0x2bbb62e3	1.3314596e-12
23	0x2c52c937	2.9954492e-12
24	0x234e8a73	1.11966e-17
25	0x2b8039b7	9.110966e-13
26	0x280b2a5c	7.725235e-15
27	0x2c8d53e0	4.016773e-12
28	0x2c91a5dd	4.1395624e-12
29	0x2c46211d	2.8155874e-12
30	0x2b4d77d2	7.2996915e-13
31	0x2cc94ecd	5.7215122e-12
32	0x33333482	4.172444e-08
33	0x32a6f5fe	1.9436808e-08
34	0x33494e97	4.6870436e-08
35	0x306dee61	8.6558855e-10
36	0x2cec6645	6.7188776e-12
37	0x2e60bb78	5.109821e-11
38	0x331b9f90	3.623387e-08
39	0x310178b2	1.8840578e-09
40	0x3337ebce	4.282247e-08
41	0x2d29a98b	9.644184e-12
42	0x2afb8f12	4.4685832e-13
43	0x2f6ed455	2.172141e-10
44	0x2dfef868	2.8986771e-11
45	0x300560b2	4.852253e-10
46	0x2cb48b9a	5.1314066e-12
47	0x309272c6	1.0655519e-09
48	0x2ce13cec	6.4016483e-12
49	0x2f7cd03f	2.299325e-10
50	0x338b7f31	6.495828e-08
51	0x2cd40045	6.0254323e-12
52	0x31867aca	3.913873e-09
53	0x325309ab	1.2284015e-08
54	0x30ad44a5	1.2606917e-09
55	0x2bba8f5c	1.3255885e-12
56	0x28f333cb	2.7000881e-14
57	0x31d9b746	6.336367e-09
58	0x33615ec9	5.24731e-08
59	0x30824fdc	9.481442e-10
60	0x3255ee1c	1.2452372e-08
61	0x30450575	7.167594e-10
62	0x2b32970a	6.344791e-13
63	0x2c24d1a0	2.3422167e-12
64	0x34a1c2c9	3.0130312e-07
65	0x3215931f	8.706393e-09
66	0x3418cf0d	1.4231428e-07
67	0x307c0895	9.168926e-10
68	0x3257ec5b	1.2568388e-08
69	0x32ac77b2	2.0077866e-08
70	0x35053595	4.9624333e-07
71	0x33c52d6e	9.181791e-08
72	0x3515c3d7	5.579181e-07
73	0x2c2e54d8	2.4773985e-12
74	0x2c0c3a75	1.9927647e-12
75	0x2efc6d58	1.14790566e-10
76	0x31979d8d	4.41259e-09
77	0x33178019	3.527393e-08
78	0x3389f423	6.423968e-08
79	0x34c19b2a	3.6061948e-07
80	0x32655355	1.3348502e-08
81	0x2f094cfb	1.2487426e-10
82	0x347387dd	2.2680565e-07
83	0x2d84d3fa	1.5100799e-11
84	0x33e58527	1.0687864e-07
85	0x3319e391	3.583006e-08
86	0x34308675	1.6440192e-07
87	0x2d319e62	1.0096453e-11
88	0x3185831f	3.885716e-09
89	0x33570a0f	5.0067737e-08
90	0x3334e2b1	4.211569e-08
91	0x3159c1e3	3.1687868e-09
92	0x3421fc1b	1.5086009e-07
93	0x348ef9f2	2.663142e-07
94	0x29f5b7f4	1.09120964e-13
95	0x2f834ba7	2.3882515e-10
96	0x331d45b3	3.6617802e-08
97	0x329a89f1	1.7990688e-08
98	0x332a8861	3.9705245e-08
99	0x30637542	8.274875e-10
100	0x257387dc	2.1122921e-16
101	0x2dce9ebc	2.348998e-11
102	0x32fad6c4	2.9201495e-08
103	0x30e6de6a	1.6797916e-09
104	0x331949a8	3.569008e-08
105	0x2b7aed80	8.914744e-13
106	0x2ce97203	6.634916e-12
107	0x2f3df022	1.7274762e-10
108	0x2c2304cc	2.3166356e-12
109	0x2ff32667	4.422873e-10
110	0x2c5dff78	3.1547803e-12
111	0x302fd5f2	6.3968664e-10
112	0x2c90f110	4.1194895e-12
113	0x2f672d34	2.1025387e-10
114	0x33707d9b	5.5993592e-08
115	0x2bdf2645	1.5855725e-12
116	0x31398a79	2.6999756e-09
117	0x32509bb9	1.2142601e-08
118	0x30476f79	7.255419e-10
119	0x2d1f9a41	9.072355e-12
120	0x298737bd	6.0048734e-14
121	0x31d6d022	6.2518817e-09
122	0x334b8a2d	4.739029e-08
123	0x3081d3a4	9.446137e-10
124	0x322f7aa8	1.02142295e-08
125	0x2fa648b8	3.0246894e-10
126	0x2bd6bf33	1.5258683e-12
127	0x2a33755f	1.5939115e-13
128	0x31d780d1	6.2719683e-09
129	0x31f278d2	7.0568626e-09
130	0x32be02c0	2.2120162e-08
131	0x3030a6c5	6.426542e-10
132	0x2c971a1f	4.294578e-12
133	0x2d26ec26	9.488443e-12
134	0x321eb3a8	9.2376595e-09
135	0x2f0dfb37	1.2913125e-10
136	0x3239f823	1.0824837e-08
137	0x2ce90d1e	6.6237146e-12
138	0x2c189b9c	2.168688e-12
139	0x2f445fa1	1.786007e-10
140	0x2fcfccb7	3.779854e-10
141	0x31032136	1.9081887e-09
142	0x30317c5b	6.4568945e-10
143	0x30244336	5.9758365e-10
144	0x2ba45c15	1.1678459e-12
145	0x2f94d014	2.7068892e-10
146	0x32c09095	2.241749e-08
147	0x2c3fbd85	2.7247937e-12
148	0x30eca16b	1.7217138e-09
149	0x30ea81dd	1.706265e-09
150	0x2fe017a0	4.076215e-10
151	0x2b3cd108	6.7081106e-13
152	0x2b0bcfaf	4.967094e-13
153	0x31f55fd8	7.1413346e-09
154	0x32e882d9	2.7067857e-08
155	0x2df63db5	2.7994366e-11
156	0x318b2106	4.0491868e-09
157	0x2fe6990c	4.1945503e-10
158	0x2b177719	5.381126e-13
159	0x2d19fb2f	8.752817e-12
160	0x345dd25f	2.0658761e-07
161	0x32c0e2a4	2.2454806e-08
162	0x33e1ff74	1.05238456e-07
163	0x30d28b1c	1.5319048e-09
164	0x31b7ce03	5.349422e-09
165	0x32370e40	1.0655242e-08
166	0x348cd818	2.623426e-07
167	0x33443ac5	4.5688257e-08
168	0x34a11ab9	3.000803e-07
169	0x2d1557f4	8.489199e-12
170	0x297aead8	5.5714846e-14
171	0x3038f95f	6.729319e-10
172	0x2a871711	2.3996823e-13
173	0x30fc05e7	1.8337091e-09
174	0x3237fa19	1.0708868e-08
175	0x34292110	1.575138e-07
176	0x31d6292e	6.2329013e-09
177	0x3043c91a	7.122637e-10
178	0x34407328	1.7923287e-07
179	0x2c07c293	1.9292664e-12
180	0x3348c031	4.6740926e-08
181	0x331e4944	3.6853876e-08
182	0x3399e576	7.1663564e-08
183	0x2d2f71de	9.972882e-12
184	0x308d6fc5	1.0290867e-09
185	0x31cbff42	5.937097e-09
186	0x3356510c	4.989947e-08
187	0x315c0edd	3.2022662e-09
188	0x33adeb5c	8.098752e-08
189	0x33fca874	1.1765306e-07
190	0x2d195e35	8.717961e-12
191	0x2ee3e9f9	1.0364327e-10
192	0x34e60a1e	4.28482e-07
193	0x3344339d	4.5681748e-08
194	0x3479a713	2.3250713e-07
195	0x31736889	3.5420575e-09
196	0x33c4574f	9.1428426e-08
197	0x32ac0a56	2.0028136e-08
198	0x352f5c07	6.53265e-07
199	0x3425b259	1.5431705e-07
200	0x35469ad6	7.3986064e-07
201	0x283f616a	1.0623753e-14
202	0x2b3ed21a	6.7793134e-13
203	0x3068f0f7	8.474354e-10
204	0x32820086	1.513423e-08
205	0x34aa8ee0	3.1768923e-07
206	0x353b5feb	6.980251e-07
207	0x359fe517	1.1913097e-06
208	0x32639791	1.3247601e-08
209	0x30a87eac	1.2259611e-09
210	0x34ec30d4	4.3993953e-07
211	0x2f49de65	1.8359854e-10
212	0x349fb614	2.9748537e-07
213	0x33bb3077	8.716682e-08
214	0x34f42a61	4.5479376e-07
215	0x2d29a3f9	9.642947e-12
216	0x332de3ea	4.0486988e-08
217	0x343033dd	1.6410145e-07
218	0x3420a057	1.4959492e-07
219	0x3217ff57	8.847414e-09
220	0x3475118b	2.2823785e-07
221	0x3568f93b	8.6789413e-07
222	0x30a91609	1.2302631e-09
223	0x307f047f	9.277485e-10
224	0x33c9bd87	9.394267e-08
225	0x3403e8e1	1.2285047e-07
226	0x34f0cfe8	4.4854755e-07
227	0x32bddf20	2.2103961e-08
228	0x2c708624	3.4180514e-12
229	0x2cd0c0f9	5.93314e-12
230	0x3419adfb	1.4312529e-07
231	0x316b52a4	3.4243977e-09
232	0x343bc0af	1.748583e-07
233	0x2aa64644	2.953628e-13
234	0x2c8bfc11	3.9786026e-12
235	0x31ee3928	6.9332096e-09
236	0x32560fa8	1.2459999e-08
237	0x33b4604c	8.3994195e-08
238	0x33034cca	3.0570654e-08
239	0x324c81dc	1.1903889e-08
240	0x29291dc4	3.7551356e-14
241	0x32035679	7.644865e-09
242	0x34c935ab	3.7478216e-07
243	0x28efd589	2.6626936e-14
244	0x3324e359	3.8390997e-08
245	0x32e53ecb	2.6687664e-08
246	0x320487d7	7.714298e-09
247	0x2d04cd0b	7.54886e-12
248	0x2cd4a167	6.0433217e-12
249	0x34aa1dba	3.1686596e-07
250	0x3516bc22	5.6153124e-07
251	0x30436a55	7.1091694e-10
252	0x33905969	6.721786e-08
253	0x32098fa5	8.0071105e-09
254	0x2ae2804d	4.023469e-13
255	0x2c2a417f	2.419481e-12

exp_avg f4 [32]
0	0xb6c9b0a0	-6.0108287e-06
1	0xb9c6d606	-0.00037924963
2	0xbb0ffa7c	-0.0021969369
3	0xb91f5d41	-0.00015198161
4	0xba68a319	-0.0008874401
5	0xbb0953e2	-0.002095454
6	0x3a4fe3cf	0.00079303695
7	0xbaa789b4	-0.0012782128
8	0xbaad05c1	-0.0013200567
9	0xbb5f190d	-0.003404203
10	0xb767927c	-1.3802779e-05
11	0xba027fbc	-0.00049781404
12	0xba3e3502	-0.00072558236
13	0xb9a5538f	-0.00031533508
14	0x389bc615	7.4278716e-05
15	0x3a932589	0.0011226396
16	0xba857027	-0.0010180519
17	0xbb13decf	-0.0022563224
18	0x3990aabf	0.00027593036
19	0xbb971c37	-0.004611518
20	0xba580884	-0.0008241015
21	0x39fa8070	0.0004777941
22	0xb88bf2ee	-6.673286e-05
23	0xb743aa97	-1.1662624e-05
24	0xba8f402d	-0.001092916
25	0xbac87776	-0.0015294391
26	0xb97ca204	-0.00024092948
27	0xb6a1eca5	-4.825723e-06
28	0x3a9d9f7c	0.001202568
29	0xbb1447cd	-0.0022625804
30	0xbb2adfee	-0.0026073414
31	0xba802878	-0.0009777686

exp_avg_sq f4 [32]
0	0x2c0fae27	2.0418196e-12
1	0x33b3914e	8.361768e-08
2	0x34f39445	4.5370157e-07
3	0x3390cb43	6.7424956e-08
4	0x3322fecf	3.795031e-08
5	0x34917ff0	2.7101441e-07
6	0x355589fc	7.9549477e-07
7	0x354e1fdf	7.678736e-07
8	0x34bd7e1a	3.5295744e-07
9	0x35823887	9.702206e-07
10	0x2d1dafa9	8.963421e-12
11	0x354f3a89	7.719869e-07
12	0x35ac4bcb	1.2837057e-06
13	0x342de903	1.619665e-07
14	0x339e90af	7.383766e-08
15	0x3526a71b	6.208299e-07
16	0x338c5270	6.534253e-08
17	0x35897ee8	1.024423e-06
18	0x344c6da7	1.9038872e-07
19	0x35938740	1.0991716e-06
20	0x347b7072	2.3417104e-07
21	0x334ef2a8	4.8183807e-08
22	0x33f9649f	1.1613269e-07
23	0x2ce74a43	6.5736596e-12
24	0x34f311e0	4.5275283e-07
25	0x33c3174f	9.084635e-08
26	0x32c30445	2.270293e-08
27	0x2e92ae02	6.670221e-11
28	0x346e3622	2.218517e-07
29	0x35015201	4.8175576e-07
30	0x35067fea	5.010503e-07
31	0x352d7545	6.461817e-07

exp_avg f4 [32, 32]
0	0x36261087	2.4745548e-06
1	0xb99ca141	-0.00029874782
2	0xbb03f348	-0.002013402
3	0xb9b9ebc4	-0.0003546161
4	0xb98a0f43	-0.00026332782
5	0xbac5711b	-0.0015063615
6	0xba13fa2f	-0.0005644885
7	0xb9dd666c	-0.00042228715
8	0xbabebef2	-0.0014552756
9	0xba437c28	-0.00074571604
10	0x3731a54d	1.0588509e-05
11	0xb892c2d7	-6.998114e-05
12	0xb8d58d9a	-0.00010183007
13	0x382e0146	4.148602e-05
14	0xba60226b	-0.00085500506
15	0x380a18d9	3.2924905e-05
16	0xbaa88be6	-0.0012859076
17	0xbad852fa	-0.0016504221
18	0xb7c72bee	-2.3743105e-05
19	0xbadb7d28	-0.0016745673
20	0xb918eef4	-0.00014584867
21	0xb83dae15	-4.5223238e-05
22	0xba9b307f	-0.0011840014
23	0x36f1f04d	7.2103344e-06
24	0xba2b98f7	-0.0006545926
25	0xba91fbe3	-0.001113769
26	0xb8e8d0d5	-0.0001110152
27	0xb31e03dc	-3.6790752e-08
28	0xb8dbd969	-0.000104832296
29	0xbaef90b3	-0.0018277377
30	0x397465a7	0.00023307522
31	0xb96c6fc5	-0.00022548351
32	0xb2b75e42	-2.1346867e-08
33	0xb9227a69	-0.00015495125
34	0xba8018a6	-0.0009772971
35	0xb93ac46a	-0.00017811512
36	0xb90ce6b6	-0.00013437387
37	0xba41a979	-0.0007387619
38	0x386cadf8	5.6428806e-05
39	0xb950ca06	-0.00019911685
40	0xba39a6c4	-0.000708204
41	0xb9cd1101	-0.00039113316
42	0xb7305a85	-1.0511493e-05
43	0x39e0c5ea	0.00042872067
44	0x39968ffe	0.00028717512
45	0x389e3b8a	7.545117e-05
46	0x392746a7	0.00015952681
47	0x382041c8	3.8208236e-05
48	0xba28e047	-0.00064421113
49	0xba5073f8	-0.0007951851
50	0xb7709845	-1.4340568e-05
51	0xba4e9275	-0.00078801
52	0x37c5f92a	2.3600256e-05
53	0xb801b235	-3.0921965e-05
54	0xb962a9fb	-0.00021616362
55	0x31cd9b51	5.9839427e-09
56	0x39facb71	0.00047835291
57	0xb9b643a5	-0.00034764144
58	0xb83c10ad	-4.4838223e-05
59	0xb7244090	-9.790194e-06
60	0xb8143fde	-3.534543e-05
61	0xba68069b	-0.0008851082
62	0x3a4bb739	0.0007771138
63	0x3a2effef	0.00066757103
64	0x3729cc4c	1.01207515e-05
65	0x36078d2a	2.0198736e-06
66	0x37fa4b3d	2.9837358e-05
67	0xb6af97b4	-5.233067e-06
68	0xb7641e15	-1.3596863e-05
69	0x376e793e	1.4214134e-05
70	0x3794053a	1.7645409e-05
71	0xb735a2bf	-1.0826333e-05
72	0x37b87fee	2.1994081e-05
73	0xb75c6557	-1.3136617e-05
74	0x374a09c7	1.2042415e-05
75	0x37b81218	2.1942935e-05
76	0x3699c831	4.5830607e-06
77	0xb72cc5fc	-1.0298096e-05
78	0x3792e5b2	1.7511516e-05
79	0x35007326	4.785128e-07
80	0x375f2aba	1.3301784e-05
81	0x37b6f7ff	2.1811573e-05
82	0x37964066	1.7911381e-05
83	0xb558070c	-8.0476525e-07
84	0xb5ac65d4	-1.2844635e-06
85	0x36cfac61	6.1891483e-06
86	0x379192f0	1.735377e-05
87	0x373a45b7	1.1102696e-05
88	0x36d28ec6	6.2751087e-06
89	0x37162579	8.9494215e-06
90	0x353b696b	6.981633e-07
91	0xb5fdbcb4	-1.8904889e-06
92	0x377a861f	1.4932389e-05
93	0x37541ad4	1.2642431e-05
94	0xb75c89c7	-1.3145101e-05
95	0x35f9756e	1.8586122e-06
96	0xb6a8a7ce	-5.026325e-06
97	0xba142b84	-0.0005652236
98	0xbb707ac8	-0.0036694277
99	0xba35470f	-0.00069151906
100	0xba0b159f	-0.0005305651
101	0xbb35633c	-0.0027677556
102	0xba84d17a	-0.001013323
103	0xba55430a	-0.0008135295
104	0xbb32a15f	-0.002725683
105	0xbab92ac1	-0.0014127122
106	0x35d7b139	1.6070327e-06
107	0x377dc2d6	1.5125339e-05
108	0xb6a8fe2d	-5.03638e-06
109	0x3933ac73	0.00017135013
110	0xbaa404f8	-0.0012513688
111	0x38fe7a63	0.0001213446
112	0xbb19faf0	-0.0023495518
113	0xbb451630	-0.003007304
114	0xb881ef1c	-6.195737e-05
115	0xbb42ce41	-0.0029724988
116	0xb99a5359	-0.00029435268
117	0xb8f60ebc	-0.000117329386
118	0xbb07ec80	-0.002074033
119	0x363dcf1f	2.8283755e-06
120	0xba73b4d8	-0.0009296662
121	0xbae47565	-0.0017430006
122	0xb9836ba9	-0.0002506648
123	0x37195fbb	9.1418e-06
124	0xb954440a	-0.00020243242
125	0xbb5c3638	-0.0033601653
126	0x3a4187ad	0.0007382583
127	0xb923ee07	-0.00015633563
128	0xb7223a0a	-9.669466e-06
129	0xb6c005c1	-5.7227157e-06
130	0x3a919890	0.0011108089
131	0xb6af5ff1	-5.2265755e-06
132	0xb82b4554	-4.0834144e-05
133	0x3a6fd840	0.000914935
134	0xba480d46	-0.00076313724
135	0xb80f13f5	-3.4112443e-05
136	0x3949ca61	0.00019244246
137	0x39d7f82e	0.00041192904
138	0x37640720	1.3591518e-05
139	0xba947e09	-0.0011329065
140	0xba42f6a5	-0.00074372656
141	0xb959104a	-0.00020700801
142	0xba6f2646	-0.00091228297
143	0xb8f962a8	-0.000118916214
144	0x39d4a551	0.0004055896
145	0x3a219caa	0.00061650074
146	0x3758c659	1.2920785e-05
147	0x3a864236	0.0010243121
148	0xb9aeeedf	-0.0003336584
149	0xb3cc208a	-9.505409e-08
150	0xba10ecc3	-0.00055284443
151	0x35e3180d	1.6919818e-06
152	0xbb05982e	-0.0020384896
153	0x3a14b634	0.00056729023
154	0x3705602b	7.949809e-06
155	0xb71b1c44	-9.245301e-06
156	0x36df8ef8	6.6625616e-06
157	0x3a408856	0.00073445344
158	0xbb02e2cb	-0.0019971605
159	0xbafa1a74	-0.001908137
160	0x361ce453	2.3378714e-06
161	0xb727b05f	-9.99504e-06
162	0xbb229435	-0.0024807577
163	0xb712622e	-8.725137e-06
164	0xb92858bc	-0.00016054785
165	0xbaf6fec7	-0.001884424
166	0xba82ef8e	-0.0009989606
167	0xb8db6d27	-0.00010463065
168	0xba3cd144	-0.0007202814
169	0xba4cdce4	-0.00078148977
170	0xb411ac46	-1.356685e-07
171	0xba97acb0	-0.0011571851
172	0xba354d29	-0.00069161
173	0xb7df88bd	-2.6647345e-05
174	0xbaf7710c	-0.0018878295
175	0x3960b5bb	0.00021430005
176	0xba648726	-0.00087176485
177	0xbb09f431	-0.002105009
178	0xb7b96943	-2.2102735e-05
179	0xbb1805f2	-0.0023196903
180	0x3911ba11	0.00013897593
181	0x372c673e	1.0276037e-05
182	0xbabe441c	-0.0014516148
183	0x3703d23c	7.8571575e-06
184	0xba9e3a17	-0.0012071755
185	0xbb2ab799	-0.0026049374
186	0x37790337	1.4842305e-05
187	0xb68889fc	-4.0691793e-06
188	0xb87e9ce5	-6.070444e-05
189	0xbad50caf	-0.001625439
190	0x38ff9938	0.00012187887
191	0xba9fd7f0	-0.0012195092
192	0xb3fa7144	-1.1662135e-07
193	0xb6cb14fe	-6.0523153e-06
194	0x3a03e0f4	0.0005030774
195	0x3650d2b6	3.1117065e-06
196	0xb8820dc9	-6.201451e-05
197	0x39df8265	0.00042631026
198	0xba2f3bd4	-0.00066846353
199	0xb821c85c	-3.857199e-05
200	0xb85edbdd	-5.313369e-05
201	0x394d217a	0.00019562794
202	0x371bff37	9.298142e-06
203	0xba816891	-0.0009873082
204	0xba17acb5	-0.0005785928
205	0xb913446f	-0.00014044506
206	0xba5b5cd6	-0.00083680206
207	0xb8bd551b	-9.0280744e-05
208	0x38a0999a	7.658005e-05
209	0x395f3398	0.00021286157
210	0xb7807d86	-1.531724e-05
211	0x3a0ce9b6	0.0005375402
212	0xb9769c61	-0.00023518644
213	0xb74edbb2	-1.2329709e-05
214	0xba272b95	-0.00063770387
215	0xb720e2d9	-9.58956e-06
216	0xbada8bb4	-0.0016673715
217	0x394bcf48	0.00019436807
218	0x36a59da4	4.935735e-06
219	0x375fb87d	1.333479e-05
220	0xb7542fa6	-1.2647279e-05
221	0x39afec01	0.00033554438
222	0xbac0b083	-0.0014701042
223	0xbac67222	-0.0015140215
224	0x376ce15a	1.4119165e-05
225	0x2f5db2cc	2.0163354e-10
226	0x372ea933	1.0410603e-05
227	0x3702332a	7.760516e-06
228	0x37224a71	9.673285e-06
229	0xb7705bf1	-1.43265215e-05
230	0x373f3c33	1.1398503e-05
231	0xb747a9a3	-1.1900821e-05
232	0x37547977	1.2664465e-05
233	0xb31db3c8	-3.671792e-08
234	0xb7517af9	-1.2486003e-05
235	0x360c5c1a	2.0915236e-06
236	0xb57b1897	-9.354057e-07
237	0xb754f6b7	-1.26936275e-05
238	0xb669efe8	-3.485935e-06
239	0xb4025cc4	-1.2140941e-07
240	0x373246a2	1.0626072e-05
241	0xb62c76d2	-2.569916e-06
242	0x36f96bde	7.4333357e-06
243	0xb10441a8	-1.924585e-09
244	0x3250caac	1.2153276e-08
245	0x354c382d	7.607767e-07
246	0xb70eba87	-8.507289e-06
247	0xb7417c0e	-1.153258e-05
248	0xb633f573	-2.6815949e-06
249	0xb75ec1ab	-1.3277323e-05
250	0xb6aff9ee	-5.244502e-06
251	0x331ec72c	3.6968387e-08
252	0xb70f6802	-8.54768e-06
253	0xb6928c00	-4.367437e-06
254	0xb5212ccf	-6.004238e-07
255	0x33942435	6.898373e-08
