checkpoints/ablation_eps_0.05/ablation_eps_0.05_epoch0100.pt (torch, 41915 bytes, 24 tensors)

0.weight f4 [32, 2]
0.653047 0.6291789 -0.20650105 0.769611 -0.16381909 0.2395588 -0.5031241 0.42069298
0.62121564 -0.5425089 0.68130434 0.26810744 0.48147544 -0.006937699 0.48091483 -0.049917307
0.5474553 0.09531606 -0.008643645 1.0810203e-05 -0.007922759 2.9768113e-18 -0.29558736 0.6410143
-0.7338286 -0.51737654 -0.1554939 -0.41917697 0.086179025 -0.76426345 0.4598674 -0.617929
0.68643945 0.09250645 -0.1586526 0.60133165 0.16020854 0.63387704 0.1610027 -0.3318257
0.16644862 -0.23947144 0.35817465 0.6903291 0.26914868 -0.33648226 0.5133956 -0.14607863
0.3575491 -0.47443345 -0.76888996 -0.39041364 -0.5546206 0.6256554 0.3177971 0.34925127
0.2924598 0.05341921 0.4201879 -0.5596067 0.067671694 -0.65117663 0.3487549 -0.2539391
00000000: 172e 273f de11 213f 0375 53be 3a05 453f
00000010: 31c0 27be e74e 753e becc 00bf 1265 d73e
00000020: fd07 1f3f dde1 0abf f669 2e3f 6145 893e
00000030: f383 f63e a355 e3bb 783a f63e 1776 4cbd
00000040: 0826 0c3f 1135 c33d 139e 0dbc 785d 3537
00000050: 76ce 01bc 60a6 5b22 3a57 97be 8319 243f
00000060: 31dc 3bbf ca72 04bf cb39 1fbe 5d9e d6be
00000070: a17e b03d c5a6 43bf bd73 eb3e 9830 1ebf
00000080: 7fba 2f3f 0674 bd3d d475 22be dff0 193f
00000090: b50d 243e c445 223f e4dd 243e 0fe5 a9be
000000a0: 8271 2a3e 0038 75be ab62 b73e 68b9 303f
000000b0: dbcd 893e 6747 acbe e56d 033f a395 15be
000000c0: ad10 b73e f1e8 f2be f9d5 44bf 4ce4 c7be
000000d0: 9efb 0dbf f42a 203f 4db6 a23e 10d1 b23e
000000e0: 4abd 953e 1ace 5a3d de22 d73e 6242 0fbf
000000f0: 7597 8a3d 83b3 26bf 0190 b23e 4e04 82be

0.bias f4 [32]
0.10113705 -0.09587558 0.6699857 -0.4160169 -0.48611268 -0.46198183 0.6650527 0.20774359
0.731684 -0.117566295 -0.19990295 -0.498179 -0.41576132 0.34079915 0.21632645 0.7030952
-0.39529473 -0.47250295 0.36953068 -0.29274577 0.45178032 -0.24231197 0.40292588 -0.48181328
-0.40302542 0.2248366 0.16324124 -0.25522813 0.4813737 0.57337916 -0.49954858 -0.38410634
00000000: f120 cf3d 6b5a c4bd 2f84 2b3f 2b00 d5be
00000010: c3e3 f8be e288 ecbe e540 2a3f bcba 543e
00000020: a54f 3b3f 99c6 f0bd 5cb3 4cbe 5111 ffbe
00000030: abde d4be 3a7d ae3e ae84 5d3e 0cfe 333f
00000040: 1264 cabe e8eb f1be 2033 bd3e c6e2 95be
00000050: c04f e73e a120 78be 4d4c ce3e 3bb0 f6be
00000060: 5959 cebe 913b 663e b628 273e 43ad 82be
00000070: 9d76 f63e fac8 123f d5c4 ffbe 96a9 c4be

2.weight f4 [32, 32]
-0.061984435 0.090016134 0.07610794 -0.4339504 -0.059776176 -0.13420653 0.060533233 -0.06986449
0.05761916 -4.2677112e-11 -1.8516585e-07 -0.32344553 -0.40049168 0.044552837 0.11624717 0.056045108
-0.080725245 -0.3113647 -0.09090952 -0.35971978 0.066303216 -0.4383053 0.056657746 -0.3298737
-0.18636164 -0.016156208 0.0062018745 -0.42437968 0.035489094 0.03988901 -0.5193793 -0.28705382
0.13098697 0.062973596 0.27616623 0.056931015 -0.6132988 -0.47509366 0.054513354 -0.052389894
-0.044201177 -6.772236e-06 -4.9142936e-20 -0.22127095 -0.31421408 -0.23679896 0.049717326 -0.11853211
-0.7693164 -0.22110564 0.19061165 -0.26336548 0.26943544 -0.20809096 0.03826928 -0.37257427
-0.44455644 -0.16933611 0.21205671 -0.42719337 0.205049 0.053362023 -0.2185744 -0.26218602
0.16972019 0.030202437 -0.009360578 0.0032261822 -0.062299613 0.0966544 -0.10316247 0.14130919
0.022846801 -2.1070386e-17 -8.080554e-19 0.19722438 0.09487262 -0.048826817 -0.18593973 -0.07801798
-0.0011899819 0.29866064 0.13646193 -0.099561 -0.006482989 0.19592041 0.015016998 -0.24778396
-0.037196174 0.06516519 0.05882834 0.22342983 -0.0775267 -0.0003962216 -0.00012026192 -0.2245229
0.22681323 0.21406429 -0.073368736 0.17517386 -0.27868372 0.46188733 0.013620208 0.1854075
-0.16926835 -2.5781002e-19 1.5108937e-07 0.46936512 0.31875724 -0.13323939 -0.22765775 -0.09225216
0.3847238 0.4803241 0.13431363 -5.525481e-19 -0.32157496 0.17078766 -0.016694518 -0.1472749
-0.23602349 -0.04029443 0.058281377 0.40410188 -0.14326541 0.14304227 -1.3965256e-18 -0.3044321
-0.09792626 0.2696256 0.24840027 0.15109985 -0.31632033 -0.45078123 -0.0032230918 0.18290506
0.22572254 1.4801411e-07 -1.7691891e-17 -0.07524671 -0.28053275 -0.265118 -0.14185323 -0.122530855
-0.47185305 -0.24768576 0.11224464 -0.12472617 0.042336322 -0.08074764 -0.09900025 -0.13469304
-0.1592744 0.024908936 0.024415873 -0.30167204 0.10594185 -0.065413654 -0.16817014 -0.07253538
0.15265524 -0.08200122 0.030027442 0.21108265 0.019388188 0.14204356 0.09752152 -0.04812242
0.042452145 2.1460844e-06 7.535744e-21 0.36794397 0.10011624 -0.16227253 0.05106184 -0.19601575
0.40567663 0.5154669 0.16791531 -0.04121625 -0.22528523 0.23889047 0.070861846 -0.20382518
-0.14147048 -0.11628476 -0.033617675 0.28850517 -0.10783812 -0.07191602 -0.0010197493 -0.06607286
0.12445769 -0.032266643 -0.018982014 -0.25068805 -0.06156976 -0.26516485 0.05909402 -0.083497316
-0.11919592 -7.12034e-21 -1.3364955e-19 -0.30242306 0.13271208 -0.04880456 -0.04813398 -0.08900792
-0.21499467 -0.15898949 -0.027270153 0.3639081 -0.049296424 -0.09379723 0.15864079 0.4010439
0.026378796 0.08375369 0.17737383 -0.1918026 0.12448826 0.169034 0.44071397 0.31304806
-0.060791086 -0.010058205 0.15149581 0.20772053 -0.11615574 0.25417054 -0.10696727 -0.112958066
-0.10706748 -7.974962e-21 2.0635793e-11 0.26870543 -0.12411688 -0.09851687 -0.058220174 -0.019935748
0.25880378 0.3644238 -0.03766853 -7.9978815e-07 -0.0452447 0.097343445 0.012380679 -0.06912436
-0.114879064 -0.08141142 0.20803256 0.27360368 -0.106819205 0.1371993 -0.015873 -0.14601746
00000000: 64e3 7dbd 615a b83d 7bde 9b3d bf2e debe
00000010: ddd7 74bd 706d 09be b2f1 773d 1d15 8fbd
00000020: 1102 6c3d 28b2 3bae 00d2 46b4 a79a a5be
00000030: 3f0d cdbe 097d 363d ff12 ee3d 8e8f 653d
00000040: 4753 a5bd 326b 9fbe c52e babd 312d b8be
00000050: fbc9 873d 8d69 e0be f411 683d 35e5 a8be
00000060: 96d5 3ebe 065a 84bc 1839 cb3b 4b48 d9be
00000070: 035d 113d a962 233d 0bf6 04bf b8f8 92be
00000080: 7321 063e 4df8 803d a965 8d3e 7f30 693d
00000090: 2601 1dbf 7a3f f3be 6549 5f3d c996 56bd
000000a0: 4b0c 35bd 103d e3b6 2a12 689f da94 62be
000000b0: abe0 a0be 6d7b 72be 65a4 4b3d f6c0 f2bd
000000c0: ebf1 44bf 8469 62be b32f 433e d7d7 86be
000000d0: 71f3 893e cc15 55be 40c0 1c3d 0ec2 bebe
000000e0: e79c e3be 7266 2dbe 6525 593e 17b9 dabe
000000f0: 5df8 513e 2392 5a3d f8d1 5fbe 3f3d 86be
00000100: 21cb 2d3e 1a6b f73c 1c5d 19bc 5b6e 533b
00000110: e12d 7fbd bef2 c53d d846 d3bd 5bb3 103e
00000120: 3729 bb3c 0b57 c2a3 f17e 6ea1 30f5 493e
00000130: 944c c23d a1fe 47bd fc66 3ebe e4c7 9fbd
00000140: 2bf9 9bba 0cea 983e adbc 0b3e a3e6 cbbd
00000150: 416f d4bb 5c9f 483e db09 763c 14bb 7dbe
00000160: 045b 18bd 5475 853d fcf5 703d caca 643e
00000170: 52c6 9ebd f7bb cfb9 2035 fcb8 55e9 65be
00000180: ba41 683e ab33 5b3e 5942 96bd c760 333e
00000190: a2af 8ebe 7f7c ec3e 4b27 5f3c 77db 3d3e
000001a0: af54 2dbe 262f 98a0 213b 2234 a050 f03e
000001b0: 2634 a33e e86f 08be 1d1f 69be b3ee bcbd
000001c0: 85fa c43e 0aed f53e 8389 093e 5b15 23a1
000001d0: 79a5 a4be f6e2 2e3e f1c2 88bc 3bcf 16be
000001e0: 24b0 71be c60b 25bd 74b8 6e3d 71e6 ce3e
000001f0: 2bb4 12be ac79 123e 3f17 cea1 86de 9bbe
00000200: 908d c8bd 5e0c 8a3e a45c 7e3e ebb9 1a3e
00000210: bdf4 a1be cccc e6be 823a 53bb 774b 3b3e
00000220: cf23 673e cfed 1e34 cc2d a3a3 f21a 9abd
00000230: fda1 8fbe 8cbd 87be f941 11be 75f1 fabd
00000240: b996 f1be 56a1 7dbe 85e0 e53d 6f70 ffbd
00000250: da68 2d3d 055f a5bd a5c0 cabd f9ec 09be
00000260: d418 23be d30d cc3c cc03 c83c c274 9abe
00000270: 0af8 d83d 98f7 85bd cb34 2cbe 6e8d 94bd
00000280: a851 1c3e 41f0 a7bd 1cfc f53c 0d26 583e
00000290: fad3 9e3c de73 113e 5db9 c73d 041c 45bd
000002a0: 4de2 2d3d 7305 1036 9f58 0e1e 2763 bc3e
000002b0: be09 cd3d c52a 26be 3826 513d 5ab8 48be
000002c0: d9b4 cf3e a4f5 033f fef1 2b3e 5fd2 28bd
000002d0: 2cb1 66be b49f 743e 0420 913d 8cb7 50be
000002e0: a3dd 10be b426 eebd b0b2 09bd f3b6 933e
000002f0: 3bda dcbd b548 93bd 1ca9 85ba 3551 87bd
00000300: ace3 fe3d 072a 04bd 2b80 9bbc 2f5a 80be
00000310: 9330 7cbd b0c3 87be 920c 723d a400 abbd
00000320: fe1c f4bd da7f 069e 19c9 1da0 32d7 9abe
00000330: ade5 073e 4ae7 47bd 2328 45bd c949 b6bd
00000340: 9027 5cbe 24ce 22be a865 dfbc 2a52 ba3e
00000350: 0ceb 49bd c318 c0bd bb72 223e a055 cd3e
00000360: 5818 d83c 0e87 ab3d 7ca1 353e e767 44be
00000370: b3f3 fe3d 4017 2d3e 43a5 e13e d647 a03e
00000380: 1300 79bd 2bcb 24bc b821 1b3e b1b4 543e
00000390: 10e3 edbd a422 823e a811 dbbd 8f56 e7bd
000003a0: 3246 dbbd 8da4 169e ad83 b52d c293 893e
000003b0: fe30 febd 36c3 c9bd 4778 6ebd 4b50 a3bc
000003c0: ee81 843e c295 ba3e 514a 1abd 06b1 56b5
000003d0: 8252 39bd 005c c73d 55d8 4a3c 1391 8dbd
000003e0: b745 ebbd 08bb a6bd 7d06 553e c815 8c3e
000003f0: 07c4 dabd f97d 0c3e 1808 82bc 9a85 15be

2.bias f4 [32]
0.06381822 -0.016140582 -0.035417005 -0.1845085 0.2530339 -0.23787038 0.08752959 0.18564726
0.051365323 0.09227059 -3.5589862e-06 0.11846517 -0.02536298 -0.22043438 0.1581246 -0.09161842
0.003900052 0.18195052 -0.13252749 -0.057099026 0.105833635 -0.052789934 -0.046949808 -0.014148388
0.016156135 -0.050643913 -0.10209922 -0.0016572601 0.07180048 0.047360547 -0.1230451 0.14472017
00000000: 20b3 823d 4139 84bc 6c11 11bd ccef 3cbe
00000010: a98d 813e 4b94 73be b742 b33d 511a 3e3e
00000020: 7264 523d 5df8 bc3d ebd6 6eb6 de9d f23d
00000030: 06c6 cfbc 8db9 61be 6aeb 213e 70a2 bbbd
00000040: 0498 7f3b 3d51 3a3e 49b5 07be abe0 69bd
00000050: 4ebf d83d 423a 58bd 714e 40bd a4ce 67bc
00000060: df59 843c fe6f 4fbd 6519 d1bd 6c38 d9ba
00000070: 210c 933d 22fd 413d 12ff fbbd 8631 143e

4.weight f4 [32, 32]
0.29105535 -0.07703965 -0.056681346 0.57119966 0.11752903 0.27926746 -0.14224456 0.2500081
0.04049129 0.10926751 1.2356455e-08 0.08029708 -0.21807311 -0.06216335 -0.14115494 -0.0040353276
-0.03799642 -0.0035100798 0.0055141496 0.042927433 -0.10092463 0.016260812 0.3576755 3.881383e-09
0.06473722 0.095772356 0.5503749 7.9707667e-22 0.122376904 0.10651512 -0.28536725 -0.11761519
0.2900844 -0.22441064 0.043718167 0.5569172 -0.048239965 0.29681185 -0.054997966 0.23095518
0.16233742 -0.024396367 -1.01064845e-08 -0.20811126 -0.14827538 -0.5599239 -0.020713026 -0.02246732
0.0006520044 0.021316854 -0.0020927535 0.2716622 -0.035336867 -0.008648523 0.19985124 1.8943069e-16
0.10778269 0.19105588 0.5942445 -1.2524936e-09 0.084174745 0.21302791 -0.16123356 0.18104269
3.367866e-09 -0.0008349693 0.040608622 -0.00015791305 -7.783138e-06 0.0076501993 0.015454946 -3.281005e-05
0.02951384 -0.0007464219 2.712889e-07 0.03112414 5.752458e-05 -1.4131308e-06 0.020328335 -2.2453274e-21
0.009016003 0.019204177 0.027391188 -0.015657477 2.364283e-20 0.003429026 0.00024964268 4.233678e-08
-0.055646658 -0.008701526 -2.3484163e-20 4.9558103e-20 0.019093309 0.00035447086 -1.5146812e-06 -0.0058931652
0.26711735 -0.124584846 0.02417849 0.34313604 -0.094270974 0.12884843 -0.03815916 0.2456313
-0.010311014 0.20975834 1.3219343e-20 -0.19104743 0.0018459957 -0.2975949 -0.11166765 -0.11582315
0.25088617 0.2077694 -0.053170063 0.19994445 0.0052982676 -0.10133802 0.12287203 1.0307859e-07
-0.060633812 0.13871291 0.26326016 9.5441766e-11 0.13703789 0.1597736 -0.027928483 0.08637611
-0.18266506 0.31193566 -0.13198105 -0.0923805 0.00824702 0.026903247 0.18934664 -0.115419134
-0.05179163 -0.07261144 2.7369165e-06 0.19405542 0.23802465 0.4156909 0.16682899 0.1272278
-0.32216367 -0.21361649 0.0041647763 -0.015538004 -0.13408045 1.0353825e-20 0.06303838 4.615853e-20
-0.02044237 0.022778278 -0.2973176 -1.2563023e-10 0.28164533 -0.08208163 0.151374 0.21843904
0.29377937 -0.21819632 0.20312023 0.5419769 -0.10220283 0.18177155 -0.12477447 0.11316151
-0.10671718 0.11894648 -5.849968e-21 -0.011228463 -0.16377522 -0.6164596 0.0995233 0.11923774
-0.06739963 0.13305047 -0.05344492 0.11029528 0.18455906 0.0008125617 -0.01255222 5.4681595e-06
0.09139122 0.09043224 0.5450433 -2.9998926e-20 -0.051152986 -0.02883843 -0.01774831 0.096053675
-0.1652454 0.22657347 -0.19524395 -0.036159173 -0.053218998 -0.09638583 0.069340035 -0.080402225
-0.0075412258 -0.13931051 1.8724337e-10 0.08782923 -0.02295208 0.599162 0.07842285 -0.0145653
-0.23694162 -0.036227696 -4.9315295e-05 -0.058480807 0.013932684 -4.4228503e-07 -0.03067143 -5.819707e-10
0.22303979 0.085092545 -0.30920747 2.071963e-06 0.23863676 -0.2221929 0.16301867 0.11602627
5.1752186e-06 9.5482254e-23 7.7099465e-09 -5.7767825e-15 7.8621165e-10 -6.539081e-06 7.97366e-08 -2.1062479e-07
7.5242997e-07 3.1906535e-21 -5.6957134e-07 5.7494513e-20 2.8782758e-20 -7.866587e-07 -1.1743724e-19 6.95289e-21
1.3605868e-08 -6.147606e-20 9.694412e-16 1.1985429e-20 2.1698927e-21 -1.7207114e-22 -2.9716821e-12 -1.0458414e-07
6.694072e-20 -1.8146651e-06 2.200833e-18 -2.3023866e-21 -3.901751e-12 -2.2251063e-19 -2.2084011e-20 7.591834e-21
00000000: 3505 953e f7c6 9dbd b32a 68bd 243a 123f
00000010: 0fb3 f03d 25fc 8e3e 8fa8 11be 1001 803e
00000020: 32da 253d a5c7 df3d 4448 5432 cc72 a43d
00000030: 8f4e 5fbe ff9e 7ebd ec8a 10be c83a 84bb
00000040: 22a2 1bbd 5e09 66bb 0ab0 b43b add4 2f3d
00000050: 93b1 cebd 6535 853c 3e21 b73e 025d 8531
00000060: f394 843d 4c24 c43d 5fe5 0c3f d2e6 701c
00000070: bea0 fa3d 9924 da3d a81b 92be 3ce0 f0bd
00000080: f185 943e e7cb 65be d211 333d 2092 0e3f
00000090: 4597 45bd b9f7 973e 8c45 61bd 847f 6c3e
000000a0: c83b 263e e4da c7bc caa0 2db2 1e1b 55be
000000b0: 80d5 17be 2c57 0fbf 5dae a9bc 630d b8bc
000000c0: 46eb 2a3a afa0 ae3c 9426 09bb 4f17 8b3e
000000d0: 64bd 10bd 89b2 0dbc cea5 4c3e 1266 5a25
000000e0: 2cbd dc3d 27a4 433e 6820 183f 3324 acb0
000000f0: cf63 ac3d fd23 5a3e 691a 25be 4163 393e
00000100: 2070 6731 d7e1 5aba 3a55 263d 7695 25b9
00000110: 5394 02b7 86ae fa3b be36 7d3c 869d 09b8
00000120: 02c7 f13c 87ab 43ba aaa5 9134 0df8 fe3c
00000130: 8c46 7138 ceaa bdb5 9c87 a63c f3a6 299d
00000140: dcb7 133c 1452 9d3c 7c63 e03c 1c44 80bc
00000150: db4c df1e 83b9 603b 79e2 8239 c8d5 3533
00000160: c0ed 63bd d890 0ebc 39cd dd9e 1208 6a1f
00000170: 9269 9c3c 46d8 b939 0d4c cbb5 741b c1bb
00000180: 9bc3 883e 5726 ffbd f811 c63c 87af af3e
00000190: 2411 c1bd d8f0 033e c84c 1cbd c686 7b3e
000001a0: 87ef 28bc e4ca 563e d2b4 791e f0a1 43be
000001b0: 56f5 f13a 5c5e 98be 02b2 e4bd b034 edbd
000001c0: 2774 803e 80c1 543e dac8 59bd 3dbe 4c3e
000001d0: 179d ad3b 4f8a cfbd 55a4 fb3d 0e5c dd33
000001e0: 295b 78bd c20a 0e3e 09ca 863e f0e0 d12e
000001f0: a953 0c3e b19b 233e 46ca e4bc f5e5 b03d
00000200: 8d0c 3bbe 08b6 9f3e 0a26 07be fd31 bdbd
00000210: 821e 073c 3364 dc3c 16e4 413e de60 ecbd
00000220: 7623 54bd 4fb5 94bd deab 3736 77b6 463e
00000230: bcbc 733e 70d5 d43e 38d5 2a3e 0148 023e
00000240: a3f2 a4be 48be 5abe ad78 883b 1d93 7ebc
00000250: 634c 09be 0794 431e 441a 813d 3dfa 591f
00000260: c276 a7bc 8399 ba3c 033a 98be c421 0aaf
00000270: d133 903e 6a1a a8bd c901 1b3e 7cae 5f3e
00000280: 406a 963e db6e 5fbe c0fe 4f3e 00bf 0a3f
00000290: b84f d1bd 5222 3a3e c289 ffbd 39c1 e73d
000002a0: 898e dabd 369a f33d 6b01 dd9d 96f7 37bc
000002b0: b1b4 27be 4cd0 1dbf dfd2 cb3d eb32 f43d
000002c0: d108 8abd 623e 083e 0fe9 5abd 7ee2 e13d
000002d0: 0dfd 3c3e 1802 553a d4a7 4dbc 227b b736
000002e0: 522b bb3d 8a34 b93d f587 0b3f 7aaa 0d9f
000002f0: cb85 51bd 923e ecbc e764 91bc cab7 c43d
00000300: 1736 29be e002 683e 08ee 47be a41b 14bd
00000310: 2afc 59bd ef65 c5bd 2602 8e3d eca9 a4bd
00000320: 631c f7bb 6aa7 0ebe 53e0 4d2f d0df b33d
00000330: 0006 bcbc ae62 193f 299c a03d 4ca3 6ebc
00000340: d3a0 72be 7e63 14bd e5d7 4eb8 9289 6fbd
00000350: ea45 643c 3173 edb4 a742 fbbc 8cf8 1fb0
00000360: 8b64 643e 0045 ae3d 7150 9ebe 0e0c 0b36
00000370: 325d 743e 8986 63be 5eee 263e 2e9f ed3d
00000380: caa6 ad36 a7dc e61a b474 0432 6a21 d0a7
00000390: ba1c 5830 476a dbb6 a93b ab33 1a28 62b4
000003a0: 98fa 4935 3714 711d a5e4 18b5 4dc1 871f
000003b0: 38ec 071f c62a 53b5 3aa5 0aa0 1d56 031e
000003c0: 3ebf 6932 0028 919f 11b6 8b26 fa65 621e
000003d0: d4f3 231d 7005 509b 111d 51ac bd97 e0b3
000003e0: 2f0f 9e1f 6b8f f3b5 8f64 2222 a2f6 2d9d
000003f0: d947 89ac db58 83a0 dd93 d09e db67 0f1e

4.bias f4 [32]
0.082368016 0.07522291 -0.06984774 0.13768482 -0.036764048 0.02159726 -0.049087197 -2.653885e-06
0.020165572 0.040766045 -0.0013010789 0.123287275 -0.120785125 -3.6989418e-06 -0.072767206 -0.034547787
-0.06013296 -0.01115701 0.06419849 -0.012009421 0.066737525 -0.041406605 0.048141357 0.1469003
0.118876755 -1.6770486e-17 -6.903786e-08 -0.06691232 -5.8402893e-18 0.09744043 0.0021930225 0.17102392
00000000: 90b0 a83d 780e 9a3d 550c 8fbd 40fd 0c3e
00000010: e695 16bd bdec b03c a80f 49bd 6619 32b6
00000020: 4532 a53c 4cfa 263d f788 aaba 0a7e fc3d
00000030: 315e f7bd 563b 78b6 f906 95bd fb81 0dbd
00000040: fb4d 76bd e4cb 36bc 7f7a 833d 2ac3 44bc
00000050: afad 883d f999 29bd df2f 453d 086d 163e
00000060: a875 f33d 31ae 9aa3 f741 94b3 5409 89bd
00000070: f977 d7a2 d98e c73d d0b8 0f3b e520 2f3e

6.weight f4 [2, 32]
0.22237 0.14523254 0.016856875 0.1606264 -0.15264945 0.39474934 -0.29899898 3.1679839e-18
-0.38358316 -0.47307357 5.0246706e-18 0.23103859 0.6673975 4.339029e-20 -0.29635593 -0.15167871
0.6356743 0.13946573 -0.10849931 0.0061777416 0.37583295 -0.3376851 -0.252285 -0.30668426
-0.28967172 -2.6725901e-08 -2.5772505e-20 -0.56110126 5.9228623e-06 -0.20327961 -0.28155693 -0.38026813
-0.1463462 -0.22685295 0.031532362 -0.23775086 0.20284733 -0.40472132 0.06872121 1.502609e-17
0.35663095 0.31536216 -3.4731252e-06 -0.2458146 -0.6334411 -1.6505561e-06 0.30235732 0.20455176
-0.6383103 -0.22520663 0.09526359 -0.005996761 -0.37791017 0.19291855 0.4089805 0.14498532
0.3487244 2.1282358e-19 4.5663443e-20 0.2676441 9.5196704e-08 0.5070284 0.15664999 0.32634088
00000000: f6b4 633e d7b7 143e 6e17 8a3c 3f7b 243e
00000010: 2350 1cbe 961c ca3e 6516 99be 86c1 6922
00000020: 0365 c4be b336 f2be ac60 b922 6195 6c3e
00000030: 90da 2a3f a4e7 4c1f f7bb 97be aa51 1bbe
00000040: 8dbb 223f 1bd0 0e3e e334 debd a76e ca3b
00000050: 2d6d c03e 10e5 acbe 802b 81be b805 9dbe
00000060: da4f 94be e192 e5b2 186a f39e 55a4 0fbf
00000070: 00bd c636 8828 50be 3b28 90be 81b2 c2be
00000080: c7db 15be 244c 68be 1428 013d f674 73be
00000090: 36b7 4f3e a237 cfbe b5bd 8c3d 5a97 8a23
000000a0: 5598 b63e 2677 a13e d613 69b6 d3b6 7bbe
000000b0: 3229 22bf ad88 ddb5 94ce 9a3e 0476 513e
000000c0: 4e68 23bf 919c 66be 8f19 c33d 7a80 c4bb
000000d0: 717d c1be 718c 453e e465 d13e 0877 143e
000000e0: 018c b23e fb41 7b20 b7a3 571f a608 893e
000000f0: f16e cc33 9dcc 013f db68 203e 2716 a73e

6.bias f4 [2]
0.15538132 0.07675153
00000000: 481c 1f3e e82f 9d3d

exp_avg f4 [32, 2]
-0.0022496616 -0.004947926 0.0004193832 -0.0006483179 0.003937335 0.0023017542 0.0036059602 -0.003592167
-0.00970618 -0.003373903 -0.0059643276 -0.00082156365 -0.0016184062 0.000113880655 -0.0022394476 -2.6725033e-05
0.0014718462 0.0022157596 -9.055158e-07 1.2402528e-09 -8.308787e-07 5.201626e-22 -0.0040894346 -0.011021429
0.009577613 -0.0020668919 0.00054634403 -0.0009982048 -0.0019721356 -0.00046316884 0.00027003424 -0.00093962555
-0.010603968 -0.0029738783 -0.0024038698 -0.01650089 -0.0032221987 0.0018006859 -0.0021947755 -0.002166168
0.00091906625 0.0073751896 0.000416253 -0.012086141 -0.0024201106 0.00069707667 -0.009313358 -0.0013355495
-0.0043943566 -0.0033437344 0.0005829409 0.00068556255 0.0020470878 0.00018823644 -0.011264315 -0.008316919
0.00086143974 0.004721723 0.0033373896 -0.0019068994 0.012805188 0.0075190053 -0.007781546 -0.004491707
00000000: 0f6f 13bb 3622 a2bb a9e0 db39 e1f3 29ba
00000010: c304 813b 07d9 163b f951 6c3b 906a 6bbb
00000020: ab06 1fbc b31c 5dbb 6870 c3bb 345e 57ba
00000030: b320 d4ba 36d3 ee38 b2c3 12bb 922f e0b7
00000040: f7ea c03a 4736 113b 9212 73b5 8475 aa30
00000050: 8d09 5fb5 a235 1d1c aa00 86bb 3993 34bc
00000060: 6ceb 1c3c b174 07bb 8738 0f3a 32d6 82ba
00000070: f23e 01bb 78d5 f2b9 6293 8d39 3451 76ba
00000080: 44bc 2dbc 66e5 42bb 3e8a 1dbb e02c 87bc
00000090: 862b 53bb fe04 ec3a 39d6 0fbb 45f6 0dbb
000000a0: 7eed 703a 93ab f13b 883c da39 f304 46bc
000000b0: b89a 1ebb 06bc 363a 0e97 18bc 9b0d afba
000000c0: 89fe 8fbb 8e22 5bbb 80d0 183a 53b7 333a
000000d0: 6f28 063b 5661 4539 f68d 38bc b043 08bc
000000e0: 3ed2 613a afb8 9a3b 1bb8 5a3b edf0 f9ba
000000f0: dacc 513c fd61 f63b 57fc febb 2b2f 93bb

exp_avg_sq f4 [32, 2]
0.00011911572 0.00018092907 8.275884e-05 2.1589512e-05 0.0005220687 0.0004752558 0.00051376695 0.0002886515
0.0012635059 0.0008091461 0.00050127466 0.00059120654 0.00019053351 6.1364815e-05 2.9350993e-05 6.7905596e-05
0.00038925925 0.00028859975 7.530113e-11 1.11400255e-11 7.218403e-11 1.005253e-12 0.001181605 0.0019754572
0.0016621738 0.0021725248 0.00012732626 7.905683e-05 0.00013885563 8.583025e-05 8.598784e-05 2.9122268e-05
0.0010231182 0.0005431031 0.0009841323 0.0026000876 0.00012615252 4.2051135e-05 0.0016215752 0.002710916
0.00068385457 0.0007625801 0.00043705065 0.0006962702 0.00029917646 0.00014074918 0.0045017367 0.00093048374
0.0013175085 0.0010848198 0.0001760268 0.00021759105 7.851231e-05 3.0350762e-05 0.0005902646 0.0015629751
0.00066176755 0.0004855426 7.45584e-05 2.5332298e-05 0.0018090808 0.0072974814 0.0036353627 0.0013661518
00000000: c4cd f938 c7b7 3d39 d08e ad38 201b b537
00000010: 70db 083a c12b f939 51ae 063a 2656 9739
00000020: 399c a53a e01c 543a f967 033a 33fb 1a3a
00000030: f3c9 4739 fcb0 8038 c736 f637 8a68 8e38
00000040: 7e15 cc39 344f 9739 c596 a52e 37fa 432d
00000050: ffbb 9e2e 0e7a 8d2b 16e0 9a3a ac76 013b
00000060: 4cdd d93a eb60 0e3b e282 0539 50cb a538
00000070: c699 1139 c4ff b338 5f54 b438 984b f437
00000080: 261a 863a 085f 0e3a 00fe 803a 3b66 2a3b
00000090: cf47 0439 1060 3038 098b d43a a0a9 313b
000000a0: b444 333a e2e7 473a f223 e539 e785 363a
000000b0: c9da 9c39 1296 1339 4e83 933b b5eb 733a
000000c0: 40b0 ac3a 8330 8e3a d693 3839 2729 6439
000000d0: faa6 a438 c499 fe37 fdbb 1a3a bedc cc3a
000000e0: 787a 2d3a 6d90 fe39 3c5c 9c38 b280 d437
000000f0: ae1e ed3a b61f ef3b 443f 6e3b 7310 b33a

exp_avg f4 [32]
-0.003474918 1.2820442e-05 -0.0023349156 -0.00407258 -0.004640665 -0.0011661858 -0.0010183059 -0.0051970207
0.0031940446 -1.1968002e-05 -2.0257818e-05 -0.0091159735 -0.0001567238 0.002267597 0.0002691107 0.0013325843
-0.0048746313 -0.0151045965 -0.0016851936 0.0014284868 0.004196245 -0.010806915 0.0013026234 -0.005685402
5.2601845e-05 0.0011706168 -0.0026164055 -0.009333813 0.0031913405 -0.0059353663 -0.001625675 -0.0029102864
00000000: 73bb 63bb 6117 5737 6205 19bb 4773 85bb
00000010: b810 98bb b4da 98ba ad78 85ba c54b aabb
00000020: 2d53 513b 2dca 48b7 55ef a9b7 2a5b 15bc
00000030: 3a56 24b9 f79b 143b 6d17 8d39 1caa ae3a
00000040: 5fbb 9fbb 4579 77bc b7e1 dcba 103c bb3a
00000050: a880 893b 7d0f 31bc cabc aa3a 9c4c babb
00000060: cda0 5c38 626f 993a 0078 2bbb d9ec 18bc
00000070: cf25 513b 767d c2bb 9a14 d5ba 81ba 3ebb

exp_avg_sq f4 [32]
0.00027610376 8.299871e-05 0.0009904465 0.00059435074 0.0017999335 0.0012252722 0.00018716237 9.634967e-05
0.000643269 4.7469456e-10 8.4359825e-10 0.002558643 0.0042638993 0.0002636195 0.00019297669 0.00015251905
0.0017251491 0.003025669 0.00020753162 0.0039730496 0.001303104 0.00096025673 0.00040238295 0.00423359
0.002103753 0.00043117217 0.0001096074 0.002127053 0.0010828264 8.693464e-05 0.008996415 0.0040711095
00000000: 05c2 9039 980f ae38 dfd1 813a 34ce 1b3a
00000010: bfeb eb3a 5099 a03a 0441 4439 560f ca38
00000020: 0da1 283a a97b 0230 f3e2 6730 e8ae 273b
00000030: 2eb8 8b3b 6936 8a39 c959 4a39 85ed 1f39
00000040: 661e e23a 4d4a 463b d89c 5939 5b30 823b
00000050: eacc aa3a bdb9 7b3a edf6 d239 edb9 8a3b
00000060: 1edf 093b f30e e239 06dd e538 0766 0b3b
00000070: a0ed 8d3a ae50 b638 b365 133c f166 853b

exp_avg f4 [32, 32]
0.0033793685 -0.0016571457 -0.0009781772 0.0013541642 -0.0013785852 0.0005599517 0.004396971 0.006382761
0.004285806 -6.020612e-15 -2.2612117e-11 0.00043772254 0.003404184 0.002630856 0.0063647004 0.008411883
0.0004110599 0.00015249054 -0.0017902552 -6.8899964e-05 0.0035810806 0.002996864 0.004711011 0.00032985632
-0.00027237076 0.002721846 -0.0054321033 0.0010665687 0.0024829556 0.007391777 0.00094696204 1.1904526e-05
0.004846351 0.0017582041 -0.00017970504 -0.0017114849 0.0012610835 0.001781697 -0.0024739257 -0.0025361392
-0.0018818264 -7.8237566e-10 -8.141899e-24 7.3317906e-06 0.0006219648 -0.003472927 -0.0059978096 -0.008307511
0.0020764167 0.00065706606 0.004198953 -3.6306752e-05 -0.0035323305 0.0016348629 -0.004525547 1.7502656e-05
-7.099603e-05 -0.0016090024 0.004161178 0.0010590393 -0.0012664329 -0.007126404 -9.405015e-05 -2.404631e-05
-0.00066308584 -0.00024071914 -0.00013570781 0.00011663097 0.00014105398 -0.00012196999 -0.00030022144 -0.00015203709
-0.00040542195 9.682578e-22 7.8481346e-22 -3.2394797e-05 -0.00031684517 -4.9137052e-05 -6.189069e-05 0.00011471214
-0.000114499875 -0.0001383924 -0.00038734605 -1.0045412e-05 -2.7575245e-05 -0.0003602923 4.5109246e-05 7.600403e-05
1.9928213e-05 0.0003868576 -0.000111912595 -0.00018115898 -0.0002207967 8.235036e-05 -1.3105433e-08 1.4980568e-05
-0.011717257 -0.0041176686 -0.006687652 0.00047943485 0.00070060854 -0.0024215041 -0.0077970726 -0.0045955875
-0.00960592 -2.2588805e-23 1.851084e-11 -0.0014661737 -0.0010572496 -0.00069253077 0.0007186754 -0.0019593348
-0.0018872558 -0.0015197056 -0.00939191 -3.0983892e-22 -0.0024384682 -0.007735044 -0.00142297 0.0003741766
4.1129693e-05 -0.0011596063 -0.0031777525 -0.0037148008 -0.005895518 -0.0012929938 -4.7576785e-23 0.00010677668
0.002575174 0.0011605349 0.00019695834 -0.0007592037 0.0008644548 0.0010370909 -0.00074313674 -0.00077177904
-0.0002764178 1.8140047e-11 -1.937228e-21 -8.773983e-07 5.3313743e-05 -0.001796527 -0.0031912788 -0.0039858753
0.0010923505 0.00036895764 0.0026588512 3.897033e-05 -0.001625664 0.0007821389 -0.0021561785 1.8267496e-05
0.00014046437 -0.0012169164 0.0028406642 0.0005531712 -0.00027745537 -0.0034254189 4.1626612e-05 4.7201943e-06
-0.0046132593 -0.0027003256 -0.0035703334 -0.00023791262 0.00027902628 -0.0009767072 -0.0034784318 -0.0018889388
-0.004370905 2.522555e-10 -8.0556706e-25 -0.0011603325 1.0054785e-05 -2.7150743e-05 0.0002860235 -0.0008840774
-0.0007444144 -0.0010671392 -0.0048358454 -4.16644e-06 -0.0009695413 -0.002998795 -0.00061126705 0.00012465322
1.2649489e-05 -0.00037384292 -0.0024494778 -0.0014630449 -0.0027257537 -0.0005933757 -1.0949985e-07 4.839249e-05
0.0008159471 0.00031965884 -0.0013585304 -0.0003613411 0.00023471078 0.00010698123 -0.0011878642 -0.0007529709
-0.0011495451 6.3256704e-26 -1.4159594e-23 3.5592133e-05 -7.342532e-06 -0.0009189231 -0.000787182 -0.0022785636
0.00013614743 0.00028501678 -0.00022965697 3.0594394e-05 -0.0011925623 0.00051021186 -0.0012238474 -0.0002133876
2.4375218e-05 -0.0014143164 -4.2714906e-05 0.00026221076 -0.0008256105 -0.0018483396 -0.00027906665 -4.8018414e-05
-0.0036387884 -0.0013498499 -0.004567273 0.00068301015 0.00014919866 -0.00047014287 -0.003488271 -0.0005804065
-0.0043788087 -4.505002e-24 2.9507242e-15 1.8853221e-05 -0.00050442235 -0.00028345067 0.0018148394 -0.0003856029
-0.00044471098 -0.0002987527 -0.0049414155 -1.2059387e-10 -0.001208084 -0.0012899478 -0.0003431648 8.798857e-05
8.086776e-06 -0.00021060581 -0.0032829812 -0.0005919181 -0.0028001976 -6.283845e-05 -1.6145113e-06 2.0934489e-05
00000000: 6578 5d3b 9534 d9ba 2e36 80ba 367e b13a
00000010: a5b1 b4ba b9c9 123a 7714 903b 7b26 d13b
00000020: f26f 8c3b 58ea d8a7 f6e5 c6ad 207e e539
00000030: bb18 5f3b 706a 2c3b fa8e d03b ffd1 093c
00000040: 8783 d739 dee5 1f39 ffa6 eaba 637e 90b8
00000050: 90b0 6a3b 0967 443b d35e 9a3b 91f0 ac39
00000060: fccc 8eb9 0061 323b c9ff b1bb 1bcc 8b3a
00000070: 15b9 223b b836 f23b 8c3d 783a 8db9 4737
00000080: 24ce 9e3b 8a73 e63a 346f 3cb9 e753 e0ba
00000090: f14a a53a d587 e93a 9621 22bb 5b35 26bb
000000a0: 9ea7 f6ba cb0e 57b0 bb7c 1d99 9a03 f636
000000b0: 5a0b 233a 0c9a 63bb 4689 c4bb 3a1c 08bc
000000c0: 7e14 083b f53e 2c3a 5f97 893b 1448 18b8
000000d0: ac7e 67bb e548 d63a 0a4b 94bb abd2 9237
000000e0: b4e3 94b8 29e5 d2ba 7e5a 883b 76cf 8a3a
000000f0: 70fe a5ba 9c84 e9bb ca3c c5b8 0fb7 c9b7
00000100: f0d2 2dba 8d69 7cb9 ca4c 0eb9 c697 f438
00000110: e4e7 1339 24ca ffb8 0a67 9db9 256c 1fb9
00000120: d08e d4b9 a951 921c 0032 6d1c a6df 07b8
00000130: 3d1e a6b9 8218 4eb8 50cb 81b8 9c91 f038
00000140: a71f f0b8 6d1d 11b9 b514 cbb9 b788 28b7
00000150: 6351 e7b7 9de5 bcb9 af33 3d38 5a64 9f38
00000160: 832b a737 26d3 ca39 9eb2 eab8 7ef5 3db9
00000170: aa85 67b9 83b3 ac38 4e26 61b2 0d55 7b37
00000180: bdf9 3fbc 82ed 86bb 1724 dbbb a85c fb39
00000190: 0ba9 373a 19b2 1ebb 967e ffbb 9596 96bb
000001a0: 2662 1dbc 2c77 da99 b5d2 a22d a02c c0ba
000001b0: 6993 8aba f48a 35ba 7d65 3c3a 2f68 00bb
000001c0: cc5d f7ba dc30 c7ba 87e0 19bc 4049 bb9b
000001d0: b5ce 1fbb 4176 fdbb f382 baba 222d c439
000001e0: ac82 2c38 eefd 97ba d741 50bb 0474 73bb
000001f0: 312f c1bb ac79 a9ba 3511 669a 4bed df38
00000200: 40c4 283b 171d 983a 9a86 4e39 4c05 47ba
00000210: 949c 623a ffee 873a 10cf 42ba 3751 4aba
00000220: 2bec 90b9 c18f 9f2d 705f 129d 5a86 6bb5
00000230: 329d 5f38 7179 ebba c624 51bb f29b 82bb
00000240: 332d 8f3a a870 c139 1f40 2e3b 1374 2338
00000250: 3b14 d5ba 7408 4d3a ac4e 0dbb 263d 9937
00000260: 9e49 1339 f080 9fba 702a 3a3b b102 113a
00000270: 6e77 91b9 fe7c 60bb 3c98 2e38 2962 9e36
00000280: d32a 97bb f2f7 30bb 41fc 69bb 2f78 79b9
00000290: 464a 9239 db04 80ba 67f6 63bb 4596 f7ba
000002a0: cf39 8fbb cead 8a2f 994f 7997 4c16 98ba
000002b0: f9b0 2837 c7c1 e3b7 6df5 9539 6ec1 67ba
000002c0: ce24 43ba 40df 8bba 0376 9ebb 72cd 8bb6
000002d0: d128 7eba 6e87 44bb 703d 20ba 58b5 0239
000002e0: 2439 5437 5900 c4b9 6b87 20bb a4c3 bfba
000002f0: 8fa2 32bb c58c 1bba 2e26 ebb3 0af9 4a38
00000300: 48e5 553a e297 a739 b710 b2ba 6272 bdb9
00000310: b21c 7639 1c5b e038 1cb2 9bba 0663 45ba
00000320: 55ac 96ba b39d 9c15 75f1 8899 c348 1538
00000330: df5f f6b6 e3e3 70ba e45a 4eba f453 15bb
00000340: ccc2 0e39 4e6e 9539 13d0 70b9 7b52 0038
00000350: c04f 9cba bdbf 053a 8169 a0ba ccc0 5fb9
00000360: 6279 cc37 9560 b9ba c828 33b8 5579 8939
00000370: c86d 58ba fc43 f2ba b14f 92b9 6167 49b8
00000380: bd78 6ebb 72ed b0ba 10a9 95bb 090c 333a
00000390: 3672 1c39 827d f6b9 7a9b 64bb 6c26 18ba
000003a0: 1c7c 8fbb 6147 ae98 419f 5427 fc26 9e37
000003b0: 363b 04ba 1b9c 94b9 e8df ed3a bf2a cab9
000003c0: 1928 e9b9 e9a1 9cb9 99eb a1bb 2898 04af
000003d0: 9358 9eba 7713 a9ba cdea b3b9 8186 b838
000003e0: 70ac 0737 11d6 5cb9 4927 57bb f42a 1bba
000003f0: 8583 37bb 23c8 83b8 30b2 d8b5 799c af37

exp_avg_sq f4 [32, 32]
0.00036701863 5.59972e-05 0.0011515496 6.1004234e-06 9.0147034e-05 2.630059e-05 0.0019252407 0.00048021568
0.0021557955 3.2105718e-12 6.2872945e-12 9.694912e-07 0.00011644445 0.0009967291 0.0013597375 0.003691339
5.0966722e-05 4.1182336e-08 0.00032132506 3.929687e-06 0.0011117395 1.716431e-05 0.0012184808 7.204651e-06
2.8553857e-05 0.0011754762 0.00031812888 2.4497958e-06 0.0008697571 0.0026906421 1.1562356e-05 4.344771e-06
0.00038488136 0.00018529796 0.00084027456 2.5643189e-05 3.3604272e-06 9.871616e-06 0.0007837213 0.0001576078
0.0010094614 1.0296407e-11 2.2016824e-13 1.3496857e-05 2.1828868e-05 0.00019450263 0.00018313141 0.00079183624
9.9745275e-06 5.7624507e-06 0.0005564416 2.0546455e-08 0.00028656278 7.61323e-05 0.00026661844 2.8592677e-08
4.7507058e-07 0.00039372215 0.0005012694 9.338499e-06 0.00040801545 0.0005621593 1.676852e-07 1.30676305e-08
3.1999167e-05 1.3542876e-05 5.2970347e-05 1.8799805e-06 3.497955e-07 1.6738173e-06 4.409756e-05 9.713913e-06
5.9921455e-05 1.6730829e-12 1.2709033e-12 9.4833587e-07 2.5335858e-06 6.292285e-06 1.7607875e-06 2.628815e-05
1.5334639e-06 4.368074e-07 4.176577e-05 1.8391554e-09 1.0468758e-05 5.935666e-06 9.681716e-06 1.136304e-07
3.8815863e-08 2.8113516e-05 3.9914124e-05 8.3848505e-07 2.2689794e-05 1.8719267e-05 2.4633783e-11 2.042332e-08
0.0012768345 0.0007816674 0.0018445507 7.225859e-05 2.4714989e-06 4.193915e-05 0.0012641286 0.00022422332
0.0018809682 4.803089e-13 6.144144e-12 6.485838e-05 4.5684715e-06 2.1497892e-05 3.4639268e-06 0.00034878068
2.7637407e-05 2.9755916e-05 0.0020145138 9.571957e-13 0.00019647757 0.00035814187 0.00012970575 1.4253774e-06
1.4209373e-08 0.00023762582 0.0014678525 4.8598547e-05 0.0007444684 0.0002281702 9.131879e-13 4.1422854e-08
0.00012758684 6.208292e-05 0.00025919115 8.405756e-06 3.1203156e-06 4.22319e-06 0.00025114475 5.490309e-05
0.00032534372 6.1300036e-12 1.4134156e-12 4.4911335e-06 7.615267e-06 5.575611e-05 5.441097e-05 0.0002482927
5.171729e-06 1.9199454e-06 0.00018289908 1.3453827e-08 8.814123e-05 2.5568866e-05 8.339803e-05 2.849193e-07
4.7158312e-07 0.000116029354 0.00016296304 3.2263385e-06 0.0001304571 0.0001768127 1.5890143e-08 8.572948e-08
0.00014530099 7.42736e-05 0.00017277467 3.6787492e-06 3.5439433e-07 4.493811e-06 0.00014478632 2.6255442e-05
0.00021301604 8.62266e-12 2.6375149e-14 5.661184e-06 7.821479e-09 5.1224794e-07 6.7237863e-07 4.2423984e-05
3.0448414e-06 2.984219e-06 0.00020989757 1.2603989e-09 2.231383e-05 4.0670224e-05 1.5815816e-05 1.4694179e-07
2.1661208e-08 6.621264e-06 0.000119546465 5.2894334e-06 8.298961e-05 2.7957625e-05 3.44362e-11 1.3860517e-08
0.00010396745 3.163297e-05 0.0001987601 4.428121e-06 1.3485581e-05 6.376766e-06 0.00031767465 8.096619e-05
0.0003711065 5.0073767e-15 3.503958e-13 2.34496e-06 1.7906528e-05 0.00013643742 0.00018888191 0.00053421565
9.976964e-06 1.0600232e-06 0.000105931744 5.4788535e-07 0.00015992312 1.430611e-05 0.00017852687 1.3355902e-06
4.084591e-06 0.00017157098 8.7861146e-05 2.0302327e-06 0.00014593091 0.00039209882 1.5719661e-06 7.3701074e-07
8.991894e-05 6.210877e-05 0.00022719063 8.867464e-06 1.2674263e-07 2.5501395e-06 0.00011706582 1.800639e-05
0.00016195631 1.4119725e-13 3.092682e-12 4.6369855e-06 1.0921641e-05 4.867341e-05 2.5895966e-05 8.16671e-05
1.6566919e-06 2.1408184e-06 0.00015783474 2.7443057e-12 4.013634e-05 2.3695819e-05 2.7979358e-05 7.023115e-08
8.3334206e-10 0.00014226575 0.00017154992 3.1164711e-06 6.8100926e-05 5.4097327e-05 5.190357e-10 1.9935176e-09
00000000: 686c c039 89de 6a38 98ef 963a 3db2 cc36
00000010: 520d bd38 16a0 dc37 5c58 fc3a 75c5 fb39
00000020: 3f48 0d3b 85ec 612c ea36 dd2c 771f 8235
00000030: a333 f438 aea4 823a 3839 b23a 64ea 713b
00000040: 1ac5 5538 75e0 3033 8577 a839 c1db 8336
00000050: cab7 913a 13fc 8f37 6eb5 9f3a 7bbf f136
00000060: f186 ef37 7012 9a3a 89ca a639 2c67 2436
00000070: 6900 643a 7c55 303b f1fb 4137 4cc9 9136
00000080: e7c9 c939 8b4c 4239 df45 5c3a 541c d737
00000090: b383 6136 459e 2537 a572 4d3a 8643 2539
000000a0: e74f 843a e522 352d 2de3 772a 8f70 6237
000000b0: 231d b737 67f3 4b39 f706 4039 3b93 4f3a
000000c0: 4558 2737 135b c136 2ade 113a 227e b032
000000d0: ce3d 9639 38a9 9f38 ecc8 8b39 f69b f532
000000e0: 340d ff34 7e6c ce39 9f67 033a 8cac 1c37
000000f0: e8ea d539 df5d 133a f50c 3434 0c80 6032
00000100: d836 0638 3636 6337 7a2c 5e38 a353 fc35
00000110: 87cb bb34 eda7 e035 65f5 3838 f0f8 2237
00000120: 2c54 7b38 2a77 eb2b 1edd b22b 2591 7e35
00000130: ac06 2a36 5122 d336 3354 ec35 5f85 dc37
00000140: 6bd1 cd35 5a82 ea34 a72d 2f38 87c5 fc30
00000150: f9a2 2f37 fc2a c736 a76e 2237 f904 f433
00000160: 7eb6 2633 51d5 eb37 7769 2738 4114 6135
00000170: f655 be37 5207 9d37 59ae d82d 5b6f af32
00000180: 755b a73a d0e8 4c3a dac4 f13a 8989 9738
00000190: 07dc 2536 d2e7 2f38 1eb1 a53a 7d1d 6b39
000001a0: d28a f63a e731 072b 872d d82c 9404 8838
000001b0: df4a 9936 5f56 b437 cf75 6836 8ddc b639
000001c0: e1d6 e737 589c f937 ef05 043b 9cb6 862b
000001d0: 8c05 4e39 fdc4 bb39 9f01 0839 984f bf35
000001e0: 7c1d 7432 322b 7939 f564 c03a 4bd6 4b38
000001f0: 6e28 433a f940 6f39 1085 802b e9e8 3133
00000200: d5c8 0539 8432 8238 0ce4 8739 7206 0d37
00000210: 9d66 5136 edb4 8d36 14ac 8339 be47 6638
00000220: e592 aa39 2aae d72c aaeb c62b 8bb2 9636
00000230: a586 ff36 abdb 6938 5637 6438 482d 8239
00000240: d088 ad36 69d8 0036 99c8 3f39 8f22 6732
00000250: 76d8 b838 b97c d637 fae5 ae38 03f7 9834
00000260: e42d fd34 c954 f338 0fe1 2a39 1384 5836
00000270: 50cb 0839 cc66 3939 cb7e 8832 481a b833
00000280: f05b 1839 56c3 9b38 d92a 3539 6ee0 7636
00000290: 9643 be34 8bc9 9636 c8d1 1739 223f dc37
000002a0: 0f5d 5f39 02b1 172d f490 ed28 33f5 bd36
000002b0: 3a5f 0632 6981 0935 827d 3435 68f0 3138
000002c0: fa55 4c36 7e44 4836 f317 5c39 583a ad30
000002d0: 962e bb37 5295 2a38 35ac 8437 0dc7 1d34
000002e0: 8011 ba32 3a2c de36 05b5 fa38 e37b b136
000002f0: b50a ae38 8b86 ea37 b773 172e 331f 6e32
00000300: 1a09 da38 a5ad 0438 426a 5039 4595 9436
00000310: 2140 6237 01f8 d536 928d a639 64cc a938
00000320: 1291 c239 e668 b427 5b41 c52a 1b5e 1d36
00000330: fa35 9637 a410 0f39 9a0e 4639 9b0a 0c3a
00000340: bc62 2737 1f46 8e35 ac27 de38 6512 1335
00000350: 09b1 2739 4604 7037 f132 3b39 8842 b335
00000360: 5f0e 8936 bce7 3339 1842 b838 223f 0836
00000370: 0805 1939 9d92 cd39 58fc d235 fed6 4535
00000380: dd92 bc38 6440 8238 053a 6e39 78c5 1437
00000390: c016 0834 1023 2b36 3c81 f538 6e0c 9737
000003a0: d1d2 2939 56f9 1e2a cea0 592c 6797 9b36
000003b0: 173c 3737 ad26 4c38 2a3b d937 b144 ab38
000003c0: 805b de35 fbaa 0f36 7180 2539 041d 412c
000003d0: 1158 2838 62c6 c637 37b5 ea37 fcd1 9633
000003e0: 3c11 6530 2c2d 1539 15e2 3339 9124 5136
000003f0: 68d1 8e38 90e6 6238 e4ab 0e30 55fe 0831

exp_avg f4 [32]
0.0022850472 -0.0033738979 -0.00014377576 -0.008083277 -0.0012809215 -0.0040412894 -0.0022610107 -0.005135869
0.0011862097 0.0010395708 -4.1513848e-10 -0.0007283307 -0.0022730385 -0.0007662115 0.00028782513 -9.16828e-06
-0.00026466776 0.0005101732 -1.326952e-05 0.0008064763 -0.0009437147 -3.1467841e-06 0.001426954 -1.4307257e-06
-0.00091128814 0.0004664941 -0.0037431736 -1.7637608e-07 0.0006251977 -0.0035034798 -0.006051538 -0.00068074925
00000000: bbc0 153b 9d1c 5dbb 83c2 16b9 b96f 04bc
00000010: 98e4 a7ba cb6c 84bb 772d 14bb cb4a a8bb
00000020: 987a 9b3a 3542 883a 8c39 e4af 72ed 3eba
00000030: 42f7 14bb 95db 48ba 3ce7 9639 76d1 19b7
00000040: 1bc3 8ab9 25bd 053a 28a0 5eb7 b569 533a
00000050: 9f63 77ba 572d 53b6 a208 bb3a 5c07 c0b5
00000060: 83e3 6eba c793 f439 0850 75bb e361 3db4
00000070: 4fe4 233a a39a 65bb fb4b c6bb 4f74 32ba

exp_avg_sq f4 [32]
0.0034051924 0.0015610618 8.448586e-05 0.0024829654 0.0004764279 0.00024416673 0.00052534096 0.00035016428
1.7625765e-05 0.00086376857 9.298235e-12 0.000207339 0.00034907882 0.007875404 8.237517e-05 2.9032074e-07
3.8913873e-05 0.000502994 8.97139e-08 0.0009053637 0.00027400858 2.2624093e-08 0.00025031707 1.1832787e-09
0.00026458254 0.00039232956 0.001564224 4.3886294e-11 0.00012378722 0.00015714351 0.00038173152 6.387018e-05
00000000: a629 5f3b 8b9c cc3a 002e b138 3fb9 223b
00000010: 12c9 f939 8103 8039 09b7 093a 4196 b739
00000020: 0bdb 9337 876e 623a 8793 232d 2469 5939
00000030: 9104 b739 d707 013c d5c0 ac38 61dd 9b34
00000040: 7437 2338 5bdb 033a bda8 c033 ee55 6d3a
00000050: cfa8 8f39 e856 c232 fd3c 8339 eba0 a230
00000060: abb7 8a39 95b1 cd39 a606 cd3a 9303 412e
00000070: e1cc 0139 e4c6 2439 2323 c839 0bf2 8538

exp_avg f4 [32, 32]
-0.0007066028 -0.00051867845 -0.0001269401 -0.00048219593 -0.0010099878 -0.00047321361 -0.00048054708 -0.0005999865
-2.4640234e-05 -0.0002558733 1.5772947e-12 3.5326942e-05 0.0002912041 0.00013997308 -0.00013423998 -4.0581097e-07
-0.0005701449 -0.0007683153 5.5874364e-07 -0.00037292714 -0.00022654711 1.6096465e-06 -0.00043726034 5.0198425e-13
-0.0005691074 -0.00012702026 -0.000218088 -1.4183861e-25 0.00011759812 -0.00075481593 0.00027684038 -0.00074050284
-7.813604e-05 -3.0275956e-05 -0.00011777128 -0.0004894033 -0.00038994657 -0.00047679935 -0.00014897005 -0.0005704657
-1.2234848e-05 0.00012193332 -1.2944527e-12 0.00013192499 0.0005330189 0.00028960383 0.0002623108 -2.282622e-06
-0.0005664804 -0.00015891864 -2.178698e-07 8.8723405e-05 0.00060128217 -9.3285473e-07 -0.0005533081 -3.3008875e-20
0.00013823502 0.0003888836 -0.00021675961 -1.6627876e-13 0.00023631222 -0.0007590294 0.00080127455 0.00029222117
4.3949824e-13 -8.646714e-08 4.089433e-06 -1.7244176e-08 -8.9688723e-10 7.777137e-07 1.563257e-06 -3.6908445e-09
2.9852738e-06 -8.048709e-08 3.2928767e-11 3.180559e-06 6.2955823e-09 -1.6679817e-10 2.0665184e-06 -1.6644093e-24
9.1679243e-07 1.939693e-06 2.7946537e-06 -1.6054106e-06 -1.451977e-24 3.543622e-07 2.5229031e-08 5.2949893e-12
-5.6166987e-06 -8.823051e-07 -1.3532527e-24 6.5613585e-25 1.9550541e-06 3.5981323e-08 -1.7898898e-10 -6.0372446e-07
-8.917535e-05 -1.9551242e-05 -0.00012794744 -0.00055019587 -0.00042109945 -0.0005301374 -0.0001575355 -0.00061204634
-3.078734e-05 0.00015413965 4.6796676e-24 0.00014491717 0.00058789254 0.00034143555 0.00027285772 -1.1608039e-05
-0.0005815027 -0.0001519931 -5.3448043e-06 8.606355e-05 0.00064852135 -1.0227482e-05 -0.0006022827 1.2603372e-11
0.00013099186 0.00041036148 -0.0002701891 1.3266731e-14 0.00025813602 -0.0008204013 0.0008736988 0.00030220288
-0.00083084137 -0.00036313318 0.00017644129 6.043744e-06 -0.00034388178 1.4715698e-05 -0.00027375115 2.1075259e-05
0.00013764373 -0.00042639297 3.2051747e-10 -0.00012701 -0.00036892176 -0.0002958363 -0.0004466743 1.277131e-05
0.00028896538 -0.00051746937 4.2471248e-07 -0.0003824257 -0.0010071731 4.089407e-25 0.00012646579 1.4077067e-24
-0.00073526305 -0.0005939091 0.000111533205 -1.7373611e-14 -0.0002396431 0.00025772146 -0.00080027117 -0.0011444534
-0.0002705258 -0.00066095055 -0.0004129416 -0.0011190744 -0.0016007788 -0.0010718678 -0.000492513 -0.0014990534
-0.00040256622 0.00013516353 3.5378402e-25 0.00032451225 0.0011492547 0.00067308865 0.00042692354 1.1939186e-05
-0.001613112 -0.00070496474 -5.399682e-06 -0.00014693102 0.001123886 -1.8649697e-09 -0.0012500623 6.229325e-10
-9.357578e-05 0.00070725085 -0.0005406038 -5.1544263e-23 0.00048519994 -0.0020181034 0.0017371351 0.00038378898
-0.0008655004 -0.00070744916 4.772594e-05 1.1146755e-05 -0.0007589036 2.08365e-06 -0.00038080345 2.0757665e-05
3.060488e-05 -0.0005985014 2.571099e-14 -0.00014256229 -0.00048446364 -0.00029075943 -0.0007249985 -1.4669132e-06
7.0717135e-05 -0.0007925031 -5.5325553e-09 -0.00069213443 -0.0011750048 -5.327199e-11 7.053128e-05 -7.830781e-14
-0.0009806531 -0.00087382365 9.421491e-05 2.4368108e-10 -0.00027628365 0.00010137382 -0.0008471422 -0.001389328
6.002806e-10 -1.2749e-27 9.920227e-13 -1.0000239e-18 1.0522894e-13 -7.5583395e-10 9.870117e-12 -2.5668367e-11
8.987929e-11 5.4449774e-26 -6.833216e-11 9.854106e-25 9.315541e-25 -9.39031e-11 -3.17593e-23 5.187083e-25
1.7339797e-12 2.5628545e-24 1.6647568e-19 5.825718e-25 5.288993e-26 2.0912204e-24 -4.4077427e-16 -1.28891915e-11
1.30098775e-23 -2.1384598e-10 4.880739e-22 1.1681434e-25 -5.7572755e-16 4.1867186e-23 -1.1783209e-24 -4.6440947e-25
00000000: 503b 39ba ecf7 07ba 391b 05b9 3ecf fcb9
00000010: 9161 84ba a819 f8b9 f0f1 fbb9 6a48 1dba
00000020: 80b2 ceb7 bc26 86b9 08fc dd2b 042c 1438
00000030: c1ac 9839 bdc5 1239 c5c2 0cb9 3cde d9b4
00000040: c775 15ba c468 49ba 92fc 1535 6f85 c3b9
00000050: 478d 6db9 080b d835 1740 e5b9 c74b 0d2b
00000060: 2730 15ba be30 05b9 8dae 64b9 7396 2f96
00000070: 039f f638 d7de 45ba e324 9139 4e1e 42ba
00000080: f8dc a3b8 1ff9 fdb7 f9fb f6b8 4d4b 00ba
00000090: be71 ccb9 edfa f9b9 d834 1cb9 4e8b 15ba
000000a0: 4644 4db7 74b6 ff38 932d b6ab 5855 0a39
000000b0: 4bba 0b3a f8d5 9739 c286 8939 262f 19b6
000000c0: db7f 14ba 66a3 26b9 98ef 69b4 0411 ba38
000000d0: 5d9f 1d3a 4a69 7ab5 e10b 11ba 48e1 1b9f
000000e0: 2ef3 1039 13e3 cb39 f749 63b9 9736 3baa
000000f0: 94ca 7739 9af9 46ba a00c 523a 4335 9939
00000100: 5f6a f72a d0af b9b3 f637 8936 5820 94b2
00000110: d488 76b0 14c4 5035 1ad1 d135 06a2 7db1
00000120: 9d56 4836 3fd8 acb3 7fd2 102e 9671 5536
00000130: 8750 d831 8365 37af 84ae 0a36 06c7 0098
00000140: 7f19 7635 ac2b 0236 c98b 3b36 7d79 d7b5
00000150: bcae e097 2b3f be34 3ab7 d832 064d ba2c
00000160: 1377 bcb6 8bd7 6cb5 dd67 d197 7010 4b17
00000170: 9333 0336 e289 1a33 ebcc 44af a10f 22b5
00000180: a703 bbb8 f901 a4b7 a129 06b9 053b 10ba
00000190: 03c7 dcb9 ebf8 0aba 1d30 25b9 bc71 20ba
000001a0: a821 01b8 8ca0 2139 2f09 b518 e8f4 1739
000001b0: cd1c 1a3a b402 b339 580e 8f39 26c0 42b7
000001c0: fc6f 18ba 5660 1fb9 8557 b3b6 047d b438
000001d0: 8801 2a3a b396 2bb7 82e2 1dba 8bb8 5d2d
000001e0: dc5a 0939 c925 d739 2ba8 8db9 fffd 6e28
000001f0: 6e56 8739 3310 57ba ef08 653a fc70 9e39
00000200: d2cc 59ba e962 beb9 1903 3939 5ecb ca36
00000210: 084b b4b9 71e3 7637 4286 8fb9 c6ca b037
00000220: 7554 1039 7f8d dfb9 d334 b02f fd2d 05b9
00000230: d76b c1b9 7a1a 9bb9 9c2f eab9 5c44 5637
00000240: 4780 9739 c8a6 07ba 0a04 e434 4f80 c8b9
00000250: 1f03 84ba 3e1f fd16 e79b 0439 02d5 d917
00000260: abbe 40ba 91b0 1bba efe6 e938 d27c 9ca8
00000270: b448 7bb9 ca1e 8739 4ac9 51ba 7c01 96ba
00000280: 5cd5 8db9 a443 2dba 1580 d8b9 e8ad 92ba
00000290: 39d1 d1ba ea7d 8cba fd1b 01ba e37b c4ba
000002a0: 860f d3b9 afba 0d39 51fb da16 4c23 aa39
000002b0: 97a2 963a 3772 303a b5d4 df39 6a4e 4837
000002c0: 0f6f d3ba 62cd 38ba ea2e b5b6 7f11 1ab9
000002d0: 5b4f 933a e528 00b1 21d9 a3ba fa3a 2b30
000002e0: 1d3e c4b8 cd66 393a 4fb7 0dba b540 799a
000002f0: 6f62 fe39 2842 04bb 95b0 e33a 4937 c939
00000300: c0e2 62ba 1c74 39ba 562d 4838 f302 3b37
00000310: 29f1 46ba d6d4 0b36 93a6 c7b9 bf20 ae37
00000320: bd5d 0038 c0e4 1cba 8295 e728 c67c 15b9
00000330: 9cff fdb9 1271 98b9 d30d 3eba c1e2 c4b5
00000340: f94d 9438 fcbf 4fba df18 beb1 5b70 35ba
00000350: 9e02 9aba ee4a 6aae 31ea 9338 6155 b0a9
00000360: 4289 80ba 5011 65ba 3f95 c538 10f7 852f
00000370: 2ada 90b9 a898 d438 c012 5eba 1d1a b6ba
00000380: fe00 2530 1704 ca92 629d 8b2b d693 93a1
00000390: 5bf4 ec29 16c3 4fb0 0ea3 2d2d 06c8 e1ad
000003a0: 8ba5 c52e a5cf 8615 9643 96ae 237c 9817
000003b0: a926 9017 bf7e ceae 1c94 199a 4e88 2017
000003c0: 3409 f42b 904a 4618 308a 4420 184c 3417
000003d0: faf2 8215 e3cc 2118 cd16 fea5 c2bf 62ad
000003e0: cba5 7b19 4b20 6baf e482 131c f19b 1016
000003f0: 32f1 25a6 1175 4a1a 1a56 b697 4fba 0f97
