checkpoints/ablation_eps_0.05/ablation_eps_0.05_epoch0020.pt (torch, 38843 bytes, 24 tensors)

0.weight f4 [32, 2]
0.588391 0.5961469 -0.17070286 0.69961476 -0.13144852 0.22370614 -0.41411278 0.42694303
0.5836832 -0.4647718 0.5970097 0.24543098 0.4810755 0.015469547 0.3476789 -0.11495283
0.55765814 0.1556902 -0.18803072 0.054731563 -0.18396206 -0.001322802 -0.34233755 0.5314218
-0.62947917 -0.48270202 -0.1809832 -0.46353745 0.06403844 -0.7578055 0.5962305 -0.652352
0.54872566 0.070511274 -0.27677846 0.51339513 0.111275874 0.6429206 0.14534065 -0.29478088
0.14958498 -0.257371 0.2866588 0.63138 0.32861403 -0.36899567 0.48765978 -0.044686977
0.35673895 -0.41880268 -0.71131206 -0.32878938 -0.507349 0.64308786 0.19252223 0.28599697
0.24691725 0.050928526 0.49193898 -0.5837355 0.085147485 -0.585062 0.3068127 -0.29574814
00000000: cba0 163f 159d 183f bbcc 2ebe f419 333f
00000010: 719a 06be 3913 653e 9706 d4be 4798 da3e
00000020: 436c 153f 92f6 edbe a1d5 183f 4252 7b3e
00000030: 874f f63e fc73 7d3c f802 b23e 646c ebbd
00000040: afc2 0e3f 406d 1f3e 208b 40be 342e 603d
00000050: 8d60 3cbe df61 adba de46 afbe 420b 083f
00000060: 8c25 21bf b824 f7be a953 39be c854 edbe
00000070: 9626 833d 8bff 41bf 90a2 183f 8a00 27bf
00000080: 4979 0c3f 3768 903d e8b5 8dbe dd6d 033f
00000090: 9be4 e33d 7296 243f 2ed4 143e 85ed 96be
000000a0: ce2c 193e 22c6 83be f1c4 923e 1fa2 213f
000000b0: 1940 a83e 00ed bcbe 8bae f93e b109 37bd
000000c0: 7da6 b63e 4e6d d6be 8c18 36bf 1557 a8be
000000d0: a0e1 01bf 68a1 243f 8c24 453e 326e 923e
000000e0: e0d7 7c3e 6e9a 503d 6ddf fb3e b16f 15bf
000000f0: ce61 ae3d a0c6 15bf 8e16 9d3e 4d6c 97be

0.bias f4 [32]
0.21483989 -0.07542109 0.62095463 -0.39955106 -0.4937079 -0.40705276 0.6644025 0.21835238
0.6960381 -0.43375078 -0.54995954 -0.50569093 -0.3772813 0.32325256 0.2524656 0.5657768
-0.38528955 -0.43397525 0.41002232 -0.24234006 0.41008115 -0.20065941 0.39867103 -0.43729174
-0.38138118 0.22339267 0.17096193 -0.20533493 0.43065342 0.52135384 -0.44170478 -0.334844
00000000: fdfe 5b3e 5f76 9abd e2f6 1e3f f591 ccbe
00000010: 48c7 fcbe 3869 d0be 4816 2a3f c497 5f3e
00000020: 8e2f 323f 9514 debe 26ca 0cbf f674 01bf
00000030: 042b c1be 5c81 a53e 2c43 813e c0d6 103f
00000040: ac44 c5be 0132 debe 72ee d13e fe27 78be
00000050: 28f6 d13e a979 4dbe 9c1e cc3e b4e4 dfbe
00000060: 6544 c3be 0cc1 643e a510 2f3e 5243 52be
00000070: 9b7e dc3e 7277 053f 2127 e2be ac70 abbe

2.weight f4 [32, 32]
0.03627795 -0.0037270733 0.0130598 -0.048118062 -0.02215211 -0.029503059 0.008411496 -0.027470812
0.0077548902 -0.014546811 -0.03232932 -0.004719251 -0.0812719 -0.01015052 0.081161514 0.008464165
-0.02761629 -0.042976096 -0.052570652 -0.03391636 0.009952862 -0.054420255 0.00565414 -0.05071547
-0.019096473 0.0034259039 0.003578335 -0.015559147 -0.018544963 -0.007139905 -0.051810823 -0.06274507
0.15157005 -0.0021862986 0.19635333 0.05345492 -0.02818742 -0.040449794 -0.021625713 -0.08292102
-0.1184321 -0.0512214 1.6598467e-05 -0.08499734 -0.048928764 -0.16856399 0.023904221 -0.14355329
-0.16531476 -0.004666043 0.12426876 0.027474755 0.19471706 -0.15584828 0.020142822 -0.044824984
0.00016168285 -0.10425602 0.20317145 -0.22105359 0.12557836 0.035655785 -4.3912114e-05 -0.004173371
0.17908701 0.06894999 0.03516675 -0.061592273 0.009346742 -0.0046004285 -0.07462866 0.1496994
0.048720345 -0.004863988 -0.0025935231 0.09599649 0.015359268 -0.07834947 -0.16251269 -0.07224996
-0.124801256 0.14910394 0.17841788 -0.17829242 0.023270624 0.15927623 0.023088269 -0.15290706
0.0065633436 0.06787872 0.08857902 0.079551645 -0.04357196 0.006028409 -0.027755685 -0.16432284
0.15301085 0.17010625 -0.030145086 0.018195208 -0.009246244 0.15135418 0.046777014 0.12213803
-0.1496706 5.6421788e-05 0.031573165 0.16887474 0.12848802 -0.09979315 -0.019133551 -0.06454033
0.06506897 0.1506201 0.12156056 0.001123 -0.19720776 -0.027421933 0.030754507 0.044243094
-0.011028919 -0.061761543 0.06791288 0.07807729 -0.11242886 0.17270716 -0.0009500637 -0.011004173
-0.10532677 0.19681114 0.18837497 0.12565957 -0.0002932432 -0.095047906 -0.077089824 0.15029943
0.15426691 0.031498082 0.0033623583 0.05410862 -0.08580711 -0.17445773 -0.20003863 -0.15920264
0.041215993 -0.049964543 0.045484863 -0.006181352 -0.017264346 -0.0505964 -0.120732464 0.024142297
-0.0021789183 0.09139137 0.009362529 -0.10986611 0.03223912 -0.093311004 9.771448e-06 -0.04669437
0.14232975 -0.06570863 0.12680966 0.14492932 0.050628606 -0.08851021 0.15155779 -0.06443498
0.09208394 0.04382134 4.174856e-06 0.11831182 0.07845256 -0.10922985 0.04958641 -0.1668407
0.12789778 0.23900832 0.21670845 -0.082544 -0.13367382 0.13278146 0.10863319 -0.21885368
-0.12240448 -0.06781923 0.024009582 0.048594255 -0.046657607 -0.047840018 -0.09832576 0.004434959
0.118355885 -0.070722915 -0.038799584 -0.17029095 -0.08157237 -0.18953368 0.0577763 -0.08766459
-0.12443245 -2.7765436e-06 5.6996847e-05 -0.17282835 0.12933813 0.008334453 -0.0088119265 -0.059439458
-0.13808377 0.037019584 -0.108920835 0.18219633 -0.033267707 -0.051407803 0.18724717 0.18376075
-0.061348602 0.12249724 0.13839439 -0.04616519 0.11857297 0.20002417 0.13195309 0.17969242
-0.10127019 -0.004309862 0.14079031 0.18283366 -0.010251495 0.0028018365 -0.10071108 -0.09202946
-0.11177456 -1.1695602e-05 0.013804117 0.15748453 -0.19841623 -0.15105146 0.031060081 -0.04036868
2.038683e-06 0.20279273 -0.0514547 -4.636699e-06 -0.03180477 0.010313176 -0.013237993 -0.03766062
-0.02759535 -0.103219636 0.19148332 0.04631113 -0.10579574 0.12842245 2.271549e-05 0.004569166
00000000: 3098 143d ea41 74bb c5f8 553c 7217 45bd
00000010: 5778 b5bc 66b0 f1bc 5fd0 093c 780a e1bc
00000020: bc1c fe3b bf55 6ebc c06b 04bd f2a3 9abb
00000030: e271 a6bd 5e4e 26bc 0238 a63d 48ad 0a3c
00000040: 8f3b e2bc b407 30bd 5354 57bd e2eb 0abd
00000050: 5411 233c c6e7 5ebd 5d46 b93b 06bb 4fbd
00000060: 3570 9cbc 2185 603b 8082 6a3b cbeb 7ebc
00000070: 9beb 97bc ddf5 e9bb 9637 54bd 7d80 80bd
00000080: 2e35 1b3e 0148 0fbb d910 493e 8cf3 5a3d
00000090: 4ee9 e6bc afae 25bd 6828 b1bc 7fd2 a9bd
000000a0: 878c f2bd 88cd 51bd f03c 8b37 1613 aebd
000000b0: 8769 48bd 0a9c 2cbe c9d2 c33c a2ff 12be
000000c0: 4648 29be 9be5 98bb 9f80 fe3d bd12 e13c
000000d0: e963 473e b196 1fbe 8f02 a53c 679a 37bd
000000e0: 6989 2939 2e84 d5bd 2d0c 503e df5b 62be
000000f0: 9d97 003e cd0b 123d 462e 38b8 c6c0 88bb
00000100: 9662 373e a735 8d3d 030b 103d 2e48 7cbd
00000110: 1423 193c 31bf 96bb e9d6 98bd cd4a 193e
00000120: fc8e 473d 1762 9fbb 19f8 29bb cf99 c43d
00000130: 70a5 7b3c b075 a0bd ba69 26be c9f7 93bd
00000140: cd97 ffbd b4ae 183e 2db3 363e 4a92 36be
00000150: 09a2 be3c 4f19 233e 9c23 bd3c ab93 1cbe
00000160: 5111 d73b 0004 8b3d eb68 b53d f9eb a23d
00000170: 8378 32bd f689 c53b e45f e3bc 3f44 28be
00000180: e0ae 1c3e 5530 2e3e d4f2 f6bc 1e0e 953c
00000190: 8f7d 17bc 97fc 1a3e 4199 3f3d 8123 fa3d
000001a0: 4043 19be 6fa6 6c38 dd52 013d 80ed 2c3e
000001b0: 5d92 033e 5a60 ccbd f7bd 9cbc b82d 84bd
000001c0: e142 853d 283c 1a3e bef4 f83d a131 933a
000001d0: d5f0 49be f6a3 e0bc e0f0 fb3c 3f38 353d
000001e0: a4b2 34bc acf9 7cbd e815 8b3d fce6 9f3d
000001f0: 1a41 e6bd 25da 303e b20d 79ba d94a 34bc
00000200: 90b5 d7bd dc88 493e 5ee5 403e e7ac 003e
00000210: 70be 99b9 7aa8 c2bd 45e1 9dbd 18e8 193e
00000220: 25f8 1d3e 2204 013d 035b 5c3b 00a1 5d3d
00000230: a3bb afbd 0ca5 32be edd6 4cbe 0406 23be
00000240: 1ad2 283d 9fa7 4cbd 564e 3a3d f08c cabb
00000250: f56d 8dbc 2c3e 4fbd 9542 f7bd 11c6 c53c
00000260: 2fcc 0ebb 662b bb3d 4b65 193c 7c01 e1bd
00000270: 2b0d 043d d719 bfbd 0df0 2337 9942 3fbd
00000280: e4be 113e 3f92 86bd 64da 013e 5a68 143e
00000290: f15f 4f3d d744 b5bd f731 1b3e 7df6 83bd
000002a0: 8196 bc3d 017e 333d bd15 8c36 784d f23d
000002b0: bcab a03d e6b3 dfbd 1f1b 4b3d 4ad8 2abe
000002c0: a3f7 023e 99be 743e d2e8 5d3e d40c a9bd
000002d0: cae1 08be ddf7 073e 147b de3d 2e1b 60be
000002e0: 33af fabd cfe4 8abd beaf c43c c50a 473d
000002f0: 0c1c 3fbd e5f3 43bd 045f c9bd 2253 913b
00000300: 9264 f23d 2dd7 90bd 50ec 1ebd c060 2ebe
00000310: 6a0f a7bd 1e15 42be d7a6 6c3d 7e89 b3bd
00000320: 71d6 febd a854 3ab6 e60f 6f38 eaf9 30be
00000330: 3771 043e 3b8d 083c e65f 10bc ca76 73bd
00000340: d565 0dbe d9a1 173d e311 dfbd ad91 3a3e
00000350: b843 08bd fd90 52bd b9bd 3f3e c72b 3c3e
00000360: ac48 7bbd d5df fa3d 42b7 0d3e b617 3dbd
00000370: 63d6 f23d 23d3 4c3e b61e 073e 4a01 383e
00000380: bf66 cfbd be39 8dbb 562b 103e bf38 3b3e
00000390: e3f5 27bc 049f 373b 9c41 cebd f179 bcbd
000003a0: 0fea e4bd 3a38 44b7 aa2a 623c a043 213e
000003b0: a02d 4bbe 3cad 1abe b671 fe3c a159 25bd
000003c0: 4fd0 0836 e6a8 4f3e 2ac2 52bd f194 9bb6
000003d0: b845 02bd 98f8 283c 2be4 58bc 0642 1abd
000003e0: a50f e2bc d164 d3bd 3414 443e bdb0 3d3d
000003f0: 70ab d8bd 2d81 033e 258d be37 f1b8 953b

2.bias f4 [32]
0.0026993742 -0.09844445 0.0057853605 -0.120953076 0.19181621 -0.14056624 0.08466534 0.18106519
0.10035131 0.09776488 -0.046882853 0.17208186 -0.014683042 -0.18518284 0.18138325 -0.09594089
0.018333571 0.179839 -0.14398241 -0.058556873 0.05559839 -0.054180607 0.024891563 -0.031162374
0.020278558 -0.04326713 -0.08895212 -0.09119924 0.060414813 0.05527023 -0.11727209 0.15075478
00000000: fce7 303b 3e9d c9bd 1f93 bd3b 3fb6 f7bd
00000010: 786b 443e 99f0 0fbe 0665 ad3d 2769 393e
00000020: fd84 cd3d f438 c83d 3c08 40bd 3a36 303e
00000030: 2491 70bc 92a0 3dbe 88bc 393e a87c c4bd
00000040: 4930 963c b727 383e 2070 13be 55d9 6fbd
00000050: 23bb 633d 7cec 5dbd 64e9 cb3c 3c48 ffbc
00000060: 381f a63c e038 31bd 872c b6bd abc6 babd
00000070: 8675 773d 0963 623d 592c f0bd 765f 1a3e

4.weight f4 [32, 32]
-0.015213664 0.06329795 -0.039859395 0.17037222 0.19002149 0.1895941 -0.1392724 0.20925866
0.07428417 0.13664739 0.024023743 0.111128405 -0.17124742 0.08618232 -0.133288 -0.005834183
-0.045661937 0.006136479 0.013053713 0.05270194 -0.033427626 0.03781799 0.21289688 0.0065311566
0.077567145 0.10702424 0.27077347 1.0800811e-06 0.028279254 0.100897536 -0.21918125 -0.16033274
0.020324657 -0.033229843 0.06527727 0.116588145 0.047931198 0.18462005 -0.052980624 0.1888177
0.20220818 -0.056791913 -0.023535416 -0.17534308 -0.13291737 -0.18592499 -0.035103627 -0.06328447
-0.007349096 0.0066583697 -0.028133754 0.25554377 -0.047967307 -0.075634755 0.100482 -1.4874845e-06
0.10752559 0.1513604 0.2925627 -0.01927727 0.116814375 0.21507828 -0.14972161 0.14186746
0.021111228 -0.008005436 0.06427935 -0.041542243 -0.050777998 0.022368673 0.032612577 -0.051842306
0.062292185 -0.093041375 0.033819698 0.12941778 0.01719663 -0.036475245 0.059467766 7.840147e-06
0.026801825 0.036899462 0.10206369 -0.0800998 8.467004e-06 0.028827867 0.00049740844 0.027367467
-0.10247374 -0.021514082 -1.4399321e-06 -2.2889748e-05 0.08966462 0.00094036316 -0.04187137 -0.028329378
0.0145856505 0.04549285 0.03916166 -0.0392639 -0.011403908 0.049525976 -0.031006992 0.20905572
0.018801201 0.18557844 1.2064131e-05 -0.1629832 0.023097288 0.035678435 -0.118938625 -0.13397285
0.2464548 0.19711632 -0.07483619 0.18487015 -0.003692184 -0.1428905 0.05092193 -4.0626834e-05
-0.057371885 0.1064479 -0.015350603 0.015466813 0.1639188 0.15998298 -0.010883823 0.05725249
-0.045128 -0.0073346985 -0.079093926 -0.00033365027 -0.09031558 0.055352625 0.16170959 -0.11685742
0.020205097 0.0053556403 0.04525756 0.15602566 0.21059456 0.06124325 0.1637435 0.16337714
-0.25125676 -0.18322268 0.014899248 0.024418509 -0.08430702 4.6233336e-06 0.04274771 1.6455348e-05
-0.03854008 0.067577146 -0.0016254922 -0.015702793 0.05116124 -0.04420231 0.13062142 0.21059094
0.019940326 -0.042468738 0.21687002 0.098190665 -0.020766504 0.07056562 -0.13038535 0.057205454
-0.08158319 0.0827356 -2.1849198e-06 0.021620044 -0.15252657 -0.2415952 0.079438224 0.12978433
-0.08606866 0.11120919 -0.1048777 0.08355445 0.16823012 0.02206373 -0.11563589 0.009154971
0.081355855 0.04517194 0.23402493 -7.6132055e-05 -0.031611096 -0.040590405 -0.009449974 0.05085321
-0.01873281 -0.08812951 -0.13576376 0.008084565 -0.13574795 -0.07926758 0.041079495 -0.0658404
0.043235768 -0.051435277 0.016323905 0.04574579 -0.055119812 0.24032414 0.07363127 -0.023186142
-0.156221 0.0046730265 -0.06701387 -0.016423004 0.08010288 -0.035871223 -0.062280484 -0.017967978
0.20703164 0.13619584 -0.0808347 0.043699224 -0.007208809 -0.20023131 0.14034504 0.110543154
0.049342778 5.5173366e-08 0.022900835 0.008737647 0.018451141 -0.050971124 0.029353345 -0.032821503
0.03830402 -1.4696468e-06 -0.037001584 2.1823942e-05 1.1464871e-05 -0.03851804 6.7346395e-05 2.6443176e-06
0.024263097 1.2320149e-05 0.007390048 -3.3530393e-06 4.543464e-07 -4.7377143e-06 -0.0121788625 -0.03026756
2.4443023e-05 -0.042867288 -0.0012466811 -9.843206e-07 -0.012378642 -0.00024738058 -3.6153774e-06 -3.078278e-06
00000000: bb42 79bc 5ba2 813d 9b43 23bd 0e76 2e3e
00000010: fe94 423e f524 423e 6d9d 0ebe e747 563e
00000020: 4d22 983d 4bed 0b3e 71cd c43c 4a97 e33d
00000030: 7c5b 2fbe 5b80 b03d a67c 08be ad2c bfbb
00000040: 0308 3bbd 8414 c93b 3edf 553c fddd 573d
00000050: 68eb 08bd 09e7 1a3d a401 5a3e 5003 d63b
00000060: 86db 9e3d 862f db3d d2a2 8a3e 4ef7 9035
00000070: e5a9 e73c 5ea3 ce3d 0d71 60be 442e 24be
00000080: e57f a63c 041c 08bd 17b0 853d c4c5 ee3d
00000090: 8153 443d 0a0d 3d3e 3602 59bd 6d59 413e
000000a0: a90f 4f3e a39e 68bd 58cd c0bc 238d 33be
000000b0: 7e1b 08be 1f63 3ebe d2c8 0fbd 4a9b 81bd
000000c0: afd0 f0bb 742e da3b c278 e6bc a2d6 823e
000000d0: 5e79 44bd 65e6 9abd 82c9 cd3d 94a5 c7b5
000000e0: 6036 dc3d 38fe 1a3e c7ca 953e 5eeb 9dbc
000000f0: 603c ef3d 7b3d 5c3e 9f50 19be b445 113e
00000100: 74f1 ac3c 3b29 03bc e4a4 833d 3328 2abd
00000110: 97fc 4fbd 823e b73c c494 053d 9958 54bd
00000120: 1726 7f3d 7a8c bebd 8686 0a3d 1886 043e
00000130: f2df 8c3c 1167 15bd 7994 733d 2d89 0337
00000140: 808f db3c e423 173d c506 d13d 5d0b a4bd
00000150: 810d 0e37 6b28 ec3c 8464 023a bd31 e03c
00000160: c1dd d1bd 4d3e b0bc b143 c1b5 5c03 c0b7
00000170: 16a2 b73d b482 763a 5081 2bbd 0313 e8bc
00000180: a7f8 6e3c b656 3a3d fa67 203d 2fd3 20bd
00000190: 75d7 3abc c0db 4a3d 6002 febc b412 563e
000001a0: fa04 9a3c 4608 3e3e 0c67 4a37 11e5 26be
000001b0: 8636 bd3c 8d23 123d 1896 f3bd 2e30 09be
000001c0: a65e 7c3e dcd8 493e b743 99bd 9a4e 3d3e
000001d0: 92f8 71bb e351 12be 8393 503d bb66 2ab8
000001e0: c8fe 6abd 5b01 da3d 1881 7bbc 8468 7d3c
000001f0: 54da 273e 94d2 233e 1052 32bc 9681 6a3d
00000200: 23d8 38bd e957 f0bb fffb a1bd c8ed aeb9
00000210: 60f7 b8bd 6fb9 623d 3397 253e f152 efbd
00000220: 2985 a53c 5e7e af3b fe5f 393d 31c5 1f3e
00000230: 1aa6 573e 34da 7a3d 60ac 273e 564c 273e
00000240: baa4 80be ba9e 3bbe fa1b 743c 5309 c83c
00000250: 29a9 acbd 2222 9b36 3918 2f3d 9709 8a37
00000260: 34dc 1dbd e365 8a3d 780e d5ba 25a3 80bc
00000270: 738e 513d 7b0d 35bd 9fc1 053e 27a5 573e
00000280: e559 a33c b3f3 2dbd 2d13 5e3e 3018 c93d
00000290: 841e aabc b584 903d bd83 05be 4450 6a3d
000002a0: 1615 a7bd 4871 a93d a3a0 12b6 851c b13c
000002b0: ed2f 1cbe bb64 77be 82b0 a23d 2fe6 043e
000002c0: c444 b0bd a5c1 e33d 1fca d6bd 981e ab3d
000002d0: 8444 2c3e ffbe b43c 82d2 ecbd bbfe 153c
000002e0: e69d a63d 3606 393d 3ba4 6f3e 16a9 9fb8
000002f0: a37a 01bd 2042 26bd 10d4 1abc 754b 503d
00000300: 8d75 99bc 3f7d b4bd a805 0bbe 2075 043c
00000310: 8301 0bbe 0a57 a2bd f942 283d 55d7 86bd
00000320: fd17 313d ccad 52bd b6b9 853c f05f 3b3d
00000330: 50c5 61bd 8817 763e fecb 963d ddf0 bdbc
00000340: 66f8 1fbe 3020 993b 913e 89bd 8989 86bc
00000350: fb0c a43d b4ed 12bd d219 7fbd 9531 93bc
00000360: 1a00 543e ec76 0b3e aa8c a5bd f5fd 323d
00000370: df37 ecbb 7009 4dbe 9cb6 0f3e 7364 e23d
00000380: a71b 4a3d c2f7 6c33 889a bb3c 5928 0f3c
00000390: d926 973c 19c7 50bd 6d76 f03c d76f 06bd
000003a0: ade4 1c3d ae40 c5b5 f98e 17bd 8f12 b737
000003b0: 3f59 4037 18c5 1dbd 523c 8d38 0875 3136
000003c0: 67c3 c63c a3b2 4e37 3728 f23b c704 61b6
000003d0: e5ec f334 a8f8 9eb6 da89 47bc adf3 f7bc
000003e0: fe0a cd37 9c95 2fbd ad67 a3ba 001d 84b5
000003f0: cacf 4abc dcb2 81b9 b69f 72b6 6a94 4eb6

4.bias f4 [32]
0.0935282 0.064291075 -0.08383041 0.13120615 -0.034175288 0.002027773 -0.042024158 -0.045072053
0.028128726 0.05775442 -0.0024872576 0.11477214 -0.08704474 -0.04712832 -0.061345622 -0.028165879
-0.0020999827 -0.026434308 0.07079353 -0.035924297 0.010054382 -0.008784283 0.07102507 0.16038851
0.11156017 -0.0048878947 -0.028883714 -0.05985201 -0.0024144882 0.08104607 0.0054903906 0.16734295
00000000: b78b bf3d 0aab 833d 47af abbd e85a 063e
00000010: 63fb 0bbd 63e4 043b 8621 2cbd 799d 38bd
00000020: 376e e63c e68f 6c3d 4201 23bb a80d eb3d
00000030: 8344 b2bd a009 41bd 8c45 7bbd 21bc e6bc
00000040: dd9f 09bb c38c d8bc 33fc 903d 5b25 13bd
00000050: 22bb 243c f4eb 0fbc 9875 913d e33c 243e
00000060: a979 e43d a22a a0bb 8a9d ecbc 6227 75bd
00000070: 643c 1ebb 7bfb a53d bce8 b33b f35b 2b3e

6.weight f4 [2, 32]
0.12973699 0.029677179 0.019826973 0.10130857 -0.07761556 0.16834885 -0.21166445 0.0018943565
-0.15186618 -0.18073858 1.1970654e-05 0.1408741 0.09299255 1.47751925e-05 -0.07314881 -0.084322855
0.0075840326 0.023113929 -0.025413055 0.032640435 0.08045372 -0.17816885 -0.068341546 -0.11939426
-0.014950077 -0.02604342 2.0775162e-05 -0.18977052 0.05027312 0.06255102 -0.14865276 -0.22197711
-0.05347731 -0.11146595 0.0370759 -0.17858239 0.12798464 -0.17836112 -0.019556135 -0.0034477026
0.12477504 0.022065269 -0.04673304 -0.1556799 -0.058866173 -0.042340826 0.079180576 0.13736472
-0.010259483 -0.10917286 0.012140084 -0.025988419 -0.08411708 0.032846287 0.22581592 -0.0433722
0.07434715 -5.0067778e-05 -2.3029013e-05 -0.10515131 0.029946089 0.24237452 0.023387535 0.16791794
00000000: c6d9 043e 8e1d f33c 2d6c a23c de7a cf3d
00000010: e8f4 9ebd a463 2c3e 91be 58be 0e4c f83a
00000020: cf82 1bbe 8913 39be 91d5 4837 4d41 103e
00000030: e172 be3d f8e2 7737 0bcf 95bd 76b1 acbd
00000040: 7a83 f83b 6c59 bd3c 0a2f d0bc fab1 053d
00000050: ecc4 a43d e571 36be a7f6 8bbd fa84 f4bd
00000060: 2bf1 74bc 0359 d5bc 5246 ae37 3453 42be
00000070: 30eb 4d3d c01a 803d 6e38 18be f84d 63be
00000080: 060b 5bbd 4348 e4bd e6dc 173d 4dde 36be
00000090: 680e 033e 4ca4 36be 3034 a0bc daf2 61bb
000000a0: 0e8a ff3d 39c2 b43c 256b 3fbd 8d6a 1fbe
000000b0: a81d 71bd 936d 2dbd 6d29 a23d 56a9 0c3e
000000c0: 6417 28bc 0596 dfbd 34e7 463c aae5 d4bc
000000d0: 9345 acbd d489 063d 4a3c 673e 0ca7 31bd
000000e0: 5243 983d deff 51b8 6e2e c1b7 9259 d7bd
000000f0: 8051 f53c 0731 783e 3797 bf3c aef2 2b3e

6.bias f4 [2]
0.15022653 0.08211019
00000000: fcd4 193e 6329 a83d

exp_avg f4 [32, 2]
-0.0014500206 -0.00016770056 7.077685e-05 -0.00030051675 -0.0008569528 0.00011920846 0.0011067536 0.0004055385
0.0013232941 -0.00097290555 9.8897135e-06 -0.0008213063 0.0005140073 -0.00016432373 -0.00049425196 -0.00082772627
-0.0012340875 0.000702115 -1.9563247e-05 6.0146976e-06 -1.9153093e-05 -2.1626357e-07 0.00046262285 -0.000801235
0.0007723195 0.00254124 0.00010699722 -0.0017412418 0.00068174757 -0.00044249688 0.0012545026 9.5869495e-05
0.00019011226 -0.00021550649 -8.58382e-05 -0.0010307045 -0.0014192938 -0.00052181556 0.00014823693 -0.00094212417
0.00081869034 0.00034431374 -0.0003131168 -0.00057964405 0.0015878718 -0.00039037457 -0.00063685386 0.0026379225
0.0014173487 -0.00052431785 0.00063728006 -0.00010387957 -0.00025354268 -0.00045385727 -0.0005948898 -0.000929374
-0.00077693723 0.0004541817 0.00089548546 -0.00038613984 0.0012540956 0.00045642315 0.0009702505 -0.0024568408
00000000: 9e0e beba c7d8 2fb9 086e 9438 ad8e 9db9
00000010: 21a5 60ba 8eff f938 7d10 913a 759e d439
00000020: 6272 ad3a 960a 7fba ffeb 2537 ef4c 57ba
00000030: 72be 063a 514e 2cb9 b090 01ba c5fb 58ba
00000040: 1bc1 a1ba 240e 383a c11b a4b7 dcd1 c936
00000050: f4aa a0b7 1436 68b4 308c f239 f809 52ba
00000060: 7c75 4a3a ef8a 263b b263 e038 613a e4ba
00000070: 4eb7 323a edfe e7b9 1f6e a43a 8b0d c938
00000080: df58 4739 95f9 61b9 0804 b4b8 b418 87ba
00000090: 9907 baba 73ca 08ba 0c70 1b39 e2f8 76ba
000000a0: 619d 563a 0285 b439 d329 a4b9 41f3 17ba
000000b0: 2320 d03a 30ab ccb9 8af2 26ba ffe0 2c3b
000000c0: 55c6 b93a 6072 09ba 240f 273a ebd9 d9b8
000000d0: eced 84b9 b1f3 edb9 61f2 1bba 3ca1 73ba
000000e0: 60ab 4bba 3c1f ee39 03bf 6a3a d072 cab9
000000f0: 7760 a43a 144c ef39 6958 7e3a f302 21bb

exp_avg_sq f4 [32, 2]
2.0866225e-06 1.4809197e-06 1.2216129e-06 5.3843615e-07 4.6185446e-06 2.0204095e-06 1.6700649e-06 8.69167e-07
1.4762763e-06 1.0138273e-06 1.2129722e-06 1.935978e-07 1.0479431e-06 1.1782839e-06 3.9363806e-07 7.006846e-07
3.8011153e-06 2.1325159e-06 9.789684e-11 1.9595551e-11 9.472942e-11 1.9068404e-12 2.8684117e-06 3.1741333e-06
4.2485008e-06 3.2525447e-06 1.0266059e-05 3.821612e-06 9.276182e-06 3.5358194e-06 2.6526025e-06 9.2677607e-07
7.4858303e-07 9.483581e-08 3.6203876e-06 4.396683e-06 1.3616548e-05 2.478558e-06 2.480853e-06 2.4783365e-06
4.5808683e-06 2.9620628e-06 1.0991058e-06 7.905966e-07 3.804472e-06 2.7581987e-06 5.2778378e-06 5.959235e-07
2.4306898e-06 1.6426018e-06 7.071109e-07 1.4115404e-06 5.149711e-06 2.7340182e-06 4.7512654e-07 2.8761326e-07
1.1174054e-06 9.741342e-07 2.5665122e-06 1.4214847e-06 2.2349768e-06 7.3220285e-06 7.3583365e-06 3.6670103e-06
00000000: e707 0c36 03c4 c635 4df6 a335 0d89 1035
00000010: fff8 9a36 5f96 0736 fe26 e035 b450 6935
00000020: 7824 c635 d712 8835 68cd a235 c2df 4f34
00000030: 0da7 8c35 8725 9e35 3455 d334 ae16 3c35
00000040: aa16 7f36 581c 0f36 0647 d72e 425d ac2d
00000050: ec4f d02e 952e 062c f07e 4036 3203 5536
00000060: 588e 8e36 4b46 5a36 633c 2c37 663b 8036
00000070: e6a0 1b37 ea48 6d36 5d03 3236 91c7 7835
00000080: 3cf2 4835 8aa8 cb33 c9f5 7236 3887 9336
00000090: a172 6437 4d55 2636 bb7c 2636 7f51 2636
000000a0: 5cb5 9936 dac7 4636 fd84 9335 6239 5435
000000b0: 5550 7f36 7e19 3936 4818 b136 8df7 1f35
000000c0: ef1e 2336 5e77 dc35 4bd0 3d35 2974 bd35
000000d0: aecb ac36 137a 3736 e514 ff34 4469 9a34
000000e0: c2f9 9535 ffbe 8235 583c 2c36 d8c9 be35
000000f0: 9cfc 1536 bfaf f536 a1e7 f636 c216 7636

exp_avg f4 [32]
0.0011608083 -0.00048081132 -0.0012046663 0.0003258524 0.003118977 -0.0006246741 0.00079097034 0.0009047863
-0.0005432971 -4.4237888e-05 -5.587976e-05 0.0004128452 -0.00032483958 -0.00015050935 0.0022987777 0.00026437864
0.0008507862 0.0007014281 0.00065592135 0.0026233944 0.0009263599 0.0008772071 0.0014322804 0.0008080243
0.0028579438 -0.00027872832 0.001212695 -0.00027640845 -0.0010517517 0.00020092243 0.0027728172 0.0052383076
00000000: 4326 983a 6715 fcb9 e5e5 9dba 2bd7 aa39
00000010: c067 4c3b 2bc1 23ba 1f59 4f3a 2e2f 6d3a
00000020: 0d6c 0eba 128c 39b8 6f60 6ab8 2573 d839
00000030: 3b4f aab9 0cd2 1db9 17a7 163b 4d9c 8a39
00000040: 4c07 5f3a 0be0 373a 23f2 2b3a 41ed 2b3b
00000050: f6d6 723a 5ff4 653a 5bbb bb3a 98d1 533a
00000060: 574c 3b3b 4822 92b9 4bf3 9e3a eaea 90b9
00000070: eeda 89ba b4ae 5239 27b8 353b 1ca6 ab3b

exp_avg_sq f4 [32]
4.5167913e-06 2.458193e-06 6.2197096e-06 1.859414e-06 2.4424016e-06 1.1148805e-06 1.8941911e-06 1.1487126e-06
6.7470733e-06 3.800593e-10 5.757519e-10 5.2919904e-06 7.5226258e-06 1.21920275e-05 1.2186805e-05 3.331395e-06
7.304408e-07 6.9366315e-06 1.5073549e-05 4.993632e-06 7.6112838e-06 2.5062996e-06 6.2140844e-06 4.242778e-06
3.7110765e-06 2.7788913e-06 7.6767965e-06 6.8791536e-07 2.0099599e-06 3.615987e-06 9.1305665e-06 1.0073159e-05
00000000: f18e 9736 6ff7 2436 e6b2 d036 fb90 f935
00000010: 24e8 2336 01a3 9535 e93b fe35 772d 9a35
00000020: eb64 e236 97f0 d02f f042 1e30 da91 b136
00000030: dd6a fc36 5c8c 4c37 ee75 4c37 ee90 5f36
00000040: 8213 4435 36c1 e836 66e4 7c37 f98e a736
00000050: 6e64 ff36 e631 2836 9482 d036 2f5d 8e36
00000060: cf0b 7936 fd7c 3a36 97cb 0037 2fa9 3835
00000070: d9e2 0636 2faa 7236 7c2f 1937 e3ff 2837

exp_avg f4 [32, 32]
5.693121e-05 -2.0572083e-06 -0.00025688147 -5.14862e-06 -1.3519338e-05 4.144339e-05 -0.000535568 -0.0002436168
-0.00052656204 -1.7622722e-06 -3.6751017e-06 -6.424858e-07 0.00023241076 -0.0003031399 -0.00042264673 -0.0007388942
4.2095693e-05 -4.793e-06 8.858197e-05 6.0497543e-05 -0.00037922524 4.406873e-06 -0.00046377676 5.760966e-05
4.758017e-05 6.8485656e-06 4.650799e-05 -2.1934684e-06 -0.00031480586 -0.0006600372 0.00014829639 5.8314134e-05
0.00032999006 4.150067e-05 -0.00019816025 0.0001662471 -3.279628e-06 0.00026272258 -0.000101384416 8.1933955e-05
-8.101519e-05 -5.650992e-06 -1.1254249e-09 0.00027529683 0.00016655892 0.0001706658 4.9917522e-05 0.000104323415
0.00012432264 0.00025716992 -3.864174e-05 3.1601821e-06 -0.00010156826 0.00038443282 0.00012678976 4.566189e-06
7.417856e-09 8.39135e-05 -8.7231245e-05 0.00022040191 -6.2955325e-05 0.0001382404 -7.779849e-09 -5.766046e-07
-0.0005221884 -0.00013544662 -0.00019355705 -0.00032297327 -2.512789e-05 -0.00040386742 -0.00044632136 -0.00029110574
-0.0005659387 -6.598112e-07 -3.8163944e-07 -0.00030599555 -8.402422e-05 -0.00041199947 -0.00020389858 -0.0007997099
-0.00027498236 -0.00027103204 -0.00027335517 -8.061199e-06 -0.00016601231 -0.00052454404 -0.0004701383 9.7602206e-05
6.237689e-05 -0.00035228234 -0.00019620838 -0.00028365012 -0.00026691533 -0.00067352696 -2.9344117e-06 7.908195e-05
-0.002531548 -0.00094006985 -0.0006498242 -0.0005202361 0.0001394262 -0.00062610663 -0.0013262377 -0.0007784043
-0.0017859049 -2.6248714e-09 3.5951505e-06 -0.00064518943 -9.7198725e-05 7.070383e-05 0.00011533141 -0.0008863898
-0.00018295209 -0.0006264001 -0.0017745505 1.8904083e-07 -3.7602687e-05 -0.0017956664 -0.00055445876 6.244584e-05
5.902642e-05 9.464477e-05 -0.00039072183 -0.00069101714 -0.00084213534 -0.00071772945 -1.6505993e-07 4.7926205e-05
0.00026153517 4.4545072e-06 0.00014636238 4.1081603e-05 -9.311195e-06 8.875656e-05 0.00018410252 0.00014700387
0.00019714177 3.587207e-06 4.776105e-07 0.000135457 0.00017414123 0.00027543993 0.00018455231 0.00024044409
4.2781812e-05 0.000112266825 6.2617146e-05 -8.157126e-07 0.00012880622 0.00017358887 0.00022416326 -1.0345703e-06
-3.4601408e-07 0.00026056054 -2.505504e-05 0.00010463603 0.00012089732 0.00026651262 5.034087e-09 -5.1768716e-06
-0.00046109073 -0.00014280436 0.0002678199 -0.00019021823 0.000111845584 -0.00043205242 0.0001755807 -6.567973e-05
0.0001046246 4.881221e-06 -2.7486355e-10 -0.00035143574 -0.00012978203 -0.00011888268 0.00012282933 3.8329574e-05
-0.00021700577 -0.00031199417 -6.892545e-05 2.4252047e-06 0.00023644019 -0.000651522 -3.8932894e-06 5.850636e-05
8.392479e-05 -8.783924e-05 7.368979e-05 -0.0003343806 0.00010225907 1.984901e-05 -1.0322103e-05 9.1386944e-05
0.00013650906 4.1553943e-05 0.0005700135 0.00021982646 -0.0002567513 1.2469681e-05 0.0013550539 0.00073729
0.0014083659 4.651479e-11 8.075246e-09 0.00020405218 -0.0005508607 0.0009097443 0.0010036252 0.0020899992
-0.00013593852 0.00019951575 -0.0002879615 -0.00019645806 0.00087030284 0.000389264 0.0013037687 -0.00031992144
-0.00029646122 3.0734274e-05 -0.00024419895 0.00022076881 0.0007929208 0.0018544865 -0.0004965435 -0.0002941304
-0.00022840795 -0.000106283434 0.0007403831 -0.00051995483 -1.2831792e-06 -3.061919e-05 0.00047706207 -6.201546e-05
0.00030211278 -2.3231896e-09 1.6801813e-06 -0.00066588697 0.00010505589 0.00024198963 0.0005105988 -6.671456e-05
4.0364842e-10 -0.0005965252 4.610711e-05 -7.701164e-11 0.0005570862 -0.0005318656 -3.1444786e-05 -4.2365537e-06
-3.173023e-06 0.00065806176 0.0001914002 -0.00029301288 0.00032409243 -2.31938e-05 6.1253147e-10 6.244733e-07
00000000: 6cc9 6e38 920e 0ab6 0cae 86b9 4fc2 acb6
00000010: 1dd1 62b7 80d3 2d38 5c65 0cba 6373 7fb9
00000020: fb08 0aba 3687 ecb5 c4a1 76b6 4a77 2cb5
00000030: 4ab3 7339 c0ee 9eb9 af96 ddb9 5ab2 41ba
00000040: e88f 3038 8ed3 a0b6 15c5 b938 bebe 7d38
00000050: c0d2 c6b9 c0de 9336 1027 f3b9 e7a1 7138
00000060: d290 4738 bbcc e536 9311 4338 8033 13b6
00000070: 870c a5b9 5906 2dba 0280 1b39 5396 7438
00000080: 8402 ad39 0111 2e38 3dc9 4fb9 9e52 2e39
00000090: 9417 5cb6 07be 8939 589e d4b8 f5d3 ab38
000000a0: b3e6 a9b8 a79d bdb6 5ead 9ab0 b755 9039
000000b0: 52a6 2e39 c0f4 3239 885e 5138 35c8 da38
000000c0: 9b5c 0239 c3d4 8639 4113 22b8 8413 5436
000000d0: 0b01 d5b8 b38d c939 def2 0439 4437 9936
000000e0: 27e0 fe31 b8fa af38 ebef b6b8 b01b 6739
000000f0: e206 84b8 a0f4 1039 23a8 05b2 f7c7 1ab5
00000100: 78e3 08ba ad06 0eb9 93f5 4ab9 bd54 a9b9
00000110: bcc9 d2b7 2bbe d3b9 3d00 eab9 8d9f 98b9
00000120: 815b 14ba e11d 31b5 20e4 ccb4 076e a0b9
00000130: 2936 b0b8 a201 d8b9 9ccd 55b9 9fa3 51ba
00000140: 822b 90b9 4e19 8eb9 1c51 8fb9 963e 07b7
00000150: 9713 2eb9 8e81 09ba e57c f6b9 c9af cc38
00000160: 56d0 8238 89b2 b8b9 49bd 4db9 e0b6 94b9
00000170: c5f0 8bb9 a18f 30ba cfec 44b6 ccd8 a538
00000180: 54e8 25bb 056f 76ba f758 2aba 7460 08ba
00000190: f032 1239 4e21 24ba 27d5 adba d40d 4cba
000001a0: 0615 eaba 3a61 34b1 3744 7136 ee21 29ba
000001b0: 2bd7 cbb8 d446 9438 14de f138 9d5c 68ba
000001c0: d4d6 3fb9 0035 24ba 0998 e8ba 26fb 4a34
000001d0: 94b7 1db8 915c ebba 1959 11ba 5bf5 8238
000001e0: 2393 7738 067c c638 ccd9 ccb9 6025 35ba
000001f0: bfc2 5cba 0226 3cba 543b 31b4 5f04 4938
00000200: a81e 8939 ed77 9536 da78 1939 094f 2c38
00000210: 4737 1cb7 d122 ba38 a50b 4139 0d25 1a39
00000220: d7b7 4e39 bfbb 7036 2535 0035 7609 0e39
00000230: ae99 3639 ec68 9039 6284 4139 b81f 7c39
00000240: 9f70 3338 cb70 eb38 5351 8338 58f7 5ab5
00000250: 2810 0739 6805 3639 5e0d 6b39 91db 8ab5
00000260: d0c3 b9b4 d89b 8839 4a2d d2b7 0a70 db38
00000270: 418a fd38 b8ba 8b39 4cf8 ac31 fdb4 adb6
00000280: 8dbe f1b9 c1bd 15b9 2e6a 8c39 5175 47b9
00000290: a48e ea38 1885 e2b9 161c 3839 89bd 89b8
000002a0: e869 db38 5ec9 a336 9b1b 97af e840 b8b9
000002b0: 1916 08b9 a750 f9b8 bfcb 0039 11c4 2038
000002c0: 0b8c 63b9 2693 a3b9 128c 90b8 b3c0 2236
000002d0: eeec 7739 e7ca 2aba 1aa3 82b6 ba64 7538
000002e0: c700 b038 5536 b8b8 e889 9a38 ce4f afb9
000002f0: ec73 d638 6d81 a637 182d 2db7 fea6 bf38
00000300: df23 0f39 354a 2e38 f56c 153a 3781 6639
00000310: 939c 86b9 df34 5137 109c b13a b246 413a
00000320: eb98 b83a ff92 4c2e 4fbb 0a32 d7f6 5539
00000330: a367 10ba e87b 6e3a 138c 833a 5ef8 083b
00000340: b88a 0eb9 1a35 5139 8af9 96b9 4f00 4eb9
00000350: 0925 643a 2116 cc39 38e3 aa3a 21bb a7b9
00000360: 5a6e 9bb9 ade8 0038 d407 80b9 2d7e 6739
00000370: 04dc 4f3a 3e12 f33a 782a 02ba 8435 9ab9
00000380: cb80 6fb9 7ce4 deb8 4516 423a 944d 08ba
00000390: b439 acb5 1b6d 00b8 301e fa39 4c0e 82b8
000003a0: e464 9e39 fca5 1fb1 9782 e135 eb8e 2eba
000003b0: 7451 dc38 99be 7d39 b5d9 053a 1be9 8bb8
000003c0: 77e8 dd2f 2160 1cba 2263 4138 b359 a9ae
000003d0: 6c09 123a e56c 0bba 95e3 03b8 b827 8eb6
000003e0: 1ff0 54b6 c781 2c3a 9ab2 4839 869f 99b9
000003f0: f3ea a939 4e90 c2b7 125f 2830 7aa1 2735

exp_avg_sq f4 [32, 32]
2.5522843e-08 4.4819155e-11 3.4508332e-08 1.68416e-11 5.272798e-09 8.521167e-10 1.2325697e-07 3.2608167e-08
1.2914815e-07 6.0351563e-12 1.15281664e-11 3.1240642e-12 4.7485407e-09 3.8876536e-08 6.376325e-08 2.0163087e-07
1.0297211e-09 1.5188432e-11 1.0129001e-08 4.0547488e-10 5.294358e-08 9.749152e-11 7.932394e-08 3.4460826e-10
1.9785549e-09 3.1745046e-08 4.1251416e-09 9.2191515e-12 4.2059103e-08 1.5867789e-07 1.1058561e-09 8.0741847e-10
4.501289e-07 2.6770164e-07 7.754218e-07 3.132005e-08 1.8990707e-11 8.685511e-09 4.5313246e-07 4.0395886e-08
6.1677144e-07 1.8238506e-11 4.1767506e-13 1.5580744e-08 6.2749486e-09 3.962632e-08 1.3319463e-09 1.0123565e-07
1.9650517e-09 1.6867697e-08 8.140921e-07 9.958346e-12 6.07907e-08 1.0379205e-07 5.066026e-08 2.124164e-11
3.6541117e-14 2.522991e-07 7.937365e-07 5.856806e-09 1.9847799e-07 7.8071515e-08 6.166484e-13 2.9532505e-12
3.9685324e-06 4.964511e-07 3.1963975e-06 7.2897265e-08 3.082156e-07 2.4750307e-07 7.2599223e-06 1.5999848e-06
8.498699e-06 3.1698732e-12 2.4100548e-12 3.2799456e-08 2.2503308e-07 9.619215e-07 1.1752758e-06 7.1383965e-06
1.7201089e-07 3.378418e-08 3.1260795e-06 3.3075378e-09 1.7909624e-06 3.2623956e-07 2.9134821e-06 1.8855294e-08
6.300881e-08 2.4943104e-06 1.8894287e-06 1.9178982e-08 2.4455114e-06 5.483287e-06 4.612666e-11 2.7001196e-08
1.4327314e-06 8.944009e-07 1.8880555e-06 9.7235585e-08 2.0344202e-09 1.4738318e-08 1.0605709e-06 6.932281e-08
1.5769929e-06 9.111792e-13 1.1279718e-11 5.975254e-08 2.0046154e-09 1.785065e-08 1.6214013e-09 7.0708026e-08
1.6879752e-09 6.507245e-08 2.4278686e-06 1.815735e-12 8.01099e-08 4.2167215e-07 4.2137195e-08 8.755042e-10
2.4541918e-10 3.225499e-07 2.0726804e-06 2.66704e-08 4.943786e-07 5.1110284e-08 1.732293e-12 1.6325802e-10
1.5022654e-07 7.206042e-08 3.1559813e-07 8.355788e-09 2.0807743e-10 3.6852337e-09 2.0547947e-07 3.350867e-08
2.5847336e-07 1.1255125e-11 2.6796297e-12 3.7252537e-09 3.0083214e-08 1.050354e-07 4.497013e-08 1.2400504e-07
1.481142e-09 4.100846e-09 2.3568307e-07 3.5775569e-12 5.3469442e-08 2.4745644e-08 5.6171597e-08 6.693352e-11
1.0595815e-12 3.0440071e-07 3.1416448e-07 1.0362475e-09 8.057276e-08 9.779002e-08 5.1266294e-13 1.6102874e-11
3.2363364e-06 6.7608653e-07 2.7994226e-06 7.740966e-08 1.85274e-07 1.5074485e-07 5.4503553e-06 1.0851496e-06
6.498973e-06 1.5492305e-11 5.0035564e-14 4.3614985e-08 8.42758e-09 1.9265153e-07 5.653021e-07 4.665023e-06
9.825349e-08 4.5409237e-08 3.2071048e-06 2.3578766e-09 1.1802765e-06 3.8066955e-07 1.9045739e-06 9.218151e-09
3.706199e-08 5.403757e-07 1.9061043e-06 2.3128967e-08 1.9010149e-06 3.5654878e-06 5.6598073e-11 1.7664467e-08
2.8587574e-06 3.3894193e-07 3.2512933e-06 4.2985423e-08 4.136491e-07 1.4319961e-07 7.871991e-06 1.9169916e-06
8.380718e-06 9.499354e-15 6.6472533e-13 1.7910954e-08 3.3417092e-07 3.108938e-06 4.613705e-06 1.1797331e-05
1.0661281e-07 2.010403e-08 2.2474565e-06 2.5794893e-08 3.2890803e-06 2.5226265e-07 4.7737894e-06 1.3914696e-08
1.503544e-07 3.1831023e-06 1.2271241e-06 1.753672e-08 2.6727712e-06 9.285665e-06 5.788233e-08 4.9524996e-08
2.0508405e-06 2.1675444e-06 6.263493e-06 3.1317592e-07 4.783099e-12 2.5603158e-10 2.0383209e-06 7.2506054e-08
2.8638797e-06 2.6786158e-13 5.818135e-12 1.5637639e-07 2.9508587e-07 1.2750995e-06 3.6990292e-07 2.3124224e-07
3.376907e-14 1.6261563e-07 5.4904704e-06 2.388535e-14 4.996273e-07 5.5183966e-07 1.5983433e-07 1.33226616e-11
9.996623e-12 4.392912e-06 6.848926e-06 1.6658632e-08 1.0346614e-06 2.1549819e-07 3.726175e-13 3.076292e-12
00000000: 533d db32 e21d 452e 5036 1433 e923 942d
00000010: 062c b531 623a 6a30 9e58 0434 0f0d 0c33
00000020: f9ab 0a34 db57 d42c 3fce 4a2d 23d6 5b2c
00000030: 9b28 a331 34f9 2633 38ee 8833 df7f 5834
00000040: 1786 8d30 4f99 852d d103 2e32 84e9 de2f
00000050: 1564 6333 d962 d62e cc58 aa33 4d73 bd2f
00000060: 1bf7 0731 0c58 0833 21bd 8d31 5e2f 222d
00000070: 79a4 3433 0c61 2a34 dafc 9730 06f1 5d30
00000080: 3fa9 f134 a2b8 8f34 9526 5035 c284 0633
00000090: 450b a72d 4837 1532 0d46 f334 bf7f 2d33
000000a0: 3690 2535 776d a02d 5221 eb2a 6bd6 8532
000000b0: 089b d731 9931 2a33 b20f b730 e366 d933
000000c0: 8e09 0731 75e4 9032 fc87 5a35 6730 2f2d
000000d0: 0a8c 8233 48e4 de33 8c95 5933 ecd7 ba2d
000000e0: 0a91 2429 b973 8734 2811 5535 033d c931
000000f0: 371d 5534 45a8 a733 3392 2d2b 08d1 4f2c
00000100: 6f29 8536 dc43 0535 b181 5636 b28b 9c33
00000110: d478 a534 90e0 8434 429a f336 0fbf d635
00000120: a295 0e37 5c0f 5f2c b097 292c 62df 0c33
00000130: 9fa0 7134 5f1b 8135 2bbe 9d35 5c86 ef36
00000140: feb1 3834 191a 1133 a3c9 5136 d24a 6331
00000150: 0061 f035 0626 af34 3e85 4336 3bf7 a132
00000160: 764f 8733 ed63 2736 4798 fd35 07bf a432
00000170: 911d 2436 14fd b736 01de 4a2e 42f0 e732
00000180: 474c c035 c316 7035 1869 fd35 d4cf d033
00000190: e6cd 0b31 cf33 7d32 f058 8e35 9ede 9433
000001a0: 10a9 d335 b13c 802b 556f 462d 4e51 8033
000001b0: 91c1 0931 ff55 9932 fdd7 de30 26d8 9733
000001c0: 59fe e730 f5bd 8b33 77ee 2236 bf8a ff2b
000001d0: e208 ac33 2e62 e234 56fa 3433 22a8 7030
000001e0: aeeb 862f ec2a ad34 6118 0b36 d418 e532
000001f0: 70b5 0435 5a84 5b33 6fcc f32b 0c81 332f
00000200: f54d 2134 a3bf 9a33 7a6f a934 258d 0f32
00000210: 97c8 642f 513f 7d31 c4a1 5c34 2ceb 0f33
00000220: 4fc4 8a34 9400 462d eb8f 3c2c 5bff 7f31
00000230: d834 0133 d28f e133 2e25 4133 3f26 0534
00000240: 0d91 cb30 6ce7 8c31 1210 7d34 89bf 7b2c
00000250: 46a6 6533 3f90 d432 5341 7133 3930 932e
00000260: 721f 952b 846c a334 70aa a834 b86b 8e30
00000270: 5807 ad33 a200 d233 424d 102b 73a4 8d2d
00000280: d62f 5936 507c 3535 b7dd 3b36 693c a633
00000290: bbef 4634 6edc 2134 32e2 b636 75a5 9135
000002a0: c111 da36 9245 882d 1457 6129 2f53 3b33
000002b0: e4c8 1032 a6db 4e34 44bf 1735 3e88 9c36
000002c0: 6dff d233 fc07 4333 a439 5736 3408 2231
000002d0: fe69 9e35 d35e cc34 a9a0 ff35 db5d 1e32
000002e0: 172e 1f33 560e 1135 3fd5 ff35 23ad c632
000002f0: 6026 ff35 9d46 6f36 c4eb 782e 93bc 9732
00000300: 14d9 3f36 d3f7 b534 cb30 5a36 f99e 3833
00000310: 8013 de34 69c2 1934 f211 0437 aaa5 0036
00000320: e99a 0c37 0a20 2b28 821a 3b2b 9bda 9932
00000330: 1a68 b334 26a3 5036 6dcf 9a36 27ed 4537
00000340: 03f3 e433 3bb1 ac32 02d3 1636 9293 dd32
00000350: f8b9 5c36 b76e 8734 8a2e a036 7b0d 6f32
00000360: 1a71 2134 489d 5536 aab3 a435 a8a3 9632
00000370: dc5d 3336 a1c9 1b37 4b9a 7833 4fb5 5433
00000380: 2ca1 0936 2176 1136 ff2a d236 9222 a834
00000390: 534a a82c 3ec1 8c2f 16ca 0836 a0b4 9b33
000003a0: 1431 4036 ecca 962a 1ab5 cc2c 6ae8 2734
000003b0: 4b6c 9e34 1624 ab35 1297 c634 624b 7834
000003c0: 1615 1829 729b 2e34 c83a b836 de23 d728
000003d0: 201e 0635 2222 1435 ed9e 2b34 ef5f 6a2d
000003e0: cadc 2f2d d466 9336 d4cf e536 b818 8f32
000003f0: b2de 8a35 b163 6734 d7c3 d12a 8d79 582c

exp_avg f4 [32]
-0.00060269755 -0.00034072262 -0.00035181752 -0.0006919451 0.00026534352 0.00046856765 0.0013751541 0.0012594832
-0.0001652042 -0.0017777047 -5.2002274e-06 0.0028581137 0.0023554368 0.0037918629 0.0009023312 -9.595237e-06
0.0003272614 -0.0018213389 -1.2810512e-05 -0.0023822389 -0.0010614862 -5.4260704e-06 0.000677321 -3.5516787e-06
0.0013005722 -0.0007729817 9.670263e-05 -9.540528e-06 -0.00023103657 -0.0002879427 0.002932505 0.00080776337
00000000: 59fe 1dba 04a3 b2b9 2674 b8b9 a663 35ba
00000010: ce1d 8b39 16aa f539 843e b43a 3e15 a53a
00000020: aa3a 2db9 df01 e9ba 9d7d aeb6 314f 3b3b
00000030: ac5d 1a3b e780 783b 6c8a 6c3a 3bfb 20b7
00000040: 4894 ab39 feb9 eeba bbec 56b7 561f 1cbb
00000050: 9121 8bba 9711 b6b6 3e8e 313a 6059 6eb6
00000060: f677 aa3a eca1 4aba d4cc ca38 4110 20b7
00000070: 6842 72b9 04f7 96b9 452f 403b 15c0 533a

exp_avg_sq f4 [32]
1.5068173e-07 1.2136888e-06 8.1329235e-06 2.6779824e-06 5.59531e-07 6.4223623e-06 1.0994745e-05 9.749733e-06
2.5987224e-06 2.1560512e-05 1.6609708e-11 1.5834505e-05 2.1211807e-05 1.6479918e-05 5.151451e-06 5.5067864e-07
2.677128e-06 1.9754501e-05 1.7002338e-07 2.9927445e-05 1.5818997e-06 4.2735905e-08 1.7734352e-06 1.1145356e-11
9.194879e-06 3.0244964e-06 3.5623264e-06 7.4693036e-11 3.157054e-07 1.0560086e-05 2.2255173e-05 1.1378893e-05
00000000: 14cb 2134 08e6 a235 a472 0837 63b7 3336
00000010: ad32 1635 ac7f d736 1276 3837 c992 2337
00000020: b665 2e36 d9dc b437 bd19 922d 57d4 8437
00000030: 02f0 b137 5b3e 8a37 a1da ac36 59d2 1335
00000040: b5a8 3336 78b6 a537 ac8f 3634 b30c fb37
00000050: a951 d435 a08c 3733 c506 ee35 3912 442d
00000060: b443 1a37 74f8 4a36 4d10 6f36 7140 a42e
00000070: 387e a934 392b 3137 9fb0 ba37 f9e7 3e37

exp_avg f4 [32, 32]
1.6805847e-05 0.00031563212 -0.00035918897 -0.00056101783 0.0001953402 -0.00034340454 0.00016607677 -0.0001379273
-0.00035261764 -3.737283e-05 2.7914596e-06 7.509993e-05 9.03355e-05 0.00011031628 6.351058e-05 -5.856059e-07
-0.0005523031 -0.00014662014 1.304751e-06 -0.00045313674 8.0073325e-05 3.816209e-06 -0.00037538438 8.5663913e-07
0.000101006844 -0.00021563694 -0.00040800433 5.3853887e-11 -8.245419e-06 -0.0002330266 0.00021020735 -0.00022327526
-0.00010714666 0.00023006149 -0.00027983016 -0.0004275671 0.00018061406 -0.00026541925 -0.00010986619 -8.1456885e-05
-0.00025109827 -0.00049924327 -2.7390731e-06 -0.00012779802 -0.000119812044 0.00046399792 -0.00039447352 -6.398889e-06
-0.00041535273 -0.00050590717 -2.9023465e-06 -0.0007138167 -0.0003323055 -7.741212e-06 -0.00028933916 6.474619e-11
-0.00037548196 -0.0006631314 -0.00030040697 -2.2800455e-06 1.0543125e-05 -0.00018584666 -0.00015303296 -0.00080052955
2.4781332e-06 -8.200492e-07 6.4596306e-06 -4.411332e-06 -5.5922396e-06 2.2626714e-06 3.287413e-06 -5.6198187e-06
6.2792406e-06 -9.83231e-06 3.832441e-06 1.3145926e-05 1.8270025e-06 -4.0675477e-06 6.0155758e-06 -2.8921716e-11
2.7115734e-06 3.7158281e-06 1.0352942e-05 -8.152489e-06 -7.438613e-10 2.9491116e-06 5.0167774e-08 3.1487552e-06
-1.0314628e-05 -2.172254e-06 -9.791667e-10 -1.7681523e-09 9.117957e-06 9.506461e-08 -4.6775926e-06 -2.8808183e-06
-0.00021603188 0.0004757794 -0.0005690985 -0.00088623463 0.0003538527 -0.00056232384 -0.00020490277 -0.00018155301
-0.00054100587 -0.00097109494 2.3326356e-09 -0.00022848726 -0.00020216298 0.0009778432 -0.0007828885 -1.3417689e-05
-0.0008067653 -0.0009964778 -7.529744e-06 -0.0014651197 -0.00065635424 -1.4341955e-05 -0.0005884645 -7.6196525e-09
-0.000764073 -0.0013478206 -0.00066539104 1.8635989e-06 1.4078114e-05 -0.00039825524 -0.00025971685 -0.0016174093
0.00014878616 -8.38731e-05 1.8235716e-05 -2.4052003e-06 -0.00017127082 6.771504e-05 2.7607484e-06 -6.118456e-05
3.0029987e-05 0.00056176685 5.0309754e-06 -3.1476804e-05 3.9391787e-05 -0.0007122898 0.00029135792 1.6381042e-05
8.4727944e-05 0.00034049913 1.5103648e-06 0.00045802596 0.00042254833 2.7391325e-11 -0.00015151247 2.3656606e-09
0.00012965252 0.00060828216 4.7330945e-05 -1.8882935e-06 -5.1443225e-05 -2.901988e-05 0.00013662847 0.00045610094
-0.00027921904 0.00056522444 -0.0006877738 -0.001068115 0.00042389808 -0.0006953588 -0.000526417 -0.00024253465
-0.0006805197 -0.0012459409 1.7088558e-10 -0.0005356016 -0.0005757217 0.0009994534 -0.0014499677 1.2990837e-05
-0.0010331442 -0.0012699218 -1.0585521e-05 -0.0018907696 -0.0008308446 2.5808433e-06 -0.0010003204 1.1588628e-06
-0.0014928096 -0.0018574923 -0.00078526634 -3.1153103e-08 -6.299016e-06 -0.0005196651 -0.0008624267 -0.002525665
0.00014590063 -1.6207261e-05 -1.6321112e-05 -7.647488e-06 2.0715484e-06 -3.7128848e-05 0.00012554902 2.2890834e-05
6.0058675e-05 0.000545048 1.9576648e-06 2.7891122e-06 -1.0737443e-05 -0.00064681296 0.00022550464 -2.3304442e-06
3.6526097e-05 0.00043263662 -7.26753e-06 0.00037456927 0.00053584005 -4.0485197e-06 -0.00015152086 -2.137287e-06
0.0002989517 0.0005007151 4.5557572e-05 4.8692245e-06 -3.625042e-05 -1.4503691e-05 0.00010492711 0.00059557706
5.4559846e-06 -4.088031e-13 2.6709117e-06 1.1112768e-06 2.1898873e-06 -5.6250274e-06 3.359916e-06 -3.7270975e-06
4.3040695e-06 -1.1940336e-11 -4.167346e-06 2.4380284e-10 9.063059e-10 -4.3265177e-06 1.1446453e-09 2.605764e-10
2.817116e-06 5.3142983e-09 9.564279e-07 -3.9459588e-10 -3.6872363e-11 -1.0937341e-09 -1.4995263e-06 -3.456893e-06
6.485127e-09 -4.781638e-06 -2.0594712e-07 -5.6187086e-11 -1.5218138e-06 -6.061738e-08 6.3156597e-10 2.084122e-10
00000000: 48fa 8c37 6d7b a539 8751 bcb9 4511 13ba
00000010: 3cd4 4c39 fa0a b4b9 e524 2e39 94a0 10b9
00000020: 8adf b8b9 c5c0 1cb8 e954 3b36 f87e 9d38
00000030: 8172 bd38 9a59 e738 fc30 8538 8832 1db5
00000040: 6fc8 10ba 0bbe 19b9 e71e af35 fc92 edb9
00000050: 0aed a738 fc0c 8036 3dcf c4b9 cbf3 6535
00000060: a3d3 d338 9a1c 62b9 6ae9 d5b9 16da 6c2e
00000070: ce55 0ab7 9a58 74b9 1b6b 5c39 ff1e 6ab9
00000080: edb3 e0b8 a93c 7139 2bb6 92b9 162b e0b9
00000090: 3863 3d39 f827 8bb9 f667 e6b8 d5d3 aab8
000000a0: d7a5 83b9 a6df 02ba ebd0 37b6 8501 06b9
000000b0: 9a43 fbb8 bf44 f339 57d1 ceb9 0ab6 d6b6
000000c0: b3c3 d9b9 db9e 04ba efc5 42b6 6e1f 3bba
000000d0: 4a39 aeb9 41e0 01b7 72b2 97b9 dd60 8e2e
000000e0: 56dc c4b9 ffd5 2dba f17f 9db9 e202 19b6
000000f0: 61e2 3037 d5df 42b9 7977 20b9 a1da 51ba
00000100: 014e 2636 5a21 5cb5 cebf d836 0e05 94b6
00000110: f9a4 bbb6 66d8 1736 539d 5c36 e091 bcb6
00000120: 44b2 d236 73f5 24b7 6b98 8036 528d 5c37
00000130: 5437 f535 f87b 88b6 67d9 c936 ea65 fead
00000140: 7af8 3536 715d 7936 8cb1 2d37 acc6 08b7
00000150: 9678 4cb0 5ae9 4536 0d78 5733 344f 5336
00000160: fd0c 2db7 0ac7 11b6 5e93 86b0 5403 f3b0
00000170: 54f9 1837 5226 cc33 37f4 9cb6 1554 41b6
00000180: 9e86 62b9 0872 f939 8e2f 15ba 3352 68ba
00000190: 4e85 b939 ea68 13ba 2bdb 56b9 445f 3eb9
000001a0: 4ad2 0dba 1491 7eba 294c 2031 1596 6fb9
000001b0: b6fb 53b9 f92a 803a c23a 4dba 891c 61b7
000001c0: 1a7d 53ba 3f9c 82ba 02a8 fcb6 4209 c0ba
000001d0: 300f 2cba 3a9e 70b7 2f43 1aba 96e7 02b2
000001e0: 124c 48ba 5ba9 b0ba a36d 2eba c520 fa35
000001f0: 0a31 6c37 eacc d0b9 9b2a 88b9 40ff d3ba
00000200: 7b03 1c39 07e5 afb8 e7f8 9837 0769 21b6
00000210: 2997 33b9 3c02 8e38 4c45 3936 3650 80b8
00000220: e8e8 fb37 8943 133a c0cf a836 f605 04b8
00000230: 9c38 2538 f6b8 3aba 66c1 9839 056a 8937
00000240: f8af b138 0585 b239 bdb7 ca35 3423 f039
00000250: 7a89 dd39 c8ef f02d 52df 1eb9 2491 2231
00000260: 55f3 0739 2075 1f3a 3785 4638 4571 fdb5
00000270: bec4 57b8 b86f f3b7 ed43 0f39 d520 ef39
00000280: 2564 92b9 922b 143a b84b 34ba feff 8bba
00000290: a33e de39 bd48 36ba 3fff 09ba e650 7eb9
000002a0: e764 32ba d74e a3ba 04e4 3b2f 9d67 0cba
000002b0: 07ec 16ba 1700 833a d80c beba 38f3 5937
000002c0: 916a 87ba 8173 a6ba 7798 31b7 b3d3 f7ba
000002d0: 0acd 59ba 8d32 2d36 2f1d 83ba 398a 9b35
000002e0: 61aa c3ba 1977 f3ba 55da 4dba 33cd 05b3
000002f0: 235c d3b6 223a 08ba 7a14 62ba a185 25bb
00000300: e7fc 1839 d4f4 87b7 52e9 88b7 b64d 00b7
00000310: ee04 0b36 ccba 1bb8 cfa5 0339 b105 c037
00000320: 83e7 7b38 8de1 0e3a 6d60 0336 952c 3b36
00000330: f724 34b7 e28e 29ba 7175 6c39 ba64 1cb6
00000340: 9933 1938 81d3 e239 9bdb f3b6 d661 c439
00000350: 9e77 0c3a 85d8 87b6 92e1 1eb9 506e 0fb6
00000360: 9ebc 9c39 6c42 033a 1215 3f38 5262 a336
00000370: 980b 18b8 e154 73b7 500c dc38 8020 1c3a
00000380: 8d12 b736 bc22 e6aa ea3d 3336 2e27 9535
00000390: faf5 1236 9ebe bcb6 eb7a 6136 0c1f 7ab6
000003a0: ad6b 9036 7e0e 52ad 3bd5 8bb6 3308 862f
000003b0: 9c1f 7930 812c 91b6 a051 9d30 de40 8f2f
000003c0: af0d 3d36 1099 b631 9d5e 8035 6fee d8af
000003d0: 972a 22ae 5952 96b0 5543 c9b5 f8fc 67b6
000003e0: c8d3 de31 f571 a0b6 5022 5db4 091d 77ae
000003f0: 2041 ccb5 c22c 82b3 819a 2d30 d226 652f
