checkpoints/ablation_eps_0.05/ablation_eps_0.05_epoch0010.pt (torch, 38459 bytes, 24 tensors)

0.weight f4 [32, 2]
0.57922506 0.6007219 -0.15932399 0.6990818 -0.12485597 0.21442316 -0.38614357 0.4523309
0.593398 -0.4765982 0.6229953 0.2016496 0.49094722 0.028037108 0.33055952 -0.12117897
0.55338013 0.15765202 -0.25350723 0.10676548 -0.24923837 -0.019313654 -0.3361497 0.5298248
-0.62212735 -0.42054382 -0.19457372 -0.47582963 0.055435084 -0.7454124 0.60026664 -0.6339651
0.5362361 0.07269249 -0.28108588 0.49995264 0.12014549 0.6365556 0.14068037 -0.29462552
0.14736414 -0.25245306 0.28533092 0.6269204 0.34930995 -0.3651677 0.41629004 0.073852204
0.34581232 -0.41830328 -0.7003281 -0.32997638 -0.50506043 0.64333105 0.1920074 0.25819492
0.24400173 0.04391091 0.5063414 -0.57481873 0.09681677 -0.5651638 0.28833163 -0.30866164
00000000: 1848 143f e9c8 193f d425 23be 06f7 323f
00000010: 7db4 ffbd bf91 5b3e 9cb4 c5be ea97 e73e
00000020: eee8 173f ae04 f4be 9f7c 1f3f 3c7d 4e3e
00000030: 6f5d fb3e 14ae e53c 193f a93e ae2c f8bd
00000040: 52aa 0d3f 886f 213e b3cb 81be dca7 da3d
00000050: 5838 7fbe ab37 9ebc d01b acbe 99a2 073f
00000060: bd43 1fbf 8551 d7be 553e 47be f19f f3be
00000070: e60f 633d 59d3 3ebf 13ab 193f 894b 22bf
00000080: c546 093f cddf 943d 7dea 8fbe cbf9 ff3e
00000090: d70e f63d 4ff5 223f 840e 103e 28d9 96be
000000a0: a0e6 163e 8741 81be e516 923e db7d 203f
000000b0: c1d8 b23e 43f7 babe f823 d53e d33f 973d
000000c0: 500e b13e d92b d6be b448 33bf aaf2 a8be
000000d0: a44b 01bf 58b1 243f 969d 443e 2032 843e
000000e0: 97db 793e eddb 333d 979f 013f 5227 13bf
000000f0: df47 c63d 93ae 10bf 34a0 933e e608 9ebe

0.bias f4 [32]
0.24362384 -0.08413927 0.61532795 -0.38228288 -0.45608878 -0.3952885 0.6797825 0.24656355
0.7003681 -0.5054798 -0.62297326 -0.49167833 -0.39259127 0.32096335 0.26618385 0.57116467
-0.37538788 -0.42442578 0.41672245 -0.21869221 0.4129821 -0.17525259 0.40154928 -0.50127655
-0.3639932 0.22829609 0.1775174 -0.20360176 0.41858718 0.51639974 -0.43314418 -0.31315824
00000000: 8778 793e 3651 acbd 2286 1d3f 95ba c3be
00000010: 7884 e9be 4163 cabe 3a06 2e3f 287b 7c3e
00000020: 534b 333f 2067 01bf 2d7b 1fbf 43bd fbbe
00000030: b901 c9be 4f55 a43e 4049 883e d937 123f
00000040: d732 c0be 564e d9be a55c d53e daf0 5fbe
00000050: 6472 d33e 6a75 33be de97 cd3e a953 00bf
00000060: 515d babe 73c6 693e 1fc7 353e fb7c 50be
00000070: 0f51 d63e c632 043f 13c5 ddbe 4756 a0be

2.weight f4 [32, 32]
0.08923524 -0.0043905703 -0.0059395833 -0.09796911 -0.034047004 -0.0005781907 -0.00037414386 -0.057961117
-8.972736e-06 -0.051113587 -0.078016676 -0.03078538 -0.08247474 -0.043828912 0.10337925 -0.00048109895
0.0021236008 -0.09209173 -0.0469599 -0.004002268 0.00021360525 -0.08325965 -0.014394641 -0.037969574
-8.8234583e-07 -0.0076837656 -9.0211324e-05 -0.05024911 -0.051639937 -0.03565761 -0.0048160385 -0.06826736
0.15523848 -0.012208667 0.17752092 0.073796585 -0.07745319 0.04780198 -0.03369674 -0.07179676
-0.13019255 -0.10245726 0.00079151307 -0.024833942 0.010879949 -0.1539414 0.06060933 -0.12979944
-0.06526189 0.04850607 0.11167054 0.071228184 0.17598313 -0.13859746 0.037283022 -0.014302252
-3.1056064e-05 -0.11118685 0.18779722 -0.1565635 0.11243823 0.05474466 0.003360441 -0.029320946
0.18893021 0.06740004 0.03890068 -0.10487647 0.03043234 0.00027501557 -0.06374081 0.16098984
0.05873112 -0.031169686 -0.02438581 0.041007753 0.022684742 -0.085089214 -0.1506141 -0.0637329
-0.112879254 0.10195825 0.18121952 -0.15774819 0.03568795 0.14105207 0.031729203 -0.07580068
0.03665586 0.06120034 0.08546078 0.030878965 -0.032835566 0.0147600565 -0.03265585 -0.12268662
0.12666029 0.15606375 -0.022746088 -0.020625988 5.8540627e-07 0.044418935 0.046275824 0.0813483
-0.15488675 -0.00736964 0.076977685 0.10139896 0.04479829 -0.089715995 -0.039977062 -0.10834679
-0.0063284454 0.09037513 0.114864826 0.0183346 -0.16180848 -0.078352965 0.004390601 0.09792775
0.00036033866 -0.051635355 0.06924244 -0.01283983 -0.112639934 0.1395873 -0.017419739 0.00069306756
-0.11182485 0.17739072 0.17758471 0.11351161 -0.0533726 -0.10510884 -0.08666291 0.16392861
0.14216836 0.07687415 0.02689914 0.09583033 -0.0495891 -0.15368126 -0.17013417 -0.14789267
0.024350926 -0.02493008 0.023857033 -0.034471266 -0.010794031 -0.058784474 -0.102152735 0.0039069895
-0.0014175497 0.099055 -0.008205984 -0.057800703 0.022315694 -0.07618156 -0.0019740406 -0.09533989
0.15123904 -0.06390541 0.13396536 0.12742443 0.07971009 -0.09082351 0.1658964 -0.05122586
0.10607458 0.09317245 -0.00038129132 0.06677611 0.025171062 -0.12740527 0.06291802 -0.15318395
0.13992783 0.19556798 0.22302452 -0.050591487 -0.118374184 0.112993464 0.12062741 -0.14282802
-0.08483293 -0.0865265 0.025145086 -0.004115769 -0.032843284 -0.03481493 -0.12075529 0.05473473
0.10418078 -0.08244667 -0.038598705 -0.14092232 -0.11015708 -0.20445491 0.056924377 -0.08779223
-0.12528077 8.902472e-05 -0.0040152534 -0.13477685 0.092212096 0.013930285 -0.010060391 -0.057193793
-0.16617253 0.06966819 -0.123257965 0.13095064 -0.033363387 -0.044307232 0.18979578 0.08861443
-0.09960136 0.12066937 0.1264472 -0.014174556 0.11776787 0.20242175 0.054058164 0.119817585
-0.09559889 0.0010706641 0.14990197 0.15396497 -0.0432154 -0.065897435 -0.09329252 -0.11440434
-0.10700135 0.0006320075 0.049813367 0.10568931 -0.18699941 -0.15496497 0.042972535 -0.08257647
-0.000283807 0.15876468 -0.04633484 -1.9778126e-05 -0.019486759 -0.00049502356 -0.046843484 -0.08518181
-0.07140044 -0.097815484 0.19807543 -0.01755077 -0.0977619 0.08874253 0.00028493983 0.030381586
00000000: f7c0 b63d c6de 8fbb d6a0 c2bb 07a4 c8bd
00000010: df74 0bbd b991 17ba bd28 c4b9 a368 6dbd
00000020: 9c89 16b7 7b5c 51bd 35c7 9fbd 9f31 fcbc
00000030: 84e8 a8bd f285 33bd 80b8 d33d 023c fcb9
00000040: 1c2c 0b3b 979a bcbd 0659 40bd 7525 83bb
00000050: 39fb 5f39 0984 aabd 80d7 6bbc fc85 1bbd
00000060: 58da 6cb5 19c8 fbbb d62f bdb8 03d2 4dbd
00000070: 6684 53bd b70d 12bd dccf 9dbb c2cf 8bbd
00000080: d6f6 1e3e dc06 48bc 0bc8 353e aa22 973d
00000090: c79f 9ebd 02cc 433d 9805 0abd 2e0a 93bd
000000a0: 3251 05be 1dd5 d1bd 8b7d 4f3a 8d70 cbbc
000000b0: d041 323c d0a2 1dbe 7d41 783d 25ea 04be
000000c0: 07a8 85bd 4dae 463d 86b3 e43d 15e0 913d
000000d0: ec34 343e 7eec 0dbe 15b6 183d fe53 6abc
000000e0: 3242 02b8 eeb5 e3bd ea4d 403e 2f52 20be
000000f0: 0446 e63d f03b 603d d83a 5c3b 7b32 f0bc
00000100: ec76 413e 0809 8a3d 5256 1f3d 7ac9 d6bd
00000110: 3e4d f93c f72f 9039 8b8a 82bd 85da 243e
00000120: 0b90 703d 9257 ffbc c0c4 c7bc bff7 273d
00000130: 5ad5 b93c 4143 aebd 953a 1abe 6586 82bd
00000140: 3d2d e7bd 7dcf d03d 9c91 393e be88 21be
00000150: 872d 123d f46f 103e 7bf6 013d 633d 9bbd
00000160: 7424 163d 35ad 7a3d 1006 af3d e2f5 fc3c
00000170: 967e 06bd 2ad4 713c 24c2 05bd 1f43 fbbd
00000180: 3cb3 013e 2dcf 1f3e 0156 babc d5f7 a8bc
00000190: d024 1d35 a1f0 353d b88b 3d3d f099 a63d
000001a0: a29a 1ebe 057d f1bb 7aa6 9d3d 42aa cf3d
000001b0: 697e 373d 05bd b7bd fdbe 23bd ece4 ddbd
000001c0: d95e cfbb 9916 b93d 403e eb3d 7132 963c
000001d0: 1fb1 25be 8577 a0bd 08df 8f3b 588e c83d
000001e0: d6eb bc39 987f 53bd fbce 8d3d 265e 52bc
000001f0: c4af e6bd f9ef 0e3e d7b3 8ebc faae 353a
00000200: 6d04 e5bd eaa5 353e c4d8 353e c678 e83d
00000210: 3a9d 5abd 4e43 d7bd 537c b1bd e7dc 273e
00000220: 9594 113e 3270 9d3d 965b dc3c b142 c43d
00000230: f11d 4bbd 9f5e 1dbe a737 2ebe 2d71 17be
00000240: 987b c73c 2b3a ccbc d36f c33c be31 0dbd
00000250: 73d9 30bc fdc7 70bd 7435 d1bd 3406 803b
00000260: 13cd b9ba 59dd ca3d 6472 06bc 6ec0 6cbd
00000270: 67cf b63c 1405 9cbd e85e 01bb 8f41 c3bd
00000280: 68de 1a3e d7e0 82bd 372e 093e 8d7b 023e
00000290: 0b3f a33d ad01 babd bfe0 293e 35d2 51bd
000002a0: a13d d93d 33d1 be3d 0ee8 c7b9 eac1 883d
000002b0: 8b33 ce3c 8776 02be 2adb 803d 41dc 1cbe
000002c0: 3e49 0f3e f942 483e 8a60 643e 0539 4fbd
000002d0: 2a6e f2bd 1e69 e73d 810b f73d 8241 12be
000002e0: e3bc adbd ce34 b1bd 11fd cd3c 93dd 86bb
000002f0: ae86 06bd 1a9a 0ebd 8d4e f7bd 8631 603d
00000300: bc5c d53d cdd9 a8bd ad19 1ebd f14d 10be
00000310: 099a e1bd a15c 51be 8929 693d 6acc b3bd
00000320: 9a49 00be c8b2 ba38 6392 83bb f102 0abe
00000330: b2d9 bc3d da3b 643c 57d4 24bc 0a44 6abd
00000340: 2229 2abe 32ae 8e3d ac6e fcbd ed17 063e
00000350: 0ca8 08bd 807b 35bd d359 423e 7b7b b53d
00000360: ccfb cbbd 8121 f73d 607b 013e 663c 68bc
00000370: 4830 f13d a647 4f3e 186c 5d3d ec62 f53d
00000380: 5ac9 c3bd 8755 8c3a e77f 193e fea8 1d3e
00000390: a202 31bd 3cf5 86bd 2610 bfbd d34c eabd
000003a0: 8623 dbbd 4ead 253a 1a09 4c3d a373 d83d
000003b0: c67c 3fbe 23af 1ebe f803 303d da1d a9bd
000003c0: eecb 94b9 3593 223e 9ac9 3dbd 34e9 a5b7
000003d0: b2a2 9fbc 78c4 01ba f4de 3fbd cd73 aebd
000003e0: 653a 92bd 7c53 c8bd 49d4 4a3e a2c6 8fbc
000003f0: 6437 c8bd a5be b53d fa63 9539 cee2 f83c

2.bias f4 [32]
-0.025092633 -0.119091146 0.0136268 -0.109249584 0.18529928 -0.12974826 0.084846154 0.19107784
0.107986756 0.09428784 -0.097050264 0.18961595 -0.0055570477 -0.17309438 0.19051588 -0.09622162
0.024615293 0.17516676 -0.14260837 -0.06749827 0.038756616 -0.054778323 0.045739688 -0.076410554
0.025614632 -0.042894308 -0.0848558 -0.12556383 0.058842823 0.066559166 -0.10546272 0.15329821
00000000: 118f cdbc 0fe6 f3bd f142 5f3c 3fbe dfbd
00000010: 18bf 3d3e badc 04be d2c3 ad3d e9a9 433e
00000020: 2928 dd3d fc19 c13d 4ac2 c6bd af2a 423e
00000030: e517 b6bb a73f 31be 9816 433e d70f c5bd
00000040: 03a6 c93c ea5e 333e ee07 12be 883c 8abd
00000050: 42bf 1e3d 3c5f 60bd 8a59 3b3d 237d 9cbd
00000060: c7d5 d13c f1b1 2fbd e1c8 adbd ce93 00be
00000070: 2c05 713d 2c50 883d d7fc d7bd 35fa 1c3e

4.weight f4 [32, 32]
0.0016923943 0.083781116 -0.041425228 0.10563673 0.20215152 0.1894625 -0.12015872 0.20544395
0.073013715 0.14411765 0.06620467 0.12670374 -0.15440753 0.1210486 -0.12047997 -0.005985789
-0.053105257 0.01203113 0.013197129 0.049981184 -0.02765271 0.040288743 0.21222016 0.035297785
0.093126535 0.11079528 0.20174816 0.00010325999 0.03382085 0.101638354 -0.19811003 -0.1591727
0.0002760832 -0.012456104 0.06400832 0.043992594 0.061308876 0.18563528 -0.050459858 0.18576038
0.20185263 -0.06558003 -0.06547794 -0.17527388 -0.1278573 -0.11397457 -0.031684794 -0.068400025
-0.015045708 0.0013127407 -0.035715673 0.24670827 -0.06674112 -0.08914325 0.099293575 -0.00010406217
0.11040438 0.14595358 0.2210181 -0.059005056 0.13026127 0.21626376 -0.14187719 0.13275163
0.061802633 -0.0094734365 0.066568546 -0.06304303 -0.10017937 0.024269365 0.034519333 -0.09119429
0.06593303 -0.13820091 0.08004695 0.14460956 0.026124798 -0.07739038 0.06451924 -6.955965e-05
0.02911167 0.038781974 0.112907656 -0.09071165 0.00090735627 0.033834044 0.0005372617 0.071074724
-0.1073326 -0.02302516 -0.00043869414 0.000116232106 0.10094492 0.0010258822 -0.0906722 -0.0318763
-0.01727111 0.06528506 0.037697934 -0.100368075 0.00067885534 0.04940603 -0.02990462 0.20559609
0.017554268 0.17788379 -0.00062335643 -0.16370875 0.027266989 0.10465123 -0.117035076 -0.13543999
0.23982576 0.19249757 -0.07724795 0.17600799 -0.02036876 -0.14670432 0.048494175 0.0032145793
-0.056399405 0.10067729 -0.08491954 0.052693576 0.16937506 0.16023222 -0.004544047 0.04743882
-0.057584517 -0.008831625 -0.069380336 -0.033740997 -0.0845088 0.06324078 0.15848862 -0.11440245
0.034715034 0.0370124 0.09499853 0.15003633 0.2035856 -0.007770162 0.16035493 0.16647567
-0.22612517 -0.16118747 0.016417325 0.039977256 -0.05749905 4.2456715e-05 0.03543798 -0.00049901934
-0.043213505 0.0786824 0.056588706 -0.052876607 0.016571438 -0.034870584 0.12085602 0.2116809
0.001185046 -0.021614866 0.21556106 0.01872336 -0.007872293 0.07053536 -0.12863569 0.05197897
-0.08334197 0.074171886 -0.0002006899 0.021786653 -0.1487075 -0.17175287 0.081195146 0.13064066
-0.094091125 0.10603579 -0.11135463 0.07380429 0.1538828 0.0632608 -0.11850352 0.041017227
0.08273061 0.038551107 0.15888283 -0.010397417 -0.023263771 -0.040703077 -0.0026860936 0.041224293
-0.00012135136 -0.06826666 -0.13318269 0.0046268585 -0.11715738 -0.08675843 0.040443767 -0.04377335
0.059809778 -0.022728873 0.05413773 0.03915093 -0.06572793 0.17097394 0.06680649 -0.02406201
-0.1401805 0.027379304 -0.11963838 -0.008367731 0.115025945 -0.08280608 -0.07160041 -0.0568409
0.20361899 0.14067027 -0.025667781 0.09312064 -0.0270575 -0.19456449 0.129266 0.11241601
0.10012788 1.6690112e-06 0.06452704 0.040154886 0.05762011 -0.10214794 0.07388965 -0.07868971
0.0860295 5.46318e-05 -0.08430998 0.0003968764 0.00073809084 -0.08631072 -0.0067174537 -9.6883974e-05
0.06655936 -0.0020740097 0.037255228 0.0003121973 7.382066e-05 -0.0005310606 -0.04688061 -0.07516852
-0.0025483856 -0.09195228 -0.01894932 -0.000103505125 -0.047248177 -0.012442577 0.00028042626 -0.00014598663
00000000: 54d3 dd3a 6f95 ab3d 80ad 29bd 1258 d83d
00000010: cf00 4f3e 7502 423e c615 f6bd e65f 523e
00000020: 3788 953d 9493 133e 5096 873d a0be 013e
00000030: 021d 1ebe 54e8 f73d 34be f6bd 7024 c4bb
00000040: e684 59bd 371e 453c c538 583c 12b9 4c3d
00000050: f087 e2bc cf05 253d 3e50 593e 6994 103d
00000060: 20b9 be3d a3e8 e23d 1297 4e3e 498d d838
00000070: bb87 0a3d c527 d03d 5bdd 4abe 2bfe 22be
00000080: 43bf 9039 b014 4cbc cb16 833d 9431 343d
00000090: 041f 7b3d 2d17 3e3e ffae 4ebd f837 3e3e
000000a0: 75b2 4e3e d34e 86bd 4c19 86bd ff7a 33be
000000b0: 06ed 02be 806b e9bd eac7 01bd 5015 8cbd
000000c0: 4682 76bc 4510 ac3a 994a 12bd 18a1 7c3e
000000d0: 91af 88bd bc90 b6bd 6e5a cb3d f43b dab8
000000e0: b11b e23d db74 153e 9252 623e 49af 71bd
000000f0: 3663 053e 3f74 5d3e 4148 11be 0bf0 073e
00000100: c224 7d3d 7936 1bbc 1755 883d b41c 81bd
00000110: d72a cdbd 8cd0 c63c 2564 0d3d 12c4 babd
00000120: e507 873d 8a84 0dbe a8ef a33d 8714 143e
00000130: ac03 d63c d97e 9ebd aa22 843d 8de0 91b8
00000140: 997b ee3c d9d9 1e3d 213c e73d 08c7 b9bd
00000150: a6db 6d3a 9195 0a3d 06d7 0c3a a08f 913d
00000160: 32d1 dbbd 439f bcbc 8800 e6b9 a3c1 f338
00000170: 36bc ce3d e576 863a 59b2 b9bd b990 02bd
00000180: 257c 8dbc 2cb4 853d 2669 1a3d c78d cdbd
00000190: 36f5 313a fa5d 4a3d 89fa f4bc c887 523e
000001a0: f8cd 8f3c 2b27 363e be68 23ba 44a3 27be
000001b0: 055f df3c 6253 d63d 16b0 efbd c8b0 0abe
000001c0: e294 753e 151e 453e 2c34 9ebd 703b 343e
000001d0: 63dc a6bc a839 16be d4a1 463d b1ab 523b
000001e0: 1003 67bd e52f ce3d 4cea adbd 38d5 573d
000001f0: a870 2d3e ea13 243e 3be6 94bb 354f 423d
00000200: bedd 6bbd 85b2 10bc 4717 8ebd 0034 0abd
00000210: f312 adbd 6284 813d d74a 223e d54b eabd
00000220: 5a31 0e3d 509a 173d 978e c23d 20a3 193e
00000230: be78 503e d89c febb 1534 243e 9978 2a3e
00000240: 5b8d 67be 540e 25be a07d 863c 31bf 233d
00000250: 2084 6bbd 8d13 3238 6a27 113d 9fd0 02ba
00000260: a500 31bd 3d24 a13d 8fc9 673d 2495 58bd
00000270: d3c0 873c 75d4 0ebd 5c83 f73d e1c2 583e
00000280: 8c53 9b3a a911 b1bc 0abc 5c3e bb61 993c
00000290: cafa 00bc d874 903d 13b9 03be e7e7 543d
000002a0: 32af aabd 6ee7 973d 4970 52b9 ec79 b23c
000002b0: c746 18be fcdf 2fbe a449 a63d aac6 053e
000002c0: d9b2 c0bd 4b29 d93d e50d e4bd b426 973d
000002d0: 7493 1d3e e18e 813d f9b1 f2bd ae01 283d
000002e0: ab6e a93d c4e7 1d3d 2eb2 223e ed59 2abc
000002f0: aa93 bebc 45b8 26bd 2c09 30bb ceda 283d
00000300: 047e feb8 64cf 8bbd 0b61 08be e79c 973b
00000310: 35f0 efbd 67ae b1bd 5da8 253d af4b 33bd
00000320: 19fb 743d e731 babc 86bf 5d3d ba5c 203d
00000330: 5d9c 86bd cb13 2f3e d7d1 883d b11d c5bc
00000340: 7a8b 0fbe 904a e03c f804 f5bd cf18 09bc
00000350: b992 eb3d 3c96 a9bd 3ca3 92bd 01d2 68bd
00000360: 7f81 503e de0b 103e 3d45 d2bc 09b6 be3d
00000370: b1a7 ddbc ea3b 47be 4e5e 043e 5d3a e63d
00000380: d90f cd3d ca02 e035 c126 843d 7379 243d
00000390: 1103 6c3d f032 d1bd 7553 973d 1228 a1bd
000003a0: 3c30 b03d 7324 6538 b6aa acbd d913 d039
000003b0: 707c 413a adc3 b0bd 161e dcbb 302e cbb8
000003c0: 4650 883d 1cec 07bb f098 183d 6aae a339
000003d0: 2ad0 9a38 e036 0bba e205 40bd f4f1 99bd
000003e0: d102 27bb 7a51 bcbd 9b3b 9bbc e410 d9b8
000003f0: 4e87 41bd f3db 4bbc 2d06 9339 fd13 19b9

4.bias f4 [32]
0.10653358 0.06295333 -0.08498715 0.12927991 -0.02691447 0.00020451352 -0.033368163 -0.09476333
0.038991172 0.060916454 -0.024013538 0.11419409 -0.08612048 -0.09735884 -0.06039941 -0.023220507
-0.00400819 -0.028477075 0.06898031 -0.08287693 0.010117689 -0.00045316637 0.08045666 0.1692306
0.10815693 -0.031232692 -0.07322867 -0.052205157 -0.023754485 0.07878102 0.0035727306 0.16564092
00000000: 472e da3d aded 803d be0d aebd f461 043e
00000010: bc7b dcbc ae72 5639 0ead 08bd 4713 c2bd
00000020: 35b5 1f3d 8883 793d 0ab8 c4bc 97de e93d
00000030: ef5f b0bd 1264 c7bd 5f65 77bd ef38 bebc
00000040: 2257 83bb c148 e9bc 8c45 8d3d 61bb a9bd
00000050: aac4 253c f696 edb9 76c6 a43d c94a 2d3e
00000060: 6181 dd3d b4db ffbc eaf8 95bd 13d5 55bd
00000070: c498 c2bc f257 a13d 7924 6a3b c69d 293e

6.weight f4 [2, 32]
0.12780128 0.020193174 0.020064885 0.09728507 -0.06907163 0.1465807 -0.20285518 0.0217883
-0.14008313 -0.16113752 0.0007611771 0.1350388 0.054857235 -0.0005519568 -0.057249375 -0.0751109
-0.012011168 0.025395894 -0.026212484 0.078442395 0.087987356 -0.16614592 -0.057720885 -0.115385674
-0.011129721 -0.06916723 -0.0003051145 -0.17312762 0.10128362 0.082081884 -0.1405418 -0.21041536
-0.051502477 -0.10201316 0.037541863 -0.17458643 0.11946558 -0.15660594 -0.028521864 -0.027161617
0.11296856 0.0021979976 -0.09686176 -0.14984973 -0.018476775 -0.09127642 0.06328679 0.1281775
-0.0015662865 -0.11151212 0.012933574 -0.069087416 -0.091980785 0.020744335 0.21532992 -0.047547545
0.0706172 -0.0099901045 9.4212315e-05 -0.122266084 0.07471997 0.22315167 0.015218108 0.15633143
00000000: 57de 023e 286c a53c 1d5f a43c 653d c73d
00000010: 6d75 8dbd 4019 163e 45b9 4fbe 607d b23c
00000020: f471 0fbe 3c01 25be bb89 473a 9c47 0a3e
00000030: fbb1 603d 32b1 10ba 527e 6abd bed3 99bd
00000040: 7dca 44bc 0d0b d03c 90bb d6bc 68a6 a03d
00000050: b732 b43d 2822 2abe bc6c 6cbd 534f ecbd
00000060: 6f59 36bc 8ca7 8dbd c6f7 9fb9 5e48 31be
00000070: c96d cf3d 8c1a a83d 31ea 0fbe 2077 57be
00000080: 43f4 52bd 47ec d0bd 7fc5 193d c9c6 32be
00000090: 5faa f43d 4f5d 20be afa6 e9bc 0a82 debc
000000a0: 0f5c e73d 480c 103b 755f c6bd 3572 19be
000000b0: 9b5c 97bc 22ef babd 819c 813d f640 033e
000000c0: db4b cdba 7760 e4bd 57e7 533c b47d 8dbd
000000d0: 6c60 bcbd 06f0 a93c 727f 5c3e 37c1 42bd
000000e0: c09f 903d 89ad 23bc da93 c538 a466 fabd
000000f0: c906 993d df81 643e 5f55 793c 5915 203e

6.bias f4 [2]
0.14986362 0.08250572
00000000: d975 193e c2f8 a83d

exp_avg f4 [32, 2]
0.00041280466 -0.00041988166 0.000905353 -0.00026007876 0.0011142214 -0.0010512933 0.00065340044 3.3071956e-05
-8.311426e-05 -7.4576594e-05 0.0013256675 -0.00063379004 0.0007129965 0.0009178556 -0.00016810367 0.00041887886
0.0009847354 -0.00081487326 -2.6253796e-05 1.1499629e-05 -2.5825768e-05 -2.4919823e-06 0.00080630346 -0.000343884
0.00070973614 0.0023984008 -0.0022808244 0.0010096355 -0.0014499059 0.0018184958 -0.00030475936 0.0013843869
-0.00014336429 -7.441591e-06 0.00051888695 -0.0012898152 0.0033980254 -0.0011238003 -0.0004807416 0.0005364377
-0.0006918337 0.0011386778 0.00027449674 -0.00030610015 0.0010643582 0.0010989242 -0.0009910587 6.6659064e-05
-0.0011905952 1.1730585e-06 8.3019164e-05 0.00031352666 0.00029363704 -0.000607786 0.00025571507 0.00015637312
0.00027302856 -0.0007166085 0.0007961991 0.0016692866 0.00020699824 0.003180623 -0.0020667892 0.0004574018
00000000: b46d d839 9023 dcb9 3655 6d3a 2e5b 88b9
00000010: 110b 923a 8dcb 89ba f648 2b3a beb6 0a38
00000020: a14d aeb8 0166 9cb8 05c2 ad3a ee24 26ba
00000030: 63e8 3a3a 3f9c 703a fc44 30b9 f89c db39
00000040: 3d12 813a 389d 55ba 993b dcb7 88ee 4037
00000050: 6aa4 d8b7 ee3b 27b6 1c5e 533a 544b b4b9
00000060: 960d 3a3a 7d2e 1d3b e279 15bb bf55 843a
00000070: c50a beba 985a ee3a 1cc8 9fb9 5174 b53a
00000080: 0f54 16b9 c8b2 f9b6 ea05 083a 040f a9ba
00000090: 68b1 5e3b 7b4c 93ba 0c0c fcb9 ba9f 0c3a
000000a0: 2c5c 35ba b03f 953a 54ea 8f39 117c a0b9
000000b0: ef81 8b3a c709 903a 69e6 81ba 50cb 8b38
000000c0: bf0d 9cba fc71 9d35 931a ae38 d660 a439
000000d0: 4cf3 9939 d453 1fba 7f11 8639 17f8 2339
000000e0: 4625 8f39 c8da 3bba 04b8 503a f7cb da3a
000000f0: ab0d 5939 0072 503b f872 07bb 6ecf ef39

exp_avg_sq f4 [32, 2]
7.738038e-07 4.0875463e-07 3.2419246e-07 1.2443058e-07 1.1835363e-06 3.8281e-07 1.23312e-07 6.954223e-08
8.643855e-08 1.5098598e-07 4.1203413e-07 9.853439e-08 4.6650405e-07 4.2688677e-07 1.3788407e-07 2.1712627e-07
1.2796455e-06 5.954535e-07 6.552419e-11 1.586343e-11 6.3611665e-11 1.996704e-12 2.1127484e-07 2.7782457e-07
5.204907e-07 3.7616476e-07 3.529574e-06 7.5955376e-07 2.4094443e-06 6.2037986e-07 1.0423063e-06 4.5207088e-07
2.997276e-08 1.1124033e-08 2.557903e-07 4.5258142e-07 4.8040356e-06 1.0730532e-06 2.1477656e-07 1.2975971e-07
1.5544084e-06 8.525008e-07 1.18626986e-07 1.423357e-07 1.1887349e-06 1.0518785e-06 6.0338685e-08 9.690954e-10
2.0396797e-07 1.3095503e-07 1.9413264e-07 2.137887e-07 1.6953427e-06 7.5905825e-07 6.58477e-08 8.114789e-08
1.9637145e-07 1.6895112e-07 1.1310706e-06 7.285919e-07 2.1158706e-07 8.728884e-07 5.203666e-07 3.293546e-07
00000000: 64b7 4f35 cf72 db34 ac0c ae34 389b 0534
00000010: ffd9 9e35 0185 cd34 bf67 0434 3f57 9533
00000020: 18a0 b933 b61e 2234 8a35 dd34 db99 d333
00000030: d473 fa34 df2e e534 490d 1434 3723 6934
00000040: 49c0 ab35 41d7 1f35 d716 902e 4589 8b2d
00000050: 2fe2 8b2e 6c81 0c2c c9da 6234 eb27 9534
00000060: d9b7 0b35 b1f3 c934 9fdd 6c36 23e4 4b35
00000070: f0b1 2136 2e88 2635 5fe5 8b35 26b4 f234
00000080: 66bb 0033 041c 3f32 8d53 8934 51fa f234
00000090: 5a32 a136 d405 9035 559d 6634 1454 0b34
000000a0: 11a1 d035 69d7 6435 e0bf fe33 f0d4 1834
000000b0: 9f8c 9f35 452e 8d35 8b93 8133 0331 8530
000000c0: 4a02 5b34 a59c 0c34 c672 5034 ca8d 6534
000000d0: 888b e335 16c2 4b35 2868 8d33 8643 ae33
000000e0: 2cda 5234 ee68 3534 4acf 9735 7494 4335
000000f0: 9c30 6334 6f50 6a35 52af 0b35 27d2 b034

exp_avg f4 [32]
0.0021909857 -0.0012595472 -0.00040554375 8.2935785e-06 0.00029373742 0.00085017784 -5.442654e-05 0.00049754156
0.0006390939 -5.148447e-05 -6.323936e-05 -0.00015665342 -0.00096951425 -0.00063566776 0.00026400512 -1.0517351e-06
-8.636157e-05 -0.00073520816 -0.0004842979 -3.660806e-05 -5.303569e-05 0.0005379609 -0.00044841834 -0.00079882954
-0.00016134737 0.00029134296 -0.00037458274 0.0004167174 1.7933475e-05 -0.0012030398 -0.0024736037 -0.00069268554
00000000: a496 0f3b 6417 a5ba 299f d4b9 a624 0b37
00000010: c500 9a39 78de 5e3a 0d48 64b8 736d 023a
00000020: de88 273a 07f1 57b8 5f9f 84b8 5543 24b9
00000030: 0027 7eba f1a2 26ba 2b6a 8a39 5829 8db5
00000040: 041d b5b8 fcba 40ba 5de9 fdb9 9b8b 19b8
00000050: a372 5eb8 f205 0d3a b119 ebb9 8b68 51ba
00000060: 5b2f 29b9 64bf 9839 a563 c4b9 dd7a da39
00000070: d86f 9637 51af 9dba 2f1c 22bb 5795 35ba

exp_avg_sq f4 [32]
1.1316035e-06 6.402439e-07 6.7016776e-07 1.5464543e-07 1.791285e-07 3.8345794e-07 5.4216116e-07 3.3506316e-07
1.0060795e-06 2.2807828e-10 3.372681e-10 3.687458e-07 7.164413e-07 2.2537702e-06 1.5736031e-06 8.113952e-07
3.0325445e-08 5.228234e-07 2.7565109e-06 2.5872706e-07 1.1282415e-06 2.8332295e-07 1.1064689e-06 3.5970526e-08
3.073662e-07 2.6126415e-07 2.025897e-06 1.1219508e-07 3.0803906e-07 9.927732e-07 8.5903696e-07 6.9685746e-07
00000000: 9ae1 9735 3add 2b35 94e5 3335 9d0c 2634
00000010: 7856 4034 0fde cd34 0889 1135 bbe2 b334
00000020: a108 8735 54c6 7a2f 446a b92f 09f8 c534
00000030: 7951 4035 7a3f 1736 9734 d335 a7ce 5935
00000040: 2e3f 0233 2758 0c35 7ffc 3836 2de7 8a34
00000050: 156e 9735 9c1b 9834 fb81 9435 037e 1a33
00000060: 1704 a534 df43 8c34 a5f4 0736 e6ef f033
00000070: 9160 a534 6d3f 8535 9298 6635 ae0f 3b35

exp_avg f4 [32, 32]
9.724379e-06 -7.8786945e-07 -9.78616e-07 -1.0609569e-05 -4.060256e-06 6.352893e-08 -1.6262888e-08 -6.536449e-06
-1.606773e-09 -5.832469e-06 -8.5846905e-06 -3.7173152e-06 -9.03799e-06 -5.079718e-06 1.1157148e-05 -7.825278e-08
4.927817e-07 -1.0014065e-05 -5.4038082e-06 -7.389314e-07 -3.0357175e-08 -9.1177435e-06 -1.9520187e-06 -4.4705043e-06
-9.3912815e-11 -1.1869423e-06 7.24253e-09 -5.7433667e-06 -5.886694e-06 -4.2289694e-06 -8.409246e-07 -7.5911043e-06
-0.00022301954 -0.00025711113 -0.000595477 2.6075537e-05 -9.219505e-06 0.00012552255 -0.0004400654 -2.3725037e-05
-0.00050572987 -1.1063869e-05 3.0239036e-07 8.995398e-05 5.9444224e-05 8.849168e-06 2.4337587e-05 -1.8562976e-05
6.240778e-05 8.182214e-05 -0.00056069385 7.893215e-06 -0.00017453839 -1.8433908e-05 -1.2633942e-05 -1.9417491e-06
-2.3332273e-08 -9.9524674e-05 -0.0005102882 7.511738e-05 -0.00028146303 2.9463479e-06 6.5679205e-07 -3.5627104e-06
0.0008229246 -0.0004283874 0.00019933289 -0.0004251491 0.00078257767 0.0004569697 0.0016551749 0.0010152714
0.0015679162 -3.7578184e-06 -3.0382284e-06 -0.00034052672 0.0004796277 0.00046104725 0.0014418226 0.0022992562
0.0004908844 -0.00031420766 -0.00038155733 7.7432895e-05 0.0012433687 -0.00050325977 0.0014537611 6.497375e-05
0.00040040305 0.00017870436 -0.00068548525 -0.00024053459 0.0009117276 0.002050464 1.3634426e-05 0.0003283785
-0.00019316739 -0.00017692888 4.013694e-05 -0.00015964605 -7.9651785e-10 -3.2863558e-05 5.4003878e-05 -6.473507e-05
-3.5316289e-06 -1.1498302e-06 8.478959e-06 -0.00018193458 -2.2245471e-05 -3.5537167e-05 -4.6796686e-06 -4.3863023e-05
-1.2067845e-06 -0.00016630252 -0.000113223155 2.3854511e-06 0.00010220543 -0.000278079 -2.1044636e-05 1.0605381e-05
-5.6239196e-09 -7.0505055e-05 -9.9651574e-05 -0.000129267 1.7721914e-05 -8.873676e-06 -2.2855204e-06 7.770084e-08
-0.00053367927 -0.0004943567 -0.00078489026 -0.00014176269 -6.065053e-06 -8.0486035e-07 -0.00075372367 -0.00012162502
-0.0008745277 8.468422e-06 3.3060549e-06 -6.034339e-05 0.00028408255 7.561005e-05 8.0195015e-05 -0.00023977218
5.816622e-06 -8.471452e-05 -0.0010140598 -4.104736e-06 -0.00018939273 -0.00025351168 -0.00014917918 7.268411e-07
-3.9431666e-07 0.000108509994 -0.0007565376 -1.892812e-05 -0.00046433083 -0.00018991207 -4.7228482e-07 -1.03432585e-05
0.00052194006 -0.00043714125 -0.00013503757 -0.00025473512 0.00078687415 0.00028171443 0.0013342978 0.0008014715
0.0013407337 1.0123618e-05 -1.4627428e-09 -0.00037324335 -9.6480784e-05 -0.00022790379 0.00062502624 0.0018264115
0.00038379064 -0.00034519148 -0.00021617688 0.00011036873 0.0007782947 -0.0005847643 0.0010911233 4.3665386e-05
0.00040347828 -0.00055053574 -0.00065377285 -0.00027891455 0.000675532 0.0015817387 1.042146e-05 0.00033584185
-0.0012720132 -0.00016247988 -0.00042149937 0.0001876927 -0.0010397278 -0.0003716702 -0.001203874 -0.0006609791
-0.0011553229 1.2114422e-08 -7.405767e-07 0.00014229794 -0.0010249639 -0.0006457713 -0.0014703729 -0.0016928437
-0.0004153792 0.0001315114 -0.00055718835 -0.00030047816 -0.0009605253 2.176405e-05 -0.0010252779 -4.2951626e-05
-0.00066545425 -0.0006295099 -0.00022992399 0.00012688428 -0.00069843355 -0.0014962256 -0.0005347115 -0.00050249015
0.00016116489 -8.284113e-05 -0.00017793024 -0.00056748075 -5.016104e-06 -2.7257376e-05 -0.000222153 -0.00029955906
-0.00028941163 -5.096779e-08 5.6984327e-06 -0.000614748 0.00036116625 -0.00030984706 8.1064616e-05 -0.00088516466
-2.488031e-08 -0.0005549692 -0.00029493205 -2.2892484e-08 -3.4672838e-05 -0.00024179585 -0.0005680737 -9.312976e-06
-7.91078e-06 -8.91709e-05 -0.0001938017 -0.00018443598 -0.000118490294 -0.00076888804 2.2301343e-07 3.674726e-06
00000000: e425 2337 fa7d 53b5 fd58 83b5 c0ff 31b7
00000010: 553d 88b6 666d 8833 78b2 8bb2 ab53 dbb6
00000020: 4dd5 dcb0 87b4 c3b6 f706 10b7 fd76 79b6
00000030: dfa1 17b7 7272 aab6 962f 3b37 ec0b a8b3
00000040: b347 0435 1502 28b7 5c52 b5b6 fb5a 46b5
00000050: 1162 02b3 69f8 18b7 6dff 02b6 5701 96b6
00000060: 3784 ceae 074f 9fb5 f8d9 f831 25b7 c0b6
00000070: 5186 c5b6 92e6 8db6 e6bb 61b5 17b7 feb6
00000080: 5ada 69b9 dfcc 86b9 c919 1cba cabc da37
00000090: 79ad 1ab7 b49e 0339 94b8 e6b9 2105 c7b7
000000a0: f592 04ba f59e 39b7 3758 a234 ada5 bc38
000000b0: c053 7938 e376 1437 9228 cc37 b0b7 9bb7
000000c0: ece0 8238 ed97 ab38 87fb 12ba 1a6d 0437
000000d0: 4b04 37b9 84a2 9ab7 5ef6 53b7 ff4e 02b6
000000e0: 366c c8b2 e7b7 d0b8 ddc4 05ba 5688 9d38
000000f0: 5491 93b9 dfb9 4536 684e 3035 e616 6fb6
00000100: 89b9 573a 2f99 e0b9 0404 5139 8ce6 deb9
00000110: e625 4d3a 6f95 ef39 74f2 d83a db12 853a
00000120: 8a82 cd3a d42e 7cb6 5ee4 4bb6 b988 b2b9
00000130: 8a76 fb39 b7b8 f139 8afb bc3a 1eaf 163b
00000140: b2ae 003a 3dbc a4b9 c20b c8b9 7863 a238
00000150: 88f8 a23a 31ed 03ba 218c be3a 8442 8838
00000160: 30ed d139 9662 3b39 23b2 33ba 0338 7cb9
00000170: 0101 6f3a 1461 063b 6abf 6437 372a ac39
00000180: fa8c 4ab9 fc85 39b9 b658 2838 a966 27b9
00000190: f6f1 5ab0 fad6 09b8 3982 6238 60c2 87b8
000001a0: ec00 6db6 dd53 9ab5 da40 0e37 b1c5 3eb9
000001b0: c99b bab7 be0d 15b8 0c06 9db6 90f9 37b8
000001c0: cdf8 a1b5 7e61 2eb9 3872 edb8 bd15 2036
000001d0: 1f57 d638 22cb 91b9 0389 b0b7 c4ed 3137
000001e0: 853c c1b1 1ddc 93b8 08fc d0b8 d98b 07b9
000001f0: 85a9 9437 26e0 14b7 f160 19b6 7ddc a633
00000200: 9ce6 0bba b797 01ba 18c1 4dba 22a6 14b9
00000210: 6982 cbb6 950d 58b5 8a95 45ba ef10 ffb8
00000220: 8f40 65ba 9813 0e37 97dd 5d36 3919 7db8
00000230: eaf0 9439 d690 9e38 5f2e a838 5b6b 7bb9
00000240: 672c c336 c3a8 b1b8 33ea 84ba 6abb 89b6
00000250: b997 46b9 c3e9 84b9 fb6c 1cb9 241c 4335
00000260: 78b2 d3b4 dc8f e338 6152 46ba d4c7 9eb7
00000270: 6e71 f3b9 2223 47b9 558e fdb4 f587 2db7
00000280: ced2 083a 1b30 e5b9 df98 0db9 f88d 85b9
00000290: 3b46 4e3a 12b3 9339 9be3 ae3a d819 523a
000002a0: 8fbb af3a 9cd8 2937 b009 c9b0 e0af c3b9
000002b0: ba55 cab8 75f9 6eb9 cdd8 233a 3364 ef3a
000002c0: 8237 c939 d1fa b4b9 8aad 62b9 c375 e738
000002d0: 7906 4c3a de4a 19ba 0604 8f3a 5a25 3738
000002e0: f089 d339 d451 10ba f461 2bba 473b 92b9
000002f0: 2f16 313a 5852 cf3a d4d7 2e37 ee13 b039
00000300: aeb9 a6ba 5c5f 2ab9 b0fc dcb9 60cf 4439
00000310: 7a47 88ba bbdc c2b9 4fcb 9dba 8e45 2dba
00000320: 346e 97ba cb1f 5032 0bcc 46b5 d035 1539
00000330: 1558 86ba fa48 29ba 87b9 c0ba 69e2 ddba
00000340: 41c7 d9b9 53e6 0939 4710 12ba 7f89 9db9
00000350: c3cb 7bba f191 b637 9e62 86ba f526 34b8
00000360: e171 2eba b205 25ba c017 71b9 3d0c 0539
00000370: 1517 37ba 001d c4ba e22b 0cba 8bb9 03ba
00000380: 5ffe 2839 feba adb8 c992 3ab9 fdc2 14ba
00000390: 0150 a8b6 c5a6 e4b7 bef1 68b9 230e 9db9
000003a0: 2cbc 97b9 aee7 5ab3 2a35 bf36 0a27 21ba
000003b0: ea5a bd39 f872 a2b9 3c01 aa38 650a 68ba
000003c0: 61b8 d5b2 5a7b 11ba 1ca1 9ab9 1ba5 c4b2
000003d0: ad6d 11b8 948a 7db9 c8ea 14ba ed3e 1cb7
000003e0: 8bb8 04b7 4301 bbb8 3f37 4bb9 2865 41b9
000003f0: fe7d f8b8 348f 49ba 7775 6f34 509b 7636

exp_avg_sq f4 [32, 32]
1.2145543e-11 7.482389e-13 8.691377e-13 1.3938797e-11 3.5192673e-12 2.9912653e-13 4.4700416e-14 6.6850948e-12
5.626392e-16 5.6895855e-12 1.0014105e-11 3.154592e-12 1.0837953e-11 4.7091046e-12 1.5108442e-11 1.2863251e-13
5.6753387e-13 1.27191434e-11 5.1206097e-12 7.178129e-13 7.3369045e-14 1.0986167e-11 1.5573838e-12 3.979017e-12
1.0897634e-17 1.0059244e-12 7.51185e-15 5.569001e-12 5.7635654e-12 3.705235e-12 7.8148376e-13 8.3187675e-12
9.433924e-08 4.687576e-08 1.17680734e-07 2.6308158e-09 1.03073695e-11 5.504493e-10 8.819076e-08 5.3091416e-09
1.1162884e-07 1.4905932e-11 4.5242878e-13 1.126317e-09 2.4661578e-10 2.610072e-09 1.10481096e-10 6.4298336e-09
1.0991825e-10 1.170949e-09 1.5564397e-07 8.818208e-12 9.791796e-09 2.489099e-08 4.472083e-09 1.5494394e-12
2.6239681e-14 1.8548374e-08 1.2080578e-07 1.3926593e-09 3.2772114e-08 4.6359494e-09 6.672114e-13 2.9960247e-12
1.4164395e-06 1.0056852e-07 7.4965726e-07 1.5379802e-08 1.4126122e-07 1.02436815e-07 2.4635099e-06 6.252813e-07
2.7774438e-06 3.1967322e-12 2.4850159e-12 6.647434e-09 7.21631e-08 3.8435212e-07 5.739284e-07 2.805687e-06
6.6122034e-08 6.361579e-09 8.9067413e-07 1.9721318e-09 6.2051106e-07 1.4459074e-07 1.1541359e-06 2.9263814e-10
3.0177482e-08 9.406211e-07 5.823936e-07 1.0070392e-08 7.281371e-07 2.1413216e-06 4.7710853e-11 9.872108e-09
1.05306526e-07 6.398809e-08 1.3694208e-07 5.874191e-09 2.0563504e-16 1.0899247e-10 8.433642e-08 3.9614116e-09
1.12199146e-07 9.811677e-13 9.826487e-12 2.8806086e-09 4.0346903e-11 1.526991e-09 4.2232936e-12 1.4866802e-09
4.297077e-12 2.8601161e-09 1.8331211e-07 1.9066428e-12 6.977944e-09 3.0829987e-08 1.5531482e-09 1.3930037e-11
5.836497e-14 2.3942233e-08 1.6181502e-07 1.8217176e-09 3.331585e-08 8.266413e-10 1.823683e-12 1.5378898e-13
3.091461e-08 2.3553476e-08 7.826208e-08 1.9075783e-09 6.0100826e-12 8.548552e-11 3.950246e-08 1.3205677e-09
5.1298798e-08 9.807884e-12 2.7407761e-12 6.330744e-10 8.395331e-09 2.8022843e-08 1.2527063e-08 4.7005924e-09
2.039182e-11 9.315948e-10 8.454409e-08 3.5678775e-12 9.357055e-09 7.48058e-09 2.6998892e-09 7.103294e-13
5.081192e-13 6.888928e-08 7.9870645e-08 1.3137985e-10 1.605753e-08 3.843604e-09 5.551587e-13 1.3386631e-11
1.179802e-06 1.535156e-07 6.4342026e-07 1.4899262e-08 9.565778e-08 6.387027e-08 2.1001065e-06 4.835043e-07
2.3582322e-06 1.29394264e-11 5.4192334e-14 1.0475739e-08 3.890931e-10 6.977258e-08 3.037218e-07 2.1782912e-06
4.024415e-08 1.0328268e-08 9.049666e-07 1.4522886e-09 5.028566e-07 1.646887e-07 9.0458974e-07 1.7487244e-10
1.9364663e-08 8.9117364e-08 3.80527e-07 1.1453539e-08 6.514617e-07 1.6707947e-06 3.9721774e-11 7.585368e-09
1.1565838e-06 1.0542541e-07 6.606502e-07 1.1393247e-08 2.1438396e-07 6.57352e-08 2.4051315e-06 6.3898375e-07
2.6291777e-06 1.0289588e-14 7.1883206e-13 4.2290615e-09 1.0887582e-07 6.7597125e-07 1.441248e-06 3.7867046e-06
4.3260435e-08 4.8892854e-09 8.8212937e-07 7.1402444e-09 8.658032e-07 1.5654096e-07 1.4944778e-06 1.471808e-10
7.664917e-08 7.4070164e-07 4.2049385e-07 1.3187975e-08 7.540699e-07 2.883728e-06 1.3324287e-08 1.4838263e-08
4.9762446e-07 4.477365e-07 1.7951829e-06 7.695467e-08 4.630218e-12 3.5805255e-11 5.814525e-07 2.5795108e-08
7.475902e-07 2.9009347e-13 5.508652e-12 3.632375e-08 7.6945604e-08 4.2744483e-07 1.2274396e-07 8.031029e-08
3.6578488e-14 3.5966814e-08 1.3635896e-06 2.5872345e-14 1.7649778e-07 1.3465365e-07 4.8590532e-08 1.1353115e-11
8.847681e-12 1.4045485e-06 1.955213e-06 3.4452525e-09 2.7500064e-07 6.458605e-08 4.0362142e-13 3.1105487e-12
00000000: aaaa 552d 4b9c 522b f9a3 742b c336 752d
00000010: 7ca5 772c ad64 a82a 1250 4929 fb35 eb2c
00000020: 722b 2226 3b2f c82c 852b 302d 14fc 5d2c
00000030: cda9 3e2d d8af a52c 30e5 842d ccd3 102a
00000040: 20bf 1f2b eec1 5f2d 5a2a b42c df0b 4a2b
00000050: 6036 a529 4c45 412d aa2e db2b cdff 8b2c
00000060: 9f06 4923 3f92 8d2b 4b52 0728 1af1 c32c
00000070: 95c9 ca2c ca5d 822c d7f7 5b2b 6658 122d
00000080: 8c97 ca33 7154 4933 abb7 fc33 cdc9 3431
00000090: 4454 352d 6d4e 1730 6263 bd33 b46b b631
000000a0: 9bb8 ef33 2d1d 832d dcb1 fe2a c2cc 9a30
000000b0: 1694 872f df5c 3331 54f3 f22e 6aed dc31
000000c0: 79b6 f12e 1bef a030 171f 2734 ae21 1b2d
000000d0: c638 2832 decf d532 dca8 9931 7010 da2b
000000e0: 9658 ec28 4e54 9f32 d7b6 0134 d867 bf30
000000f0: 52c1 0c33 3e4a 9f31 a6cd 3b2b 95d3 522c
00000100: 7e1c be35 21f8 d733 0e3c 4935 8b1c 8432
00000110: 97ad 1734 3cfb db33 c752 2536 01d9 2735
00000120: 1f64 3a36 35f3 602c 11de 2e2c 7367 e431
00000130: 15f8 9a33 f458 ce34 0f10 1a35 5649 3c36
00000140: f9fe 8d33 0a95 da31 a916 6f35 1c86 0731
00000150: 3291 2635 cd40 1b34 cfe7 9a35 28e1 a02f
00000160: 7e9c 0133 fd7e 7c35 c955 1c35 0d02 2d32
00000170: 3375 4335 a0b3 0f36 a5d5 512e fd99 2932
00000180: e024 e233 d369 8933 5a0a 1334 eed5 c931
00000190: c014 6d25 4ead ef2e 701c b533 f21c 8831
000001a0: 22f2 f033 4b16 8a2b 90de 2c2d 34f4 4531
000001b0: 9372 312e 38de d130 0c98 942c e953 cc30
000001c0: a130 972c b28b 4431 73d4 4434 062b 062c
000001d0: a5c2 ef31 ee69 0433 8b76 d530 4f0f 752d
000001e0: 1d6d 8329 87a9 cd32 60bf 2d34 fd5f fa30
000001f0: 2a17 0f33 b639 6330 8d54 002c a826 2d2a
00000200: f9c6 0433 a452 ca32 0911 a833 7916 0331
00000210: 0376 d32c 12fc bb2e 6aa9 2933 587f b530
00000220: a053 5c33 c88a 2c2d 6fdd 402c a704 2e30
00000230: 0e3b 1032 e2b6 f032 9b36 5732 d982 a131
00000240: 4c5e b32d 9409 8030 9b8e b533 2b11 7b2c
00000250: c3c0 2032 f083 0032 f488 3931 a1f0 472b
00000260: d905 0f2b 48f0 9333 5a85 ab33 2474 102f
00000270: e2ee 8932 b310 8431 6643 1c2b 0780 6b2d
00000280: b059 9e35 0cd6 2434 81b7 2c35 a6f7 7f32
00000290: 6c6c cd33 0d29 8933 8eef 0c36 2aca 0135
000002a0: 1f42 1e36 ffa1 632d 820f 7429 caf8 3332
000002b0: fce7 d52f e2d5 9533 350f a334 c22e 1236
000002c0: e9d8 2c33 3470 3132 d5ec 7235 dd99 c730
000002d0: 0bfc 0635 49d5 3034 efd2 7235 3746 402f
000002e0: 5857 a632 ca60 bf33 3c4b cc34 32c5 4432
000002f0: 1be0 2e35 1240 e035 beb2 2e2e cd50 0232
00000300: eb3b 9b35 3b66 e233 8957 3135 08bc 4332
00000310: 6a31 6634 4f2a 8d33 d867 2136 a186 2b35
00000320: ee70 3036 595c 3928 4f55 4a2b 384f 9131
00000330: 1dcf e933 6474 3535 e770 c135 171f 7e36
00000340: 5acd 3933 9cfe a731 78cb 6c35 4156 f531
00000350: 8b69 6835 a715 2834 de95 c835 b6d3 212f
00000360: 549a a433 a1d4 4635 3cc0 e134 5491 6232
00000370: 4a6b 4a35 1286 4136 d5e8 6432 5feb 7e32
00000380: 7e94 0535 7060 f034 04f2 f035 4742 a533
00000390: 4ce9 a22c 2279 1d2e 1d15 1c35 0b94 dd32
000003a0: 02ae 4835 e04e a32a 87d1 c12c 6302 1c33
000003b0: 4b3d a533 927b e534 9acb 0334 0d77 ac33
000003c0: 20bc 2429 ee79 1a33 9504 b735 9109 e928
000003d0: 5783 3d34 5095 1034 dbb1 5033 e2b9 472d
000003e0: 6aa6 1b2d eb83 bc35 4e36 0336 86c1 6c31
000003f0: cda3 9334 8eb2 8a33 fa37 e32a aae2 5a2c

exp_avg f4 [32]
-3.1137151e-06 -0.00082009233 0.0012844768 0.00013784967 -0.0009830634 0.0005161608 -0.0012562725 -0.00021351359
0.0002557439 -0.00053697615 -1.05165145e-05 0.00052173744 -0.00071915454 0.00053258607 -7.6991324e-05 6.6754296e-06
-0.00020757758 0.00016798015 9.109389e-05 -0.0025434997 -0.0006700299 1.6845758e-06 0.0008154766 -8.4212315e-06
-0.00068699365 8.9939924e-05 0.000313083 -1.28128695e-05 0.0003665071 0.0020291253 -0.00035478157 -0.0010424642
00000000: 38f5 50b6 77fb 56ba e45b a83a bd8b 1039
00000010: 22da 80ba f74e 073a 83a9 a4ba 9ee2 5fb9
00000020: 5d15 8639 dcc3 0cba 1670 30b7 35c5 083a
00000030: a585 3cba 3f9d 0b3a 6776 a1b8 81fd df36
00000040: 2fa9 59b9 d423 3039 a909 bf38 d8b0 26bb
00000050: f2a4 2fba 9519 e235 b5c5 553a ea48 0db7
00000060: 5d17 34ba 219e bc38 4a25 a439 dbf6 56b7
00000070: c027 c039 13fb 043b fa01 bab9 4ba3 88ba

exp_avg_sq f4 [32]
2.5560099e-12 2.0303611e-07 2.1150313e-06 2.1178909e-07 1.3780608e-07 1.8614788e-06 2.315356e-06 3.0629033e-06
9.482068e-07 3.5869518e-06 1.3744623e-11 3.3061194e-06 4.5646557e-06 2.3418245e-06 9.1835403e-07 5.9655713e-07
4.939014e-07 3.733767e-06 1.8362302e-07 4.8039005e-06 3.59488e-07 4.6294694e-08 3.8195054e-07 9.724778e-12
1.8833586e-06 4.6749926e-07 3.0004975e-07 7.106108e-11 2.4895323e-07 2.2010304e-06 4.240323e-06 2.8614147e-06
00000000: fbdc 332c 2402 5a34 f6ef 0d36 2468 6334
00000010: d9f7 1334 edd7 f935 8361 1b36 478c 4d36
00000020: 4688 7e35 5db7 7036 47cc 712d b3de 5d36
00000030: 182a 9936 3d28 1d36 cf84 7635 1823 2035
00000040: a594 0435 a191 7a36 e929 4534 3131 a136
00000050: a8ff c034 8ed5 4633 e20e cd34 8214 2b2d
00000060: b5c7 fc35 9cfc fa34 8616 a134 d543 9c2e
00000070: dfa7 8534 6ab5 1336 1948 8e36 bb06 4036

exp_avg f4 [32, 32]
4.3318624e-07 -6.8076984e-06 -0.00039006275 -0.0003565451 -2.4278925e-05 -0.00018646123 0.0004150752 -0.00027405168
-0.0004973994 9.653465e-06 7.3804235e-06 0.0005605768 0.0005012785 0.00016340836 0.000862268 -1.006551e-07
-0.00062144274 -7.580122e-05 -3.368007e-06 -0.00031133316 -9.428072e-05 3.3109084e-06 2.6424226e-05 4.191311e-06
0.0008003934 0.00028507173 -0.00022836828 -4.2594586e-10 2.629886e-05 -0.0004321892 0.0008756368 0.00052713195
2.5165301e-08 -6.53482e-06 -0.00022186468 -0.00023692378 -2.031438e-05 -8.7197746e-05 0.00015529088 -0.00017430603
-0.00029603718 -0.00017283236 -7.3061515e-06 0.00019170217 0.0002755681 0.00026050006 0.0005142281 -6.20868e-06
-0.00039043676 -0.00027350348 -6.705084e-06 -0.0001918691 -0.00020220208 -9.387433e-06 -1.9417317e-05 -5.4883174e-09
0.00042160013 7.838488e-05 -0.00014266404 -6.6444754e-06 2.820818e-05 -0.00024789877 0.00059968367 9.242144e-05
6.9301677e-06 -9.158128e-07 7.0236883e-06 -6.5296977e-06 -1.0786409e-05 2.6228518e-06 3.6826168e-06 -9.652744e-06
6.858166e-06 -1.4351159e-05 8.791203e-06 1.4720688e-05 2.744417e-06 -8.364713e-06 6.666418e-06 -5.774356e-08
3.0898805e-06 4.1642143e-06 1.1494405e-05 -9.046817e-06 3.807647e-08 3.475592e-06 3.1346875e-07 7.8775665e-06
-1.0523373e-05 -2.1471294e-06 -7.719274e-08 -1.5479434e-07 1.0276561e-05 2.9249549e-07 -9.87013e-06 -3.1444797e-06
-2.2692495e-06 -2.4490106e-05 -0.00061913277 -0.00057668396 -7.901332e-05 -0.0003232722 0.00025607113 -0.00043936996
-0.00079718133 -0.0004273662 5.303659e-08 0.00035319894 0.000558045 0.0006094638 0.0009743329 -1.1557432e-05
-0.00095006713 -0.00068724307 -1.5150868e-05 -0.0005802066 -0.0004988081 -1.6233407e-05 -0.00022349099 6.37879e-07
0.0006981178 2.6631998e-05 -0.00039033848 5.99518e-06 5.101522e-05 -0.0006971148 0.0012052945 -3.868246e-05
-6.497808e-06 -3.1604843e-05 9.876655e-05 -4.0301784e-06 -2.9149056e-05 -2.6045629e-05 -0.00051245623 9.384651e-06
1.65804e-06 0.00026974914 1.0308672e-05 -0.0007423642 -0.0006268113 -0.00045148854 -0.0009778024 1.4663806e-05
0.0002234179 0.00023013809 1.8271952e-06 2.937594e-05 0.00010460685 2.3748596e-08 -0.0005439747 8.09153e-08
-0.001300352 -0.00011566368 3.7161746e-05 -6.010548e-06 -2.5734034e-05 8.856387e-05 -0.0014225623 -0.0008986998
3.607903e-07 -2.2950378e-06 -0.000615295 -0.0005984141 -6.359677e-05 -0.00030862016 0.0003792831 -0.00046180867
-0.00081001583 -0.0004949567 6.031203e-09 0.0004661644 0.0005825532 0.00049587275 0.0010070704 1.6051466e-05
-0.0010252922 -0.0007077697 -1.8631932e-05 -0.0006665922 -0.00044295713 7.079415e-06 -0.0002476893 4.7878584e-06
0.00084464403 -0.00021234273 -0.00039673966 -1.5017915e-06 3.7279427e-05 -0.0007201622 0.0013473908 5.057567e-05
-1.1837802e-08 3.2256554e-05 0.00016447228 8.174033e-07 0.00021654413 -7.024501e-05 -0.0002946755 0.0001338832
0.00018449298 0.00029853944 6.14375e-06 -0.0006388104 -0.0006113229 -0.00039356874 -0.00088660006 -3.7237469e-06
0.00026733277 0.00044143095 -1.2747255e-05 4.6449088e-05 0.00021921053 -9.071659e-06 -0.00039780422 -6.421484e-06
-0.00093720277 -0.00013637853 6.204655e-05 1.0119525e-05 -1.89038e-06 0.00020818625 -0.0013361567 -0.0006277184
1.0828128e-05 3.443332e-11 7.208937e-06 4.698174e-06 6.5014606e-06 -1.1032567e-05 8.164502e-06 -8.653164e-06
9.399046e-06 3.5365262e-09 -9.224436e-06 2.4107115e-07 7.555255e-08 -9.4275965e-06 -1.0722354e-06 1.653325e-08
7.416664e-06 -4.8600464e-07 4.395953e-06 2.3475494e-08 4.6248114e-10 -7.9098015e-08 -5.395613e-06 -8.294768e-06
-5.50125e-07 -9.999928e-06 -2.4523865e-06 2.6816324e-10 -5.433604e-06 -1.7337678e-06 7.092545e-08 -2.6219682e-08
00000000: aa90 e834 af6d e4b6 5681 ccb9 acee bab9
00000010: 98aa cbb7 ce84 43b9 739e d939 98ae 8fb9
00000020: e963 02ba 51f5 2137 5ba5 f736 acf3 123a
00000030: 3b68 033a 9958 2b39 d309 623a ba27 d8b3
00000040: 51e8 22ba 78f7 9eb8 eb05 62b6 6e3a a3b9
00000050: 93b8 c5b8 f930 5e36 98a9 dd37 16a3 8c36
00000060: 7ed1 513a ae75 9539 2576 6fb9 8d2a eaaf
00000070: 5f9c dc37 7497 e2b9 fe8a 653a 3a2f 0a3a
00000080: 152b d832 ad45 dbb6 59a4 68b9 be6e 78b9
00000090: cd68 aab7 efdd b6b8 94d5 2239 ebc5 36b9
000000a0: 7035 9bb9 553a 35b9 5d27 f5b6 a903 4939
000000b0: 207a 9039 ba93 8839 43cd 063a 2854 d0b6
000000c0: 89b3 ccb9 0465 8fb9 3cfc e0b6 7830 49b9
000000d0: 3506 54b9 b87e 1db7 5fe2 a2b7 c093 bcb1
000000e0: 360a dd39 9062 a438 1698 15b9 9cf3 deb6
000000f0: 9ba0 ec37 69f8 81b9 1734 1d3a 62d2 c138
00000100: b089 e836 2dd6 75b5 06ad eb36 ad19 dbb6
00000110: 46f7 34b7 4004 3036 e022 7736 38f2 21b7
00000120: 331f e636 c2c5 70b7 ee7d 1337 e0f8 7637
00000130: ba2c 3836 2b56 0cb7 18b0 df36 b701 78b3
00000140: be5b 4f36 54ba 8b36 18d8 4037 c8c7 17b7
00000150: 8689 2333 373e 6936 d14a a834 e429 0437
00000160: 8b8d 30b7 6717 10b6 28c5 a5b3 8b35 26b4
00000170: 7e69 2c37 4608 9d34 e397 25b7 c005 53b6
00000180: 6949 18b6 1a70 cdb7 4c4d 22ba 9b2c 17ba
00000190: f4b3 a5b8 dc7c a9b9 4941 8639 3d5b e6b9
000001a0: eff9 50ba 1f10 e0b9 59ca 6333 8f2d b939
000001b0: c449 123a 6cc4 1f3a 606a 7f3a cbe6 41b7
000001c0: ed0d 79ba 1a28 34ba 7c30 7eb7 0119 18ba
000001d0: 72c2 02ba fa2c 88b7 e858 6ab9 b63a 2b35
000001e0: e401 373a c867 df37 58a6 ccb9 342a c936
000001f0: 2df9 5538 95be 36ba f9fa 9d3a fa3e 22b8
00000200: bf07 dab6 718f 04b8 e320 cf38 f83a 87b6
00000210: 1f85 f4b7 907c dab7 5b56 06ba c572 1d37
00000220: d289 de35 1e6d 8d39 69f3 2c37 389b 42ba
00000230: 9850 24ba c4b5 ecb9 9b29 80ba 9104 7637
00000240: 4945 6a39 3951 7139 f33d f535 5a6c f637
00000250: 6060 db38 b7ff cb32 8699 0eba a8c3 ad33
00000260: 9370 aaba 7790 f2b8 1fde 1b38 37ae c9b6
00000270: 6bdf d7b7 5ebb b938 4575 baba b996 6bba
00000280: a4b2 c134 7304 1ab6 c04b 21ba e4de 1cba
00000290: 425f 85b8 4cce a1b9 84da c639 e91e f2b9
000002a0: 3e57 54ba fbbf 01ba 063b cf31 8767 f439
000002b0: 7cb6 183a 75fd 013a adff 833a 43a6 8637
000002c0: 1963 86ba 9f89 39ba c54b 9cb7 3fbe 2eba
000002d0: b33c e8b9 b68b ed36 4cdc 81b9 64a7 a036
000002e0: 1a6b 5d3a 51a8 5eb9 7f01 d0b9 2a91 c9b5
000002f0: 7b5c 1c38 44c9 3cba ef9a b03a 3621 5438
00000300: 345f 4bb2 364b 0738 3176 2c39 876b 5b35
00000310: 1f10 6339 8150 93b8 ad7e 9ab9 ff62 0c39
00000320: 7574 4139 4985 9c39 6926 ce36 d775 27ba
00000330: 2f41 20ba e757 ceb9 b96a 68ba 7ce5 79b6
00000340: cc28 8c39 dc6f e739 0bdd 55b7 54d2 4238
00000350: e1db 6539 7b32 18b7 6190 d0b9 2178 d7b6
00000360: 9dae 75ba d500 0fb9 fd1e 8238 07c7 2937
00000370: f6b8 fdb5 924c 5a39 fb21 afba 788d 24ba
00000380: 75aa 3537 7970 172e 4ce4 f136 02a5 9d36
00000390: 1f27 da36 8418 39b7 45fa 0837 0e2d 11b7
000003a0: 98b0 1d37 3a07 7331 a7c2 1ab7 916c 8134
000003b0: 743f a233 382b 1eb7 bae9 8fb5 0005 8e32
000003c0: a9dc f836 fc75 02b5 f380 9336 28a7 c932
000003d0: 6f40 fe2f 98dc a9b3 f60b b5b6 c229 0bb7
000003e0: 4dac 13b5 5dc5 27b7 ae93 24b6 9f6c 932f
000003f0: 4e52 b6b6 cfb3 e8b5 ae4f 9833 b139 e1b2
