checkpoints/ablation_eps_0.10/ablation_eps_0.10_epoch0001.pt (torch, 38139 bytes, 24 tensors)

0.weight f4 [32, 2]
0	0x3f09e012	0.5385753
1	0x3f14686f	0.57971853
2	0xbe2a7773	-0.16647129
3	0x3f27f4e2	0.65608037
4	0xbe17bfbd	-0.14819236
5	0x3e19bf15	0.15014298
6	0xbeb076da	-0.34465677
7	0x3ed2352e	0.41056198
8	0x3f1ddbdf	0.6166362
9	0xbf03078c	-0.5118339
10	0x3f1ef44d	0.62091523
11	0x3e0f33c1	0.13984586
12	0x3f05acbe	0.5221671
13	0x3db51b1e	0.08843063
14	0x3eacaa9a	0.3372391
15	0xbdbea281	-0.09308339
16	0x3f0b86bf	0.5450248
17	0x3dcce1b5	0.10003988
18	0xbea4ec09	-0.3221133
19	0x3e306380	0.17225456
20	0xbea2b665	-0.3177978
21	0xbd9982cf	-0.07495653
22	0xbe94e6bd	-0.2908229
23	0x3ef2798c	0.47358358
24	0xbf0ee296	-0.5581449
25	0xbea7f876	-0.32806748
26	0xbe522def	-0.20525335
27	0xbed6647b	-0.41873536
28	0x3d8620fa	0.065492585
29	0xbf312873	-0.69202346
30	0x3f234efa	0.63792384
31	0xbf1801a7	-0.5937752
32	0x3f0cd3ce	0.5501069
33	0x3df53c9a	0.119744495
34	0xbe6fb4ac	-0.23408765
35	0x3ee2c97a	0.4429434
36	0x3de3554a	0.11100252
37	0x3f120387	0.5703663
38	0x3daba44e	0.08380948
39	0xbe6b2ebd	-0.22967048
40	0x3e3e840b	0.18605058
41	0xbe4b6f1c	-0.19866604
42	0x3e949861	0.29022506
43	0x3f1fdd6d	0.62447244
44	0x3ecfac81	0.40561298
45	0xbea20b08	-0.3164904
46	0x3ece49be	0.40290636
47	0x3df8ae26	0.12142591
48	0x3eb82e87	0.35972998
49	0xbedfa162	-0.43677813
50	0xbf32250a	-0.6958777
51	0xbe8eee8f	-0.2791638
52	0xbf092a17	-0.5357985
53	0x3f164cd0	0.58710957
54	0x3e48da07	0.19614421
55	0x3e9283c6	0.2861616
56	0x3e647e7b	0.22313873
57	0xbc7e77ab	-0.015531461
58	0x3f0de81d	0.554323
59	0xbf026f26	-0.5095085
60	0x3d5495d2	0.051900692
61	0xbefabee0	-0.4897375
62	0x3e669d97	0.22521053
63	0xbe8053af	-0.25063846

0.bias f4 [32]
0	0x3e5ce095	0.21570046
1	0xbe0fec49	-0.1405498
2	0x3f158e57	0.5842032
3	0xbed7f46a	-0.4217866
4	0xbedb2854	-0.42804205
5	0xbed461fe	-0.41481012
6	0x3f242421	0.6411763
7	0x3e6e5dd3	0.23277979
8	0x3f2ea412	0.682191
9	0xbf135814	-0.5755627
10	0xbf31806c	-0.6933658
11	0xbf0bfcd7	-0.5468268
12	0xbeefefb3	-0.46862563
13	0x3e924f1c	0.2857598
14	0x3e7daaac	0.24772137
15	0x3f14f39b	0.5818421
16	0xbeb881bc	-0.3603648
17	0xbef3b01e	-0.47595304
18	0x3ec27504	0.379799
19	0xbe8ecc85	-0.2789041
20	0x3ed91e1a	0.42405778
21	0xbe331776	-0.17489418
22	0x3ecd3f8e	0.4008755
23	0xbf0c2c8b	-0.5475547
24	0xbeb3f36c	-0.35146654
25	0x3e57c21f	0.21070145
26	0x3e1fa86b	0.1559159
27	0xbe3fa86a	-0.18716589
28	0x3eda1ccb	0.42600092
29	0x3ef908ad	0.48639432
30	0xbf016462	-0.50543797
31	0xbebd8601	-0.370163

2.weight f4 [32, 32]
0	0x3e1d93ab	0.15388362
1	0xbd53bf31	-0.051696006
2	0xbd601b65	-0.054713625
3	0xbe26fa0c	-0.16306323
4	0xbdbeff7a	-0.09326072
5	0x3d145f01	0.036223415
6	0xbc7d72b8	-0.015469246
7	0xbdf674d0	-0.12033999
8	0xbadd89bb	-0.0016902009
9	0xbde6f64d	-0.11277447
10	0xbe1166de	-0.14199397
11	0xbdb7085a	-0.0893714
12	0xbe164161	-0.14673378
13	0xbdd62ff7	-0.10458367
14	0x3e2cc57c	0.1687221
15	0x3cd0b4da	0.025476862
16	0x3d3e921a	0.046526052
17	0xbe20a86b	-0.15689246
18	0xbddd7089	-0.1081248
19	0xbd506f8f	-0.05088764
20	0x3ca1d159	0.019753145
21	0xbe171b95	-0.14756615
22	0xbd8bae41	-0.06820346
23	0xbdc8686e	-0.097855434
24	0xb711f470	-8.699586e-06
25	0xbd6cd507	-0.057820346
26	0xbb95f15f	-0.004575893
27	0xbde4fd1e	-0.11181091
28	0xbde8295b	-0.11336013
29	0xbdc2e1d6	-0.09515731
30	0xbd57443a	-0.0525553
31	0xbe06b3bd	-0.13154502
32	0x3e1281ff	0.14307402
33	0xbd258607	-0.04041102
34	0x3e16e07a	0.14734069
35	0x3d4d0149	0.050050054
36	0xbe111cc0	-0.14171124
37	0x3dece394	0.115668446
38	0xbd5a5544	-0.053303972
39	0xbd93b8e6	-0.07213001
40	0xbe1b023f	-0.15137576
41	0xbe2bc907	-0.16775905
42	0x3d2e9f8d	0.04263263
43	0xbd2fa6d4	-0.04288371
44	0x3d804881	0.06263829
45	0xbe1a11bd	-0.15045829
46	0x3dfe93fc	0.124305695
47	0xbe0591d0	-0.13043904
48	0xbd143488	-0.03618291
49	0x3d039996	0.032128893
50	0x3db0b0e5	0.0862749
51	0x3e09f720	0.13473177
52	0x3e209c29	0.1568457
53	0xbe1519e1	-0.14560653
54	0x3d29c376	0.04144617
55	0xbd8b690d	-0.06807146
56	0xbc3d24a7	-0.011544383
57	0xbe0c1dd2	-0.1368325
58	0x3e1fb11b	0.15594904
59	0xbe0af5fc	-0.13570398
60	0x3db80683	0.08985617
61	0x3d79f431	0.061023895
62	0x3d4ab883	0.04949237
63	0xbdb36849	-0.08760125
64	0x3e218306	0.15772638
65	0x3d069822	0.03285993
66	0x3c8b72ab	0.017022451
67	0xbe244066	-0.16040191
68	0x3d8fbc1d	0.07018302
69	0xbcb25e70	-0.021773547
70	0xbdab35f3	-0.08359899
71	0x3e190351	0.14942671
72	0x3d164ac6	0.036692403
73	0xbdb7fa87	-0.08983331
74	0xbda6eb22	-0.08150317
75	0xbc5adfaf	-0.013358994
76	0x3dba2662	0.09089352
77	0xbd5573c2	-0.05211235
78	0xbddd40e6	-0.10803394
79	0xbd7b3e85	-0.06133892
80	0xbe023040	-0.12713718
81	0x3d6c864f	0.057745274
82	0x3e0949e3	0.13407092
83	0xbe223e59	-0.15844096
84	0x3d15d263	0.036577594
85	0x3db33a1b	0.08751317
86	0x3d014683	0.031561386
87	0xbd67522a	-0.056474842
88	0x3dae8bd9	0.085227676
89	0x3db0e1ec	0.08636841
90	0x3d771549	0.060323033
91	0xbd084f95	-0.03327902
92	0xbd4f0441	-0.050541166
93	0x3c835e14	0.01603607
94	0xbcbf1166	-0.023323726
95	0xbd74c0a7	-0.05975404
96	0x3df3b884	0.11900428
97	0x3e214f31	0.15752865
98	0xbc456348	-0.012047596
99	0xbd0de9c8	-0.03464678
100	0xba90ca7d	-0.0011046674
101	0xbb4248d1	-0.0029645453
102	0x3d463934	0.048394397
103	0x3d66da3e	0.056360476
104	0xbe1e5249	-0.15461077
105	0xbd6a9d31	-0.057278816
106	0x3e10447a	0.14088622
107	0x3d9695dc	0.07352802
108	0xbab01b0c	-0.0013435795
109	0xbdd2edfd	-0.10299299
110	0xbdcd29a8	-0.10017711
111	0xbe19f9ce	-0.15036699
112	0xbd4b72ea	-0.049670137
113	0x3d842295	0.064519085
114	0x3df27ccc	0.11840209
115	0x3d96d5cd	0.07364998
116	0xbe1a12e3	-0.15046267
117	0xbdcd2351	-0.10016502
118	0xbcaccba6	-0.0210932
119	0x3e26eeb1	0.16301991
120	0x3c90f1ce	0.017693426
121	0xbd2cfdf2	-0.04223437
122	0x3da0c8f9	0.078508325
123	0xbd79a50b	-0.060948413
124	0xbdde677b	-0.10859581
125	0x3df7e796	0.121047184
126	0xbd944db6	-0.07241385
127	0xbce171d5	-0.0275201
128	0xbe38334f	-0.17988323
129	0x3de96938	0.11397022
130	0x3e043129	0.12909378
131	0x3d749264	0.05970992
132	0xbdec1978	-0.11528295
133	0xbe2a7a70	-0.16648269
134	0xbe18cd62	-0.14922097
135	0x3dfe70fd	0.124238946
136	0x3da1f91f	0.07908844
137	0x3e102784	0.14077574
138	0x3dad55e9	0.08463652
139	0x3d239fd8	0.03994736
140	0x3b8f70a9	0.004377444
141	0xbe0cc13b	-0.13745587
142	0xbe1ad17d	-0.15118976
143	0xbe30804f	-0.17236446
144	0x3d83e59d	0.0644028
145	0xbdb944da	-0.090463355
146	0xbd263351	-0.040576283
147	0xbdc0062a	-0.09376176
148	0xbd1a6b0a	-0.037699737
149	0xbe028400	-0.12745667
150	0xbdfac3af	-0.12244355
151	0x3d4f9b81	0.05068541
152	0xbd36a413	-0.044590067
153	0x3dd8a4c6	0.10578303
154	0xbd79ef7a	-0.0610194
155	0xbe0271a3	-0.12738661
156	0xbd15fa8e	-0.0366159
157	0xbdbe2e50	-0.09286177
158	0xbd3cf75f	-0.04613435
159	0xbe24273c	-0.16030592
160	0x3dd11bbc	0.10210368
161	0xbdf5a3c8	-0.119941294
162	0x3db71c87	0.08940988
163	0x3d9d308b	0.076752745
164	0x3df45d81	0.11931897
165	0xbe055d4e	-0.13023874
166	0x3e045317	0.12922321
167	0xbda4e031	-0.080505736
168	0x3d8abeb5	0.06774656
169	0x3e21d261	0.1580291
170	0xbc8bb9c1	-0.017056348
171	0xbb7c3660	-0.0038484558
172	0xbd06395e	-0.032769553
173	0xbe1175e7	-0.14205132
174	0x3da445b8	0.0802111
175	0xbe327954	-0.17429096
176	0x3de7b558	0.113138855
177	0x3e035b91	0.12827899
178	0x3e2d2a96	0.16910776
179	0xbd0a4e79	-0.033766244
180	0xbe133bd2	-0.14378288
181	0x3d34ddec	0.044156954
182	0x3dc9a55b	0.09845992
183	0xbe2bfd96	-0.16795954
184	0xbd03e0b4	-0.032196715
185	0xbde1790f	-0.11009418
186	0xbc701b42	-0.014654936
187	0xbda5728a	-0.08078487
188	0xbd9023a6	-0.070380494
189	0xbd6200e0	-0.055176616
190	0xbe23d8dc	-0.16000694
191	0x3e0c5a9f	0.13706444
192	0x3e108131	0.14111783
193	0xbd0b16ac	-0.03395717
194	0xbcbe90c9	-0.023262398
195	0xbda00760	-0.07813907
196	0xbe1c37af	-0.15255617
197	0xbe37283a	-0.17886439
198	0x3d875baa	0.066092804
199	0xbdbea3ac	-0.09308562
200	0xbde7ee90	-0.11324799
201	0xbbc6cba6	-0.0060667573
202	0xbd508c55	-0.05091508
203	0xbd824a1e	-0.06361793
204	0x3c5a1f8a	0.013313184
205	0xbcf890bc	-0.030342452
206	0xbd5cedea	-0.05393783
207	0xbda1c300	-0.078985214
208	0xbe1a51cd	-0.15070267
209	0x3e10e8f6	0.14151368
210	0xbd9f2db7	-0.07772391
211	0x3d5ab7fd	0.05339812
212	0xbd657b07	-0.05602553
213	0x3bec12f8	0.0072044097
214	0x3e2e2c4b	0.17009084
215	0x3da09a49	0.078419276
216	0xbe1553a5	-0.14582689
217	0x3d9d9e35	0.07696191
218	0x3e26b2b1	0.16279103
219	0x3d20c94f	0.039254483
220	0x3df7d8ac	0.12101874
221	0x3e3839b6	0.17990765
222	0xbca82a34	-0.020527937
223	0x3d345e2a	0.044035114
224	0xbdf2b284	-0.118504554
225	0xbcffb537	-0.03121434
226	0x3e0a5a17	0.13510929
227	0x3dc741bc	0.09729335
228	0xbdd4c20a	-0.103885725
229	0xbe08fbbf	-0.13377284
230	0xbded58fe	-0.115892395
231	0xbe2c0091	-0.16797091
232	0xbe06b22b	-0.13153903
233	0xbd128f33	-0.035781097
234	0x3de3fe0e	0.111324415
235	0x3d1564ec	0.0364732
236	0xbe0ee21c	-0.13953441
237	0xbe0f6adb	-0.14005606
238	0x3db56121	0.088564165
239	0xbdfffdb2	-0.124995604
240	0xbc63f957	-0.013914428
241	0x3dbb668b	0.09150418
242	0xbd9d4886	-0.076798484
243	0xbc3b955a	-0.011449182
244	0xbc41f548	-0.011838265
245	0xbd17f28e	-0.037096553
246	0xbdaa7761	-0.08323551
247	0xbe19313d	-0.14960189
248	0xbe0a27a0	-0.13491678
249	0xbdbd02aa	-0.09229024
250	0x3e33746b	0.17524879
251	0xbda45560	-0.080240965
252	0xbde9f0ba	-0.11422868
253	0x3d4aadbf	0.049482103
254	0x3d2707a1	0.04077876
255	0x3db60949	0.0888849

2.bias f4 [32]
0	0xbda8bc7e	-0.08239077
1	0xbe1898f2	-0.14902094
2	0x3a929e13	0.0011186026
3	0xbdc91e43	-0.09820225
4	0x3e0fba6e	0.14035961
5	0xbe2cf9ed	-0.16892214
6	0x3da7d7b3	0.08195438
7	0x3e38a597	0.18031918
8	0x3dbfb147	0.09359985
9	0x3d8407dd	0.06446812
10	0xbe25fd99	-0.16210021
11	0x3e325f2d	0.17419119
12	0xbccf9ac4	-0.025342353
13	0xbe2f3faf	-0.17114137
14	0x3e376d9a	0.17912903
15	0xbda0e1e2	-0.07855584
16	0xbc4ec39e	-0.012619881
17	0x3e287d00	0.16453934
18	0xbe0464c3	-0.12929063
19	0xbdf1c6d2	-0.118055
20	0x3cc0f4de	0.023554262
21	0xbcf49745	-0.029857287
22	0x3d3f5737	0.046714034
23	0xbe0fa5d0	-0.14028096
24	0x3a6c5b8d	0.00090163277
25	0xbdad0ac4	-0.08449319
26	0xbdb82f8c	-0.08993444
27	0xbe1d9282	-0.1538792
28	0x3db48629	0.088146515
29	0x3d26c290	0.040712893
30	0xbe121f7d	-0.14269824
31	0x3e0ba554	0.13637286

4.weight f4 [32, 32]
0	0x3d39d750	0.045371354
1	0x3d1e69fc	0.038675293
2	0xbdc66ccb	-0.09688719
3	0x3d08be26	0.033384465
4	0x3e312378	0.17298687
5	0x3e032f0d	0.12810917
6	0xbe06da06	-0.13169107
7	0x3e28a21f	0.16468094
8	0x3ca24108	0.0198064
9	0x3dba6b70	0.09102523
10	0x3e046bb7	0.12931715
11	0x3e195c2a	0.14976564
12	0xbe0e6a43	-0.13907723
13	0x3e241e46	0.16027173
14	0xbdfea076	-0.12432949
15	0x3bcf54af	0.0063272337
16	0xbdef6557	-0.11689251
17	0xbd0797e2	-0.03310383
18	0xba9cb51b	-0.0011955829
19	0xbc5ebf47	-0.013595409
20	0xbd0dd3d2	-0.034625836
21	0x3ca54ad0	0.020177275
22	0x3e375194	0.17902213
23	0x3dc2045c	0.09473488
24	0x3dc4f719	0.09617443
25	0x3d9d5af8	0.076833665
26	0x3e0dcf33	0.13848571
27	0xba4d9045	-0.0007841627
28	0x3ca04f68	0.019569114
29	0x3d2e853c	0.04260753
30	0xbe251c72	-0.16124132
31	0xbe16a3dc	-0.14710945
32	0x3c6276ae	0.013822241
33	0xbd80f620	-0.062969446
34	0x3b7e7090	0.0038824417
35	0xbd095bf2	-0.03353495
36	0x3cf80b43	0.030278808
37	0x3df9f985	0.12205795
38	0xbd572f0a	-0.052535094
39	0x3e139230	0.14411235
40	0x3e153594	0.1457122
41	0xbe03bf8c	-0.12866038
42	0xbe039d86	-0.12853059
43	0xbe12d29b	-0.14338152
44	0xbdc886a3	-0.09791305
45	0xbd7fe4a6	-0.062473916
46	0xbc910595	-0.017702857
47	0xbd4d233f	-0.05008244
48	0xbda8d539	-0.08243794
49	0xbd4e7abb	-0.050410014
50	0xbd68cc2c	-0.05683534
51	0x3e39698d	0.1810667
52	0xbd942bab	-0.072348915
53	0xbdf59fd3	-0.11993375
54	0x3d9fb978	0.07799047
55	0xbb2d2d16	-0.0026424578
56	0x3e077023	0.1322637
57	0x3dee9e6a	0.11651309
58	0x3e2237da	0.15841618
59	0xbdf8ccb0	-0.12148416
60	0x3df3fd7e	0.11913584
61	0x3e1e5368	0.15461504
62	0xbdc182a8	-0.09448749
63	0x3e2149b8	0.15750778
64	0x3dff0e4f	0.12453901
65	0xbb6a1a3e	-0.0035721208
66	0x3da112bc	0.078649014
67	0xbd8a10a3	-0.067414545
68	0xbe1f83ee	-0.15577671
69	0x3d1b33ed	0.037891317
70	0x3d3d8365	0.046267886
71	0xbdf76837	-0.12080424
72	0x3da25ce6	0.07927875
73	0xbe209a2e	-0.15683815
74	0x3e139d6e	0.14415523
75	0x3e2810cf	0.16412662
76	0x3d29a146	0.041413568
77	0xbdeda6d5	-0.11604086
78	0x3da27a92	0.07933535
79	0x3cb61166	0.022225093
80	0x3d2a5609	0.041585956
81	0x3d52f875	0.05150648
82	0x3e0310c6	0.12799367
83	0xbda9a153	-0.08282723
84	0xbd1290cb	-0.035782617
85	0x3d2e9ba3	0.042628895
86	0x3c4d5878	0.0125333
87	0x3e09cbe9	0.13456692
88	0xbdcb6211	-0.09930814
89	0xbc57397c	-0.013136264
90	0x3ccdc9ab	0.025120577
91	0xbd1fc894	-0.039009646
92	0x3deac0cf	0.114625566
93	0x3c550c33	0.013003397
94	0xbe1f20ac	-0.15539807
95	0xbccf4fdd	-0.025306636
96	0xbd93e3a7	-0.072211556
97	0x3cbcc698	0.023043916
98	0xbc60b578	-0.0137151405
99	0xbe2c96c9	-0.16854395
100	0xbceef505	-0.029169569
101	0xbc258b6f	-0.010104044
102	0xbd3d3057	-0.04618868
103	0x3e29f358	0.16596735
104	0xbd05238f	-0.032504614
105	0x3df506b7	0.119641714
106	0x3d12dcfe	0.035855286
107	0xbe1971be	-0.14984795
108	0x3d23cc69	0.039989863
109	0x3e1bdc04	0.15220648
110	0xbdf58f7e	-0.119902596
111	0xbdf80d22	-0.1211188
112	0x3e37dcc5	0.1795531
113	0x3e17310f	0.14764808
114	0xbdbc167d	-0.09183977
115	0x3de93217	0.11386507
116	0xbcefb827	-0.029262615
117	0xbe2c1005	-0.16802986
118	0x3c93ed79	0.018057572
119	0x3d495fb2	0.049163528
120	0xbd63e2e2	-0.055636294
121	0x3d8a5f9c	0.06756517
122	0xbe16d093	-0.14728002
123	0x3dea8ee0	0.114530325
124	0x3e1fe693	0.15615301
125	0x3dd44b9f	0.10365986
126	0x3cbbb87a	0.022915114
127	0x3d5afcb8	0.053463668
128	0xbdf59c24	-0.11992672
129	0xbd3130dc	-0.043259487
130	0xbcc743a9	-0.024324255
131	0xbdb923ec	-0.09040055
132	0xbdfb10d9	-0.12259073
133	0x3de611b7	0.112338476
134	0x3df521e3	0.11969354
135	0xbe1c395d	-0.15256257
136	0x3d505781	0.0508647
137	0x3d9facc0	0.07796621
138	0x3e23c94d	0.15994759
139	0x3dd621d4	0.10455671
140	0x3e27be57	0.16381203
141	0xbd82490e	-0.0636159
142	0x3e043cb7	0.12913786
143	0x3e1a3c09	0.15061964
144	0xbe30f146	-0.17279539
145	0xbe10b836	-0.14132771
146	0x3ceda11f	0.029007493
147	0x3db60af9	0.088888116
148	0xbda66fe8	-0.08126813
149	0x3c3eb786	0.011640435
150	0x3b81b613	0.0039584725
151	0x3d16c277	0.03680655
152	0xbdb6febd	-0.08935306
153	0x3dc17070	0.09445274
154	0x3de06baa	0.10958035
155	0xbdeadcee	-0.1146792
156	0xbadbd9ad	-0.0016773246
157	0xbab215c2	-0.0013586807
158	0x3d82a777	0.06379598
159	0x3e2e1a29	0.17002167
160	0x3d33cbdd	0.04389559
161	0xbd2b5457	-0.04182848
162	0x3e29c94b	0.16580693
163	0xbd72ee8e	-0.059309535
164	0xbd507a55	-0.050897915
165	0x3c9362c2	0.017991427
166	0xbe07e05f	-0.13269185
167	0x3c678b8a	0.01413239
168	0xbdfd4d11	-0.12368215
169	0x3cb23d62	0.021757785
170	0x3c15ca7b	0.009142513
171	0x3cae8194	0.021302022
172	0xbe1a2f03	-0.15056996
173	0xbe25e3fa	-0.16200247
174	0x3d9b8f06	0.07595639
175	0x3e14462a	0.1447989
176	0xbe1a7bcb	-0.15086286
177	0x3d8ad8ae	0.067796096
178	0xbdfbb970	-0.12291229
179	0x3c954f94	0.018226422
180	0x3e21c260	0.15796804
181	0x3e01270e	0.12612554
182	0xbe0932ea	-0.13398328
183	0x3dcf9caa	0.10137303
184	0x3db13b3a	0.08653875
185	0x3b80b40d	0.0039277137
186	0x3e29e0d6	0.16589674
187	0xbd7ef984	-0.062249675
188	0xbd14e739	-0.036353324
189	0xbdb674c6	-0.089089915
190	0x3c9719e1	0.018444957
191	0x3d2a3f74	0.04156442
192	0x3bd020c4	0.006351562
193	0xbdbb5dd7	-0.09148758
194	0xbdb04bb8	-0.08608192
195	0x3d55b6f5	0.052176435
196	0xbe168c2d	-0.1470191
197	0xbd0b26dd	-0.03397261
198	0xbb0cd2e6	-0.002148801
199	0xbd82882b	-0.06373628
200	0x3d7ab619	0.061208818
201	0x3c8cb6c3	0.017176991
202	0x3dedd560	0.11612964
203	0xbc3fcb6e	-0.011706216
204	0xbde065d6	-0.10956924
205	0x3df3ad29	0.11898262
206	0x3cf6f667	0.03014679
207	0xbd32eaf0	-0.043681085
208	0xbdde44fb	-0.10853001
209	0x3d345630	0.044027507
210	0xbe309d5e	-0.17247531
211	0x3d215ca6	0.039394997
212	0x3dc096d7	0.094037704
213	0xbe169d83	-0.14708523
214	0xbde20b1a	-0.11037274
215	0xbdf3efd5	-0.11910979
216	0x3e1e2755	0.15444691
217	0x3e167add	0.14695306
218	0x3b61e357	0.003446778
219	0x3e21c411	0.1579745
220	0xbd57d45a	-0.05269275
221	0xbe27a28a	-0.16370597
222	0x3d8cfbac	0.0688394
223	0x3d8b823d	0.0681195
224	0x3e294a95	0.16532357
225	0xb7a1f304	-1.9305859e-05
226	0x3e028f64	0.12750012
227	0x3dcd9505	0.10038189
228	0x3df5b09e	0.11996578
229	0xbe2b744c	-0.16743582
230	0x3e0ce354	0.13758594
231	0xbe1222d1	-0.14271094
232	0x3e1a1c4a	0.15049854
233	0xb8ac42c0	-8.214032e-05
234	0xbe183f4e	-0.14867899
235	0x3d28d32c	0.041217014
236	0xbce5e4a9	-0.028063135
237	0xbe1a6a3c	-0.15079588
238	0xbd65e943	-0.05613066
239	0x3c2a9c95	0.010413309
240	0x3e04d047	0.12970077
241	0xbd3e0aee	-0.046397142
242	0x3dc6b4e0	0.09702468
243	0x3c6a01fe	0.014282702
244	0xba755bc4	-0.00093596824
245	0x3cd445c2	0.02591217
246	0xbddd41bb	-0.10803553
247	0xbe0e49fa	-0.13895407
248	0xbd42f2c9	-0.04759482
249	0xbe2081f1	-0.15674569
250	0xbd9884e3	-0.07447221
251	0x3a47cfdd	0.00076222216
252	0xbdde1a9b	-0.10844918
253	0xbd85dcfa	-0.065362886
254	0xbcc37194	-0.02385787
255	0xbc4d3d3a	-0.012526805

4.bias f4 [32]
0	0x3db30c62	0.08742596
1	0x3d506794	0.05088003
2	0xbd986886	-0.07441811
3	0x3de28718	0.11060923
4	0xbd54a624	-0.051916257
5	0xbc2f4e48	-0.010699816
6	0xbd7e45f0	-0.062078416
7	0xbe238893	-0.15970068
8	0x3cd0ba9d	0.02547961
9	0x3d3c5744	0.04598166
10	0xbda5f4e9	-0.081033535
11	0x3de41ddf	0.1113851
12	0xbe1a3583	-0.15059476
13	0xbe265264	-0.16242367
14	0xbdcf4725	-0.101209916
15	0xbd5e35d5	-0.054250557
16	0xbc415c99	-0.011801862
17	0xbd035c66	-0.03207054
18	0x3d9d4634	0.07679406
19	0xbe16b133	-0.14716034
20	0x3cb5ab33	0.02217636
21	0x37ba3b00	2.2200402e-05
22	0x3d5a1e49	0.05325154
23	0x3e30b70b	0.17257325
24	0x3dd88c34	0.105736166
25	0xbdb82233	-0.08990898
26	0xbe0c29bc	-0.13687795
27	0xbd49f084	-0.04930164
28	0xbda54919	-0.08070583
29	0x3d6fd0b1	0.058548633
30	0xbabb2179	-0.0014276943
31	0x3e0f0d7c	0.13969988

6.weight f4 [2, 32]
0	0x3d9a62f5	0.07538406
1	0xbcddeaac	-0.02708944
2	0x3c4c0aa2	0.012453707
3	0x3d457240	0.04820466
4	0xbcd3f800	-0.025875092
5	0x3e0b8ad2	0.13627174
6	0xbe137b7e	-0.14402577
7	0x3da0238e	0.078192815
8	0xbddb6880	-0.10713291
9	0xbe193e0c	-0.14965075
10	0xbce86bb9	-0.028371679
11	0x3dbbd4ab	0.091714226
12	0x3def761f	0.11692452
13	0x3d1531c1	0.036424402
14	0xbbf64755	-0.0075158277
15	0xbc899a82	-0.016797308
16	0xbd8274e2	-0.0636995
17	0xbc4853b5	-0.012226989
18	0xbc14d600	-0.009084225
19	0x3e11ddc6	0.14244756
20	0x3dd9a34c	0.106268495
21	0xbe0bfb12	-0.13669994
22	0xbbc45f8c	-0.0059928354
23	0xbdd6af86	-0.10482697
24	0xbcb5f314	-0.022210635
25	0xbe07b1fe	-0.13251492
26	0x3d1bb6e4	0.038016215
27	0xbe09508e	-0.13409635
28	0x3e2a8777	0.16653238
29	0x3e0b6613	0.13613157
30	0xbdee4a23	-0.11635234
31	0xbe2bf996	-0.16794428
32	0x3a788df8	0.0009481604
33	0xbd604a65	-0.05475845
34	0x3d3a6c80	0.04551363
35	0xbe008aca	-0.12552944
36	0x3d9c40a6	0.07629518
37	0xbe15d396	-0.14631495
38	0xbdb3210e	-0.08746539
39	0xbdadffa5	-0.08496026
40	0x3da3d1e2	0.07999016
41	0xbc2112a1	-0.009831102
42	0xbe25c9cb	-0.16190259
43	0xbdda2c86	-0.106530234
44	0xbd9739cf	-0.07384073
45	0xbe1fc779	-0.15603437
46	0x3c721ad4	0.014776904
47	0x3d8f1bdf	0.06987738
48	0xbcc8ea52	-0.024525795
49	0xbd977e0a	-0.07397087
50	0xbb89ab1d	-0.0042013065
51	0xbe079b75	-0.13242896
52	0xbde2274c	-0.110426515
53	0xbc0ff31d	-0.00878599
54	0x3e27ab47	0.16373931
55	0xbd6e9ae0	-0.05825317
56	0x3da775fc	0.081768006
57	0xbd7c5a05	-0.061609287
58	0xbd203943	-0.03911711
59	0xbe258623	-0.1616445
60	0x3e0dcc40	0.13847446
61	0x3e2d7f4f	0.16943096
62	0xbc14258d	-0.009042156
63	0x3de92421	0.11383844

6.bias f4 [2]
0	0x3e171ebe	0.14757821
1	0x3dadb61f	0.084820025

exp_avg f4 [32, 2]
0	0xb8c3ba89	-9.3330695e-05
1	0x3a318eea	0.000677331
2	0xb697b22e	-4.5208935e-06
3	0xb8379ae2	-4.3774846e-05
4	0xba0d1fff	-0.0005383491
5	0xba4cd397	-0.0007813512
6	0xb7feada1	-3.0360012e-05
7	0x38f5e9cb	0.00011726058
8	0x3a55851a	0.0008145139
9	0xbabe99f8	-0.0014541736
10	0xb9b88d9b	-0.0003520072
11	0xb9d86c93	-0.00041279625
12	0x38fe37f6	0.00012122087
13	0x3a6820b3	0.000885497
14	0x39320f7d	0.00016981173
15	0xba58e14e	-0.0008273319
16	0x374e6f08	1.2304408e-05
17	0x388738ce	6.447882e-05
18	0xb79bc75d	-1.8570276e-05
19	0x37285c53	1.0035076e-05
20	0xb799b78a	-1.8324488e-05
21	0xb696c21c	-4.4929457e-06
22	0xb7583d4d	-1.2888876e-05
23	0x35179c1c	5.647905e-07
24	0x3789c4e0	1.642335e-05
25	0x380fc395	3.4276007e-05
26	0x3900444d	0.00012232475
27	0xb9396d7e	-0.00017683764
28	0x378be5ac	1.667704e-05
29	0xb9dc8668	-0.0004206181
30	0x38598d4b	5.186842e-05
31	0xbaaf7bbc	-0.0013388316
32	0xb8f3da9d	-0.00011627863
33	0x380d9106	3.3752083e-05
34	0xb7a17510	-1.9247207e-05
35	0xb9481a9f	-0.00019083403
36	0xb93fb265	-0.00018281637
37	0xb924ddc4	-0.00015722873
38	0xb8f9224d	-0.00011879634
39	0x393dc96b	0.00018099479
40	0x39e04865	0.00042778548
41	0x3aad792c	0.0013234965
42	0x39fe0bff	0.00048455593
43	0x3a894f49	0.0010475899
44	0x3a356ec6	0.00069211086
45	0x3b1ceeac	0.002394597
46	0x38047739	3.1582287e-05
47	0x3763afd1	1.357119e-05
48	0x38307c21	4.2077274e-05
49	0x392a65e3	0.00016250419
50	0xb8b53ef6	-8.64248e-05
51	0x39c8bc46	0.00038287247
52	0xb9b12857	-0.00033790126
53	0xb9e4799d	-0.00043578158
54	0x3a35bd38	0.0006932798
55	0x3a804fb4	0.0009789378
56	0xb68bc61f	-4.165587e-06
57	0x37b008c0	2.098491e-05
58	0xb750b70f	-1.2440388e-05
59	0x3aa2fba4	0.0012434614
60	0xb925cd52	-0.00015812114
61	0x39d1390b	0.00039906087
62	0xb980c28d	-0.00024559014
63	0x395f3d16	0.00021289694

exp_avg_sq f4 [32, 2]
0	0x3112df74	2.1372815e-09
1	0x3263ad34	1.3252521e-08
2	0x300e0aae	5.1674476e-10
3	0x2fa671d6	3.027611e-10
4	0x327cc492	1.47130255e-08
5	0x328c21b1	1.6313466e-08
6	0x302cce11	6.2866073e-10
7	0x307bc41e	9.159197e-10
8	0x32dbfbb7	2.5609422e-08
9	0x339d047e	7.311699e-08
10	0x31d2a557	6.1306014e-09
11	0x31bccfc2	5.4951395e-09
12	0x32534e72	1.2299653e-08
13	0x32d7e0de	2.5131552e-08
14	0x3194d1b9	4.3312096e-09
15	0x32f827d9	2.888912e-08
16	0x306ffd06	8.730726e-10
17	0x310b9f71	2.0317794e-09
18	0x2d159b44	8.504145e-12
19	0x2c2f4308	2.4906206e-12
20	0x2d11addb	8.280899e-12
21	0x2b0dae8c	5.0335495e-13
22	0x2e995ef2	6.9745e-11
23	0x2f0ec339	1.2984182e-10
24	0x2e858adb	6.0728055e-11
25	0x2e96cabe	6.8572245e-11
26	0x308a23b1	1.0050966e-09
27	0x310215f1	1.8929962e-09
28	0x3189b3de	4.0076733e-09
29	0x31e56b43	6.6769714e-09
30	0x3185b11c	3.8909445e-09
31	0x338cb12f	6.5514875e-08
32	0x313d3df0	2.7538327e-09
33	0x2fe052b9	4.080414e-10
34	0x30482cbd	7.2823153e-10
35	0x31cc7320	5.9502696e-09
36	0x319ec85f	4.6211848e-09
37	0x3147213d	2.8977205e-09
38	0x303aaf72	6.791573e-10
39	0x30cbdc14	1.4832744e-09
40	0x31eb4e66	6.848313e-09
41	0x3390c53e	6.741401e-08
42	0x320a0023	8.032688e-09
43	0x335dc158	5.1631417e-08
44	0x32dc723a	2.5663315e-08
45	0x34367025	1.6990869e-07
46	0x2ef3d217	1.108768e-10
47	0x2db2d38f	2.0330208e-11
48	0x2f601c56	2.0382748e-10
49	0x30ee2199	1.7326328e-09
50	0x316f2b3e	3.4803658e-09
51	0x3212b01c	8.538361e-09
52	0x319bb51a	4.5316826e-09
53	0x322af158	9.950178e-09
54	0x327e5fc0	1.4806517e-08
55	0x33378de8	4.273707e-08
56	0x30e20aa7	1.6446692e-09
57	0x307cbbdc	9.194403e-10
58	0x313607af	2.6488853e-09
59	0x3342fb9d	4.5397986e-08
60	0x3046566a	7.215478e-10
61	0x31b5fd78	5.2966094e-09
62	0x31031811	1.907669e-09
63	0x30ceb87f	1.504091e-09

exp_avg f4 [32]
0	0xb901e4d6	-0.00012387647
1	0xb9076505	-0.00012912236
2	0x392da2c3	0.00016559199
3	0x38a8c99a	8.0484155e-05
4	0x3a9aa27b	0.001179769
5	0xb9ee55ab	-0.00045458725
6	0xba391942	-0.00070609536
7	0x396e5284	0.00022728188
8	0x374d032a	1.2219689e-05
9	0xb80a6f0b	-3.300518e-05
10	0xb8269319	-3.971448e-05
11	0xb854d1db	-5.0740182e-05
12	0xb8c13440	-9.2126895e-05
13	0xb89da53e	-7.517122e-05
14	0x398dfdd3	0.0002708273
15	0x3a583556	0.0008247694
16	0xb9334b70	-0.00017098873
17	0xb9377c56	-0.00017498559
18	0xb7cdf5b8	-2.4552326e-05
19	0xb9467fa1	-0.00018930297
20	0x38c4f669	9.391906e-05
21	0x3a864f57	0.0010247034
22	0xb882565a	-6.214967e-05
23	0xb7cb9785	-2.4270043e-05
24	0xb8f2c415	-0.00011575982
25	0xb9058f36	-0.00012737219
26	0xb9cc86ca	-0.00039010338
27	0x3a8a51a3	0.0010552894
28	0xb917704c	-0.00014442316
29	0xba843917	-0.0010087815
30	0xb9d531ff	-0.00040663776
31	0xb99a6b54	-0.00029453135

exp_avg_sq f4 [32]
0	0x31ba8a9e	5.4290714e-09
1	0x309bf57d	1.1347506e-09
2	0x32880e09	1.5838866e-08
3	0x308e8c7a	1.0371786e-09
4	0x33801b6d	5.965453e-08
5	0x32076620	7.881255e-09
6	0x32b1ac2f	2.0683812e-08
7	0x322df1c8	1.01249e-08
8	0x309b76f9	1.1311548e-09
9	0x2debf107	2.6823445e-11
10	0x2e2ac0d6	3.8824798e-11
11	0x2f821d4e	2.3667684e-10
12	0x2f90c2c1	2.6331828e-10
13	0x30f46998	1.7783348e-09
14	0x3171e106	3.5198027e-09
15	0x32eedc50	2.7807033e-08
16	0x315eeb43	3.2438983e-09
17	0x31b87054	5.367875e-09
18	0x321def58	9.193023e-09
19	0x30c567fa	1.4363188e-09
20	0x3289fb72	1.6063243e-08
21	0x33421516	4.5188322e-08
22	0x334be04c	4.7468617e-08
23	0x2e7509d1	5.571527e-11
24	0x30b7d71c	1.337614e-09
25	0x31a66c55	4.843552e-09
26	0x3248882c	1.1672494e-08
27	0x3343588d	4.5482512e-08
28	0x316253af	3.2934897e-09
29	0x332857b8	3.9195328e-08
30	0x31ac7721	5.0194022e-09
31	0x3133300c	2.607524e-09

exp_avg f4 [32, 32]
0	0x3716ce4a	8.988727e-06
1	0xb65493cf	-3.1676498e-06
2	0xb6601e03	-3.339607e-06
3	0xb71f93e0	-9.511568e-06
4	0xb6b9bf05	-5.5356672e-06
5	0x3619646f	2.2857237e-06
6	0xb593c054	-1.1008328e-06
7	0xb6ed80c2	-7.07814e-06
8	0x331ad9df	3.605407e-08
9	0xb6df0b15	-6.647208e-06
10	0xb70b71b9	-8.311524e-06
11	0xb6b24fe5	-5.3141143e-06
12	0xb70ff939	-8.581491e-06
13	0xb6cf6366	-6.1806522e-06
14	0x3724fc31	9.83388e-06
15	0x35e08204	1.672714e-06
16	0x3640ce0d	2.8730167e-06
17	0xb719ae56	-9.160101e-06
18	0xb6d6280c	-6.382359e-06
19	0xb6517c67	-3.1215839e-06
20	0x35b4a2d3	1.3458433e-06
21	0xb710c4da	-8.628902e-06
22	0xb689d953	-4.108218e-06
23	0xb6c28742	-5.7973966e-06
24	0x31991e6f	4.456346e-09
25	0xb66bff47	-3.516632e-06
26	0xb4fdb3f9	-4.725587e-07
27	0xb6dd339f	-6.5923227e-06
28	0xb6e029a5	-6.6805683e-06
29	0xb6bd5f0b	-5.6437034e-06
30	0xb657dd10	-3.2166172e-06
31	0xb701758e	-7.7163695e-06
32	0x39c6ee68	0.0003794313
33	0x3975adb7	0.00023429735
34	0x397f509a	0.00024348721
35	0x3803dc3e	3.143795e-05
36	0xb70b2c8d	-8.295418e-06
37	0x377e76ef	1.5167271e-05
38	0x3986f330	0.0002573966
39	0x3868b9a1	5.548599e-05
40	0x398dab40	0.00027021207
41	0xb724109c	-9.779029e-06
42	0x3631e99d	2.6511036e-06
43	0x375dd2ce	1.3221708e-05
44	0x370ebcfe	8.507863e-06
45	0x380c5d19	3.3465305e-05
46	0x370c33ad	8.356682e-06
47	0xb7b9c273	-2.2144266e-05
48	0x36e16f98	6.7185138e-06
49	0x37be7dc8	2.2708336e-05
50	0x39c616f5	0.00037782607
51	0x37048124	7.897881e-06
52	0x3882f1cd	6.243922e-05
53	0x3987c2a6	0.0002589423
54	0x37bc5444	2.2450586e-05
55	0xb68998bb	-4.1006983e-06
56	0xb56b19db	-8.7581947e-07
57	0x37e07ecb	2.6761923e-05
58	0x39968fc0	0.00028717332
59	0x38deb0bd	0.00010618705
60	0x3910afc1	0.00013798384
61	0xb7287ad7	-1.0042181e-05
62	0x364c265f	3.0420704e-06
63	0xb6aeedba	-5.213279e-06
64	0x37f4bdb1	2.9175399e-05
65	0x396a253f	0.00022329854
66	0x39846dde	0.0002525886
67	0x37be4f18	2.2686596e-05
68	0x3961acfa	0.00021522111
69	0xb8eee16f	-0.00011390715
70	0x37b45c78	2.1500731e-05
71	0x382fc0f5	4.1902957e-05
72	0x38120a92	3.4818957e-05
73	0xb6b331ec	-5.3404274e-06
74	0xb6a345b9	-4.8658953e-06
75	0x3792ae6c	1.7485778e-05
76	0x393c3914	0.0001795034
77	0x39c65c8f	0.00037834464
78	0x3a0c07b5	0.00053417246
79	0x3986de01	0.00025723877
80	0xb8e5150f	-0.000109234934
81	0x37d29362	2.5102581e-05
82	0xb7b0179f	-2.0991834e-05
83	0xb71a745a	-9.2062055e-06
84	0x393b57c0	0.00017866399
85	0x38529efe	5.0215975e-05
86	0x390fa9f0	0.0001370085
87	0xb676c004	-3.6768624e-06
88	0x392f7e3e	0.0001673633
89	0x39b727be	0.0003493409
90	0x399a2201	0.00029398504
91	0xb74a77ee	-1.2068062e-05
92	0x38c16053	9.220899e-05
93	0x3960af39	0.0002142758
94	0xb5d002ab	-1.5497984e-06
95	0x3757157b	1.282e-05
96	0xb96e7efc	-0.00022744754
97	0xb8f65728	-0.00011746428
98	0xb8c4572b	-9.3622446e-05
99	0xb790c94c	-1.7259874e-05
100	0xb2888bdf	-1.589609e-08
101	0xb4ca88e2	-3.7725027e-07
102	0xb924c2a6	-0.00015712771
103	0xb80d3db3	-3.367448e-05
104	0xb93bfd5a	-0.0001792809
105	0xb669ed29	-3.485775e-06
106	0x370a62b9	8.248427e-06
107	0xb76180c8	-1.3441029e-05
108	0xb495b610	-2.788588e-07
109	0x373a09db	1.1088759e-05
110	0xb6c6f744	-5.9296453e-06
111	0xb7137204	-8.788429e-06
112	0xb64cd469	-3.0522008e-06
113	0xb79b172d	-1.8488232e-05
114	0xb94ce44a	-0.0001954
115	0x369442bc	4.4185126e-06
116	0xb811fd1c	-3.480642e-05
117	0xb9373a9c	-0.00017474074
118	0xb782d56f	-1.5596595e-05
119	0x371f8948	9.509102e-06
120	0x35a4d505	1.2280949e-06
121	0x38aa14b8	8.110091e-05
122	0xb8d4bb83	-0.000101438745
123	0xb87dfad4	-6.0553502e-05
124	0xb8a71374	-7.966804e-05
125	0x36eedac7	7.1184218e-06
126	0xb691e5d0	-4.3480904e-06
127	0xb5f02883	-1.7893184e-06
128	0xb76520b1	-1.3657075e-05
129	0xb3201962	-3.727599e-08
130	0x38b8301c	8.782765e-05
131	0x368725fa	4.0277346e-06
132	0xb6e3d673	-6.7900924e-06
133	0xb722d860	-9.706331e-06
134	0x38b81130	8.777005e-05
135	0x37f72d2c	2.946573e-05
136	0x38e02bfb	0.00010689344
137	0x370a47b3	8.242135e-06
138	0x36a942fe	5.0443914e-06
139	0x362ce771	2.5764714e-06
140	0xb8215a9c	-3.8469778e-05
141	0x364faabb	3.0944782e-06
142	0xb7f23315	-2.8872435e-05
143	0x385d914e	5.282583e-05
144	0x36829549	3.891681e-06
145	0xb6c3a19a	-5.8302658e-06
146	0x389adf10	7.384841e-05
147	0xb6bab42d	-5.564207e-06
148	0x3846ac97	4.7367615e-05
149	0xb7d45dd4	-2.5316062e-05
150	0x383b4af4	4.465408e-05
151	0x3650b66a	3.1100594e-06
152	0xb6396665	-2.762675e-06
153	0x3740dae2	1.1495054e-05
154	0x3812860b	3.493395e-05
155	0xb718b5cd	-9.102235e-06
156	0x3868637c	5.5405762e-05
157	0x383d813c	4.518147e-05
158	0xb63f4e84	-2.850692e-06
159	0xb71cf15e	-9.354522e-06
160	0xb8dc86ac	-0.00010515502
161	0xb84a95ae	-4.8299953e-05
162	0x37818751	1.544101e-05
163	0x356d678d	8.8440066e-07
164	0x35dc242e	1.6401807e-06
165	0xb8465be5	-4.7292462e-05
166	0xb8753481	-5.846145e-05
167	0xb8180c2c	-3.625096e-05
168	0xb888988c	-6.5133994e-05
169	0x371ac465	9.224842e-06
170	0xb59ff0ff	-1.1916562e-06
171	0xb6be1f77	-5.6661042e-06
172	0xb60c2cce	-2.0887705e-06
173	0xb71a8511	-9.210097e-06
174	0xb5714c8f	-8.9890904e-07
175	0xb807c9e4	-3.2374533e-05
176	0xb7f94b08	-2.9718052e-05
177	0x33afb65e	8.182245e-08
178	0xb84703e8	-4.7448935e-05
179	0xb60ffd51	-2.145611e-06
180	0xb748c178	-1.1965974e-05
181	0xb8b31380	-8.539017e-05
182	0xb7773537	-1.4734737e-05
183	0xb7223529	-9.66833e-06
184	0xb609fb8b	-2.0561008e-06
185	0x37cb0349	2.4201016e-05
186	0xb4bc445c	-3.5067467e-07
187	0xb85b4dae	-5.2286014e-05
188	0xb7e03dd1	-2.6731666e-05
189	0xb7c2ec4b	-2.3236635e-05
190	0xb71ca83a	-9.337493e-06
191	0x3706bbcb	8.030746e-06
192	0x3aac44df	0.0013143084
193	0x39afa098	0.00033498253
194	0xb9f17ef0	-0.00046061678
195	0x38264a25	3.9646537e-05
196	0xbaa5b2e1	-0.0012641811
197	0x39a5e2e9	0.00031640314
198	0xba2162ae	-0.0006156367
199	0xba4f5fd0	-0.00079107005
200	0xba2cca02	-0.0006591381
201	0xb5163aa1	-5.596467e-07
202	0xb6519745	-3.1231477e-06
203	0x37b72a7a	2.183508e-05
204	0xb9abfe1c	-0.00032804988
205	0xbb0905e1	-0.0020908045
206	0xbb4f466d	-0.003162767
207	0xbb6064ed	-0.0034239844
208	0x399873f9	0.00029078106
209	0x38168684	3.5888064e-05
210	0x3aa6906a	0.0012707834
211	0xb7d9c40e	-2.5959711e-05
212	0xbacf4e9d	-0.0015816275
213	0x3a480f87	0.0007631708
214	0xbafdc620	-0.0019361414
215	0x36cf3474	6.175187e-06
216	0xba6a1810	-0.0008929977
217	0xba8c6e20	-0.0010713972
218	0x39b29968	0.00034065102
219	0x39a80cfe	0.00032053137
220	0xba4aa8ef	-0.00077308615
221	0xbb3b82b0	-0.0028611831
222	0xb8e485a9	-0.00010896783
223	0xb8a9dcfc	-8.0997095e-05
224	0x388eaef4	6.803675e-05
225	0xb84cbf13	-4.8815342e-05
226	0xb830a2ab	-4.2113166e-05
227	0xb8beff72	-9.1074864e-05
228	0xb6ce0de5	-6.140896e-06
229	0xb703968d	-7.843261e-06
230	0xb8f9aa5c	-0.00011904977
231	0xb8325b95	-4.25238e-05
232	0xb901a04a	-0.00012362111
233	0xb617b328	-2.2605036e-06
234	0x36dc4598	6.5646127e-06
235	0xb8995556	-7.3115036e-05
236	0x3913f04b	0.00014108529
237	0x38869378	6.417086e-05
238	0x390d5f10	0.00013482221
239	0xb923e98f	-0.00015631899
240	0xb587cc67	-1.0117773e-06
241	0xb887940b	-6.464877e-05
242	0xb921f22c	-0.00015444373
243	0xb569a217	-8.7035136e-07
244	0x360ea9b0	2.125842e-06
245	0xb649b89b	-3.0058789e-06
246	0xb8fc2898	-0.000120238576
247	0xb712b6db	-8.7448525e-06
248	0xb704ae67	-7.908419e-06
249	0x38da612a	0.00010413148
250	0xb8a49c6a	-7.849264e-05
251	0xb7a71906	-1.9919604e-05
252	0xb837feed	-4.3868018e-05
253	0xb8fcc6ef	-0.00012053351
254	0x362ad21e	2.5454278e-06
255	0x36b161d8	5.2864016e-06

exp_avg_sq f4 [32, 32]
0	0x2c0cb968	1.9998118e-12
1	0x2a8dc398	2.5182352e-13
2	0x2a9d6485	2.7958552e-13
3	0x2c1d823a	2.2383332e-12
4	0x2b5677a5	7.6194113e-13
5	0x2a14efa0	1.3228177e-13
6	0x290f7aa4	3.1858752e-14
7	0x2baedc85	1.242465e-12
8	0x25d3f69d	3.6769777e-16
9	0x2b9a4f99	1.0964451e-12
10	0x2bf0c7a1	1.7108434e-12
11	0x2b45be5e	7.0252647e-13
12	0x2c004e5a	1.8233388e-12
13	0x2b85828c	9.486452e-13
14	0x2c2853a4	2.3920666e-12
15	0x29a17b6e	7.171248e-14
16	0x2a69c68e	2.0763445e-13
17	0x2c121f22	2.076513e-12
18	0x2b8e516e	1.0112308e-12
19	0x2a89b75a	2.4463314e-13
20	0x2953835c	4.6965348e-14
21	0x2c01b8e8	1.8434646e-12
22	0x2aed4055	4.2144296e-13
23	0x2b6b194b	8.352387e-13
24	0x2316af49	8.168634e-18
25	0x2aae5629	3.0968395e-13
26	0x27eda9b2	6.59647e-15
27	0x2b97c929	1.0785028e-12
28	0x2b9bdb1e	1.107423e-12
29	0x2b5ede63	7.9178867e-13
30	0x2a922195	2.5958112e-13
31	0x2bcfa868	1.4754977e-12
32	0x329e06ee	1.8396772e-08
33	0x3203cdef	7.6720275e-09
34	0x328b3407	1.6205389e-08
35	0x2f67a3e0	2.1067548e-10
36	0x2befd9ec	1.7042457e-12
37	0x2d5a1a31	1.2397681e-11
38	0x3274636f	1.4225278e-08
39	0x3015a676	5.444244e-10
40	0x328bf866	1.6294688e-08
41	0x2c2675d7	2.3655433e-12
42	0x2a47798a	1.7716918e-13
43	0x2e61c95b	5.1337917e-11
44	0x2ca915de	4.8056966e-12
45	0x2f463389	1.8026304e-10
46	0x2c29d0d8	2.4132276e-12
47	0x30026bdb	4.7446996e-10
48	0x2cf26ba7	6.8900055e-12
49	0x2eb89a2c	8.394738e-11
50	0x32db3af0	2.5521757e-08
51	0x2bd97ff3	1.545429e-12
52	0x30dc5746	1.6031911e-09
53	0x31dfdfde	6.515605e-09
54	0x2ff3e097	4.4361023e-10
55	0x2aec640c	4.1991443e-13
56	0x28b96620	2.0583416e-14
57	0x3087b30c	9.873431e-10
58	0x32984fef	1.7731479e-08
59	0x303fd4c6	6.9787764e-10
60	0x319ec6eb	4.6210196e-09
61	0x2fa99273	3.084498e-10
62	0x2a82de13	2.3246734e-13
63	0x2b3e5b66	6.76284e-13
64	0x320a1992	8.038471e-09
65	0x3154c968	3.0964546e-09
66	0x32360b09	1.0596303e-08
67	0x2f0240c0	1.1846435e-10
68	0x311ba44c	2.264886e-09
69	0x303a7dd6	6.784523e-10
70	0x328330dd	1.5272628e-08
71	0x3158c427	3.1543637e-09
72	0x32945a90	1.727065e-08
73	0x2b47b1bc	7.094566e-13
74	0x2b25fcaa	5.897042e-13
75	0x2e39f911	4.2285345e-11
76	0x3067d511	8.4340096e-10
77	0x31e95e8b	6.791941e-09
78	0x323c2b1e	1.0952844e-08
79	0x32a274f3	1.8912464e-08
80	0x30235a40	5.942731e-10
81	0x2e892ff8	6.23856e-11
82	0x320bd7b2	8.139908e-09
83	0x2c13551e	2.0937206e-12
84	0x31d38e10	6.157059e-09
85	0x30f7f2a6	1.804058e-09
86	0x3206a456	7.837192e-09
87	0x2b1f731f	5.664791e-13
88	0x306a4961	8.523298e-10
89	0x321b69b7	9.046224e-09
90	0x3201c58f	7.553708e-09
91	0x2f34e9f6	1.6454024e-10
92	0x31c30f20	5.6769665e-09
93	0x3266d612	1.3436436e-08
94	0x298b23d9	6.1790586e-14
95	0x2cd44c72	6.0338895e-12
96	0x32001896	7.456171e-09
97	0x31a53942	4.8086415e-09
98	0x320cf73c	8.205287e-09
99	0x2f5d46d8	2.0125002e-10
100	0x252e82a8	1.5136362e-16
101	0x27a0852b	4.45533e-15
102	0x31b4c5b3	5.2611653e-09
103	0x2ea6e53e	7.5895276e-11
104	0x31d73f0e	6.264492e-09
105	0x2aab521c	3.0432677e-13
106	0x2bed26f7	1.6850678e-12
107	0x2e5f309b	5.07475e-11
108	0x274342b0	2.7097838e-15
109	0x2dbf1303	2.1722629e-11
110	0x2b75e252	8.735557e-13
111	0x2c068b73	1.9119955e-12
112	0x2a83baf6	2.3400005e-13
113	0x2ea0db95	7.314963e-11
114	0x325937f6	1.26437865e-08
115	0x2b090fb6	4.869398e-13
116	0x2ff83b89	4.515324e-10
117	0x31557e6d	3.1067444e-09
118	0x2d9383d9	1.6770517e-11
119	0x2c1d6d60	2.2371757e-12
120	0x293128a6	3.9337152e-14
121	0x302a206d	6.189172e-10
122	0x323ed2a0	1.1107346e-08
123	0x2f74d9c0	2.2269031e-10
124	0x30f3b995	1.7733323e-09
125	0x2bb0d91a	1.256581e-12
126	0x2b04c2af	4.7166e-13
127	0x29b838f7	8.181123e-14
128	0x301addc8	5.6340044e-10
129	0x3062fbc7	8.257612e-10
130	0x3180d5fa	3.7496166e-09
131	0x2ebadcf5	8.4975506e-11
132	0x2ba0fb85	1.1438494e-12
133	0x2c2400b3	2.330619e-12
134	0x3097e3e8	1.1051471e-09
135	0x2df44de3	2.7774177e-11
136	0x30bf256e	1.3907717e-09
137	0x2beccabe	1.6825081e-12
138	0x2b324ceb	6.334505e-13
139	0x2daecd86	1.987278e-11
140	0x2e6f48fb	5.4407128e-11
141	0x2fb8f09b	3.3640365e-10
142	0x2e9bcd7e	7.085087e-11
143	0x2f0aab2d	1.2611841e-10
144	0x2ad51961	3.785401e-13
145	0x2db48a77	2.0525122e-11
146	0x312e444a	2.535915e-09
147	0x2b58abca	7.697702e-13
148	0x2fbcecc8	3.4365244e-10
149	0x2f2057ad	1.4583064e-10
150	0x2ec6086a	9.005492e-11
151	0x2a88b675	2.4285058e-13
152	0x2a58612c	1.9218367e-13
153	0x30f04278	1.748119e-09
154	0x318864e9	3.969593e-09
155	0x2c5ceb09	3.1394351e-12
156	0x301e600c	5.7616556e-10
157	0x2eb73595	8.3313946e-11
158	0x2a66339c	2.0446009e-13
159	0x2c185e27	2.1652764e-12
160	0x311d7e15	2.2918176e-09
161	0x30543ba4	7.7209905e-10
162	0x311dbc19	2.2953428e-09
163	0x2e47fb8c	4.547078e-11
164	0x2c55324a	3.0297037e-12
165	0x2eae75a5	7.933502e-11
166	0x311fd4d2	2.325852e-09
167	0x2f73dcaa	2.2179117e-10
168	0x31379404	2.6714142e-09
169	0x2c142fde	2.1058637e-12
170	0x29272631	3.7114575e-14
171	0x2d23883d	9.295728e-12
172	0x29f9844e	1.10807725e-13
173	0x2cf4d30f	6.9583293e-12
174	0x2b4dc0ea	7.309835e-13
175	0x300555d6	4.85071e-10
176	0x2e45ff12	4.5019162e-11
177	0x2d212c34	9.1616055e-12
178	0x31524540	3.0598386e-09
179	0x2a038404	1.168094e-13
180	0x2fba1923	3.3851064e-10
181	0x30334024	6.521097e-10
182	0x2f94c51e	2.7061103e-10
183	0x2c219744	2.2963445e-12
184	0x29f1e934	1.0743004e-13
185	0x2f8cdaa5	2.5621208e-10
186	0x311848f8	2.216039e-09
187	0x2ed85032	9.836788e-11
188	0x30507c36	7.5846474e-10
189	0x2fb9607d	3.3719863e-10
190	0x2c17d0be	2.1574266e-12
191	0x2be0d936	1.5976445e-12
192	0x33b3e3c1	8.376765e-08
193	0x32427554	1.13189635e-08
194	0x3378137c	5.775972e-08
195	0x2f6c5565	2.1494413e-10
196	0x335c8cae	5.135069e-08
197	0x3183e765	3.8389083e-09
198	0x33e9fc88	1.0895843e-07
199	0x332b0698	3.9820037e-08
200	0x34036d10	1.2240002e-07
201	0x28211447	8.941692e-15
202	0x2a89da47	2.448755e-13
203	0x2e662bb4	5.233476e-11
204	0x31433a3a	2.8409333e-09
205	0x34062d7c	1.249627e-07
206	0x34a0ce8a	2.99526e-07
207	0x34f91763	4.639688e-07
208	0x3161bcd4	3.2849146e-09
209	0x2eb37cc4	8.1621404e-11
210	0x33d05cd2	9.702639e-08
211	0x2df8b0b8	2.8272815e-11
212	0x33d5d770	9.957773e-08
213	0x32e13dbe	2.6221525e-08
214	0x342b62a7	1.5961506e-07
215	0x2c750090	3.4816906e-12
216	0x32c91c84	2.3412447e-08
217	0x3342306a	4.5213177e-08
218	0x331e3982	3.6839545e-08
219	0x318b710b	4.058284e-09
220	0x335513dd	4.9610993e-08
221	0x34aef423	3.2587658e-07
222	0x3018f965	5.565169e-10
223	0x2f5f1203	2.0288131e-10
224	0x32417a20	1.1261847e-08
225	0x32564436	1.2471949e-08
226	0x336dd412	5.537374e-08
227	0x309f1e10	1.1577317e-09
228	0x2b83ce9c	9.365455e-13
229	0x2bd683a6	1.5242154e-12
230	0x3255281f	1.2407354e-08
231	0x2ed8dfd6	9.862304e-11
232	0x327d5ca6	1.4747604e-08
233	0x2a11b861	1.2942556e-13
234	0x2b9684ce	1.0695002e-12
235	0x2fd988ca	3.9569265e-10
236	0x3092d8ba	1.0684496e-09
237	0x324d7e32	1.1961264e-08
238	0x312a3f60	2.477428e-09
239	0x30f2160a	1.7614081e-09
240	0x28f41592	2.7098796e-14
241	0x2fd9ac5c	3.959454e-10
242	0x330cedf8	3.281272e-08
243	0x28b735b8	2.0340378e-14
244	0x31ae74cd	5.077345e-09
245	0x316bf68e	3.433715e-09
246	0x30870ba1	9.825848e-10
247	0x2c0537fa	1.893151e-12
248	0x2bda1404	1.5495387e-12
249	0x333feb9f	4.468495e-08
250	0x33799c0a	5.8116747e-08
251	0x2ecc8d86	9.3019856e-11
252	0x31f4e8d2	7.1278032e-09
253	0x308a92ce	1.0082546e-09
254	0x2a381934	1.6351227e-13
255	0x2b43b312	6.9526427e-13

exp_avg f4 [32]
0	0xb6a4f80f	-4.9164587e-06
1	0x399abb27	0.00029512608
2	0x39dc4106	0.00042010116
3	0xb908acfa	-0.0001303441
4	0x391034d1	0.00013752586
5	0xb62c3209	-2.5659122e-06
6	0xbaed6124	-0.0018110615
7	0xb82b1130	-4.0785584e-05
8	0xb9eb67d1	-0.00044900042
9	0xb8e60820	-0.00010968768
10	0xb71ea84e	-9.45672e-06
11	0xba896eea	-0.0010485325
12	0xbb243df4	-0.002506134
13	0x3a643d6e	0.00087066635
14	0xb92246f7	-0.0001547596
15	0x3b60c25f	0.0034295542
16	0xb8f8e03e	-0.0001186733
17	0x3a41d3a8	0.0007393905
18	0x3b0bd63f	0.0021337417
19	0xbabacef1	-0.0014252347
20	0x3adf99ee	0.0017059424
21	0x396703a0	0.00022031227
22	0xba3c010a	-0.00071717857
23	0xb709cea9	-8.213953e-06
24	0xb83b614a	-4.467488e-05
25	0x39910117	0.00027657367
26	0xb6ab3e17	-5.1034253e-06
27	0xb716cd35	-8.988475e-06
28	0x3a68a75d	0.0008875037
29	0xba03f09e	-0.0005033108
30	0xba8e40a7	-0.0010853008
31	0xb9e41557	-0.00043503448

exp_avg_sq f4 [32]
0	0x2b296e2a	6.0193745e-13
1	0x32fa9e98	2.917595e-08
2	0x32fbbbdd	2.9305676e-08
3	0x326aebd2	1.3674212e-08
4	0x31e6aae0	6.7133072e-09
5	0x31991642	4.4554165e-09
6	0x34676b42	2.1552572e-07
7	0x33d4dbfc	9.912034e-08
8	0x33876969	6.3056014e-08
9	0x33e5ae20	1.06953166e-07
10	0x2c1bb419	2.21268e-12
11	0x338ef9a0	6.657797e-08
12	0x34a9e548	3.1645527e-07
13	0x333d58a4	4.408561e-08
14	0x3241553d	1.12534595e-08
15	0x34e4608f	4.2538565e-07
16	0x314e66b0	3.0035316e-09
17	0x3462185a	2.1056749e-07
18	0x34326f4d	1.6618033e-07
19	0x33f7ea43	1.1544446e-07
20	0x33fbc5ea	1.1724099e-07
21	0x3255a58b	1.2435872e-08
22	0x32d79c11	2.5100265e-08
23	0x2beb2e8e	1.6710676e-12
24	0x333fc8d0	4.465329e-08
25	0x31cfcc9a	6.0477534e-09
26	0x2f5dd222	2.0174487e-10
27	0x2c0cb765	1.9997e-12
28	0x33ec36bc	1.09995625e-07
29	0x328e0d94	1.653715e-08
30	0x3319cc3b	3.5808835e-08
31	0x339f9f44	7.432985e-08

exp_avg f4 [32, 32]
0	0x363c636b	2.8072052e-06
1	0xb8819749	-6.1793784e-05
2	0xba253707	-0.000630245
3	0xb831f5c5	-4.242898e-05
4	0x33d9aae7	1.0135937e-07
5	0xb961f028	-0.00021547137
6	0xb920645d	-0.00015296177
7	0x36e505bc	6.8253994e-06
8	0xb96e13fc	-0.00022704893
9	0xb782e34f	-1.5603056e-05
10	0x36fea912	7.5894723e-06
11	0x39201d77	0.00015269766
12	0x388ea0c3	6.801032e-05
13	0xb808ea85	-3.264334e-05
14	0x39d84d78	0.0004125645
15	0x3a07484d	0.0005160615
16	0xb960a344	-0.00021423126
17	0xb932b106	-0.00017041349
18	0xb95eba27	-0.00021240917
19	0xb95de61e	-0.00021161928
20	0x39f441d5	0.00046588355
21	0xb8a370d1	-7.7934594e-05
22	0x386834d2	5.5362303e-05
23	0x36bc9058	5.6196404e-06
24	0x3a08cf28	0.0005218857
25	0xb9817a57	-0.00024695948
26	0xb73ab859	-1.1129386e-05
27	0xb482ddac	-2.4375674e-07
28	0xb91c8aa5	-0.00014928968
29	0xb94798a6	-0.00019034985
30	0x3a027e9e	0.0004977974
31	0x3a275743	0.00063835474
32	0x358716e1	1.0064942e-06
33	0xb7b2f138	-2.133158e-05
34	0xb94e395a	-0.00019667056
35	0xb782eb78	-1.5606856e-05
36	0x3517a779	5.649559e-07
37	0xb8871cf2	-6.442693e-05
38	0xb82579e3	-3.945258e-05
39	0x37262157	9.902134e-06
40	0xb8752f35	-5.8456517e-05
41	0xb75ebbcc	-1.3275956e-05
42	0xb6fd2839	-7.54467e-06
43	0x3841aaea	4.6173962e-05
44	0x37ba5752	2.221359e-05
45	0xb78d8df2	-1.6874608e-05
46	0x3917fa23	0.00014493665
47	0x392f7ab6	0.00016735014
48	0xb88f8d3c	-6.845078e-05
49	0xb83ffa11	-4.577084e-05
50	0xb894a9fc	-7.088852e-05
51	0xb87611bf	-5.8667498e-05
52	0x391f70b5	0.00015205408
53	0xb7fac8c5	-2.9895813e-05
54	0x38006a65	3.0616666e-05
55	0xb4c02e91	-3.5796668e-07
56	0x394c3e5d	0.00019478188
57	0xb896ef53	-7.197135e-05
58	0x362d14e9	2.579118e-06
59	0xb6efb094	-7.1433114e-06
60	0xb81cb189	-3.735864e-05
61	0xb84da443	-4.902879e-05
62	0x392d35a6	0.00016518551
63	0x39770255	0.00023556624
64	0x36f5873f	7.3173137e-06
65	0x38633fbc	5.4180375e-05
66	0x39c6baca	0.00037904672
67	0x37cab85a	2.4166122e-05
68	0xb642b00a	-2.901072e-06
69	0x3927637a	0.00015963419
70	0x396be68b	0.0002249723
71	0x374e7472	1.2305669e-05
72	0x395a48ac	0.00020817172
73	0x376a0c65	1.3950373e-05
74	0x370d826e	8.434623e-06
75	0x390fbe95	0.0001370854
76	0x381c1ab3	3.7218164e-05
77	0x370cb21e	8.386121e-06
78	0x39332165	0.0001708321
79	0x35c7970d	1.4870617e-06
80	0x39164036	0.00014329035
81	0x3985561f	0.00025431902
82	0x390d5165	0.0001347713
83	0x38e04623	0.00010694216
84	0xb6149b20	-2.2144013e-06
85	0x3873c4f5	5.8119145e-05
86	0x39860d6b	0.0002556847
87	0x370458d1	7.888492e-06
88	0x39928e03	0.00027953097
89	0x3965dedd	0.00021922165
90	0x35ddc747	1.652378e-06
91	0xb6240d7f	-2.444576e-06
92	0x38b8caf8	8.8116096e-05
93	0x3923f581	0.00015636349
94	0xb71840c5	-9.074986e-06
95	0x38f147e6	0.00011505168
96	0xb69182cf	-4.336565e-06
97	0xb92be0ee	-0.00016391624
98	0xbacb9707	-0.001553268
99	0xb8fcdb32	-0.00012057125
100	0xb800fc07	-3.0752297e-05
101	0xba10820e	-0.0005512544
102	0xb9cae5d1	-0.0003869967
103	0xb65d8102	-3.3006659e-06
104	0xba188ef5	-0.0005819642
105	0xb842e496	-4.646609e-05
106	0x3617fbd4	2.2647337e-06
107	0x39abffd1	0.0003280626
108	0x393e66be	0.00018158086
109	0xb8c6f9b2	-9.487885e-05
110	0x3a8378b0	0.0010030475
111	0x3aa4ae52	0.0012564159
112	0xba05ae16	-0.0005099488
113	0xb9e43e6f	-0.00043534065
114	0xba0b3e22	-0.0005311688
115	0xba06060c	-0.00051125954
116	0x3a956f2c	0.001140093
117	0xb95d3307	-0.00021095212
118	0x38b08fcc	8.419118e-05
119	0x364ae468	3.0233296e-06
120	0x3aa0034a	0.0012208011
121	0xba230ac0	-0.00062195584
122	0xb863c8a4	-5.430788e-05
123	0x36e26633	6.7472224e-06
124	0xb9c380bc	-0.00037289213
125	0xb9fbe480	-0.00048044696
126	0x3aa1e431	0.0012351332
127	0x3acbdab9	0.0015552855
128	0xb6ecb68f	-7.0546007e-06
129	0xb6d403fb	-6.3185557e-06
130	0x39bb4e43	0.0003572573
131	0xb6b4477c	-5.37274e-06
132	0xb6f1cdfe	-7.2063403e-06
133	0x38d759d8	0.000102687336
134	0xb910f965	-0.00013825817
135	0xb7158b1e	-8.913483e-06
136	0x3746ca20	1.1848781e-05
137	0xb7fa4f79	-2.983933e-05
138	0x371c99b6	9.334113e-06
139	0xb98254cd	-0.00024858714
140	0xb8c77d3b	-9.5123854e-05
141	0x386e6746	5.6839803e-05
142	0xba4de0f8	-0.00078536524
143	0xba3bec9b	-0.0007168741
144	0x3846a629	4.7361627e-05
145	0xb92788c3	-0.00015977309
146	0x39142686	0.00014128731
147	0x392bba24	0.00016377174
148	0xba3a425d	-0.0007105226
149	0x356c94e9	8.8133544e-07
150	0xb9d99fb8	-0.00041508465
151	0x361b9fa4	2.3189723e-06
152	0xba933736	-0.0011231664
153	0x39512eec	0.00019949273
154	0x36d8f03d	6.465269e-06
155	0xb6e2af0b	-6.7557025e-06
156	0xb7408390	-1.1474724e-05
157	0xb8471972	-4.7468995e-05
158	0xba39a407	-0.0007081632
159	0xba8e9299	-0.001087743
160	0x3636be5d	2.723092e-06
161	0x37bc6b63	2.2461352e-05
162	0xba6026a4	-0.000855068
163	0xb671b106	-3.601484e-06
164	0x37e2b02c	2.7023336e-05
165	0xb9210674	-0.0001535656
166	0x39ea0493	0.00044635366
167	0x38be2495	9.06672e-05
168	0x39673a2d	0.00022051549
169	0x3619fd40	2.2946188e-06
170	0x354602a4	7.376459e-07
171	0x3a68ca21	0.0008880217
172	0x399aa5b6	0.00029496633
173	0xb946d077	-0.0001896041
174	0x3b1aa736	0.00235982
175	0x3b0f7874	0.0021891864
176	0xb8c2699d	-9.270313e-05
177	0x39e962e0	0.0004451489
178	0xb9a8a3ed	-0.0003216559
179	0xb9cb34a2	-0.00038758392
180	0x3b0268f9	0.0019898994
181	0x36f88f81	7.407682e-06
182	0x3aaa39a2	0.0012987147
183	0x36c9406f	5.997768e-06
184	0x3b5eb653	0.0033983185
185	0xb9db1251	-0.00041784582
186	0x3775fbd9	1.4661776e-05
187	0xb67cef07	-3.7690058e-06
188	0xb8dbd664	-0.00010482667
189	0x39122c55	0.0001394016
190	0x3b0aae52	0.0021161032
191	0x3b45fff9	0.0030212386
192	0x351aac92	5.7620593e-07
193	0xb6b65b64	-5.434662e-06
194	0x3916bd70	0.00014375686
195	0x36566a28	3.1950276e-06
196	0xb7103f07	-8.5977435e-06
197	0x37a50189	1.9670248e-05
198	0xb8ba3c4d	-8.880403e-05
199	0xb6bf46ff	-5.7005086e-06
200	0xb5c1c5f7	-1.4437236e-06
201	0xb741364c	-1.1516338e-05
202	0x36e574b8	6.8383197e-06
203	0xb93fc31b	-0.00018287862
204	0xb8884cb4	-6.4992724e-05
205	0x3808cb4b	3.2614258e-05
206	0xb9d9b358	-0.00041523087
207	0xb9c5f44e	-0.0003775679
208	0xb6d67d83	-6.3923085e-06
209	0xb8c8ae41	-9.5692005e-05
210	0x36036daa	1.9584354e-06
211	0x38b19900	8.468516e-05
212	0xb9c09c8e	-0.00036737736
213	0xb7104f33	-8.601509e-06
214	0xb986d8f4	-0.00025720114
215	0xb6eb26d9	-7.008068e-06
216	0xba22bded	-0.0006208111
217	0x38817792	6.173471e-05
218	0x34d9f1af	4.0595248e-07
219	0x371ab709	9.2217315e-06
220	0xb68176b7	-3.85832e-06
221	0xb725c2de	-9.880137e-06
222	0xb9bfcd55	-0.00036583343
223	0xba1c772b	-0.0005968685
224	0x3721bcd3	9.640312e-06
225	0x31104fc7	2.1000106e-09
226	0x36fb300c	7.4859763e-06
227	0x36c75b77	5.94131e-06
228	0x36ecc9ac	7.056826e-06
229	0xb723c18a	-9.760619e-06
230	0x37073b5e	8.0604495e-06
231	0xb70c211d	-8.35236e-06
232	0x37139232	8.7959215e-06
233	0xb454b77c	-1.981079e-07
234	0xb711d515	-8.6922855e-06
235	0x362c7f51	2.5704105e-06
236	0xb5f45122	-1.8203029e-06
237	0xb713daf0	-8.812858e-06
238	0xb6658936	-3.4203526e-06
239	0x3559a6a7	8.108131e-07
240	0x36ff64c2	7.611322e-06
241	0xb6404fd2	-2.865669e-06
242	0x36c0f0c4	5.7500747e-06
243	0x358aa176	1.0328793e-06
244	0x3406106f	1.2485701e-07
245	0x35e3d7b1	1.6975592e-06
246	0xb6d5fc5e	-6.377274e-06
247	0xb7088a0f	-8.138376e-06
248	0xb644e481	-2.9339283e-06
249	0xb7198a6f	-9.151742e-06
250	0xb695d51b	-4.465355e-06
251	0x34821dde	2.4236118e-07
252	0xb6d6c6c4	-6.4008364e-06
253	0xb6846b28	-3.946381e-06
254	0xb5d41a89	-1.5802954e-06
255	0xb57a3d26	-9.322124e-07
