checkpoints/ablation_eps_0.10/ablation_eps_0.10_epoch0150.pt (torch, 43835 bytes, 24 tensors)

0.weight f4 [32, 2]
000000 d7 33 17 3f be 6c 14 3f 36 5f f4 bd 07 67 44 3f
       0.59063476 0.5797843 -0.119322225 0.7671971
000010 7c 8a 12 be b8 ef 54 3e 64 b4 e1 be dc 86 d8 3e
       -0.1431064 0.2079457 -0.4408294 0.4229039
000020 99 f9 14 3f 58 43 cd be 61 82 1e 3f 1e 82 39 3d
       0.58193356 -0.40090442 0.6191769 0.045290105
000030 56 6c f6 3e 26 2a d0 3c b9 4b b8 3e ec a4 68 bd
       0.4812953 0.025410723 0.35995272 -0.056797907
000040 a9 47 1c 3f 86 c7 92 3d 12 16 1c bb 02 f9 a3 34
       0.61046845 0.07166962 -0.0023816866 3.0542293e-07
000050 38 09 0b bb 25 a0 3e 16 8a 29 fd bd 23 42 17 3f
       -0.0021215212 1.539861e-25 -0.123614386 0.5908529
000060 07 5a 17 bf ea 5e f5 be d6 be 36 be 13 a6 d1 be
       -0.59121746 -0.47923976 -0.17846236 -0.40947017
000070 81 06 96 3d b6 ed 3e bf dd 8d 19 3f f4 17 1d bf
       0.07325459 -0.7458147 0.5998209 -0.61364675
000080 1e c3 03 3f 85 4b 94 3d 57 2a 4d bd 38 28 11 3f
       0.514696 0.07240967 -0.050089207 0.56701994
000090 e7 97 e0 3d d2 e5 3c 3f 84 1a 10 3d c3 56 af be
       0.10966473 0.7378818 0.035181537 -0.3424588
0000a0 e3 82 05 3e 6d 5f 71 be 7d 63 95 3e 61 cd 1c 3f
       0.1303821 -0.23571558 0.29177466 0.61250883
0000b0 2d 70 a0 3e b0 5a b3 be fc 2e fd 3e f4 ad ef bd
       0.31335583 -0.35030127 0.4944991 -0.11703101
0000c0 c7 f3 c2 3e 2b a2 b9 be d3 59 28 bf 1f 2b 9e be
       0.38076612 -0.36256537 -0.6576206 -0.30892274
0000d0 92 d1 f3 be 9f 9d 2d 3f fa 7e 17 3e 73 e2 b7 3e
       -0.47620827 0.67818636 0.14794531 0.35914955
0000e0 a3 0b 7c 3e f1 f3 07 bc 64 57 e0 3e ec a7 13 bf
       0.24613814 -0.008297906 0.43816674 -0.57678103
0000f0 99 43 58 3d f9 73 1a bf f0 bb 9e 3e ca 58 60 be
       0.05279884 -0.6033321 0.3100276 -0.2190887

0.bias f4 [32]
000000 e3 02 44 3e aa ea 36 bd 18 91 18 3f bd 32 c9 be
       0.19141726 -0.044657387 0.59596395 -0.39296523
000010 8b 48 d8 be 00 23 ae be 96 16 25 3f 64 1c 3b 3e
       -0.42242846 -0.34011078 0.6448759 0.18272549
000020 f5 d1 26 3f bc f6 92 bd 7b 41 0e be 92 9a 05 bf
       0.6516412 -0.07175967 -0.13892166 -0.5218898
000030 c0 48 bb be 1d 01 bd 3e 56 2a 79 3e 8b 35 0c 3f
       -0.3657894 0.36914912 0.24332556 0.547692
000040 45 64 de be c2 55 f1 be fe 38 a7 3e 0b 32 8d be
       -0.43435875 -0.4713574 0.3266067 -0.27577242
000050 c9 c0 d7 3e 75 cd 80 be 5b 16 c5 3e 88 ac fa be
       0.4213927 -0.2515675 0.38493618 -0.48959756
000060 a9 d1 b8 be ad d6 9b 3e ee 80 32 3e cb 73 66 be
       -0.36097458 0.30437222 0.17431995 -0.22505109
000070 bb 7d df 3e 8d 0d 08 3f 59 9c f9 be ec 5e b4 be
       0.43650612 0.53145677 -0.48752096 -0.3522867

2.weight f4 [32, 32]
000000 3a a0 1f b6 2a dc 0f ac 22 b0 cb b6 86 04 a8 b4
       -2.378611e-06 -2.0443738e-12 -6.070376e-06 -3.129573e-07
000010 04 51 81 2b ca d1 91 a0 3d d3 ee b5 c1 45 c5 31
       9.188488e-13 -2.4702782e-19 -1.779386e-06 5.7413847e-09
000020 a3 26 80 b4 5e 68 ce a8 8e 79 b5 b0 5f 02 0e a4
       -2.386997e-07 -2.2915856e-14 -1.3204031e-09 -3.079335e-17
000030 39 ae 09 b5 6f 99 06 b8 7c f1 93 38 f9 d0 c4 b7
       -5.1290004e-07 -3.2090986e-05 7.054486e-05 -2.3462331e-05
000040 1b 15 97 9f 48 14 ec b3 de cd b3 b5 ce 07 21 21
       -6.3985904e-20 -1.09932955e-07 -1.3396455e-06 5.455925e-19
000050 82 27 13 b6 8c 11 f0 b3 ff 6f 30 b6 62 7b 32 28
       -2.1927704e-06 -1.1179063e-07 -2.6291234e-06 9.907739e-15
000060 ed 2a 16 a3 bc 87 25 b8 ea ec e3 b4 9a 2b bd ad
       -8.140606e-18 -3.9465478e-05 -4.2454423e-07 -2.1506175e-11
000070 96 9b 92 b4 44 87 47 b8 e5 6b 41 a5 44 50 d2 b0
       -2.7307823e-07 -4.7571273e-05 -1.6776638e-16 -1.5302324e-09
000080 3e e2 4e 3e 9d 96 85 3d 7c 9e 4e 3e be 14 f4 3d
       0.20203492 0.06522868 0.20177644 0.11918019
000090 b8 16 14 bd 68 8d d9 bc 4f 28 7e bc 09 e4 b1 bc
       -0.03615448 -0.026556686 -0.01551254 -0.021715181
0000a0 b8 43 de bd 22 07 2f b4 45 22 8d 10 a7 f5 59 be
       -0.1085276 -1.630074e-07 5.5667494e-29 -0.21285115
0000b0 8e 63 16 bd 9a 2f b0 be f1 8b f2 bd c2 31 0c be
       -0.036716036 -0.34411317 -0.11843098 -0.13690856
0000c0 f2 3e b7 be 78 9e 78 be c1 cd 26 3e a0 17 56 2f
       -0.3579021 -0.24279201 0.16289426 1.947158e-10
0000d0 0f bc 02 3e 3e df bc bd 60 1a 69 bd 9b ca bd b3
       0.12767051 -0.092222676 -0.05690992 -8.837852e-08
0000e0 8c 72 68 93 92 82 0a be c9 c0 6d 3e f0 13 4d be
       -2.9338993e-27 -0.13526371 0.23218073 -0.20027137
0000f0 2c 7e ff 3d 07 15 19 bd ff 0b 2c 11 0d b8 13 1a
       0.12475237 -0.03737357 1.3572104e-28 3.0547563e-23
000100 63 c1 0d 3e 17 f5 e6 3c 77 38 77 3d 33 fc c0 bc
       0.13843302 0.02819304 0.060356583 -0.023557758
000110 cd 99 0b bd bc c0 7d ba 58 56 a7 bd 2f 94 d8 3d
       -0.034082223 -0.0009679904 -0.08170766 0.10575139
000120 b1 fb 47 3d 37 95 a2 9b 11 42 db 16 2c 0a 1c 3e
       0.048824016 -2.689708e-22 3.5423052e-25 0.15238255
000130 70 11 6d bd 74 02 3e bd 9e 19 60 be 49 00 b7 bd
       -0.057877958 -0.04638906 -0.21884772 -0.08935601
000140 7a 66 f1 bd 2d 37 8a 3e 1e bf 43 3e a8 9f ee b9
       -0.11787124 0.2699522 0.19115874 -0.0004551385
000150 d3 0d a3 3c f9 28 25 3e 4d 3d ac 3b b7 71 6b be
       0.019904053 0.16128911 0.005256331 -0.22992598
000160 82 1e 23 bd f3 8d cf 3d 99 71 e0 3d c1 40 23 3e
       -0.039824016 0.101344965 0.10959167 0.1594267
000170 9e 19 43 bd a5 bc 85 bc 45 c1 af 0e 62 4e 4f be
       -0.047631852 -0.016325304 4.3326943e-30 -0.20244744
000180 96 fb 48 3e 5f 82 4e 3e 93 29 75 bd 80 b5 bf 3d
       0.19627222 0.2016692 -0.0598541 0.0936079
000190 c3 92 c5 0c 8c 96 88 bb 5f f7 f1 3c 4c 17 c3 3d
       3.0440985e-31 -0.004168337 0.029536901 0.09525928
0001a0 df e0 17 be ad d6 47 92 4f 68 8a 30 5f b7 c7 3e
       -0.14831875 -6.3057936e-28 1.0070468e-09 0.3900709
0001b0 13 67 04 33 3f 77 ac be 0a 6f 9f 20 11 5a e0 bd
       3.082739e-08 -0.33684728 2.7009127e-19 -0.10954679
0001c0 65 8c 06 bd 43 95 df 3e 8d 8b 0b 3e d4 c5 ee 95
       -0.032848734 0.43668565 0.13627453 -9.643955e-26
0001d0 ed b6 a0 be ed 65 cb 3d 7e 7d 00 bd e5 ea aa 33
       -0.3138956 0.0993155 -0.03136968 7.958969e-08
0001e0 6e a9 7b 0e 76 cc 17 be c6 c8 87 3d 18 4a 93 3e
       3.1019716e-30 -0.1482409 0.06630091 0.28767467
0001f0 4c a5 04 be 86 1c 00 3d 78 7c 4d 95 d4 8d b5 8f
       -0.12953681 0.031277202 -4.149761e-26 -1.7902608e-29
000200 f2 70 9c bd 7e 19 7f 3e eb 06 4b 3e de 94 85 3e
       -0.0763873 0.24912068 0.19826858 0.2609014
000210 91 60 11 bc 79 94 8f 3c c2 00 89 bd 1e 09 03 3e
       -0.008873121 0.017526852 -0.06689598 0.12796447
000220 90 a7 31 3e 42 ab 86 30 56 f8 09 18 84 34 a8 bd
       0.17349076 9.798458e-10 1.7832213e-24 -0.082131416
000230 2e d1 17 be c7 b5 73 be 7d cc 8f be 0e 36 05 be
       -0.1482589 -0.23799811 -0.280857 -0.13008901
000240 18 fa 47 3d 7f 46 50 be 9f 74 e8 3d 6d 26 3e 1d
       0.048822492 -0.20339392 0.11350369 2.5166156e-21
000250 a1 83 42 bd a7 62 57 3d 69 28 13 be 77 2c 08 bd
       -0.047488812 0.052584317 -0.14370884 -0.03324553
000260 d2 c8 ed bd 3d cf b1 3d 9e 7c 7a 3d 77 70 05 bd
       -0.11610569 0.08682106 0.061154 -0.032577958
000270 e1 93 12 3d dd 93 dc bd f6 8a d6 90 e2 80 a6 bd
       0.03578556 -0.1077039 -8.462222e-29 -0.08130051
000280 1f 9c 08 3e 6b dd 00 be 48 03 cd 3d 13 ef 03 3e
       0.13340805 -0.12584464 0.100103915 0.12884168
000290 a3 42 0f bd 81 0d 38 bd 7c cc 10 3e 0a 86 87 bd
       -0.03497566 -0.044934753 0.14140505 -0.06617363
0002a0 58 ae aa 3d 53 e6 15 33 5e 75 17 0e cd 61 71 3e
       0.08334035 3.4901245e-08 1.8668697e-30 0.23572464
0002b0 67 35 57 3b 28 00 9b bc bb 41 9a bc 22 7e 27 be
       0.0032838227 -0.018920973 -0.01883017 -0.1635671
0002c0 2e cf 1f 3e 9f bd c5 3e 5f 5f 48 3e 3a 23 fc 0f
       0.15606377 0.38621232 0.19567631 2.4862687e-29
0002d0 a7 c4 0e be 4c 4b 01 3e ac c7 e7 3d 85 a5 8a be
       -0.13942204 0.1262638 0.11317381 -0.27079406
0002e0 32 38 5d be 80 7a 63 bd e5 41 dc bc 42 24 fb 3d
       -0.21603468 -0.055536747 -0.02688689 0.12262775
0002f0 e6 4f 65 bd 21 8d 23 bd 03 b9 51 b3 a6 e0 0d be
       -0.0559844 -0.039929513 -4.882987e-08 -0.13855228
000300 38 ef 0b 3e 0f 61 f1 bc 81 63 b6 bc ed e6 2b be
       0.13665473 -0.029465226 -0.022264244 -0.1678731
000310 dd 5f 05 be 02 27 4d be ff 01 82 3d 9d 3e 8f bd
       -0.1302485 -0.20034412 0.06348037 -0.069943644
000320 18 ea f7 bd 49 ea 9b 0e 4e de 11 11 88 b1 5c be
       -0.12105197 3.843606e-30 1.1506986e-28 -0.21552098
000330 e5 0a 57 3d 0b 10 df bc 48 56 c0 bc 93 60 94 bd
       0.052500624 -0.02722933 -0.023478642 -0.072449826
000340 ad 7e c3 bd 67 22 f5 bd 47 38 a4 bd 5a a1 bd 3e
       -0.09545646 -0.11969452 -0.080185466 0.37037164
000350 d3 da 29 bd 1b 7f 5f bd b9 b3 31 3e 68 32 af 3e
       -0.041468453 -0.054564577 0.17353715 0.34218144
000360 7e 36 be bd 63 b2 b7 3d ed 3b 0d 3e 2b 8b dd bd
       -0.09287737 0.089695714 0.13792391 -0.1081756
000370 dc a3 fe 3d 0b 7a 3e 3e 59 10 c4 3e 7a de 4f 3e
       0.124335974 0.18601243 0.38293722 0.20299712
000380 04 a5 fd bd 8b 30 fe bc 83 37 1c 3e 7a 1b 17 3e
       -0.1238499 -0.031029006 0.15255551 0.14756575
000390 d6 7b 17 3d 0c c6 08 bc 6d 47 ae bd 64 88 0f be
       0.036983334 -0.008347999 -0.08509717 -0.14016873
0003a0 79 e4 be bd 2a 15 05 10 6a ee 23 28 3d 10 61 3e
       -0.093209215 2.624593e-29 9.1000155e-15 0.2197885
0003b0 89 34 11 be 05 f0 a2 bd 15 9b 87 3d 7f 64 3d bd
       -0.14180197 -0.07955936 0.066213764 -0.04623842
0003c0 83 5d b1 bc 6b 47 ab 3e 0c d5 5a bd c8 65 66 be
       -0.021651035 0.33452925 -0.053425834 -0.22499764
0003d0 16 2c b3 3c 7d 17 89 3a 87 8e 36 3b e6 14 56 3c
       0.021871608 0.001045927 0.002785595 0.013066506
0003e0 a6 35 96 bc 1b ce 5f bd 78 6d 41 3e 52 d0 f7 3d
       -0.018336128 -0.054639917 0.18889415 0.12100281
0003f0 a0 1b b2 bd a5 14 04 3e 5a 4f 77 be 8f cc 3b bd
       -0.08696675 0.128985 -0.24151364 -0.04584938

2.bias f4 [32]
000000 5b c7 63 b9 33 26 cd bd 93 6f ab 3c d1 36 29 be
       -0.00021722673 -0.100170515 0.020927226 -0.16524817
000010 cc 89 40 3e 9a 7f 23 be 5f 0c b6 3d e0 ce 50 3e
       0.18802565 -0.15966645 0.08889078 0.20391417
000020 33 78 f1 3d e3 0d c4 3d 7d a8 93 b3 15 8c 34 3e
       0.11790504 0.09572961 -6.875869e-08 0.17631562
000030 fb 9a cc bb ad 8d 0c be 5a aa 4a 3e 5a be b7 bd
       -0.006244061 -0.1372592 0.19791546 -0.089718536
000040 9e 12 e0 3c a0 9b 31 3e 5f 29 03 be 29 6d b8 bd
       0.027352627 0.17344522 -0.1280875 -0.09005196
000050 a3 6f 29 3d 7c 8b 51 bd f9 9d 3a 3d b7 c3 5e b3
       0.04136623 -0.051158413 0.04556081 -5.1866405e-08
000060 03 36 9d 3c 7e d5 87 bd d9 3b e9 bd df 91 67 b7
       0.019190794 -0.06632517 -0.11388368 -1.3802636e-05
000070 7e ab aa 3d ff 79 40 3d b2 5d de bd fe 88 1d 3e
       0.08333491 0.046991345 -0.10857715 0.1538429

4.weight f4 [32, 32]
000000 cf 24 10 2d 7a ac 3f bd 04 fa 16 bd a2 95 ea 3e
       8.1936255e-12 -0.046795346 -0.036859527 0.45817286
000010 e5 19 2b 3e c8 3f 4d 3e f3 2b 20 be 3c ea 50 3e
       0.16709097 0.20043862 -0.15641765 0.20401853
000020 1a cd 5f 3d ad 1a 0e 3e e4 10 20 2e 1d 7f 32 bd
       0.05463896 0.13877364 3.639479e-11 -0.043578256
000030 22 d0 5e be e8 e6 c6 3a 86 f1 15 be 68 0e 29 bb
       -0.21759084 0.0015175017 -0.14642915 -0.002579594
000040 34 ae 24 bd 6a fb a9 3b c8 e5 3d 3b 55 79 7c 3d
       -0.040205196 0.0051874416 0.0028976072 0.06163915
000050 4b a8 e7 bc f8 0d 04 bc 30 28 49 3e f7 b4 72 2e
       -0.02827849 -0.008059971 0.19644237 5.518516e-11
000060 52 62 37 3d ce 34 25 3e 38 3f b4 3e 96 95 27 33
       0.0447715 0.16133425 0.35204482 3.9018765e-08
000070 7c 18 d8 bc ad 3f c2 3d 9a 5e bd be 46 1d e9 bd
       -0.026378863 0.094848014 -0.36986238 -0.113825366
000080 cb 06 d4 2c a6 2c 0f be df b5 6e 3d 6a 46 cf 3e
       6.0261566e-12 -0.13981876 0.058278915 0.4048341
000090 26 ad e2 3c 13 99 43 3e 58 e2 3e bd c3 a9 33 3e
       0.027670454 0.19101362 -0.046602577 0.17545228
0000a0 81 34 32 3e 4d ad 07 bd 76 8d f5 ad 20 05 4d be
       0.17402841 -0.033124257 -2.7916097e-11 -0.20021486
0000b0 0d 1e fb bd 35 93 24 b2 09 5f c3 bc ca 72 47 bc
       -0.12261591 -9.579527e-09 -0.023849027 -0.012173364
0000c0 b6 fa 23 bb 13 30 82 3a 48 72 4d ba c3 a3 79 3e
       -0.0025021262 0.000993254 -0.00078371586 0.24378876
0000d0 42 26 55 bd 6a 83 a2 bc ce 89 09 3e 98 8c ad 2e
       -0.05203844 -0.019838054 0.13431475 7.8921036e-11
0000e0 4c 60 d7 3d d7 00 12 3e db e9 b2 3e 3b ee 37 36
       0.10516414 0.14258133 0.34944043 2.7407793e-06
0000f0 57 0a 8f 3b a3 2f 4d 3e d7 7b 17 be 8e 7a 32 3e
       0.0043652463 0.20037703 -0.14793335 0.17429563
000100 9a 5a e7 2c e9 c8 a5 b9 92 18 0f 3d 3b 4e b0 b7
       6.5754737e-12 -0.00031620942 0.03493554 -2.1017264e-05
000110 b6 1f 8f b3 8e 92 a8 3b b3 4a 40 3c c4 82 89 b6
       -6.6647246e-08 0.005144424 0.01173656 -4.0981413e-06
000120 f1 67 ae 3c da b7 0f b8 a0 fa 16 31 b2 6a ae 3c
       0.021289797 -3.4265082e-05 2.1970337e-09 0.02129111
000130 c1 81 df 37 51 7d 09 b6 dc b8 63 3c 14 58 82 0f
       2.6644093e-05 -2.0487535e-06 0.013899054 1.2852916e-29
000140 e1 c7 c2 3b c3 70 6c 3c fa d5 a5 3c 03 1b f8 bb
       0.0059442376 0.014431181 0.020243634 -0.0075715794
000150 48 85 07 90 d3 87 be 3a 4d a2 16 3a 8c 24 4c 2f
       -2.6726732e-29 0.0014536328 0.00057462306 1.8566676e-10
000160 24 a4 35 bd 6f f9 d5 bb 97 f5 d1 8d ff 1c 5c 8e
       -0.04434599 -0.006529979 -1.2939743e-30 -2.7131055e-30
000170 ca 10 20 3c 20 b7 a5 39 59 fc bb b2 e8 9a 80 bb
       0.009769628 0.0003160769 -2.188442e-08 -0.0039247163
000180 3d 4f bd 36 9a e4 69 bd bd ef 0b 3d 24 25 83 3e
       5.6418635e-06 -0.057102777 0.03416418 0.25614274
000190 ec 26 e6 bc 1b dc 80 3d e1 0e dd bc 57 98 4e 3e
       -0.028094731 0.06291982 -0.026984634 0.201753
0001a0 90 93 31 ba 82 d8 4b 3e 59 77 e8 8f 5a 3b 41 be
       -0.00067740027 0.1990681 -2.2922937e-29 -0.18870297
0001b0 dd bb cf 3c c3 d4 b3 3c 8d ff e5 bd 4a cf db bd
       0.025358135 0.021952039 -0.11230383 -0.107328966
0001c0 09 5f 79 3e 3e 7c 43 3e b6 ca 4d bd 63 f1 36 3e
       0.2435266 0.19090363 -0.05024215 0.17865519
0001d0 7d 40 59 bc ce 84 b2 bd 16 2e a8 3d 8f ae ac 2e
       -0.013260004 -0.08716737 0.08211915 7.852662e-11
0001e0 b5 98 71 bd 83 fc cb 3d ed a8 c3 3d 38 30 90 36
       -0.058983523 0.09960272 0.095537044 4.297148e-06
0001f0 62 72 8e 3d d5 f8 1a 3e c9 98 5d bc c0 3a b3 3d
       0.069554105 0.15133984 -0.013525196 0.0875144
000200 c3 4e 03 b2 9e 35 f3 bc ca 2f e4 bd 03 05 b7 9b
       -7.643112e-09 -0.029688653 -0.111419275 -3.027805e-22
000210 39 c1 37 be 19 ef a3 bd ef 14 37 3e e8 12 85 bd
       -0.17944802 -0.08004589 0.1787908 -0.06497747
000220 53 b6 31 bd 0e 7e 01 bc 72 a8 4f 33 c2 98 35 3e
       -0.04338677 -0.007903589 4.8349143e-08 0.17734054
000230 73 79 53 3e 92 a9 0a bb f6 e5 2b 3e 13 4b e5 3d
       0.20651798 -0.00211582 0.16786942 0.1119596
000240 ff 71 bf be 60 53 1d be a0 f3 74 3b c9 db 84 3c
       -0.3739166 -0.15363836 0.0037376657 0.016218083
000250 ef b4 a3 bd a5 c9 f0 0e 3b cc 7a 3c ec dd a9 98
       -0.07993495 5.9358745e-30 0.015307481 -4.390956e-24
000260 a4 d8 9a bc 16 b9 c2 3d d2 ca 10 be dd 8c 8a b6
       -0.01890213 0.095079586 -0.1413987 -4.129119e-06
000270 1d 23 87 3e 1a d8 89 bd a5 70 04 3e 7f b8 63 3e
       0.26393977 -0.06730671 0.12933595 0.22238348
000280 30 cd 1e 36 a5 ba 15 be 65 c1 62 3e df 7b d2 3e
       2.366327e-06 -0.1462198 0.22144087 0.4111013
000290 6d 59 0c bd d9 cb ba 3d f3 1f 0b be 39 fd ae 3d
       -0.03426497 0.09120912 -0.13586406 0.08544392
0002a0 62 63 b9 bd 79 23 8d 3d 79 6a 5a 8e fb ad bc bd
       -0.09052159 0.068915315 -2.692184e-30 -0.09212872
0002b0 96 b2 55 be 9c 03 59 bd 3d a3 65 3d 9d f0 ef 3d
       -0.20868906 -0.052981958 0.05606388 0.11715815
0002c0 c5 1c 91 bd 30 77 e9 3d c3 3b 4e bd 9f 57 b1 3d
       -0.070855655 0.11399686 -0.050349962 0.086592905
0002d0 56 16 1c 3e 2a c4 22 bd b2 86 d5 bd bc ac f6 2e
       0.15242895 -0.039737858 -0.10426082 1.12174686e-10
0002e0 ba dc 6f 3d c1 9f b6 3d 49 c0 b8 3e fc b8 b1 34
       0.05856011 0.089171894 0.36084202 3.3103413e-07
0002f0 15 ca 5a bd 0b a5 2f bd f5 54 1c be 8d 26 c7 3d
       -0.053415377 -0.042882007 -0.15266784 0.0972415
000300 fa 8d cf 26 8c c0 55 bc 5b 84 15 be 96 25 a5 90
       1.4401993e-15 -0.013046395 -0.14601271 -6.5138935e-29
000310 78 f9 79 be 7d d0 15 be 58 1f 84 3d 17 f3 a8 bd
       -0.24411571 -0.14630313 0.06451291 -0.08249491
000320 11 51 37 bc c1 92 14 bd c1 02 2c 2a 97 22 a1 3d
       -0.011188761 -0.036272768 1.5277624e-13 0.078679256
000330 3b 62 0a bd ea 35 3a 39 72 03 c6 3d 2e f1 54 bc
       -0.033785086 0.00017758427 0.09668626 -0.012996955
000340 32 e3 78 be 15 9d 2b 3d 24 b1 c1 b6 f1 97 a4 3c
       -0.24305418 0.041897852 -5.77247e-06 0.020091983
000350 7f a6 24 3d a6 f1 90 b1 42 16 96 bd a7 81 c5 ab
       0.040197846 -4.218424e-09 -0.07328464 -1.4033678e-12
000360 31 d0 62 3e ca 7f 5d 3e 43 90 9d be da 4e 9e b6
       0.22149731 0.21630779 -0.30774125 -4.7179465e-06
000370 1f 1d 0e 3e e7 fc 3a be ae 4d 12 3e a3 bd ff 3d
       0.13878296 -0.18260537 0.14287445 0.12487342
000380 b5 fe f3 33 fa 57 8d 0b 07 de ab 2d 00 62 c6 a0
       1.13619e-07 5.4443597e-32 1.953905e-11 -3.3607356e-19
000390 56 20 8a 2b bd fc 26 b4 92 8e ec 2f 1a 77 d7 b0
       9.814465e-13 -1.55519e-07 4.3029452e-10 -1.567716e-09
0003a0 08 6b 13 32 f7 d5 1b 8e ae 35 cb b1 8d bd 7d 90
       8.580862e-09 -1.9208245e-30 -5.9141803e-09 -5.0041477e-29
0003b0 36 60 5a 0e 08 74 1c b2 51 6c 36 11 5e cb cc 8e
       2.6916898e-30 -9.1067776e-09 1.4390646e-28 -5.048572e-30
0003c0 11 c6 35 2e d9 ab b3 90 cc fb ee 1e 8c 31 c8 0d
       4.1330554e-11 -7.0867824e-29 2.5303371e-20 1.233788e-30
0003d0 e4 5c 03 8c 3c 27 21 0f 01 2d 67 a6 d9 a5 29 b0
       -1.0119826e-31 7.945469e-30 -8.0205216e-16 -6.1717526e-10
0003e0 65 5b f9 10 f4 74 ef b2 62 7c 54 16 4f 36 33 0e
       9.8354e-29 -2.7876446e-08 1.7164472e-25 2.2089602e-30
0003f0 62 0d a2 a6 93 b3 c3 92 a3 63 90 8f 50 90 05 8f
       -1.1244636e-15 -1.2350499e-27 -1.4237875e-29 -6.5852e-30

4.bias f4 [32]
000000 54 46 bc 3d a6 1f 8d 3d d8 96 83 bd 61 0d 0a 3e
       0.091931015 0.06890802 -0.064252555 0.13481666
000010 3d e6 71 bc f6 70 9d 37 a0 1a 7d bc d7 41 47 b3
       -0.014764366 1.876846e-05 -0.015448242 -4.639318e-08
000020 60 25 21 3d 33 fc 95 3d 0d 7d e9 b7 b9 0c f9 3d
       0.039342284 0.07323494 -2.7833996e-05 0.1216063
000030 1d bb 3a bc 52 7f 9b b3 ef 02 1a bd fb d9 a6 bc
       -0.01139715 -7.2409094e-08 -0.037600454 -0.020367613
000040 53 5e 1e bb 57 f7 a9 bc 76 c9 7a 3d 2d f8 3c ba
       -0.0024165108 -0.020747824 0.061227284 -0.0007208612
000050 27 7d ec 3b c4 38 ee bb 8f 11 97 3d 39 03 2d 3e
       0.0072170678 -0.0072699506 0.07376396 0.1689576
000060 59 85 dc 3d 3a 06 a8 9b 9f 57 c3 af 90 cd 0d bd
       0.107676215 -2.7797292e-22 -3.5532552e-10 -0.034619868
000070 91 ce 1d 18 74 37 ac 3d 8f b7 99 bb 9d 40 20 3e
       2.0396064e-24 0.08409014 -0.0046910713 0.15649648

6.weight f4 [2, 32]
000000 87 a3 2f 3e 27 c7 63 3d 30 94 79 3c cc e4 e9 3d
       0.17152224 0.05560985 0.015233085 0.11420593
000010 b9 69 d0 bd 51 05 8c 3e 49 98 81 be 2e 89 cd 16
       -0.10176415 0.27347806 -0.25311497 3.320611e-25
000020 3d 00 35 be 30 c6 53 be b7 59 42 95 c5 e5 22 3e
       -0.17675872 -0.20681071 -3.924876e-26 0.15907963
000030 e2 9c 3a 3b d0 72 a9 0f 46 b4 be bd be a6 d0 bd
       0.0028474857 1.6708911e-29 -0.09311728 -0.101880535
000040 08 4f 92 b9 f7 0c 32 3d 56 07 5e bc a2 4e 0c bb
       -0.00027906173 0.043469395 -0.013551554 -0.0021409173
000050 f7 21 be 3b 63 f2 3e be 97 26 b9 bd cf bb 1b be
       0.005802389 -0.1864715 -0.090405636 -0.15208362
000060 78 73 a6 bd 20 ee dd ae 65 8c 22 90 69 bb 4d be
       -0.08127493 -1.0092216e-10 -3.2057023e-29 -0.20091023
000070 0f 37 12 34 55 83 56 3d 3d 33 2c be cf d4 8d be
       1.361734e-07 0.05237134 -0.16816421 -0.27701423
000080 32 cd c3 bd 55 68 0c be f1 60 fe 3c a1 d5 43 be
       -0.09560622 -0.13711675 0.031052085 -0.19124462
000090 08 8c 1b 3e 76 15 91 be c5 c8 bf 3c 20 07 a2 18
       0.15190136 -0.28336686 0.023411164 4.1883213e-24
0000a0 48 7c 19 3e a1 0b 4a 3d 77 70 8e b3 d8 03 32 be
       0.14988816 0.049327496 -6.6328475e-08 -0.17384279
0000b0 9d 01 cd 39 fe e7 d2 b2 b1 8c ca 3d 74 72 1e 3e
       0.0003910185 -2.4552715e-08 0.09890116 0.15473348
0000c0 16 50 e0 38 1b 20 04 be 71 2a ae 39 ee f9 0a 3b
       0.000106960695 -0.12902872 0.00033219488 0.0021206099
0000d0 bf a6 c8 bb 80 2f 2b 3d af d2 7c 3e 7c 40 1a bc
       -0.0061233933 0.041793346 0.24689744 -0.009414788
0000e0 cd 21 0f 3e cf f2 1d 93 81 53 77 8f 5b 61 bb bd
       0.13977738 -1.99359e-27 -1.21941225e-29 -0.091494285
0000f0 90 b3 15 30 5b 77 7f 3e 31 d1 31 3d 65 98 64 3e
       5.446106e-10 0.24947874 0.04341239 0.22323759

6.bias f4 [2]
000000 df b9 21 3e b7 dd 97 3d
       0.1579356 0.074153356

exp_avg f4 [32, 2]
000000 8e 50 b5 b9 ff e0 6d b9 b9 d8 0b 3a 75 00 04 ba
       -0.00034583028 -0.00022685899 0.00053347234 -0.00050354685
000010 d1 f5 80 39 5e 2e 68 39 72 e9 49 3a 7a 3f cc b9
       0.0002459721 0.00022142517 0.00077023276 -0.00038957206
000020 64 39 f5 b9 3e c0 ea 39 1e 05 d9 b8 68 1a 8b 39
       -0.000467728 0.0004477519 -0.000103483195 0.0002653182
000030 ff 12 a0 b7 83 4e dd b9 cb f4 8c b8 47 3d 5e ba
       -1.9082332e-05 -0.000422109 -6.7213165e-05 -0.0008477759
000040 1a 53 0d b9 d2 26 94 3a 74 49 82 b4 2a 5e 0d 2e
       -0.00013477766 0.0011303073 -2.426783e-07 3.2143323e-11
000050 b7 34 68 b4 ea 22 c2 0f 2a 24 c8 b9 86 6f 15 b9
       -2.1625861e-07 1.9143325e-29 -0.00038173917 -0.00014251293
000060 78 0f 10 ba f8 d5 3c ba 61 bf 5f 39 6c b2 62 ba
       -0.0005495469 -0.00072035147 0.00021338231 -0.0008647803
000070 fa 76 0c ba 3f 38 07 ba 54 fd de 39 40 35 09 b9
       -0.0005358305 -0.00051582226 0.00042531884 -0.00013085175
000080 43 39 c6 b8 ff 26 c5 b9 0a f1 ec ba a3 a5 f6 b9
       -9.4520416e-05 -0.00037603822 -0.0018077206 -0.00047044185
000090 77 8f 0e 3a 74 83 8e b9 af 77 fa 3a a4 99 a1 3a
       0.0005438248 -0.0002718229 0.0019109155 0.0012329114
0000a0 ca 99 f6 b8 56 8a 05 b9 52 2b 08 b9 31 8c 4b b9
       -0.000117588395 -0.00012735403 -0.00012986109 -0.00019411814
0000b0 f4 bb 0a b7 81 d4 b4 b9 8a ee 65 3a ba 2c 9c ba
       -8.269202e-06 -0.00034490603 0.0008771202 -0.0011915185
0000c0 eb ea d5 39 68 73 ea b9 c2 ef e9 b8 11 d3 81 b9
       0.00040801553 -0.00044717942 -0.00011154964 -0.00024762054
0000d0 98 41 90 3a 1d e4 97 39 09 ab ca b9 97 4c 5f ba
       0.0011005877 0.00028970922 -0.00038655874 -0.00085181877
0000e0 1b c9 4c 38 05 18 b1 39 1e 74 87 b9 c4 4e 96 b9
       4.8824684e-05 0.00033777967 -0.0002583572 -0.00028668914
0000f0 3d 6c 02 3b bb d1 5c 3b d3 85 05 3a 20 b7 ed b9
       0.001990094 0.0033694345 0.0005093489 -0.000453406

exp_avg_sq f4 [32, 2]
000000 b3 08 1a 37 b6 47 aa 37 df 5f 8c 37 63 aa 73 36
       9.181141e-06 2.0298972e-05 1.6733944e-05 3.6309e-06
000010 87 54 81 37 a3 35 47 36 ca 29 8f 38 ad dc 0a 37
       1.541736e-05 2.9684531e-06 6.826555e-05 8.276821e-06
000020 b9 23 16 36 f4 a6 c2 35 96 d6 ab 36 17 9c 78 35
       2.2372535e-06 1.4502716e-06 5.121178e-06 9.261434e-07
000030 47 51 cb 36 2b 8d e2 36 b4 61 06 37 e0 73 8d 37
       6.0593334e-06 6.751759e-06 8.009771e-06 1.6862468e-05
000040 a2 8e 13 38 74 39 55 37 cd 41 5e 2e 8b 57 03 2d
       3.518037e-05 1.2709166e-05 5.05354e-11 7.465926e-12
000050 d4 03 55 2e e8 a1 3d 2b 96 13 54 38 8a 0e 4d 39
       4.8433993e-11 6.737098e-13 5.056298e-05 0.0001955574
000060 90 42 3b 38 8e 01 ce 37 20 d1 46 38 11 27 d4 37
       4.4646265e-05 2.4557838e-05 4.740164e-05 2.5290561e-05
000070 5e 10 af 38 fd 70 6a 37 51 2a 43 37 1a 05 73 36
       8.347699e-05 1.3973794e-05 1.1632758e-05 3.6212791e-06
000080 79 c9 03 38 a6 28 25 36 d6 f2 ca 38 eb 16 d7 39
       3.142047e-05 2.4610576e-06 9.677342e-05 0.0004102507
000090 25 df 83 38 2c 81 14 37 19 8f 7a 38 d1 9c 7a 39
       6.288131e-05 8.851563e-06 5.9737915e-05 0.00023900277
0000a0 2c f6 40 38 c3 b0 a9 38 40 83 15 38 5a 1f 6f 38
       4.6005633e-05 8.0914724e-05 3.5646604e-05 5.701124e-05
0000b0 30 d0 e8 37 3a d3 6b 37 e7 07 b2 39 4f 4f 10 38
       2.77535e-05 1.40562715e-05 0.00033956693 3.4406137e-05
0000c0 5d 58 3d 37 0b 93 82 36 09 f6 b4 36 e0 72 11 37
       1.12858515e-05 3.89142e-06 5.3930603e-06 8.66942e-06
0000d0 68 c1 21 38 e7 e9 64 37 fb 7e 1d 38 0f e0 13 39
       3.8565515e-05 1.3644319e-05 3.7549977e-05 0.00014102481
0000e0 a0 7b 36 37 ab 52 aa 37 32 d5 78 37 52 9c 44 36
       1.0876829e-05 2.0304074e-05 1.483159e-05 2.9297266e-06
0000f0 37 a4 d3 38 5c 2a e7 39 a3 be ab 38 2f 4a dc 37
       0.000100918514 0.00044091314 8.189424e-05 2.6260588e-05

exp_avg f4 [32]
000000 01 ba d5 38 63 3e 60 ba 67 88 af b9 25 72 b5 b9
       0.000101912774 -0.0008554218 -0.0003348023 -0.00034608055
000010 61 9f 55 ba ee 3f 99 b8 63 4f 0f 3a 61 d9 2b 3a
       -0.00081490545 -7.307516e-05 0.00054668466 0.00065555243
000020 54 b5 89 ba b3 7e f2 b6 48 45 6a b7 a8 55 9b 3a
       -0.001050631 -7.2269117e-06 -1.3963618e-05 0.0011851089
000030 02 78 ad 3a 0d 29 30 3a 98 f4 e3 3a 85 ef 13 39
       0.0013234618 0.0006719984 0.001739162 0.0001410824
000040 f1 cc d5 39 52 03 db 3a 42 25 4a ba 13 1f 54 3a
       0.0004077922 0.0016709364 -0.00077112403 0.00080917886
000050 af 2e 38 3a 62 13 e5 39 92 d6 83 3a 99 45 3c 3b
       0.00070259994 0.00043692725 0.0010058454 0.0028728007
000060 85 3c 46 3a 57 2f a8 39 fe 5a bb ba 55 bb f2 b8
       0.00075621187 0.00032078728 -0.0014294086 -0.000115743525
000070 25 82 13 ba 8c 38 a3 38 c0 80 9c ba 6a 51 b0 3a
       -0.0005626998 7.782978e-05 -0.0011940226 0.0013451998

exp_avg_sq f4 [32]
000000 a5 36 f1 37 6c 6b b4 37 cd 2b a4 37 af e3 61 38
       2.8754885e-05 2.1507694e-05 1.957072e-05 5.3856227e-05
000010 cf 8e 5a 36 bb 90 d5 36 b7 84 7f 37 29 b1 e7 37
       3.2567657e-06 6.3647435e-06 1.52300845e-05 2.7619843e-05
000020 7c 3f 61 38 83 44 bd 2f 2e 37 33 30 d1 f0 5d 39
       5.3703305e-05 3.442758e-10 6.5198236e-10 0.00021165913
000030 3c 31 a6 38 70 19 97 38 a5 4e e3 38 2b 5c 8c 37
       7.9246674e-05 7.204979e-05 0.00010838852 1.673222e-05
000040 c7 51 e3 37 fd f5 eb 39 87 ec a7 38 4f f6 94 39
       2.709859e-05 0.00045005968 8.007237e-05 0.00028412274
000050 a7 b3 f5 38 38 2d c7 38 9f 56 3a 38 14 08 90 39
       0.00011715973 9.497482e-05 4.4426528e-05 0.0002747184
000060 79 aa 43 37 30 35 73 37 51 d3 71 38 99 de 31 39
       1.1662597e-05 1.4496312e-05 5.765568e-05 0.0001696296
000070 e4 77 fb 37 3d a1 96 37 43 ba 08 3a bc a7 aa 38
       2.997736e-05 1.7956476e-05 0.00052157434 8.137475e-05

exp_avg f4 [32, 32]
000000 e1 db 89 af dd a4 84 a5 b7 75 2f b0 73 78 11 ae
       -2.5076388e-10 -2.3010066e-16 -6.383191e-10 -3.3076163e-11
000010 19 35 ee 24 a2 77 5c 9a fd c0 4d af 96 a4 2c 2b
       1.03306e-16 -4.5591572e-23 -1.8713205e-10 6.1335084e-13
000020 33 42 df ad 19 56 3b a2 dc 6b 1f aa dd 9d 87 9d
       -2.5381563e-11 -2.5388806e-18 -1.4159458e-13 -3.589743e-21
000030 39 aa 6f ae 3d ad 64 b1 81 bc f8 31 5d a2 25 b1
       -5.4493497e-11 -3.3276841e-09 7.2391804e-09 -2.4102953e-09
000040 03 a7 99 99 52 36 4d ad 49 23 1c af 35 49 c2 1a
       -1.5887285e-23 -1.1664962e-11 -1.4200653e-10 8.035479e-23
000050 d1 64 7d af 01 c4 51 ad ba b5 96 af e8 86 a6 21
       -2.3046033e-10 -1.1923796e-11 -2.7413966e-10 1.1284307e-18
000060 c7 ab 95 9c 54 fd 8c b1 52 03 47 ae 19 db 2b a7
       -9.904396e-22 -4.1033363e-09 -4.525031e-11 -2.384979e-15
000070 1c 9e ff ad 1a 2d a8 b1 b4 ea bd 9e 74 73 3a aa
       -2.9060358e-11 -4.894571e-09 -2.0108224e-20 -1.6560174e-13
000080 57 1c fe b9 f7 7e 90 b9 51 a5 09 b9 37 18 01 b9
       -0.0004846777 -0.00027560416 -0.00013126923 -0.0001231142
000090 b8 fb 7a 36 59 02 1c 39 a4 6b 9a b9 f9 e6 41 b9
       3.7399423e-06 0.00014878194 -0.00029453367 -0.00018491958
0000a0 80 46 ad b9 04 3c 97 ad 54 7f 4b 0a 37 ae 62 39
       -0.00033049658 -1.7193365e-11 9.798042e-33 0.0002161794
0000b0 a3 a5 93 b8 be f9 a6 39 88 3b c5 b7 37 1a 68 b9
       -7.0403585e-05 0.0003184806 -2.3511951e-05 -0.0002213501
0000c0 a0 1c ae 38 37 0d 70 39 3a b3 d1 b9 8e 42 bd 28
       8.3022984e-05 0.00022893107 -0.0003999712 2.1012079e-14
0000d0 01 74 ee b6 30 0e 8c b9 a3 58 91 38 0c 88 24 ad
       -7.1064574e-06 -0.0002671345 6.930649e-05 -9.352529e-12
0000e0 8d 3d 83 0b 6b f0 08 39 53 76 f5 b8 59 bd 64 b6
       5.0551976e-32 0.00013059533 -0.0001170455 -3.4084862e-06
0000f0 7b 0b 1b b9 4e 10 12 38 a1 d3 f3 0a 03 08 8e 13
       -0.00014786229 3.4824297e-05 2.3479655e-32 3.585374e-27
000100 eb 46 9a 37 8e 73 a8 b7 46 60 78 ba fb 0e f5 b8
       1.8391254e-05 -2.008097e-05 -0.0009474795 -0.00011685301
000110 c3 61 9a 37 a6 f0 0e b9 ee 56 d0 b9 93 5c 36 38
       1.8403754e-05 -0.00013631824 -0.0003973762 4.3478398e-05
000120 24 d5 ef b9 53 30 1b 95 0d d7 57 10 19 b1 c6 b8
       -0.00045744434 -3.1340122e-26 4.2566943e-29 -9.474363e-05
000130 b9 d9 10 b9 9d 78 4a ba 5b 02 5c b9 b8 82 a2 b9
       -0.00013814018 -0.0007723661 -0.00020981712 -0.0003099644
000140 81 02 0a b8 3c 83 be b8 ac f5 a2 b9 f7 f2 47 b3
       -3.2904096e-05 -9.08435e-05 -0.00031082088 -4.6554273e-08
000150 3b 88 e6 b9 c4 16 a9 37 1e be 83 b9 bd ba 23 38
       -0.00043970518 2.0156971e-05 -0.00025127915 3.9036142e-05
000160 0e fe 76 38 33 b0 94 ba 91 97 2b ba a7 5e 13 b8
       5.8887577e-05 -0.0011344015 -0.00065457175 -3.5135683e-05
000170 3d db b6 b9 cc b5 a1 b9 2e 25 a3 88 72 85 ac 36
       -0.0003487709 -0.00030843762 -9.818947e-34 5.1415345e-06
000180 98 8b 8d ba fe 32 99 ba ce c6 bc b9 d9 4a 80 b9
       -0.0010799048 -0.001168817 -0.00036006275 -0.00024469828
000190 6a 5e de 05 b0 9e 7b 38 49 47 70 b9 25 81 09 b9
       2.0911462e-35 5.9990853e-05 -0.0002291474 -0.00013113448
0001a0 86 e5 ba b9 d2 97 fd 8b fa 64 f3 29 89 26 2d ba
       -0.00035647693 -9.768049e-32 1.08088844e-13 -0.00066051685
0001b0 1f 31 65 2c 3d f3 f5 38 30 1b 14 1a 2a b7 9e 39
       3.2570125e-12 0.00011727817 3.0627645e-23 0.00030272576
0001c0 b3 c0 3a b5 ec 9a 37 ba 11 d4 a0 ba 97 43 75 8f
       -6.9570814e-07 -0.0007003981 -0.0012270232 -1.209245e-29
0001d0 52 d6 8b 39 af eb 83 ba 5a d9 22 39 36 0e 14 2d
       0.00026671827 -0.0010064746 0.00015530494 8.4159815e-12
0001e0 33 5d b4 08 8d b3 da 39 32 d9 7d ba d2 13 ff b9
       1.0855267e-33 0.00041713976 -0.00096835487 -0.00048652157
0001f0 3c d4 e7 b8 4b c1 97 39 33 c6 d4 8e f2 0b 0e 89
       -0.0001105447 0.0002894498 -5.2452894e-30 -1.7098245e-33
000200 fc e2 a1 b9 28 c0 20 b9 72 ac e9 b9 cc a7 cd b8
       -0.0003087743 -0.00015330373 -0.00044569705 -9.806416e-05
000210 31 f3 40 b8 62 6e 99 b8 0c ad d5 b9 51 5d 4d b8
       -4.6002857e-05 -7.316169e-05 -0.00040755456 -4.8962716e-05
000220 2f 07 f3 b9 78 d7 ec 29 fc 15 86 11 85 64 45 38
       -0.00046353924 1.0517883e-13 2.115502e-28 4.7062076e-05
000230 72 6d 11 b7 f2 14 dc b8 8e 49 6e b8 95 e3 a2 b9
       -8.668156e-06 -0.00010494319 -5.6812125e-05 -0.0003106861
000240 d0 35 db b5 90 8c 1f 38 64 86 dc b9 91 6f b3 16
       -1.6332433e-06 3.8039463e-05 -0.000420618 2.8989418e-25
000250 59 a0 50 b9 32 a6 42 b9 c4 10 e8 b8 20 1c 9d b6
       -0.0001989616 -0.00018563194 -0.00011065745 -4.682239e-06
000260 ed cd c6 b6 6f 7d ae b9 5c 9a ac b9 ff 01 fc b7
       -5.9248327e-06 -0.00033281322 -0.00032921403 -3.004167e-05
000270 b2 c9 8a b9 f0 96 1a b9 36 03 89 8a 3a 96 39 b6
       -0.00026471686 -0.00014742813 -1.3193828e-32 -2.7654592e-06
000280 43 27 c5 b8 b0 8e 5e 39 f9 41 1f 38 7a 82 d7 38
       -9.401005e-05 0.00021224725 3.7969996e-05 0.00010276302
000290 3b c6 a0 37 51 93 38 b9 7c 3c 60 b9 a2 9c 01 b9
       1.9165795e-05 -0.00017602487 -0.00021384837 -0.00012360749
0002a0 58 f2 85 b9 16 39 82 2c c1 f4 a4 08 33 da fa b8
       -0.00025548297 3.70116e-12 9.927932e-34 -0.00011961572
0002b0 71 1d b2 34 77 31 38 b9 44 63 da b7 fd 5f 97 b9
       3.3176505e-07 -0.00017566035 -2.603385e-05 -0.0002887248
0002c0 ff 5a 83 b7 bb f4 ff b8 1e be c5 38 96 e7 a3 08
       -1.565879e-05 -0.00012204932 9.429104e-05 9.864651e-34
0002d0 4c a9 1d b9 dc 56 66 38 48 cb 5b b9 78 88 4b 38
       -0.00015035755 5.4917167e-05 -0.00020961196 4.8526068e-05
0002e0 7a 60 53 38 a1 ed 62 38 99 43 96 39 d6 dc 3f b8
       5.039617e-05 5.4103908e-05 0.00028660594 -4.5743618e-05
0002f0 f7 d6 10 b9 df 41 93 b9 03 fb b5 ac bf 3a 93 37
       -0.00013812991 -0.00028087103 -5.1721973e-12 1.7551121e-05
000300 6d 7e 94 37 e4 7d ca b7 f3 b3 3a 3a a1 e2 89 38
       1.7701846e-05 -2.4138899e-05 0.00071221514 6.574882e-05
000310 b7 c5 82 39 f5 a2 0f 39 cf 92 2f 3a dd 30 49 39
       0.0002494284 0.00013698249 0.00066975964 0.00019187057
000320 ab 1d 38 3a 4f 50 5d 86 e9 1d f3 0a f9 b1 a1 38
       0.0007023464 -4.1624482e-35 2.34113e-32 7.710228e-05
000330 45 ad 87 39 ce 8a 98 3a 96 4d 8b 3a a4 e6 a7 3a
       0.00025878302 0.0011638047 0.0010627981 0.0012809825
000340 68 d0 ac b8 e6 22 c4 38 81 b7 fb b8 8a 44 a4 b8
       -8.240418e-05 9.352509e-05 -0.00012002793 -7.832896e-05
000350 7a 9b 53 3a 97 b5 8d b8 41 7a 5e 3a e2 7e e0 b8
       0.0008072179 -6.757228e-05 0.0008486845 -0.00010704786
000360 7c 84 a8 38 97 bf 95 3a b9 0f dd 39 e2 8b d4 37
       8.0355414e-05 0.0011424896 0.0004216412 2.5337507e-05
000370 ad 2f 0b 3a 2b 4c a1 3a 64 c1 31 b9 5e 79 6a b8
       0.00053095334 0.0012306025 -0.00016952079 -5.590298e-05
000380 2b 74 1b 38 df 8a 70 b8 7a 50 a7 ba 4c 29 96 b8
       3.706307e-05 -5.7349793e-05 -0.0012765073 -7.1602495e-05
000390 d2 91 8b b9 c8 c1 30 b8 d1 9b 32 ba 18 d7 8c b8
       -0.0002662079 -4.2142143e-05 -0.00068133796 -6.7157845e-05
0003a0 26 b7 35 ba 0e 1d 18 09 e1 1f 95 21 7b 75 46 b9
       -0.00069318933 1.8309996e-33 1.0105071e-18 -0.00018926516
0003b0 4b 6c e4 b9 70 07 dd ba 2c b2 96 ba 3b f7 96 ba
       -0.00043568233 -0.0016863178 -0.0011497191 -0.0011517772
0003c0 6b 42 3e 35 dd a6 4a b9 05 f1 3b b9 47 49 08 39
       7.0877167e-07 -0.00019326383 -0.00017923496 0.00012997269
0003d0 c3 27 84 ba 99 6f 0f 39 e3 a5 65 ba 06 b8 27 36
       -0.0010082651 0.00013679116 -0.0008760376 2.4992055e-06
0003e0 a5 4d 1f b9 db ff f7 ba fe ec 6a ba 16 a3 4d b6
       -0.00015192346 -0.0018920855 -0.0008961706 -3.064231e-06
0003f0 05 b4 20 ba 7d 41 9f ba b6 f9 84 39 3e e5 1d b6
       -0.00061303406 -0.0012150254 0.0002536305 -2.352826e-06

exp_avg_sq f4 [32, 32]
000000 6c f4 f6 2c 82 20 ee 2b 10 78 07 2d 30 b5 e2 2c
       7.018877e-12 1.691994e-12 7.700521e-12 6.443422e-12
000010 78 d3 f1 2b c7 68 81 2a 76 d4 06 2d 61 fa a3 2c
       1.7182774e-12 2.2987707e-13 7.664194e-12 4.6605363e-12
000020 a8 51 bb 2c 6c 69 17 2c 6c 41 94 2c 50 09 9d 2b
       5.3239253e-12 2.1516912e-12 4.2136763e-12 1.1158106e-12
000030 80 f3 bf 2c 36 a6 79 2d 89 e5 ee 2d e8 91 dc 2d
       5.4555804e-12 1.41909175e-11 2.7159401e-11 2.50759e-11
000040 7f 78 7a 2a 7a 9a c7 2c 79 f5 cd 2c ec c5 ce 2a
       2.2246266e-13 5.6730705e-12 5.8537034e-12 3.6730287e-13
000050 ea 08 0a 2d d0 4c ab 2c 91 f5 3e 2d 6a b5 cb 2b
       7.846371e-12 4.86864e-12 1.0854776e-11 1.447437e-12
000060 3c 7e 5a 2b e5 38 5a 2d e3 cd ae 2c 36 0a 15 2c
       7.7624344e-13 1.24044984e-11 4.9682355e-12 2.1179842e-12
000070 fa f2 b6 2c 0a 29 c6 2d 90 be 74 2b 47 12 6e 2c
       5.199727e-12 2.2528219e-11 8.695067e-13 3.383198e-12
000080 9c fd 26 38 2d 47 ee 37 18 08 77 38 da b4 2c 36
       3.9813676e-05 2.8404955e-05 5.8896927e-05 2.5735267e-06
000090 d0 e5 82 2e 49 f4 ba 34 b3 e4 29 38 23 e6 92 36
       5.9525385e-11 3.482294e-07 4.0505733e-05 4.3779305e-06
0000a0 24 9f 50 38 88 ca f2 2c af 21 26 2a 21 b2 c0 34
       4.9739276e-05 6.900539e-12 1.4755448e-13 3.5892393e-07
0000b0 e8 66 02 35 5a bd 9d 36 3d cb 15 33 b1 3f 15 37
       4.857852e-07 4.701008e-06 3.487661e-08 8.895921e-06
0000c0 e8 a7 42 32 fa 09 cf 34 17 40 90 38 9a 28 7e 2c
       1.1330464e-08 3.8564013e-07 6.878393e-05 3.611811e-12
0000d0 7d 35 ce 36 d1 62 cf 36 03 4a 8b 36 1b 6c d9 2c
       6.1455053e-06 6.1805845e-06 4.151139e-06 6.179513e-12
0000e0 d0 af e7 28 97 92 bd 37 5e 76 84 38 28 d9 3f 35
       2.5722398e-14 2.2598817e-05 6.316298e-05 7.146905e-07
0000f0 43 0b 8e 37 2a e2 d2 36 00 46 75 2a 5d f1 92 2b
       1.6932963e-05 6.2848167e-06 2.1784657e-13 1.0440916e-12
000100 a9 dc df 37 65 dc c7 36 40 73 0b 38 fd 27 24 35
       2.6686424e-05 5.9563195e-06 3.3247517e-05 6.115295e-07
000110 6d f0 13 35 9b 9b fd 35 5a 99 3c 38 99 63 0e 37
       5.5111633e-07 1.8895256e-06 4.4965513e-05 8.487049e-06
000120 17 31 65 38 77 ce 9d 2b c5 be 6f 2b 5f 68 bc 33
       5.4643573e-05 1.1212826e-12 8.5174603e-13 8.773417e-08
000130 dd b1 1e 36 66 f7 43 37 8c 26 a6 36 34 23 12 38
       2.3647365e-06 1.1680508e-05 4.951673e-06 3.4841898e-05
000140 51 27 cc 34 03 56 bf 33 fa bc c3 37 22 c0 1a 2e
       3.8026567e-07 8.909776e-08 2.333381e-05 3.5186194e-11
000150 43 b1 4e 37 17 c3 e9 35 d6 38 6c 37 01 05 bf 33
       1.2319829e-05 1.7416631e-06 1.4079929e-05 8.895041e-08
000160 f0 8c fc 33 98 d8 f3 37 78 30 b1 37 8c 26 2b 34
       1.1760301e-07 2.9068717e-05 2.1122614e-05 1.593964e-07
000170 bb 5d 93 37 31 51 dc 37 38 b7 1a 29 98 58 11 32
       1.7567412e-05 2.6263851e-05 3.4353786e-14 8.460255e-09
000180 04 58 17 39 8a fe 06 39 8f 67 38 39 06 d0 f1 36
       0.0001443327 0.00012874059 0.00017586186 7.206577e-06
000190 a4 a8 9a 24 c5 b9 44 34 1f 4d ee 38 05 38 04 37
       6.707254e-17 1.8321505e-07 0.00011363089 7.880856e-06
0001a0 b9 56 14 39 64 36 b5 2a 54 e1 90 2c 56 7d 1d 36
       0.00014146687 3.21898e-13 4.1177426e-12 2.3467778e-06
0001b0 5f 4a e5 2c a2 2d 86 35 ca 53 d7 2b 60 05 bb 36
       6.5168283e-12 9.997059e-07 1.5299925e-12 5.57366e-06
0001c0 ce ff 40 2f 89 30 2e 36 23 b5 90 39 20 91 34 2b
       1.7553178e-10 2.5956272e-06 0.00027600778 6.415025e-13
0001d0 5c 5e 22 37 80 9a f9 37 72 d9 71 36 cc f7 de 2c
       9.677922e-06 2.9755058e-05 3.6038368e-06 6.3371305e-12
0001e0 4b 79 ab 28 bf 53 92 37 51 9b 62 39 da 6e 89 36
       1.9037416e-14 1.7443554e-05 0.000216109 4.095823e-06
0001f0 54 c0 47 38 6a 0e 6e 36 e6 43 2c 2b 71 e6 61 29
       4.7624417e-05 3.5473154e-06 6.1200903e-13 5.0159912e-14
000200 48 b4 2c 37 a6 d6 10 36 e4 02 64 37 34 ed 72 34
       1.0293974e-05 2.1582614e-06 1.3590532e-05 2.26243e-07
000210 fa 51 15 34 ea 21 4f 35 c1 1c 93 37 db 21 5c 36
       1.3906529e-07 7.716286e-07 1.7537155e-05 3.280226e-06
000220 58 4e b2 37 ee 8b 90 2c 83 50 85 2b 32 f5 e4 32
       2.1255735e-05 4.1082615e-12 9.472565e-13 2.6654195e-08
000230 fc 04 80 35 2a 37 a6 36 24 23 e7 35 76 df 5e 37
       9.538194e-07 4.9536075e-06 1.7221068e-06 1.328426e-05
000240 e9 a8 11 34 e7 42 ee 32 30 48 11 37 e9 3a b2 2b
       1.3565626e-07 2.773727e-08 8.659481e-06 1.2664012e-12
000250 78 6b a7 36 7d c5 28 35 8d d1 b5 36 d0 4c 13 33
       4.989499e-06 6.287226e-07 5.4186153e-06 3.4295965e-08
000260 3b 15 59 32 e8 73 4e 37 c5 d3 09 37 85 c0 72 33
       1.263589e-08 1.2305543e-05 8.215143e-06 5.652011e-08
000270 63 95 e9 36 c7 ac 28 37 cf e9 4b 2a 1d 2b dc 30
       6.961332e-06 1.0053808e-05 1.811114e-13 1.601936e-09
000280 38 aa 09 38 1b 8c 18 37 51 dd be 37 a1 25 09 35
       3.2821874e-05 9.092527e-06 2.2752823e-05 5.1091234e-07
000290 a6 18 b9 34 a5 01 ec 35 50 ee 40 38 4b 56 08 37
       3.447687e-07 1.7583849e-06 4.5998313e-05 8.126323e-06
0002a0 aa 7f 72 38 eb 52 cb 2c e0 36 9f 28 de 76 25 34
       5.7816193e-05 5.7788128e-12 1.7676344e-14 1.5410066e-07
0002b0 46 b7 35 2f e0 7a 67 35 cc d3 a7 35 ff ba f5 37
       1.6526966e-10 8.623301e-07 1.2504111e-06 2.9293353e-05
0002c0 6c 52 a7 34 00 57 2d 34 e8 1d 06 38 e3 0a c3 29
       3.1166144e-07 1.6143531e-07 3.1975942e-05 8.661628e-14
0002d0 0f 32 0e 37 89 0b 44 36 fd ef 40 37 89 de 9f 33
       8.475515e-06 2.921299e-06 1.1499968e-05 7.4444934e-08
0002e0 d1 27 45 33 ed c5 dc 35 68 e2 85 37 91 55 9b 34
       4.590385e-08 1.6448881e-06 1.5960264e-05 2.8933258e-07
0002f0 bf 58 91 37 aa e7 ae 37 c1 f5 d2 2c 54 2c 9b 31
       1.7326673e-05 2.0850293e-05 5.995843e-12 4.5161332e-09
000300 ca 27 9e 37 75 40 96 36 88 27 d9 37 1c ed ee 34
       1.8853596e-05 4.477852e-06 2.5886824e-05 4.4503474e-07
000310 67 e3 c6 35 22 fe d2 35 55 6b 37 38 a9 71 12 37
       1.4818332e-06 1.5720182e-06 4.373056e-05 8.728742e-06
000320 d6 cb 50 38 47 d1 71 27 cf 32 84 2a f3 77 85 33
       4.97809e-05 3.3558918e-15 2.3483166e-13 6.215114e-08
000330 8e 98 10 36 0e f1 a5 37 3e d0 c1 37 05 a8 77 38
       2.154647e-06 1.9781783e-05 2.3104363e-05 5.904587e-05
000340 18 3e 8b 34 e6 50 8d 33 bb f6 85 37 5b 47 47 33
       2.5935947e-07 6.5805395e-08 1.5969728e-05 4.6398196e-08
000350 85 20 9b 37 eb 04 a5 35 05 b6 c5 37 bb cc d1 33
       1.8492583e-05 1.2294889e-06 2.356899e-05 9.769561e-08
000360 b3 d1 1b 35 f0 d8 db 37 89 a4 68 37 51 c6 fe 33
       5.804715e-07 2.6207854e-05 1.3866586e-05 1.186387e-07
000370 51 97 93 37 06 7a 4a 38 ed 3f 18 34 cb 2c 58 33
       1.7594228e-05 4.8274196e-05 1.4179359e-07 5.0332158e-08
000380 e3 49 93 37 ff 16 b0 37 ca 88 83 38 6a 6a 14 36
       1.7558172e-05 2.0991543e-05 6.272046e-05 2.211566e-06
000390 21 bf 64 35 ea 33 93 33 a7 18 1e 38 3b 09 ad 36
       8.521475e-07 6.854664e-08 3.7693095e-05 5.1568763e-06
0003a0 7a 3e 1f 38 d2 15 d5 29 15 da 11 2c d6 5c b1 34
       3.796674e-05 9.4628854e-14 2.07268e-12 3.3036366e-07
0003b0 c8 a4 96 36 0a 18 26 38 92 2d 28 38 82 8b 80 38
       4.4895314e-06 3.9599872e-05 4.0096762e-05 6.129501e-05
0003c0 20 84 6b 2d 90 7d b6 34 3f 9c 39 38 7b ce c4 33
       1.3387541e-11 3.39915e-07 4.4252953e-05 9.16452e-08
0003d0 83 5e cc 37 42 4f 64 36 99 9a d8 37 92 f2 a7 30
       2.4362706e-05 3.4020782e-06 2.5821197e-05 1.2219792e-09
0003e0 2e 35 f5 34 e0 5c 84 38 f1 4c 73 38 12 e7 dc 34
       4.56735e-07 6.31155e-05 5.8007372e-05 4.114632e-07
0003f0 19 21 97 37 d3 0d 6a 38 4a a7 94 34 af 8c 96 32
       1.8016015e-05 5.5802822e-05 2.7688867e-07 1.7526274e-08

exp_avg f4 [32]
000000 fa b5 bf b2 a4 4b 4c b9 4c cd b1 ba a4 ae f6 b8
       -2.231808e-08 -0.00019483134 -0.0013565212 -0.000117627234
000010 18 29 27 ba d1 79 fe b8 79 e1 c0 3a 6d a3 0f bb
       -0.0006376668 -0.00012134354 0.0014715634 -0.0021917478
000020 ad 37 2e ba 69 18 0c bb 19 f2 ff ac 8f fc 33 3b
       -0.00066458696 -0.0021376854 -7.274414e-12 0.002746377
000030 28 4e ac 3a 7f 87 66 b7 cc 40 a0 3a 73 91 16 b7
       0.0013145851 -1.3740616e-05 0.0012226342 -8.974562e-06
000040 ba 5d 57 ba 7b f4 d6 ba e5 01 57 b7 d7 b4 cf ba
       -0.00082155655 -0.0016399765 -1.281544e-05 -0.0015846741
000050 fa 03 8c ba de ad b4 38 f0 c7 10 ba 91 31 bf ac
       -0.0010682337 8.615454e-05 -0.0005522957 -5.4340495e-12
000060 bf dd ca 3a e5 1d 88 39 e2 31 5a 39 f0 ab c9 b0
       0.0015477462 0.00025962215 0.00020808683 -1.4673542e-09
000070 67 cd f9 3a 6a 89 a2 ba f0 b4 35 3b 7d 2c 85 3a
       0.0019058407 -0.0012400572 0.0027726255 0.0010160353

exp_avg_sq f4 [32]
000000 72 f7 da 2d 68 14 cf 38 e3 e5 a4 38 15 d6 8b 39
       2.4893618e-11 9.87433e-05 7.862949e-05 0.0002667165
000010 34 0c 07 38 bf 62 63 38 f2 7f a0 38 1f 41 0f 39
       3.2197873e-05 5.4212982e-05 7.653226e-05 0.00013661802
000020 88 d6 df 37 a7 20 34 39 0f 41 db 2c 33 71 47 39
       2.668357e-05 0.00017178302 6.2315773e-12 0.00019020289
000030 2c 78 24 39 6f c6 7d 32 3a 36 83 38 31 a9 40 34
       0.00015685026 1.4771657e-08 6.256667e-05 1.7942945e-07
000040 48 c8 7a 38 14 7e f0 38 86 1e 85 33 9d e3 0f 39
       5.979117e-05 0.00011467576 6.198847e-08 0.00013722335
000050 a0 38 b1 37 02 bc e0 33 11 43 d0 37 cc e7 ca 2c
       2.1126412e-05 1.0465011e-07 2.4826762e-05 5.76692e-12
000060 01 6d cb 38 4f 01 6f 37 a8 2b 52 39 7c ec bb 2c
       9.700098e-05 1.4245815e-05 0.00020043424 5.3411147e-12
000070 56 ce 5c 38 55 92 c8 38 18 54 6f 39 31 ac 4a 38
       5.2644253e-05 9.5639996e-05 0.00022824144 4.832092e-05
