checkpoints/ablation_eps_0.10/ablation_eps_0.10_epoch0100.pt (torch, 41915 bytes, 24 tensors)

0.weight f4 [32, 2]
0.58060056 0.57888645 -0.14232661 0.7483495 -0.14001274 0.2082851 -0.43811977 0.40137476
0.5703873 -0.39437884 0.61722726 0.05959434 0.48277685 0.017761353 0.35030174 -0.06726878
0.6059412 0.09238875 -0.008643645 1.0810203e-05 -0.007922759 2.9768113e-18 -0.14592832 0.5856678
-0.59416795 -0.48516026 -0.17484252 -0.42228377 0.07055387 -0.75457907 0.60606277 -0.6227659
0.51083994 0.07300541 -0.068264805 0.5642459 0.11404365 0.7234172 0.038896043 -0.3339529
0.13497517 -0.23705924 0.29046354 0.60608464 0.31445655 -0.3558055 0.48877963 -0.10825115
0.3780902 -0.37422344 -0.65216154 -0.32203138 -0.47586074 0.67784965 0.14593051 0.35256603
0.24130802 2.7116068e-05 0.43778437 -0.5842514 0.05197138 -0.59578294 0.30709052 -0.21505167
00000000: 3da2 143f e731 143f 11be 11be d593 3f3f
00000010: 805f 0fbe b048 553e 3c51 e0be fe80 cd3e
00000020: e704 123f 06ec c9be 9b02 1e3f 3219 743d
00000030: 872e f73e 4280 913c c05a b33e 37c4 89bd
00000040: f61e 1b3f 5036 bd3d 139e 0dbc 785d 3537
00000050: 76ce 01bc 60a6 5b22 3c6e 15be 53ee 153f
00000060: 641b 18bf ed66 f8be eb09 33be 9435 d8be
00000070: 8c7e 903d 182c 41bf ee26 1b3f 966d 1fbf
00000080: 68c6 023f dc83 953d 6bce 8bbd 6b72 103f
00000090: b88f e93d df31 393f 7551 1f3d e0fb aabe
000000a0: ee36 0a3e a8bf 72be a3b7 943e 5d28 1b3f
000000b0: 7300 a13e 232c b6be 5341 fa3e c7b2 ddbd
000000c0: 0a95 c13e 379a bfbe 0ff4 26bf 4ce1 a4be
000000d0: 05a4 f3be 8e87 2d3f cf6e 153e 8983 b43e
000000e0: 7319 773e 5077 e337 4625 e03e 8091 15bf
000000f0: f1df 543d 3b85 18bf f83a 9d3e 8136 5cbe

0.bias f4 [32]
0.19703688 -0.034678333 0.59698296 -0.3930157 -0.44154322 -0.34186286 0.6451823 0.19224057
0.6559578 -0.117566295 -0.19990295 -0.5148415 -0.36510265 0.36375293 0.24408868 0.5398441
-0.42983946 -0.46205533 0.33922884 -0.26831186 0.4160927 -0.25309408 0.38646656 -0.48593763
-0.35721335 0.29262972 0.18003975 -0.22169583 0.4354232 0.5283856 -0.48017576 -0.3485053
00000000: 09c4 493e de0a 0ebd e0d3 183f 5b39 c9be
00000010: f411 e2be a608 afbe ab2a 253f b6da 443e
00000020: daec 273f 99c6 f0bd 5cb3 4cbe a7cc 03bf
00000030: bcee babe d33d ba3e 62f2 793e 3933 0a3f
00000040: eb13 dcbe 8492 ecbe 67af ad3e 2c60 89be
00000050: 1a0a d53e 8c95 81be f2de c53e d1cc f8be
00000060: abe4 b6be 90d3 953e 575c 383e 3b04 63be
00000070: caef de3e 4744 073f 99d9 f5be 496f b2be

2.weight f4 [32, 32]
-9.5395306e-05 -1.6356204e-08 -0.00020218038 -1.5048372e-05 6.568238e-09 2.0707085e-10 -5.9813192e-05 6.0677263e-07
-1.78777e-05 -4.2677112e-11 -1.8516585e-07 -1.263266e-10 -3.6180914e-05 -0.00039573485 0.0004185843 -0.00015024538
1.286063e-10 -7.0602746e-06 -7.993961e-05 6.081434e-12 -7.0428614e-05 -1.0515075e-05 -4.7943733e-05 2.8415528e-10
-1.1501559e-10 -0.0005877443 -3.7877824e-05 -4.3478565e-08 -2.169162e-05 -0.00033930712 4.4824536e-10 -4.2908147e-07
0.19422074 0.06137397 0.19905034 0.11918869 -2.7170158e-06 0.00021672837 -0.020490753 -0.03128791
-0.11321967 -6.772236e-06 -4.9142936e-20 -0.17558224 -0.05004001 -0.33251187 -0.16253106 -0.14033623
-0.27206248 -0.20280094 0.15861757 4.3883347e-08 0.12506571 -0.10985483 -0.05137253 -4.6610617e-06
1.0606699e-18 -0.13599141 0.23037297 -0.20389867 0.120624796 -0.031018278 -2.780311e-20 -4.46914e-17
0.1488306 0.02805844 0.059326816 -0.040953428 -0.018387323 0.00079281145 -0.07392525 0.119429745
0.05536734 -2.1070386e-17 -8.080554e-19 0.121181704 -0.05661122 -0.052218523 -0.21163268 -0.08144582
-0.11835178 0.2389235 0.19390187 -0.002155485 0.025452748 0.16432154 0.012915363 -0.20751072
-0.018644648 0.09328142 0.10554553 0.15015064 -0.040932186 -0.008328866 2.0720689e-21 -0.1870337
0.19001012 0.19718565 -0.055210117 0.08877164 -1.0534557e-21 0.011557884 0.03212989 0.092012934
-0.14750484 -2.5781002e-19 1.5108937e-07 0.3477769 1.4462912e-06 -0.31386712 4.9476533e-15 -0.10050982
-0.04929441 0.3908808 0.1344822 -5.525481e-19 -0.29783586 0.08084542 -0.021464046 3.9691226e-06
1.6123713e-20 -0.13096845 0.06692354 0.26055658 -0.12594184 0.043327887 -1.3965256e-18 1.24744265e-20
-0.079578966 0.2413001 0.19510885 0.24220894 -0.009180676 0.012719388 -0.06638595 0.13308445
0.17287512 1.4801411e-07 -1.7691891e-17 -0.053690985 -0.14954743 -0.23428348 -0.2744825 -0.12786663
0.05201714 -0.18071787 0.10659018 1.3956518e-16 -0.045024544 0.021522129 -0.13680865 -0.024663271
-0.100312226 0.080767855 0.053272497 -0.05131914 0.036358513 -0.09990714 -7.8630684e-20 -0.080329545
0.13395734 -0.12566362 0.09717054 0.12799232 -0.026341502 -0.061314996 0.14148599 -0.06528878
0.08353628 2.1460844e-06 7.535744e-21 0.20550755 0.0066261035 -0.04024724 -0.0033964363 -0.16283722
0.14529431 0.3558991 0.19393705 -4.6787226e-20 -0.14050123 0.1284653 0.11331392 -0.25730926
-0.19288342 -0.07855799 -0.029906083 0.113869466 -0.056709748 -0.040106036 -2.75719e-06 -0.112717524
0.13293643 -0.030831352 -0.02838377 -0.15581271 -0.1236064 -0.19295932 0.060692135 -0.07321083
-0.12271839 -7.12034e-21 -1.3364955e-19 -0.18719313 0.06536382 -0.021016875 -0.015567832 -0.06735255
-0.105172925 -0.08352461 -0.088819586 0.3228939 -0.040427208 -0.05919166 0.17799239 0.30835897
-0.093979694 0.09247647 0.13492098 -0.100677565 0.12187033 0.19100301 0.3265813 0.1745708
-0.12100518 -0.032470617 0.15481928 0.14106661 0.010060966 -0.059813533 -0.08446615 -0.13640857
-0.09482203 -7.974962e-21 2.0635793e-11 0.18812808 -0.15427278 -0.08802565 0.057123233 -0.055074938
4.5730163e-18 0.30156872 -0.051287673 -0.17508245 0.017768389 0.01348102 -0.005891378 -6.56846e-07
-0.03421521 -0.05750214 0.1889327 0.12177734 -0.08697774 0.1202163 -0.18677106 -0.0445701
00000000: f70e c8b8 ac7f 8cb2 6200 54b9 4478 7cb7
00000010: d5ae e131 43ad 632f eddf 7ab8 19e1 2235
00000020: 12f8 95b7 28b2 3bae 00d2 46b4 c7e5 0aaf
00000030: f6c0 17b8 a27a cfb9 6f75 db39 308b 1db9
00000040: 7567 0d2f 4ce7 ecb6 40a5 a7b8 b0f8 d52c
00000050: 13b3 93b8 e769 30b7 3117 49b8 4d37 9c2f
00000060: 05ec fcae da12 1aba 01df 1eb8 30bd 3ab3
00000070: 66f6 b5b7 08e5 b1b9 ed6c f62f 825c e6b4
00000080: cde1 463e 4663 7b3d dad3 4b3e 3319 f43d
00000090: fa55 36b6 9441 6339 39dc a7bc c027 00bd
000000a0: b7df e7bd 103d e3b6 2a12 689f d5cb 33be
000000b0: c1f6 4cbd ff3e aabe 8b6e 26be 4db4 0fbe
000000c0: c64b 8bbe 0dab 4fbe a56c 223e 407a 3c33
000000d0: 3a11 003e 92fb e0bd 016c 52bd 3766 9cb6
000000e0: fa86 9c21 5541 0bbe e4e6 6b3e d0ca 50be
000000f0: 220a f73d 0b1a febc e64b 039f 4b1a 4ea4
00000100: 0c67 183e d0da e53c ad00 733d c8be 27bd
00000110: 03a1 96bc add4 4f3a 1f66 97bd 9597 f43d
00000120: ddc8 623d 0b57 c2a3 f17e 6ea1 1d2e f83d
00000130: 2be1 67bd 17e3 55bd 3db6 58be 11cd a6bd
00000140: 6b62 f2bd 5da8 743e 368e 463e 0a43 0dbb
00000150: 4882 d03c e843 283e f59a 533c b17d 54be
00000160: a9bc 98bc 540a bf3d 4128 d83d 17c1 193e
00000170: 82a8 27bd cc75 08bc a48f 1c1d c385 3fbe
00000180: 0392 423e 09eb 493e 0124 62bd e8cd b53d
00000190: 9831 9f9c 475d 3d3c a29a 033d 4771 bc3d
000001a0: 820b 17be 262f 98a0 213b 2234 d00f b23e
000001b0: 301e c235 31b3 a0be 0c42 b227 18d8 cdbd
000001c0: efe8 49bd 8721 c83e b4b5 093e 5b15 23a1
000001d0: f17d 98be 4992 a53d 5ed5 afbc 812e 8536
000001e0: bf48 981e 981c 06be 350f 893d ac67 853e
000001f0: e6f6 00be 9578 313d 3f17 cea1 a0a2 6b1e
00000200: 4cfa a2bd 6017 773e 9dca 473e 9f05 783e
00000210: 8c6a 16bc fb64 503c 5bf5 87bd 4a47 083e
00000220: 2d06 313e cfed 1e34 cc2d a3a3 14eb 5bbd
00000230: f622 19be 02e8 6fbe f888 8cbe 78ef 02be
00000240: ed0f 553d 1b0e 39be f44b da3d 5fe8 2025
00000250: a86b 38bd 2d4f b03c 9117 0cbe a10a cabc
00000260: 7f70 cdbd 9e69 a53d 4334 5a3d 0534 52bd
00000270: aaec 143d 1d9c ccbd 55a9 b99f d183 a4bd
00000280: 1d2c 093e f7ad 00be 5901 c73d 6b10 033e
00000290: 22ca d7bc 6f25 7bbd b4e1 103e 20b6 85bd
000002a0: 1215 ab3d 7305 1036 9f58 0e1e 9270 523e
000002b0: c91f d93b 4ada 24bd bf96 5ebb cdbe 26be
000002c0: 08c8 143e 6838 b63e 6f97 463e 49f2 5c9f
000002d0: 8edf 0fbe 688c 033e 2111 e83d 0abe 83be
000002e0: 3b83 45be 03e3 a0bd 9afd f4bc 6534 e93d
000002f0: 7b48 68bd 3a46 24bd 2a08 39b6 72d8 e6bd
00000300: 7d20 083e 0892 fcbc 1485 e8bc 5e8d 1fbe
00000310: 5a25 fdbd 2197 45be 5198 783d 8fef 95bd
00000320: c753 fbbd da7f 069e 19c9 1da0 8eaf 3fbe
00000330: 77dd 853d 952b acbc 3810 7fbc 22f0 89bd
00000340: e764 d7bd f30e abbd 0be7 b5bd 5952 a53e
00000350: 0097 25bd f472 72bd a343 363e 3ae1 9d3e
00000360: 6d78 c0bd 4e64 bd3d ba28 0a3e 0a30 cebd
00000370: 2797 f93d 4b96 433e aa35 a73e b0c2 323e
00000380: 90d1 f7bd e9ff 04bd f288 1e3e c473 103e
00000390: c0d6 243c 09ff 74bd 97fc acbd b0ae 0bbe
000003a0: 0d32 c2bd 8da4 169e ad83 b52d a6a4 403e
000003b0: aff9 1dbe cb46 b4bd 0dfa 693d 4296 61bd
000003c0: ebb6 a822 3767 9a3e 0613 52bd d048 33be
000003d0: 038f 913c 7fdf 5c3c 760c c1bb 1d52 30b5
000003e0: 3f25 0cbd 5d87 6bbd 9377 413e 6666 f93d
000003f0: 6321 b2bd f733 f63d ea40 3fbe 238f 36bd

2.bias f4 [32]
-0.0014010355 -0.10355374 0.022500692 -0.15857953 0.18689416 -0.16218153 0.08591747 0.20400222
0.11683801 0.09815929 -3.5589862e-06 0.17071928 -0.006740686 -0.14768057 0.19687255 -0.09153019
0.027232256 0.17598441 -0.13273661 -0.08678292 0.041962616 -0.05305126 0.048701126 -3.1772067e-06
0.016893506 -0.06868601 -0.108944476 -1.2283575e-06 0.08009134 0.050160464 -0.10756417 0.1535748
00000000: f3a2 b7ba fc13 d4bd 5f53 b83c ac62 22be
00000010: 2f61 3f3e ea12 26be 80f5 af3d f5e5 503e
00000020: c448 ef3d bd07 c93d ebd6 6eb6 09d1 2e3e
00000030: f9e0 dcbb 9339 17be f598 493e 2e74 bbbd
00000040: 2e16 df3c 4235 343e 1bec 07be 3ebb b1bd
00000050: fee0 2b3d 474c 59bd d57a 473d ff37 55b6
00000060: 4064 8a3c 40ab 8cbd 481e dfbd 0bde a4b5
00000070: ee06 a43d 0f75 4d3d 9b4a dcbd b642 1d3e

4.weight f4 [32, 32]
4.0520042e-08 -0.03828903 -0.03982245 0.41089025 0.1678232 0.19669753 -0.14431274 0.19857106
0.053483482 0.13747999 1.2356455e-08 -0.022664012 -0.21498767 0.005515119 -0.14766705 -0.0030280566
-0.045963313 0.006820962 0.0041049863 0.05522221 -0.026152454 0.0073324433 0.19754675 -5.324994e-13
0.053011395 0.14559619 0.29811308 7.9707667e-22 -0.0024103026 0.09180967 -0.3491424 -0.11391004
3.4980317e-08 -0.131804 0.057054415 0.35762817 0.028183457 0.18824033 -0.038809724 0.16699263
0.17330968 -0.04627606 -1.01064845e-08 -0.19189915 -0.11810314 -6.693494e-07 -0.021447912 -0.01968341
-0.008184198 -0.0019230203 -0.0024003973 0.23797625 -0.05957118 -0.009846407 0.12503977 -1.7162055e-14
0.11111186 0.1440748 0.29582387 -1.3090898e-09 0.033362564 0.19741882 -0.14766546 0.17357546
3.367866e-09 -0.00083784794 0.042251885 -0.00020268207 -3.4743098e-06 0.008200152 0.016132848 -6.939311e-05
0.029546978 -0.00035074019 2.712889e-07 0.036884073 0.00019536525 -4.1298925e-05 0.02172367 -2.2453274e-21
0.009531611 0.019267123 0.033288117 -0.015329964 -2.4973432e-20 0.0035959482 0.0007697642 4.233678e-08
-0.057011433 -0.009151601 -2.3484163e-20 4.9558103e-20 0.019020427 0.00049031584 -1.5146812e-06 -0.0071031153
0.00017371672 -0.049233582 0.03289837 0.20916949 -0.027846768 0.059199404 -0.02009865 0.19390595
-0.0020294022 0.18833286 1.3219343e-20 -0.18110248 0.02997861 0.037886705 -0.11037659 -0.11432572
0.23924854 0.18877146 -0.057566192 0.17303404 -0.019711748 -0.09576608 0.07353024 -1.8126973e-14
-0.05431648 0.1000543 0.041849814 9.5441766e-11 0.09636046 0.148256 -0.012797924 0.08654301
-2.972696e-06 -0.020642469 -0.106445596 1.7024495e-17 -0.16720141 -0.04869654 0.17106563 -0.074964516
-0.03387833 0.004852751 2.7369165e-06 0.16637434 0.20326695 -0.0055969977 0.16461419 0.12488909
-0.35666552 -0.15129624 0.005964023 0.025752854 -0.06230783 1.0353825e-20 0.021687292 -4.8597427e-15
-0.024967462 0.08729606 -0.08034832 -1.0184431e-10 0.22771652 -0.060478095 0.12879437 0.21889834
9.611626e-05 -0.13765594 0.21877182 0.35949636 -0.03420214 0.085891 -0.12766816 0.07574869
-0.09229483 0.065727994 -5.849968e-21 -0.080978125 -0.20773093 -0.071625054 0.053195525 0.12151091
-0.07717823 0.11379703 -0.06322535 0.08006321 0.15383178 -0.019326216 -0.10787514 1.18024275e-08
0.062832944 0.07170509 0.30276433 -2.9998926e-20 -0.03571657 -0.04650904 -0.13331425 0.09287176
-1.7704976e-10 -0.0332635 -0.14232293 6.1661985e-20 -0.22605027 -0.13133669 0.058124002 -0.076636694
0.0050105606 -0.024948137 1.8724337e-10 0.06946754 -0.041297078 0.0010583746 0.090581656 -0.015998002
-0.22337577 0.045989327 -9.492303e-05 0.02260348 0.06606282 -4.4228503e-07 -0.06791206 -1.223373e-09
0.21727876 0.19960028 -0.2659497 2.1310154e-06 0.12133087 -0.18154052 0.1421245 0.122506686
5.1752186e-06 9.5482254e-23 7.7099465e-09 -5.7767825e-15 7.8621165e-10 -6.539081e-06 7.97366e-08 -2.1062479e-07
7.5242997e-07 3.1906535e-21 -5.6957134e-07 5.7494513e-20 2.8782758e-20 -7.866587e-07 -1.1743724e-19 6.95289e-21
1.3605868e-08 -6.147606e-20 9.694412e-16 1.1985429e-20 2.1698927e-21 -1.7207114e-22 -2.9716821e-12 -1.0458414e-07
6.694072e-20 -1.8146651e-06 2.200833e-18 -2.3023866e-21 -3.901751e-12 -2.2251063e-19 -2.2084011e-20 7.591834e-21
00000000: 4208 2e33 f5d4 1cbd de1c 23bd 3560 d23e
00000010: d8d9 2b3e 146b 493e b8c6 13be 3656 4b3e
00000020: 7f11 5b3d 8ec7 0c3e 4448 5432 e1a9 b9bc
00000030: ba25 5cbe 2cb8 b43b 0836 17be 5c72 46bb
00000040: 0744 3cbd 6082 df3b 1f83 863b af30 623d
00000050: ac3d d6bc fe44 f03b b249 4a3e a0e2 15ab
00000060: 7a22 593d 2b17 153e 47a2 983e d2e6 701c
00000070: 2bf6 1dbb b506 bc3d cbc2 b2be ab49 e9bd
00000080: 443d 1633 a1f7 06be e4b1 693d 0a1b b73e
00000090: fee0 e63c 13c2 403e f2f6 1ebd 1e00 2b3e
000000a0: 1878 313e f78b 3dbd caa0 2db2 3681 44be
000000b0: 0fe0 f1bd 57ad 33b5 88b3 afbc 1a3f a1bc
000000c0: 0417 06bc db0d fcba fc4f 1dbb 0cb0 733e
000000d0: e900 74bd d352 21bc 6d0a 003e 0195 9aa8
000000e0: 9d8e e33d 5888 133e 3a76 973e 81eb b3b0
000000f0: 2fa7 083d 2928 4a3e 9d35 17be c4bd 313e
00000100: 2070 6731 06a3 5bba 5010 2d3d 0e87 54b9
00000110: 3028 69b6 ee59 063c 0929 843c 2487 91b8
00000120: 810c f23c 8de3 b7b9 aaa5 9134 c113 173d
00000130: f6da 4c39 6238 2db8 d7f5 b13c f3a6 299d
00000140: 792a 1c3c 16d6 9d3c 1f59 083d 882a 7bbc
00000150: 0ede eb9e 00aa 6b3b 00ca 493a c8d5 3533
00000160: d284 69bd 99f0 15bc 39cd dd9e 1208 6a1f
00000170: bad0 9b3c 8a88 003a 0d4c cbb5 40c1 e8bb
00000180: ba27 3639 27a9 49bd 71c0 063d 8730 563e
00000190: e81e e4bc 137b 723d eda5 a4bc 488f 463e
000001a0: b8ff 04bb 54da 403e d2b4 791e ee72 39be
000001b0: b495 f53c 172f 1b3d 1f0d e2bd 9a23 eabd
000001c0: 92fd 743e 4e4d 413e 87ca 6bbd d62f 313e
000001d0: 887a a1bc 0221 c4bd 0697 963d f445 a3a8
000001e0: f57a 5ebd 45e9 cc3d b66a 2b3d f0e0 d12e
000001f0: a258 c53d 6cd0 173e 62ae 51bc 763d b13d
00000200: 877e 47b6 651a a9bc 2600 dabd f405 9d23
00000210: d936 2bbe 0676 47bd d42b 2f3e ff86 99bd
00000220: 01c4 0abd d303 9f3b deab 3736 095e 2a3e
00000230: 3625 503e 0567 b7bb 9f90 283e dac5 ff3d
00000240: dd9c b6be 67ed 1abe da6d c33b a6f7 d23c
00000250: 7f36 7fbd 0794 431e 8ca9 b13c 3717 afa7
00000260: 9088 ccbc 47c8 b23d a98d a4bd 40f5 dfae
00000270: 852e 693e e1b7 77bd ace2 033e e326 603e
00000280: 0692 c938 aef5 0cbe b805 603e e80f b83e
00000290: 8b17 0cbd 9fe7 af3d 71bb 02be 2122 9b3d
000002a0: 1205 bdbd 669c 863d 6b01 dd9d dcd7 a5bd
000002b0: 6bb7 54be 28b0 92bd 8de3 593d b6da f83d
000002c0: 9f0f 9ebd 6b0e e93d 4b7c 81bd 2ef8 a33d
000002d0: 1486 1d3e 0352 9ebc a4ed dcbd a0c3 4a32
000002e0: 8fae 803d 1eda 923d ed03 9b3e 7aaa 0d9f
000002f0: 8a4b 12bd 4380 3ebd 8883 08be 8d33 be3d
00000300: 14ab 42af 4f3f 08bd 1abd 11be 6298 911f
00000310: b979 67be 207d 06be 6f13 6e3d b3f3 9cbd
00000320: a12f a43b 0960 ccbc 53e0 4d2f ff44 8e3d
00000330: 2027 29bd 29b9 8a3a e082 b93d 3e0e 83bc
00000340: 9ebc 64be 4e5f 3c3d 6a11 c7b8 ef2a b93c
00000350: f24b 873d 3173 edb4 7a15 8bbd 9c23 a8b0
00000360: 537e 5e3e 0464 4c3e 8f2a 88be 9102 0f36
00000370: 527c f83d c2e5 39be 1689 113e c9e4 fa3d
00000380: caa6 ad36 a7dc e61a b474 0432 6a21 d0a7
00000390: ba1c 5830 476a dbb6 a93b ab33 1a28 62b4
000003a0: 98fa 4935 3714 711d a5e4 18b5 4dc1 871f
000003b0: 38ec 071f c62a 53b5 3aa5 0aa0 1d56 031e
000003c0: 3ebf 6932 0028 919f 11b6 8b26 fa65 621e
000003d0: d4f3 231d 7005 509b 111d 51ac bd97 e0b3
000003e0: 2f0f 9e1f 6b8f f3b5 8f64 2222 a2f6 2d9d
000003f0: d947 89ac db58 83a0 dd93 d09e db67 0f1e

4.bias f4 [32]
0.09610388 0.07010951 -0.069440335 0.13583906 -0.018142361 0.0013070496 -0.017417409 -2.653885e-06
0.037725862 0.06940821 -0.00020171501 0.12262681 -0.016450465 -3.6989418e-06 -0.039868884 -0.021829896
-0.004064202 -0.019713648 0.060750328 -0.008260381 0.007399184 -0.009178614 0.07198591 0.16496587
0.100886226 -1.6770486e-17 -6.903786e-08 -0.03833542 -5.8402893e-18 0.08214217 -0.0075493543 0.15399545
00000000: 1cd2 c43d 9395 8f3d bc36 8ebd 6519 0b3e
00000010: 4a9f 94bc 4f51 ab3a f4ae 8ebc 6619 32b6
00000020: 6f86 1a3d e425 8e3d 7683 53b9 c423 fb3d
00000030: 20c3 86bc 563b 78b6 8e4d 23bd 9cd4 b2bc
00000040: ff2c 85bb 847e a1bc 56d5 783d 8d56 07bc
00000050: db74 f23b e661 16bc 596d 933d d0ec 283e
00000060: 709d ce3d 31ae 9aa3 f741 94b3 9a05 1dbd
00000070: f977 d7a2 273a a83d 9360 f7bb fcb0 1d3e

6.weight f4 [2, 32]
0.15734066 0.0437116 0.01622948 0.10595937 -0.09235206 0.24207227 -0.24209712 3.1679839e-18
-0.16535126 -0.19536684 -8.7389944e-18 0.14803202 0.004154179 4.339029e-20 -0.084928736 -0.09615587
-0.00072233373 0.030538501 -0.01161575 -0.0053774095 0.0126252 -0.17800853 -0.08174034 -0.13890016
-0.05069049 -2.6725901e-08 -2.5772505e-20 -0.19162124 5.9228623e-06 0.06262837 -0.15432301 -0.25484988
-0.08136264 -0.1252708 0.033079475 -0.18304121 0.1425303 -0.251981 0.012124594 1.502609e-17
0.13844311 0.03765726 -3.4587763e-06 -0.16280304 0.00057083607 -1.6505561e-06 0.09071888 0.14904398
0.00027731212 -0.11618908 -0.0016146826 0.0053480593 -0.013279482 0.033202827 0.23839892 -0.02287634
0.10932829 2.1282358e-19 4.5663443e-20 -0.101220675 9.5196704e-08 0.2397561 0.02946344 0.20101485
00000000: e91d 213e ef0a 333d b0f3 843c 3a01 d93d
00000010: 1423 bdbd cbe1 773e 4fe8 77be 86c1 6922
00000020: d751 29be 3f0e 48be bc34 21a3 b595 173e
00000030: c71f 883b a4e7 4c1f 1eef adbd 5eed c4bd
00000040: ff5a 3dba e12b fa3c fd4f 3ebc fb34 b0bb
00000050: edd9 4e3c de47 36be 7b67 a7bd d83b 0ebe
00000060: d5a0 4fbd e192 e5b2 186a f39e 5c38 44be
00000070: 00bd c636 4e43 803d da06 1ebe af7b 82be
00000080: 75a1 a6bd fd46 00be 587e 073d 286f 3bbe
00000090: 77f3 113e a703 81be 3ca6 463c 5a97 8a23
000000a0: 08c4 0d3e 803e 1a3d 531d 68b6 d7b5 26be
000000b0: 29a4 153a ad88 ddb5 d2ca b93d fc9e 183e
000000c0: 3464 9139 8af4 edbd c2a3 d3ba c63e af3b
000000d0: 2f92 59bc b0ff 073d d91e 743e 2a67 bbbc
000000e0: 83e7 df3d fb41 7b20 b7a3 571f c94c cfbd
000000f0: f16e cc33 a082 753e 505d f13c d6d6 4d3e

6.bias f4 [2]
0.15876697 0.07337339
00000000: cf93 223e ca44 963d

exp_avg f4 [32, 2]
-0.00024389764 -0.00088122993 -0.0012670668 -0.00037535734 -0.00010989408 -0.00012968732 -0.0016000092 -0.00090078864
-6.355081e-05 5.333022e-05 0.00012390019 0.00010084139 0.00011187846 -0.00055829826 -0.00032643203 -0.0012956361
-7.285297e-05 0.00056378753 -9.055158e-07 1.2402528e-09 -8.308787e-07 5.201626e-22 -0.0009769511 -0.0032701069
-1.7756935e-05 -0.0006208642 0.00033387096 -0.0008232336 -0.0003178351 -0.0005739842 -0.0002485195 -0.0005472082
-0.00051325525 -5.974371e-05 -0.0020098533 -0.0042581083 1.5806036e-05 -0.00038306467 8.595988e-05 -0.0005349554
0.00058655295 0.0016519818 -0.00020854664 -0.0016613484 0.0007862094 -0.00025098294 -0.0017593234 7.81689e-05
-0.00015382876 -0.0005070221 0.000158564 -0.00057924166 -0.0009284762 -0.0010865158 -4.4863223e-06 -0.0028543156
-2.0794532e-05 0.0013608284 0.00021396336 0.0001410651 0.0006212017 -0.000996599 4.2956206e-05 -7.1305476e-05
00000000: c6be 7fb9 5702 67ba b513 a6ba 9ccb c4b9
00000010: ef76 e6b8 adfc 07b9 66b7 d1ba e722 6cba
00000020: 9546 85b8 e3ae 5f38 34eb 0139 cf7a d338
00000030: 4aa0 ea38 c35a 12ba f724 abb9 55d2 a9ba
00000040: a4c8 98b8 24cb 133a 9212 73b5 8475 aa30
00000050: 8d09 5fb5 a235 1d1c 0a0d 80ba 4a4f 56bb
00000060: baf4 94b7 7ec1 22ba 670b af39 46ce 57ba
00000070: 1ba3 a6b9 6d77 16ba b94b 82b9 8572 0fba
00000080: fa8b 06ba 5295 7ab8 beb7 03bb 9a87 8bbb
00000090: 3497 8437 12d6 c8b9 5c45 b438 403c 0cba
000000a0: e7c2 193a 5087 d83a 50ad 5ab9 9ac1 d9ba
000000b0: 9f19 4e3a 5c96 83b9 1999 e6ba 9cee a338
000000c0: 184d 21b9 ade9 04ba 3344 2639 40d8 17ba
000000d0: fc64 73ba 6c69 8eba 3789 96b6 780f 3bbb
000000e0: eb6f aeb7 d35d b23a 5a5b 6039 e0ea 1339
000000f0: 24d8 223a 50a0 82ba e02b 3438 d689 95b8

exp_avg_sq f4 [32, 2]
6.1108435e-06 8.870791e-06 9.421688e-06 1.4663243e-06 1.0780693e-05 2.490014e-06 2.1711212e-05 2.2206516e-06
5.471721e-07 2.8750873e-07 1.6897594e-06 3.0106293e-07 4.1338362e-06 4.587747e-06 4.9035575e-06 9.3263025e-06
2.0199928e-05 8.01839e-06 7.530113e-11 1.11400255e-11 7.218403e-11 1.005253e-12 1.627514e-05 5.1707975e-05
2.6997517e-05 1.727592e-05 3.822214e-05 1.7580462e-05 5.571318e-05 1.1667977e-05 9.623172e-06 3.1743555e-06
1.0720355e-05 8.546487e-07 3.0941344e-05 0.00011457074 5.013622e-05 8.161127e-06 1.7381839e-05 6.937439e-05
2.2464961e-05 3.0145871e-05 1.7203065e-05 1.9569809e-05 1.4918041e-05 8.009363e-06 0.00011525068 1.18621465e-05
6.1878536e-06 2.183696e-06 2.7833105e-06 5.189586e-06 2.4448344e-05 8.2831975e-06 1.5145394e-05 4.1245003e-05
5.1774246e-06 7.1692225e-06 1.1038106e-05 2.987013e-06 3.1625903e-05 0.00014790983 3.1111325e-05 8.892618e-06
00000000: bf0b cd36 c2d3 1437 d811 1e37 85ce c435
00000010: b9de 3437 1d1a 2736 7920 b637 8106 1536
00000020: 61e1 1235 e65a 9a34 b1cb e235 c6a1 a134
00000030: 62b5 8a36 72f0 9936 3d89 a436 2a78 1c37
00000040: 0473 a937 b986 0637 c596 a52e 37fa 432d
00000050: ffbb 9e2e 0e7a 8d2b 9986 8837 04e1 5838
00000060: ba78 e237 c1eb 9037 b650 2038 c179 9337
00000070: 92ad 6938 94c1 4337 3673 2137 0307 5536
00000080: 93db 3337 036b 6535 04c7 0138 b345 f038
00000090: 5b49 5238 c6eb 0837 37cf 9137 187d 9138
000000a0: 2373 bc37 c4e1 fc37 4d4f 9037 d829 a437
000000b0: 8048 7a37 f45f 0637 bdb2 f138 8803 4737
000000c0: 42a1 cf36 9d8b 1236 e9c8 3a36 3422 ae36
000000d0: 6b16 cd37 10f8 0a37 f918 7e37 7cfe 2c38
000000e0: bdb9 ad36 278f f036 4e30 3937 7e74 4836
000000f0: 0ea6 0438 3e18 1b39 887d 0238 8131 1537

exp_avg f4 [32]
-0.00046667873 0.0004542852 0.00017546318 0.0012490808 -0.0001908811 3.9706534e-05 -0.00021942555 -0.00033497025
0.0001928654 -1.1968002e-05 -2.0257818e-05 -0.002319998 0.0003630844 -0.0006237958 -0.00018412624 -0.0004850251
-0.000157437 -0.0026380466 0.00086660206 0.001944624 0.00095128705 -0.0014696267 -0.00027532483 -0.0002095818
0.0003006816 -0.00033947075 0.00058830436 -0.0018216918 0.00076596555 -0.00012622424 0.0030234458 0.00058237615
00000000: 8fac f4b9 212d ee39 8afc 3739 32b8 a33a
00000010: 4127 48b9 918a 2638 9915 66b9 f29e afb9
00000020: e93b 4a39 2dca 48b7 55ef a9b7 1c0b 18bb
00000030: 5d5c be39 3a86 23ba 0312 41b9 f84a feb9
00000040: ac15 25b9 14e3 2cbb ae2c 633a c1e2 fe3a
00000050: cb5f 793a 7da0 c0ba 7959 90b9 30c3 5bb9
00000060: cda4 9d39 fefa b1b9 7038 1a3a d5c5 eeba
00000070: 14cb 483a 105b 04b9 0125 463b 9aaa 183a

exp_avg_sq f4 [32]
1.4619799e-05 1.1311851e-05 1.3442298e-05 1.6678936e-05 6.7433405e-07 1.9568954e-06 9.579477e-06 1.4456849e-05
2.7155025e-05 4.7469456e-10 8.4359825e-10 5.7462512e-05 4.7774807e-05 5.2878207e-05 6.589083e-05 1.35805185e-05
9.302113e-06 0.00012680113 6.0007074e-05 8.297578e-05 4.905945e-05 3.693965e-05 2.2143971e-05 9.174689e-05
6.674741e-06 9.301893e-06 3.5759953e-05 5.3864125e-05 1.1914482e-05 1.3117216e-05 0.00017467579 3.0864627e-05
00000000: 8f47 7537 08c8 3d37 3b86 6137 bee9 8b37
00000010: e203 3535 3553 0336 8ab7 2037 b28b 7237
00000020: f9ca e337 a97b 0230 f3e2 6730 e703 7138
00000030: cf61 4838 8bc9 5d38 df2e 8a38 e2d7 6337
00000040: 4510 1c37 ebf5 0439 1bb0 7b38 4803 ae38
00000050: 2fc5 4d38 a6ef 1a38 d1c1 b937 3d68 c038
00000060: 97f7 df36 540f 1c37 f5fc 1538 2aec 6138
00000070: 4fe4 4737 0412 5c37 2d29 3739 a474 0138

exp_avg f4 [32, 32]
-1.1003864e-08 -2.6125116e-12 -2.3135742e-08 -1.7496318e-09 1.0352482e-12 7.87314e-15 -6.8471953e-09 7.311129e-11
-2.1201696e-09 -6.020612e-15 -2.2612117e-11 -2.4412802e-14 -4.2791575e-09 -4.3461398e-08 4.4672635e-08 -1.608168e-08
9.142033e-15 -8.3150037e-10 -9.383675e-09 1.6729744e-14 -8.046742e-09 -1.260126e-09 -5.3495546e-09 4.9650175e-14
-3.3327138e-14 -6.504116e-08 -4.5282e-09 -6.1678436e-12 -2.5793812e-09 -3.646959e-08 6.5484686e-14 -5.4231182e-11
0.0010244588 0.0012761425 0.0016549242 0.00035429577 -3.189874e-10 9.254667e-05 0.0011120494 0.00020227753
0.0012578901 -7.8237566e-10 -8.141899e-24 0.00024571552 -5.1371694e-06 0.00037368742 -0.00010971526 0.00029653718
4.9416532e-05 0.00031785818 0.0018817772 5.4851883e-12 0.00039337823 0.00019608624 0.0003057108 -5.4414095e-10
-4.405962e-22 0.00046323924 0.001775895 0.00017973108 0.0007854583 0.00041280006 9.828679e-24 -8.725359e-21
-0.00010083139 -0.0005318172 -0.00064339367 -0.00018196319 3.7709073e-05 2.490184e-05 -0.0003512413 0.0001069956
-0.0004898719 9.682578e-22 7.8481346e-22 -0.00010438126 0.00021139924 -0.00015799962 5.4607848e-05 -4.1596762e-05
9.815976e-07 -0.00012563675 -0.00072859693 -2.2807423e-07 -9.2648006e-05 -0.000102766986 -4.2744825e-05 5.7791254e-05
2.6738682e-05 -0.00013542437 -0.00068307476 -0.000100841295 -0.00025440825 -5.5823675e-05 -1.6774875e-24 6.8757618e-06
-0.0029130103 -0.0022606147 -0.0016476744 -0.00021425779 -4.3892903e-27 2.8078493e-05 -0.0017712611 -0.000540856
-0.0021971671 -2.2588805e-23 1.851084e-11 -0.00067839265 1.6797469e-10 0.000149084 8.677714e-19 -0.000107919645
-8.7163704e-07 -0.0008416982 -0.003154464 -3.0983892e-22 -0.00015544759 -0.0018568351 -3.7823324e-05 4.6221948e-10
1.0014472e-25 0.0004014666 -0.0020666951 -0.00084069715 -0.0010833497 -3.8908747e-05 -4.7576785e-23 2.5518836e-24
0.00050330797 0.00029407156 0.00024265598 4.909512e-05 2.4050325e-05 3.296364e-05 0.00050335214 0.00028679127
0.00056771823 1.8140047e-11 -1.937228e-21 5.8910406e-05 -1.8930343e-05 -5.735874e-05 7.3571337e-06 0.00034663847
2.8232496e-05 6.517959e-05 0.00046317448 1.5377669e-20 0.00014071625 -2.1454827e-07 0.00024578255 2.299015e-05
2.0495441e-05 -0.0003078065 0.00016357402 3.0182517e-05 0.00029875358 0.00035301963 -1.0779608e-24 -3.494208e-07
-0.0004559611 -0.00046055857 -0.00064210605 -2.520081e-05 8.410935e-05 -5.8631285e-05 -0.0003888419 -2.750416e-05
-0.00043347903 2.522555e-10 -8.0556706e-25 -0.00013837422 6.7934394e-07 -0.00018041988 0.00017600427 9.893061e-05
-1.2095912e-05 -0.00016672263 -0.0007757237 -3.473708e-24 -0.00012239063 -0.00020948009 3.5323003e-05 4.3164295e-05
5.055514e-05 -0.00024081217 -0.00062758883 -0.00014169986 -0.00028841186 3.542054e-05 -3.228556e-10 1.4236895e-05
9.443791e-05 0.00043368357 0.00017588153 0.0001212991 2.4961644e-05 -6.594796e-05 0.00022107146 -1.7243336e-05
0.00028369954 6.3256704e-26 -1.4159594e-23 7.660884e-05 7.499503e-05 0.00027697196 0.0004278765 0.00046103605
-0.00011061909 0.00011416785 0.00032147465 -5.066663e-05 0.00016207629 0.00010970503 0.0002835421 -0.00012389595
5.8796873e-06 3.406763e-05 0.00036786488 8.28673e-05 0.00015767569 0.00044945927 -0.00011742109 -6.164096e-05
-0.00069699273 -0.0009592074 -0.00070174853 -0.00026455868 -0.0001628262 -1.0047577e-05 -0.0010107047 -0.00025471105
-0.0012363537 -4.505002e-24 2.9507242e-15 -0.00020829255 -7.4634765e-05 -0.00045140611 -0.0007050946 -0.0012271218
-6.650188e-23 -0.00025463928 -0.0012783884 4.203271e-05 -0.00050529913 -0.0001126758 -0.000752736 -7.862757e-11
-0.000116844945 -1.2960413e-05 -0.00085076794 -0.00011723639 -0.00064425106 -0.001130846 9.740036e-05 -3.7435493e-06
00000000: 810b 3db2 d3d6 37ac 09bc c6b2 b277 f0b0
00000010: bfb2 912b 73d4 0d28 9144 ebb1 ffc5 a02e
00000020: 6bb2 11b1 58ea d8a7 f6e5 c6ad 17e4 dba8
00000030: de07 93b1 50aa 3ab3 15de 3f33 fd23 8ab2
00000040: 30b0 2428 a38f 64b0 d735 21b2 2ab0 9628
00000050: f23d 0ab2 be30 adb0 2ecf b7b1 c19a 5f29
00000060: 9317 16a9 c1ac 8bb3 7896 9bb1 ff02 d9ac
00000070: f440 31b1 bda2 1cb3 5a75 9329 e282 6eae
00000080: 2247 863a 3d44 a73a 0bea d83a c6c0 b939
00000090: 7c5d afaf 9d15 c238 30c2 913a 761a 5439
000000a0: cadf a43a cb0e 57b0 bb7c 1d99 61d3 8039
000000b0: f35f acb6 7aeb c339 ef16 e6b8 8c78 9b39
000000c0: 9944 4f38 34a6 a639 f7a5 f63a 2ffe c02c
000000d0: 553e ce39 809c 4d39 cf47 a039 8492 15b0
000000e0: 7b29 059c ebde f239 26c5 e83a 3276 3c39
000000f0: 37e7 4d3a 166d d839 431d 3e19 3fd1 249e
00000100: 7175 d3b8 a669 0bba 6ba9 28ba 5fcd 3eb9
00000110: cf29 1e38 4be4 d037 cf26 b8b9 d362 e038
00000120: bf6a 00ba a951 921c 0032 6d1c 43e7 dab8
00000130: 0dab 5d39 b3ac 25b9 bb0a 6538 2f78 2eb8
00000140: 70bf 8335 5cbd 03b9 50ff 3eba 91e4 74b4
00000150: 054c c2b8 9b84 d7b8 e848 33b8 e364 7238
00000160: e24c e037 b400 0eb9 5f10 33ba c27a d3b8
00000170: 1962 85b9 3724 6ab8 10ca 0198 58b6 e636
00000180: 34e8 3ebb d226 14bb c7f6 d7ba 63aa 60b9
00000190: b1e0 ad93 1b8a eb37 a929 e8ba 3bc8 0dba
000001a0: 59fe 0fbb 2c77 da99 b5d2 a22d 29d6 31ba
000001b0: acb0 382f 6e53 1c39 7a0f 8021 eb52 e2b8
000001c0: 71fa 69b5 69a5 5cba 20bb 4ebb 4049 bb9b
000001d0: a5ff 22b9 0c61 f3ba 7ca4 1eb8 9c1b fe2f
000001e0: 42f2 f715 ef7b d239 6471 07bb 3b62 5cba
000001f0: 2fff 8dba f331 23b8 3511 669a 4371 4518
00000200: 6df0 033a 9e2d 9a39 7871 7e39 7ceb 4d38
00000210: aebf c937 7042 0a38 64f3 033a 795c 9639
00000220: edd2 143a c18f 9f2d 705f 129d 9116 7738
00000230: 9acc 9eb7 7a94 70b8 4cdd f636 07bd b539
00000240: d3d4 ec37 07b1 8838 3ad6 f239 ec3c 911e
00000250: 3b8d 1339 945e 66b4 60dc 8039 f9da c037
00000260: a0ed ab37 1761 a1b9 1185 2b39 7630 fd37
00000270: 07a2 9c39 7e15 b939 6dce a697 0798 bbb4
00000280: 100e efb9 2077 f1b9 0253 28ba 5466 d3b7
00000290: dd63 b038 ddea 75b8 7add cbb9 bcb8 e6b7
000002a0: 9244 e3b9 cead 8a2f 994f 7997 8c18 11b9
000002b0: 295c 3635 182f 3db9 c98d 3839 f878 cf38
000002c0: 8cef 4ab7 44d2 2eb9 f059 4bba f061 8698
000002d0: fc55 00b9 e2a7 5bb9 c927 1438 4f0b 3538
000002e0: 2b0b 5438 8682 7cb9 c684 24ba 4495 14b9
000002f0: fc35 97b9 8490 1438 e37d b1af 00db 6e37
00000300: f80c c638 0660 e339 d76c 3839 f561 fe38
00000310: b964 d137 8b4d 8ab8 6bcf 6739 c8a5 90b7
00000320: 82bd 9439 b39d 9c15 75f1 8899 0fa9 a038
00000330: a646 9d38 8c36 9139 9d54 e039 36b7 f139
00000340: 2cfc e7b8 666d ef38 998b a839 e182 54b8
00000350: 06f3 2939 7111 e638 60a8 9439 11ea 01b9
00000360: 214a c536 d7e3 0e38 fddd c039 0bc9 ad38
00000370: bf55 2539 67a5 eb39 f83f f6b8 3d45 81b8
00000380: 64b6 36ba 5273 7bba 8cf5 37ba 77b4 8ab9
00000390: 53bc 2ab9 0492 28b7 9f79 84ba bd8a 85b9
000003a0: 250d a2ba 6147 ae98 419f 5427 1b69 5ab9
000003b0: 3c85 9cb8 b4aa ecb9 19d6 38ba 60d7 a0ba
000003c0: acca a09a 1b81 85b9 998f a7ba 474c 3038
000003d0: 0d76 04ba 5c4c ecb8 4253 45ba 63e7 acae
000003e0: a70a f5b8 8d70 59b7 1206 5fba cfdc f5b8
000003f0: f5e2 28ba e538 94ba 6c43 cc38 b039 7bb6

exp_avg_sq f4 [32, 32]
1.0472975e-11 2.5246495e-12 1.1490079e-11 9.614323e-12 2.5638684e-12 3.4300343e-13 1.1435866e-11 6.954062e-12
7.943911e-12 3.2105718e-12 6.2872945e-12 1.6649185e-12 8.140362e-12 2.1174425e-11 4.0524965e-11 3.7416133e-11
3.3194004e-13 8.464881e-12 8.734409e-12 5.4805807e-13 1.1707688e-11 7.2645735e-12 1.6196586e-11 2.159744e-12
1.158244e-12 1.8508781e-11 7.413183e-12 3.1602767e-12 7.7585985e-12 3.3614698e-11 1.2974049e-12 5.0481203e-12
1.5055714e-05 1.04713245e-05 2.1918724e-05 9.0224137e-07 8.720764e-12 1.2898604e-07 1.4446953e-05 1.48812e-06
1.8776476e-05 1.0296407e-11 2.2016824e-13 1.898428e-07 2.4758927e-07 1.8485702e-06 2.2569262e-08 2.840654e-06
4.390785e-09 1.9545965e-07 2.5791163e-05 5.3892416e-12 1.9989197e-06 2.594182e-06 1.3694149e-06 9.220553e-12
3.838079e-14 8.805371e-06 2.4735049e-05 3.0263905e-07 6.1771466e-06 2.0894672e-06 3.2505224e-13 1.5579057e-12
1.8503297e-05 3.2385549e-06 1.9930907e-05 3.2707183e-07 5.0294955e-07 1.4359576e-06 3.252305e-05 6.4138876e-06
3.9900475e-05 1.6730829e-12 1.2709033e-12 6.800763e-08 1.5125901e-06 6.857207e-06 3.7069524e-06 2.7242728e-05
3.481863e-07 6.465054e-08 1.4935858e-05 5.2496507e-11 8.403153e-06 1.1493149e-06 1.0857471e-05 7.229465e-08
1.3660846e-07 1.6981103e-05 1.2589039e-05 1.0082694e-07 1.2264879e-05 2.0343377e-05 5.1259798e-14 9.202009e-09
5.7668945e-05 4.8941387e-05 7.172349e-05 2.5588502e-06 1.00079934e-16 9.081309e-08 4.5128974e-05 3.0092538e-06
5.970124e-05 4.803089e-13 6.144144e-12 1.0875906e-06 9.723858e-12 3.9319423e-07 2.2829256e-12 1.9574193e-06
2.4138663e-10 1.1562092e-06 0.00011062678 9.571957e-13 3.6904175e-06 1.2127095e-05 1.312411e-06 9.455727e-12
2.840602e-14 7.044965e-06 8.7692264e-05 1.5760637e-06 1.9855239e-05 1.3183078e-06 9.131879e-13 7.4844414e-14
4.632082e-06 8.3112934e-07 6.1438514e-06 8.689654e-08 6.122412e-08 3.6514976e-07 7.907223e-06 1.5273489e-06
9.73715e-06 6.1300036e-12 1.4134156e-12 1.5026309e-08 5.081571e-07 2.3942714e-06 8.4066613e-07 6.169994e-06
7.0567566e-08 1.459147e-08 3.8327416e-06 1.8896159e-12 2.1792212e-06 2.681053e-07 2.489124e-06 1.5907332e-08
6.1586407e-09 6.0773073e-06 3.8876706e-06 2.404164e-08 3.0725737e-06 4.626678e-06 2.702391e-13 6.991389e-10
1.8231874e-05 4.7199283e-06 1.2476359e-05 2.6887588e-07 2.0064138e-07 9.715314e-07 2.5246043e-05 4.445973e-06
3.2217653e-05 8.62266e-12 2.6375149e-14 1.1265438e-07 2.4650043e-10 4.1767893e-07 7.2029974e-07 1.6072407e-05
2.0584173e-07 1.12314346e-07 1.7885004e-05 1.2924155e-13 4.5280312e-06 1.7927576e-06 6.3695834e-06 4.1389765e-08
3.7996386e-08 9.1732903e-07 9.104772e-06 1.7264703e-07 9.4711195e-06 1.1580419e-05 8.9464885e-12 2.8915483e-09
1.00901425e-05 2.0606487e-06 1.2794805e-05 1.9867959e-07 8.795103e-07 7.830688e-07 2.4608931e-05 5.2053056e-06
2.7804723e-05 5.0073767e-15 3.503958e-13 4.3074483e-08 1.1149841e-06 1.0568907e-05 1.346878e-05 3.3989516e-05
1.7690492e-07 4.253419e-08 8.433672e-06 2.712613e-08 1.0003608e-05 7.193701e-07 1.3607076e-05 5.075816e-08
4.175267e-07 1.272441e-05 6.922348e-06 6.5208944e-08 9.409846e-06 2.745062e-05 8.388755e-08 3.3690423e-08
1.0360855e-05 1.0824226e-05 3.3935245e-05 1.0615836e-06 2.1517614e-07 4.5555035e-09 2.1160993e-05 2.7415888e-06
2.1469228e-05 1.4119725e-13 3.092682e-12 2.3810759e-07 2.467707e-06 2.1376214e-05 2.1988984e-05 3.1086383e-05
4.5236373e-13 2.3035702e-07 2.4538434e-05 5.0911463e-08 1.29260525e-05 2.1474034e-06 1.3616553e-05 7.332528e-12
1.7857325e-07 3.2055388e-05 3.1047526e-05 2.2457681e-07 9.83296e-06 2.8720608e-05 1.572818e-07 3.3400014e-09
00000000: 163e 382d 0ba8 312c b722 4a2d 1023 292d
00000010: 8c6a 342c 0118 c12a 902e 492d 9fac f42c
00000020: 32c0 0b2d 85ec 612c ea36 dd2c 0351 ea2b
00000030: ee34 0f2d 9140 ba2d 0e3b 322e d28e 242e
00000040: 9add ba2a 6fea 142d 48a8 192d bf43 1a2b
00000050: bdf6 4d2d 7699 ff2c 7877 8e2d 7dfa 172c
00000060: 2302 a32b 12ce a22d 026a 022d 7c62 5e2c
00000070: 9f7d 082d c9d6 132e f097 b62b 6d9d b12c
00000080: cd97 7c37 ffad 2f37 1ade b737 8e31 7235
00000090: d46a 192d 6a7f 0a34 3161 7237 6abb c735
000000a0: 2d82 9d37 e522 352d 2de3 772a 97d7 4b34
000000b0: 69ec 8434 631c f835 55de c132 10a2 3e36
000000c0: c1dd 9631 8adf 5134 1a5a d837 f99d bd2c
000000d0: 2e25 0636 b517 2e36 bdcc b735 ae35 222d
000000e0: 0ada 2c29 c8ba 1337 1d7e cf37 657a a234
000000f0: 4945 cf36 c638 0c36 f7fc b62a 7841 db2b
00000100: 8737 9b37 f355 5936 4c31 a737 6998 af34
00000110: 6e02 0735 21bb c035 5c69 0838 e036 d736
00000120: cf5a 2738 2a77 eb2b 1edd b22b 970b 9233
00000130: 3304 cb35 f616 e636 f5c4 7836 5087 e437
00000140: 5cee ba34 03d6 8a33 0695 7a37 d0e1 662e
00000150: 44fb 0c37 2942 9a35 7c28 3637 6740 9b33
00000160: a6ae 1234 a472 8e37 8335 5337 3286 d833
00000170: 41c5 4d37 12a7 aa37 86da 6629 dd16 1e32
00000180: 8fe1 7138 6a46 4d38 416a 9638 b6b8 2b36
00000190: c4c4 e624 0605 c333 de48 3d38 96f2 4936
000001a0: b867 7a38 e731 072b 872d d82c 54f9 9135
000001b0: 5d10 2b2d 3418 d334 88a5 202c 355c 0336
000001c0: 26b4 842f 0c2f 9b35 4d00 e838 9cb6 862b
000001d0: e4a8 7736 7a75 4b37 1926 b035 cf58 262d
000001e0: d3db ff28 ca63 ec36 6de7 b738 2389 d335
000001f0: cd8e a637 b6f0 b035 1085 802b de88 a829
00000200: 486d 9b36 c61a 5f35 4827 ce36 e19b ba33
00000210: 517a 8333 cd09 c434 44a9 0437 4fff cc35
00000220: be5c 2337 2aae d72c aaeb c62b 3413 8132
00000230: 4a68 0835 45ad 2036 23aa 6135 d807 cf36
00000240: ee8a 9733 f7ad 7a32 009b 8036 4bf8 042c
00000250: bc3e 1236 1df0 8f34 d30a 2736 98a4 8832
00000260: fa9b d331 aceb cb36 d672 8236 2084 ce32
00000270: 6a32 4e36 dd3e 9b36 8f21 982a 872d 4030
00000280: a7f0 9837 e05f 9e36 8e51 5137 055a 9034
00000290: e26f 5734 9165 8235 77c7 d337 9e2e 9536
000002a0: 7121 0738 02b1 172d f490 ed28 66ec f133
000002b0: da83 872f 5b3d e034 9f5a 4135 3bd3 8637
000002c0: 5805 5d34 7731 f133 c107 9637 5783 112a
000002d0: 7eef 9736 af9e f035 4eba d536 87c4 3133
000002e0: 7831 2333 5f3e 7635 b3c0 1837 db60 3934
000002f0: 26e6 1e37 8549 4237 6763 1d2d a8b4 4631
00000300: d548 2937 ad49 0a36 45a9 5637 a154 5534
00000310: 7d17 6c35 1434 5235 476f ce37 3ca9 ae36
00000320: 303e e937 e668 b427 5b41 c52a e500 3933
00000330: 90a6 9535 1c51 3137 f8f7 6137 f78f 0e38
00000340: 41f3 3d34 d6ae 3633 587e 0d37 fe02 e932
00000350: 2bd5 2737 bd1a 4135 f249 6437 3001 5a33
00000360: 6f28 e034 ed7a 5537 8446 e836 ff08 8c33
00000370: fbde 1d37 c245 e637 ab25 b433 03b3 1033
00000380: 89d3 2d37 b299 3537 b155 0e38 bc7b 8e35
00000390: 2b0b 6734 a286 9c31 e382 b137 23fc 3736
000003a0: d118 b437 56f9 1e2a cea0 592c 84aa 7f34
000003b0: e29a 2536 1251 b337 fc74 b837 c062 0238
000003c0: 7ca8 fe2a 0e58 7734 e3d7 cd37 bfa9 5a33
000003d0: f9dc 5837 1c1c 1036 a672 6437 c5fe 002d
000003e0: d7bd 3f34 3673 0638 0739 0238 3423 7134
000003f0: 3ef8 2437 09ed f037 4be1 2834 ed85 6531

exp_avg f4 [32]
-1.5000289e-07 0.002023652 -0.00075211545 -0.0018565371 0.0003938853 -0.00078662875 0.0003453776 -0.0011964462
8.9636225e-05 -0.0007658551 -4.1513848e-10 -0.00091849465 8.012021e-05 -1.48059435e-05 -0.00023269338 -9.159718e-06
-0.00018316846 -0.00069833174 -1.3290211e-05 -0.0003058803 -2.8091523e-05 -3.4007193e-05 -0.0005614711 -3.7353662e-10
1.831652e-05 -0.00037503542 -0.00063159043 -1.456221e-10 -0.00013195029 -0.00035055 2.1489173e-05 -0.00016490776
00000000: 7b10 21b4 3f9f 043b 9d29 45ba 0c57 f3ba
00000010: 6482 ce39 c335 4eba cc13 b539 13d2 9cba
00000020: 15fb bb38 aac3 48ba 8c39 e4af 22c7 70ba
00000030: 3606 a838 0b67 78b7 27ff 73b9 b0ac 19b7
00000040: e910 40b9 4010 37ba 06f9 5eb7 8f5e a0b9
00000050: 16a6 ebb7 f2a2 0eb8 b02f 13ba 9b5a cdaf
00000060: 6da6 9937 67a0 c4b9 5191 25ba fa1c 20af
00000070: 235c 0ab9 06ca b7b9 a643 b437 17eb 2cb9

exp_avg_sq f4 [32]
3.7142345e-11 3.5902976e-05 4.9302675e-05 0.00010880643 1.4402217e-05 2.9335377e-05 3.937999e-05 7.501517e-05
1.6132153e-05 8.640572e-05 9.298235e-12 9.5678486e-05 8.184396e-05 2.194267e-08 3.5566787e-05 2.6768552e-07
2.6397574e-05 6.712982e-05 9.241098e-08 8.1147795e-05 5.938193e-06 5.061426e-08 9.599228e-06 8.604914e-12
5.353726e-05 6.9912094e-06 4.988418e-05 7.969442e-12 1.6429889e-05 5.6236007e-05 0.00013451988 3.46752e-05
00000000: 905a 232e 8796 1638 58ca 4e38 022f e438
00000010: 0da1 7137 3e15 f637 f12b 2538 7651 9d38
00000020: 8953 8737 b834 b538 8793 232d ffa6 c838
00000030: a4a3 ab38 717c bc32 8c2d 1538 6bb6 8f34
00000040: 5c70 dd37 0cc8 8c38 7973 c633 e42d aa38
00000050: b140 c736 f862 5933 5f0c 2137 1661 172d
00000060: 328d 6038 0896 ea36 bb3a 5138 2d33 0c2d
00000070: ebd2 8937 f4de 6b38 e80d 0d39 3670 1138

exp_avg f4 [32, 32]
6.1577314e-12 -0.00046264366 -0.00074145844 -0.00047447067 -0.00083161786 -0.00032111022 4.317946e-05 -0.00026265625
-0.00076781155 -0.00044851738 1.5772947e-12 0.00014205233 -5.5161163e-05 5.77791e-07 -0.00022028612 -3.0451167e-07
-0.0007008077 -0.0004776418 4.1556444e-07 -0.0006206072 -0.00040968446 3.258286e-06 -0.00022130682 -8.3748735e-17
-0.00013830636 -0.00035478396 -0.00041841238 -1.4183861e-25 0.00032174768 -0.0006187883 0.00011341931 -9.324221e-06
5.3955525e-12 -0.0003378006 -0.00046090427 -0.0003291973 -0.0005918756 -0.00021289056 3.884332e-06 -0.00017793207
-0.00053120794 -0.0004291295 -1.2944527e-12 6.336422e-05 -9.249106e-06 -7.913057e-11 -8.579082e-05 -2.0020827e-06
-0.0004886821 -0.00035744844 -2.498834e-07 -0.00037630688 -0.000373386 7.850563e-07 -0.0004286884 3.2973899e-18
-0.00013096974 -7.52445e-05 -0.00028771354 -1.7365215e-13 0.000238341 -0.00041594874 -0.00011738633 -6.256699e-05
4.3949824e-13 -8.675663e-08 4.253477e-06 -2.2043077e-08 -4.0538875e-10 8.3362977e-07 1.6314492e-06 -7.719408e-09
2.989e-06 -3.8235378e-08 3.2928767e-11 3.7610125e-06 2.1020853e-08 -4.627188e-09 2.2069025e-06 -1.6644093e-24
9.691929e-07 1.9463948e-06 3.387943e-06 -1.5719245e-06 -6.218729e-24 3.714153e-07 7.777189e-08 5.2949893e-12
-5.7517564e-06 -9.2609946e-07 -1.3532527e-24 6.5613585e-25 1.947595e-06 4.9797237e-08 -1.7898898e-10 -7.2539916e-07
1.9812143e-08 -0.0005607146 -0.0007959815 -0.0006048359 -0.0010214348 -0.00039099934 1.1440664e-05 -0.00031447178
-0.00093991926 -0.00070878124 4.6796676e-24 0.00012331642 7.1990366e-06 3.862736e-06 -0.00015453837 -1.1457861e-05
-0.00081196934 -0.0005933113 -5.7841394e-06 -0.00066846434 -0.0006316487 -6.6087828e-06 -0.00074944063 7.280912e-18
-0.00024877567 -0.0001435913 -0.00053988263 1.3266731e-14 0.00041241964 -0.000731611 -0.00017744073 -0.0001288686
-3.8219666e-10 5.8423584e-06 1.9407025e-05 8.5092296e-21 6.12859e-05 9.8642005e-05 -9.365091e-05 -0.0001434698
4.291981e-05 0.0001551382 3.2051747e-10 -0.00011469024 7.6155643e-06 -5.7952013e-07 -3.273005e-05 1.2536859e-05
7.3200725e-05 -1.6407022e-05 6.063264e-07 0.00010506675 7.124718e-05 4.089407e-25 0.00033105336 2.5578756e-19
-9.992919e-05 -7.383424e-05 1.671987e-05 -1.413995e-14 -0.00019675506 4.8956612e-05 0.00014984321 -4.0601262e-05
1.109314e-08 -0.0009651726 -0.001444179 -0.001030892 -0.0017456891 -0.00067533116 -5.1710824e-05 -0.00077422516
-0.0016048367 -0.0009555119 3.5378402e-25 0.00011462655 -1.1491794e-05 -7.239113e-06 -0.00029866397 1.21665935e-05
-0.0014391277 -0.0010610581 -6.373361e-06 -0.0010927846 -0.00090906554 3.248648e-06 -0.00052235054 1.5684497e-12
-0.00045606418 -0.00060807227 -0.0008970591 -5.1544263e-23 0.00051365927 -0.0012254018 0.0002349992 -0.00020533206
-1.0501555e-13 -3.2786154e-06 -4.2859243e-05 -9.3019015e-24 9.08605e-05 1.0880392e-05 -7.418921e-05 5.259174e-06
6.420269e-05 0.000110565685 2.571099e-14 -8.687048e-05 -0.0001501105 1.1297226e-07 -0.00022297782 -1.6114943e-06
5.254716e-05 -3.004307e-05 -1.0546788e-08 -6.345906e-05 0.0001402403 -5.327199e-11 0.0002503187 -1.6455404e-13
-4.473935e-05 -0.00020169553 2.8952076e-05 2.5051114e-10 -0.00012050781 -2.0075579e-05 0.00014634573 -1.22709025e-05
6.002806e-10 -1.2749e-27 9.920227e-13 -1.0000239e-18 1.0522894e-13 -7.5583395e-10 9.870117e-12 -2.5668367e-11
8.987929e-11 5.4449774e-26 -6.833216e-11 9.854106e-25 9.315541e-25 -9.39031e-11 -3.17593e-23 5.187083e-25
1.7339797e-12 2.5628545e-24 1.6647568e-19 5.825718e-25 5.288993e-26 2.0912204e-24 -4.4077427e-16 -1.28891915e-11
1.30098775e-23 -2.1384598e-10 4.880739e-22 1.1681434e-25 -5.7572755e-16 4.1867186e-23 -1.1783209e-24 -4.6440947e-25
00000000: eaa7 d82c fb8e f2b9 6f5e 42ba 60c2 f8b9
00000010: ee00 5aba af5a a8b9 981b 3538 20b5 89b9
00000020: f646 49ba fc26 ebb9 08fc dd2b e2f3 1439
00000030: d95c 67b8 7f19 1b35 9bfc 66b9 c47b a3b4
00000040: 69b6 37ba ff6b fab9 be1a df34 3fb0 22ba
00000050: ebca d6b9 eda8 5a36 990e 68b9 871c c1a4
00000060: 5506 11b9 4c02 bab9 5c5e dbb9 7396 2f96
00000070: 3eb0 a839 2e36 22ba 87db ed38 396f 1cb7
00000080: d1d6 bd2c d41a b1b9 86a5 f1b9 1d98 acb9
00000090: 1928 1bba 603b 5fb9 2856 8236 4793 3ab9
000000a0: c340 0bba c9fc e0b9 932d b6ab 68e2 8438
000000b0: 9c2c 1bb7 8d02 aeae 99ea b3b8 855b 06b6
000000c0: e71a 00ba eb67 bbb9 b727 86b4 0e4b c5b9
000000d0: 05c3 c3b9 a8bc 5235 95c1 e0b9 ef4d 7322
000000e0: ec54 09b9 95cc 9db8 42d8 96b9 d383 43aa
000000f0: 2deb 7939 b213 dab9 4e2d f6b8 6636 83b8
00000100: 5f6a f72a f64e bab3 17b9 8e36 3d59 bdb2
00000110: 65dd deaf 9ac6 5f35 2bf8 da35 519e 04b2
00000120: a196 4836 3e38 24b3 7fd2 102e b465 7c36
00000130: 5891 b432 2dfd 9eb1 4c1a 1436 06c7 0098
00000140: 3715 8235 cf9e 0236 6b5c 6336 eafa d2b5
00000150: 4f93 f098 ee66 c734 8c03 a733 064d ba2c
00000160: 36ff c0b6 1299 78b5 dd67 d197 7010 4b17
00000170: 6db3 0236 a4e0 5533 ebcc 44af 0db9 42b5
00000180: 5d2f aa32 ebfc 12ba 6aa9 50ba da8d 1eba
00000190: aae1 85ba 0bff ccb9 47f1 3f37 b0df a4b9
000001a0: ea64 76ba 81cd 39ba 2f09 b518 804e 0139
000001b0: 418f f136 a69c 8136 940b 22b9 233b 40b7
000001c0: 57da 54ba 7388 1bba 6115 c2b6 e23b 2fba
000001d0: 3a95 25ba 03c1 ddb6 1c76 44ba 234f 0623
000001e0: 1b6e 82b9 ff90 16b9 e986 0dba fffd 6e28
000001f0: 073a d839 95c9 3fba 620f 3ab9 e720 07b9
00000200: 661d d2af 7a09 c436 45cc a237 1cbc 201e
00000210: 9e86 8038 06de ce38 7366 c4b8 6270 16b9
00000220: cc04 3438 98ac 2239 d334 b02f db85 f0b8
00000230: 3389 ff36 5290 1bb5 a047 09b8 6655 5237
00000240: 5783 9938 d0a1 89b7 6fc2 2235 4857 dc38
00000250: 8a6a 9538 3e1f fd16 3b91 ad39 86fd 9620
00000260: 1391 d1b8 75d7 9ab8 a641 8c37 02b9 7ea8
00000270: 0950 4eb9 c356 4d38 3b1f 1d39 464b 2ab8
00000280: 2594 3e32 a303 7dba 9b4a bdba ff1e 87ba
00000290: 9bcf e4ba b508 31ba 13e4 58b8 5ff5 4aba
000002a0: 6259 d2ba 517b 7aba 51fb da16 a963 f038
000002b0: e1cc 40b7 82e7 f2b6 0096 9cb9 1f1f 4c37
000002c0: 1da1 bcba 3413 8bba c1da d5b6 c43b 8fba
000002d0: 5b4e 6eba 5903 5a36 5aee 08ba 5bbd dc2b
000002e0: e61b efb9 0a67 1fba 9e28 6bba b540 799a
000002f0: 17a7 063a a99d a0ba 1e6a 7639 684e 57b9
00000300: 5879 eca9 2f06 5cb6 c3c3 33b8 c9ec 3399
00000310: 5c8c be38 ee8a 3637 0796 9bb8 f677 b036
00000320: 8fa4 8638 80df e738 8295 e728 3c2e b6b8
00000330: fb66 1db9 289b f233 27cf 69b9 864a d8b5
00000340: 1566 5c38 0005 fcb7 4431 35b2 5315 85b8
00000350: 780d 1339 ee4a 6aae 353d 8339 7945 39aa
00000360: 83a6 3bb8 3b7e 53b9 1cde f237 4fb8 892f
00000370: 23b9 fcb8 fa67 a8b7 6274 1939 20df 4db7
00000380: fe00 2530 1704 ca92 629d 8b2b d693 93a1
00000390: 5bf4 ec29 16c3 4fb0 0ea3 2d2d 06c8 e1ad
000003a0: 8ba5 c52e a5cf 8615 9643 96ae 237c 9817
000003b0: a926 9017 bf7e ceae 1c94 199a 4e88 2017
000003c0: 3409 f42b 904a 4618 308a 4420 184c 3417
000003d0: faf2 8215 e3cc 2118 cd16 fea5 c2bf 62ad
000003e0: cba5 7b19 4b20 6baf e482 131c f19b 1016
000003f0: 32f1 25a6 1175 4a1a 1a56 b697 4fba 0f97
