checkpoints/ablation_eps_0.10/ablation_eps_0.10_epoch0010.pt (torch, 38459 bytes, 24 tensors)

0.weight f4 [32, 2]
00000000: 8651 0e3f 1e6e 183f 3548 2bbe b72b 2b3f
00000010: 11d5 06be 99ec 533e ba39 c2be 3dd0 db3e
00000020: e59c 153f 5578 f8be 6caa 223f 385b 353e
00000030: 0d06 f63e 4cd8 083d bf69 9e3e 8f5d debd
00000040: 3566 0e3f c3f2 1e3e b3cb 81be dca7 da3d
00000050: 5838 7fbe ab37 9ebc 495e a0be 093b 023f
00000060: ee32 1fbf fc27 d1be 0d0f 45be da93 f2be
00000070: b896 6a3d b33e 3dbf cb4b 1c3f 58ef 1ebf
00000080: fffd 073f 2a52 c73d e0a3 83be 3a95 f83e
00000090: 4d75 ec3d 09e7 223f ae7f dd3d f848 89be
000000a0: 1b99 173e b3a0 7bbe b732 8b3e c58e 1f3f
000000b0: e030 b33e 4e7d b8be e1ce df3e 88e2 863d
000000c0: 91b5 c73e c7a7 e4be 1b92 34bf 1a50 abbe
000000d0: d1d4 fcbe 914d 253f 9944 353e a95b 883e
000000e0: ab72 823e f8c6 d43c 3caa 013f b0cf 11bf
000000f0: ce49 563d cef5 0cbf 8b96 8d3e b6cf 91be
0.55593145 0.59543025 -0.16726764 0.6686358 -0.13167216 0.20695724 -0.37934667 0.4293231
0.5844253 -0.48529306 0.63541293 0.17710578 0.4805149 0.0334094 0.30940053 -0.10857689
0.55624706 0.15522294 -0.25350723 0.10676548 -0.24923837 -0.019313654 -0.31321934 0.5087133
-0.6218709 -0.40850818 -0.19244023 -0.47378427 0.057272643 -0.73923796 0.6105315 -0.6208396
0.5312194 0.097324684 -0.25710964 0.4855135 0.11545811 0.6363378 0.108153686 -0.26813483
0.14804499 -0.2457302 0.2718713 0.62327224 0.34998226 -0.360331 0.43712524 0.06586176
0.39005712 -0.44659254 -0.7053544 -0.3345955 -0.49381116 0.6457148 0.17701949 0.2663243
0.2547811 0.025973782 0.5065038 -0.5695753 0.05231648 -0.5506257 0.27653918 -0.28478783

0.bias f4 [32]
00000000: 3023 793e 7928 cebd 6ecb 1a3f 06ad c5be
00000010: 9a69 e4be 806b c3be 4e2e 2d3f a9b3 783e
00000020: 15cd 303f 2067 01bf 2d7b 1fbf d17d 00bf
00000030: 443a cabe 7fdf a53e 7744 893e c9a1 103f
00000040: 0ece c1be 1097 debe f204 d13e b0d8 73be
00000050: 8b87 d33e 66a3 3bbe a073 cd3e 847a fcbe
00000060: 8dc6 a1be f127 6c3e 2859 3c3e 8b0e 51be
00000070: 63a4 d73e 6d16 033f 36dc e3be ad2c a4be
0.24329829 -0.10066313 0.6046666 -0.3860857 -0.44611818 -0.38167953 0.6764878 0.24287285
0.6906293 -0.5054798 -0.62297326 -0.5019198 -0.39497578 0.32397076 0.26810047 0.56496865
-0.3785252 -0.43474627 0.40824085 -0.23813128 0.4131435 -0.1832405 0.40127277 -0.49312222
-0.31596795 0.23062111 0.18393385 -0.20415704 0.42117605 0.51206094 -0.44503945 -0.32065335

2.weight f4 [32, 32]
00000000: f7c0 b63d c6de 8fbb d6a0 c2bb 07a4 c8bd
00000010: df74 0bbd b991 17ba bd28 c4b9 a368 6dbd
00000020: 9c89 16b7 7b5c 51bd 35c7 9fbd 9f31 fcbc
00000030: 84e8 a8bd f285 33bd 80b8 d33d 023c fcb9
00000040: 1c2c 0b3b 979a bcbd 0659 40bd 7525 83bb
00000050: 39fb 5f39 0984 aabd 80d7 6bbc fc85 1bbd
00000060: 58da 6cb5 19c8 fbbb d62f bdb8 03d2 4dbd
00000070: 6684 53bd b70d 12bd dccf 9dbb c2cf 8bbd
00000080: 68b1 1b3e a999 a7bc c2a9 2a3e f96f 7d3d
00000090: eaf9 aabd 6630 843d 04b8 25bd 9beb 90bd
000000a0: cb90 0cbe 1dd5 d1bd 8b7d 4f3a 7fba e5bc
000000b0: 2556 813c 2e5d 26be 853b 5e3d 6028 ffbd
000000c0: a37e 69bd 634f 273d a4a2 d33d 15e0 913d
000000d0: 5606 2a3e 0eda 0dbe be16 1b3d bea4 83bc
000000e0: 3242 02b8 fb03 fdbd 6165 353e 107c 14be
000000f0: 088d d43d 7391 763d d83a 5c3b 7b32 f0bc
00000100: 33d2 3b3e 6c99 803d 930b 323d b726 f1bd
00000110: 5202 db3c 33ac 7fbc f1f0 87bd a4fe 1e3e
00000120: d18e 643d 9257 ffbc c0c4 c7bc 9aba 333c
00000130: 96d2 e63c 723f a5bd 3702 1cbe 64ad 87bd
00000140: 15e4 00be d525 973d a8aa 3a3e 503d e5bd
00000150: 33d5 0e3d 12d2 083e d39b ee3c 903e 93bd
00000160: a0fc 1c3d 7358 8c3d 27fa b43d ba0c ca3c
00000170: e0d8 10bd 2273 243c 4097 5d39 0dd7 e0bd
00000180: db9c f13d 6322 1b3e 03c9 b4bc 5eb2 fcbc
00000190: d024 1d35 2500 843a 4e12 2e3d 0bd9 843d
000001a0: 9771 22be 057d f1bb 7aa6 9d3d bf05 ae3d
000001b0: 86df ae3c 0f12 cebd fdbe 23bd b5c0 d4bd
000001c0: 5f74 61bb 9731 983d 2bb1 e43d 7132 963c
000001d0: be91 21be 9ed4 bcbd 367f 43bb 588e c83d
000001e0: d6eb bc39 0289 70bd 6c91 8d3d b323 06bd
000001f0: 8437 eabd c85f c43d d7b3 8ebc faae 353a
00000200: d2ff 07be 9216 1c3e 3a18 1d3e f318 b63d
00000210: 3a9d 5abd 7a6d d5bd 2a67 e0bd 72bb 033e
00000220: c4de ed3d 3270 9d3d 965b dc3c 3370 8c3d
00000230: b9b1 dfbc 102f 1cbe 2ad3 23be def1 16be
00000240: edf1 423c f741 32bd 30ce 3739 be31 0dbd
00000250: f43c dbbc dcde a4bd 9bce dabd 3406 803b
00000260: 13cd b9ba 7248 c83d c734 fbbc 3e0b 9bbd
00000270: 69ee 4cbb 78d2 97bd e85e 01bb 8f41 c3bd
00000280: 3197 0c3e b705 b0bd 5b9c fe3d 94b9 d63d
00000290: c90f 933d bd2e dfbd 687a 1f3e 0ac5 72bd
000002a0: 4b4d c33d 33d1 be3d 0ee8 c7b9 ce27 3c3d
000002b0: 3fa8 423c fd80 e8bd 9258 673d 1745 25be
000002c0: 2b7f 003e 2d44 303e 37db 563e 34d8 5bba
000002d0: 30a4 febd 9cfd c53d 0989 e73d 55fd 19be
000002e0: ad31 aabd 6462 b7bd f186 343c 8213 66bc
000002f0: aa73 30bd 1a69 30bd 33ac c2bd b923 6b3d
00000300: 087b de3d 725d 9abd f9fa 12bd bbe4 02be
00000310: 8780 ecbd 06ca 46be 0303 673d 62ab b4bd
00000320: 1271 00be c8b2 ba38 6392 83bb 3ee6 e0bd
00000330: 2d68 aa3d 5229 243c c6a3 3bbc 78a6 6cbd
00000340: 0ee6 23be b926 b33d f513 fabd 044b b53d
00000350: e17c 0fbd a48d 17bd e599 413e a51d b43d
00000360: c6cf debd 7c53 ed3d f9be 033e 26c1 e7bb
00000370: 3548 f23d b1cb 4e3e fcff dc3c 035a c23d
00000380: 34db cbbd af71 1ebc 8573 1a3e c671 0d3e
00000390: a202 31bd f6c1 8cbd 06d8 a8bd 9ae8 d2bd
000003a0: 4fa6 c5bd 4ead 253a 1a09 4c3d a180 a93d
000003b0: c9ed 47be d016 1cbe eee5 423d 17da 9fbd
000003c0: eecb 94b9 408b 0b3e 054f 41bd 34e9 a5b7
000003d0: a073 4dbb 4be7 4ebc e47b 16bd cd73 aebd
000003e0: 653a 92bd b79e d1bd e6cf 443e c3bc c4bc
000003f0: 5298 b3bd 9324 be3d fa63 9539 cee2 f83c
0.08923524 -0.0043905703 -0.0059395833 -0.09796911 -0.034047004 -0.0005781907 -0.00037414386 -0.057961117
-8.972736e-06 -0.051113587 -0.078016676 -0.03078538 -0.08247474 -0.043828912 0.10337925 -0.00048109895
0.0021236008 -0.09209173 -0.0469599 -0.004002268 0.00021360525 -0.08325965 -0.014394641 -0.037969574
-8.8234583e-07 -0.0076837656 -9.0211324e-05 -0.05024911 -0.051639937 -0.03565761 -0.0048160385 -0.06826736
0.15204394 -0.020459013 0.1666632 0.061874364 -0.083484486 0.06454544 -0.040458694 -0.07076188
-0.13727109 -0.10245726 0.00079151307 -0.02804303 0.015788147 -0.16246483 0.05425598 -0.12458873
-0.057005536 0.040847193 0.103337556 0.071228184 0.1660398 -0.13852713 0.037863486 -0.016069766
-3.1056064e-05 -0.12354275 0.17714454 -0.14500451 0.10378462 0.060197305 0.003360441 -0.029320946
0.18341903 0.06279263 0.04346807 -0.117749624 0.026734505 -0.01560502 -0.06637753 0.15526825
0.055800263 -0.031169686 -0.02438581 0.010969782 0.028176587 -0.08068742 -0.1523522 -0.066248685
-0.12587006 0.07380263 0.18229163 -0.11193335 0.03487129 0.13361385 0.029127037 -0.07189667
0.03832686 0.06852808 0.08836775 0.024664272 -0.035363078 0.010037215 0.00021132547 -0.10978518
0.11797496 0.15149836 -0.022068506 -0.03084677 5.8540627e-07 0.0010070844 0.042497925 0.0648671
-0.15863644 -0.00736964 0.076977685 0.0849719 0.021346819 -0.10062038 -0.039977062 -0.103883184
-0.0034401638 0.074313335 0.111666046 0.0183346 -0.15778252 -0.09220241 -0.0029830462 0.09792775
0.00036033866 -0.05872441 0.06912503 -0.03274889 -0.1143637 0.09588581 -0.017419739 0.00069306756
-0.13281181 0.15242985 0.15341273 0.088914774 -0.0533726 -0.104212716 -0.10957177 0.12864473
0.11614755 0.07687415 0.02689914 0.06857338 -0.027306424 -0.15252328 -0.15998521 -0.14740703
0.0118985 -0.04351994 0.00017529051 -0.034471266 -0.026762463 -0.080503196 -0.10683938 0.0039069895
-0.0014175497 0.09779443 -0.030664815 -0.07570504 -0.0031270033 -0.074131906 -0.0019740406 -0.09533989
0.1372955 -0.0859484 0.12432166 0.10484615 0.07180745 -0.108975865 0.15574038 -0.059269942
0.09536227 0.09317245 -0.00038129132 0.0459364 0.011880933 -0.113527276 0.05648095 -0.16139637
0.1254851 0.17213507 0.20982061 -0.0008386404 -0.1243366 0.09667513 0.11305434 -0.15038045
-0.08310256 -0.089543134 0.011018501 -0.014042737 -0.043079056 -0.043068983 -0.09505501 0.057407115
0.1086331 -0.075373545 -0.035883877 -0.12782566 -0.11547952 -0.19413003 0.056399357 -0.08821751
-0.12543133 8.902472e-05 -0.0040152534 -0.10981415 0.08320651 0.010019617 -0.011452621 -0.057775944
-0.16005728 0.0874762 -0.12210838 0.08852199 -0.035031203 -0.037000313 0.18906362 0.08794717
-0.108794734 0.11588189 0.12865819 -0.0070725856 0.11830179 0.2019489 0.026977532 0.094898246
-0.09953919 -0.009670659 0.1508313 0.13812932 -0.0432154 -0.068729326 -0.08244328 -0.102982715
-0.096508615 0.0006320075 0.049813367 0.08276487 -0.19524302 -0.15243077 0.04758256 -0.07805269
-0.000283807 0.13627338 -0.0471945 -1.9778126e-05 -0.0031349435 -0.012628387 -0.036739245 -0.08518181
-0.07140044 -0.102353506 0.19219932 -0.02401579 -0.08769287 0.0928432 0.00028493983 0.030381586

2.bias f4 [32]
00000000: 118f cdbc 59aa 04be b1b8 843c 5222 ddbd
00000010: 1d2f 263e bd1f 0ebe 67cc ad3d c99a 473e
00000020: 9520 de3d a59b ba3d 4ac2 c6bd a634 3d3e
00000030: fc6e cabb 6c39 35be 024a 403e 6c30 c5bd
00000040: e4a7 9d3b d58b 303e 7cec 11be b67c 9ebd
00000050: 24b3 ee3c 0cd0 55bd e167 433d 237d 9cbd
00000060: 6829 893c f932 8dbd 15a1 abbd bebe b6bd
00000070: 6926 813d 2a15 8f3d d96f d9bd c57c 193e
-0.025092633 -0.12955607 0.016201349 -0.10797562 0.1622891 -0.13879295 0.08486252 0.1949264
0.10846058 0.09111718 -0.097050264 0.18477115 -0.006177781 -0.17697686 0.18778232 -0.09628376
0.004811274 0.17240842 -0.14250368 -0.077386305 0.029138155 -0.052200362 0.04770649 -0.076410554
0.016743377 -0.06894488 -0.08380333 -0.089231 0.06306154 0.069864586 -0.10617036 0.14989002

4.weight f4 [32, 32]
00000000: 54d3 dd3a 5a53 903d 91ed 40bd 9a3c b73d
00000010: dd5c 3b3e 2a69 3a3e 918e f8bd f2d9 3c3e
00000020: 491c 7c3d 6e1b 0d3e 5096 873d bc13 fa3d
00000030: 9945 1ebe 07cc 143e 201e f7bd df05 93bb
00000040: 1a19 86bd 4ec0 bd3b a048 123c 80b8 2e3d
00000050: 2c71 05bd b77b 113d dc45 4f3e 6994 103d
00000060: 4113 b43d e362 de3d 8379 2f3e 498d d838
00000070: c9d8 043d 2ebf bf3d c7f1 51be 001d 22be
00000080: 43bf 9039 c0bc cebc e555 6d3d a5a6 e53c
00000090: fed8 2d3d 41d7 353e d558 58bd dc2f 263e
000000a0: a13d 413e 51b6 92bd 4c19 86bd 5313 36be
000000b0: 07b4 f8bd e5ff 1ebd 6d3e d6bc c6ef 84bd
000000c0: 67b3 dabc 65aa 25bc 2add 26bd 6331 733e
000000d0: 11f2 94bd ad29 b9bd 878b ba3d f43b dab8
000000e0: 7bcb df3d eeab 123e a261 363e 72af 71bd
000000f0: 64ed 033e e93d 543e 31b4 11be 093d 083e
00000100: c224 7d3d 2db2 1abc 1f83 8a3d 39c8 7dbd
00000110: 64a7 c5bd d43d d53c 0839 113d e9b1 c1bd
00000120: 6a60 883d 25a3 08be a8ef a33d 33a8 163e
00000130: b1c5 ee3c 3077 b5bd fbd4 863d 8de0 91b8
00000140: d996 fb3c 665b 213d 2369 ec3d 3399 b6bd
00000150: 0535 11b9 7824 0c3d e161 d13a a08f 913d
00000160: 8ddf d9bd 8faf acbc 8800 e6b9 a3c1 f338
00000170: 41f3 cd3d 382e c03a 59b2 b9bd 854d fdbc
00000180: 257c 8dbc a2a7 593d d671 033d 8c64 e9bd
00000190: 2eab 8abc 2a27 293d e89a 0bbd 4854 3e3e
000001a0: fbe5 db3b 1534 2e3e be68 23ba b957 2bbe
000001b0: 7c31 ef3c ee64 193e 5eeb efbd 7bd0 08be
000001c0: 69ff 673e 0795 3b3e 7101 a6bd b1bb 2b3e
000001d0: 955f eebc e8ec 19be de08 203d b1ab 523b
000001e0: 153d 7bbd f99f bf3d 41d4 d7bd 38d5 573d
000001f0: 23b8 2b3e b081 1c3e 6c78 e6bb 65a7 3a3d
00000200: bedd 6bbd 82bc 7cbc 6ce2 8cbd d79b 01bd
00000210: 78c2 8abd 353f 853d 9e99 173e 0551 01be
00000220: 0edc f23c 3a90 093d 978e c23d c2e2 133e
00000230: 954f 443e 68b8 81bd 6f10 193e 0fa1 273e
00000240: 1201 62be 29c5 23be 1479 9b3c b3d0 2a3d
00000250: 884e 81bd 8d13 3238 745e af3c 9fd0 02ba
00000260: 0408 4fbd 6450 943d 90dd 9b3d ed61 58bd
00000270: b039 203c 4c99 25bd 9974 ec3d 73ad 503e
00000280: 8c53 9b3a fafa edbc 197f 583e 77ec ca3b
00000290: bc86 f1bc 1002 843d b622 05be b834 283d
000002a0: bad6 bcbd 4bf4 6e3d 4970 52b9 816a 1d3c
000002b0: 0763 29be c3f7 1bbe d920 8b3d 4229 083e
000002c0: 22b3 cbbd 82a8 d13d 7cc9 e5bd 9d54 873d
000002d0: ec78 193e e18e 813d da6f 04be ae01 283d
000002e0: 3332 953d 8db7 d33c dc69 213e ed59 2abc
000002f0: d850 acbc 0a80 48bd 723d 9bbc 579e 013d
00000300: 047e feb8 67aa 90bd 8d4e 00be e79c 973b
00000310: 97c9 d3bd d680 a2bd 45af 183d 275b 3bbd
00000320: 6768 953d 396f 95bc 86bf 5d3d 5eb1 223d
00000330: 652d 95bd a1eb c33d b921 803d 903f dbbc
00000340: e007 d3bd 453b 2e3d be69 febd 302d 9f3a
00000350: b81e e63d 3c96 a9bd 9829 9dbd 01d2 68bd
00000360: ddbf 4d3e 1115 103e c0ad 45bc fab5 be3d
00000370: 3420 07bd a3f8 41be 9487 ff3d 16f3 e03d
00000380: d90f cd3d ca02 e035 c126 843d 7379 243d
00000390: 1103 6c3d f032 d1bd 7553 973d 1228 a1bd
000003a0: 3c30 b03d 7324 6538 b6aa acbd d913 d039
000003b0: 707c 413a adc3 b0bd 161e dcbb 302e cbb8
000003c0: 4650 883d 1cec 07bb f098 183d 6aae a339
000003d0: 2ad0 9a38 e036 0bba e205 40bd f4f1 99bd
000003e0: d102 27bb 7a51 bcbd 9b3b 9bbc e410 d9b8
000003f0: 4e87 41bd f3db 4bbc 2d06 9339 fd13 19b9
0.0016923943 0.07047148 -0.04710156 0.08947106 0.18297143 0.1820418 -0.121365674 0.18442515
0.061550412 0.13779995 0.06620467 0.12210795 -0.15456237 0.14530955 -0.12066293 -0.004486784
-0.065477565 0.005790747 0.008928448 0.04265642 -0.032578632 0.035518374 0.20241493 0.035297785
0.08792735 0.10858705 0.17136197 0.00010325999 0.032433305 0.093626365 -0.20502387 -0.15831375
0.0002760832 -0.025236487 0.057943244 0.028033564 0.042443268 0.17757894 -0.05281909 0.16229194
0.18871166 -0.0716368 -0.06547794 -0.17780809 -0.121437125 -0.03881826 -0.026152814 -0.06491046
-0.026696874 -0.010111426 -0.040738262 0.23749308 -0.07272733 -0.09041152 0.09108644 -0.00010406217
0.10927483 0.14323398 0.17810681 -0.05900521 0.12883526 0.20726742 -0.14228894 0.13304533
0.061802633 -0.0094418945 0.067632906 -0.061958525 -0.09651068 0.026030459 0.03545478 -0.09457762
0.066590145 -0.13343485 0.08004695 0.147126 0.029147001 -0.08860624 0.065835916 -6.955965e-05
0.030711578 0.039393805 0.11543491 -0.08915939 -0.00013848029 0.034214467 0.0015974605 0.071074724
-0.10638342 -0.021079807 -0.00043869414 0.000116232106 0.100561626 0.0014662212 -0.0906722 -0.030920753
-0.01727111 0.053138383 0.032090984 -0.11396131 -0.016927328 0.041297115 -0.034083277 0.18586838
0.0067107654 0.17012055 -0.00062335643 -0.16732682 0.0291984 0.14979908 -0.117148146 -0.13360779
0.22656025 0.18318568 -0.08105744 0.16770817 -0.029098311 -0.15031779 0.039070956 0.0032145793
-0.06133755 0.09356684 -0.10538531 0.052693576 0.16769461 0.15283847 -0.0070333984 0.045569796
-0.057584517 -0.015425803 -0.06879124 -0.03164276 -0.06775373 0.065061964 0.14804694 -0.12628563
0.029645946 0.03358481 0.09499853 0.1444197 0.19170983 -0.06334001 0.14947675 0.16370033
-0.22070721 -0.1599318 0.018978633 0.041702937 -0.06313807 4.2456715e-05 0.021407343 -0.00049901934
-0.050544754 0.07241896 0.07610619 -0.052827764 0.009779379 -0.0404294 0.11545677 0.20378666
0.001185046 -0.029050339 0.21142234 0.0061927396 -0.029483192 0.06445706 -0.13001522 0.0410659
-0.09220643 0.058338445 -0.0002006899 0.009607912 -0.16541682 -0.15231232 0.067933746 0.13296989
-0.09946276 0.102372184 -0.11220071 0.066079356 0.14987534 0.0632608 -0.12933293 0.041017227
0.07284965 0.02584436 0.15763038 -0.010397417 -0.021034643 -0.048950233 -0.018950198 0.031645145
-0.00012135136 -0.07063752 -0.12529965 0.0046268585 -0.103411846 -0.0793473 0.037276525 -0.045741227
0.07295304 -0.018241512 0.05413773 0.03971993 -0.07284049 0.09566427 0.06256432 -0.026763707
-0.103042364 0.042536993 -0.124225125 0.0012144204 0.11236328 -0.08280608 -0.07673949 -0.0568409
0.20092721 0.14070536 -0.012065351 0.09312053 -0.032989696 -0.18942504 0.12477031 0.10983865
0.10012788 1.6690112e-06 0.06452704 0.040154886 0.05762011 -0.10214794 0.07388965 -0.07868971
0.0860295 5.46318e-05 -0.08430998 0.0003968764 0.00073809084 -0.08631072 -0.0067174537 -9.6883974e-05
0.06655936 -0.0020740097 0.037255228 0.0003121973 7.382066e-05 -0.0005310606 -0.04688061 -0.07516852
-0.0025483856 -0.09195228 -0.01894932 -0.000103505125 -0.047248177 -0.012442577 0.00028042626 -0.00014598663

4.bias f4 [32]
00000000: b8e9 d43d 2a25 703d 403e acbd 5a27 fe3d
00000010: d437 0dbd 498b d6bb 5ae4 02bd 4713 c2bd
00000020: 8638 0e3d ecac 813d 0ab8 c4bc f8a8 e93d
00000030: ef5f b0bd 1264 c7bd df91 6ebd c38e e8bc
00000040: 4193 c6bb e3c6 f3bc 1aff 8c3d 61bb a9bd
00000050: 063d 013c bbcd c6ba fc2c 953d 939a 2d3e
00000060: e661 d83d b4db ffbc eaf8 95bd f156 5bbd
00000070: c498 c2bc 8aeb 8a3d c363 23bb 83be 223e
0.10396141 0.058629192 -0.08410311 0.124098495 -0.03447707 -0.006547366 -0.031956054 -0.09476333
0.034721874 0.0633181 -0.024013538 0.11409181 -0.08612048 -0.09735884 -0.058244582 -0.028388387
-0.0060600345 -0.029757923 0.06884594 -0.08287693 0.007888084 -0.0015167514 0.07283971 0.16953497
0.10565548 -0.031232692 -0.07322867 -0.05354971 -0.023754485 0.06783207 -0.0024931289 0.15892987

6.weight f4 [2, 32]
00000000: f234 f43d d684 143c e764 9b3c f0af b43d
00000010: becd 79bd 6af8 113e 122b 4ebe 607d b23c
00000020: 0acf 00be 5f60 1ebe bb89 473a f2f8 fe3d
00000030: fbb1 603d 32b1 10ba 9895 49bd 1499 8fbd
00000040: bbe5 38bc 8426 993c f9f4 bdbc 68a6 a03d
00000050: 413c b43d 3c86 1dbe 119e 48bd 5c25 e4bd
00000060: 9e07 4bbc 8ca7 8dbd c6f7 9fb9 ff11 29be
00000070: c96d cf3d 17a0 b53d 5fe2 0abe b618 4ebe
00000080: f1fd 2fbd e41a babd 7b67 1e3d fb7c 29be
00000090: f713 e43d fb3b 1cbe 8a83 f5bc 0a82 debc
000000a0: 581a ca3d 88b0 8ebb 755f c6bd 97a6 0ebe
000000b0: 9b5c 97bc 22ef babd a271 613d d743 fc3d
000000c0: 7b43 d439 caa0 d6bd 705c 223c b47d 8dbd
000000d0: 4233 bcbd c257 0a3c d97a 533e 5c19 53bd
000000e0: e433 933d 89ad 23bc da93 c538 5053 05be
000000f0: c906 993d 7a96 5d3e 91f8 283c b3b9 163e
0.11924161 0.009064874 0.018969012 0.0882262 -0.060987227 0.14254919 -0.20133618 0.0217883
-0.12578979 -0.1546645 0.0007611771 0.12449826 0.054857235 -0.0005519568 -0.04921493 -0.07011619
-0.011285241 0.018695123 -0.023188101 0.078442395 0.08800555 -0.15383238 -0.04897887 -0.11139938
-0.012391953 -0.06916723 -0.0003051145 -0.16510771 0.10128362 0.08868425 -0.13562916 -0.20126614
-0.042966787 -0.0908716 0.038672905 -0.16551583 0.111366205 -0.15257256 -0.02996995 -0.027161617
0.09868306 -0.0043545403 -0.09686176 -0.13930736 -0.018476775 -0.09127642 0.05504001 0.12317627
0.00040486068 -0.10479887 0.009909734 -0.069087416 -0.09189464 0.008443775 0.20652331 -0.051537856
0.07187632 -0.0099901045 9.4212315e-05 -0.13020062 0.07471997 0.21639434 0.010313169 0.14719276

6.bias f4 [2]
00000000: 9d83 193e 51dd a83d
0.14991613 0.08245338

exp_avg f4 [32, 2]
00000000: d044 643a c7b5 abb9 a853 8b3a 763d 02b8
00000010: cc7f a93a 4bc1 65ba 0549 823a 1b0f 8fb8
00000020: a0fd f439 7e06 9bb9 d6f0 ff39 c31c 7d38
00000030: d74d 333a 28b6 623a 8e71 8337 81c5 7a39
00000040: 1a5a 9f3a 32ec 89ba 993b dcb7 88ee 4037
00000050: 6aa4 d8b7 ee3b 27b6 6cb3 f639 55c3 d7b9
00000060: 6b1e d139 7c7f ae3a d6ac 35bb dd4f ca3a
00000070: 2d3a d4ba 2651 c63a 4b62 07ba 08a9 9c3a
00000080: f95e b3b7 230b fdb6 df5b ac38 38ff 0bba
00000090: 48c4 7b3b b2c8 fdba e4a1 df38 90bd 9a39
000000a0: 574d 8dba a42e 633a 35d3 683a a76a acb9
000000b0: b56f 4f3a a807 5a3a b6bd 8aba f55f a338
000000c0: 1f1d 98ba 2e83 c638 a3d1 e6b9 964c 263a
000000d0: 0d07 273a 3223 43ba cf44 d939 8f24 0e39
000000e0: 45c8 4338 75f3 95b9 4faf 073a 9514 b93a
000000f0: b14f 0239 8c40 8e3a 4b00 87ba db87 7339
0.00087077636 -0.00032751096 0.001062979 -3.1051655e-05 0.0012931763 -0.00087644596 0.0009939974 -6.821585e-05
0.00046728272 -0.0002956874 0.00048816827 6.0346687e-05 0.0006839907 0.0008648359 1.5669295e-05 0.00023915434
0.001215759 -0.0010522662 -2.6253796e-05 1.1499629e-05 -2.5825768e-05 -2.4919823e-06 0.00047054456 -0.0004115353
0.0003988625 0.001331314 -0.0027721426 0.0015435178 -0.0016191654 0.0015130385 -0.0005164488 0.0011952231
-2.1382688e-05 -7.541284e-06 8.2187114e-05 -0.000534046 0.0038416553 -0.001936218 0.00010663623 0.00029514404
-0.0010780495 0.0008666313 0.000888157 -0.0003288586 0.0007913069 0.0008317181 -0.0010585103 7.790319e-05
-0.0011605358 9.46581e-05 -0.0004402521 0.00063438097 0.0006371595 -0.0007443904 0.00041440732 0.00013555794
4.667814e-05 -0.00028600884 0.00051759643 0.0014120514 0.00012427453 0.0010852977 -0.001029977 0.00023224896

exp_avg_sq f4 [32, 2]
00000000: f7e9 f934 2b7a 5734 a10d 9034 6e45 0e33
00000010: 1367 e234 933c 3734 fdac 8f33 92ea fa32
00000020: d5b7 0334 99b1 0634 87c5 c533 35fd 0133
00000030: c039 b534 871a 7434 422e 0634 dcc3 4e34
00000040: df9b 8435 f26f bc34 d716 902e 4589 8b2d
00000050: 2fe2 8b2e 6c81 0c2c 83ce 8f33 5690 cc33
00000060: 0479 e334 2cba 7134 deed 3c36 f4a4 1d35
00000070: c6c5 c535 59d9 9f34 9202 0c35 97c8 8634
00000080: 3a84 3533 1a48 0832 02da d433 b9be 4834
00000090: aee4 6e36 1276 4235 97e1 b032 1e9c 2533
000000a0: dac6 8535 b1df 0135 38ad dd33 dd58 da33
000000b0: 1365 4e35 47c7 2635 2e8e d033 e6bf f830
000000c0: 8755 4b34 657b 0633 e6bb 4434 c0b2 1234
000000d0: bade 9635 f289 ea34 f5a1 6633 7ecb 9933
000000e0: 8640 fc33 eeda da33 958c 5735 25d8 0735
000000f0: 7649 9933 5f07 9134 dfa9 3134 e425 d433
4.6550096e-07 2.006788e-07 2.6832006e-07 3.3125097e-08 4.2170777e-07 1.706524e-07 6.690423e-08 2.92105e-08
1.2267203e-07 1.2544332e-07 9.2094574e-08 3.0265443e-08 3.3755896e-07 2.2733921e-07 1.2496551e-07 1.9256498e-07
9.880131e-07 3.509918e-07 6.552419e-11 1.586343e-11 6.3611665e-11 1.996704e-12 6.696521e-08 9.525745e-08
4.2370095e-07 2.2512603e-07 2.815264e-06 5.8727096e-07 1.4735203e-06 2.97742e-07 5.2157804e-07 2.5105393e-07
4.2262606e-08 7.932636e-09 9.911675e-08 1.8695836e-07 3.5597873e-06 7.2442447e-07 2.0591683e-08 3.8559044e-08
9.967146e-07 4.838176e-07 1.0322623e-07 1.016758e-07 7.688806e-07 6.2129806e-07 9.711617e-08 1.8098916e-09
1.8936963e-07 3.1311533e-08 1.832228e-07 1.3662338e-07 1.1240693e-06 4.3686265e-07 5.3698347e-08 7.161633e-08
1.1746401e-07 1.0191239e-07 8.0298315e-07 5.060595e-07 7.13798e-08 2.7013718e-07 1.6546208e-07 9.8789116e-08

exp_avg f4 [32]
00000000: 1831 8d3a 255b 84ba ad8c cbb9 9b20 34ba
00000010: b4ff b539 3a84 b039 3c2f d738 5512 a4b8
00000020: 4614 043a 07f1 57b8 5f9f 84b8 e73f 1dba
00000030: 5d47 17ba e8fb 15ba ae3c deb8 5619 ef38
00000040: 16c8 6738 b468 cab9 16ff b0b9 4840 4bb9
00000050: 7cf4 a1b8 56ab 193a 1af8 e3b9 d14d 6cba
00000060: 1bda 82ba 9ece cf39 45e4 f8ba fbac dc39
00000070: 4f61 5c39 4ae5 88ba d70c 66ba 5231 63ba
0.0010772077 -0.0010097964 -0.0003882399 -0.00068713137 0.00034713524 0.00033667852 0.00010260797 -7.823544e-05
0.00050384214 -5.148447e-05 -6.323936e-05 -0.0005998597 -0.0005770827 -0.0005721436 -0.000105970874 0.00011401127
5.5261036e-05 -0.00038606452 -0.0003375939 -0.00019383535 -7.722617e-05 0.0005862018 -0.00043481664 -0.0009014281
-0.0009983213 0.00039636059 -0.0018988928 0.0004209055 0.00021017085 -0.001044431 -0.0008775717 -0.0008666712

exp_avg_sq f4 [32]
00000000: 48ae 1a35 4a74 a134 9695 9934 6006 a433
00000010: 674b 3634 57b3 df33 bec9 bd34 42de 9134
00000020: 8d53 3d35 54c6 7a2f 446a b92f c586 0734
00000030: 38cb 1c35 c1a3 d435 1c86 7435 58d8 0935
00000040: f67b 4533 cfaa 6234 4552 fc35 9aa5 4c33
00000050: 08df 3735 9c0d 4a34 84cd 3935 cb69 8633
00000060: 9c97 5034 0ae3 6734 a05e a835 1807 cd33
00000070: d5aa 5534 6e70 5635 3963 9534 06aa 7234
5.7623083e-07 3.0073198e-07 2.860731e-07 7.638005e-08 1.6977502e-07 1.04168684e-07 3.535078e-07 2.7170069e-07
7.052957e-07 2.2807828e-10 3.372681e-10 1.2621884e-07 5.841025e-07 1.584289e-06 9.109224e-07 5.13513e-07
4.598038e-08 2.111003e-07 1.8799407e-06 4.7648065e-08 6.8497366e-07 1.8817667e-07 6.9216935e-07 6.259105e-08
1.9426665e-07 2.1596148e-07 1.2544515e-06 9.547347e-08 1.9899319e-07 7.988482e-07 2.7825607e-07 2.259986e-07

exp_avg f4 [32, 32]
00000000: e425 2337 fa7d 53b5 fd58 83b5 c0ff 31b7
00000010: 553d 88b6 666d 8833 78b2 8bb2 ab53 dbb6
00000020: 4dd5 dcb0 87b4 c3b6 f706 10b7 fd76 79b6
00000030: dfa1 17b7 7272 aab6 962f 3b37 ec0b a8b3
00000040: b347 0435 1502 28b7 5c52 b5b6 fb5a 46b5
00000050: 1162 02b3 69f8 18b7 6dff 02b6 5701 96b6
00000060: 3784 ceae 074f 9fb5 f8d9 f831 25b7 c0b6
00000070: 5186 c5b6 92e6 8db6 e6bb 61b5 17b7 feb6
00000080: 94fb 93b9 751c 95b9 4bd3 d5b9 9b4a 00b6
00000090: 19d4 fbb6 12de 7138 4856 9db9 a024 2fb6
000000a0: 1046 beb9 f59e 39b7 3758 a234 7c1f 8937
000000b0: 706c 0438 ebc1 0938 5f95 b137 61ae 6538
000000c0: c20d 0838 86b1 0137 9648 fcb9 1a6d 0437
000000d0: 9bd4 7cb8 1347 0db9 d1d1 4038 634f f8b5
000000e0: 366c c8b2 d562 a3b7 e8b8 e8b9 a33c b136
000000f0: a128 41b9 03df 8a38 684e 3035 e616 6fb6
00000100: 6fdc 3d3a 0d6f 0dba 9d77 6bba 6b2b d5b9
00000110: 85ea 1b3a 4f76 0a3a 809b 943a 11ac 633a
00000120: 76b3 903a d42e 7cb6 5ee4 4bb6 657b 0cb9
00000130: 1c7c 8c39 68f6 5337 5707 a83a 2b86 0f3b
00000140: 50c4 d039 2fbf 08b9 ccf6 7dba 2c56 60b7
00000150: eb49 563a 7ece 98b9 eda5 ac3a d602 9f38
00000160: 507d bf39 eb82 68ba 6d30 d5ba 8213 14b9
00000170: 9422 1f3a 5427 fc3a a248 9033 bde1 a938
00000180: b089 e138 f580 e738 b277 5639 975e 0bb7
00000190: f6f1 5ab0 b1a4 e9b4 4177 1439 af29 cdb6
000001a0: 81fc 0f39 dd53 9ab5 da40 0e37 3fe7 91b7
000001b0: 1a0f dbb6 43a3 1cb7 0c06 9db6 e209 a7b7
000001c0: f111 33b5 a1fd 14b7 3f44 5a39 bd15 2036
000001d0: 498a 3038 f31e b136 b363 51b7 c4ed 3137
000001e0: 853c c1b1 5041 e437 a100 5b39 0c12 c9b7
000001f0: 1b66 aa38 79f2 7c36 f160 19b6 7ddc a633
00000200: a41d e9b9 ebf8 bdb9 aa45 38ba c73d 9ab8
00000210: 6982 cbb6 e21b 35b7 95e9 1bba 6fd5 c0b8
00000220: cb0a 2dba 9813 0e37 97dd 5d36 7764 22b7
00000230: f675 d538 9fac 69b8 4a79 7235 6250 30b9
00000240: c652 bc35 f38c 1ab8 0c2f 50ba 6abb 89b6
00000250: 9045 4fb9 10c3 49b9 3500 efb8 241c 4335
00000260: 78b2 d3b4 35e1 e3b8 4bc8 34ba 26d6 b0b7
00000270: ee73 c1b9 4ccd 0eb9 558e fdb4 f587 2db7
00000280: 1643 183a 29e9 83b9 72e6 3d38 81aa aeb8
00000290: 31d1 313a b6ee c139 c440 bc3a 4362 5c3a
000002a0: 211b bf3a 9cd8 2937 b009 c9b0 f335 22b9
000002b0: afd3 93b7 c6cd eb38 2e00 6e3a 5db9 0e3b
000002c0: 46f1 9539 eb55 17b9 07ff 09b9 4dec 0233
000002d0: addd 653a 3571 aab9 743d aa3a 1982 4338
000002e0: 83b3 e339 ae4c 91b9 e73c e0b9 61b0 31b9
000002f0: 12b9 4f3a f527 f83a ff0b 2db7 899d ed38
00000300: 2938 17ba d94d b139 3486 093a a5ca 9a39
00000310: a956 1aba 612f b7b9 5bb1 6eba 2a04 2eba
00000320: c66a 5cba cb1f 5032 0bcc 46b5 41b8 d838
00000330: 4dcd e4b9 2ff8 cdb9 c6c6 bdba 6402 fdba
00000340: 2502 8eb9 03b0 fc38 decb 193a 7f77 6db8
00000350: 04d7 56ba e2e5 4c39 4862 95ba d883 4cb8
00000360: 1648 d5b9 5de9 9739 d6a8 8d3a 7529 f838
00000370: 3310 05ba 1764 ddba ffb9 3fb9 e14d f8b8
00000380: 6e88 84b9 58f5 acb9 a410 a0ba 24f7 cab9
00000390: 0150 a8b6 5d03 9bb7 d58e 83ba 962e eeb9
000003a0: b2d6 92ba aee7 5ab3 2a35 bf36 4100 50b9
000003b0: 2b21 9d39 c8a8 07ba a14d c838 fe5b 5cba
000003c0: 61b8 d5b2 39cd 3cb9 bd44 94ba 1ba5 c4b2
000003d0: 495d e4b9 41f8 6fb9 6387 21ba ed3e 1cb7
000003e0: 8bb8 04b7 5eb4 2cba 915b 88ba eb8d 15b9
000003f0: 0239 22ba c129 3cba 7775 6f34 509b 7636
9.724379e-06 -7.8786945e-07 -9.78616e-07 -1.0609569e-05 -4.060256e-06 6.352893e-08 -1.6262888e-08 -6.536449e-06
-1.606773e-09 -5.832469e-06 -8.5846905e-06 -3.7173152e-06 -9.03799e-06 -5.079718e-06 1.1157148e-05 -7.825278e-08
4.927817e-07 -1.0014065e-05 -5.4038082e-06 -7.389314e-07 -3.0357175e-08 -9.1177435e-06 -1.9520187e-06 -4.4705043e-06
-9.3912815e-11 -1.1869423e-06 7.24253e-09 -5.7433667e-06 -5.886694e-06 -4.2289694e-06 -8.409246e-07 -7.5911043e-06
-0.00028225465 -0.00028440697 -0.0004078395 -1.9116912e-06 -7.5050743e-06 5.7665697e-05 -0.00030009658 -2.609835e-06
-0.00036291825 -1.1063869e-05 3.0239036e-07 1.6346334e-05 3.1572243e-05 3.2843946e-05 2.11696e-05 5.4760258e-05
3.243774e-05 7.730332e-06 -0.00048119266 7.893215e-06 -6.0279486e-05 -0.00013473285 4.5971774e-05 -1.8500544e-06
-2.3332273e-08 -1.9477136e-05 -0.00044388254 5.28207e-06 -0.0001842105 6.621892e-05 6.5679205e-07 -3.5627104e-06
0.0007242625 -0.0005395271 -0.00089823623 -0.00040658875 0.0005947727 0.00052819116 0.0011337847 0.00086850027
0.0011039812 -3.7578184e-06 -3.0382284e-06 -0.00013397408 0.0002679535 1.2633951e-05 0.001281957 0.0021900039
0.00039819116 -0.00013041192 -0.00096879597 -1.3371504e-05 0.0008174467 -0.00029145548 0.0013172008 7.582239e-05
0.00036523724 -0.0008869606 -0.0016265042 -0.00014121647 0.0006070521 0.0019237795 6.7187344e-08 8.100595e-05
0.00010754482 0.000110389585 0.0002045322 -8.307069e-06 -7.9651785e-10 -4.351946e-07 0.00014158805 -6.1143287e-06
0.00013731608 -1.1498302e-06 8.478959e-06 -1.739303e-05 -6.5284667e-06 -9.336337e-06 -4.6796686e-06 -1.9912553e-05
-6.6708805e-07 -8.88054e-06 0.00020815524 2.3854511e-06 4.2090458e-05 5.278614e-06 -1.2480584e-05 1.0605381e-05
-5.6239196e-09 2.7210132e-05 0.00020885702 -2.3969471e-05 8.12525e-05 3.7692064e-06 -2.2855204e-06 7.770084e-08
-0.00044463307 -0.00036234347 -0.0007029424 -7.354799e-05 -6.065053e-06 -1.0794933e-05 -0.0005947587 -9.1950285e-05
-0.00066010345 8.468422e-06 3.3060549e-06 -9.679344e-06 0.000101786034 -5.5712295e-05 9.0328524e-07 -0.00016814613
1.4031182e-06 -3.684773e-05 -0.0007941581 -4.104736e-06 -0.00019766972 -0.0001924152 -0.00011396447 7.268411e-07
-3.9431666e-07 -0.000108661516 -0.0006896301 -2.1080556e-05 -0.00036898203 -0.00013618654 -4.7228482e-07 -1.03432585e-05
0.00058083364 -0.00025159985 4.527573e-05 -8.3287254e-05 0.0006783186 0.00036989682 0.0014362563 0.0008406976
0.0014580229 1.0123618e-05 -1.4627428e-09 -0.00015469622 -1.7622338e-05 0.000112440015 0.0009079006 0.0021777966
0.00028599257 -0.00014432489 -0.00013160343 3.0482898e-08 0.0008768689 -0.00032509273 0.0012988285 4.6612786e-05
0.0004343056 -0.00027713686 -0.00042769985 -0.00016945742 0.0007924001 0.0018932807 -1.0314397e-05 0.00011330384
-0.00057685614 0.00033818072 0.0005246133 0.0002952415 -0.0005887547 -0.0003493978 -0.00091054075 -0.0006638194
-0.00084082445 1.2114422e-08 -7.405767e-07 0.000103340026 -0.0004364051 -0.00039285558 -0.0014478795 -0.0019303081
-0.00027085948 0.00012049081 0.00058668654 -5.6616493e-05 -0.0008195492 0.00019540594 -0.0011397088 -4.876018e-05
-0.00040680234 0.00028974834 0.0010807763 0.000118332835 -0.0005075961 -0.0016890791 -0.00018284468 -0.000118400676
-0.0002527865 -0.00032989192 -0.001221199 -0.00038712576 -5.016104e-06 -1.8479006e-05 -0.0010037074 -0.00045429607
-0.00112029 -5.096779e-08 5.6984327e-06 -0.0001983652 0.00029970086 -0.00051749917 9.551203e-05 -0.0008406042
-2.488031e-08 -0.00018005529 -0.001131199 -2.2892484e-08 -0.00043557052 -0.00022885298 -0.0006161837 -9.312976e-06
-7.91078e-06 -0.0006588156 -0.0010403265 -0.00014262616 -0.00061883044 -0.00071778527 2.2301343e-07 3.674726e-06

exp_avg_sq f4 [32, 32]
00000000: aaaa 552d 4b9c 522b f9a3 742b c336 752d
00000010: 7ca5 772c ad64 a82a 1250 4929 fb35 eb2c
00000020: 722b 2226 3b2f c82c 852b 302d 14fc 5d2c
00000030: cda9 3e2d d8af a52c 30e5 842d ccd3 102a
00000040: 20bf 1f2b eec1 5f2d 5a2a b42c df0b 4a2b
00000050: 6036 a529 4c45 412d aa2e db2b cdff 8b2c
00000060: 9f06 4923 3f92 8d2b 4b52 0728 1af1 c32c
00000070: 95c9 ca2c ca5d 822c d7f7 5b2b 6658 122d
00000080: e220 ac33 733f 0b33 0451 b233 99e3 ba30
00000090: 2841 4b2d e42d 6330 66be a233 5a0f c131
000000a0: e4ee c733 2d1d 832d dcb1 fe2a efe2 ff2f
000000b0: 02e1 112f c29e e530 0474 912e dffd 2532
000000c0: 8a5c 942f d909 0b30 ba3c fd33 ae21 1b2d
000000d0: 3b35 1232 f90c b132 779a be31 9892 dc2b
000000e0: 9658 ec28 c827 5332 8d43 b933 7bfe b930
000000f0: 584c e332 0962 eb31 a6cd 3b2b 95d3 522c
00000100: 3566 8d35 4751 8f33 30ab 3735 370a 4332
00000110: 1f42 0b34 c66e d033 dd41 0d36 91a6 0935
00000120: 8ca3 2036 35f3 602c 11de 2e2c 8054 0d31
00000130: 912c 8933 e0ea a334 e5f6 0335 5beb 2a36
00000140: 3a68 6933 9dd8 1531 6b83 3635 a839 bb2e
00000150: fef1 1535 c628 be33 328e 8b35 0456 0d30
00000160: ddf1 5433 7cc8 6935 ee8e 1f35 47a8 d431
00000170: 55da 3335 ee55 0136 5833 ed29 406b 4331
00000180: a5b4 2b33 04d3 1033 f7ef a733 439f 2b31
00000190: c014 6d25 745a 282b 4388 1933 ebad 7330
000001a0: cb12 3f33 4b16 8a2b 90de 2c2d 23c1 4630
000001b0: afbf ab2d f0fe 8530 0c98 942c 69f1 b92e
000001c0: 9594 3d2b aa95 6030 7cfd c833 062b 062c
000001d0: e22d 6b31 dabb 3c32 dc78 862f 4f0f 752d
000001e0: 1d6d 8329 c33b 8b32 5e5d e033 6f7a 0030
000001f0: eac5 7532 ba35 012e 8d54 002c a826 2d2a
00000200: b0e6 4132 a804 2f32 2429 2333 9962 6a30
00000210: 0376 d32c 1a9e ce2d 37e1 8f32 2b37 1330
00000220: eefa ac32 c88a 2c2d 6fdd 402c 0d01 8a2f
00000230: a6b3 e330 eb36 e531 2358 0731 8d78 e730
00000240: 4b4c be2b 11cb bc2f 6f6c 1533 2b11 7b2c
00000250: f930 8131 fa10 2c31 62c9 9430 a1f0 472b
00000260: d905 0f2b feb2 b232 c6cc 2b33 372e 832e
00000270: 94d9 f431 0442 b030 6643 1c2b 0780 6b2d
00000280: 0754 4535 e841 a533 f6d5 c934 7da9 0732
00000290: b032 6933 2014 5a33 776d a235 25d1 8634
000002a0: eb99 bb35 ffa1 632d 820f 7429 100d 7c31
000002b0: c113 382e 1927 a032 6fc3 f733 f309 9535
000002c0: 85e4 f132 b473 8231 3192 1535 5475 952a
000002d0: 8879 8d34 a05e cb33 cd52 f834 d80a 962f
000002e0: a791 9d32 0a9b 5233 3109 6a34 0d37 de31
000002f0: 93ad d334 9cc3 5f35 7175 6a2d 5e63 7230
00000300: 874e 8035 0869 b733 c61a 2a35 5809 2932
00000310: 80ff 2c34 3b31 8c33 b8c2 fd35 b51c fa34
00000320: 624a 0e36 595c 3928 4f55 4a2b 0d99 1231
00000330: 0646 a733 ac60 1335 1f3d 9335 e080 4036
00000340: c405 2533 f3be 3331 15ba 4e35 b7fd 3b30
00000350: 48c3 3235 ae83 0c34 a9f7 9735 826f 952f
00000360: abe4 a033 7961 4c35 4435 0235 267a 5332
00000370: 81e7 2835 05cf 1036 0096 4431 46d3 4a31
00000380: 57af a134 333d 8234 626d 9235 13ae fa32
00000390: 4ce9 a22c 944e a22d 909b d534 34d0 cb32
000003a0: 37d6 0335 e04e a32a 87d1 c12c 5cb7 1b32
000003b0: 78e0 7533 898b 9c34 ef82 ca33 9fac a333
000003c0: 20bc 2429 c282 2832 7c8e 5e35 9109 e928
000003d0: 8214 ff33 1d51 af33 4443 4633 e2b9 472d
000003e0: 6aa6 1b2d bb94 7c35 d7c7 9c35 6e1e 2d31
000003f0: 5f8c 3a34 084f 8333 fa37 e32a aae2 5a2c
1.2145543e-11 7.482389e-13 8.691377e-13 1.3938797e-11 3.5192673e-12 2.9912653e-13 4.4700416e-14 6.6850948e-12
5.626392e-16 5.6895855e-12 1.0014105e-11 3.154592e-12 1.0837953e-11 4.7091046e-12 1.5108442e-11 1.2863251e-13
5.6753387e-13 1.27191434e-11 5.1206097e-12 7.178129e-13 7.3369045e-14 1.0986167e-11 1.5573838e-12 3.979017e-12
1.0897634e-17 1.0059244e-12 7.51185e-15 5.569001e-12 5.7635654e-12 3.705235e-12 7.8148376e-13 8.3187675e-12
8.0153555e-08 3.2421166e-08 8.3035076e-08 1.3597968e-09 1.1553682e-11 8.2647333e-10 7.578346e-08 5.6187845e-09
9.3101136e-08 1.4905932e-11 4.5242878e-13 4.6545476e-10 1.3267612e-10 1.6707065e-09 6.614445e-11 9.661988e-09
2.6986796e-10 5.05819e-10 1.1792277e-07 8.818208e-12 8.510422e-09 2.0611411e-08 5.5472884e-09 1.5672628e-12
2.6239681e-14 1.2290862e-08 8.627021e-08 1.3532849e-09 2.6460995e-08 6.8505455e-09 6.672114e-13 2.9960247e-12
1.0535065e-06 6.673741e-08 6.8421923e-07 1.13528165e-08 1.2969439e-07 9.705904e-08 2.1048975e-06 5.1278863e-07
2.3937055e-06 3.1967322e-12 2.4850159e-12 2.0566233e-09 6.387666e-08 3.053201e-07 4.916058e-07 2.546897e-06
5.4344333e-08 2.1805484e-09 6.799152e-07 8.514017e-11 5.585897e-07 8.854981e-08 1.0397691e-06 5.1417737e-10
4.958007e-08 8.7091007e-07 5.9440106e-07 6.189143e-09 6.700041e-07 1.9272516e-06 1.0533821e-13 2.84372e-09
3.9978335e-08 3.371953e-08 7.820193e-08 2.4974305e-09 2.0563504e-16 5.981112e-13 3.5747018e-08 8.865004e-10
4.4487745e-08 9.811677e-13 9.826487e-12 7.2306444e-10 1.9525574e-11 9.749481e-10 4.2232936e-12 8.455709e-11
6.735249e-13 8.170341e-10 9.359334e-08 1.9066428e-12 3.4223082e-09 1.0985753e-08 2.4460334e-10 1.3930037e-11
5.836497e-14 1.6208906e-08 1.0447796e-07 4.674012e-10 1.4305877e-08 2.9378923e-11 1.823683e-12 1.5378898e-13
1.1286531e-08 1.0187399e-08 3.7988812e-08 8.526882e-10 6.0100826e-12 2.34897e-11 1.6749807e-08 5.3556687e-10
2.0137545e-08 9.807884e-12 2.7407761e-12 2.51028e-10 1.6567483e-09 6.6710206e-09 1.9695185e-09 1.6841725e-09
1.3521488e-12 3.4341288e-10 3.4790386e-08 3.5678775e-12 3.7599617e-09 2.5038944e-09 1.0825654e-09 7.103294e-13
5.081192e-13 2.0803324e-08 4.000028e-08 5.9654e-11 7.1260704e-09 1.2824448e-09 5.551587e-13 1.3386631e-11
7.3510495e-07 7.6953995e-08 3.7594845e-07 7.896571e-09 5.429564e-08 5.0775384e-08 1.2101799e-06 2.5111618e-07
1.3977382e-06 1.29394264e-11 5.4192334e-14 3.6678252e-09 4.18543e-11 1.8644231e-08 1.1537383e-07 1.1104261e-06
2.8160011e-08 3.796652e-09 5.571956e-07 2.654913e-13 2.6351722e-07 9.470136e-08 4.6253845e-07 2.7292546e-10
1.834344e-08 4.9035442e-08 2.1796292e-07 6.467309e-09 3.9428105e-07 8.335862e-07 1.3327437e-11 8.8180296e-10
9.559598e-07 8.5407066e-08 6.3368896e-07 9.839219e-09 1.6111699e-07 6.528213e-08 1.890664e-06 4.6587016e-07
2.1202945e-06 1.0289588e-14 7.1883206e-13 2.1332796e-09 7.789281e-08 5.4902443e-07 1.0970142e-06 2.8685245e-06
3.84223e-08 2.615647e-09 7.7011765e-07 6.8390754e-10 6.659434e-07 1.3086421e-07 1.1322455e-06 2.7182173e-10
7.492175e-08 7.6137763e-07 4.8506286e-07 1.230959e-08 6.292176e-07 2.1578173e-06 2.860702e-09 2.9514964e-09
3.0116163e-07 2.4258915e-07 1.0909682e-06 2.918299e-08 4.630218e-12 1.8452163e-11 3.9787528e-07 2.372699e-08
4.9113027e-07 2.9009347e-13 5.508652e-12 9.0638785e-09 5.724766e-08 2.915879e-07 9.430175e-08 7.6216786e-08
3.6578488e-14 9.808618e-09 8.2908787e-07 2.5872345e-14 1.1878093e-07 8.163827e-08 4.6161645e-08 1.1353115e-11
8.847681e-12 9.4093747e-07 1.1681067e-06 2.519211e-09 1.7373667e-07 6.1145386e-08 4.0362142e-13 3.1105487e-12

exp_avg f4 [32]
00000000: 38f5 50b6 729b 0aba dcd1 65b9 149b 8739
00000010: 0b02 6fba dd87 543a 52ca 29b9 5e71 daba
00000020: 0b0a 5aba e13c 8dba 1670 30b7 6894 21b7
00000030: 238d c2ba ffae 90b7 b023 3eb9 11ce 9837
00000040: 953b b338 f409 bab9 ca56 25b6 63a9 2fbb
00000050: cfcc 4aba 1e1b fc36 b877 2c3a ea48 0db7
00000060: 691a 7aba d3c9 0c3a 02e0 e139 0b24 23b7
00000070: f6f4 e339 7544 8f3a a2e3 8bba dd35 19ba
-3.1137151e-06 -0.00052874454 -0.0002191732 0.0002586475 -0.0009117431 0.00081074034 -0.00016192466 -0.0016665866
-0.00083175366 -0.001077559 -1.05165145e-05 -9.630901e-06 -0.0014843087 -1.7247627e-05 -0.00018133107 1.821577e-05
8.546483e-05 -0.000354841 -2.4637434e-06 -0.0026803843 -0.00077362073 7.513342e-06 0.0006579119 -8.4212315e-06
-0.00095406786 0.00053706503 0.00043082243 -9.723949e-06 0.00043479324 0.0010930436 -0.0010672698 -0.0005844513

exp_avg_sq f4 [32]
00000000: fbdc 332c 0302 2034 566b 0036 0d70 0334
00000010: 8ffe 8c33 bd60 8f35 26e8 0436 32ca 0036
00000020: 16a4 4935 e9d0 4c36 47cc 712d 0319 2036
00000030: f8d8 6536 d180 4033 3d3c 4035 8da6 1335
00000040: c328 5134 51b9 2e36 b685 4a34 bce3 4e36
00000050: 64ef a834 8387 7733 e276 5c34 8214 2b2d
00000060: 7915 d935 2aaa e834 8597 2034 eaa6 552d
00000070: 5c3f 6d34 7bfd ea35 dea6 7936 defe 2136
2.5560099e-12 1.4901893e-07 1.9135964e-06 1.224109e-07 6.565562e-08 1.0682485e-06 1.980466e-06 1.919118e-06
7.511711e-07 3.051997e-06 1.3744623e-11 2.3856417e-06 3.4249952e-06 4.482064e-08 7.161323e-07 5.500413e-07
1.9479471e-07 2.6035889e-06 1.886136e-07 3.082895e-06 3.1466618e-07 5.7632416e-08 2.0532346e-07 9.724778e-12
1.6174009e-06 4.3337178e-07 1.4956284e-07 1.2144711e-11 2.2095395e-07 1.7508131e-06 3.720102e-06 2.4139222e-06

exp_avg f4 [32, 32]
00000000: aa90 e834 7cd4 8cb8 68fa 04ba 0692 16b9
00000010: 61a1 8cb9 bcd3 6db9 4ae6 e538 a444 a5b9
00000020: 34bd 1cba 82be fdb8 5ba5 f736 0fb5 dc39
00000030: f7e0 f539 4356 7937 e634 183a 311b f6b2
00000040: 8629 dcb9 1afb fdb9 decf d8b5 fabb 7fb9
00000050: 01b1 85b9 4cb8 3f36 d2ef bd38 16a3 8c36
00000060: 71d3 9439 3efd 0739 3c7d 29b9 8d2a eaaf
00000070: cb82 94b7 88af 02ba d27b 4d3a 7162 0e39
00000080: 152b d832 f1af 3bb8 7239 95b9 0380 b8b8
00000090: 8e2c 32b9 e886 e3b8 79f2 4637 f7ea 42b9
000000a0: 4e22 aab9 54f4 f9b8 5d27 f5b6 1e7b 2539
000000b0: 683b 6639 0f29 8cb6 f8ef 9139 cb75 c5b6
000000c0: c646 7eb9 d55b a5b9 1e27 bdb6 6bc7 d1b8
000000d0: 38fd 48b9 0557 20b7 5a7e ad36 c093 bcb1
000000e0: 888b da38 b2a8 e438 4e5d bcb8 8eeb deb6
000000f0: f025 8234 960e 91b9 d831 da39 56ef 5ab7
00000100: b089 e836 9957 75b5 a86a ee36 c51e d7b6
00000110: 8c5b 2fb7 6b0a 3a36 921f 7c36 0010 27b7
00000120: d7a0 e736 880f 6ab7 ee7d 1337 e5cd 7a37
00000130: fea0 4b36 57fc 1cb7 82a7 e336 b701 78b3
00000140: e872 5836 fcf6 8c36 58b3 4437 856f 15b7
00000150: 6fb8 46b4 5d95 6b36 c58c d534 e429 0437
00000160: 4240 2fb7 4cbd 03b6 28c5 a5b3 8b35 26b4
00000170: b0cc 2b37 f377 ab34 e397 25b7 2775 4cb6
00000180: 6949 18b6 3a22 f9b8 1fae 5eba 4f02 87b9
00000190: f305 f0b9 f8b5 cbb9 cbfe 6cb9 29af 07ba
000001a0: b451 7bba b3ec b0b9 59ca 6333 c2eb 2039
000001b0: 7f6d cf39 7abc 7c37 d389 d239 2c0d 43b7
000001c0: 9d27 2cba 5d2c 6fba f17b 4db7 9cb2 c9b9
000001d0: 2244 12ba 30cd 8ab7 378c 90b9 b63a 2b35
000001e0: ea42 79b9 5470 5639 8a7b 9bb9 342a c936
000001f0: 448a 91b7 fdef 5eba c67e 393a 3e0c 19ba
00000200: bf07 dab6 825b 9bb6 5c15 8f39 cd86 7fb6
00000210: ebbc 1f38 eda7 3839 aa3b ecb9 1623 c738
00000220: 8321 1039 ba18 3d39 69f3 2c37 b80d 2aba
00000230: 7d87 11ba 00dc d6b6 e0fe 37ba 09b7 7137
00000240: cfb9 5039 db0e 6f39 467e 0936 fd13 f738
00000250: 3dae bd38 b7ff cb32 e366 e1b9 a8c3 ad33
00000260: 1870 7fba 7de3 04b8 e99a f837 d6a0 c9b6
00000270: e861 a3b7 1432 6339 daec 9eba cf30 48ba
00000280: a4b2 c134 29d3 0cb9 d6f1 7fba 796e 8cb9
00000290: 15ab 24ba 15f5 eab9 620c fbb8 10cb 3aba
000002a0: 8574 a8ba bcdd 5cb9 063b cf31 af84 dd39
000002b0: 0ee6 5e3a d734 81b7 de79 903a e709 8237
000002c0: 3a06 4cba 493a 9cba af62 83b7 214f d8b9
000002d0: 127f fab9 b68b ed36 79a9 b837 64a7 a036
000002e0: 3c01 2d39 4101 8b39 aba5 a0b9 2a91 c9b5
000002f0: e53f 54b8 9639 81ba dd62 be3a e8b3 bfb8
00000300: 345f 4bb2 0007 a737 f8eb f938 876b 5b35
00000310: 45a7 0439 9322 d2b7 9f67 cab9 0d43 3c39
00000320: ec57 2d39 a0dc 9738 6926 ce36 be8d 39ba
00000330: b9e5 2eba efed 2537 050f 63ba b4ab 88b6
00000340: 6205 bc38 843d 3a39 3ae6 5cb7 8542 ebb8
00000350: 3e34 1739 7b32 18b7 5f3a 0eba 2178 d7b6
00000360: 4673 68ba 3035 97b9 e148 7a38 02c2 2937
00000370: cdad b8b6 1fcd 0e39 589f a4ba 83e2 4cba
00000380: 75aa 3537 7970 172e 4ce4 f136 02a5 9d36
00000390: 1f27 da36 8418 39b7 45fa 0837 0e2d 11b7
000003a0: 98b0 1d37 3a07 7331 a7c2 1ab7 916c 8134
000003b0: 743f a233 382b 1eb7 bae9 8fb5 0005 8e32
000003c0: a9dc f836 fc75 02b5 f380 9336 28a7 c932
000003d0: 6f40 fe2f 98dc a9b3 f60b b5b6 c229 0bb7
000003e0: 4dac 13b5 5dc5 27b7 ae93 24b6 9f6c 932f
000003f0: 4e52 b6b6 cfb3 e8b5 ae4f 9833 b139 e1b2
4.3318624e-07 -6.7152985e-05 -0.0005072714 -0.00014359513 -0.00026823118 -0.00022680959 0.000109624656 -0.00031522394
-0.0005979121 -0.00012099465 7.3804235e-06 0.0004209657 0.00046897653 1.4861641e-05 0.00058062223 -2.8650534e-08
-0.00041992607 -0.00048443006 -1.6153751e-06 -0.00024388722 -0.00025499615 2.8568493e-06 9.056892e-05 4.191311e-06
0.00028386296 0.00012968943 -0.0001616375 -4.2594586e-10 -1.770388e-05 -0.00049852626 0.000783858 0.00013578848
2.5165301e-08 -4.4748132e-05 -0.00028462295 -8.797648e-05 -0.00016992001 -0.00010849332 1.1858175e-05 -0.00018588813
-0.00032450486 -0.00011918755 -7.3061515e-06 0.00015781491 0.0002195664 -4.177105e-06 0.00027835346 -5.8847704e-06
-0.00024249693 -0.00031539673 -5.6371928e-06 -0.00010003041 -0.00019167818 -9.557004e-06 5.170511e-06 -5.4883174e-09
0.0001042104 0.00010903309 -8.981918e-05 -6.6435377e-06 2.424199e-07 -0.00027667423 0.00041617337 -1.3049537e-05
6.9301677e-06 -9.1397084e-07 7.105369e-06 -6.4110814e-06 -1.0452128e-05 2.7722224e-06 3.7569303e-06 -9.957701e-06
6.9030607e-06 -1.3951103e-05 8.791203e-06 1.49491e-05 3.0343067e-06 -9.357077e-06 6.7846277e-06 -5.774356e-08
3.2253392e-06 4.201078e-06 1.1724267e-05 -8.907057e-06 -1.8507284e-07 3.510467e-06 3.9776765e-07 7.8775665e-06
-1.0445774e-05 -1.9630706e-06 -7.719274e-08 -1.5479434e-07 1.0240052e-05 3.1938507e-07 -9.87013e-06 -3.046656e-06
-2.2692495e-06 -0.000118796204 -0.0008494574 -0.00025750927 -0.000457808 -0.00038854755 -0.00022601632 -0.0005175942
-0.0009587065 -0.0003374569 5.303659e-08 0.00015346616 0.00039563698 1.5064254e-05 0.00040157008 -1.1625973e-05
-0.0006567182 -0.0009123737 -1.22478095e-05 -0.00038470782 -0.00055796106 -1.654643e-05 -0.00027570289 6.37879e-07
-0.00023771418 0.00020450476 -0.00029655948 5.99518e-06 -1.7349732e-05 -0.0008504389 0.00070760807 -0.0005838311
-6.497808e-06 -4.630013e-06 0.00027291 -3.8076425e-06 3.8084498e-05 0.00017610165 -0.0004505788 9.495595e-05
0.00013745394 0.00018033656 1.0308672e-05 -0.00064870296 -0.00055515004 -6.4033084e-06 -0.00070188753 1.4407336e-05
0.00019905645 0.0002279835 2.0488092e-06 0.00011781601 9.044677e-05 2.3748596e-08 -0.00042992 8.09153e-08
-0.00097441813 -3.1683117e-05 2.963604e-05 -6.0089906e-06 -1.9476705e-05 0.00021667063 -0.0012125031 -0.00076366676
3.607903e-07 -0.00013430104 -0.00097635144 -0.0002678519 -0.0006281597 -0.00044814558 -0.00011970919 -0.00071255956
-0.0012852108 -0.00021063437 6.031203e-09 0.00042251262 0.0008502909 -1.5402604e-05 0.0011022647 1.5501819e-05
-0.000778291 -0.0011919226 -1.566237e-05 -0.00041257686 -0.0004777839 7.079415e-06 2.2013426e-05 4.7878584e-06
0.00016499026 0.0002651308 -0.0003064101 -1.5017915e-06 -5.0604245e-05 -0.0009859081 0.0014525313 -9.1411e-05
-1.1837802e-08 1.9911211e-05 0.00011917198 8.174033e-07 0.00012650814 -2.505005e-05 -0.00038605646 0.00017954056
0.00016531319 7.241336e-05 6.14375e-06 -0.0007078311 -0.00066718046 9.890165e-06 -0.0008661601 -4.0731047e-06
8.965541e-05 0.00017761259 -1.3166626e-05 -0.000112180634 0.00014419944 -9.071659e-06 -0.0005425568 -6.421484e-06
-0.0008867275 -0.00028840592 5.967252e-05 1.0118356e-05 -5.5038604e-06 0.00013618589 -0.0012559695 -0.00078157353
1.0828128e-05 3.443332e-11 7.208937e-06 4.698174e-06 6.5014606e-06 -1.1032567e-05 8.164502e-06 -8.653164e-06
9.399046e-06 3.5365262e-09 -9.224436e-06 2.4107115e-07 7.555255e-08 -9.4275965e-06 -1.0722354e-06 1.653325e-08
7.416664e-06 -4.8600464e-07 4.395953e-06 2.3475494e-08 4.6248114e-10 -7.9098015e-08 -5.395613e-06 -8.294768e-06
-5.50125e-07 -9.999928e-06 -2.4523865e-06 2.6816324e-10 -5.433604e-06 -1.7337678e-06 7.092545e-08 -2.6219682e-08
