checkpoints/ablation_eps_0.10/ablation_eps_0.10_epoch0200.pt (torch, 45691 bytes, 24 tensors)

0.weight f4 [32, 2]
00000000: 4d96 173f d06e 143f 1f76 efbd 39f1 443f
00000010: ad8d 13be 1005 553e 3929 e2be d1bf d83e
00000020: 9655 153f bca9 cdbe 598a 1e3f 8891 343d
00000030: f765 f63e 136f dc3c d6b8 b93e 1c84 61bd
00000040: fcaa 1c3f 9474 8b3d c12f f0ba 71e4 2334
00000050: 78bc d4ba 5b15 7914 2a21 fcbd 0e5a 173f
00000060: 048e 17bf bbc1 f3be 4ac1 36be b6da d0be
00000070: e916 963d eb91 3ebf ce29 193f 126e 1cbf
00000080: 0401 043f b40e 983d 054d 43bd 6036 113f
00000090: 7fcc de3d b85b 3d3f f316 0f3d 7ef4 afbe
000000a0: e9d8 043e 3c00 71be 40b2 953e c4ed 1c3f
000000b0: e232 a03e a7e6 b2be 3dab fc3e 2517 eebd
000000c0: cae7 c23e 7105 b9be 3751 28bf e73e 9dbe
000000d0: ab16 f4be 4770 2d3f 36a5 183e 862d b83e
000000e0: 3286 7c3e 0090 12bc ab8f e03e a81d 13bf
000000f0: cbbb 593d 5ac5 1abf e194 9e3e a2bf 60be
0.59213716 0.57981586 -0.11692452 0.76930577 -0.14409514 0.20802712 -0.44172075 0.42333844
0.5833372 -0.4016856 0.6192985 0.044084102 0.48124668 0.026908433 0.3627383 -0.05505763
0.611984 0.06809345 -0.0018324779 1.5263664e-07 -0.0016230484 1.2575499e-26 -0.12311013 0.5912179
-0.59201074 -0.47608742 -0.17847171 -0.40791863 0.073285885 -0.74441403 0.59829414 -0.61105454
0.5156405 0.074246794 -0.047680873 0.56723595 0.10878848 0.73968077 0.034933995 -0.3436622
0.1297337 -0.23535246 0.29237556 0.613003 0.3128882 -0.349416 0.49349394 -0.11625508
0.38067466 -0.36136964 -0.65748924 -0.30712053 -0.47673544 0.67749447 0.14906773 0.35972232
0.24660566 -0.008945465 0.4385961 -0.57467127 0.05315761 -0.60457385 0.3097296 -0.21948102

0.bias f4 [32]
00000000: 89d1 433e 679d 40bd 599b 183f 5045 c9be
00000010: 022e d7be af58 aebe 2421 253f 8ac0 393e
00000020: 019a 263f 3a1b 85bd 3a76 04be ddcd 05bf
00000030: 88ca bbbe 253a bd3e 7717 793e fccb 0c3f
00000040: ba7b debe 4beb f1be cda1 a63e 63b0 8dbe
00000050: 4d28 d83e 3bf2 80be 6f0b c53e 8f07 fcbe
00000060: 2144 b9be bc67 9c3e 2a64 323e 45ac 66be
00000070: 0fcd df3e 7f4a 083f 6206 fabe fc0b b5be
0.191229 -0.04702511 0.5961204 -0.39310694 -0.4202729 -0.34052035 0.64503694 0.18139854
0.6507874 -0.06499334 -0.12935725 -0.5226725 -0.36677957 0.36958423 0.24325357 0.54998755
-0.4345377 -0.47249827 0.3254532 -0.27673635 0.42218247 -0.25184807 0.38485286 -0.49224517
-0.3618479 0.30547893 0.17421022 -0.22526653 0.43711135 0.5323867 -0.48832995 -0.35360706

2.weight f4 [32, 32]
00000000: ce03 9cb5 5ed6 feaa 1fd4 4db6 0501 1fb4
00000010: 4aee 672a 37bb d79c 50ef 70b5 dae0 2231
00000020: 8876 e0b3 9824 dba7 b7e0 0eb0 b4d3 aba2
00000030: 01ab 73b4 c065 a3b7 92a7 4e38 3770 87b7
00000040: 4a8a 3a9b bd57 54b3 a3d0 23b5 cbeb 881e
00000050: b2ad 95b5 032e 4ab3 c70f c7b5 4c89 0a27
00000060: 4c42 6ea1 cbf0 c1b7 96b1 41b4 159d c6ac
00000070: bf32 feb3 6b77 06b8 50fa b0a3 13e3 13b0
00000080: 9adb 4f3e 0d21 873d 1be1 4f3e dc7e f73d
00000090: 7337 3bbd 7882 02bd f232 75bc be6a a8bc
000000a0: ad8c ddbd b0fe a9b3 460e fd0a eecb 5ebe
000000b0: d8ae f1bc 90a4 afbe 90c4 e4bd d291 0bbe
000000c0: 409d bebe ae8c 7dbe b68f 273e e1eb 9b2e
000000d0: 6ad8 033e bf74 b8bd 0590 6ebd 0cb4 30b3
000000e0: 5f22 768a 855e 08be 77ed 6e3e d3e7 4bbe
000000f0: 0b72 003e a77c 1dbd 971b 620d e59d a618
00000100: ae63 0d3e 7457 e73c 7863 773d 1d02 b2bc
00000110: 36dd 0ebd 5612 363a cda4 a7bd 72e1 d63d
00000120: a1e9 483d b9b7 459a c5a1 4315 5087 203e
00000130: f819 71bd 9e46 3dbd 32e7 60be 9a25 b7bd
00000140: 5e20 eebd 7d48 8c3e 65e6 433e c22d aeb9
00000150: d6ae a03c bb3c 253e 2951 aa3b cef8 6cbe
00000160: 69c9 2ebd 8136 d03d 5373 e03d c41c 243e
00000170: 11b4 43bd 7a64 87bc 5a64 2407 4217 50be
00000180: 5375 493e 130e 4f3e c690 77bd ce36 c13d
00000190: c629 1303 0413 ecbb f658 ed3c 1d53 c33d
000001a0: 5746 18be 4fbe 728f 7e81 d72f e992 ca3e
000001b0: 82b1 7b32 1e63 adbe a9df 811f a181 e4bd
000001c0: f8e4 0ebd 5a86 e23e b3aa 0b3e 9332 1194
000001d0: 9dce a1be f03d cf3d a6ff 05bd 8eb5 2033
000001e0: b076 1e04 2c9c 19be 68c7 873d 34b3 943e
000001f0: c352 05be dc8e ec3c 05bf 6893 4847 c386
00000200: 6d73 9abd e71a 803e 1cdf 4a3e a7e4 863e
00000210: 387c 00bc c407 983c 1495 88bd add2 023e
00000220: 0b22 323e a472 d12f daa6 8b16 3d2d afbd
00000230: cc1d 18be 5009 75be bf5d 90be b0ed 04be
00000240: 3f02 463d 57a6 52be 8348 ea3d 6e80 021c
00000250: 155a 44bd f27c 6a3d 03d7 13be 4213 0abd
00000260: 3156 efbd 0b7f b13d 88e4 7a3d fc74 efbc
00000270: 9fbf 123d 92f1 ddbd 38c0 928c 572a a7bd
00000280: e7af 083e 301d 01be 9382 cd3d 34d6 023e
00000290: c2ed 0fbd edc4 2cbd 60ed 103e 5471 87bd
000002a0: 91f0 aa3d e0da 8732 2139 ad05 e390 753e
000002b0: e049 3a3b f98b 87bc 69ab a9bc c37d 27be
000002c0: fdac 213e 84c6 c73e ce86 483e 9c85 3189
000002d0: 297d 0ebe 3509 013e ae2b e83d 7e6c 8bbe
000002e0: 741a 60be c709 59bd 96f1 dbbc c88a fc3d
000002f0: 487d 64bd 5d15 23bd 67ee c0b2 abc7 11be
00000300: e17f 0c3e c8a7 efbc ff3a aebc f904 2dbe
00000310: 6b75 06be 5e73 4ebe d65c 833d 448c 8dbd
00000320: 7b0d f7bd 2e02 3e83 de22 490d f9ce 60be
00000330: 7692 503d 1b00 e7bc cdc5 cbbc 5d98 95bd
00000340: bba5 c0bd ca2c ffbd 906c a1bd 585f c13e
00000350: fe1a 2abd 4041 5cbd 5211 313e 059f b13e
00000360: d759 bdbd 8253 b63d 0ed2 0d3e c672 debd
00000370: 24cc ff3d 84ce 3d3e 677d c83e a59c 543e
00000380: c859 febd 480a fabc 991f 1c3e 9388 173e
00000390: 2e64 1c3d 2a5c 0abc a984 afbd b154 11be
000003a0: 5475 bfbd f1a9 d688 437a 2927 ec9a 653e
000003b0: a581 0fbe 6555 a0bd 0121 8a3d 51c4 3bbd
000003c0: 2018 01bd ec92 ad3e 89e8 5abd 40f5 6ebe
000003d0: 9cc7 b53c d3a7 b4b9 8751 673b ad4e e93b
000003e0: eefa 92bc 2d21 5cbd 9bb7 413e 72cd f63d
000003f0: 06d9 b2bd c7b7 043e b754 80be fca9 44bd
-1.1624013e-06 -4.526821e-13 -3.0670851e-06 -1.48084e-07 2.0599595e-13 -1.42759e-21 -8.975521e-07 2.3701916e-09
-1.04523735e-07 -6.0824386e-15 -5.197864e-10 -4.6573792e-18 -2.269335e-07 -1.9478495e-05 4.927029e-05 -1.6145508e-05
-1.5430243e-22 -4.9439894e-08 -6.102584e-07 1.4497082e-20 -1.1151917e-06 -4.7073637e-08 -1.4831247e-06 1.9225776e-15
-8.072528e-19 -2.311952e-05 -1.8039131e-07 -5.644938e-12 -1.18370274e-07 -3.2059306e-05 -1.918797e-17 -5.380098e-10
0.20298615 0.06598101 0.20300715 0.120847434 -0.045707177 -0.031862706 -0.01496576 -0.020558711
-0.108178474 -7.916003e-08 2.4368383e-32 -0.2175748 -0.029502317 -0.3430524 -0.11170304 -0.13629845
-0.37229347 -0.24760696 0.16363415 7.0904844e-11 0.12875524 -0.090066426 -0.058242816 -4.1141945e-08
-1.1850934e-32 -0.13317306 0.23332773 -0.19912653 0.12543504 -0.038448956 6.9674837e-31 4.3069427e-24
0.13807556 0.028239943 0.060397595 -0.021729523 -0.034878932 0.00069454813 -0.0818573 0.10492219
0.04905093 -4.0887055e-23 3.950755e-26 0.15676618 -0.058862656 -0.046209924 -0.21963194 -0.08942719
-0.11627267 0.27399054 0.19130857 -0.00033221958 0.019614618 0.16136448 0.0051976633 -0.23141786
-0.04267255 0.10166646 0.10959496 0.16026598 -0.047779147 -0.016527403 1.2367479e-34 -0.20321372
0.19673662 0.20220213 -0.0604408 0.09434281 4.324737e-37 -0.0072044153 0.028973084 0.09537337
-0.14870583 -1.1968173e-29 3.9200282e-10 0.3956521 1.46504835e-08 -0.33864683 5.500364e-20 -0.11157537
-0.03488633 0.44243127 0.13639335 -7.330603e-27 -0.31602946 0.101192355 -0.03271451 3.7418026e-08
1.862731e-36 -0.15000981 0.066298306 0.2904297 -0.13019852 0.028876714 -2.9376697e-27 -7.3455586e-35
-0.07541547 0.25020525 0.19811672 0.26346323 -0.007842116 0.01855839 -0.066690594 0.12775679
0.17395799 3.8098336e-10 2.256196e-25 -0.085535504 -0.14855117 -0.23929334 -0.28196523 -0.12981296
0.048341986 -0.20571266 0.11439612 4.3179383e-22 -0.04793747 0.057248063 -0.14437489 -0.033709772
-0.116863616 0.0866681 0.0612531 -0.029230587 0.035827275 -0.108370915 -2.261055e-31 -0.081623726
0.13348351 -0.1260879 0.10034671 0.12777025 -0.035138853 -0.04217999 0.14153051 -0.066134125
0.08346666 1.5815601e-08 1.6289828e-35 0.23981051 0.002842538 -0.016546236 -0.020711618 -0.16356568
0.15788646 0.39018643 0.19582674 -2.1368423e-33 -0.13914932 0.12601168 0.11336456 -0.2723121
-0.21885091 -0.05298784 -0.026848596 0.12331158 -0.05578354 -0.039815295 -2.2460155e-08 -0.14236324
0.13720657 -0.029254809 -0.021268366 -0.16896428 -0.13130729 -0.20161197 0.064141914 -0.06911519
-0.12063118 -5.5838484e-37 6.1979877e-31 -0.21953954 0.050920926 -0.028198292 -0.024874592 -0.073044516
-0.094066106 -0.12459715 -0.07882035 0.37768054 -0.041529648 -0.053773165 0.17291763 0.34691635
-0.09245651 0.089026466 0.13849661 -0.10861735 0.124901086 0.1853581 0.39158174 0.2076288
-0.12419468 -0.03052248 0.15246429 0.14798193 0.038181476 -0.008444825 -0.08570225 -0.14192463
-0.093485504 -1.29196095e-33 2.351974e-15 0.2242238 -0.14014299 -0.07828788 0.06744576 -0.04584152
-0.031517148 0.33901155 -0.05344442 -0.23335743 0.022189908 -0.00034457314 0.0035296397 0.0071199746
-0.017941918 -0.053742576 0.18917696 0.12050904 -0.087328 0.1296073 -0.25064632 -0.048013672

2.bias f4 [32]
00000000: 1b87 1cb9 858d cabd 80dd aa3c 2d1c 2abe
00000010: e946 403e 6333 23be 7d2f b73d 75d7 503e
00000020: 794d f13d 1963 c33d 26ee 09b3 ebdd 343e
00000030: 3675 b9bb 9a6f 0abe 02f2 4a3e 0702 b7bd
00000040: 3325 df3c 774b 313e 6c31 02be c613 b9bd
00000050: 54a0 273d 5164 52bd 015d 3a3d a17f cdb2
00000060: 6249 a03c e197 86bd afb9 eabd 6b15 cbb6
00000070: 48e5 ab3d 1a84 3e3d d322 debd 1dca 1d3e
-0.0001492765 -0.09890274 0.020857573 -0.1661231 0.1877705 -0.15937571 0.089446045 0.2039469
0.11782355 0.09540386 -3.2114393e-08 0.1766278 -0.0056597246 -0.13519135 0.19818881 -0.089359336
0.027239418 0.17313944 -0.12714165 -0.090369746 0.040924385 -0.0513652 0.04549885 -2.392318e-08
0.019566242 -0.06571937 -0.114611976 -6.052365e-06 0.08393341 0.0465127 -0.10846486 0.15409131

4.weight f4 [32, 32]
00000000: 8eed 062c 4ba5 44bd f09d 15bd 99a6 ed3e
00000010: 70f3 2a3e f9cf 4d3e b7e1 21be f1ff 513e
00000020: 8f3c 603d 9b0a 0e3e 7563 5a2d f7d3 3abd
00000030: 0c27 60be 37fc 983a d964 16be 4c86 23bb
00000040: 47da 21bd 5e42 9b3b 01b2 303b 7aae 7e3d
00000050: 97e1 eabc 55e0 35bc b887 483e afd8 2f2e
00000060: 8df8 323d c927 273e d406 b83e ad81 1e27
00000070: 249f ebbc 4bc7 c23d 7667 bfbe 5377 e9bd
00000080: f4b9 c22b 7656 10be 89f4 6f3d e84c d23e
00000090: 8fd9 e13c 6613 443e 7895 43bd 249e 353e
000000a0: b344 323e 4c47 fcbc b7d4 25ad 1233 4ebe
000000b0: 4537 fdbd bcdf 91b1 709c c7bc c79f 34bc
000000c0: 1366 edba 5067 cd3a 727e 23ba a453 7a3e
000000d0: 7e82 4fbd d09c b3bc 231a 0b3e 1936 6f2d
000000e0: 979e d53d 8a36 113e 5a9f b63e 8847 6135
000000f0: 8914 803a 11b1 4d3e 2cb4 17be 13af 323e
00000100: 1d13 142c bed1 87b9 1691 093d 4d41 60b7
00000110: f786 05b3 d51a 993b 5b0a 343c b64b 1db6
00000120: f7fa a23c 1ebd b4b7 f3d9 7230 29cb 9b3c
00000130: 05d3 9537 a344 98b5 e9ac 4f3c be39 0a07
00000140: 95b1 b03b 9ab5 5e3c 6bb2 953c 7fa2 d6bb
00000150: ea76 128b 2744 9e3a e1c8 0d3a d764 942e
00000160: 4573 2cbd b18a c7bb 5a26 2c07 f0af ff0a
00000170: 6295 0b3c 2959 9739 2ce6 26b2 62a0 63bb
00000180: 3408 4236 d79c 6ebd dc27 0d3d a742 863e
00000190: 44bb e6bc da1e 823d 63bd e5bc 9970 503e
000001a0: 3323 09ba 89e5 4d3e bb29 1788 9b5c 42be
000001b0: e449 c73c 60c1 a03c 58e9 e6bd e0f1 d8bd
000001c0: 86e8 793e 78f3 433e 6710 48bd 9ba7 373e
000001d0: e6e3 44bc 8c5e b0bd 5924 ab3d 8f87 362e
000001e0: 0380 74bd 0fc8 ca3d a212 d33d b0ea 9d35
000001f0: 08ba 873d 9580 1b3e 0008 62bc 94b2 b33d
00000200: ba60 2fb1 3ffd e9bc 5af3 e6bd eab0 629a
00000210: fb80 39be da16 adbd fa58 383e a2aa 85bd
00000220: d178 37bd 54e9 28bc aff2 be32 9f87 373e
00000230: e248 543e 5847 e3ba a29e 2c3e 6829 e03d
00000240: f38e c0be 50fa 1dbe 416d 5e3b ab47 783c
00000250: bcbf abbd c515 b984 1b8b 683c deaf aa91
00000260: 379e 92bc f176 c73d c7d0 19be 1c22 98b5
00000270: d35c 893e 6d72 8cbd 56af 043e 9632 643e
00000280: 7ddb 9a35 02f8 16be 4d1a 633e 1ed4 d53e
00000290: 7a7d 0cbd 7ea2 bc3d a979 0cbe 8e9a b13d
000002a0: f9f6 b8bd 4d90 8d3d 1c60 3604 5934 bfbd
000002b0: 5131 56be 95f3 4bbd 74d2 663d 8220 ee3d
000002c0: 8477 8fbd fd16 e93d eebf 44bd 8b33 b33d
000002d0: 81a4 1b3e a1e8 30bd 1a1e d5bd 4362 c42e
000002e0: af59 6d3d d850 bc3d bac4 bc3e 0efd 3c32
000002f0: 16ff 62bd be9d 2dbd c56c 20be 0e9d c73d
00000300: d0a6 6225 f565 01bc 7a88 16be a18e 8b8d
00000310: 9b4f 7bbe e16c 19be 58e2 863d db69 aabd
00000320: 879a 4bbc b6c2 1dbd 3196 4129 c80c a53d
00000330: d693 05bd 47f1 0139 6dfd c73d 1cf8 4bbc
00000340: de20 7bbe 1a47 293d b0c5 5eb6 52e5 9f3c
00000350: 62c7 133d 77ab efb0 960d 98bd 357b e9aa
00000360: 56d1 633e 6854 603e 0869 9fbe a66a 0fb6
00000370: 1b72 123e 0ba9 3bbe d791 123e 9e6b 003e
00000380: fb21 6933 ec4a 3881 de08 e52c 6c69 a29f
00000390: a453 a52a ced6 a1b3 77dc 312f 41db 2ab0
000003a0: da4c 7b31 b20a c902 7073 2ab1 ed8e be8a
000003b0: dd80 8808 b5b1 85b1 5ae0 5d0e 669c 5f04
000003c0: ea36 792d d248 ad8c e69d b31d 7083 db04
000003d0: 207b 1b02 aab9 2887 ad3c 60a5 0f71 81af
000003e0: 2b2a bd0c f1df 56b2 e43c 8714 a740 e802
000003f0: 3c7f 9ea5 3402 8790 0dfe 9b87 5300 7802
1.9174415e-12 -0.0480092 -0.036527574 0.46416166 0.16694427 0.20098867 -0.1580876 0.2050779
0.054745253 0.13871233 1.2413949e-11 -0.0456123 -0.21889895 0.0011671846 -0.14686908 -0.0024951873
-0.039514806 0.004738136 0.0026961567 0.062178113 -0.028672023 -0.011100848 0.19583023 3.9982847e-11
0.043694068 0.1632377 0.3594271 2.1997202e-15 -0.028762408 0.09510668 -0.37383622 -0.113997124
1.3836141e-12 -0.14095482 0.058582816 0.410743 0.02756956 0.19148025 -0.047749966 0.17736107
0.17409019 -0.030795716 -9.426396e-12 -0.2013667 -0.123640575 -4.245491e-09 -0.024366587 -0.011024422
-0.0018112086 0.0015671048 -0.00062367984 0.24445969 -0.050661556 -0.02192536 0.13584189 1.3597589e-11
0.10430639 0.14180961 0.3566845 8.3923123e-07 0.0009771745 0.20087077 -0.14814824 0.17449598
2.1042675e-12 -0.00025905477 0.03358563 -1.3366644e-05 -3.1089225e-08 0.004672388 0.010988797 -2.3438893e-06
0.01989506 -2.1545737e-05 8.834881e-10 0.019017773 1.7860448e-05 -1.1344858e-06 0.012675502 1.0398935e-34
0.005392263 0.013593102 0.018273553 -0.0065501328 -2.8208038e-32 0.0012074754 0.00054086564 6.7481735e-11
-0.042102117 -0.0060895314 1.2951112e-34 2.4621787e-32 0.008519502 0.00028867394 -9.714807e-09 -0.0034733047
2.8913028e-06 -0.058255043 0.03446184 0.26222727 -0.028165467 0.06353541 -0.028044408 0.20355453
-0.00052313803 0.20107092 -4.5488964e-34 -0.18980639 0.024327226 0.019623458 -0.112749755 -0.10593009
0.24405107 0.19135845 -0.048843767 0.1793503 -0.012017226 -0.086117834 0.08356542 4.150241e-11
-0.059692394 0.099014394 0.10306288 1.1765715e-06 0.066272795 0.15185769 -0.013795853 0.087742954
-2.5520834e-09 -0.02856314 -0.112768844 -4.6878615e-23 -0.18115608 -0.08451624 0.18002692 -0.06526686
-0.044792954 -0.010309536 2.222927e-08 0.17922829 0.20730928 -0.0017339988 0.16857389 0.109453976
-0.37609062 -0.15427518 0.0033939632 0.015153806 -0.0838618 -4.3513283e-36 0.014193322 -2.6929657e-28
-0.017897708 0.09739483 -0.15021048 -1.133481e-06 0.26828632 -0.068577625 0.1295751 0.22284922
1.1537774e-06 -0.14743045 0.22178002 0.41763395 -0.03429935 0.092106804 -0.13718285 0.08672057
-0.09031481 0.06912289 2.1438128e-36 -0.093361564 -0.2091725 -0.049792845 0.056353047 0.11627294
-0.07005218 0.11381338 -0.0480346 0.087500654 0.15199472 -0.043190602 -0.10406132 8.930503e-11
0.057946857 0.09195107 0.3686884 1.1000578e-08 -0.05541905 -0.042386763 -0.15666492 0.09746753
1.9658894e-16 -0.007897844 -0.14700499 -8.600873e-31 -0.24542086 -0.1498294 0.065861404 -0.083209716
-0.012426979 -0.03851577 4.298488e-14 0.080590785 -0.03261169 0.00012392281 0.09765134 -0.012449291
-0.24524257 0.041327573 -3.3195647e-06 0.019518528 0.03607882 -1.7438272e-09 -0.07424466 -4.1474606e-13
0.22247824 0.21907198 -0.3113482 -2.1370738e-06 0.1430134 -0.18326204 0.14313446 0.12541053
5.4280445e-08 -3.3849216e-38 6.509556e-12 -6.8784075e-20 2.9367925e-13 -7.5362195e-08 1.6176381e-10 -6.215722e-10
3.6568992e-09 2.9540434e-37 -2.4803875e-09 -1.8350097e-32 8.215498e-34 -3.8910124e-09 2.7348374e-30 2.6285339e-36
1.4166205e-11 -2.6698698e-31 4.754417e-21 5.160736e-36 1.1422937e-37 -1.2693477e-34 -1.9449461e-16 -2.3545296e-10
2.914544e-31 -1.2507358e-08 1.3655534e-26 3.4126445e-37 -2.7494848e-16 -5.3251506e-29 -2.3471126e-34 1.8220255e-37

4.bias f4 [32]
00000000: dbcc ba3d ff15 8d3d d97b 81bd e207 0a3e
00000010: f518 6cbc 0aa4 c1b9 e6fa 75bc d8e2 b6b2
00000020: 3f78 223d 1667 973d 96de 9cb7 6a03 f93d
00000030: 8d16 2dbc 2e97 11b3 9835 18bd 6380 a3bc
00000040: f843 0ebb 6af6 a9bc 4646 7b3d 3ea5 e6b9
00000050: 1444 eb3b 2764 debb 82d9 973d e190 2d3e
00000060: 91ea dd3d e5d6 4c9a 3fbd 11af 73b9 0bbd
00000070: e40f 8816 4e23 ad3d 34a3 90bb fe83 203e
0.09121104 0.06888961 -0.0632245 0.1347957 -0.014410247 -0.00036934047 -0.015013432 -2.1290745e-08
0.039665457 0.07392709 -1.8700299e-05 0.12158854 -0.010564459 -3.389794e-08 -0.037160486 -0.01995868
-0.0021707993 -0.020747382 0.061346315 -0.00043992134 0.0071797464 -0.0067868414 0.07414533 0.16949798
0.108357556 -4.2359802e-23 -1.3254907e-10 -0.034112405 2.1982013e-25 0.084539995 -0.0044139866 0.15675351

6.weight f4 [2, 32]
00000000: b1fa 313e 80dd 6b3d 1750 763c a2ef ec3d
00000010: 321d d4bd 4c74 8e3e b7b4 82be 4014 1e15
00000020: 4625 37be 3ad6 55be d80d c50d fdc2 243e
00000030: 2a98 2c3b 8473 638a 0bef c1bd a7da d2bd
00000040: 40db 70b9 bac7 3a3d 9554 64bc 953a e7ba
00000050: 6518 a23b 459e 40be b157 bcbd 1e87 1ebe
00000060: 5155 aebd e67c 1dae ebe6 830a 6191 4fbe
00000070: 0bdb 8c33 de9a 4d3d 34ac 2ebe aec6 8fbe
00000080: cd80 c8bd c96b 0ebe 540e fb3c 3f59 45be
00000090: ff63 1d3e 0f84 93be 73ec d13c 0d09 2617
000000a0: efa2 1b3e 7071 523d a3e1 04b3 bee0 33be
000000b0: 6694 bd39 dd32 3cb2 e8c6 cd3d e08a 1f3e
000000c0: e592 b838 1f4b 06be e365 3c3a 12d6 e43a
000000d0: e62d abbb 7ff5 313d 3364 7e3e ab8a d9bb
000000e0: 250e 133e 70d0 9c90 f4ca fd0a 6a90 b7bd
000000f0: 0e48 632f 38cd 803e d5c7 3b3d 857e 683e
0.17380787 0.057584286 0.015033743 0.11569144 -0.10357131 0.27823102 -0.255285 3.192382e-26
-0.17885312 -0.20882502 1.2144395e-30 0.16090007 0.0026335814 -1.09513785e-32 -0.09469422 -0.10295611
-0.0002296986 0.04560063 -0.013936182 -0.001764136 0.0049467557 -0.18810375 -0.09196413 -0.1548123
-0.085123666 -3.58086e-11 1.2701703e-32 -0.20270301 6.559102e-08 0.05019652 -0.17057878 -0.28081268
-0.09790192 -0.13908304 0.03064648 -0.19272326 0.15370177 -0.2881169 0.025625443 5.3648917e-25
0.15198873 0.051377714 -3.093886e-08 -0.17566201 0.00036159455 -1.0954605e-08 0.10047704 0.1558032
8.801165e-05 -0.13114594 0.0007186813 0.0017458817 -0.0052239774 0.043447014 0.2484291 -0.006638845
0.14360864 -6.18523e-29 2.4439356e-32 -0.08963092 2.0671129e-10 0.2515657 0.04584487 0.22704513

6.bias f4 [2]
00000000: 90b7 213e 09de 973d
0.1579268 0.07415397

exp_avg f4 [32, 2]
00000000: eb0a c638 30ef bcb9 81a8 80ba 8b65 e0b7
00000010: 55cd 3239 a5b5 fc38 d792 9239 aaa9 49ba
00000020: 42bd 97b9 58cf c7b8 450d 8eb9 17bd 49b8
00000030: be48 7fb9 2bdf 03ba fc44 47b9 d6d2 c1b9
00000040: 1894 dcba 81b3 ea39 d6c4 44b4 6046 862d
00000050: e147 2eb4 061f cc0d 2fd8 4b3a 6c80 79bb
00000060: 5e09 e63a 7b80 38ba cb8f f239 cabf 32ba
00000070: c918 973a e8e3 6ab9 0751 de39 5a9b b6b9
00000080: c6cb d839 6ee0 93b9 6365 a839 b5b5 ddba
00000090: 1925 56ba 98e4 e6b9 9a9c 3bb9 fa2c b83a
000000a0: c4b8 b539 eecf 253a 1f19 0339 353f 85ba
000000b0: db45 163a 9e67 94b9 64d1 1e3b 07c9 87ba
000000c0: bbe5 72b9 4ea4 7738 7f7f 0839 d43c 82b9
000000d0: a30f 14ba 7982 73b8 ae6b 193a 6518 10bb
000000e0: 13b2 73ba 53ca f839 3515 eab9 c65f e9b9
000000f0: 263f 97ba bc4e 243b 44a5 4b3a 073f 3839
9.443409e-05 -0.00036036363 -0.0009815843 -2.6750165e-05 0.00017051895 0.0001205013 0.00027956694 -0.00076928234
-0.00028941972 -9.52768e-05 -0.00027094237 -4.8098238e-05 -0.00024345794 -0.0005030508 -0.00019003818 -0.00036968914
-0.0016828803 0.000447657 -1.8325531e-07 1.5265289e-11 -1.6231162e-07 1.2579939e-30 0.00077760493 -0.003807093
0.0017550399 -0.0007038188 0.0004626497 -0.000681874 0.0011527772 -0.0002240088 0.0004240351 -0.0003482949
0.00041350554 -0.00028205238 0.00032118996 -0.0016915115 -0.000816898 -0.00044039334 -0.00017892048 0.001405149
0.0003466067 0.00063252344 0.00012502492 -0.0010165932 0.0005732455 -0.0002830596 0.0024233693 -0.0010359593
-0.000231645 5.904241e-05 0.00013017467 -0.00024840853 -0.0005648082 -5.8057227e-05 0.00058525323 -0.0021987197
-0.00092962495 0.0004745299 -0.00044647758 -0.0004451258 -0.0011539205 0.0025071343 0.0007768462 0.00017571087

exp_avg_sq f4 [32, 2]
00000000: 64c0 4137 9f03 0138 d846 c337 480f b636
00000010: 17c0 9f37 adef 5536 1a2b ef38 2d57 7637
00000020: b320 9436 aaf0 3d36 6507 0c37 e079 ec35
00000030: b44d 0737 f7bb 1337 3895 3f37 fe58 c737
00000040: 95fc 4938 9e8d 8a37 ac02 152e 460c b02c
00000050: 12ce 0e2e f12d fe2a 0838 a538 d17d a639
00000060: 9464 6338 c798 ea37 1502 5d38 48d1 ea37
00000070: d7fa d738 4993 6937 a8ce 5337 2d17 8436
00000080: 92fb 4d38 6cc5 8136 391e 2039 ab3b 313a
00000090: 929b 9738 516c 1837 f413 d938 00ea d839
000000a0: 2467 9538 22eb 0339 f715 5538 e9ec b538
000000b0: 4881 2638 811b a437 5efe 043a 0e2c 6b38
000000c0: 5054 7f37 590c ad36 31e5 0137 5cf4 2d37
000000d0: 6faf 5938 3822 9937 fe61 8138 6e00 6d39
000000e0: 45c5 8f37 4dd3 0938 ebd7 9537 d89b 5336
000000f0: a11d 3239 11b4 3e3a 6cfd 0c39 ea42 4338
1.1548491e-05 3.075937e-05 2.32788e-05 5.4258016e-06 1.9043726e-05 3.1878983e-06 0.000114044364 1.468304e-05
4.4145504e-06 2.830328e-06 8.346372e-06 1.761884e-06 8.064719e-06 8.805647e-06 1.141923e-05 2.3764089e-05
4.815737e-05 1.6516828e-05 3.388105e-11 5.0035835e-12 3.247009e-11 4.5151342e-13 7.87825e-05 0.00031755728
5.4214688e-05 2.7966116e-05 5.2692445e-05 2.7992428e-05 0.000102987215 1.3922175e-05 1.2624696e-05 3.9366046e-06
4.9110102e-05 3.8674825e-06 0.00015270048 0.00067609054 7.229218e-05 9.085125e-06 0.00010351083 0.00041373074
7.124085e-05 0.00012580727 5.0803614e-05 8.6748805e-05 3.9697887e-05 1.9563131e-05 0.0005073304 5.6069395e-05
1.5218815e-05 5.1572392e-06 7.742362e-06 1.0368498e-05 5.1900217e-05 1.8254956e-05 6.169452e-05 0.00022602241
1.713879e-05 3.2860135e-05 1.7862729e-05 3.1532163e-06 0.0001698644 0.0007274757 0.00013445847 4.655394e-05

exp_avg f4 [32]
00000000: 9ebd 91b5 0eea c23a c842 4439 541f bab9
00000010: bd43 48b9 3de6 acb9 1e31 e1b9 ef54 233a
00000020: 3f85 8639 b115 dab6 1c07 59b7 86c3 49bb
00000030: c7ae c1ba bfd6 3cba f8c2 47ba 2673 34ba
00000040: f409 723a e2be 0639 6d42 793a 0856 523a
00000050: 1544 7e39 bbd2 74ba 1e37 15ba 4518 8b3b
00000060: 2d80 6cb9 fb4a 0cba d5f3 833a 4bd6 d5ba
00000070: 293b 403a bc4a 8eb9 a161 a838 69b1 ad3a
-1.0858528e-06 0.0014870779 0.00018716895 -0.00035500026 -0.00019098721 -0.00032977937 -0.0004295194 0.00062306126
0.00025657748 -6.4994315e-06 -1.2935863e-05 -0.0030786707 -0.0014776819 -0.00072036305 -0.00076203 -0.00068836135
0.00092330505 0.00012850345 0.00095084944 0.0008023684 0.0002424869 -0.00093392626 -0.0005692112 0.0042448365
-0.00022554463 -0.0005351749 0.0010067174 -0.0016314475 0.00073330343 -0.00027140032 8.029049e-05 0.0013251725

exp_avg_sq f4 [32]
00000000: c6f4 2938 7626 fb37 f8de c037 a1aa c238
00000010: 54fc d636 40c8 3237 6e21 9b37 7a12 2038
00000020: b64c 9638 d4e1 862f 91ce 0730 07cc b339
00000030: 9772 c338 ab4c b038 be17 0439 11a2 9e37
00000040: 8521 3438 c8ca 423a f8dc bc38 f144 023a
00000050: 802d 4139 056d 1339 2e0a 7838 7aa2 d939
00000060: 08da 7e37 1b44 a537 254f a038 a573 8f39
00000070: b147 4b38 cfa5 a837 6d3a 643a 6a26 1239
4.0520703e-05 2.9939441e-05 2.2992012e-05 9.282423e-05 6.407072e-06 1.0656251e-05 1.8493007e-05 3.816418e-05
7.166846e-05 2.4534919e-10 4.940626e-10 0.00034293553 9.3196686e-05 8.4066145e-05 0.00012597346 1.8910536e-05
4.294656e-05 0.00074307295 9.005697e-05 0.00049693795 0.00018422864 0.00014059625 5.913729e-05 0.0004151052
1.5190344e-05 1.9701247e-05 7.644136e-05 0.00027361247 4.846574e-05 2.0104371e-05 0.0008706216 0.00013937955

exp_avg f4 [32, 32]
00000000: 96a4 ffae 38cf 50a4 eda1 a8af 6045 82ad
00000010: 320a be23 50d5 3096 0265 c5ae ac72 852a
00000020: 42e7 37ad b78e 33a1 cb1f 6aa9 a3cc 0c9c
00000030: 42a3 c7ad 96dd 05b1 064d a931 45ea ddb0
00000040: 32e8 9894 f2f8 adac a336 86ae 3e70 e017
00000050: 3942 f5ae c2a5 a5ac f215 23af 5f08 6320
00000060: fb3e c39a a7e3 1eb1 d2b1 9ead a0bc 22a6
00000070: 0c44 50ad c852 5cb1 7c06 119d 1c56 72a9
00000080: f287 6b3a 9493 543a 2b14 2c3a 45fd 3cb7
00000090: 4a61 9036 11ac 8f39 e852 963a e107 6d39
000000a0: 63ae aa3a 7646 0bad 4575 4f04 2093 8039
000000b0: f3fb 0eba f886 8db9 0b5f 17b8 7c45 d639
000000c0: b168 bf38 55ce 8039 7b34 b33a 3380 ff27
000000d0: c73a 7739 c0da e138 e4c3 0e3a b6c5 90ac
000000e0: 22fc c983 4c1b 41ba 83b3 0c3a dc52 8838
000000f0: 1eae 2e3a 6161 253a 7d57 b906 ff87 0812
00000100: f696 e6b9 dc82 d1b9 513c 3939 8a7a 24b9
00000110: e423 b138 b10f 01b9 a251 cab9 2a77 35b8
00000120: 9524 3cba c303 a293 df4f a00e 0b31 deb8
00000130: 6935 dc39 6ac3 1c3a 101e a739 4f3e 6fb9
00000140: f17a 4bb7 446a cbb8 536d 24ba b9b1 0eb3
00000150: cdbf 4439 c432 24b9 7348 86b8 e533 6938
00000160: dc61 a838 64b1 813a 71e8 3a39 4b9d 9cb8
00000170: f72e 18b9 bb59 a4b7 bde4 8600 73d8 dc36
00000180: 11b4 19ba dfb3 9aba c832 d0b9 b847 6eb9
00000190: 8a78 0000 6e9b fe38 f124 2939 5193 2c39
000001a0: 5140 1339 e2f4 c688 5591 3029 8b77 35ba
000001b0: f435 ce2b b3f9 fe38 c6d5 d418 8f30 3b3a
000001c0: 48ac 7736 1c27 3eba b1cb 89ba 4efa 6d8d
000001d0: 186c c039 153d 46ba b1dc d339 10ab 832c
000001e0: 5507 0200 660e d439 ff65 a0ba 7c19 bfb9
000001f0: 2344 d038 a7ad 1d3a 7dbc be8c 8511 5080
00000200: dd64 7039 c802 5639 9c5b 593a 5666 e1b7
00000210: ffbd 3238 7c4c 4638 60b0 ea39 1ba6 2939
00000220: d572 a839 b39a 2b29 aadf e40f b9f0 6738
00000230: f716 1a39 22cb 0d3a 626f a139 d780 2b39
00000240: 688c 8238 1680 3438 d890 c839 83de 5515
00000250: 6869 d039 1cfc 8bb8 3934 9e39 7a8d 1738
00000260: 41fb e737 25f2 3d3a 9b7b 303a 233d 7db7
00000270: e72d bd39 afe6 d539 5899 f085 e93a 0436
00000280: 9055 74ba df54 d6b9 4acc 7aba 5e45 de37
00000290: 25e5 1038 1a7e 88b9 1b55 95ba 6f1c beb9
000002a0: 6a09 a2ba a09c de2b 28c4 1100 abc5 0db9
000002b0: 6b9c 9834 9897 8ab9 7843 a937 d5cd 1eba
000002c0: e9c8 eab7 67b9 09b9 4046 89ba fe90 9182
000002d0: 61ff 04ba 550f 52b9 f01a eeb9 75a2 4938
000002e0: 2f6c 6338 7cb3 81b9 017f 0bba 01f4 ccb8
000002f0: 8fc3 40ba 22de 13ba 7011 1eac d8c9 7b37
00000300: de2e 153a fdf8 bc39 03dc 2bb9 6ef5 f038
00000310: ae4d f438 37d2 3739 76f3 d739 bf4a f438
00000320: 814a 273a ac9b 0080 65de a406 0613 bc38
00000330: 05b3 0838 8183 77b8 c7d7 d239 3c86 493a
00000340: 17de 30b8 d53f d438 7581 ad39 5033 d1b8
00000350: 229b 0339 9c22 d738 0c8e e739 92fd c2b8
00000360: b1b6 56b7 da83 d3b9 b71a 0fb9 6e4c 8138
00000370: 54a5 6639 1d18 223a 9b6f 55b9 2cc2 93b8
00000380: 6e7b 46b6 22e8 03ba f698 053a bb77 3cb9
00000390: cf0f 8234 8728 0738 e616 ef39 b94c cd39
000003a0: 7bf2 8939 6904 3082 34dd 8a20 9453 61b9
000003b0: 6c13 da37 d170 7739 75fb 71b9 beb8 7e38
000003c0: 357b cb36 94b5 55b9 b220 90b9 65aa 2939
000003d0: c6a2 ab39 febc 4239 770a 7637 d1a8 d237
000003e0: de43 4338 910b 203a 3d0d 8938 c67e 3f38
000003f0: d493 a539 e069 2338 d63d 9f39 948c 6238
-1.1625294e-10 -4.527833e-17 -3.0674077e-10 -1.4810098e-11 2.0604159e-17 -1.4284476e-25 -8.9764654e-11 2.3705116e-13
-1.0453695e-11 -6.083644e-19 -5.1986014e-14 -4.65866e-22 -2.2696182e-11 -1.9480004e-09 4.927304e-09 -1.614645e-09
-1.5439663e-26 -4.944594e-12 -6.10332e-11 1.4503995e-24 -1.11530736e-10 -4.707985e-12 -1.483256e-10 1.9230418e-19
-8.075186e-23 -2.3121431e-09 -1.8041488e-11 -5.6460675e-16 -1.18385406e-11 -3.206127e-09 -1.9193943e-21 -5.3809482e-14
0.0008984796 0.0008109149 0.00065642846 -1.1264642e-05 4.3028604e-06 0.00027403285 0.00114688 0.00022605016
0.0013021942 -7.916881e-12 2.438658e-36 0.0002452368 -0.00054544135 -0.00026994175 -3.608972e-05 0.0004086903
9.12709e-05 0.00024567792 0.0013672257 7.091571e-15 0.00023577652 0.000107695814 0.000544606 -4.1146765e-12
-1.1871605e-36 -0.0007366433 0.00053673255 6.500419e-05 0.0006663519 0.0006308761 6.971782e-35 4.308166e-28
-0.00043981493 -0.00039961084 0.00017665444 -0.00015685908 8.446703e-05 -0.00012308244 -0.00038589264 -4.3264743e-05
-0.0007177082 -4.089826e-27 3.951996e-30 -0.0001059492 0.00042001464 0.00059800467 0.0003187512 -0.00022816028
-1.2128367e-05 -9.699588e-05 -0.0006272394 -3.322359e-08 0.00018763468 -0.0001565917 -6.403113e-05 5.559986e-05
8.029092e-05 0.0009894785 0.00017824933 -7.467958e-05 -0.00014513345 -1.9592107e-05 1.2388012e-38 6.581709e-06
-0.0005863319 -0.0011802873 -0.00039710687 -0.00022724166 4.3241e-41 0.00012140615 0.00016130858 0.00016458078
0.00014042972 -1.1974263e-33 3.9205906e-14 -0.00069224153 1.4652155e-12 0.00012158174 5.501657e-24 0.00071407197
3.690615e-06 -0.00072537526 -0.0010512975 -7.3332557e-31 0.0003670163 -0.00075622025 0.00040409484 3.7422357e-12
1.86301e-40 0.0004044652 -0.0012237428 -0.00036449346 9.930904e-05 0.0006014951 -2.9387577e-31 -7.353125e-39
0.00022925758 0.00020409666 0.0008291544 -2.6869744e-05 4.2615455e-05 4.727811e-05 0.00044763368 0.00016178975
0.00032129014 3.8103808e-14 2.2568688e-29 5.5298882e-05 0.0001469514 0.00054089923 0.000307913 0.00016355827
6.225036e-05 4.3034634e-05 0.0003825489 4.3190538e-26 0.00039751385 -6.6749955e-05 0.00030175017 3.6132966e-05
2.7654345e-05 0.000724586 0.0006732286 -1.509421e-05 0.0003608309 0.000407984 -2.2625821e-35 1.9703823e-06
-0.0009320611 -0.00040880495 -0.00095671846 2.6496764e-05 3.4545683e-05 -0.00026033894 -0.0011393161 -0.0003626081
-0.0012362425 1.5817521e-12 1.631571e-39 -0.00013520445 2.8426015e-07 -0.00026434357 2.0177788e-05 -0.0006057893
-2.798853e-05 -0.00013134406 -0.0010473207 -2.1389057e-37 -0.0005073455 -0.00020032872 -0.00045414967 4.8073434e-05
5.422177e-05 -0.00024738524 -0.0005321354 -9.772927e-05 -0.0007353359 -0.00056407053 -2.246283e-12 1.5007761e-05
0.00056908827 0.00036043665 -0.00016389792 0.00011489807 0.000116492956 0.00017530551 0.00041189388 0.00011648749
0.00063816464 -5.5845e-41 6.2016723e-35 8.968082e-05 3.259165e-05 -5.901186e-05 0.00040215088 0.0007687544
-4.2168507e-05 0.000101208374 0.00033093584 -9.975454e-05 0.00012550925 0.000102584454 0.00044165587 -9.297872e-05
-1.279793e-05 -0.00040343293 -0.00013647495 6.1654355e-05 0.00021996099 0.0006183403 -0.00020354839 -7.0456736e-05
-2.9576145e-06 -0.0005031844 0.00050963403 -0.0001797368 2.422589e-07 3.2224252e-05 0.00045602693 0.0003915781
0.00026311338 -1.2931704e-37 2.352449e-19 -0.00021488807 2.599667e-05 0.00023597783 -0.00023077226 6.0730374e-05
6.0642146e-06 -0.00020380906 -0.0002749018 0.00016180573 0.00032736937 0.00018571687 1.4665179e-05 2.5112562e-05
4.655483e-05 0.0006105239 6.535135e-05 4.5656016e-05 0.00031581393 3.8960832e-05 0.00030372915 5.4013522e-05

exp_avg_sq f4 [32, 32]
00000000: a881 a52c 1797 9f2b 6e94 b52c e9ef 972c
00000010: b911 a22b 1775 2d2a 1db9 b42c f5ca 5b2c
00000020: 0414 7b2c fff2 ca2b eeb7 462c 097d 522b
00000030: c6a4 802c f14f 272d 201b a02d d1d2 932d
00000040: e3dc 272a a6c5 852c 0708 8a2c c793 8a2a
00000050: dc04 b92c 719b 652c 23f5 ff2c fe85 882b
00000060: 8c6e 122b 0c40 122d c74d 6a2c 1ac5 c72b
00000070: a038 752c 09ce 842d 6f06 242b 8f8d 1f2c
00000080: 38b8 7438 fd05 3f38 101a d138 524d 9636
00000090: 5a4e 572f d9dc 0b35 329d 8138 27cc dd36
000000a0: 6d5a 9838 4bb7 a22c dbad de29 9d3b f934
000000b0: 3be8 5835 98f4 1137 0a1d 6933 dfc4 5d37
000000c0: f733 9b32 842b 0435 d89e e538 9555 2a2c
000000d0: 6901 2a37 09a8 1637 12a8 cc36 d0b6 912c
000000e0: 2346 9b28 9219 2d38 1a1c de38 4778 8f35
000000f0: 350d db37 58fc 1a37 3361 242a 79f5 442b
00000100: 8b21 0338 7de8 0e37 7eef 3938 c3e9 7835
00000110: 410a 1735 b0b3 0c36 9e4b 5638 ced5 1d37
00000120: e211 8138 4a85 532b bcac 202b 2c55 d133
00000130: 52d3 4236 9235 8337 fe48 b936 8b72 1c38
00000140: 9e28 d134 1283 d633 219d fe37 9b6d cf2d
00000150: 52b8 7037 5234 1236 4605 7e37 99f5 c433
00000160: ff3c cc33 efa4 2c38 3257 fc37 3ac5 6034
00000170: fa75 aa37 44df ec37 b160 cf28 5f2a f531
00000180: c64d 6939 38c9 4d39 d799 8b39 00f5 3f37
00000190: 1e4d 4f24 f646 9134 8310 3b39 5ce4 5837
000001a0: 4a80 6039 bce4 722a bb31 422c 057a 5836
000001b0: feaa 992c 8021 db35 644f 902b f088 1c37
000001c0: 1e1c 5b2f a018 6c36 9a18 dd39 2c07 f22a
000001d0: fa99 8337 6392 3e38 386f c736 4b6e 952c
000001e0: 03d7 6528 4005 e337 417d a839 4813 d436
000001f0: 7943 9938 3d26 c636 93e6 e62a 4e65 1729
00000200: 256d 7337 c1f9 6936 c92c a737 8c37 cc34
00000210: 8e92 6d34 3a3f 8f35 5680 cc37 1785 9836
00000220: 495b f637 43bf 412c 23b1 322b 1d68 1533
00000230: 936d ae35 e490 f136 3f2c 2136 def3 9837
00000240: a40f 4c34 52a2 1a33 c4b4 5537 59e5 6e2b
00000250: 0199 ec36 7c92 7335 6acb f836 0a08 4e33
00000260: f487 9b32 fd80 9a37 4c41 5537 11d0 b733
00000270: 6da7 2337 6e88 6837 1da9 082a 77dc 1431
00000280: abd5 3538 2ced 5437 011c 0138 be95 4135
00000290: a055 0635 bbb5 1d36 adb1 7e38 4aa3 3537
000002a0: 5162 9e38 ff43 882c 5d68 5528 7060 3e34
000002b0: b6a1 f32e 5c7c a735 4207 df35 17d6 2138
000002c0: 8f7c d634 229d 4734 456a 3338 27b7 8229
000002d0: ff05 3d37 d54d 8036 0e06 7d37 3c7a d033
000002e0: baba 6233 4a5d 2536 3445 b737 216e d234
000002f0: 2762 c037 6ee9 e537 1162 8d2c c425 bb31
00000300: 8569 d937 71f8 ef36 c75e 1e38 e923 4c35
00000310: 2596 0d36 cfd3 1036 9445 7c38 654f 4637
00000320: b910 9138 3f10 2227 2832 312a e32d a433
00000330: ba0a 3d36 f0c4 dd37 92c9 fd37 04c7 a638
00000340: 36e9 ac34 c01a ae33 fe14 c837 0336 8433
00000350: 089a d137 e8f3 e235 a699 0338 601e 0a34
00000360: 6f89 4135 0ce8 1d38 ad2a bc37 f847 3934
00000370: 79ba cd37 90ad 8738 d77e 4934 b7f8 8d33
00000380: f59c c137 04ab fe37 dc27 c538 6f5c 6f36
00000390: c044 d335 fd5a 3634 becb 6a38 147a fb36
000003a0: cb33 6d38 acce 8e29 277f c32b f080 cf34
000003b0: 7d8f bf36 5ce8 6138 7acb 6038 3917 b738
000003c0: 85e3 c32e eef6 d534 d219 8538 f27d 0434
000003d0: 181f 1238 dfb1 8f36 587a 1738 bcc5 6131
000003e0: 9cb3 3c35 b751 be38 37d8 b838 a731 1235
000003f0: f5a6 e137 e64b a438 d145 c734 85a3 1333
4.703977e-12 1.1339565e-12 5.1608084e-12 4.3183135e-12 1.1515711e-12 1.540611e-13 5.1364594e-12 3.1234436e-12
3.5680356e-12 1.4420408e-12 2.8239594e-12 7.478051e-13 3.6562723e-12 9.5106015e-12 1.820194e-11 1.6805586e-11
1.4909215e-13 3.8020307e-12 3.923087e-12 2.4616266e-13 5.2585557e-12 3.2629145e-12 7.2747515e-12 9.700572e-13
5.2023034e-13 8.31336e-12 3.3296575e-12 1.4194507e-12 3.4848027e-12 1.509816e-11 5.8273433e-13 2.267384e-12
5.83457e-05 4.5543526e-05 9.970751e-05 4.4793496e-06 1.9581972e-10 5.210291e-07 6.180479e-05 6.6100797e-06
7.264768e-05 4.6246665e-12 9.8889396e-14 4.642324e-07 8.080421e-07 8.699622e-06 5.427595e-08 1.3218464e-05
1.8068006e-08 4.9237156e-07 0.00010949158 2.420596e-12 1.0133118e-05 8.97982e-06 6.0992397e-06 4.141444e-12
1.7238874e-14 4.127023e-05 0.00010591019 1.0689336e-06 2.6112984e-05 9.237869e-06 1.4599849e-13 6.997385e-13
3.1264073e-05 8.51799e-06 4.433048e-05 9.272737e-07 5.6266805e-07 2.0966218e-06 5.1092e-05 9.4077095e-06
6.15453e-05 7.5147234e-13 5.7083136e-13 9.7478136e-08 2.9031257e-06 1.5641363e-05 5.521927e-06 3.7299975e-05
3.8958837e-07 9.988993e-08 3.0352328e-05 2.358185e-11 1.434803e-05 2.178615e-06 1.5140808e-05 9.171635e-08
9.5105854e-08 4.1161602e-05 3.0081344e-05 2.0933376e-07 2.0320516e-05 2.8237358e-05 2.302355e-14 7.1352555e-09
0.00022249584 0.00019625283 0.00026626766 1.1441531e-05 4.495129e-17 2.7059986e-07 0.00017839861 1.2927772e-05
0.00021410096 2.1573276e-13 2.7596664e-12 3.2257533e-06 4.3675055e-12 1.6326521e-06 1.0253851e-12 9.330208e-06
1.9927923e-10 3.5181074e-06 0.00042170734 4.2992812e-13 1.5688118e-05 4.5435863e-05 5.9436097e-06 4.2470797e-12
1.2758677e-14 2.7062953e-05 0.00032136778 6.320337e-06 7.308176e-05 5.9053114e-06 4.10162e-13 3.3616603e-14
1.4509341e-05 3.4865081e-06 1.9928806e-05 3.8038377e-07 2.2125661e-07 1.0672732e-06 2.4378456e-05 4.5454467e-06
2.9367993e-05 2.7533121e-12 6.348413e-13 3.4786456e-08 1.29959e-06 7.199227e-06 2.4016624e-06 1.8233372e-05
1.900467e-07 3.600355e-08 1.2737877e-05 8.487287e-13 7.05116e-06 9.0737717e-07 7.4146565e-06 4.7970424e-08
1.81062e-08 1.8418295e-05 1.2710992e-05 8.5594486e-08 9.754539e-06 1.3860043e-05 1.21379e-13 2.1662154e-09
4.3352757e-05 1.2691406e-05 3.0782077e-05 7.2116006e-07 5.004349e-07 2.3500604e-06 6.0723793e-05 1.0826459e-05
7.55234e-05 3.8729016e-12 1.1846505e-14 1.7730213e-07 1.1079086e-10 1.2478663e-06 1.6616907e-06 3.8584778e-05
3.9951234e-07 1.8590484e-07 4.2775897e-05 5.8049316e-14 1.1266674e-05 3.823758e-06 1.5081385e-05 9.707989e-08
5.2789552e-08 2.4641217e-06 2.1847525e-05 3.9195677e-07 2.293389e-05 2.7407626e-05 4.0183486e-12 5.4467097e-09
2.5917552e-05 7.1516774e-06 3.7758404e-05 7.604818e-07 2.1098033e-06 2.158096e-06 6.014628e-05 1.1820205e-05
6.9172536e-05 2.2490823e-15 1.573816e-13 7.645192e-08 2.8169438e-06 2.643696e-05 3.0253814e-05 7.9525664e-05
3.220718e-07 8.107372e-08 2.3851633e-05 6.156554e-08 2.4986468e-05 1.6909298e-06 3.137593e-05 1.2863302e-07
7.2098095e-07 3.7647827e-05 2.2431219e-05 1.725565e-07 2.4524737e-05 6.46963e-05 1.8765728e-07 6.611065e-08
2.3080482e-05 3.0358795e-05 9.4011164e-05 3.5667579e-06 1.5740734e-06 1.6983172e-07 5.5979697e-05 7.4945947e-06
5.655344e-05 6.3419186e-14 1.3890875e-12 3.865057e-07 5.708948e-06 5.3860582e-05 5.3595264e-05 8.7304456e-05
8.907989e-11 3.9854007e-07 6.3467436e-05 1.2339277e-07 3.483807e-05 4.282439e-06 3.6115147e-05 3.2854208e-09
7.0296824e-07 9.0751266e-05 8.814077e-05 5.446149e-07 2.6899836e-05 7.8342666e-05 3.7117437e-07 3.4374825e-08

exp_avg f4 [32]
00000000: 2c3c 80b2 8298 673a 9ed5 a339 6733 34b8
00000010: ac6c 9d3a 5762 c1ba 94e1 5bb7 70ec 573a
00000020: 2b3d e039 c9bb 98b9 e502 62ac ea8e c5ba
00000030: c883 1dba 62d0 62b7 2c8b b9b9 91eb 15b7
00000040: 7afd 263a 93d0 82b9 fa4e 55b7 7055 3fba
00000050: e135 3439 f03f 65b8 a3de ddb9 1e0d 1fac
00000060: a0de d7b8 98fc 19ba 2dba d5b9 1b63 26b0
00000070: 52ba 03bb 590c f6b9 643a dfb9 50f1 1db9
-1.4928524e-08 0.0008834676 0.0003124894 -4.2963216e-05 0.0012010536 -0.0014754039 -1.3105939e-05 0.0008236831
0.00042770183 -0.0002913161 -3.2118138e-12 -0.0015072499 -0.00060087116 -1.3519168e-05 -0.0003538964 -8.935939e-06
0.00063701684 -0.00024950932 -1.27141775e-05 -0.0007298803 0.00017186209 -5.46574e-05 -0.00042318282 -2.260254e-12
-0.00010293466 -0.0005874126 -0.00040765238 -6.0531286e-10 -0.002010007 -0.00046929976 -0.0004257738 -0.00015062583

exp_avg_sq f4 [32]
00000000: c7bf 922d c324 2e39 66d7 d038 9081 d539
00000010: 00ed 4138 03a9 9838 d9a0 e038 a059 5339
00000020: cf56 0b38 5d3d 8039 20f1 922c d4ec 8639
00000030: d5c5 5539 e71e 2b32 6894 a538 8726 0134
00000040: 23bb ae38 330b 1e39 65a9 3233 5d33 4739
00000050: 780d 1a38 d56e 4234 63c5 3038 2cfc 872c
00000060: 10b2 0339 a1df ba37 9624 c239 a1e3 7b2c
00000070: 2299 c338 04eb 0939 5b70 9339 f1a9 6a38
1.6683445e-11 0.00016607628 9.958334e-05 0.00040723057 4.623551e-05 7.279406e-05 0.000107111126 0.00020155916
3.322103e-05 0.00024459782 4.17634e-12 0.00025734922 0.00020386961 9.960536e-09 7.895456e-05 1.2028077e-07
8.3318235e-05 0.00015072226 4.1597918e-08 0.00018997253 3.6729005e-05 1.8107978e-07 4.21455e-05 3.8649275e-12
0.00012559467 2.2277063e-05 0.00037029822 3.5795605e-12 9.326848e-05 0.00013152888 0.00028121736 5.5948218e-05

exp_avg f4 [32, 32]
00000000: 1b1d 5d25 4121 aab9 12c5 f7b9 3b1d cdb9
00000010: 5eaf 07ba 9f9a a5b9 d990 4439 dd22 05b9
00000020: 3039 06ba 1e18 4db9 d5ee b226 a483 4a39
00000030: be81 0037 45a9 fa33 a5a5 9cb8 c4f5 85b4
00000040: 112b 0aba 06e9 0fb9 1dc0 9034 4dd8 e3b9
00000050: c1c7 40b9 67a0 6b36 9950 b538 cf75 8f27
00000060: 056e 6738 87d5 b4b9 f84f cfb9 26e5 8220
00000070: 7d8b bc39 220f deb9 0a45 5c39 8c6a 8839
00000080: 008e 1f25 e8b5 80b9 89ab adb9 478b 90b9
00000090: 2d58 c8b9 31ae 68b9 5c8e f638 296d 2cb9
000000a0: 54fb bab9 ba00 ffb9 f9de 87a6 a433 2539
000000b0: 4911 a5b7 9607 efaa 9455 0cb9 37f8 93b5
000000c0: 2187 c4b9 8501 b1b9 64f0 85b3 c7a1 ceb9
000000d0: 2bb4 aeb9 4faa 9a35 b981 06ba f64b c226
000000e0: f764 0437 4f73 06b9 acfe 90b9 ed94 b82e
000000f0: db87 af39 1f93 c0b9 eb0f 13b6 7b4d 1838
00000100: aea5 7225 8388 deb2 0364 6136 04b9 b7b0
00000110: ebcb 5aac cad9 fa34 9d7d 9335 28de 80af
00000120: d183 0536 6612 14b1 b1f8 c629 bb41 ff35
00000130: c67c f530 b57f f9ae 5521 aa35 9664 7100
00000140: eabf 1035 fb71 b635 7644 f535 2fd5 2fb5
00000150: 3329 7084 cea7 0134 5e4d 6833 772a f327
00000160: bb45 8db6 6377 23b5 063c 8d00 48a2 5104
00000170: dab2 6435 f7f8 f732 9fbd 88ab a979 bab4
00000180: a7f7 9e2f 5b4f c1b9 2eae 09ba 9bb2 f6b9
00000190: 66f6 1eba 96db c2b9 963c 4639 641c 8bb9
000001a0: 9cc8 19ba 6a69 41ba e1e4 7781 e223 8839
000001b0: 2b98 17b7 6fb1 0336 7be3 63b9 bbb8 31b7
000001c0: 4aa0 13ba d2d6 05ba a7e4 a3b6 6d5e 27ba
000001d0: dc37 07ba e2e9 61b6 0354 56ba 31dd 9427
000001e0: 8cf5 26b7 49c8 5fb9 064e fbb9 f663 012f
000001f0: cf54 0b3a 8046 1bba 3d7e 9a37 7fde 2038
00000200: 80b1 8faa 25af e0b6 938b 48b7 7dc1 b993
00000210: a7af 68b7 d96d 8238 0713 64b9 37ee a1b8
00000220: 4392 cab7 23bd 9139 7571 1c2c ef47 85b9
00000230: a990 85b8 4a31 3ab4 a249 b1b8 4aa2 3737
00000240: e91e 4a36 fc26 af38 fb36 b634 9af3 1239
00000250: 5d10 2139 9fbd 0480 97ce d839 93f3 0b8b
00000260: 50ac 89b9 7282 e8b8 4653 7638 a64d f9ae
00000270: 042a 8cb9 0cf2 9238 fffe bfb6 382e 32b9
00000280: 11bf fd2e ce8c 32ba a778 83ba ca2e 64ba
00000290: 9191 96ba 451b 3fba 10dc 8339 bb19 b7b9
000002a0: 1ce4 93ba df77 15ba c855 0200 7bc1 9539
000002b0: 1a6d 58b9 2414 a7b6 9e26 0bba e612 4337
000002c0: f45a 96ba 47ce 04ba b62d a1b6 33b3 8cba
000002d0: 165d d1b9 6d48 b236 0388 97b9 0a41 2028
000002e0: 0c10 44b9 420b 78ba b808 62ba cde3 9a2b
000002f0: b524 373a 96f1 7eba 52f8 b139 9e40 8139
00000300: feb9 b91e e199 a7b6 9903 51b7 32c8 e486
00000310: eb13 53b7 7649 8238 9f7d 80b9 26f1 abb8
00000320: 3044 b1b7 fcad a239 c99d 9e22 1eb8 97b9
00000330: cfcb c4b8 e5e8 5432 f0ea cfb8 b917 a7b5
00000340: 57fe c137 65bc dc38 b982 b6af d83f 1d39
00000350: afa6 3e39 2d5d 44aa 2220 e439 894d 3fa4
00000360: b845 8ab9 4de8 e0b8 7513 c637 9100 6baf
00000370: 8667 abb9 a7b6 9a38 bec0 1db7 8210 4cb9
00000380: 0701 bf2c 7409 0080 04a8 3b26 3314 0599
00000390: d175 0724 e597 04ad beb9 9128 3efc 8ba9
000003a0: 55e4 cd2a 5552 0000 e5a6 8baa 223a 1c84
000003b0: 15ee df01 ad12 dbaa 2ddb b507 06dd 0200
000003c0: 8b30 cc26 c20c 0e86 a02d 1317 e29f 0500
000003d0: dc1f 0000 a06b 8a80 d2bb b79e b71b d4a8
000003e0: 7510 1b06 0b0c b0ab 11a7 dd0d 255f 0000
000003f0: 33de 019f d54a dd89 01f3 ff80 c632 0000
1.9178556e-16 -0.00032449703 -0.0004725834 -0.00039122425 -0.0005175973 -0.00031586454 0.00018745977 -0.00012696856
-0.0005120216 -0.00019559308 1.2415967e-15 0.00019313261 7.6596025e-06 1.1672322e-07 -7.4695134e-05 -2.4951999e-07
-0.00052706996 -0.0001372435 2.696187e-07 -0.0004345797 -0.00018384961 3.5111095e-06 8.645765e-05 3.98182e-15
5.5177155e-05 -0.00034491366 -0.00039541698 2.2174494e-19 0.0003596208 -0.00042354414 0.00021006554 0.00026019325
1.3839163e-16 -0.00024549593 -0.00033124935 -0.0002756959 -0.0003821267 -0.00022190135 0.000117567106 -0.00016443864
-0.0003566394 -0.00048637931 -9.427944e-16 0.00015754864 -1.9677582e-05 -4.2460192e-13 -0.00013383321 -1.1024594e-06
-0.00037484712 -0.00033761203 -6.237022e-08 -0.00039411915 -0.00033322102 1.152346e-06 -0.00051310245 1.3482043e-15
7.891321e-06 -0.00012822192 -0.00027655566 8.393806e-11 0.0003347982 -0.00036730708 -2.1913972e-06 3.6311783e-05
2.1046289e-16 -2.590628e-08 3.3585827e-06 -1.3367587e-09 -3.109286e-12 4.672459e-07 1.0988912e-06 -2.3440916e-10
1.9895272e-06 -2.1547293e-09 8.8361074e-14 1.9018111e-06 1.7861559e-09 -1.13458944e-10 1.2675688e-06 1.0413495e-38
5.392345e-07 1.3593229e-06 1.8273847e-06 -6.5502803e-07 -2.8230782e-36 1.2075108e-07 5.4087074e-08 6.749209e-15
-4.210245e-06 -6.089596e-07 1.2970337e-38 2.4642348e-36 8.519688e-07 2.88678e-08 -9.716012e-13 -3.473372e-07
2.8916e-10 -0.00036870953 -0.000525209 -0.00047053848 -0.0006063938 -0.00037166168 0.00018905321 -0.000265333
-0.000586638 -0.00073780736 -4.5530948e-38 0.00025966676 -9.035731e-06 1.96238e-06 -0.0002173315 -1.0593033e-05
-0.000563149 -0.0005105558 -4.884397e-06 -0.0006384615 -0.0005158165 -3.366375e-06 -0.0008175971 4.131807e-15
-9.951542e-06 -0.0002134155 -0.00047932583 1.1767995e-10 0.00053150667 -0.0005923286 1.8417015e-05 3.835419e-05
-2.5525068e-13 -6.6961097e-06 -1.1953426e-05 -4.689136e-27 -1.3869175e-05 6.219344e-05 -0.00021750863 -7.721449e-05
-2.4148385e-05 0.00027797473 2.2231915e-12 -0.00025421332 -6.368879e-05 -1.7340531e-07 -8.453733e-05 1.0945436e-05
3.0118338e-06 8.351912e-05 3.3940145e-07 0.00014014394 0.00015360252 -4.35365e-40 0.00041352652 -2.695367e-32
-0.0002625906 -0.000110869194 5.8728525e-05 -1.1337002e-10 -0.00026734185 7.006907e-05 -5.721929e-06 -0.0001699262
1.1539048e-10 -0.00068111427 -0.0010030464 -0.0008704482 -0.0011487474 -0.0007290135 0.00025150226 -0.0003492365
-0.0011283192 -0.0005701761 2.14444e-40 0.0002856365 -0.00020640009 -4.9793325e-06 -0.00053081836 1.1627306e-05
-0.0011471198 -0.0005066138 -4.8034954e-06 -0.0010734558 -0.0003993294 5.313245e-06 -0.000289023 8.895887e-15
-0.00018697995 -0.0009462127 -0.0008622515 1.1005586e-12 0.0006986366 -0.000972533 0.00033945084 0.0002465294
1.9664561e-20 -4.9949017e-06 -1.2458208e-05 -8.605823e-35 -1.2581218e-05 6.212566e-05 -0.00024507658 -8.198833e-05
-2.1131797e-05 0.00031028676 4.2993047e-18 -0.00028938142 -9.3839706e-05 1.2392978e-08 -9.91429e-05 -1.2449374e-06
2.312583e-05 0.00010525509 -3.319849e-10 0.0001499647 0.00018181906 -1.7440624e-13 0.0004351149 -4.1482198e-17
-0.00026373356 -0.00010724422 2.36125e-05 -2.1373327e-10 -0.00032692793 7.377314e-05 -9.4028055e-06 -0.00019461106
5.4286606e-12 -3.391e-42 6.510636e-16 -6.880018e-24 2.9373253e-17 -7.537059e-12 1.6178787e-14 -6.216597e-14
3.6573752e-13 2.9535e-41 -2.4807166e-13 -1.8364405e-36 8.2258894e-38 -3.8915174e-13 2.7362673e-34 2.62959e-40
1.4168501e-15 -2.6716605e-35 4.755585e-25 5.16533e-40 1.1429e-41 -1.2711907e-38 -1.945356e-20 -2.3548748e-14
2.916435e-35 -1.2508895e-12 1.3660396e-30 3.4131e-41 -2.750061e-20 -5.3274186e-33 -2.3505225e-38 1.8214e-41
